savedModel/allen_cahn_tanh_sin/ParticleWNN_1/trained_model_final.pth (torch, 249111 bytes, 10 tensors)

fc_in.weight f8 [100, 2]
-0.02466282674626911 -0.6118304800640194 0.3415753312182124 -0.007360221296561117 -0.3339314446631172 -0.08848477618861617 0.25129055904807535 -0.2244461345857703
-0.42545130348766086 0.2884803389317045 0.5680646396429092 -0.4702613512420537 0.02610573608607187 0.5477294915456867 -0.33662408124348 -0.04162909754476597
-0.365426803242571 0.042051501584282454 0.08616649952790502 0.001158350796248199 -0.44241714582650016 0.641462093152437 0.21767408270751704 -0.05053179159972378
-0.3631256275016529 0.0723829984199478 -0.1414873755556308 0.0357046667843519 -0.11931251217312115 0.1305711561682039 -0.23237288712655454 0.12293548261500578
-0.045562822683603246 0.366798038661638 0.16126167016598422 -0.27157140126369195 -0.009545308292044388 -0.23338614307957245 -0.19469419333176433 0.4415732617000647
0.22865152933805374 0.5978816001992523 0.30819754519237297 0.0256241781220096 -0.21767180207705267 0.577829154203812 -0.19238456928585415 -0.10600114031291534
0.5181473847987437 -0.24090861909684025 -0.1615127488460555 -0.13408128565248661 0.5694333617768174 -0.1562621804626982 -0.1048764994919247 0.49199446318830375
0.2732757402006399 -0.4126004280083826 -0.3659072551713677 0.5469962354069166 -0.6052443119814269 0.3214052766691418 -0.051796143761014005 0.01757607165698635
-0.3058500212213263 0.5482955833288636 -0.23824258339918425 0.5224223475251362 -0.32935290817950963 -0.6099708801449206 0.31770937161759566 0.40700758506399465
0.6499444396979879 -0.34722392102844957 -0.47375412844280745 0.2923355694436481 0.47093402460271766 0.6095148597617708 0.029938476909500952 0.014711209623169574
-0.2360931444355196 0.4619785852993207 -0.31905057131973813 -0.5879131692774769 0.5103013833860623 -0.1617415592366541 0.3912532244205121 0.14829948536239693
-0.20373863889129665 0.4658607474829354 0.25659939596540315 0.038704683780817484 -0.5592142967019353 0.3379662284110625 0.5393646532159245 0.5035578517138187
-0.1574705079695337 0.43685859458163284 0.3125174247545129 -0.6233485215867635 -0.05067857143329343 -0.48886018623230204 0.5447665921435692 0.26285839005330164
-0.3690643076948569 0.6254267379283621 0.17263741922860132 -0.045722673617412314 0.4860724758221651 -0.364118178434395 -0.44131772545799547 -0.6063712521006329
0.23487051090319302 0.24878967353000972 0.20662746376405233 -0.026050773549960216 0.23540921745943705 0.1586871124787848 0.2912930154031299 -0.505698025905119
0.2402241325143569 0.6017492063963102 -0.3171332140741597 -0.3806509171394971 -0.2651266693925317 0.02053630541223885 0.0016389947451156954 -0.09859182928018448
-0.6447130801314753 0.39542715911986787 -0.6267205683318632 0.06972666454422868 -0.395530688695791 0.4943095202941341 -0.3622470227295635 0.12122012577004071
-0.07625710004732876 0.46216807660047227 0.16893063030080205 0.20286931922086296 -0.3496638722754957 0.17865878312954656 0.009395360437838639 -0.4869991490510367
-0.2867417497782389 0.12920387621724128 0.4463830805189925 -0.16298274936801832 -0.6076594565835298 -0.6048511553054468 0.02593646823250391 -0.22073914876552483
-0.5379147372184935 0.013786681326895053 0.36257536289283443 0.08490701642679216 0.7044253542082936 0.0891227507080386 0.021137645821405295 -0.6322111815727938
-0.5492412682925117 0.1274897975245593 -0.5739586294361426 0.3912574331787164 0.4033640466404015 -0.3779385190803139 0.4055066754524792 0.45187969455829285
-0.25909109694834903 -0.07087891886665566 0.12621149448250932 0.5941737724352261 -0.40121903344553983 -0.16155350979114205 -0.5700171735127748 0.590531432634815
0.15448884874233243 -0.3561117694218828 0.026179001498441344 0.06988826389310683 -0.4152108837140704 -0.4945841392030604 0.6490671644756746 0.35465724801370685
0.5432809027695481 -0.2300115312139696 0.3259339248836407 -0.28897490138243714 0.1700030459809232 -0.26715155269693946 0.13951951868452228 0.08837298597695892
0.2825480554399351 0.10313031410485331 -0.5422724800107366 -0.08289925995671651 0.11607001887182289 0.010294698052424988 0.23999936574438369 0.3300149743485074
00000000: 2b64 3549 3641 99bf 2b45 d283 1d94 e3bf
00000010: 3cf7 2cc7 5edc d53f 092d 295c c025 7ebf
00000020: a8c8 7bfe 215f d5bf 588a ec33 f0a6 b6bf
00000030: 2fec 39ff 2415 d03f 3b37 e1a3 a6ba ccbf
00000040: e548 a11a 983a dbbf eb0a 503d 7676 d23f
00000050: 62f8 28e5 952d e23f ac12 0a11 c318 debf
00000060: 7226 e94a 76bb 9a3f 34ca a7ff ff86 e13f
00000070: a027 ffba 3f8b d5bf 4295 08b9 6850 a5bf
00000080: 098e 401a 2763 d7bf 09b8 1a40 c687 a53f
00000090: d1af 7bf9 010f b63f d32e 61b2 79fa 523f
000000a0: 42ed 2001 9050 dcbf 5bd4 f682 db86 e43f
000000b0: e231 358d bedc cb3f f27f a890 4ddf a9bf
000000c0: 8661 9d45 733d d7bf 4206 0033 b187 b23f
000000d0: 8276 6721 421c c2bf 5e86 4ed0 e147 a23f
000000e0: 2383 c9c9 438b bebf 4f8c c53e 8eb6 c03f
000000f0: 6bc3 570f 65be cdbf 0274 5925 b378 bf3f
00000100: f2d5 ada2 0254 a7bf b779 127b 9e79 d73f
00000110: f309 bbef 38a4 c43f 7a36 bd03 6d61 d1bf
00000120: ce79 8e97 7d8c 83bf 3ee4 eedd 98df cdbf
00000130: 295f 8a44 bdeb c8bf 888c 727f bc42 dc3f
00000140: 47fa 570c 7444 cd3f c98c f797 d821 e33f
00000150: 22c2 5332 82b9 d33f 6a69 157c 393d 9a3f
00000160: 7656 976b abdc cbbf 0162 ff90 937d e23f
00000170: b13c abbc 0ea0 c8bf d390 fb06 e422 bbbf
00000180: 36fe 06d3 a994 e03f b437 2cf8 17d6 cebf
00000190: c026 1723 73ac c4bf 3e08 7158 9329 c1bf
000001a0: 07a6 4250 cc38 e23f 272f 582d 6600 c4bf
000001b0: a1d0 6faf 2fd9 babf e03c 4d58 d67c df3f
000001c0: 99ec bc87 597d d13f 8c24 27a0 0b68 dabf
000001d0: 3221 9543 066b d7bf 4b73 c33f fe80 e13f
000001e0: a59b c151 295e e3bf 2992 0370 e791 d43f
000001f0: 6a62 062f 0685 aabf 37ec d533 76ff 913f
00000200: 9e18 a8f7 0b93 d3bf ee09 de2d a38b e13f
00000210: f465 1ba4 bb7e cebf 7e3d 2a12 afb7 e03f
00000220: 934d 5e38 1e14 d5bf 3c83 b7a6 e184 e3bf
00000230: f9bc 2eb0 5955 d43f 0fb9 c48a 690c da3f
00000240: 7009 1748 58cc e43f 6030 4dae ea38 d6bf
00000250: 1770 00d6 fc51 debf cdf3 8d3f a0b5 d23f
00000260: 5d82 8f76 c823 de3f 664a a34e 2581 e33f
00000270: 2c99 df2c 31a8 9e3f e099 ba21 e920 8e3f
00000280: b686 14d7 4c38 cebf 0607 d4a0 0e91 dd3f
00000290: 32a8 6516 536b d4bf 39e7 5d47 2fd0 e2bf
000002a0: eee4 1791 6354 e03f 33a9 a989 f2b3 c4bf
000002b0: 2dcd d5f6 4a0a d93f 7993 d23f 7afb c23f
000002c0: 3d1e 7c93 1b14 cabf 027a bb98 a9d0 dd3f
000002d0: 9010 76df 1f6c d03f d0cd 14ae 19d1 a33f
000002e0: 644b 7961 15e5 e1bf 0464 8b1a 3da1 d53f
000002f0: edc8 45a9 7942 e13f e327 185b 251d e03f
00000300: d625 e85c fe27 c4bf c118 2dc0 7df5 db3f
00000310: ad0c b015 4900 d43f 0334 4799 78f2 e3bf
00000320: 2bf7 d3ad 8af2 a9bf 0bca 0b3c 7c49 dfbf
00000330: 52b8 2659 ba6e e13f 6785 30ff abd2 d03f
00000340: 0ee6 eae6 bf9e d7bf e947 2eef 7e03 e43f
00000350: 288b d3a2 fb18 c63f 1db4 be57 f668 a7bf
00000360: b515 c9ba cf1b df3f f44e 1055 b64d d7bf
00000370: 3d2e 7fb3 8c3e dcbf 9f37 20af 6467 e3bf
00000380: 11e0 8fa5 3c10 ce3f 996b b20b 57d8 cf3f
00000390: 4638 a9cb c472 ca3f 80f6 bad1 0dad 9abf
000003a0: 6626 15a5 e321 ce3f 9a4f 32fb db4f c43f
000003b0: 306b ad75 8ba4 d23f 8341 5da0 ad2e e0bf
000003c0: 13f8 6d14 aabf ce3f 25b7 3b8d 8741 e33f
000003d0: e520 bb1b e94b d4bf 739e 13aa 955c d8bf
000003e0: 2aa7 95d9 d5f7 d0bf 6543 8120 7807 953f
000003f0: fd94 0735 71da 5a3f e644 696a 503d b9bf
00000400: cafa 4e53 7da1 e4bf 6bae 17b7 ad4e d93f
00000410: 89e8 164b 180e e4bf 7e6a e04f 9bd9 b13f
00000420: 60d1 20f3 5f50 d9bf bcf1 f065 c4a2 df3f
00000430: 1799 ec22 0e2f d7bf 00a1 cc3b 4808 bf3f
00000440: 0784 cad6 9585 b3bf a745 9069 2994 dd3f
00000450: 59a1 37d6 849f c53f 852b b531 9ff7 c93f
00000460: bd05 0194 e460 d6bf a19f 577f 4ade c63f
00000470: cc66 84ee df3d 833f 76a8 967a fe2a dfbf
00000480: a380 6c11 fa59 d2bf 3c4b 6fab c089 c03f
00000490: 9346 1457 8a91 dc3f d284 2c65 9edc c4bf
000004a0: 5e34 a43e f271 e3bf c082 5fcf f05a e3bf
000004b0: d452 54eb 168f 9a3f 1189 7230 2e41 ccbf
000004c0: c379 8cf7 9836 e1bf 2be8 5a0b 313c 8c3f
000004d0: 8e71 7d4b 6f34 d73f 9c06 c15a 77bc b53f
000004e0: e187 590a a78a e63f c4de 9ea3 bfd0 b63f
000004f0: 9ac8 1166 1ba5 953f 4ea9 a0f1 123b e4bf
00000500: bdc1 9d6c 6293 e1bf ca87 78ef 9551 c03f
00000510: 49ed d57c de5d e2bf 9072 f49d 5c0a d93f
00000520: bef9 2c6f b7d0 d93f cb4f d60a 2530 d8bf
00000530: 8832 5845 d2f3 d93f 75ad 76cf 98eb dc3f
00000540: b7fc 04d3 f294 d0bf 6114 82ee 1e25 b2bf
00000550: b340 97c0 b227 c03f fc01 18b7 7803 e33f
00000560: cf9a cb98 92ad d9bf 39b1 8d10 c9ad c4bf
00000570: c8a9 cca7 943d e2bf 5ca6 cd2c a2e5 e23f
00000580: 0af6 7864 4ac6 c33f bdcf d804 89ca d6bf
00000590: 0668 1c0d abce 9a3f 6d8c cb7f 32e4 b13f
000005a0: 37b1 9fab d092 dabf 51d6 bf3b 44a7 dfbf
000005b0: 4193 8a80 28c5 e43f df86 6050 b4b2 d63f
000005c0: 57f8 bda1 8e62 e13f 3629 2292 0471 cdbf
000005d0: de0e 02f7 19dc d43f 675a b395 907e d2bf
000005e0: 78ae 5ae9 a8c2 c53f a82c 7ad3 0219 d1bf
000005f0: ecab f38c c6db c13f a4f3 9eac 9c9f b63f
00000600: 386d 6a70 4415 d23f 397a 4e8e bf66 ba3f
00000610: 7857 e5d0 4b5a e1bf 666f 60ca e238 b5bf
00000620: c0bf 19c7 c3b6 bd3f 79ac a8fb 6215 853f
00000630: 4e68 7799 4cb8 ce3f 7718 8120 f71e d53f

fc_in.bias f8 [100]
0.009977140516809502 -0.07144260275066196 -0.23960815349698222 0.3595288473033865 -0.3272941419697277 0.2767526179833529 -0.40508411799010025 0.3998114016600362
0.5361715587180241 0.6231798873425067 -0.06988889181284713 -0.1867243073823191 -0.009570999770702554 0.04787090212328501 -0.5991062419068911 0.11532351415233558
0.04794070799582765 -0.5555132110423535 -0.19085083918171208 0.404149588302079 -0.4716399444957282 0.15545838613996538 0.18935875333768418 -0.6154835999599024
0.256575902723048 -0.11240852095719987 -0.6306560838058531 0.10250203557329292 0.05316324425329104 0.5015551854219664 0.47931463438591726 0.4210944496430111
0.1406579591834604 0.4486100016714079 -0.37036791734935265 0.18363080896405143 -0.023168889272072096 -0.2810946047136563 0.3085055910942978 0.5574327594669577
0.451729417507322 0.007783427768024263 -0.5623832914339967 0.449417167462856 0.14873335164859192 0.1426317766569302 -0.4695617426713007 -0.49062642173192017
0.4364841340521305 0.5815812719018532 -0.02701412330772007 -0.1111935234761292 -0.1558561340308955 -0.33513526068329497 0.26523227718907944 -0.4844244347064394
0.5953498845073026 -0.2548529372311866 -0.1667871854923416 -0.10935903467937909 0.37167751692713086 0.16722124020290946 0.17529457304047807 -0.6121386170638465
0.470648821148197 -0.23377017675716436 -0.5759218128535473 -0.09424334736131941 -0.40519278997561436 -0.16966334340266345 0.10241308514200793 -0.0509276463394113
-0.4646568238920334 -0.5490486933237418 -0.06300551581830487 0.20985487078449533 -0.4031039991011002 0.08402026342348204 -0.25702815491440295 0.12558020586712518
0.5341209331811545 0.39441152362169224 -0.1210695617404126 0.1588444366048314 0.34510130921840126 0.5615070083519471 0.5968386274788884 0.10239919945770179
-0.41499861670862437 -0.3637003089565586 0.6155709412780723 0.5790331845141053 -0.11915812305550791 0.5590024991216964 -0.11481582652322332 -0.3907799859067341
0.4932109914127956 -0.22409293562568305 0.5780047964616207 0.1073918499394582
00000000: 2d7f d121 e56e 843f 39ef 5afa 0f4a b2bf
00000010: 2eef 8fdf 7aab cebf 6ebe 4848 8502 d73f
00000020: d0ab fb20 63f2 d4bf 5589 d49c 50b6 d13f
00000030: 0660 b9ef e5ec d9bf 5ba8 ac8f 8296 d93f
00000040: ffa7 b741 5128 e13f 2a27 75f2 16f1 e33f
00000050: b49a b008 3de4 b1bf d2a3 c904 95e6 c7bf
00000060: 90a1 0ad8 f599 83bf 7b5b 19ee 8882 a83f
00000070: da39 7ada e02b e3bf aa7b be81 d785 bd3f
00000080: e573 fa39 af8b a83f 0688 3da4 c3c6 e1bf
00000090: c88c 59e0 cc6d c8bf 39c1 1c3c 96dd d93f
000000a0: 8c2b 464e 592f debf 7617 2e76 0fe6 c33f
000000b0: c1f9 655a e83c c83f 08ab a1a9 0ab2 e3bf
000000c0: 5ec7 c855 bd6b d03f 1f8b 4d09 cec6 bcbf
000000d0: c106 dfaa 552e e4bf 758b 8fca 923d ba3f
000000e0: 0694 d576 3638 ab3f 98d9 d075 bd0c e03f
000000f0: 2aa1 cb49 17ad de3f 449b 6f22 36f3 da3f
00000100: 76ba 4e7b 1401 c23f b994 75b9 06b6 dc3f
00000110: cd32 20a3 1bb4 d7bf a6f1 84df 3681 c73f
00000120: 0b31 d5d6 95b9 97bf def0 9439 74fd d1bf
00000130: a985 183c 8ebe d33f d425 f439 7dd6 e13f
00000140: ea71 b580 22e9 dc3f 3e5b 6efb 83e1 7f3f
00000150: c9d3 903e 0bff e1bf 18e4 2039 40c3 dc3f
00000160: 9cdc 93c8 b109 c33f 7552 0e10 c241 c23f
00000170: da76 0eb2 4c0d debf 2e18 f95c 6c66 dfbf
00000180: 9283 3e26 5bef db3f fa1a d953 509c e23f
00000190: 2f0d 8c20 97a9 9bbf 3f63 dbc2 2d77 bcbf
000001a0: 9897 4503 18f3 c3bf 85c1 172a db72 d5bf
000001b0: 99b9 17cd 90f9 d03f efa2 1c58 cf00 dfbf
000001c0: 185c 7433 1b0d e33f a2a3 acb1 824f d0bf
000001d0: 5b6e 8a51 4859 c5bf 0d56 7825 f4fe bbbf
000001e0: a712 f77e 90c9 d73f 7a1c ef6e 8167 c53f
000001f0: 7a04 3075 0d70 c63f 6c0d 9db9 a396 e3bf
00000200: 9de0 ae3b 1c1f de3f 63e0 f95f 2eec cdbf
00000210: e049 e894 f36d e2bf a54d c8fe 5420 b8bf
00000220: f24b 61bd adee d9bf 5d4a 9f47 87b7 c5bf
00000230: 1d0d 5e73 be37 ba3f a4e4 fa3e 3013 aabf
00000240: 5fb0 9ef9 efbc ddbf 8b95 b790 ce91 e1bf
00000250: 3b40 e825 2121 b0bf c67d 763f 86dc ca3f
00000260: 9eaa 41b7 74cc d9bf caeb 9a1b 5a82 b53f
00000270: 9d8c e037 2673 d0bf 39b4 9c1e 0313 c03f
00000280: eae7 83c8 8417 e13f 8bb9 c7d4 093e d93f
00000290: f753 3730 6afe bebf 1945 2fb6 0355 c43f
000002a0: 9996 39cd 2316 d63f ce15 ab8b ddf7 e13f
000002b0: 005d 4052 4d19 e33f 6eb2 ce7c d536 ba3f
000002c0: a085 a95b 568f dabf 6edd 20a9 dd46 d7bf
000002d0: 4008 a5d4 c1b2 e33f 992d d999 7087 e23f
000002e0: 927e 9391 2581 bebf c084 8335 59e3 e13f
000002f0: 01ff faeb 9164 bdbf 1da6 d90e 8a02 d9bf
00000300: 0d53 89d5 c490 df3f d672 e3ca 13af ccbf
00000310: 457b 37ea 037f e23f 43cf 5843 087e bb3f

fc_out.weight f8 [1, 100]
0.022194787440577596 -0.0010696977999547126 0.013463093791938602 -0.008128321881072735 -0.014903968686034894 -0.0025296775482429503 -0.010437680479331874 0.0011193347530312335
-0.020522031947075622 0.01306848766284617 0.0034852065700189125 -0.04674154776301896 0.0259615496756305 0.016173917462837622 -0.010124924025945062 0.00338197630220115
-0.017240226554880174 0.028637309591933315 0.006492070571546914 0.013115478577785677 0.022663914710448988 0.009317089154028312 0.025415195460874767 0.0013377648281836985
0.006043742443251986 0.014962840566424348 0.0044544036851110755 -0.011614780701595332 0.031149076779304657 0.004295931140821244 0.01443366893114103 -0.007781747829375508
0.0050995845132027545 -0.01613617393835115 0.013084822442008178 -0.03439734009574983 0.011482285591605917 0.005021280965839166 -0.028505569070292905 -0.006346539538658011
0.017437900975477982 0.0066583334945037875 -0.01561473455288197 7.045862381718004e-05 -0.009739930859567942 -0.020224604527504197 0.014520859688432884 -0.028888009202116413
0.0017592679473778425 0.011422532280009955 -0.01037202334116481 -0.03521372204088998 -8.934820123859148e-05 0.02263935672279396 0.008989082838396166 -0.009131201967156177
-0.0023627523737557096 0.054828851581807315 0.0170260283002082 -0.017993278893782164 -0.011489613104992517 -0.022801587856396625 0.024284448699387933 -0.0028839501521789137
0.022537096725454075 -0.023794620103195736 0.011178367234873178 -0.017290051324263082 0.01889640129904317 -0.0024119128835324894 -0.007425026042917508 -0.007945122313755649
0.015921507827932842 0.005922541678591494 0.027727086225884098 0.032570093418801134 0.009865470901532454 0.02537203799284583 -0.029795460990882015 -0.005559773913282371
-0.02927162012848203 -0.010954200966811841 -0.029945129694332048 -1.667033768129022e-05 0.018798630895528613 -0.0022133197711776374 -0.0038688495870138635 -0.0061273635712345755
0.008246477699333697 -0.008840358729765074 0.006000832694125723 0.009953394836429161 0.02747114139109976 0.0010658465955071567 -0.028016455075783212 0.014942773669278032
-0.01727826256933536 -0.01056133067974695 -0.026656601875238405 -0.008250314647249088
00000000: 28ba cbf8 3aba 963f 556c 5044 a386 51bf
00000010: 5d9a 50dc 8992 8b3f 4f5d 34e5 94a5 80bf
00000020: 2570 b2d0 f885 8ebf ec24 da4a 1eb9 64bf
00000030: aa49 70c2 5960 85bf 3d39 158a d456 523f
00000040: cc99 3d40 ba03 95bf f8f8 f5b8 a6c3 8a3f
00000050: c2fc 9d07 028d 6c3f 8e5f 0316 82ee a7bf
00000060: 89c2 3d1b aa95 9a3f 2b51 343a e58f 903f
00000070: 6200 874c 60bc 84bf e541 a4b3 84b4 6b3f
00000080: 5255 ea04 6ca7 91bf 1a35 9250 1953 9d3f
00000090: a521 9cec 6d97 7a3f a6fa 80bc 49dc 8a3f
000000a0: b13f ec91 3535 973f cc09 af89 d614 833f
000000b0: fbb9 4de5 7006 9a3f d755 f40b feea 553f
000000c0: e538 3ac2 52c1 783f 6bbc 1a77 d6a4 8e3f
000000d0: 0168 69e2 c73e 723f 62c7 1b7a 7dc9 87bf
000000e0: db54 4528 8be5 9f3f dd53 173c 9c98 713f
000000f0: ed11 2a40 668f 8d3f b41a ed06 c1df 7fbf
00000100: 477c 514b 4de3 743f f021 644d 0086 90bf
00000110: 91fa b223 37cc 8a3f 65af 8f35 879c a1bf
00000120: 0353 cb48 0684 873f d553 84d8 3191 743f
00000130: c4a2 a45b 9030 9dbf 5750 2e3c d4fe 79bf
00000140: 902d 9ab9 3ddb 913f c013 adc9 c445 7b3f
00000150: 393c ec31 9efa 8fbf c205 a8f0 6578 123f
00000160: 4aa2 0e64 87f2 83bf e3a5 143c c2b5 94bf
00000170: cce2 c5cb 1cbd 8d3f bc1b 147b d194 9dbf
00000180: d6fe 2093 e7d2 5c3f 2624 a454 b264 873f
00000190: f665 5968 ed3d 85bf 0b76 1271 8807 a2bf
000001a0: 0f16 bb68 0e6c 17bf a752 e882 c52e 973f
000001b0: bfdd 7e46 de68 823f a6ac 932e 61b3 82bf
000001c0: f0fd 8f05 0d5b 63bf 759a d7f8 8612 ac3f
000001d0: 4bb0 eb6a 456f 913f b11e 9681 d46c 92bf
000001e0: bcb1 3cc4 dd87 87bf de74 8fa8 4c59 97bf
000001f0: 5b6d dcc3 05de 983f 15e8 c7f2 14a0 67bf
00000200: f3cb 87f5 f613 973f b5e7 a7ec 9d5d 98bf
00000210: b458 920d afe4 863f fe7b efb3 7bb4 91bf
00000220: 8bad 5d06 9459 933f 090e 94de 25c2 63bf
00000230: 84a3 6b40 b469 7ebf 7a9d 0044 8845 80bf
00000240: b227 b24d ba4d 903f e296 192d 3c42 783f
00000250: 4fd4 3642 7d64 9c3f e171 1ffc 06ad a03f
00000260: 04c4 0d17 5934 843f a308 a6a5 20fb 993f
00000270: 19af 198a b382 9ebf b15a 1772 d8c5 76bf
00000280: 986e 9c2c 61f9 9dbf ab09 40f7 276f 86bf
00000290: bfb6 d8a2 efa9 9ebf 5699 e9e1 e87a f1be
000002a0: 8a9c 9fc3 f23f 933f b8ae 0c01 ab21 62bf
000002b0: 4438 61ce 90b1 6fbf 96ef 62a2 0119 79bf
000002c0: 2ce7 3480 87e3 803f c0b3 08dd e41a 82bf
000002d0: 4c79 b842 5494 783f e5fe 730a 7262 843f
000002e0: c62b 6f17 6521 9c3f 92e0 4b11 7c76 513f
000002f0: e18c 3379 58b0 9cbf 1ac5 c421 519a 8e3f
00000300: 1401 ab92 64b1 91bf 7a5a f9ce 2da1 85bf
00000310: d647 1b45 de4b 9bbf 2bb0 bb7c 8ae5 80bf

fc_out.bias f8 [1]
0.06497087869143787
00000000: 550f 2c77 eea1 b03f

fc_hidden_list.0.weight f8 [100, 100]
0.0068076449524433124 0.05008496342460976 0.0379016328952057 -0.09827911260437877 0.054456209154499745 0.019203759375456094 -0.015964473700497146 -0.11540878514399971
0.06773001970384938 0.047878513015906315 -0.008509763944374497 0.0786583777745301 0.11710452119276844 0.03782230578795823 0.061599695064276525 -0.0065430732623554585
-0.011954237156813218 -0.04375956386493203 -0.07437867918427407 0.07514876120545398 0.1227637742141343 0.0690073785599805 0.004357212198846825 0.042899333321844146
0.03243745760658405 -0.029801028308055394 -0.06634885759381216 -0.023547936141044227 -0.025174909325530535 0.06178367075316287 0.055162462591532235 -0.025406608348651907
0.026005451339880827 0.0898527921708576 -0.013922319483715744 0.03984887239528708 -0.029157429633469376 0.07547600275113656 0.10516236050227187 -0.09233806756036042
-0.03481464779632406 0.028378378585360353 -0.07213490845130578 0.026295957432024442 -0.04526433415037432 0.025889718382577125 -0.03244711689894363 0.08184447956581074
0.10576582757143145 -0.10935883122630731 0.019720862968469546 0.049154756218337585 -0.016361367154833533 0.08063222123109012 0.015788526376519105 -0.01634702948991745
-0.04877458712093777 0.0145040185101318 -0.00045669144924452944 -0.09825462640224543 -0.04386636180591559 -0.09064410290162485 -0.09669146648116926 -0.00416658490454323
0.020471125723385518 0.05447107123660609 0.12910477763119352 -0.012790321588372105 0.10871753920244641 0.002029021463009756 0.07360854414067794 -0.13215527579902484
-0.04269413947503601 -0.052512548026952446 -0.03664886233446857 -0.09129274688433421 0.09019305366323864 -0.010581006334642864 -0.09462818165659402 -0.054090458033547215
0.03816940845496518 0.04226257795274784 -0.06927802023445384 0.07888837504379688 -0.08041811786172817 0.08401939172004523 0.04384978852942011 0.12908830786671152
0.0759803032020771 0.038118995981248925 -0.11631387724069252 -0.04924760103953284 -0.06039805060385662 -0.004371186779677916 -0.018709789639192335 0.040925986644289016
0.07621426086790305 -0.014785500391145023 -0.04046367389390798 0.09677139976662552 -0.06148889659438748 -0.05767806572175895 -0.0266642664187612 0.0359753434391964
0.05285820639617253 -0.010604990175575334 -0.03523353215846357 0.010800651499050884 0.020457615766178654 0.04213377691284391 0.08649211418834499 0.13758547364010984
0.10520133553693295 0.12490549073363656 0.021538117419882333 0.06540358952432687 -0.026596514970456103 -0.04114206350164628 0.089459292758464 -0.050726114068838424
-0.03961599098718614 -0.11670839137978249 0.027022825283432913 0.04677967667377074 -0.10531245731319763 0.13270277244786263 0.08356728161949369 0.048514638672920024
0.044734345180199225 0.03567939011647499 0.04683050368844398 0.02507283425436433 0.04540949302703463 0.06167547459237045 0.007298299665977259 0.0441443053643305
0.023830295659708043 0.10663513658908974 -0.07063099348565567 -0.05394921974828865 -0.089781274746864 -0.11394274555485458 0.047773292311522136 -0.04372308850510695
-0.029051446252352835 0.052554974044516985 -0.0396525490542873 0.061877215629254134 -0.01972175367370907 -0.15149205311900993 -0.06086928289536308 0.03149228587139821
0.030902308918315528 0.005408369082431553 -0.12725189635215478 0.04960744555859979 -0.008048138600934408 0.08699016726861776 -0.03455119691231925 -0.07106131345516872
-0.0649424797980174 -0.02485108224998328 0.05537989839198676 0.0881781819831636 0.048186702771239896 0.09386209630540567 0.14126321178684417 -0.022955946845233752
0.11194917528120372 -0.05458625225058704 0.008070653438388708 -0.09110277982413707 0.04475427645013441 0.012143047099969736 0.07537268757813632 -0.10545268713507154
0.02358175561915137 0.03300828655586975 0.04187789075811847 -0.03434998185585592 -0.16299078319298216 0.027082120663785958 -0.12244685609537828 -0.03972096661457798
-0.10527608976332212 -0.026893605573819403 -0.08949330710980123 0.046620685979583666 -0.016539494444517917 0.13098151539696068 -0.06419840487518574 -0.0554981980309416
-0.14403733194885038 -0.12574201686441658 -0.0719773203140413 0.125105881875302 0.03981928186573222 0.028493142376181863 -0.06063030473552062 -0.11850576788784417
-0.043782975631760014 -0.08014027643477475 0.133072903570174 -0.12130088108961595 -0.03822228065980166 0.036153099048679 0.007682545360138601 0.038004745280229464
0.029835660922036364 -0.12224840353646717 0.14618584683294616 0.040319771655457755 0.10011797060320247 -0.06589431927274844 0.06336455409994793 -0.017324101796144003
-0.024959560872303815 0.09807834442901711 0.09420249040499387 -0.09987605245333413 -0.019600330834524664 -0.03172328165991063 0.0024954015502665246 0.022295142903196744
-0.034445530949209165 0.08872385807436085 -0.018489943149706575 -0.07198224623409769 -0.08580157903480538 -0.10039720459274899 0.08600298002868736 -0.06487566211504425
0.05370159755173145 0.019875057698231 -0.0032734010592959085 -0.12189595009134753 0.020976240455983553 0.041525235128102495 -0.0002170087490979841 -0.06512851871950746
0.05546930146058521 0.04732985790919315 -0.06772899983314205 -0.04866521661755109 0.05156257904501531 -0.11121565267558448 0.05218689297284895 0.010322018970314177
-0.09941874835801029 0.02540329429372831 -0.09820820836936961 -0.11816636622719665 0.14569673424663432 0.10529879355258685 -0.04453807377988267 -0.011216250051680712
00000000: 57b6 ef46 55e2 7b3f 2e30 dc7f bca4 a93f
00000010: b7f3 7fc3 d767 a33f 7405 84e6 d128 b9bf
00000020: dbf2 c32a afe1 ab3f 2f4e e979 26aa 933f
00000030: 4215 c4b1 fd58 90bf 6c54 dd1d 6e8b bdbf
00000040: 47e1 952b c156 b13f 243a 2b4f 8883 a83f
00000050: efbf b32e 916d 81bf d717 1998 f422 b43f
00000060: 0597 bcd8 8ffa bd3f b451 d6fc 715d a33f
00000070: 7e41 7dc7 fe89 af3f e699 d5da e8cc 7abf
00000080: 46dd 188d 767b 88bf 6acc 5f4f a767 a6bf
00000090: e6ba 9d2a 7b0a b3bf cf5b b6ff f23c b33f
000000a0: af1b 625b 726d bf3f ef09 19b2 77aa b13f
000000b0: be1c 553e ded8 713f 8069 46c3 e6f6 a53f
000000c0: 46dc 2b77 a49b a03f f88d e127 2984 9ebf
000000d0: e90c 7e1d 3dfc b0bf c1d1 743e f31c 98bf
000000e0: 5682 ee90 73c7 99bf b792 9ffa 1ba2 af3f
000000f0: f04b 9819 413e ac3f 37c6 d69f 3004 9abf
00000100: 370c 174c 2ca1 9a3f 8fff d3b3 9700 b73f
00000110: 9ca9 ef16 4e83 8cbf abc2 7047 1267 a43f
00000120: 893d d8fa 71db 9dbf 92ed 7233 6552 b33f
00000130: 969e 20a3 ebeb ba3f 6efb 58b4 77a3 b7bf
00000140: 03f8 69bb 39d3 a1bf f021 c0bf 380f 9d3f
00000150: 99c4 b2f0 6e77 b2bf ed0d c0d4 53ed 9a3f
00000160: edbf b305 e32c a7bf 5bf5 0597 d582 9a3f
00000170: 2f64 dc93 e89c a0bf 57e2 1783 c2f3 b43f
00000180: ed23 7422 7813 bb3f 6951 a5bb f0fe bbbf
00000190: 0470 feb5 b431 943f 171d cdec cf2a a93f
000001a0: 0b35 64c3 08c1 90bf 8efd 3031 50a4 b43f
000001b0: 2cb9 c111 de2a 903f af0b 2f94 46bd 90bf
000001c0: a4e3 1e91 fbf8 a8bf 2df2 4a69 48b4 8d3f
000001d0: 460f c0d6 02ee 3dbf 3d0e 1417 3727 b9bf
000001e0: 9aaa b3da a675 a6bf 29a9 89b1 7334 b7bf
000001f0: 4bc2 569e c5c0 b8bf 6d94 6a1e fb10 71bf
00000200: 661b fafd 61f6 943f 5e20 14db a1e3 ab3f
00000210: 4f77 d75e 8186 c03f b646 6be7 cf31 8abf
00000220: 6f48 60a3 e9d4 bb3f f4c2 729a 2a9f 603f
00000230: 9e56 ca71 02d8 b23f 6b7c c6cd 76ea c0bf
00000240: 8562 8d99 01dc a5bf 4a8f cfb8 ece2 aabf
00000250: 2805 53c2 a3c3 a2bf c9ef 3a22 f65e b7bf
00000260: 0b5b cf57 e416 b73f 3b17 54a1 7eab 85bf
00000270: 87b9 7e71 8d39 b8bf d63a 8f98 beb1 abbf
00000280: ae21 0bd2 f08a a33f f7ab 4dcc 70a3 a53f
00000290: 4015 3d4f 34bc b1bf 3902 d94e 0732 b43f
000002a0: bad4 3822 4896 b4bf 37db aa7b 4b82 b53f
000002b0: 6f3b 57bf 7a73 a63f 4fb0 4a36 f785 c03f
000002c0: 3ca1 64f5 7173 b33f 430f 3142 5584 a33f
000002d0: 07da d10a bfc6 bdbf 5e14 be47 fb36 a9bf
000002e0: 21e3 2b48 7eec aebf 4dfc 3684 85e7 71bf
000002f0: be23 76ba a828 93bf bd33 633c 40f4 a43f
00000300: df9c ea1d c782 b33f 8667 1445 dc47 8ebf
00000310: a8c6 1998 a7b7 a4bf 8090 2fad 02c6 b83f
00000320: 4d4a e1ff 787b afbf 9367 f1bb fa87 adbf
00000330: 242e f6a0 e04d 9bbf 5143 1137 5c6b a23f
00000340: 6cf3 9717 3b10 ab3f 6cf6 d3af 11b8 85bf
00000350: 5db3 af28 210a a2bf 131a b6e7 a61e 863f
00000360: bef2 ad5a d7f2 943f 6e95 cbf3 8e92 a53f
00000370: ce03 cde1 5824 b63f 3f2f d89a 669c c13f
00000380: 1c6c a087 79ee ba3f 69b3 ca65 cef9 bf3f
00000390: 0443 be97 160e 963f 3649 0c26 4abe b03f
000003a0: fb56 f1e7 1d3c 9bbf 6f84 7592 9210 a5bf
000003b0: 698c b8e0 cde6 b63f c028 f5f1 c5f8 a9bf
000003c0: 8e8f 6013 8c48 a4bf 671a 25e4 99e0 bdbf
000003d0: 9ff9 591b dfab 9b3f 46d3 dc7a 81f3 a73f
000003e0: 4286 05d8 c1f5 babf cf44 e089 67fc c03f
000003f0: d143 9255 aa64 b53f 1c74 f424 e9d6 a83f
00000400: 0c26 1d8b 6be7 a63f 6a0a 62ab 9144 a23f
00000410: 1e1a 98f3 2afa a73f 5ae5 8f6c b1ac 993f
00000420: 8946 f5be e93f a73f 42d4 ad84 ed93 af3f
00000430: 66c5 1b66 d2e4 7d3f 075a b017 159a a63f
00000440: 79c1 0c12 f866 983f a82f 41b8 704c bb3f
00000450: 6dd9 1a6f df14 b2bf 395f ed6c 3b9f abbf
00000460: 8dba d4d6 e7fb b6bf e548 c60d 5a2b bdbf
00000470: 1c52 33b0 bd75 a83f dc49 6b66 df62 a6bf
00000480: 8eaf 388e a9bf 9dbf 19d3 864d 7ce8 aa3f
00000490: 534b c8c2 564d a4bf 1889 fdd2 5eae af3f
000004a0: 3882 317c f031 94bf 6401 e072 1764 c3bf
000004b0: 4fad bb36 422a afbf 44b2 c9c3 c11f a03f
000004c0: 7141 b3d8 daa4 9f3f da00 5705 1627 763f
000004d0: cade 9746 ca49 c0bf 06e4 9fa8 2566 a93f
000004e0: 2771 ade0 8a7b 80bf 4106 7ed3 fc44 b63f
000004f0: b358 8dc9 b1b0 a1bf 3efe 4c01 1331 b2bf
00000500: 3287 da02 12a0 b0bf 90b2 22e6 8f72 99bf
00000510: f015 e608 c15a ac3f f6a2 d667 d892 b63f
00000520: 1b54 0271 edab a83f 6939 f7a9 5807 b83f
00000530: 374f 60b5 e914 c23f e9c4 cb83 c381 97bf
00000540: f79d a57e b3a8 bc3f f677 74b0 baf2 abbf
00000550: e611 9ac4 5887 803f 015b eb03 8352 b7bf
00000560: b03f 6b53 08ea a63f 0b63 5831 74de 883f
00000570: 79e3 28dc 9f4b b33f 5b3c 8582 f2fe babf
00000580: 0d84 aad4 d025 983f 3248 824e 76e6 a03f
00000590: 9691 76d6 0471 a53f 01d1 6021 5296 a1bf
000005a0: 1e80 aec9 e1dc c4bf 50a9 3a5a 6abb 9b3f
000005b0: a67b 6d5a ad58 bfbf 2a76 2679 4e56 a4bf
000005c0: 0690 95b2 5ff3 babf 8af1 a451 ff89 9bbf
000005d0: e35a 3f8b 08e9 b6bf 3de4 32a3 aade a73f
000005e0: d222 edae baef 90bf f856 8196 00c4 c03f
000005f0: 2cf0 6481 4e6f b0bf 5345 0f83 426a acbf
00000600: d8cb 0fb7 d06f c2bf 4937 157d 5018 c0bf
00000610: 3472 cd0c 1b6d b2bf 5b88 9833 7803 c03f
00000620: 0c20 ba62 3163 a43f c8f4 a96a 4e2d 9d3f
00000630: 499d f86f ef0a afbf 5835 77dd 6456 bebf
00000640: bd81 ebe0 b86a a6bf c237 61ba 1284 b4bf
00000650: 0da9 686c 8808 c13f b481 4115 930d bfbf
00000660: a923 d3ea de91 a3bf ec51 20b4 a882 a23f
00000670: 2339 2691 bb77 7f3f 018e 24a4 5b75 a33f
00000680: dca4 a84f 3d8d 9e3f f965 2ddf ab4b bfbf
00000690: 868d a4c3 37b6 c23f e1e5 4809 cba4 a43f
000006a0: 8f8e 7bd1 54a1 b93f 66c5 443a 73de b0bf
000006b0: f2bb 95cf a838 b03f ab8a 96ca 68bd 91bf
000006c0: ab1f adc6 ff8e 99bf 4ab9 c491 a91b b93f
000006d0: 72bf 7d87 a71d b83f 7bce f01a 7a91 b9bf
000006e0: ee43 b3ef 1b12 94bf da91 80b2 083e a0bf
000006f0: 28a0 8f81 3c71 643f 34f8 83b6 89d4 963f
00000700: a925 d739 d8a2 a1bf 45e8 cd54 9bb6 b63f
00000710: 0c14 8814 07ef 92bf 5ad3 77b1 6d6d b2bf
00000720: 5b4f e69f 17f7 b5bf fdee 5596 a1b3 b9bf
00000730: caed 9492 4a04 b63f 7828 17ff b09b b0bf
00000740: 438d 749a c67e ab3f 0fb2 478b 205a 943f
00000750: 7b3e e2cf d1d0 6abf 553d 28af 9234 bfbf
00000760: 5d84 01ab cb7a 953f 54f6 aaad cb42 a53f
00000770: 32ba ecf5 9a71 2cbf e3ec ef39 43ac b0bf
00000780: 280d 69e7 7866 ac3f 9949 b07f 9e3b a83f
00000790: af2d 460f b056 b1bf 7278 a6b3 a5ea a8bf
000007a0: 163a 640d 6966 aa3f 8c80 0b07 a178 bcbf
000007b0: 504c 328d 3db8 aa3f 0fe1 3fef b523 853f
000007c0: 8491 ced0 8173 b9bf 7714 cf38 5203 9a3f
000007d0: 902b 2553 2c24 b9bf 06d7 6ea6 2640 bebf
000007e0: 0495 5cca 30a6 c23f 8fda 9d9a dcf4 ba3f
000007f0: e873 9fc4 b1cd a6bf c8ed 3e99 8bf8 86bf

fc_hidden_list.0.bias f8 [100]
0.014742411646421214 -0.075040911663884 0.02914887981297912 -0.0014623964784465835 -0.0851108007132235 0.09077935723073445 -0.02293131050223443 0.0297355327884731
0.03360276211768584 -0.0008323672055782239 -0.03272075269516256 0.05211841810843201 -0.13808009850794992 -0.054137944400477055 -0.06444277361742905 0.020014082131840097
0.026206375382295987 -0.003566206873912774 -0.0631825099319793 -0.081959195217657 0.026518089556565608 0.013820709602759591 0.07804114983379314 -0.057803173070993204
0.08927402330881191 -0.06194755068668854 -0.10103547113155176 0.013503427905423717 0.04097337576802091 0.022538260258776917 -0.012568502268980352 -0.07321139557506183
0.021132507479213906 -0.04582993361216013 -0.06285490415743421 -0.03597442068078986 0.025373111409029116 -0.0816034550578801 0.0709847416524547 -0.07084915156148414
0.05455101714781881 -0.05543706752270374 -0.1120319059558867 -0.06187518284284462 -0.1104021811174138 0.08486057479930192 0.05745652834936297 0.06410808043525228
0.06315129988030267 0.061923836367380775 0.1067258924134038 0.020929986511320643 -0.07819789201189047 -0.09310164075137108 0.09051538050310401 0.012126239031003514
0.03015251377800015 0.026072699201303104 -0.07148114157632775 0.04975905071237318 0.10538268225477374 -0.006276397452662508 0.05614285562857875 -0.07556910276235432
0.0061203848596026586 -0.021915028134049996 -0.06319802568594354 -0.0757748348686724 -0.0016231038375244498 0.04017753141778557 0.0631551264674085 0.0638804874515335
0.07324094050456927 0.03760850064770796 -0.059536402558378915 -0.06535616460207536 0.062465547706771485 -0.10797836787824457 -0.09047171656464963 -0.08466588474367095
0.04620999679917937 0.02611220370253044 -0.05922387763379779 -0.02246306901827375 -0.07917337694362414 0.009830512905929028 0.01926362352064684 0.04865943672241482
-0.09304473574369017 0.04884663880794011 0.10190914909055665 0.06476808378759125 0.08962505247355103 0.09622324392765427 0.061983331523769926 0.017471852586471156
-0.04591195486057317 0.0870977438389999 0.11811540074415308 -0.10709528560831995
00000000: 859a 15ff 4431 8e3f 255a 7595 e135 b3bf
00000010: 0910 0c36 34d9 9d3f d61f 1e43 bcf5 57bf
00000020: de83 9949 d2c9 b5bf 4d39 75e2 503d b73f
00000030: 0865 a532 4e7b 97bf a829 6cd3 fd72 9e3f
00000040: ac92 b398 6134 a13f 156c 8ef6 6646 4bbf
00000050: 08d4 7345 c6c0 a0bf 4406 97ea 43af aa3f
00000060: 25f9 a8d1 9bac c1bf 236e 58f9 f7b7 abbf
00000070: eb7f 2655 527f b0bf 64e3 dc50 927e 943f
00000080: e3c9 da14 d8d5 9a3f 577f 9dbc e036 6dbf
00000090: aa48 d69d ba2c b0bf 1dfa 101f 47fb b4bf
000000a0: 9465 97dd 8e27 9b3f f7cb 023e 084e 8c3f
000000b0: bd43 473a 81fa b33f a9cf e3a3 6098 adbf
000000c0: 6562 7e92 a9da b63f ae83 88e0 96b7 afbf
000000d0: b0f7 3eec 75dd b9bf 4ec9 e669 afa7 8b3f
000000e0: 4959 dc59 76fa a43f bf77 e10a 4514 973f
000000f0: 93c8 a3d1 83bd 89bf 277d b065 fbbd b2bf
00000100: fed5 0592 c2a3 953f 5e8b 1564 0577 a7bf
00000110: 4fd8 bf4d 4217 b0bf 5611 a240 3d6b a2bf
00000120: 6755 ccae 68fb 993f ddd5 b6ca f6e3 b4bf
00000130: 9f8c e957 0e2c b23f 7cea e784 2b23 b2bf
00000140: cb11 3a65 1cee ab3f 3308 fe4f 3f62 acbf
00000150: 9d67 307c 1fae bcbf 8bf2 7c9d 1aae afbf
00000160: ad6d 4e3d 5143 bcbf 6496 7b31 6cb9 b53f
00000170: 2d88 672c f16a ad3f 7ff5 e01c 6369 b03f
00000180: d98f afff ae2a b03f f4dd 1428 7bb4 af3f
00000190: d04e 8d59 6352 bb3f 4a91 499e ab6e 953f
000001a0: 43a5 ceec c604 b4bf 0928 3b56 82d5 b7bf
000001b0: 5ebb 0b17 042c b73f 7f3c 7e40 a4d5 883f
000001c0: 4e59 46f2 4ce0 9e3f ec5a 8d39 cdb2 9a3f
000001d0: f5df 598d 964c b2bf 2fb3 faae 047a a93f
000001e0: e658 d905 5cfa ba3f 00f0 bb9c 47b5 79bf
000001f0: da57 a8a1 c1be ac3f dace f328 7f58 b3bf
00000200: 8f8e f94c b011 793f 60b4 81a4 e470 96bf
00000210: 662e 7eed be2d b0bf 5ee9 9ec5 fa65 b3bf
00000220: f08a 9c79 ca97 5abf b061 f23e 2692 a43f
00000230: 5894 c032 ef2a b03f bff5 74bc 785a b03f
00000240: 2d06 3214 ebbf b23f 94c0 aae0 6b41 a33f
00000250: e4c7 d12b 8e7b aebf f6d2 8e7d 2ebb b0bf
00000260: c0fb 0df9 7bfb af3f 8967 b666 78a4 bbbf
00000270: d3af db87 2729 b7bf de9b 0fd6 a9ac b5bf
00000280: 0161 0032 d6a8 a73f a526 b753 28bd 9a3f
00000290: f3af 2893 9752 aebf d981 340b 8f00 97bf
000002a0: 98ce afd8 b444 b4bf 6991 781b 0522 843f
000002b0: a833 18e4 d7b9 933f b4a6 bac2 e3e9 a83f
000002c0: 5588 15a1 c7d1 b7bf 8935 6638 6d02 a93f
000002d0: 34d3 81ce b716 ba3f 103a b121 a494 b03f
000002e0: 19b4 46dd aaf1 b63f 42c8 c825 16a2 b83f
000002f0: 055c 957b 47bc af3f ef73 d62d 24e4 913f
00000300: 0c41 3e91 c581 a7bf 2e09 58a9 094c b63f
00000310: 4a9e 5997 cf3c be3f e956 3ebd 986a bbbf

fc_hidden_list.1.weight f8 [100, 100]
0.11581258783727932 -0.027368286249104104 -0.048346720552977535 0.03966031851018869 -0.10660316938684093 0.006363211757420792 0.02835898196863343 -0.060856645340186824
-0.15001286866987143 -0.06516804880355308 0.05275354533886867 -0.06628922982292262 0.03249591468727884 -0.09910548768194938 -0.1353337953509026 -0.0683903368417283
-0.0004938365009372504 -0.08241171867680556 -0.09582782368894155 -0.019133068428146216 -0.05594827171218041 0.08088202321943183 0.04930431645494735 0.03572166144983711
0.09472703408427696 -0.09777426120579133 -0.04138202211411206 0.04121979972008488 0.09701250258334333 0.012553683759049656 -0.073225786191868 -0.05175343948434701
0.05445046134751343 -0.022097640695597012 0.014435836309860641 0.06250785154998847 0.08488427109098677 -0.03818023657360536 -0.07391367885103074 0.05175919731425403
0.07501640022026312 -0.06318455181947397 0.08623441282285935 -0.06690192910715506 0.021009065831997922 -0.003494160476314667 -0.1305383030863212 0.02370806389273642
-0.05877154009529141 0.10060230853097941 0.1062325875341718 0.012535552157110871 0.06976991471379251 -0.012396513931531508 0.1815088054722496 0.11391302343244143
-0.030723761342264254 -0.12344490318198245 -0.03258616947453223 -0.029608606925107403 -0.0997705929794825 0.008678372293231772 0.023324973553594527 -0.08045178883486422
0.06506380669342429 -0.03557845671037386 -0.006748947121017823 -0.04648297042503101 -0.034305778959683016 0.0006885702274481782 -0.06824447738794075 0.015780816410425606
-0.1404838602133891 0.034182169382166686 -0.019028792246637505 0.028347171037197336 0.011240107288312078 -0.02564095049242834 0.0847591652681173 0.06731606426343606
-0.023793335456795663 -0.01761491873947776 0.08874386348979336 -0.09491691408209259 -0.0023264849790927207 -0.04899115009618493 0.014283372558801395 -0.0983359494282024
0.028664344675439275 -0.07055269615926293 -0.023129041747430967 -0.01864205002245807 0.11504989182670936 0.03725797996324275 -0.08850162028765915 0.003868225527210579
0.07916786916371243 -0.09935507642041479 0.013898619114181193 -0.09944298877739868 0.05154592441225921 0.09527077885574271 -0.017053261134904046 0.08992007727462371
-0.03814658319131532 0.03277533990821656 -0.03198058139520132 0.07176843387261772 -0.07394145573989938 0.07457202134980158 0.007392221593833378 -0.022179880817937165
0.08477009276769656 -0.05448989388592469 -0.145039431327618 0.0651110587375606 0.0696944415251198 -0.029101879844881523 0.06683720795823545 -0.04661289940474969
0.06797543879793216 0.15393990884444014 -0.014312533493821921 0.09723922633968145 0.04873925163336974 -0.02823729745556675 -0.02572342481335546 -0.08332408415369673
0.03997926925408246 0.023970013700735524 0.01035148381713792 -0.0007901100613669686 0.13938399025443754 -0.12282342538236332 -0.0507302485058166 -0.040447946517379284
0.14839765388406495 -0.07420067837514677 0.08477064851088717 0.04685871016659128 0.012132201563056425 -0.03850725967907461 0.14052614310316058 -0.043261208680251226
0.04920832994515806 0.0018059718236032452 0.07793583068356388 -0.029282021263353764 0.005705131035122068 0.12571448133964042 0.03941382105236614 0.09659923275631185
0.0289800497992637 0.03222297852736332 -0.01723293949877669 0.04203735745808189 0.14434771813768837 0.05138050440348694 0.00735016601334869 -0.014769873987976941
-0.045968677057386 -0.15056891170040657 0.052180342917458995 -0.15483141649341053 0.08323478191805862 -0.06964316246387045 -0.021585377810226646 -0.04552321172274731
-0.04611693841301552 -0.007005794821871176 0.022896761540219007 -0.01121581231813816 -0.025709038245922355 -0.045522905687558325 0.03315947041145683 0.07294631462002146
-0.11808027368630371 -0.015403528885268806 -0.05119022585481513 0.03943485314725411 0.08037528486216548 -0.14246309506533245 0.11226453375601322 -0.17800513970285625
0.0014269679273570502 -0.06971233139599216 0.07615454598205433 -0.025294821993825937 -0.0018218478416824127 -0.15725874012386515 0.041952262076528204 -0.06020033584712982
-0.06025070195473576 -0.02448084417748561 0.0310888899110907 0.06872630333200792 0.14357242515959223 -0.04136165264757953 0.014498328555415257 -0.006163260935058059
-0.08652037426638837 -0.09482994413377965 -0.045348284884246574 -0.0006308089195003844 -0.05215513037682863 0.018376362768520768 -0.022560892417858636 -0.07764926628099557
-0.0755836150130099 -0.09205818499727142 -0.0514286708498027 0.07112228622420282 0.15826548695000725 0.015063750053427229 -0.10049745997927788 -0.07216884761076515
0.08084873546702083 0.005291114095239958 -0.08920139844039392 -0.1133822997362957 0.01200741575327272 0.08658771783613431 -0.06888357726607122 -0.029983698123117065
-0.022686634738425977 0.02141036710052858 -0.11762551446668111 0.06275151374379606 -0.0412061981817392 0.0880402174404697 -0.03760419983963221 -0.0007622804876917021
0.11624801642473617 0.04448564466105979 -0.06384670642031719 -0.06533489795690352 -0.0027532130745445637 0.08340866401557209 0.06492123781978056 -0.023576460582473306
0.07032850069236331 0.0014528518256349053 0.011374742231212008 0.013700512147816294 0.09592549743471547 0.01954500407990505 0.07822517289738751 0.03810644765141169
-0.09938094887651405 -0.010920615031114474 -0.04849387170281859 -0.09710771757092078 -0.024921671202979504 -0.039715501360710885 0.06493946422583328 0.053224072297670115
00000000: 00eb 39cd e4a5 bd3f 94c4 8c99 6e06 9cbf
00000010: e4ab 49bf e6c0 a8bf 1f81 e675 5b4e a43f
00000020: 2b9b 2a66 584a bbbf d68f 54a6 4f10 7a3f
00000030: 089c 6910 230a 9d3f 7af3 f52a 9a28 afbf
00000040: 6147 7526 9f33 c3bf fffa 5a6e daae b0bf
00000050: 30fd f43f 8302 ab3f 789e 2aba 54f8 b0bf
00000060: 8dc2 abf5 4da3 a03f e8b6 722c fa5e b9bf
00000070: ffaf 8928 9e52 c1bf 64ff 1874 0782 b1bf
00000080: 9b17 80cf 992e 40bf fb26 8634 ef18 b5bf
00000090: ac75 ca18 2c88 b8bf 601f af7c 9e97 93bf
000000a0: df06 8b7a 40a5 acbf 50d0 8f2c afb4 b43f
000000b0: 3d86 7355 6a3e a93f ad25 5f0f 1c4a a23f
000000c0: 6065 70e9 0740 b83f b6f9 44e6 bb07 b9bf
000000d0: 16b3 3e3f 0630 a5bf 98a9 7df7 c21a a53f
000000e0: 0509 e6b5 cfd5 b83f 8afb 83e9 beb5 893f
000000f0: 85ff ead4 ecbe b2bf d7e1 1444 6d7f aabf
00000100: a3b7 7a4d eee0 ab3f 74e6 6c90 c3a0 96bf
00000110: eee6 ba26 8990 8d3f 2682 26ba 8300 b03f
00000120: 83d4 47c0 f9ba b53f cfd5 df26 5c8c a3bf
00000130: c968 64c1 01ec b2bf cebf 7677 2e80 aa3f
00000140: d013 9c59 4634 b33f ac53 addf dc2c b0bf
00000150: 6e2b dd5e 7513 b63f 6ef6 8d1d 7c20 b1bf
00000160: 04f9 ab8a 6683 953f e6be 201f c99f 6cbf
00000170: 68c7 50a7 7ab5 c0bf ea7a 483c ed46 983f
00000180: 1227 4aa5 4d17 aebf a9eb 0aa9 12c1 b93f
00000190: bb8d 3a11 0f32 bb3f f8af 6a54 3dac 893f
000001a0: 34c1 f0ed 70dc b13f 3bd9 5cef 5763 89bf
000001b0: 393c b837 ae3b c73f dd16 3b66 6729 bd3f
000001c0: 5656 b3b8 0c76 9fbf b245 06ce 159a bfbf
000001d0: e6da 6368 22af a0bf 4c9e b1f9 b751 9ebf
000001e0: 2d0c f3c9 908a b9bf 869e 7469 f7c5 813f
000001f0: bffa 5e7a 80e2 973f 0550 f309 7d98 b4bf
00000200: 3aca e689 05a8 b03f 21c3 06e8 5637 a2bf
00000210: 0ddf acb2 c8a4 7bbf 6ec7 97ab 9dcc a7bf
00000220: 612b 64ed 8690 a1bf 4450 cf4d 2590 463f
00000230: 8389 8356 7878 b1bf be3e 8ca9 d828 903f
00000240: 60bd 9d08 60fb c1bf 229a 3447 5380 a13f
00000250: d0d8 86a1 487c 93bf 69d0 2772 0a07 9d3f
00000260: 5697 a7a9 0d05 873f 679d 360f 9f41 9abf
00000270: f6e1 dcd2 c6b2 b53f b0c3 8126 a03b b13f
00000280: 8a49 99b6 475d 98bf 678a a12f a509 92bf
00000290: 39cb 68f7 eab7 b63f 59e0 d191 794c b8bf
000002a0: 117a cb1c fe0e 63bf d0bf e936 5e15 a9bf
000002b0: f711 22d0 9940 8d3f 84b3 d076 8b2c b9bf
000002c0: f2e5 c49b 2f5a 9d3f 860e a6d2 bd0f b2bf
000002d0: b077 92b7 23af 97bf 1419 b5cc e616 93bf
000002e0: 82d6 cde2 e873 bd3f af0f ea5a 7a13 a33f
000002f0: 2e4c c7cc 0aa8 b6bf 35e5 40c4 41b0 6f3f
00000300: 38c0 f370 5844 b43f b3d1 ea93 556f b9bf
00000310: 7093 7014 e176 8c3f 528c 9d80 1875 b9bf
00000320: cb7b 2f37 3a64 aa3f 3d2a 736f aa63 b83f
00000330: 684f 75fb 6876 91bf 19f7 258f 0005 b73f
00000340: 2a8d 85ee f287 a3bf 2eca 0aea edc7 a03f
00000350: 0f1f 663e c25f a0bf 5437 5e84 6a5f b23f
00000360: 2eb4 38c6 d3ed b2bf f1dd e4e8 2617 b33f
00000370: 2344 d85f 4e47 7e3f f507 f89a 52b6 96bf
00000380: 8abb 1d28 7eb3 b53f 8ab5 6770 19e6 abbf
00000390: 095e 17ef a690 c2bf 06c1 e24b 1eab b03f
000003a0: 4639 10b3 7ed7 b13f 5859 be18 e2cc 9dbf
000003b0: 9829 5646 3e1c b13f 24c0 075d a5dd a7bf
000003c0: 9480 919e d666 b13f a69e 048d 4db4 c33f
000003d0: 1320 3bba e34f 8dbf 0b6c 0481 abe4 b83f
000003e0: 1afb 97e7 59f4 a83f 1176 65f4 3cea 9cbf
000003f0: 2806 42d1 3d57 9abf 87c6 6828 ba54 b5bf
00000400: d0b3 edab 2978 a43f 8ca2 b763 988b 983f
00000410: 076d ada3 2833 853f ad0f d96f ece3 49bf
00000420: 0e49 dda7 55d7 c13f b62f 3323 5b71 bfbf
00000430: 0a39 80ac 50f9 a9bf 630a f7de 97b5 a4bf
00000440: 961a 1ebf b1fe c23f 5057 f6ce d0fe b2bf
00000450: 2cd5 037b 87b3 b53f 5281 6567 ddfd a73f
00000460: 55d2 8887 c4d8 883f 6bdd f539 39b7 a3bf
00000470: 3838 6eba c2fc c13f 1629 ef48 5526 a6bf
00000480: 4847 9c8f d531 a93f c334 df7a cb96 5d3f
00000490: c6f5 f843 9af3 b33f bd5d bf2e 1bfc 9dbf
000004a0: 99a3 7173 435e 773f be61 fe80 6917 c03f
000004b0: 7251 dc60 0c2e a43f 1ece 8131 baba b83f
000004c0: 9b45 7f38 f2ac 9d3f 1ed3 e8bd 877f a03f
000004d0: 40a9 3efe 82a5 91bf 3e46 fca6 eb85 a53f
000004e0: 16a9 536c fc79 c23f 7d42 21a4 8b4e aa3f
000004f0: 722c 5c2a 351b 7e3f 1189 f4ed aa3f 8ebf
00000500: c826 34d9 3489 a7bf 6116 c693 d745 c3bf
00000510: a12b a6c4 61b7 aa3f 4ec4 1d0f 84d1 c3bf
00000520: 154e 3aea df4e b53f 5e1e 2c61 22d4 b1bf
00000530: 0621 112f 7a1a 96bf 1fbd 1d83 d14e a7bf
00000540: 9a14 8dac a39c a7bf 2e5d 47ba 1bb2 7cbf
00000550: 5b8a ffa7 3f72 973f 38f8 d5d8 50f8 86bf
00000560: 7051 e959 7853 9abf bd3d 4b3e c74e a7bf
00000570: ff94 f031 47fa a03f ba1e a813 9cac b23f
00000580: 3910 c941 823a bebf a217 71a6 e28b 8fbf
00000590: 9eb2 d7f3 9a35 aabf fb16 2e19 ce30 a43f
000005a0: 5fc2 e383 7993 b43f 36a5 180f 3b3c c2bf
000005b0: 7a96 fb54 5ebd bc3f 4497 c556 dfc8 c6bf
000005c0: 71eb 2525 2361 573f 6d44 79d7 aad8 b1bf
000005d0: 5345 6f44 dd7e b33f 61f1 e2c4 e2e6 99bf
000005e0: a0fa 7d39 62d9 5dbf 06cc ebec 0d21 c4bf
000005f0: 3a4c 3953 c47a a53f 12e1 5713 94d2 aebf
00000600: d9cb e914 2ed9 aebf d8ab 7ba4 8111 99bf
00000610: 9d91 bf15 c4d5 9f3f 699a 2f09 0c98 b13f
00000620: 507c 55cb 9460 c23f 6217 dcc2 5a2d a5bf
00000630: 96f7 efb7 4cb1 8d3f 9cd2 71c2 a53e 79bf
00000640: e86c e901 3326 b6bf 7070 bc74 c646 b8bf
00000650: ffda 03f1 e337 a7bf 559f f2d6 9bab 44bf
00000660: 22fe 92c6 13b4 aabf ccdf 70d4 40d1 923f
00000670: 80c1 69dc 331a 97bf c13a 3c83 d2e0 b3bf
00000680: 2726 98a2 7259 b3bf 3c74 e40d 2091 b7bf
00000690: 6bd8 c0d6 db54 aabf 1986 59f5 1135 b23f
000006a0: f694 4421 0b42 c43f 943c ad4e bed9 8e3f
000006b0: 532b f197 33ba b9bf 013b 4758 a879 b2bf
000006c0: adf9 c0b2 80b2 b43f 74b1 f99f 22ac 753f
000006d0: d317 0f21 e7d5 b6bf 730a 5055 9f06 bdbf
000006e0: d31c c20f 5897 883f c26a 57d8 9c2a b63f
000006f0: 12da 96a7 5aa2 b1bf dd5e 68eb 0bb4 9ebf
00000700: 7206 0849 2a3b 97bf 83ef f769 99ec 953f
00000710: ff3f cfa9 b41c bebf 68d9 4db3 7b10 b03f
00000720: 6f87 2a93 fa18 a5bf 4db9 a3be cd89 b63f
00000730: a9c6 0191 db40 a3bf 3201 ece1 78fa 48bf
00000740: 92e4 c414 6ec2 bd3f a5e4 eb89 d2c6 a63f
00000750: df56 08fc 4158 b0bf 812c 03b2 c9b9 b0bf
00000760: f39c a603 e88d 66bf 1662 262c 455a b53f
00000770: b175 40a1 ad9e b03f 7eed a07c 6d24 98bf
00000780: 514e 7372 0c01 b23f 9e27 eec4 b3cd 573f
00000790: ec60 110f a44b 873f 3515 e89c 030f 8c3f
000007a0: a1aa 55ca 928e b83f cd23 4b05 9b03 943f
000007b0: 3077 519f 9006 b43f e0ed db34 b082 a33f
000007c0: b023 45a5 0771 b9bf e467 4923 8c5d 86bf
000007d0: ce40 0a52 30d4 a8bf e303 2827 0ddc b8bf
000007e0: 2125 1d0b 1185 99bf 3f1c fa16 9755 a4bf
000007f0: e7d8 116b df9f b03f efc1 c183 2f40 ab3f
