savedModel/allen_cahn_tanh_sin/ParticleWNN_1/trained_model_best_loss.pth (torch, 249235 bytes, 10 tensors)

fc_in.weight f8 [100, 2]
-0.024567861352993478 -0.6119208075798335 0.34124548599973215 -0.007243195041842106 -0.3338499188787965 -0.08849344013019879 0.25146883412636006 -0.22449254031299687
-0.42543806349528557 0.28863374459471863 0.5683940095471274 -0.47034897114647534 0.02622431331229887 0.5478199964312586 -0.3364537773657434 -0.04163525576439136
-0.36563245179817294 0.04190784531075704 0.08614125527225058 0.0012955542882017326 -0.4423414326353047 0.6415838745731207 0.21798785445208854 -0.0507753902747182
-0.3630424355700307 0.07229029109290493 -0.14158317893019728 0.03624736385899226 -0.1195167812120549 0.1302996855526224 -0.23196357019635722 0.12281577974236828
-0.0456961657438255 0.3668616567096886 0.16124222800371107 -0.27171890196633736 -0.00959531242578168 -0.23338786015714746 -0.19482359216233922 0.44166831782502347
0.22856321665277762 0.5979981009693742 0.30827658263077323 0.025684684898302352 -0.21814442603276213 0.5778588958077624 -0.19231682802413336 -0.10658916947665359
0.518636987136813 -0.24100941397084027 -0.1615840821605237 -0.13417280618903993 0.5693663220292859 -0.15631676043070722 -0.10494745508850052 0.49205554901789594
0.2734106907378114 -0.4125978510899373 -0.36567264581311504 0.547129020609986 -0.6051695239759328 0.321610274744133 -0.052055661459954695 0.01764487401416716
-0.30591909586185173 0.5483648253426231 -0.23828288875214906 0.522497220027345 -0.32931317176667213 -0.6100511110924772 0.3176334787134061 0.40707294587640996
0.6500050342809064 -0.3472139776111976 -0.4741670481448189 0.2925926979493834 0.47062834776770845 0.6095585315328427 0.030160796187983133 0.014845830085142937
-0.23613557941869706 0.46214302682224295 -0.31882706867725197 -0.5879897210164737 0.5105383231780919 -0.16176547514475412 0.39149474742607676 0.14842654458328072
-0.20401559028557043 0.4659455601175018 0.25652685957532945 0.038754592040235104 -0.5596640811293383 0.33818051383620634 0.5393174565892499 0.5035975506497729
-0.15745184287270417 0.4369728094509304 0.31261096195162225 -0.623359842707013 -0.0507397560555253 -0.4889513884981418 0.5446773723125589 0.26292174703436455
-0.36920593665532225 0.6254526572264951 0.17267563031283426 -0.04598134637025621 0.4860043667689338 -0.36431897399804797 -0.44139670462124314 -0.6065046530944589
0.23467875834919052 0.24891734205433227 0.20660711832284162 -0.025966783662056354 0.2353954350689503 0.1587927471140426 0.29147704380817296 -0.5057838137593552
0.24036365919590355 0.601816779948993 -0.3168782454556981 -0.38070580512278546 -0.2650918244065121 0.020603346317377688 0.0017771705682789692 -0.09867955837330578
-0.6447122849541523 0.3955325788185949 -0.626896989056127 0.06978768587986732 -0.3954843827937684 0.49431514229183615 -0.36206377714293897 0.12134760633270103
-0.07654472888190474 0.4622465517405199 0.16905316844912385 0.20299648183478722 -0.3501149168641058 0.17874425936061888 0.009555506139045763 -0.48707993085171153
-0.28671707805144103 0.1291336349179886 0.4461283343764189 -0.16292842954146097 -0.6075477158460765 -0.6049164479062735 0.025890003503978836 -0.22084813751780627
-0.5381912804251029 0.013833050234829116 0.3618441217812122 0.08492171493218517 0.7045057061603052 0.08919838677800877 0.021093658241838217 -0.6322688139713423
-0.5490749398098927 0.12789646853965803 -0.5739061722443859 0.39132944533333086 0.40376410655175377 -0.3779721779162363 0.4054557794572178 0.4520114854925495
-0.25929954246381565 -0.07100981797649247 0.12629849558345457 0.5942172347115813 -0.40112074475477594 -0.16161767692921009 -0.5701916191443662 0.5905986246673917
0.15432035248126966 -0.35628580325396 0.026183246529999385 0.07002234689273376 -0.414924680546001 -0.4946565329649991 0.6488273377394647 0.3547422333838424
0.5430767221012845 -0.23015963523967573 0.3260620257343195 -0.28940201546963706 0.1702702485899126 -0.26725114237349823 0.13937903637632496 0.08840314077056663
0.2831321949894881 0.10302107806114277 -0.5421526072497252 -0.08294016182671646 0.1160463725846976 0.010344007767008534 0.23987813034297192 0.3301187471560043
00000000: dcd1 2c44 5128 99bf 6e83 09f2 da94 e3bf
00000010: c6b1 914e f7d6 d53f ef13 2c5d 0aab 7dbf
00000020: e9d3 d60c cc5d d5bf 890d 458f 81a7 b6bf
00000030: 414d a2bc 1018 d03f 668e 6beb 2bbc ccbf
00000040: 86e4 4b92 603a dbbf f79a 63ab f978 d23f
00000050: 42e9 47a2 4830 e23f ca01 3292 321a debf
00000060: 1541 25e0 8bda 9a3f 058c 18cd bd87 e13f
00000070: b7b2 996c 7588 d5bf 87c0 bc5b 3751 a5bf
00000080: b215 b5a7 8566 d7bf 396e 1cf2 f174 a53f
00000090: 680f 3b72 5a0d b63f 49be 12d3 f239 553f
000000a0: 2667 b570 524f dcbf 33d7 dde7 da87 e43f
000000b0: bf01 e6a8 06e7 cb3f 8dd5 5761 3bff a9bf
000000c0: 8e57 f556 163c d7bf f5f5 0fd4 9d81 b23f
000000d0: f69e 95c9 651f c2bf 0a61 aeb4 038f a23f
000000e0: b903 a1da a698 bebf 1855 10fc a8ad c03f
000000f0: 22aa ed75 fbb0 cdbf 2b1c 6ddd da70 bf3f
00000100: 1e3b d8e2 7c65 a7bf 125e 6e50 a97a d73f
00000110: 6e4b 01d8 95a3 c43f f5a0 69ad d763 d1bf
00000120: ef52 8208 b5a6 83bf 7645 5445 a7df cdbf
00000130: 63ca 69be faef c8bf 4638 2f31 4b44 dc3f
00000140: 9ace 4b3a 8f41 cd3f 6479 d7e9 cc22 e33f
00000150: 6165 21b4 cdba d33f c5c8 9506 164d 9a3f
00000160: 92c5 ce13 28ec cbbf ea4d 66f0 d17d e23f
00000170: 16c4 6a7b d69d c8bf 3c91 0285 6d49 bbbf
00000180: 68f4 4798 ac98 e03f 8f35 847f 65d9 cebf
00000190: 1181 3786 c9ae c4bf b017 4c13 932c c1bf
000001a0: 24e8 91b8 3f38 e23f 41eb ee06 3002 c4bf
000001b0: 4d4e 671f d6dd babf 5438 b68e d67d df3f
000001c0: 751f c68d 8f7f d13f b431 35d1 0068 dabf
000001d0: a1c8 b33d 2e67 d7bf fbcb 46b8 1482 e13f
000001e0: 8f66 407a 8c5d e3bf 215a 0543 4395 d43f
000001f0: 1595 1527 0aa7 aabf a4e0 5473 7f11 923f
00000200: eab4 fcaf 2d94 d3bf 39f2 e363 348c e13f
00000210: 7f85 31bf 0d80 cebf 6e96 0817 4cb8 e03f
00000220: 1350 b88d 7713 d5bf 1bfb 60e8 8985 e3bf
00000230: 2815 cc5e 1b54 d43f 2809 68af 7b0d da3f
00000240: 6919 8f5b d7cc e43f 8577 a3f9 c038 d6bf
00000250: dadc 27bf c058 debf ad6c 2fb9 d6b9 d23f
00000260: 90e6 8e5c c61e de3f 92cd bde4 8081 e33f
00000270: 94ad fec4 78e2 9e3f b7cf 9495 7d67 8e3f
00000280: 823d 83cf b039 cebf baa9 9158 c093 dd3f
00000290: 0e18 43a6 a967 d4bf 22cc c4d1 cfd0 e2bf
000002a0: 59f2 2c77 5456 e03f ef2e af28 bbb4 c4bf
000002b0: c70c 30fc 3f0e d93f 0bf7 6b19 a4ff c23f
000002c0: d648 13d0 2e1d cabf d9f2 9a53 0dd2 dd3f
000002d0: e5fb 1aa2 ef6a d03f 4de8 c352 a4d7 a33f
000002e0: e648 a6a5 c4e8 e1bf f78a c4e1 bfa4 d53f
000002f0: abce c6ae 1642 e13f 075e 4c9c 781d e03f
00000300: 23a6 eac9 6127 c4bf a44f 75cd 5cf7 db3f
00000310: 2903 7d68 d101 d43f 551f 4257 90f2 e3bf
00000320: b322 bbb1 8ffa a9bf 58bb bbc3 fa4a dfbf
00000330: 5a84 9e3d ff6d e13f b0dd 3abc b5d3 d03f
00000340: 311d dbef 11a1 d7bf b47d 7f4a b503 e43f
00000350: 6f41 812c 3c1a c63f f2c8 c5f5 dd8a a7bf
00000360: b116 3f0f b21a df3f a991 a887 0051 d7bf
00000370: 2e44 baf6 d73f dcbf 6a33 3d72 7c68 e3bf
00000380: 097c 161c f409 ce3f c9ea c301 86dc cf3f
00000390: cca0 2820 1a72 ca3f d27f 715a 0997 9abf
000003a0: c3d9 9f07 7021 ce3f 1d31 d91b 5253 c43f
000003b0: 1637 ac54 8fa7 d23f a929 5e89 612f e0bf
000003c0: 8157 b283 3cc4 ce3f 1914 8243 1542 e33f
000003d0: 0af3 42b1 bb47 d4bf e594 99e1 7b5d d8bf
000003e0: 13d4 10b3 43f7 d0bf dc35 7c2a 0b19 953f
000003f0: ea4b 175e fe1d 5d3f 1040 ff43 1043 b9bf
00000400: fba3 66a8 7ba1 e4bf 6dd1 a1e0 6750 d93f
00000410: 379f 3e46 8a0f e4bf 3b7e 8414 9bdd b13f
00000420: 0864 8bba 9d4f d9bf cce7 83fa dba2 df3f
00000430: 394a 798c 0d2c d7bf e096 a500 a310 bf3f
00000440: 9d9d 3a73 6f98 b3bf f883 9a8f 7295 dd3f
00000450: df17 e3c2 88a3 c53f eb7b 57e9 c9fb c93f
00000460: 5c7a 7165 4868 d6bf d49a 2686 17e1 c63f
00000470: 7e53 e952 d691 833f 5cf2 624d 512c dfbf
00000480: 2de1 5b96 9259 d2bf 99a7 6471 7387 c03f
00000490: 91cd 7ddb 5d8d dc3f 3e0f 3cba d6da c4bf
000004a0: 5430 4ae8 0771 e3bf e33c 12bd 795b e3bf
000004b0: fb24 5fb9 e882 9a3f 23c0 0274 c044 ccbf
000004c0: bf61 8deb dc38 e1bf e16e e692 8054 8c3f
000004d0: 9f35 533f 7428 d73f ca9d 5af4 6dbd b53f
000004e0: 85b9 f98c 4f8b e63f 1b48 119a b4d5 b63f
000004f0: ccef 3471 9399 953f 3534 c9ce 8b3b e4bf
00000500: 4d2c b19b 0592 e1bf b26b d356 e95e c03f
00000510: c863 187a 705d e2bf 4fc8 6aa8 8a0b d93f
00000520: 6e0f 3c68 45d7 d93f 22ae bc37 b230 d8bf
00000530: 508c 2fcc fcf2 d93f 19d7 e694 c1ed dc3f
00000540: 91fd af1b 5d98 d0bf 2469 e70d b32d b2bf
00000550: e24f 0892 8c2a c03f 18c9 b9dc d303 e33f
00000560: e302 1e58 f6ab d9bf dee7 6e56 e3af c4bf
00000570: f7b4 957e 023f e2bf f149 4016 2fe6 e23f
00000580: cdd2 81f1 c4c0 c33f 704f 40f8 62cd d6bf
00000590: c4a3 32ee c7cf 9a3f b6b9 e409 fcec b13f
000005a0: 81e4 4f3f 208e dabf 3e98 f5df 73a8 dfbf
000005b0: 98ef 8a8c 31c3 e43f c930 b9c4 18b4 d63f
000005c0: cf9a 146f e260 e13f 675a 1bf5 de75 cdbf
000005d0: 3ac5 3f42 33de d43f 40ab f507 9085 d2bf
000005e0: a175 965e 6acb c53f 2805 1489 a41a d1bf
000005f0: dffd 7d19 2cd7 c13f 1628 7996 96a1 b63f
00000600: c52b 7b7f d61e d23f d63e 12e1 965f ba3f
00000610: bb84 b26c 5059 e1bf 0e19 9202 913b b5bf
00000620: de19 120f 37b5 bd3f 930c 8d38 3d2f 853f
00000630: dda1 6c9a 53b4 ce3f d037 b561 aa20 d53f

fc_in.bias f8 [100]
0.010292951734617348 -0.07097382628441799 -0.24010341241031755 0.3596963722933548 -0.32752067316779254 0.2770549642210887 -0.4048731772613431 0.39994727240637545
0.5364158120841438 0.6232898546754643 -0.07008004063666311 -0.18687851517027 -0.009919035094097346 0.04799507155698713 -0.5994820797636929 0.11576967659304212
0.047795120226479325 -0.5557774851914631 -0.19096421878830006 0.4040764467279928 -0.47172021130015285 0.15555941692301511 0.1893853258127159 -0.615580322929263
0.2568773726749088 -0.11290191794341754 -0.6307873238777942 0.1027398140295714 0.05320886619950457 0.5017910341306221 0.4793479120912416 0.42136149291135383
0.1405960161014647 0.44861190465100836 -0.3706087114982835 0.18388931911616346 -0.023040916791190393 -0.2815275702656433 0.3088451443674852 0.5578224112575805
0.4516077284721132 0.007805448248396831 -0.5624400845233074 0.44979367825266237 0.1487214421128351 0.1427960728170981 -0.47003696564696396 -0.4905455765861698
0.43672743637691275 0.5816853557427034 -0.02670712408344137 -0.11067906757871222 -0.15611895471541637 -0.3353294358010177 0.2651099435915373 -0.48453541029168823
0.5957676551770178 -0.25486045336831087 -0.16699872228609938 -0.1090098022702261 0.37217382028724433 0.16753519794897606 0.17518693351635659 -0.6124327323006411
0.4707350531720774 -0.23411492163799782 -0.57665001083818 -0.09421211237679254 -0.4053509908689064 -0.16973833274826888 0.10194307784001254 -0.050953664474674254
-0.4651428821213726 -0.5491657991870891 -0.06364686084634853 0.20987871311403325 -0.4036306660957512 0.08398679500833535 -0.25673357177427675 0.1254260996961539
0.5341702498699598 0.39495356555664973 -0.12074064063172936 0.15908479414296628 0.3450246806584541 0.5620083592949575 0.5970533566039952 0.10241326745701466
-0.4152099092257568 -0.36369498664847727 0.6157322015891961 0.5792867058496664 -0.1191428883322357 0.5591614667206597 -0.11439639752231143 -0.391024260394866
0.4936587216432097 -0.22426478417699278 0.5783676166352587 0.10737354987472562
00000000: 98ca a298 7814 853f b378 c336 572b b2bf
00000010: 95eb fa67 b5bb cebf e058 dfee 4305 d73f
00000020: b240 0145 19f6 d4bf a589 a1be 44bb d13f
00000030: 765d d72f 71e9 d9bf bb06 c771 bc98 d93f
00000040: 80ad 3e7e 512a e13f 8f4f b890 fdf1 e33f
00000050: 9306 a3fa c3f0 b1bf dc9c 7d9b a2eb c7bf
00000060: d739 b25a 6e50 84bf 71b2 695d cf92 a83f
00000070: a3f0 e30a f52e e3bf b5ea d5de 14a3 bd3f
00000080: 8bee 8f1c 9a78 a83f c103 58dd edc8 e1bf
00000090: b072 33f9 8371 c8bf 9af5 f174 63dc d93f
000000a0: 105e 19f8 a930 debf 7474 22f8 5ee9 c33f
000000b0: 1a9d 5a42 c73d c83f 8d5a 6181 d5b2 e3bf
000000c0: 1d27 aeca ad70 d03f d9ff 38dd 23e7 bcbf
000000d0: e52a d9e5 682f e4bf bd0e 410d 284d ba3f
000000e0: ec43 5e48 313e ab3f 9b8b 2012 ac0e e03f
000000f0: f49d 75dd a2ad de3f a445 f631 96f7 da3f
00000100: 6545 8ddd 0cff c13f 67a1 c4b4 0eb6 dc3f
00000110: 65dc df99 0db8 d7bf 4004 d869 af89 c73f
00000120: ea21 5ac0 0998 97bf 61a6 cd36 8c04 d2bf
00000130: 468d a56c 1ec4 d33f 2e78 aa62 aed9 e13f
00000140: 1526 1a1a 24e7 dc3f a9db 510f 9bf8 7f3f
00000150: 2b96 1f59 82ff e1bf 1cbc 826c 6bc9 dc3f
00000160: b856 0be1 4d09 c33f ea92 5f47 2447 c23f
00000170: a658 d7ec 1515 debf dea4 2846 1965 dfbf
00000180: 014e 20a2 57f3 db3f e343 6f9b 2a9d e23f
00000190: 0acd 08c2 1c59 9bbf 2533 9a9f 7655 bcbf
000001a0: e4ea 64b6 b4fb c3bf 38b2 0998 0976 d5bf
000001b0: d27b 64b2 8ff7 d03f 463b 3dcf a002 dfbf
000001c0: 27ff 5f54 8710 e33f 22ae 1038 a24f d0bf
000001d0: 91a6 58d1 3660 c5bf 1bad b1ff 10e8 bbbf
000001e0: fee8 a324 b2d1 d73f 9753 0f1a cb71 c53f
000001f0: dbd3 1183 866c c63f cc65 8787 0c99 e3bf
00000200: fa1c 9dea 8520 de3f 3f6c f84d 7af7 cdbf
00000210: 8837 39b9 ea73 e2bf 639f 8bf5 481e b8bf
00000220: b1b8 4b48 45f1 d9bf 4804 0456 fcb9 c5bf
00000230: 1f5e 6009 f118 ba3f 0867 0f45 9916 aabf
00000240: 316c aba6 e6c4 ddbf 56e3 7227 c492 e1bf
00000250: 5100 d421 294b b0bf 7bc5 7940 4edd ca3f
00000260: 09d0 a2b7 15d5 d9bf d54d db99 2880 b53f
00000270: 0592 a3a5 526e d0bf ab41 2162 f60d c03f
00000280: 0701 3635 ec17 e13f 2248 e051 eb46 d93f
00000290: b5b5 cfce dbe8 bebf 7845 11fa e35c c43f
000002a0: f96a ef65 e214 d63f c503 68f4 f8fb e13f
000002b0: 1199 12a4 0f1b e33f 6385 6782 c137 ba3f
000002c0: 5f62 4695 cc92 dabf 9ff5 5756 c746 d7bf
000002d0: fd6d 9d04 14b4 e33f 6f38 1446 8489 e23f
000002e0: 551c f0f8 2580 bebf bef4 9796 a6e4 e13f
000002f0: 8e77 2312 1549 bdbf 99aa 959e 8a06 d9bf
00000300: aaef 35c0 1a98 df3f aba3 d75c b5b4 ccbf
00000310: e271 d0cd fc81 e23f dbd8 2a3d d57c bb3f

fc_out.weight f8 [1, 100]
0.022326871442380408 -0.0011282425632962276 0.01329687537803572 -0.008087791913258651 -0.014822658607383314 -0.002486265068993985 -0.010412827416997596 0.0011744442389484153
-0.020451499771540444 0.013001337210442065 0.0033658518085529104 -0.04673890795605718 0.025883017373413336 0.016092207713295073 -0.010202308005315977 0.003190360932985259
-0.01710619560301473 0.02858748664682557 0.006567200884199472 0.013058816590566699 0.022753060789271924 0.0093154727255024 0.025459016671466734 0.0014150559142892167
0.006146095735567419 0.01491687140737919 0.004407226781429516 -0.01158429781605978 0.03101984918653839 0.004333231958337448 0.01441974283371443 -0.007667805037795068
0.005130158422428741 -0.015901133468319836 0.013036620246610595 -0.03430858476709266 0.011532032759698517 0.005005182837403328 -0.02843062184066486 -0.006533439330699818
0.017539473951865562 0.0062951209871494156 -0.015555389106500998 1.3644908848944317e-05 -0.009865897986807795 -0.020269978739266056 0.014591006387061775 -0.028837234065521904
0.001623893001060389 0.011451780715379301 -0.010335285489622497 -0.03533546521943562 -0.00010488138247441812 0.022624500881369417 0.008904125696568378 -0.009080909951150311
-0.0023016929217310484 0.05472617027690376 0.0169068924998089 -0.017905673978239594 -0.011539778449509399 -0.02268878885491808 0.024163192317548005 -0.0028035910068629766
0.022571197793903985 -0.023783898868551395 0.01124941838433211 -0.017245101092562963 0.01882391835133545 -0.00243795958321827 -0.007551726716580415 -0.007929609507731554
0.015917709089544985 0.005962989000217674 0.027763677214164735 0.03255182472053806 0.00979360849567078 0.025339877170677434 -0.029803564176172963 -0.005572246648990133
-0.029217936304034565 -0.010908453365907934 -0.029885143191904835 2.3088121992518446e-05 0.018645831829545254 -0.0021386125875300565 -0.003939531415619039 -0.006076662091342892
0.008157670161319635 -0.00868921865953064 0.005964792848897091 0.009905616358315833 0.02752187942778313 0.001067034173129983 -0.02799733045829669 0.014892999961187085
-0.01726441492811196 -0.010495370542843881 -0.026697200215815432 -0.008241257419248386
00000000: 5807 abfa dadc 963f b2f1 523a 317c 52bf
00000010: cce8 1967 643b 8b3f e348 1d0e 5590 80bf
00000020: c9f9 aa8f 575b 8ebf 2ff3 2265 135e 64bf
00000030: d41b b809 5253 85bf 097e 39e6 f93d 533f
00000040: 5511 b1ea 3cf1 94bf 8624 fcf0 71a0 8a3f
00000050: 65fe 1bee b392 6b3f 6179 3e82 29ee a7bf
00000060: 18fc 8fe4 1381 9a3f 146b 65c7 797a 903f
00000070: 08fa cf99 f2e4 84bf 9ad3 d3fb ab22 6a3f
00000080: fd19 b25a 4984 91bf ab4d e4c0 0946 9d3f
00000090: efe3 6190 35e6 7a3f eb93 72b1 94be 8a3f
000000a0: d231 e50f 944c 973f 505c 9f95 fd13 833f
000000b0: 3515 f8af ed11 9a3f 55b5 edb7 2c2f 573f
000000c0: d3e4 ea02 a62c 793f 439f d396 bc8c 8e3f
000000d0: 3dd7 46ee 4f0d 723f d705 2322 82b9 87bf
000000e0: d2d3 21d7 aac3 9f3f 75ae c018 b9bf 713f
000000f0: 58ab 191f 1988 8d3f 7b33 e9bd 4668 7fbf
00000100: b1b1 5c6a 5c03 753f 6ff1 dc00 6348 90bf
00000110: 1263 e08c f1b2 8a3f f3e9 1713 e590 a1bf
00000120: 4c75 793c 1b9e 873f d4ea 8d89 5080 743f
00000130: 70da 0abc ea1c 9dbf 7193 17c4 cec2 7abf
00000140: 119a 0c2c def5 913f 4c0a 3aac e9c8 793f
00000150: 7c6c e9fb 80db 8fbf 5338 0ffe 8d9d ec3e
00000160: 7593 9769 9234 84bf 9f61 1a3f a7c1 94bf
00000170: f839 fcb9 e3e1 8d3f 0ec2 df04 8287 9dbf
00000180: 7f84 3bd5 199b 5a3f 6d67 3afd 0774 873f
00000190: c9cb 6189 aa2a 85bf ac49 0377 7d17 a2bf
000001a0: 1579 456e 787e 1bbf b1c6 7e8d e02a 973f
000001b0: b472 5485 533c 823f c99c 101a 0399 82bf
000001c0: 846a 60fa ffda 62bf c335 268f 1105 ac3f
000001d0: 1965 7459 0a50 913f 5bf6 9870 dd55 92bf
000001e0: 4e8e 59d8 2aa2 87bf 3b8c 78d8 ba3b 97bf
000001f0: b553 1563 3cbe 983f c05e f275 8ef7 66bf
00000200: f0ea 6c71 e71c 973f 6848 3f6f ce5a 98bf
00000210: 7352 7a60 ef09 873f 46c8 d524 b3a8 91bf
00000220: be65 cec6 9346 933f 437c b995 c5f8 63bf
00000230: 60ab 6a34 8fee 7ebf afca 0b2c 663d 80bf
00000240: b00a de5f bb4c 903f afa2 e0ab a56c 783f
00000250: c22c 9bd6 146e 9c3f 9d1d 33fd a1aa a03f
00000260: b901 97e1 ab0e 843f 424d ee5e b2f2 993f
00000270: 4e7b c355 d384 9ebf 7568 f691 ecd2 76bf
00000280: 3d9e 8783 4eeb 9dbf b4f1 a6d3 2b57 86bf
00000290: 2200 9502 369a 9ebf cd30 82a9 ab35 f83e
000002a0: 3c90 a897 e417 933f 6e84 e9e3 fe84 61bf
000002b0: 4464 77e9 e522 70bf 44f4 378f d7e3 78bf
000002c0: 4375 6ff4 f7b4 803f 7a89 c32f a7cb 81bf
000002d0: 2333 6ae3 896e 783f 230d 7252 6549 843f
000002e0: f562 4410 b22e 9c3f 1bcf 2538 777b 513f
000002f0: 6756 c60a 55ab 9cbf 7c57 2e9e 3880 8e3f
00000300: aad5 0046 c3ad 91bf 7e65 edc9 987e 85bf
00000310: 7a69 49c7 8256 9bbf afab bfd8 cae0 80bf

fc_out.bias f8 [1]
0.06505949456181598
00000000: 34f2 6f31 bda7 b03f

fc_hidden_list.0.weight f8 [100, 100]
0.007008708896798383 0.05023288350258085 0.03801953662855392 -0.09818863737379163 0.05433064213209482 0.019376020124187307 -0.01612307704676111 -0.11555843710791822
0.06752069376906539 0.047767095671968164 -0.008717067173787384 0.07889768036488076 0.11695538248262037 0.037599871857494215 0.06162868388146314 -0.006782890047056753
-0.012161185201961187 -0.04353885553472614 -0.07416712330737625 0.07492082504718858 0.12261365378198806 0.06894987487847398 0.004137729116536606 0.04304938212757289
0.03256614927330029 -0.029628260790969474 -0.06611036552082952 -0.0237608180022058 -0.02496992511157652 0.06155038243635235 0.0549099483661321 -0.025551139569413288
0.025783955517403388 0.08962362439747876 -0.013722863848851805 0.03965887152187059 -0.028944754202169656 0.07533706206218212 0.10497077515892189 -0.09246603460373798
-0.03504393713062895 0.02856650602982019 -0.07189262019849808 0.02615684170599027 -0.04548448280113519 0.025809636370471064 -0.03255592784094676 0.08172069088431455
0.1055406042615431 -0.10921204564911989 0.019922131329636515 0.049031607183447276 -0.016559479239892788 0.08083287667925086 0.015948913566351832 -0.016152210686361624
-0.048953480485382964 0.014726958637372532 -0.000560251243265298 -0.09803562723865 -0.04407056191141853 -0.09048291407435184 -0.09694096028842376 -0.003997629964689921
0.020221809027881284 0.05443595774790835 0.12897779361664682 -0.012933463899567111 0.10856955635458626 0.0018950959917207115 0.07337358051924488 -0.13194955661137653
-0.04270474150168712 -0.0522684107144122 -0.03647120173036589 -0.09115406986197602 0.09024048796148329 -0.010671370035490516 -0.0945651457312858 -0.05389666798673867
0.03792350856550874 0.04201685312293426 -0.06905032159850905 0.07870408395220849 -0.08050950335031543 0.08380908724018031 0.04380349691568587 0.1288666705684721
0.0762089782838652 0.03817575758557281 -0.11620525014149538 -0.04940719620987134 -0.060167050565888884 -0.004300341613358336 -0.018485299353123635 0.04098515342445999
0.07607817973147463 -0.014706344194754096 -0.04057732980765775 0.09658233462782766 -0.06122170393170163 -0.05773827448442778 -0.026560133485418323 0.036026194301954445
0.052796633616997254 -0.010497459676253141 -0.03539052657289473 0.010806430966892603 0.020402891021703944 0.04208908140854778 0.08628916696594548 0.13768919192985188
0.10518350705358585 0.12480003882295453 0.021537342599463362 0.06518326858143345 -0.026875592691393915 -0.04098439834037826 0.08970669225959625 -0.050978665448701076
-0.03978462155059858 -0.11678247277707923 0.02673734746200442 0.046860866048877826 -0.10526763398993493 0.13290131478882658 0.08367311652115085 0.048234153787715506
0.04493723021693806 0.035418065437080155 0.046618478790971855 0.025023901453793528 0.045138797918488585 0.06141429194017561 0.007543836233923921 0.04389705169199774
0.023966945367208593 0.10656889100455101 -0.0708744726561678 -0.053996752796150516 -0.09003109814521675 -0.11366813424055422 0.04789030621451343 -0.04382803667157963
-0.029333922192887964 0.05246483621880495 -0.039699114714818386 0.061702440190299766 -0.019965859129022438 -0.15138446196712332 -0.06059392764758508 0.03126651072431693
0.03071433599764683 0.005480767699304957 -0.1271624084523225 0.04982692462792395 -0.008177303645337555 0.08705391156166012 -0.03473328567682816 -0.07079637950249264
-0.06519376282501634 -0.024614893139557056 0.055343896966091766 0.08825781007375924 0.047947722846490765 0.0938906790840791 0.14118482844046704 -0.022991997421984538
0.11182000480708469 -0.05476957544240573 0.007880209086867427 -0.09082524179156713 0.04475243756831147 0.012262200401180161 0.07563279192603263 -0.10532936235036595
0.023630753689497526 0.03287720471640047 0.04175140023168294 -0.034111477039428274 -0.16309112073297624 0.026829246066812376 -0.1222064448279812 -0.03997001069263677
-0.10524844263358825 -0.027120821545554924 -0.08945337262238708 0.046393924005391204 -0.01631633142217242 0.13098207876004256 -0.06406403441380368 -0.05564043044490618
-0.14388874173714084 -0.1257045322530704 -0.07169966630712585 0.12508839785191378 0.03973384951188393 0.028587101738981945 -0.06068113624062097 -0.11876562784363791
-0.04388662740239896 -0.0798471448878042 0.13318636721147745 -0.12153383994956979 -0.03806800377830637 0.03605027321531771 0.008156778177397357 0.037139953038992854
0.029131126881502843 -0.12258049776044781 0.14620368768163058 0.04120849829939017 0.10002102781837632 -0.06631822390570646 0.0636948323993571 -0.017910818362632152
-0.02502757983255114 0.09850214420562081 0.09445922064239122 -0.10026854585808719 -0.018921935552550714 -0.03179541093746083 0.002239040786444897 0.022572128710792567
-0.034538852876113205 0.08882174495590878 -0.01769788047797381 -0.07212295989331866 -0.08583198487323744 -0.10086341356033411 0.08525725952654808 -0.06529152868514837
0.053457992586268405 0.019485305205583933 -0.0031523647157994466 -0.1219517886799118 0.021102431227332602 0.0416458107774095 -0.00028533727538063337 -0.0654837826934659
0.05505473892714134 0.047194552193353265 -0.06695151941058601 -0.04883521189679692 0.05129299032776814 -0.1113039308431758 0.052352922980274975 0.011280708578360133
-0.09979009186662996 0.025119829563618273 -0.09825988160679841 -0.11788828797857202 0.14580415038443367 0.10589416259752256 -0.04465200144571283 -0.011083822636030707
00000000: 7aa1 fbf7 29b5 7c3f 159c a7df 1fb8 a93f
00000010: 4b80 dbf4 4b77 a33f 0cf7 5bfa e322 b9bf
00000020: c08c 41d6 39d1 ab3f 4c43 0ab3 4ed7 933f
00000030: c8c4 8162 9182 90bf 16c7 27dc 3c95 bdbf
00000040: 0497 8a43 0949 b13f d5d5 78c3 ed74 a83f
00000050: 3978 6df3 40da 81bf 98bd e56c a332 b43f
00000060: 6fa1 dab6 c9f0 bd3f ab67 ec57 4a40 a33f
00000070: 7066 887b cb8d af3f d7a3 ca2e 60c8 7bbf
00000080: ffbf c8a5 f6e7 88bf 50fb 4091 b94a a6bf
00000090: 1528 0bd9 9dfc b2bf 8af4 5ddd 022e b33f
000000a0: 8765 09c1 9b63 bf3f 1c95 aaf1 b2a6 b13f
000000b0: 4f82 c333 b9f2 703f 6bad b390 910a a63f
000000c0: e4c3 2ba4 82ac a03f 80cd 89ec de56 9ebf
000000d0: 72ac d6e1 9bec b0bf 0e94 fb80 c154 98bf
000000e0: 4d7f f34e b791 99bf 7fa8 3d1f 8883 af3f
000000f0: b648 ea20 281d ac3f 4efd 4df3 132a 9abf
00000100: d6c6 d5f6 1b67 9a3f ea74 bce7 92f1 b63f
00000110: 8598 819b bb1a 8cbf d88a 5de8 2a4e a43f
00000120: 779d c192 b1a3 9dbf f5d9 bb29 4a49 b33f
00000130: 0ce5 575e 5ddf ba3f dc25 9da2 daab b7bf
00000140: f45a cc67 47f1 a1bf cfe1 a2c4 8940 9d3f
00000150: 4988 9304 8e67 b2bf b587 c6ee dbc8 9a3f
00000160: 8673 36fc bd49 a7bf 5f03 8860 d76d 9a3f
00000170: 9350 bcaa 2bab a0bf 2831 c1ae a5eb b43f
00000180: 6812 b483 b504 bb3f 1f69 6414 52f5 bbbf
00000190: 4610 1c9a 7766 943f b67d a5ba ab1a a93f
000001a0: a8b5 18d7 f7f4 90bf 776b c7a1 76b1 b43f
000001b0: 9764 b278 e954 903f fdc4 9f82 348a 90bf
000001c0: 7291 6b3b 6e10 a9bf d289 bced 2a29 8e3f
000001d0: a01b 3962 ba5b 42bf 9035 d5e4 dc18 b9bf
000001e0: 1c74 40ac 6a90 a6bf 79ce cb64 e329 b7bf
000001f0: b5e4 146e 1fd1 b8bf a88e 5b9f d15f 70bf
00000200: df48 c3a1 06b5 943f 84e5 81a4 07df ab3f
00000210: bb32 bf26 5882 c03f 1af6 c723 dc7c 8abf
00000220: 6c59 e2e5 36cb bb3f de82 a9d3 9b0c 5f3f
00000230: e577 b868 9cc8 b23f 4c0c 2f1b b9e3 c0bf
00000240: ef8b 4458 65dd a5bf 5abc 43d5 ecc2 aabf
00000250: c000 5b75 5aac a2bf 3659 f484 df55 b7bf
00000260: bed4 9128 001a b73f e293 720a dfda 85bf
00000270: 76e1 41e0 6b35 b8bf 749a bb14 5898 abbf
00000280: dfad 13ca b56a a33f f371 16a4 3b83 a53f
00000290: a43b 0b29 48ad b1bf 66e9 a26a f325 b43f
000002a0: 8424 e853 459c b4bf 17df cd28 8374 b53f
000002b0: f217 6875 696d a63f 3b68 d1fb b37e c03f
000002c0: d909 647d 6e82 b33f 83fd a8dc c58b a33f
000002d0: 5e31 fb94 a0bf bdbf b220 d167 e64b a9bf
000002e0: df5c f434 37ce aebf 71be 7429 3c9d 71bf
000002f0: ebb7 b670 cfed 92bf 14c1 288b 01fc a43f
00000300: ecc9 e20d dc79 b33f 67aa e11a 5c1e 8ebf
00000310: 253e f740 8dc6 a4bf 930c 99b0 9eb9 b83f
00000320: c954 6280 7358 afbf 8cb3 4601 df8f adbf
00000330: 2600 ca62 9432 9bbf 6408 a77c 0672 a23f
00000340: aea2 720d 2908 ab3f 3a33 0130 b17f 85bf
00000350: cb06 7004 b51e a2bf 42db b69c ae21 863f
00000360: ae70 bad6 7ee4 943f c837 5638 b38c a53f
00000370: 6929 1efe 0b17 b63f 0dfa 2ca8 cc9f c13f
00000380: 33ad df6a 4eed ba3f 17bc 4835 e5f2 bf3f
00000390: 7a05 6e98 e20d 963f 6abb cdc6 d9af b03f
000003a0: b73c ae7e 4685 9bbf 704c 0935 e8fb a4bf
000003b0: d7bf 7c8d 04f7 b63f ebb2 ca29 e019 aabf
000003c0: ff19 e360 a65e a4bf 32d5 52c5 74e5 bdbf
000003d0: a571 b903 0961 9b3f 1dca 48be 25fe a73f
000003e0: cb66 50d5 d1f2 babf 4384 4e08 e902 c13f
000003f0: f142 03f3 996b b53f d80e 23a2 25b2 a83f
00000400: 0e24 4f3c 0302 a73f 41cd 7a11 5122 a23f
00000410: 07ce 9793 60de a73f 2311 7399 dd9f 993f
00000420: 2a6b aeb9 6e1c a73f b7b4 c7ae b171 af3f
00000430: d1cb 931e 49e6 7e3f 0edf d0a2 ac79 a63f
00000440: 6a12 267a ca8a 983f 6fb2 a24d 1948 bb3f
00000450: dbf2 2d56 d424 b2bf 0807 b35e 76a5 abbf
00000460: ab1b 282e 470c b7bf b817 29d7 5a19 bdbf
00000470: b438 f905 1485 a83f 4ffd 4de0 a070 a6bf
00000480: 576d ed31 b609 9ebf 02e1 7fc7 abdc aa3f
00000490: 55b6 c23e 7153 a4bf 8bc6 6655 7697 af3f
000004a0: 5197 fb1f ee71 94bf 9dbb a2e8 9060 c3bf
000004b0: 5f46 2ad3 2a06 afbf 2bbd 0a02 2a02 a03f
000004c0: 9e53 8332 9473 9f3f 0e66 6860 0073 763f
000004d0: 33aa ca98 db46 c0bf 0371 7927 ea82 a93f
000004e0: ce3a cf1d 43bf 80bf ca6d 2547 2a49 b63f
000004f0: 8913 21ac 8fc8 a1bf e16e a326 b61f b2bf
00000500: 8193 3cd7 89b0 b0bf 6fa0 1d84 a534 99bf
00000510: 404f 0107 0956 ac3f e224 e257 1098 b63f
00000520: f431 169b 9a8c a83f d7ba 1034 3809 b83f
00000530: 36ed 6b2e 5812 c23f 3e12 fdd3 368b 97bf
00000540: 9b5b af5f 3ca0 bc3f 578f aefe c10a acbf
00000550: df88 82c2 7f23 803f 0f65 25b3 5240 b7bf
00000560: 1e5b 8b9f cae9 a63f a9bc 99ad ec1c 893f
00000570: edd5 d3af ab5c b33f 8175 9a76 ddf6 babf
00000580: 42da 1a09 a932 983f 95e8 14ee 47d5 a03f
00000590: 7754 1d85 7060 a53f 4dee 9a3c 0f77 a1bf
000005a0: a376 e87a 2be0 c4bf e4b1 bb39 2079 9b3f
000005b0: 1388 e5eb eb48 bfbf 36c5 7d01 f376 a4bf
000005c0: 11f2 10db 8ff1 babf b8b3 5086 8fc5 9bbf
000005d0: 0918 ee8d 6ae6 b6bf de2a acc4 f1c0 a73f
000005e0: 4e4d 6577 3ab5 90bf 2578 5150 05c4 c03f
000005f0: 0e38 a824 8066 b0bf af45 310a e77c acbf
00000600: a805 0340 f26a c2bf 7332 7e0b 1617 c0bf
00000610: 0e58 ecc9 e85a b2bf 5a06 f188 e502 c03f
00000620: 7b3c 65c0 fe57 a43f 63b4 39ec ef45 9d3f
00000630: dd71 460f 9911 afbf 6b32 7a97 6c67 bebf
00000640: f89e d9da 4e78 a6bf 10db f8cb dc70 b4bf
00000650: bf21 b939 400c c13f c0d1 f07b d71c bfbf
00000660: e6ef 803e a67d a3bf ad7c f170 2e75 a23f
00000670: 44e7 193c 80b4 803f beda 5a07 0204 a33f
00000680: b6b8 01d5 8cd4 9d3f ab2e 027d 6f61 bfbf
00000690: 7fd7 926c cdb6 c23f e9bb 06c1 4719 a53f
000006a0: 5a69 6463 fa9a b93f ccc6 cd2a 3bfa b0bf
000006b0: 2d56 14f6 4d4e b03f b3ca 72ac 3657 92bf
000006c0: aaed 8373 d4a0 99bf ccf2 f2bf 6f37 b93f
000006d0: c9f7 76bf 7a2e b83f 6f28 470d 33ab b9bf
000006e0: fc3a 8099 4560 93bf 0c4f 47f4 7c47 a0bf
000006f0: 2959 78de 9b57 623f 12b1 74ea 251d 973f
00000700: 7aa9 1697 13af a1bf 4060 c299 05bd b63f
00000710: 9b16 72a7 641f 92bf 7253 087a a676 b2bf
00000720: e337 fbbf 15f9 b5bf 4fc4 9a46 2fd2 b9bf
00000730: 7ac1 6975 6bd3 b53f 4497 6814 f2b6 b0bf
00000740: a454 bc93 d85e ab3f 0c37 71b2 f4f3 933f
00000750: 9364 80eb fcd2 69bf 04a5 1180 3b38 bfbf
00000760: a82e f32f e09b 953f 74d7 9b86 9952 a53f
00000770: 2172 1e44 2ab3 32bf f938 1691 8bc3 b0bf
00000780: b620 5d7e 2230 ac3f e68b 7064 e229 a83f
00000790: bb35 491a bc23 b1bf badd facb ed00 a9bf
000007a0: e290 f127 1343 aa3f 603f e316 6a7e bcbf
000007b0: 55bf 1998 00ce aa3f edac 5b13 571a 873f
000007c0: e431 08ed d78b b9bf 68cc d339 03b9 993f
000007d0: 6691 0242 8f27 b9bf ab0b 7345 ed2d bebf
000007e0: bad7 c2dc b5a9 c23f 1594 313d e11b bb3f
000007f0: 6510 d28b a0dc a6bf 482e e47d 1db3 86bf

fc_hidden_list.0.bias f8 [100]
0.014616885682507156 -0.07508371965766726 0.02877227540498262 -0.0013561904460821935 -0.08511169306319637 0.0907931656806576 -0.022922498927918835 0.02982062825436823
0.033780149790513476 -0.0005593166277977452 -0.03281863287170469 0.052023287935934484 -0.13822835112047172 -0.05433644897736545 -0.06443280657196455 0.02011096594755353
0.026047277662946035 -0.0037006342785739685 -0.0631765525694439 -0.08188293656628257 0.0263698292367122 0.01380093869962819 0.07825782973776 -0.05778652201770327
0.08884975418698217 -0.062170866659003385 -0.10134091169920052 0.013546458263636011 0.04105864111355619 0.0226373810291957 -0.012625355517338895 -0.07353003945697816
0.020978529385916836 -0.045943420598326505 -0.06300968547010062 -0.03575012565761862 0.025562742430177032 -0.08163403963852381 0.07086845108029143 -0.07079002013089307
0.05447277044561217 -0.0554590539804918 -0.11189304137677789 -0.06183511698382269 -0.11045965765847027 0.08514169782657295 0.05721142472396984 0.06409910818719876
0.06314617121668546 0.06207513319818263 0.10667772426919876 0.020980858797920637 -0.07816984083836923 -0.0931877249594231 0.09042218624603755 0.012069054260627923
0.030366807524485197 0.02609792894872078 -0.07138826915725693 0.049448476469562706 0.10542264359762397 -0.006592647078541763 0.05608264600981328 -0.07581817974787385
0.006098056540815302 -0.02176661296543237 -0.06316674809858289 -0.07582921597228327 -0.0016709623145637368 0.040158703784713444 0.06326558912049175 0.06376887601092918
0.07335941043070664 0.03763544021919101 -0.05950841438782936 -0.06511596043079092 0.06250048427770111 -0.10796690139785199 -0.09021123849104568 -0.08446070762622873
0.0461331740978521 0.02609989041623958 -0.059019488092910695 -0.022172741608648884 -0.079288774405421 0.009959645557323631 0.019420802473961895 0.04877947969910946
-0.09280314030627831 0.0488561148057938 0.10212283582035935 0.064667065178553 0.08991904240593954 0.09620759229528579 0.061935342493244235 0.017447637686437076
-0.045616589535643334 0.08702549631568755 0.11818991494749746 -0.10727409213145567
00000000: 2f50 ce2f 75ef 8d3f 5147 64c8 af38 b3bf
00000010: 4168 95b7 7a76 9d3f c68c 3c67 4638 56bf
00000020: b3af 3642 e1c9 b5bf d479 4c8d 383e b73f
00000030: f7b7 f3dc fe78 97bf b60d 657c 4c89 9e3f
00000040: 815e 35bd a14b a13f 62a0 ef4f e353 42bf
00000050: 4b4d c495 9acd a0bf d265 a1e0 cba2 aa3f
00000060: 94a1 b873 77b1 c1bf 6057 adae fcd1 abbf
00000070: ed1d 041d ab7e b0bf b491 2414 f897 943f
00000080: e746 d936 23ac 9a3f 6b08 6ee6 ca50 6ebf
00000090: c2e7 28ab 562c b0bf 8212 a7b6 47f6 b4bf
000000a0: 2bee b048 b100 9b3f 49b8 f3a2 aa43 8c3f
000000b0: 7b2e 6183 b408 b43f ad65 6eec 3196 adbf
000000c0: 51a0 7d84 dbbe b63f 8ef8 201e dcd4 afbf
000000d0: 1db1 7e5d 7af1 b9bf 8f66 c0d9 3ebe 8b3f
000000e0: d312 9a61 a305 a53f 6cfc bfec 402e 973f
000000f0: bef5 6088 52db 89bf 8bc6 bd5a ddd2 b2bf
00000100: 04d3 8546 657b 953f a753 df61 e585 a7bf
00000110: 55e2 6c1a 6721 b0bf 7402 0e29 d74d a2bf
00000120: 504a ef9a 1e2d 9a3f 42e2 7cea f7e5 b4bf
00000130: 4b41 b54f 6f24 b23f ff69 5875 4b1f b2bf
00000140: 313f 2cdf dae3 ab3f e303 3a0e 2165 acbf
00000150: 06fd 5cb9 05a5 bcbf 5d34 613a daa8 afbf
00000160: f4a4 2b89 1547 bcbf 55e8 b0a7 d8cb b53f
00000170: b845 4bdc d04a ad3f 97e5 5d95 cc68 b03f
00000180: a347 3ef4 582a b03f a64a f6d5 4fc8 af3f
00000190: 81aa f238 3b4f bb3f 1829 8499 017c 953f
000001a0: aa2f ef4d f002 b4bf a2e0 1697 26db b7bf
000001b0: 0572 c28c e825 b73f 1b8f be0a a9b7 883f
000001c0: c76d cef4 7918 9f3f 25f6 4f5d 6ab9 9a3f
000001d0: f034 5969 8046 b2bf 2b2f 8c8a 4f51 a93f
000001e0: ff78 8276 fafc ba3f dfe1 8a39 e400 7bbf
000001f0: 5178 f854 ddb6 ac3f 1f99 75fa d168 b3bf
00000200: 0364 9796 46fa 783f c22b 53ab fc49 96bf
00000210: 7e30 472d b22b b0bf bda9 ae22 8b69 b3bf
00000220: 8c0d 9c1f 8660 5bbf b368 cf7e ae8f a43f
00000230: 5914 3c74 2c32 b03f 0039 f834 2853 b03f
00000240: 9b5a a7ac aec7 b23f 27f0 d2d1 f344 a33f
00000250: acdc 430b e377 aebf df74 7f88 70ab b0bf
00000260: a4f6 f41f 0800 b03f 15e2 8d06 b8a3 bbbf
00000270: 84fa 0c6f 1518 b7bf 423a 0d89 379f b5bf
00000280: 1e9b 0574 c49e a73f d756 11ff edb9 9a3f
00000290: c115 5f66 cd37 aebf 5a87 4980 73b4 96bf
000002a0: 55de 02e5 444c b4bf 7670 96ff b865 843f
000002b0: b372 f3fd 0be3 933f 8111 0cbc 9ff9 a83f
000002c0: 6ee1 9454 f2c1 b7bf e4db 992e ab03 a93f
000002d0: cbf1 05e0 b824 ba3f aef7 1152 058e b03f
000002e0: 52d0 6b32 ef04 b73f dbff 888e 0fa1 b83f
000002f0: d938 f33c fdb5 af3f 5cd7 0525 cbdd 913f
00000300: 86d9 6bc0 0e5b a7bf 6f13 988c 4d47 b63f
00000310: 43a1 6abb b141 be3f 40a6 699d 5076 bbbf

fc_hidden_list.1.weight f8 [100, 100]
0.11616155041699142 -0.027423794152365108 -0.04850418709181717 0.03962138864161336 -0.10684704861155603 0.006635290058801775 0.02812185566772533 -0.06113868474623813
-0.15038081193016528 -0.06506650208235759 0.05263044416837882 -0.06640387242644388 0.03241304676159071 -0.09920127293717902 -0.1353208188357347 -0.06885467334825958
-0.000635963538174675 -0.08216128599872052 -0.09570685419810204 -0.018934907617742795 -0.056052667142091166 0.08103242826390548 0.04952546863449929 0.0356114549091991
0.09472176423098398 -0.09775494270968879 -0.04105616397813569 0.0406477784390993 0.09760526560002813 0.012403031559777988 -0.07343434973011445 -0.051862394631843375
0.053408855990946615 -0.022352285903214815 0.014860575536629408 0.06247299031407951 0.08498698193758243 -0.038302708228157414 -0.073938328330986 0.051772946531316685
0.07478764098586017 -0.06302256861114598 0.08629370891180825 -0.06687326420787927 0.02107792193917089 -0.003282530111612207 -0.1306442346507121 0.023633216510379636
-0.05876652947925948 0.10070981961598752 0.10591600119158831 0.012359364298475893 0.06944070668304213 -0.012184919006095444 0.1819765487132597 0.11395990879599105
-0.030821168650767655 -0.12342241907111572 -0.032475568141891606 -0.029437347407137528 -0.09987291113455739 0.008360834962339437 0.023786383591652912 -0.08024500376420143
0.06505204359421451 -0.03585613195336408 -0.006970411806650836 -0.04727391848050141 -0.03423163361948283 0.0005761510972957355 -0.06824842510310256 0.01569608385563526
-0.14058724797973698 0.03409569722709084 -0.01899460342775698 0.028483662305158468 0.011438491674198449 -0.02511930989598632 0.08481801398258464 0.06722222263234061
-0.023962864685953027 -0.017896884442486365 0.08861564664399069 -0.09493877125956551 -0.002265072587801026 -0.04896125623195317 0.013803109794852561 -0.09850246951212502
0.028480267012668575 -0.07076401637396937 -0.023303633810151776 -0.018460186854637916 0.11534651293167793 0.037489359091621786 -0.08838598371984702 0.003901828423533372
0.07912301462276361 -0.09980267811409886 0.013824066058370721 -0.09943440699899901 0.05167725767177184 0.09483763773471125 -0.01702802219192334 0.08995487778271126
-0.037881605552914 0.03265669036044964 -0.03162933788376242 0.07200490713487231 -0.0739131985007249 0.07483650554415205 0.0076463758319299645 -0.02263703152506483
0.08480136450424203 -0.054375614693327724 -0.14515651061378762 0.06521621742581869 0.06932870371028074 -0.02932016353537526 0.06685582149604771 -0.04635108325575354
0.06805884734526302 0.15390539832863054 -0.01431105777851316 0.09717135237793458 0.04837564327330955 -0.02819692366814538 -0.02543794208725874 -0.08271858504054441
0.039929601060973964 0.02412754394513021 0.010431495227951679 -0.0009220876651500221 0.13940076412704 -0.12266340040997684 -0.051572467593759955 -0.040342176000177234
0.1483897306830324 -0.07412167736002599 0.08487085980149028 0.046667761315890455 0.012269626874728327 -0.03862601389715729 0.14034755544455124 -0.04324087826207701
0.04911051039455617 0.0016905207985768059 0.07843972462767164 -0.029136991848126206 0.0055141220211368 0.12564514063874394 0.039186095511114065 0.09657054075730383
0.02958695843907266 0.031990467887301345 -0.017922977984707062 0.04189864148502213 0.14436954081130834 0.051532076519899814 0.00792583314586492 -0.014861822572553654
-0.045677355524862906 -0.1507141113194444 0.05237849482011621 -0.15510675945821684 0.08375417203341953 -0.06949112329251385 -0.02126331431352018 -0.0454210413816952
-0.04606763862038792 -0.006502462280612681 0.023060528769913272 -0.011892206605183456 -0.02562628026307812 -0.04471528783238941 0.033051464607447664 0.0730368775488217
-0.11797489688844554 -0.015241054206927803 -0.0515275252599108 0.03919265808339048 0.08042338344503253 -0.14254884482213945 0.11180290262933566 -0.17792524327720735
0.001398565064778426 -0.06959749100660455 0.07630922951699143 -0.025582181505089646 -0.0017014045568657088 -0.157235528368295 0.04197637582761581 -0.059913673844190815
-0.060356146597065057 -0.024591048702286847 0.031043381559755615 0.06877057172056823 0.14358915728797533 -0.04157000664236399 0.014533596730718724 -0.006099869969064458
-0.08586630922535882 -0.09542993782330605 -0.045343287563136804 -0.0007719192251903908 -0.05230974236641668 0.01824196380844416 -0.02309473885181918 -0.07760352367450045
-0.07585393038542866 -0.09188557000036762 -0.05173617156109897 0.07073100325029247 0.15848332819616673 0.014808745474744062 -0.10059483326612577 -0.0722097765436928
0.08114214627923111 0.005858844528873204 -0.08852695535030618 -0.11349771354332377 0.011573920651188991 0.08641422121050824 -0.06834978248278006 -0.029732593926074788
-0.0230489965639016 0.021470338687943076 -0.11786059555819718 0.062620801164272 -0.04095983439427258 0.0881774813777338 -0.037784546164501824 -0.0005945551573253435
0.11656187692477281 0.0440488467505817 -0.0637393904366834 -0.06566873562970034 -0.0026217041469458807 0.08299453350268722 0.06476791235193492 -0.02385244270750739
0.07007044250017964 0.001840281359240166 0.011748236702958891 0.013428790691626287 0.09626181627391862 0.01978418896800061 0.07874618514202347 0.03741858473329328
-0.09971634662981922 -0.01092175771193799 -0.04832871758311881 -0.0973311556220777 -0.02485925238942372 -0.039306951131435314 0.0653117074529021 0.05390095884144403
00000000: 5af8 176c c3bc bd3f 2c0b 11ac fb14 9cbf
00000010: 148d 8e72 8ad5 a8bf f12b e030 4149 a43f
00000020: 10f4 7503 545a bbbf d51a d51c 9b2d 7b3f
00000030: ab35 95c9 f9cb 9c3f 09d7 02d7 914d afbf
00000040: 68ce 97ae ad3f c3bf 7443 82c2 32a8 b0bf
00000050: d24b f4a8 60f2 aa3f aa3a 661c d8ff b0bf
00000060: 4c08 9c5f 7198 a03f e59b fc2e 4165 b9bf
00000070: aa07 af4d 3152 c1bf 3121 35ba 75a0 b1bf
00000080: 8245 884c d9d6 44bf 689f 5ca4 8508 b5bf
00000090: ecac c890 3e80 b8bf 4e4a e223 ac63 93bf
000000a0: 872c 7568 efb2 acbf b316 4f8d 8abe b43f
000000b0: 0660 35f8 665b a93f c95e 6524 aa3b a23f
000000c0: 776c 977f af3f b83f 2ae1 f5c9 7706 b9bf
000000d0: 3cad 2b43 5005 a5bf c31a 1a1e c9cf a43f
000000e0: 5065 ab9f a8fc b83f 5330 5db7 c266 893f
000000f0: 226e 7ef2 97cc b2bf ee09 ac31 b58d aabf
00000100: f584 98d3 6758 ab3f 42d5 c783 84e3 96bf
00000110: a8bd 6faf 386f 8e3f 2389 90b4 75fc af3f
00000120: f5f5 01f4 b4c1 b53f 5257 609e 699c a3bf
00000130: 1f3d 1a4e 9fed b2bf ced0 56d0 fb81 aa3f
00000140: e5e3 2d68 4825 b33f 0944 183f 3f22 b0bf
00000150: 5b73 a031 5817 b63f 5de6 bf32 9b1e b1bf
00000160: 9be4 9565 7395 953f 56c2 47ef f6e3 6abf
00000170: 552d 9e45 f3b8 c0bf ffa3 0b50 4e33 983f
00000180: 48f9 6c84 a516 aebf 7400 a365 1ec8 b93f
00000190: 22b0 3da1 4f1d bb3f 1fc0 b0cb dd4f 893f
000001a0: c7fc 36bc ddc6 b13f 8faf 1525 68f4 88bf
000001b0: 2a63 aeee 014b c73f 107c 5501 7a2c bd3f
000001c0: 1ba8 849d 958f 9fbf 1fef 8095 9c98 bfbf
000001d0: 8648 2d3e a3a0 a0bf 1a1e 94f1 d224 9ebf
000001e0: f548 1467 4591 b9bf 0d11 d845 7c1f 813f
000001f0: ef0c 772e 755b 983f 1aab d5c2 ef8a b4bf
00000200: 1c6e c62f 40a7 b03f ba96 3324 bc5b a2bf
00000210: 9ccb fcab 018d 7cbf 2bb1 a77b 4934 a8bf
00000220: 47c7 c405 cf86 a1bf 6a91 6a0f 1be1 423f
00000230: be42 d291 ba78 b1bf c145 575b a212 903f
00000240: d85f 2750 c3fe c1bf f2a1 0cc1 fd74 a13f
00000250: 2c40 1742 5273 93bf aeaa 4838 d22a 9d3f
00000260: 5400 405d 106d 873f 0062 015a e0b8 99bf
00000270: 1bb8 2a24 a2b6 b53f 9b34 c5bf 7935 b13f
00000280: eb1c 94a0 b889 98bf 9be8 8595 8f53 92bf
00000290: 00f5 3fd8 83af b63f 80a8 ae45 e84d b8bf
000002a0: a767 0196 338e 62bf f51a 9324 7311 a9bf
000002b0: 0546 3709 ce44 8c3f 7e3b 2135 7537 b9bf
000002c0: 9b60 9a5d ee29 9d3f 824f 0f30 971d b2bf
000002d0: 82c8 5e64 e8dc 97bf 435e 462b 3ae7 92bf
000002e0: 6dcb bf5c 5987 bd3f 5337 7e26 ce31 a33f
000002f0: 5c64 80bd 76a0 b6bf 0261 282f baf6 6f3f
00000300: 486b 2ae8 6741 b43f 13a3 8d16 ab8c b9bf
00000310: c093 f2bc ca4f 8c3f 2369 2886 8874 b9bf
00000320: 1861 4b07 7175 aa3f 7b1f 8088 4747 b83f
00000330: 9f30 b839 cb6f 91bf 8f42 316a 4807 b73f
00000340: 7381 f0c1 3765 a3bf 55fd 2fb2 60b8 a03f
00000350: fe1a 9c77 b831 a0bf 22b9 4be1 e96e b23f
00000360: a3a9 4db2 f9eb b2bf 14eb db37 7c28 b33f
00000370: 8ed6 1862 ce51 7f3f 0990 5078 292e 97bf
00000380: 60af 33cf 8ab5 b53f 0d90 9ddd 1ed7 abbf
00000390: fb9f f110 7d94 c2bf 6541 0391 02b2 b03f
000003a0: 3e17 1ca3 86bf b13f 82c1 fddd 1a06 9ebf
000003b0: ce6b df8e 761d b13f cf6d 6f45 54bb a7bf
000003c0: 0026 8dfb 4d6c b13f c2e9 3f0e 2cb3 c33f
000003d0: c1fe 09a9 1d4f 8dbf 1542 92c4 38e0 b83f
000003e0: 9e4b 903b b1c4 a83f 778d 0284 a7df 9cbf
000003f0: ae88 5e65 670c 9abf a841 8591 0b2d b5bf
00000400: ddfe 6515 a771 a43f 6c63 b510 e4b4 983f
00000410: 25c8 d196 1b5d 853f 90a4 d42e 0837 4ebf
00000420: 1e45 7b5d e2d7 c13f 1a50 2d5d de66 bfbf
00000430: 4ae1 60db b467 aabf 25f6 23cd baa7 a4bf
00000440: 8845 2c48 6ffe c23f 139c 2f64 a3f9 b2bf
00000450: d415 3bbf 18ba b53f 7031 4239 d6e4 a73f
00000460: c2e4 4971 d120 893f a51f edf4 c9c6 a3bf
00000470: 489c 5aa0 e8f6 c13f e0cc f81b ab23 a6bf
00000480: 41a8 1148 0325 a93f 4e12 c2e2 8eb2 5b3f
00000490: 25ac fb33 a014 b43f 97b7 5d6c 16d6 9dbf
000004a0: 2473 f3db f995 763f c6ec f8d4 2315 c03f
000004b0: bf38 5b2d 3310 a43f 8d45 4fd2 d8b8 b83f
000004c0: 7f24 892b 0b4c 9e3f 452a b8fa 0d61 a03f
000004d0: 153c 2ab1 665a 92bf 7599 d91d bd73 a53f
000004e0: 8f5b 297c b37a c23f 1625 b28e 6962 aa3f
000004f0: fd86 3d51 6b3b 803f 88bb 430f e06f 8ebf
00000500: 484a 4bb8 0563 a7bf ead3 9499 994a c3bf
00000510: da3e 88a4 5ad1 aa3f 747b a1cd 89da c3bf
00000520: 0a7f c9d5 e970 b53f a955 e795 2bca b1bf
00000530: ce15 53de 0cc6 95bf ccbc 913e 6d41 a7bf
00000540: 3799 8e72 2d96 a7bf fa55 6b6d 53a2 7abf
00000550: 01bb 94e3 2d9d 973f 9582 92f3 f05a 88bf
00000560: a19a 978e c63d 9abf 2d20 be15 ece4 a6bf
00000570: ced4 251f 1fec a03f 9f61 7978 8bb2 b23f
00000580: 4085 e253 9a33 bebf cba6 00ab b336 8fbf
00000590: 4396 abd7 d061 aabf 1446 6c61 0f11 a43f
000005a0: b0e6 ba79 a096 b43f 4ffd 4b61 0a3f c2bf
000005b0: ff0f 6472 1d9f bc3f df14 811e 41c6 c6bf
000005c0: 0d36 bbcd 01ea 563f 1bcc c123 24d1 b1bf
000005d0: 448f 286d 0089 b33f 88e3 b223 3732 9abf
000005e0: 7bcb 743b 35e0 5bbf c338 0e36 4b20 c4bf
000005f0: cfb7 c472 ed7d a53f e6ee 7c4b 01ad aebf
00000600: a773 7e37 00e7 aebf 317b cd57 652e 99bf
00000610: e1c0 3912 d6c9 9f3f 7191 77bc f29a b13f
00000620: ca57 4e27 2161 c23f 7002 0cf6 a948 a5bf
00000630: f4a8 3655 cac3 8d3f 2c87 6e60 2dfc 78bf
00000640: dc7d f39d 55fb b5bf 6caa 02ae 186e b8bf
00000650: 0585 5a42 3c37 a7bf 877c e6e9 534b 49bf
00000660: 1aaf 73b1 57c8 aabf cc69 e377 05ae 923f
00000670: f219 50b0 25a6 97bf db80 3c14 d3dd b3bf
00000680: 414a 47c6 296b b3bf d43a 200e d085 b7bf
00000690: ac15 c0d9 297d aabf 68f5 c551 6d1b b23f
000006a0: a429 c883 2e49 c43f f00c 122c 0c54 8e3f
000006b0: 134b 063f 95c0 b9bf 9be5 b404 577c b2bf
000006c0: 38b7 9850 bbc5 b43f 083f 4d9a 71ff 773f
000006d0: b744 0bda b3a9 b6bf c4df d6a7 2f0e bdbf
000006e0: 3783 7755 11b4 873f 4829 020e 3e1f b63f
000006f0: ecc6 7310 5f7f b1bf 2ca5 269a 3872 9ebf
00000700: c650 caf9 279a 97bf b2ba fe09 52fc 953f
00000710: 99d7 68ab 1c2c bebf 15c4 0cb5 ea07 b03f
00000720: 6790 58fa aff8 a4bf edd1 c2a6 cc92 b63f
00000730: b737 24fc 7e58 a3bf fdac 6a7a 7d7b 43bf
00000740: c72e 5ac9 ffd6 bd3f 7ac6 7008 928d a63f
00000750: df7c 6485 3951 b0bf 2134 e68f aacf b0bf
00000760: 4efa 44b2 1c7a 65bf a50c 2437 213f b53f
00000770: b1ba 6141 a194 b03f 990f 6f55 c66c 98bf
00000780: 6d5b f4f2 22f0 b13f 874b 3710 b326 5e3f
00000790: 0625 66a3 750f 883f 444e c3c6 8d80 8b3f
000007a0: b102 c048 9da4 b83f c2bc 6172 4e42 943f
000007b0: 10a8 dec1 b528 b43f de5a 625b 8728 a33f
000007c0: 11d4 a6af 0287 b9bf 6339 8081 255e 86bf
000007d0: 7a48 f4aa 8abe a8bf 8e59 47d2 b1ea b8bf
000007e0: 72f5 0f30 b474 99bf 4cdf 3a6b 0a20 a4bf
000007f0: cc5e 8e9f 44b8 b03f f9e2 e40e e898 ab3f
