savedModel/poisson2d_inverse_tanh/noise_0.01/ParticleWNN_2/trained_model_best_loss.pth (torch, 132191 bytes, 20 tensors)

fc_in.weight f8 [50, 2]
000000 7e 9c 17 16 5f 3d ec bf bb 3f 5d 6d e0 84 df 3f
       -0.8824916297425174 0.4924851482401171
000010 6f 53 a7 09 48 3c e8 3f 20 d4 18 cb 03 1f d2 3f
       0.7573585690066532 0.2831429942482959
000020 7b c1 55 54 ad ee e2 3f e2 d6 7c d0 7d c7 d1 3f
       0.5916353842895171 0.27780099258539626
000030 24 2d e8 2e f9 49 d9 3f b8 5c 32 5c 5a 4f c1 bf
       0.3951399763179373 -0.13523416044038128
000040 b2 67 60 98 cf 6e e5 bf 09 61 7e 80 55 86 d1 3f
       -0.6697767234902499 0.27382409618577747
000050 1b ba 74 30 4d 9b e7 bf 04 36 e8 87 bd 23 be 3f
       -0.7377077051549493 0.11773285453838161
000060 b4 d4 33 e6 33 f2 e4 bf 95 60 f5 ba 2e b3 d6 3f
       -0.6545657631055719 0.35468643434206487
000070 94 48 9e 40 54 73 e4 3f 04 06 4a 7e cd dc e3 bf
       0.6390782606197427 -0.6207034555993123
000080 79 cd 27 31 7e c2 d1 3f ab 0e 60 94 25 f8 e0 3f
       0.27749590683307407 0.5302913568452444
000090 99 56 b7 a7 3d 66 c2 bf 72 f5 5b 40 88 37 e0 3f
       -0.14374514283433795 0.5067788369193933
0000a0 b6 50 1b b9 e7 56 e0 bf 17 ed bb e1 b1 d5 e0 bf
       -0.5106085410466423 -0.5260857972020031
0000b0 7e 35 a5 a0 6e ba cc 3f 08 2a f5 c7 67 53 d2 3f
       0.2244394573594199 0.2863406613074919
0000c0 88 ce e0 df d8 10 a5 bf 17 53 aa a5 79 5c d8 3f
       -0.04114415867698279 0.3806442373109333
0000d0 a2 d3 2b 41 c7 11 e5 bf ff f7 70 5d e1 d9 b6 bf
       -0.6584202072977983 -0.08926209002763129
0000e0 8a 3c 13 03 b8 91 de bf c3 dc 2f 9e 9d 6d e2 bf
       -0.4776439695387543 -0.5758808221425159
0000f0 cd f2 25 a5 8d fc c3 3f 48 2e 56 f4 81 24 b0 3f
       0.15614481510046688 0.06305706229448405
000100 93 81 8c b5 8b 34 e0 bf 8c 5c f6 f3 3a 49 df 3f
       -0.506414274776079 0.4888446218914815
000110 80 e7 5d cb e5 01 d0 3f f2 aa c2 84 3f 79 df 3f
       0.25011582241096875 0.4917753979195104
000120 d3 53 d1 85 3f ff d8 bf d8 df ba 16 0a 59 d3 bf
       -0.3905791098416646 -0.3023095342609827
000130 a7 c1 06 4c 44 e6 5f bf ca f2 b8 eb 66 14 d0 3f
       -0.0019469897234608376 0.25124524135371173
000140 23 1b ed 6f 8d 95 e2 3f 21 2e 2b 8f 1b f6 bd bf
       0.5807559190805914 -0.11703655476883813
000150 f6 71 b0 5a 78 0a 8d 3f 5c a6 4f f4 59 c2 cf bf
       0.01418012644540399 -0.24811863354925634
000160 c1 11 68 17 61 8a 93 3f 9b 77 1e b8 be b3 d8 3f
       0.019082562497730885 0.3859707639729721
000170 19 58 2f 53 a2 41 d2 3f 48 de 15 78 f4 7d e8 3f
       0.2852559864380751 0.7653753610056322
000180 c4 a8 00 08 96 86 e5 3f 17 57 2e 8a 49 8d e7 bf
       0.6726789623546883 -0.7359969805572487
000190 7e a1 19 ae 44 bf df bf 2b e2 bf 86 2c 3c e3 bf
       -0.4960490894505013 -0.6010954505755469
0001a0 e6 b1 7d 31 7c c2 d0 3f 8c d0 b9 00 25 51 e9 bf
       0.2618704303083902 -0.7911553396393329
0001b0 13 85 ef 20 b3 45 b6 3f 61 00 65 fa b7 69 d7 bf
       0.0870010333451499 -0.3658275552043105
0001c0 69 bd 8f cb c5 c9 db bf a2 aa a1 af 88 aa e7 bf
       -0.4341902244477383 -0.7395671301176956
0001d0 73 19 16 12 54 d9 ec bf c1 1a 27 07 06 15 bb bf
       -0.9015293458221961 -0.105789543863561
0001e0 72 44 77 50 82 d3 d5 bf 79 6e 75 96 87 92 de 3f
       -0.3410344873237313 0.47769345944627833
0001f0 fe 3c 7b a7 9b 9f e2 bf 23 06 7d 7e c5 d3 d0 3f
       -0.5819834014054377 0.26292550423031197
000200 4a 3f 43 25 7f ee b8 bf 17 ef a0 6d 20 55 e7 3f
       -0.09738917026265628 0.7291414395508323
000210 0c 76 c5 be 97 59 e7 bf 35 5b ec 3c 80 04 dd 3f
       -0.7296866155626858 0.4533997149423386
000220 f0 6b 4a bf da d8 e6 3f cc 98 a1 4b 56 a7 dd bf
       0.7139714943072004 -0.4633384455286318
000230 bf d4 3e ad e2 3d c8 bf 77 eb a5 73 2e 87 d0 3f
       -0.18938859423875518 0.2582508210540974
000240 24 90 19 80 87 41 ba bf 42 0e 22 35 50 a3 cc 3f
       -0.10256239774167902 0.22373392671953424
000250 28 18 62 d3 07 a8 c6 bf 30 0c 9b 98 10 1d d8 bf
       -0.17700288602299108 -0.3767739763536069
000260 a6 84 aa 69 b4 5a de 3f ea ee f4 a6 6f 3a d9 bf
       0.47428617781595006 -0.39419165901538966
000270 08 b9 d2 a5 9e 75 e5 bf 1a 56 de 8a cb af ce bf
       -0.6706078757031557 -0.2397398403233389
000280 8a ec 5a 5b af 5a b6 3f 31 87 76 5a 5e 99 ce bf
       0.08732124309874414 -0.23905543725145997
000290 33 9a d0 7d 6d 0f c1 3f 62 e9 b3 c3 bb 4d d6 3f
       0.1332833160715424 0.3484944735679588
0002a0 0f 09 a7 ff 62 d7 e0 3f 43 6c ec f8 ff f3 e0 3f
       0.5262923234188593 0.5297851430690418
0002b0 8a ad da f9 d0 ad bf 3f 64 37 09 d4 1d ae eb bf
       0.12374597644764243 -0.8650044576004174
0002c0 fa b4 22 09 98 48 e7 3f 7d d1 dd 5b 37 0b ea 3f
       0.7276115587643794 0.8138691705958504
0002d0 88 d4 a1 cd 6d 40 9f 3f b1 77 a8 c1 38 13 d6 3f
       0.030519214320936544 0.34492319976731795
0002e0 4b 09 73 73 2a 9f db 3f b1 6d b5 c6 c4 c9 cd 3f
       0.43158971094466797 0.23271999075482833
0002f0 e7 7d 95 8f f4 7c e3 3f 69 88 26 13 36 c7 d8 3f
       0.609003334462554 0.3871588885323321
000300 37 61 90 9f 27 97 dc bf ce d2 77 d0 50 99 e1 3f
       -0.4467257555238748 0.5499652930871777
000310 08 76 93 c9 11 07 a4 3f 00 a1 cd 61 27 fa e5 3f
       0.039116435867736554 0.6867863569468966

fc_in.bias f8 [50]
000000 39 32 63 2d a3 44 e9 3f 3a 98 af 77 14 16 e4 3f
       0.789628590247566 0.6276953065505559
000010 a6 01 05 b0 8f 2b b2 bf c8 77 ba fa 68 56 8d 3f
       -0.070977192376637 0.014324970389960515
000020 f1 f3 ff 38 6c cf 99 3f e4 bb f7 75 38 b5 e4 bf
       0.025205317477219272 -0.6471216491753435
000030 65 05 3d 77 c8 d7 d7 bf 9a 7b 4d db b9 b2 de bf
       -0.37254535335895006 -0.4796585694911585
000040 96 04 dc 7c 3a 5a d1 bf fe 62 7a 36 ec 61 ba 3f
       -0.27113210862450765 0.1030566819193943
000050 c8 ab 39 82 1b 4b d7 3f 4a 3f a6 5e 2e c3 de bf
       0.3639591953021264 -0.48066291087251456
000060 6f 04 14 f2 03 46 c7 bf 2f 96 0a 78 df 43 dc 3f
       -0.18182420082306147 0.4416426346091126
000070 b2 43 0f 06 c2 10 e3 bf 95 fb 94 6e eb c1 ad 3f
       -0.5957956426956257 0.05812011456372727
000080 2e 3a 06 a2 c4 3a d9 3f c6 38 86 cd df 26 d1 3f
       0.39421192000091565 0.2679976946900634
000090 59 d0 6b 04 74 d2 d1 bf c9 67 99 8f f5 7f d4 3f
       -0.2784700434851906 0.3203100111328437
0000a0 81 ef 82 98 60 77 e3 3f eb f9 93 5b a8 d1 cb 3f
       0.6083224276294318 0.2173357436331139
0000b0 b1 99 99 53 f6 32 c4 3f af 76 d5 80 dd 42 d8 bf
       0.15780524332076376 -0.3790811308043471
0000c0 ce b6 1f f7 30 e9 e4 bf 8b 59 e6 4a 2b 4c d4 3f
       -0.6534657313001959 0.3171489936297795
0000d0 ad ae ad d8 a0 2a d6 bf d2 e6 2e cf 09 62 8d bf
       -0.346351825332685 -0.014347149501066001
0000e0 b6 94 0a b5 e2 7b bf bf fa d3 66 b3 ab 09 dd bf
       -0.12298409385637651 -0.45371525306410343
0000f0 52 7f d8 3d 36 b7 e3 3f 98 8a f3 44 e3 90 d0 3f
       0.6161147315906226 0.2588432477333895
000100 98 57 ac a3 c8 08 d6 3f 31 00 d1 79 36 17 e7 bf
       0.3442861173983771 -0.7215835932947866
000110 c3 24 88 66 00 63 bf bf fa 0c 8f 8e f6 a4 c6 bf
       -0.12260439398973504 -0.17690927468183998
000120 f5 ea 38 e9 2d 5e e0 bf 15 8a d4 9c b6 4e e5 bf
       -0.5114965014575704 -0.6658585608568638
000130 fe b8 11 62 5b 59 cb 3f 92 81 17 fb df b6 db bf
       0.21366445816551755 -0.4330367996281207
000140 68 1f 13 44 e2 88 da bf 71 b5 70 1c 7f 37 e0 bf
       -0.41460472724837993 -0.5067744784807201
000150 e2 c9 6a a3 91 e7 dc bf d0 f5 c1 37 9b 31 e2 3f
       -0.45163384398179407 0.5685554589287509
000160 4d c5 ad 03 62 37 cd 3f 41 75 66 c1 3d b5 bf 3f
       0.2282526510203219 0.12385927173314305
000170 b2 97 df a7 dc 30 9e 3f 73 56 f3 9a 5b ca cc bf
       0.02948326849573108 -0.22492547098106605
000180 3b d6 bd da 9d 7f d2 3f 7d 52 89 09 c1 f5 c8 bf
       0.2890391002796126 -0.19499981847424755

fc_out.weight f8 [1, 50]
000000 2e 33 28 3c 4d e1 b6 3f f0 c1 c7 7a de ba b1 bf
       0.08937533110311044 -0.06925764558378211
000010 d9 90 54 00 74 9f c4 bf 6d 89 9d c7 9b f8 ab 3f
       -0.1611161233532872 0.05463110744200859
000020 7a 20 24 09 14 71 ca bf 73 57 f7 d6 83 04 ba bf
       -0.20657587477058198 -0.10163139341542919
000030 6c 6a bf c5 48 1b c0 bf bd 6d b6 54 36 85 b7 bf
       -0.1258326497616794 -0.09187640731982234
000040 30 68 e5 74 1a b4 b3 bf 16 57 76 77 4c b3 bc bf
       -0.07696690896901326 -0.11211088100966679
000050 95 82 c0 2a fd 25 b7 bf bb 78 26 20 9a 60 a4 bf
       -0.09042341512441461 -0.03979951517543286
000060 ee e7 3d f6 16 5c d0 3f 99 09 d1 fc a5 f4 b6 bf
       0.2556207089143062 -0.08967053816107863
000070 58 84 da 42 30 01 b5 3f 14 ed ce 78 36 d1 c1 bf
       0.08204938537757422 -0.13919716738551158
000080 f4 28 66 bc ea 17 c4 bf 2b a7 9e 13 5f fe 9d 3f
       -0.1569798870007798 0.02929066235780124
000090 3b 09 82 a2 c3 35 c2 3f 04 1e 18 0c 53 29 c1 3f
       0.14226575312575016 0.13407362070596218
0000a0 4d ef 78 a7 f6 45 b8 bf 49 47 71 cc e0 c8 b7 bf
       -0.09481755818063427 -0.09290890685340715
0000b0 d2 50 d8 e5 8d 36 bc bf 2e 21 cb ed 81 59 a9 3f
       -0.11020743237924371 0.04951101329567319
0000c0 00 30 e0 c5 d5 bf af bf bf 31 dd fa 7a f5 b7 3f
       -0.0620104602859044 0.09358948349581107
0000d0 52 1d 5f 26 d3 2c ac bf 57 c7 eb 1b 88 cf c5 3f
       -0.055029486116434115 0.17039586413698757
0000e0 ca 6f 91 cf 55 ca b4 bf ff fc af 79 89 7d a5 bf
       -0.08121239011364803 -0.0419733964008575
0000f0 29 8d 37 8d e2 bc ae bf 55 d9 1f 32 b9 30 a8 3f
       -0.06003482793655685 0.04724673020239104
000100 43 78 58 1f 8e 80 c3 3f f3 a0 f7 ff e5 e3 c5 3f
       0.1523606923155417 0.1710174083557444
000110 df 7c 52 76 1a b3 c0 bf 38 96 e2 01 3e 58 aa 3f
       -0.13046580102397962 0.0514544846821931
000120 1e 68 48 89 2e 55 c6 bf 15 75 6f 55 a6 aa a0 3f
       -0.17447454169524773 0.03255195420181615
000130 ec fd 1d 27 11 26 ba bf 33 69 a4 4d ae b5 5e 3f
       -0.10214335637100874 0.001874370782906154
000140 1c 96 cd 57 a3 ab ab bf d5 9d 37 a4 64 2b b9 3f
       -0.0540438694650158 0.09831837662897354
000150 7a 31 dd b6 c1 5c cc bf 37 d5 54 ae 13 09 9a bf
       -0.2215807097330858 -0.02542525054487507
000160 f4 61 c5 5a 1d 5a ca 3f 05 58 57 cc fd f0 c4 3f
       0.20587508136919974 0.16360447385403645
000170 cb 08 82 5d a3 db c3 bf bd 2c 06 f3 86 6a b9 bf
       -0.1551403242666026 -0.09928172524648722
000180 ab 18 87 37 17 c5 c1 bf f9 7f aa c3 55 4e c9 bf
       -0.13882723056139432 -0.19770309499745034

fc_out.bias f8 [1]
000000 12 21 40 17 50 c4 b3 3f
       0.07721424644126199

fc_hidden_list.0.weight f8 [50, 50]
000000 ce f4 77 b8 4b a2 a2 3f db 0c 0c b6 6b d4 c2 3f
       0.03639446856321059 0.14710756672875544
000010 50 82 de 4f 75 d8 9b 3f 94 50 95 0b 91 c3 be bf
       0.02719291019423259 -0.120171609237618
000020 94 2e 18 63 ee d8 a3 bf 73 22 44 af 96 7e c3 bf
       -0.03876442870759181 -0.15230067785184395
000030 d7 ee 1a cf 47 e4 ba 3f 50 d9 6a 3c 4b b1 8a 3f
       0.10504578405646768 0.01303347375992972
000040 84 a5 7f 81 94 91 b9 bf d0 7b 18 55 12 d7 c7 3f
       -0.09987762605273615 0.18625096468983182
000050 a9 f2 63 31 14 37 b5 bf c3 f9 4a 73 92 57 9a bf
       -0.08287168699093662 -0.025724685942572167
000060 db 56 9c 13 01 69 5b bf b1 b5 8f 6e 3f ef bf 3f
       -0.0016729841722215508 0.12474438142063239
000070 02 cd cc 46 2b 8a c0 bf aa 79 22 0c ae 6f c0 bf
       -0.1292165847495213 -0.1284081992389024
000080 35 22 08 0c 61 9c 8a bf 4f e0 b4 0c f7 71 c4 3f
       -0.012993581943207303 0.1597279369395914
000090 61 79 41 28 0c 12 c0 3f 61 b2 24 97 28 4a 89 bf
       0.12555076566327286 -0.012348477470902343
0000a0 68 a7 d2 9a 5a 3c c4 3f 9f b1 02 44 e3 57 a9 3f
       0.15809185561857508 0.049498655368867654
0000b0 1d e4 aa b3 5d 5f b1 3f f4 aa 3f 49 14 76 b2 3f
       0.06786142002501135 0.07211424625681301
0000c0 b4 02 a6 96 04 c2 bd bf 94 75 f8 10 72 3b ab bf
       -0.11624172857228637 -0.0531879087177273
0000d0 23 65 8d 0f 40 d2 c1 bf 36 26 6e ce a6 46 a5 bf
       -0.13922882804289669 -0.04155465383435024
0000e0 89 09 c3 3a a9 e8 b5 3f ce 0e c6 a7 30 89 c1 bf
       0.08558137592902972 -0.1369992083747235
0000f0 ff f1 54 e8 7a b8 a2 3f f2 4c 6c 5d b4 fa a0 bf
       0.03656372152406461 -0.03316272392671661
000100 67 5f 94 c8 7a fe b1 bf ac 90 f7 ac b3 84 b1 bf
       -0.07028930088961048 -0.06843111965969467
000110 9a ce 63 4f 98 ec b2 bf 04 fc 8f e3 4a 7c a8 3f
       -0.07392265260915068 0.047823276785486285
000120 6c a9 3e ee de b5 c1 3f 43 c4 70 29 af 3e af bf
       0.1383627570442728 -0.061025117691663876
000130 56 32 35 d6 86 14 bc bf 60 82 57 1a 4f 77 bf 3f
       -0.10968821267778969 0.12291426079856071
000140 a4 9b f9 f1 96 10 a3 3f 26 9f f1 cd 52 5b b1 bf
       0.03723594383045928 -0.06779973533559466
000150 75 67 27 65 76 2c a8 3f 93 fe 03 0c d0 ce bc 3f
       0.047214221809283176 0.11253071111058892
000160 c6 0e f6 6c 3c d4 b0 3f b7 d9 e1 e6 f3 99 7e bf
       0.06573846492943422 -0.007471039525731297
000170 5f 14 4a 65 ba cf a6 3f c2 95 1a ae 33 46 92 3f
       0.044553589691567856 0.017845923901992362
000180 2c 1d ca c9 52 9f b8 3f ef 58 2b 79 2e bf c0 bf
       0.09618108202459003 -0.13083439747305856
000190 14 43 4c fe e6 39 c3 bf e5 c0 76 84 f8 72 b6 3f
       -0.15020453850640847 0.08769181474667993
0001a0 bb 04 8d 33 b4 42 c8 3f b1 dd 1b 47 ad 00 bb 3f
       0.1895356418336059 0.1054790781598658
0001b0 51 2d 72 f6 b4 60 9d bf a6 07 27 72 6f 22 c7 bf
       -0.028689219991560325 -0.18073838304377182
0001c0 72 a5 7a bd 00 3f ce bf f9 17 44 d5 ad f6 ad 3f
       -0.23629769565495057 0.058522636683889524
0001d0 60 29 72 2b 3c ac a3 bf f1 2a f8 b3 81 47 97 bf
       -0.038423424056491795 -0.022733713731251496
0001e0 14 f0 ae d1 ee 14 b7 3f 5c b9 63 5c 93 50 ac 3f
       0.09016316050741607 0.05530224325944985
0001f0 f3 4e 57 56 fc a1 65 bf 21 1d 6e 29 d0 ce 95 bf
       -0.002640717359762118 -0.021296741989798144
000200 bb 14 6d cc 79 29 c1 bf fd 50 dd 16 87 fe b6 3f
       -0.1340782402204804 0.0898212843724799
000210 0d ab 10 df 84 e8 c6 bf 30 33 29 60 8f a2 c0 3f
       -0.178970917624007 0.12996093936308162
000220 7a 4d 01 5f 9c 6e b5 bf 20 9e 4d fe 51 37 74 3f
       -0.08371903724155585 0.004935570036515041
000230 99 b5 f0 dd 59 8b c5 3f 71 b4 d9 82 e5 9a b4 bf
       0.1683151563351373 -0.08048853344526365
000240 ff 40 e7 35 e0 a3 be 3f b4 21 73 ce b5 70 a3 3f
       0.11968804660796549 0.03796928544176428
000250 42 56 68 f0 6b 99 9f bf 85 7f 00 86 1d c1 b8 3f
       -0.03085869459945046 0.09669670602352028
000260 cb d5 22 06 b2 99 97 bf 48 82 68 f8 69 ba bb 3f
       -0.023047238945499687 0.10831320109037634
000270 07 3d 99 9f 43 90 b2 3f ed ed 23 dd cc c2 c6 bf
       0.0725137962956418 -0.17781983182781805
000280 57 a3 d9 e7 4a a5 70 bf 4f 31 42 d9 ab 8a c0 bf
       -0.004063885307552826 -0.1292319117386662
000290 d4 d7 af b5 04 c5 bd 3f f2 d0 3f 94 8d 3d ce bf
       0.11628751216616645 -0.23625344980940316
0002a0 13 14 a0 9f 99 74 b8 3f 3c d1 ae c5 4f 90 8f 3f
       0.09552917620756345 0.015411971302321185
0002b0 cc 43 6e 09 36 92 ae 3f e9 c7 c9 24 d8 a9 b2 bf
       0.05970925202485197 -0.07290411852025581
0002c0 d6 7b f1 3a 26 af cc 3f 14 41 fb 64 a3 ba a9 bf
       0.22409513357248895 -0.050252061917151064
0002d0 6e 6c 7a b9 d7 b7 b7 3f eb ae 0d 63 e3 14 a2 3f
       0.09264896658207686 0.0353156145491463
0002e0 d6 66 c3 6c ff d9 a1 3f d5 19 cc ac 68 ad b2 bf
       0.034866315867203276 -0.07295850962336854
0002f0 a2 44 d2 77 c2 77 a7 bf 44 ab 54 46 2d 0d be 3f
       -0.04583556854880412 0.11738856284197846
000300 03 74 24 04 ee 4a a8 bf b3 42 f8 33 65 1c bd 3f
       -0.04744666863027904 0.11371452826302679
000310 db 89 d7 70 11 8e bd bf 46 98 ab 91 8f dc 70 bf
       -0.11544903759889939 -0.004116593185903799
000320 e9 4d 2f 80 ab be 86 bf 15 15 e9 85 d6 df 92 bf
       -0.011105861520184628 -0.01843199913334555
000330 4e 79 07 55 68 68 cb 3f 1e f2 94 d0 98 14 8a 3f
       0.21412376548591755 0.012734598031436891
000340 c7 ab 4a bf 95 e3 c5 bf a1 a3 c3 2d af e5 bc 3f
       -0.1710078414956497 0.11287970416345995
000350 2a 6d 67 90 df 39 ae 3f aa 1c 2b 37 eb 61 a0 3f
       0.05903528821701294 0.03199706123774011
000360 d2 bc 37 09 c9 60 cd 3f 4a 40 1f 3c 28 84 c1 3f
       0.22951615285953736 0.13684561668060474
000370 f6 c4 eb ec 49 93 98 bf d8 49 88 c8 98 36 cc 3f
       -0.02399936207342975 0.22041616241092643
000380 9d d4 a8 a8 79 e0 ca 3f 8c 61 d8 c6 d2 8b ce bf
       0.20997544036223284 -0.23864206990471037
000390 14 6e ec d1 80 a6 b5 bf e7 a3 d6 f9 4e 79 57 bf
       -0.0845718872555426 -0.0014327307938890534
0003a0 f6 85 c9 b7 fe 83 a8 3f c5 65 91 8f e3 b1 a3 bf
       0.0478820418691263 -0.03846655967272342
0003b0 49 dc 3d 53 70 1d b1 3f 13 0b 48 b9 75 ab ba 3f
       0.06685544998423255 0.10417876981231826
0003c0 c6 9a 53 f6 19 fc bf bf 3e 61 7e 23 06 a5 c0 bf
       -0.12494051231224565 -0.13003613217439097
0003d0 ba d3 30 f2 9a 85 be 3f ea 35 ac c1 f0 08 b5 3f
       0.11922615445003162 0.08216767052018495
0003e0 84 93 e8 b7 f0 74 bf 3f 8e 49 5e b7 82 4f c8 bf
       0.12287811746553073 -0.18992647126703982
0003f0 5c 0c 8a f9 6e df c4 bf 1c 77 e5 c8 2f 6b 9c bf
       -0.16306864914449448 -0.02775263465570453
000400 cf 78 f6 a6 ad 91 bc bf 25 4d 5b 03 1c 4e af 3f
       -0.11159787489166038 0.061142802629229366
000410 f1 a6 63 87 24 28 c1 3f ee 1e 0c 16 ff cc a5 3f
       0.13403755770496376 0.04257962364323285
000420 58 b2 fb aa 05 1c 43 bf 23 3d 94 df 49 70 9b bf
       -0.0005831744838054693 -0.02679553439253114
000430 57 0b e0 b8 8c b2 c5 3f e3 9e f8 09 be ad bb bf
       0.16951140429599817 -0.10811984771191478
000440 bf 29 56 0e 6d a3 c2 3f c2 cb f3 ee 8e bf a7 3f
       0.14561236572292377 0.04638334910295995
000450 d5 85 c4 17 f7 cd ab 3f a1 24 33 66 ea dc b6 3f
       0.05430576481945663 0.08930840487586746
000460 d6 5d fa 84 a6 13 c1 3f b9 7d b1 a8 2c 62 a6 bf
       0.13341218464914445 -0.043717761604735235
000470 ff b9 45 37 00 5e a7 3f 5f 3a 59 15 f4 6a 9c bf
       0.04563904452048816 -0.02775174503613653
000480 1b a6 b0 31 1d cd 81 3f 24 b7 03 3d d6 04 bd 3f
       0.008692005232734215 0.11335505475628033
000490 92 4e 8c 6c 22 9a 41 bf c2 c8 9a fe f8 0c 9f 3f
       -0.000537173088647385 0.0303229241751033
0004a0 34 d8 0f fe b3 8e 91 bf 84 fd f6 f7 ca 48 b4 3f
       -0.017145931607920953 0.07923573068454998
0004b0 7e 3c 37 d3 5f 94 b1 bf 90 d1 4c 2a dc e9 be bf
       -0.0686702624000066 -0.12075592072216623
0004c0 e8 95 19 52 32 1f 69 bf 44 4b 39 c3 e9 8b a2 bf
       -0.0030666334940174685 -0.03622370250800214
0004d0 ae 0e 0e a2 99 0e 8d 3f c4 52 62 a7 63 7b a8 3f
       0.014188003786109373 0.04781638544333114
0004e0 2d c1 7b a0 ce f3 b3 3f ee 3e a9 fd ba 7b ba 3f
       0.07793895166446836 0.10345047657869674
0004f0 7c 82 ac fa 14 1d a0 bf e6 75 1d a1 8b 16 7a 3f
       -0.03147187767013279 0.006369157244845413
000500 04 14 a5 9b 98 a1 a6 bf 63 e8 29 98 62 36 aa 3f
       -0.04420163059197793 0.051196175646467855
000510 61 3c e8 4e 04 d1 b9 bf 13 f7 93 df 1f ba 96 bf
       -0.10084559370464909 -0.02219438364135502
000520 15 ce bf 30 72 8a b7 bf 4b e8 6e e8 e5 8e 9e 3f
       -0.09195626917044593 0.029841987907026895
000530 06 15 35 d7 bb d8 c1 bf c3 da 40 6a 85 b7 bf 3f
       -0.1394266892258786 0.12389406055522571
000540 7e 6c a5 f4 73 ef a9 bf 70 6b 0d c2 6b ad c0 bf
       -0.050655006040607894 -0.13029238677230692
000550 99 cf 67 02 a5 27 bc bf e6 68 53 9c 45 73 c1 3f
       -0.10997992809990222 0.1363303197202363
000560 b0 cc ab 24 9a 82 91 3f 9a 66 0d 53 c6 f9 74 bf
       0.017099770057893593 -0.005121016220834962
000570 3d 78 84 31 91 a7 96 bf d1 03 8a d1 f2 99 ba bf
       -0.022123592994027986 -0.1039115678377265
000580 95 e1 2f 4f 07 d6 bd 3f 9e 04 ca dc 11 aa c7 3f
       0.11654706652905696 0.18487761765212424
000590 7d 86 cc bc 6a 00 b0 3f f8 e3 a8 9c 9d 42 b6 bf
       0.06250636205052192 -0.08695397448254016
0005a0 85 33 44 08 37 06 98 bf e6 15 ad 68 ce c8 b5 bf
       -0.023461208228627867 -0.08509531074113105
0005b0 43 1f de 96 19 34 b8 3f 03 e9 a0 9a 72 1f c0 bf
       0.09454498227398482 -0.125959706785416
0005c0 10 56 3c 48 b4 8e aa 3f 69 d1 e6 8a ba 8a a3 bf
       0.051869996850808175 -0.0381677908475549
0005d0 8c 96 b3 7f 3e ef a3 3f 34 b7 8e 94 9c 1c a4 bf
       0.03893466290336986 -0.03928078950353467
0005e0 29 a3 19 c2 4b 7c c3 3f 61 91 7c db 73 93 aa 3f
       0.1522307107691401 0.05190622381477073
0005f0 2e 5b ad 7f cb 44 b0 3f 7c 60 a7 e9 13 ae c4 bf
       0.06354972712629767 -0.1615624323737882
000600 ed fa 98 03 58 21 b9 3f 45 89 7d a8 1e 8d bc 3f
       0.09816503608542933 0.11152831662687841
000610 42 18 22 42 f7 7b c2 3f db 89 c5 24 56 79 b8 3f
       0.144408137599557 0.09560144803757657
000620 f3 20 d3 dd 7b 33 b3 bf c6 44 19 b4 d5 fd 7e 3f
       -0.07500433126108756 0.007566294459665451
000630 6d c1 17 93 e4 46 af bf 11 b4 f0 e2 f4 bb bb 3f
       -0.061087744670546985 0.10833673992665661
000640 4b ca d9 5f a3 d1 b9 3f c4 10 f5 2b f6 ca b4 bf
       0.10085507478815108 -0.08122194836784319
000650 21 29 b6 2e b9 4a 9f 3f 3e 39 2e ee ad 3d ba 3f
       0.030558484531448053 0.10250365319209195
000660 bb 7f f1 a6 6c 07 be 3f 98 96 ab 2c be 77 a5 bf
       0.1173007876946021 -0.04192919059077588
000670 a4 1b 9b c5 58 eb b8 3f 80 2f 61 20 ec 70 ba 3f
       0.09734110664713441 0.10328555861013733
000680 00 ff c1 df be 42 aa 3f 87 b6 64 96 ba 89 b3 bf
       0.05129047852915214 -0.07632032558168521
000690 b2 6d a7 9e a7 4a ad bf 85 13 7e a3 cf 89 b1 bf
       -0.05721019565290976 -0.0685090803290916
0006a0 fa b2 02 26 75 a5 ba 3f a5 84 78 59 ea cf a8 3f
       0.10408718278877052 0.04846126882717642
0006b0 df 7f d7 65 2f 9d b6 3f eb af 7d 75 b4 5c b6 bf
       0.0883359550130076 -0.0873520647853067
0006c0 ea 27 b5 7b 4c 0b bd bf 86 bb 0a 21 22 25 bd bf
       -0.11345365543561994 -0.11384785944640727
0006d0 fc d9 54 80 08 cb bc 3f d9 09 0b 73 a8 6a c1 bf
       0.11247304089634008 -0.13606744401302143
0006e0 75 5b d5 a8 4c c0 bb 3f 38 00 a4 9b a3 1f 88 bf
       0.10840300676259836 -0.011779096781992945
0006f0 bd 13 07 4b e4 8e a4 3f 08 ad 63 9f bb 52 b0 3f
       0.040152677687309325 0.06376240388242504
000700 c7 f9 8c 67 d5 21 bb bf 60 11 4b 1f df 32 ba bf
       -0.1059850099381726 -0.1023387385749337
000710 57 a7 6f 31 db cc bb bf 3f b3 0d 1f c9 c2 c0 3f
       -0.10859460789620577 0.1309443856838701
000720 e9 42 b6 1f 6b 79 b9 bf c3 82 35 ab e3 cb bf 3f
       -0.09950894855706917 0.12420485429675936
000730 0d 92 74 4a 90 4e b8 bf 84 55 5f 47 b6 c6 94 bf
       -0.09494878595121055 -0.020289276224351407
000740 e5 c8 02 9c 52 6d 9e bf 26 35 74 35 69 bb a7 bf
       -0.0297139079781993 -0.04635170724405162
000750 68 ef 0a e3 2d 52 c2 bf 65 63 86 45 42 74 9e bf
       -0.14313291154928298 -0.02974036740633625
000760 34 d3 68 eb f4 23 b8 3f 41 44 a9 77 18 0f a5 3f
       0.09429865596105175 0.0411307951041029
000770 6b ac cd bd 5e c4 c0 3f c3 17 ca 4a ab 26 c4 3f
       0.130992739369819 0.15743008758380314
000780 f9 62 23 cb 7a e2 a1 3f de e5 51 af 8d cc b2 3f
       0.0349310276957961 0.07343373804351169
000790 a5 e7 78 a3 ca a0 c1 bf 00 b7 aa c7 3f 4d b5 3f
       -0.13771946889920375 0.08320997833899568
0007a0 0c a0 b5 88 05 0e c1 bf 67 47 0e 3a 32 bb c1 bf
       -0.1332404058005071 -0.1385252746081804
0007b0 b4 ff ae 02 e5 3f b7 3f 74 0f 56 4f 42 47 a2 3f
       0.09081870379941287 0.035699913200942485
0007c0 0f 7f eb c2 eb ed b5 3f 64 39 02 55 f5 4a bc bf
       0.08566163548266224 -0.11051877332122256
0007d0 9f 60 46 12 90 2a a5 3f 35 01 69 d5 1a de be bf
       0.04134035323221607 -0.12057655058106749
0007e0 27 93 ca a3 f7 d6 b8 bf 0e d1 fa 87 d9 3e a2 3f
       -0.09703014134227016 0.03563575539502227
0007f0 69 9b ca 80 ac 6a a1 bf fe 59 4b 0c 94 b3 cf 3f
       -0.034016981813059406 0.2476677951842276

fc_hidden_list.0.bias f8 [50]
000000 0a bf 5d d0 e2 27 c0 bf 63 dc ba 24 94 ed b1 3f
       -0.12621722387438467 0.07003141304709141
000010 fd fd 86 08 1c 5b b2 3f b9 63 a4 b2 d6 cd a5 bf
       0.071702720720161 -0.04258604937258021
000020 eb 4c 4b 09 25 0b a6 3f 1d 1f 7a 19 c0 f6 a1 bf
       0.043053777107752676 -0.03508568106650343
000030 a3 e8 1a 7b 17 46 3b 3f aa b2 22 9d 32 f1 bc bf
       0.00041616509689002874 -0.11305538498226989
000040 d3 28 aa 59 d9 89 a1 3f ad d5 35 03 83 85 81 bf
       0.03425482959308259 -0.008555434737654044
000050 f8 17 56 90 47 ed 9f 3f 91 fd da 0a 6a c6 8a 3f
       0.031178587135876484 0.01307375760677479
000060 79 29 fb 0e a9 c5 b8 3f 5c e8 b3 67 47 7e c0 3f
       0.09676605811833906 0.12885372699367081
000070 a0 47 10 93 b2 5e b5 bf b8 03 85 50 ee fc a1 bf
       -0.08347622003955601 -0.03513283474831702
000080 5e 6d d6 64 c3 d0 81 3f ce 35 55 cf d9 ab aa 3f
       0.008698965563601998 0.0520923677055226
000090 d0 9e 55 ec f6 ef b0 bf d6 0a cb 89 97 a7 b0 bf
       -0.06616156835445541 -0.06505725015726269
0000a0 84 9a 3e a6 da 4f b1 bf b3 cd 72 59 17 1c c2 bf
       -0.067624726855323 -0.1414822756538406
0000b0 c3 8b 96 1f a7 64 b0 bf be 71 ac 3e 11 19 a6 3f
       -0.06403584023659818 0.043159998798930385
0000c0 d4 0e b2 62 4b 6a b6 3f b4 85 43 12 bb 5e c5 3f
       0.08755942496832897 0.16695345298562148
0000d0 8b 44 17 6f 33 62 c0 3f e8 e3 a9 69 5d 6f c0 3f
       0.12799685406074376 0.12839858683926697
0000e0 76 4f 32 5f 5c 73 b5 3f 6d 9c 58 a4 99 54 b7 3f
       0.08379151653417502 0.09113464605671746
0000f0 49 bb 39 d8 cf ca b0 bf 7a 97 4c ba 23 23 9f bf
       -0.0655946638960191 -0.030407484288978527
000100 63 01 64 1d 06 0c 88 bf c7 bf 8d 7e 5f 30 9e bf
       -0.011741683742457714 -0.02948140344545871
000110 2e e5 3f 39 f3 cb ba 3f 48 d1 28 08 06 ff 94 bf
       0.10467453143782698 -0.02050408768464365
000120 5b 9e 38 aa bc 64 b0 bf b9 75 b4 a0 88 10 a4 bf
       -0.06403712421217149 -0.03918864213685986
000130 1c b0 d8 4f 32 a0 a6 3f be 6c 50 ee e3 47 b6 3f
       0.04419095253646807 0.08703445976464061
000140 99 f6 03 d6 e8 4c 7d 3f 78 3e 7d 98 0f 23 be bf
       0.007153424754731263 -0.11772248719102574
000150 a4 14 3d 3e 0f 36 9a bf 3e 67 cc 16 15 62 c7 3f
       -0.02559684579252476 0.1826807366676863
000160 9b 95 28 1f 52 a3 90 bf 4e d1 64 2c fd b5 c2 bf
       -0.016248019363180082 -0.14617886226336413
000170 e1 78 5b 70 96 a2 a9 bf 31 e1 ca dc d2 d4 aa bf
       -0.05006857034253343 -0.0524049658319562
000180 9b 9b 4d 52 94 e3 c4 3f 7e df 6b 12 56 1d b1 bf
       0.1631951715346219 -0.0668538851713247

fc_hidden_list.1.weight f8 [50, 50]
000000 bb d0 28 66 33 e0 83 bf dc 7b 2c 23 a5 12 b7 bf
       -0.009704972796591318 -0.09012825115904327
000010 5a 40 5e 11 66 61 bd bf 36 ce 01 35 7d 3e 7f bf
       -0.11476743625667166 -0.007627953615258634
000020 8e 7e 7f 8a 33 91 a2 3f d1 9d ac e8 ea d6 bf 3f
       0.036264048248765154 0.12437313251995553
000030 cc 2d 8b 6b ac a8 b7 3f aa 77 cd 74 28 9d b5 bf
       0.0924175036008627 -0.08442929126382973
000040 55 fd ef 58 b0 5a b7 bf ed 7f 38 6b 0e 8c 9b bf
       -0.09122755214047136 -0.02690145997451048
000050 18 6e a1 d2 49 b7 a3 3f 5d 56 52 1c 85 42 a1 3f
       0.038507754289380525 0.03371063204501177
000060 e9 8f 09 fe 51 90 c4 bf 8d 0a c7 3d 37 1e c9 3f
       -0.16065430549781404 0.19623461262206768
000070 ee b8 34 7a 97 a7 b0 3f 97 fc 29 0b c0 87 ba bf
       0.06505724652808784 -0.10363388321455812
000080 f4 22 e9 3f ed dd b2 bf 0a b3 60 2e b9 d4 b1 bf
       -0.07369883356399126 -0.06965215093869062
000090 0e d9 a3 90 65 d5 73 3f 20 71 25 90 91 7e b6 3f
       0.004842182863504142 0.08786878365703332
0000a0 57 6d 8d de a0 62 ac 3f a5 9f 37 4d d1 04 b1 bf
       0.05543997494415958 -0.066479760505557
0000b0 96 4b 6a 3b 09 7e 84 bf b9 00 cc 8e a0 d0 87 3f
       -0.010006019712170116 0.011628393514456868
0000c0 84 32 95 87 e5 97 b6 bf 61 25 46 92 ce 96 c0 3f
       -0.08825525817992214 0.12960226194654026
0000d0 d3 05 18 9d 57 19 a3 3f 47 8f 59 ef 7f 92 90 bf
       0.03730272095345879 -0.01618385218024734
0000e0 e4 a3 5d 3a 6c 0b b7 bf 06 2f d1 46 dd 7a a8 bf
       -0.09001804757066584 -0.047812380690258435
0000f0 89 71 3a c0 52 56 b3 bf 03 47 2b 36 cf 61 96 3f
       -0.07553593819688421 0.02185748832818658
000100 e6 71 8f f4 12 1f ba 3f 49 41 47 97 b0 70 bc bf
       0.1020366522856829 -0.11109451001471372
000110 a7 cf c2 51 78 44 8c 3f 63 a9 e9 a7 a4 89 c1 bf
       0.01380247115626061 -0.1370130367170744
000120 2f 64 07 ab ae 1c aa bf a9 58 f6 94 86 b9 bd bf
       -0.051000078561351685 -0.11611214768194834
000130 b4 c5 d5 5c 68 7b aa bf aa 5e 90 6b 9f 40 8b bf
       -0.051722775776294055 -0.013306851835337714
000140 4e 52 f5 be 35 23 b5 bf f9 75 c5 ab 5c d0 a0 3f
       -0.0825685111243015 0.03283967587297449
000150 22 5b 3b 6f 18 0f b3 3f 06 96 b7 ff 20 74 be 3f
       0.07444908824559751 0.11895948641866746
000160 26 84 f0 3e d6 3f a0 3f 28 8f 4d 53 99 d8 bf bf
       0.03173703687958378 -0.12439878734363374
000170 10 04 79 bd 81 7d bd 3f df c6 db 9f 61 c2 ba bf
       0.11519633174704347 -0.10452852394862643
000180 f4 d4 84 97 43 08 a2 bf 5c a6 cb ea a2 75 b4 bf
       -0.0352192995509685 -0.07991998894035518
000190 a7 11 ee 12 4e 45 b8 bf 10 e8 31 3a 59 49 b2 bf
       -0.09480751001507902 -0.07143170996451453
0001a0 30 a7 9a cd 0a f7 c7 3f 9d 9e 7d b6 94 6b bf 3f
       0.1872266296316467 0.12273530440654175
0001b0 ea ca 77 aa 8e 15 c1 bf 0a 66 df 50 15 39 73 3f
       -0.13347037624006158 0.004693110718983382
0001c0 54 91 a2 e4 41 12 ac bf 40 c0 31 cf b9 a9 0f bf
       -0.0548267928691383 -6.03923635019714e-05
0001d0 30 b6 50 c9 24 da 91 3f f8 04 7d f6 d6 61 c3 bf
       0.01743371466380078 -0.15142333064617453
0001e0 b1 f3 ae f6 b3 26 bb bf 0b 2b a6 19 46 2d c6 3f
       -0.10605931065124598 0.17325664760968382
0001f0 ce e2 6a 36 37 df c4 3f 82 56 32 f1 2e fc c1 bf
       0.16306200177293423 -0.14050852563075372
000200 6e c7 28 c9 e9 37 3a 3f 03 97 40 1f fd 76 8d 3f
       0.0004000612035809291 0.014387109295124661
000210 32 9b 1f 48 18 31 88 bf 89 85 8a 3b 13 ba ab bf
       -0.011812390996011144 -0.054154015558434195
000220 e6 10 be 4c 65 ea bf 3f 9d eb ef 68 dc eb be bf
       0.12467034457774026 -0.12078645288413133
000230 ee 59 10 eb 6c 72 8c 3f 6a 4a 81 2b bc 54 b1 3f
       0.013890124248104176 0.06769920408377464
000240 c6 b6 d0 b3 d4 62 c2 bf b8 3a 4c 59 19 51 7f 3f
       -0.14364107875865367 0.007645701426339961
000250 b7 8c 81 19 23 31 b7 bf 0c a0 9a 7e c8 32 c0 bf
       -0.09059352276522047 -0.12654977971874393
000260 38 45 24 e7 a8 26 a4 3f df a1 95 b3 a7 c4 aa 3f
       0.03935745069078184 0.05228160922235125
000270 3b fd a1 8b ff de 81 bf d6 f5 d8 5a aa 59 b5 bf
       -0.008726116608385062 -0.08339943616825649
000280 98 aa b0 b6 2c b5 9b bf b4 de 05 c7 6d 7d b0 3f
       -0.027058313990134225 0.06441389187772978
000290 b1 b8 0f 88 29 32 a7 3f a9 2a 79 93 91 6e b0 3f
       0.04530458246141345 0.06418714380667247
0002a0 67 fe a8 fb dd e6 90 bf 08 ec a1 59 a8 a2 8d bf
       -0.016505688176265212 -0.014470401034705219
0002b0 6a ff 3a a4 05 86 9f bf 66 8e 6e f7 1a 7c c5 3f
       -0.030784690998870635 0.16784989434846692
0002c0 ea d7 71 b1 2b 59 b9 3f 02 b7 66 9d 3c ac b5 bf
       0.09901688654085175 -0.08465937464526621
0002d0 87 86 b4 34 e2 c6 b2 3f a1 5a 28 7b 28 94 b1 3f
       0.07334722315547469 0.06866696364191195
0002e0 71 fe 8c bd cd 60 a6 bf 6c 03 c7 9c 7a eb 94 3f
       -0.04370730341770191 0.020429530924733028
0002f0 7a 6a 78 cf 2f c1 c3 3f b8 1d fb e1 90 8a a1 bf
       0.15433309202565565 -0.034260299287378115
000300 f6 64 10 3f 7e 04 ab bf d0 76 cc 30 15 1d b5 3f
       -0.052768655012366425 0.0824750179421827
000310 e3 fc bd 53 00 3e 83 bf aa 98 dc dd 36 1b ba 3f
       -0.00939560180245142 0.10197775761170882
000320 55 99 b4 f7 c9 17 c7 bf 5b c2 d3 70 83 9d b9 3f
       -0.18041348071092025 0.10005971436090404
000330 8e 8a 43 f4 d3 3f 97 3f e0 11 6b 2a 32 0d 95 3f
       0.022704421790772637 0.020558151091579435
000340 84 45 fb ea 61 ef c2 bf bd e2 c0 d6 f3 60 83 3f
       -0.14793037389476293 0.009462265959983335
000350 42 39 99 ea 14 da cb bf eb 5c b3 ef 73 4f d0 3f
       -0.21759282546049447 0.25484941871896066
000360 60 eb 42 b3 ec 91 bd 3f 32 d3 60 02 60 3f d0 bf
       0.11550788284777758 -0.25386810524223613
000370 32 2c 79 c7 41 c1 c2 bf 21 71 4a fe 0a 40 bf 3f
       -0.14652273406895372 0.12207096775313576
000380 28 5f de 48 de 82 92 bf 7f 0f 75 8d 32 00 c6 bf
       -0.01807734794382934 -0.17188102633565092
000390 46 ba 05 87 73 8e ad 3f 1e 03 65 0a 6c 72 a4 bf
       0.057727442009185156 -0.03993547083746861
0003a0 85 0e 7f 7d 55 f9 d4 bf f8 82 46 59 4d 7c b1 3f
       -0.3277181363630251 0.06830295018745491
0003b0 6e 58 38 8c 43 d8 b0 bf 88 d2 84 98 0e f9 b8 bf
       -0.06579992459623593 -0.09755030845264845
0003c0 01 e6 d6 4a 9c cd bf 3f bf 96 dc 41 5c 3a ab bf
       0.1242311175073141 -0.05317962936378028
0003d0 32 0e 50 aa 75 05 a6 3f ca c4 74 b2 07 b8 b9 bf
       0.043010403671385325 -0.10046432597006852
0003e0 b5 ea c5 57 29 5d d5 3f f5 1c 2a 9c c3 99 c3 bf
       0.33381112643807437 -0.15313000798435153
0003f0 71 f1 19 15 c6 b1 d5 3f 69 e8 4b d8 f3 f3 97 bf
       0.33897544918706674 -0.023391542507831185
000400 4c 6b 3d 29 75 4c b3 3f e4 81 84 7b 60 cf c6 bf
       0.07538540131410548 -0.17820364028103974
000410 14 60 9b 55 06 cb ba bf f8 15 5e 52 de b8 d4 bf
       -0.10466041173947388 -0.32378347438529387
000420 3f db 4b 36 e9 e8 c0 bf a1 11 be ce 6f 06 c5 3f
       -0.1321078791731569 0.16425893397184857
000430 c0 73 be a8 4c dc 72 bf db e3 1d a4 ac 5c d1 bf
       -0.004604625177219768 -0.2712813952162471
000440 5c 6a 10 0b 23 7c d1 3f a8 59 b8 20 45 32 bf 3f
       0.273201714329536 0.12186080979186065
000450 e6 86 71 c2 46 1f b9 3f 1a 5d e6 5b 01 7f bc 3f
       0.0981334900584688 0.11131294721268539
000460 fa 46 5f 5b bb 2b b3 3f e9 39 50 0b bd bd b0 3f
       0.07488604527250323 0.06539517904477744
000470 7a 75 80 ed 5c 06 75 bf 04 f8 7f d1 2d 35 c9 bf
       -0.005133021353711848 -0.19693539361463774
000480 35 73 a2 35 ad 28 b4 bf 63 b9 56 3b 2c 5a d0 3f
       -0.0787456756538177 0.25550370974351305
000490 b9 c2 29 95 14 d5 b7 bf 8e 94 62 02 9c 82 b6 bf
       -0.09309509889295499 -0.0879304414580295
0004a0 06 42 51 5b 35 8b c3 bf cb 20 52 34 da 47 b1 bf
       -0.1526858039747056 -0.06750263001788707
0004b0 64 81 80 3b ba 7f af bf dc 43 f4 7c cd d1 bf bf
       -0.061521358264374354 -0.12429508495939906
0004c0 1d 71 f6 79 cb 22 b0 3f e2 25 48 4d 64 3f c1 3f
       0.06303092696765984 0.1347470643379856
0004d0 8d d6 21 18 32 9b a5 3f 81 7d 89 cd 3d 7a b0 3f
       0.04219967407781864 0.0643652560042849
0004e0 3a 3d aa 8f 58 c6 ae 3f bf 5f 5c 68 fe 00 af 3f
       0.06010700944636445 0.06055445693908678
0004f0 3a cc 20 68 00 42 b8 bf 7f 97 e7 de 8b 48 b6 3f
       -0.09475710432234133 0.08704446975715817
000500 ad d0 e8 91 31 59 ab 3f bf 26 90 a1 f5 77 b3 3f
       0.05341486841317198 0.07604918665324599
000510 85 e1 24 d6 cc ca b8 bf 4c 48 9f 1a 2c 23 8e bf
       -0.09684448459745994 -0.014715523302502607
000520 25 8c 66 09 02 c8 ba bf 50 73 bb 82 f5 49 b7 bf
       -0.1046143792105317 -0.09097227517800133
000530 94 30 b8 7e 0e fe c6 bf 99 15 89 af f7 6d a2 3f
       -0.17962819278216513 0.03599523561255608
000540 9c 1c 3d 19 25 21 a0 bf 1d 49 30 36 63 05 a9 3f
       -0.03150287564363305 0.04886922871095776
000550 d9 bd d6 5a b4 0d 75 bf e5 cf dd 42 8b 26 c1 3f
       -0.005140022765246021 0.13398876919711636
000560 8d a9 f9 0f df 84 82 bf e2 95 ed 3f 3f 2d ba 3f
       -0.009042494463945139 0.10225291548484663
000570 5f 7b 73 35 6f 40 72 bf de 24 fd be 5d ff be 3f
       -0.004455980691289023 0.12108407891095704
000580 a9 e9 ff ff f7 ab cb 3f 9f 80 73 7e 67 89 ba bf
       0.21618556976302486 -0.10365912282168431
000590 b2 b0 7b b6 dc 64 89 bf 7b 98 94 0f 3b 19 c2 3f
       -0.012399410551971666 0.14139498005642168
0005a0 c9 01 41 fb 11 cf b3 bf f2 d6 1c 07 54 cf af bf
       -0.07737839111451374 -0.062128663891071315
0005b0 54 8e 14 5f 82 25 bf bf b3 d9 52 9a 44 64 8e bf
       -0.12166609593673999 -0.01483968349417073
0005c0 cf 4a 25 e5 11 ed b8 3f d7 aa 5b 40 7a fc b0 bf
       0.09736739963890816 -0.06635250159494475
0005d0 5d 8d 63 fe 42 dd 9e 3f 0e 7a 31 d9 58 3f 6e bf
       0.03014092137972334 -0.003692315609028946
0005e0 2c ea ba fb a7 bc bb bf 0b 57 35 04 d6 40 bd 3f
       -0.10834741492991701 0.11427056887381697
0005f0 36 24 36 c0 3d 0f ae 3f 9a d0 76 f9 c1 2d b9 bf
       0.05871003123599687 -0.0983544572871459
000600 36 e2 91 2d 1e 69 bc 3f 84 fc 6f 3f 5a ab b5 3f
       0.11097897160096512 0.08464588211789886
000610 db 48 e1 5c e7 bf 73 3f 98 df 77 39 37 f6 b9 bf
       0.004821685563074686 -0.10141320374520857
000620 b0 b5 38 fa 25 fd b1 3f 68 5a 60 5f d2 fb a7 bf
       0.07026898726390729 -0.04684312261831708
000630 49 b4 d2 da 45 bb 94 3f 62 af 15 9c 18 48 95 3f
       0.020245639305972927 0.020782837416319373
000640 e8 6a 32 70 0f 02 b6 bf 76 50 8c 7c 1b 70 b6 3f
       -0.08596893777068326 0.08764812269902386
000650 5c 36 0e 14 0b e6 ae bf 3d da ac 7e b1 5a b5 bf
       -0.060348840902503226 -0.08341512053161977
000660 73 2c ce ed e9 4c 8e bf 2b 1e b7 73 45 ce c9 bf
       -0.01479513890241988 -0.20160740041886646
000670 a4 54 d9 ed ba 94 c4 bf c3 76 e6 10 5c 13 ba 3f
       -0.16078888524740365 0.10185790455440284
000680 2c 7d 91 dc 94 8c be bf 8c ce c6 93 b7 bd c0 bf
       -0.1193326033112398 -0.13078970637944953
000690 f3 81 e9 56 88 37 b2 3f 81 c6 33 83 54 e7 c1 3f
       0.07115985986593625 0.13987213522300482
0006a0 50 59 71 d0 cc 52 c0 bf f9 86 31 00 b1 16 a3 3f
       -0.12752685716504653 0.0372824967132725
0006b0 cc f8 d9 37 cd e4 ab bf 2a 45 b0 86 f8 61 b9 3f
       -0.054479992931179305 0.09915116585058983
0006c0 5c cb 0c 7c 47 b9 76 bf b1 de b0 68 af 74 a6 bf
       -0.005547789799311111 -0.04385898735966743
0006d0 00 37 d0 eb f6 f7 b6 bf 65 29 5c a5 9c ac b1 bf
       -0.0897211385456238 -0.06904009854421174
0006e0 bf df 05 7f f8 54 c4 3f 7b 97 f1 e0 91 42 ac 3f
       0.15884309961597684 0.055195387562704
0006f0 43 bf 8f 70 8d 04 bd 3f 42 1f 8b b8 87 9e b9 bf
       0.11335071561893266 -0.10007522826628892
000700 7b 55 df 0b 3c b1 bb 3f 13 6e 0f 01 a5 94 9e bf
       0.10817313470700711 -0.029863908948625516
000710 80 df a7 82 32 77 c1 bf 48 b2 10 b6 9a 10 c1 3f
       -0.13645011310267918 0.1333192242613157
000720 05 b3 5e a6 e6 4f a8 3f c3 a4 cc f7 d2 1b a9 3f
       0.0474845960701256 0.04904040598769079
000730 2d 68 6a 34 ac fd c0 bf ce 44 c1 4a 0d fe ab bf
       -0.13274147567136776 -0.054672637343750816
000740 d1 3f b8 82 bb 4c b5 3f df 5e 8d 44 a4 fb a8 bf
       0.08320209447288042 -0.04879487358874512
000750 c6 d7 ac 62 b7 a0 b7 3f 40 68 4b f9 5d 2e ba bf
       0.09229608687459664 -0.10227000557225185
000760 df 50 60 fe 09 75 a9 3f f3 e2 a8 19 4a c6 b1 3f
       0.049721061994348885 0.06943190695245587
000770 b6 a3 f8 2e 25 67 cd 3f d2 f6 3b d0 97 60 c2 bf
       0.2297102431632802 -0.14357278506934407
000780 74 a8 b3 f4 cd e1 bb bf 63 b5 66 34 5d 03 b0 bf
       -0.10891425346531652 -0.06255133179975796
000790 5b 6a 43 c2 60 0d c0 bf bb 4b 70 96 e9 f5 b6 3f
       -0.1254082630683396 0.08968982622927417
0007a0 82 13 1e 35 13 82 ae bf 12 50 1a a8 a2 7b aa bf
       -0.059586143716876996 -0.05172451307331029
0007b0 69 20 08 a8 62 46 b8 bf bc 89 03 08 d0 43 c7 3f
       -0.09482399561250222 0.1817569769983275
0007c0 6d 80 5b 51 ac a3 b6 bf 91 0d e6 db a7 08 b7 3f
       -0.08843495355859128 0.08997582548732043
0007d0 41 25 ec b4 e2 9e b8 bf 6f 8f 74 9d 3e 8c b7 3f
       -0.0961744014458832 0.09198371261714809
0007e0 85 97 ba 0d 10 43 af bf 1d ab a0 37 87 55 b4 bf
       -0.0610585228690033 -0.07943005664916965
0007f0 ed 96 23 58 b6 bb c2 3f 53 d1 b9 36 88 15 9e bf
       0.14635352424300355 -0.029379013385964225

fc_hidden_list.1.bias f8 [50]
000000 2a 29 ae 6c a3 80 b5 bf ea da 3c 3e f9 11 a8 3f
       -0.08399411586120623 0.04701212773072945
000010 87 a9 7c 4f 74 8e b6 3f bc 8d 07 a5 09 ba bf 3f
       0.08811118069266942 0.12393245963135419
000020 a9 26 aa e6 75 bb c1 3f 2c 5e e9 f1 ea 8c b3 3f
       0.13853334200785142 0.0763689842800594
000030 ba bb b3 13 2c bf b3 bf ca 71 44 b1 4b d2 ba 3f
       -0.07713580590255634 0.10477135732475698
000040 ee 80 5a 28 c3 21 bc bf 49 10 ab 18 22 3d 97 bf
       -0.10989017234033202 -0.02269414210856294
000050 62 af 77 8c df 93 be 3f 8f 21 20 3b 24 96 a9 bf
       0.11944386653311548 -0.04997361394640897
000060 78 54 64 6b 88 f5 b4 3f cf ed 59 db 19 41 a6 bf
       0.08187153455613039 -0.04346543123844137
000070 35 cc 91 49 09 af a8 3f cd 32 6e c4 64 50 b8 3f
       0.04821042082848984 0.09497670932450859
000080 fe 97 ab 18 ae c0 b7 3f 29 60 f2 1b a1 8f c3 3f
       0.09278381445218994 0.15282071938122613
000090 dd 3c d4 14 f5 6f 92 3f 0d fb c6 a9 d3 49 b1 bf
       0.018005208393387363 -0.06753275771096075
0000a0 e8 26 2a 72 d3 09 bd 3f b6 ef e0 90 04 e4 a6 bf
       0.11343118226264048 -0.04470838802851011
0000b0 65 c1 fa 16 e5 7c af 3f 02 3a 98 78 7e 1e 9a 3f
       0.06149974732886924 0.025506950483810804
0000c0 40 2a 77 05 f3 57 c1 3f a8 a1 af 63 78 5a b6 bf
       0.13549649969930222 -0.08731796678296766
0000d0 68 ac d3 a6 fd a9 96 3f 71 b7 90 bb d4 0f bb 3f
       0.022132838542273353 0.1057103116915792
0000e0 62 6e eb a1 e5 5c b9 bf 67 d0 8a 32 2e 2b a1 3f
       -0.0990737457572606 0.03353256575556501
0000f0 29 cf 71 23 13 75 a5 bf 17 2e 97 f8 6c ef a5 3f
       -0.04190883453057232 0.042842297883535156
000100 c3 b9 12 e7 4d b5 95 bf af 96 5f 69 11 3c b6 bf
       -0.021199433544717438 -0.0868540651568661
000110 4a c3 a5 c2 cb ef b4 3f ca c4 8e 36 42 39 aa bf
       0.0817839956487322 -0.05121809879290991
000120 97 b9 e2 80 38 87 bf bf 02 6d a8 c0 6d 1d 9e bf
       -0.12315705439207246 -0.029409136661439746
000130 72 0e 58 a2 56 4a c0 3f 4a 36 83 4b aa 52 8f 3f
       0.12726862837745362 0.015294390134296471
000140 f4 e5 1a d7 56 71 b8 bf b3 fe 05 2f ea 69 81 3f
       -0.09547941924656539 0.008502797660866568
000150 fb a3 6a 77 d6 77 b1 3f da a3 34 ff cb 5c c3 3f
       0.06823482909625504 0.15126943551265876
000160 8a 4d ce 96 8e 2e bd 3f d6 55 43 60 8b 0e 99 bf
       0.11399165326866104 -0.024469545126370416
000170 49 e2 89 bc f0 96 c0 3f 1e 64 94 b2 0b f8 bc 3f
       0.1296063347433736 0.113159876917408
000180 c6 1a 65 d4 a1 c4 b9 bf 14 d6 ce a0 c2 f7 b9 3f
       -0.10065661845610938 0.10143677164054338
