savedModel/poisson2d_inverse_tanh/noise_0.1/ParticleWNN_0/trained_model_best_loss.pth (torch, 132191 bytes, 20 tensors)

fc_in.weight f8 [50, 2]
-0.4855492028298522 -0.4367884653495485 0.2527337255605854 -0.5589478008665973 -0.487167300261065 -0.23425758118175996 -0.15286014006791943 0.6078304303198685
-0.5870212974735838 -0.4155426722794923 0.48147563058546844 0.41109385556714556 -0.6430823138890998 0.3151305519577642 0.2139069345226888 0.09456827077143608
-0.5621298249869952 0.5166259471807807 -0.37991906106096046 -0.5628209224994961 -0.4452235872598254 0.6207315948867161 -0.5879473590677646 -0.7742226337030436
-0.5990635709708583 -0.5171122898108649 -0.6484641882171942 -0.03561558731900689 -0.47440118975360607 0.6803656660609082 -0.06812455845646657 0.519488298188927
-0.5445637338124197 0.6775415805990977 -0.636808574366754 -0.24893974501942515 0.5723502315975588 -0.3596242533669273 0.6670064326489182 -0.7314348271307592
-0.47424870552893816 -0.4446551399736119 -0.5875768531068593 0.7308051385352528 -0.5240479453445255 -0.2539480157523054 0.3259375049496756 0.07845800500072585
-0.4500229539857675 -0.42264936842369566 -0.5510617314499102 -0.31011270204136115 -0.485519093802658 -0.43278460643278494 0.3618668936062787 -0.7098315345746689
-0.6308058022080284 0.6660150581435273 0.5906142438875712 0.13787513708327143 0.46844517350679155 -0.5067006038445283 0.022640085544606635 0.0746137302256181
0.5540092249897344 -0.2698368449393203 -0.7835176359749967 -0.7008516465128352 0.050517760810577926 0.6633896505434733 0.1992743099818446 0.70554631570048
-0.37290475059855965 -0.4114538319854843 -0.33103143564240445 -0.470179216414728 0.8145677279731526 0.47197433658409793 -0.5801620740979878 0.12596193396955727
-0.517177758106871 0.15065422002531031 0.30946919981306725 -0.14830733103809068 0.38035029969918344 0.34602157459085015 0.6710838287917615 0.20466628566230252
0.46024826178009826 -0.6255320582688241 -0.32960978383359274 -0.6827173582458111 -0.05870894725619894 -0.5094408117445957 -0.16294314239980257 -0.6694925369584637
0.29491991070013296 -0.008710299440349482 -0.20525778583453294 -0.5217803298722465
00000000: 8f32 b0f6 3c13 dfbf d690 7c9b 57f4 dbbf
00000010: c640 7813 ca2c d03f bc94 9c7f e6e2 e1bf
00000020: 1b52 93c1 bf2d dfbf 3f03 0205 27fc cdbf
00000030: 9e12 3acb eb90 c3bf 2099 77cd 5873 e33f
00000040: 828b 56e3 e0c8 e2bf 771a e24a 4098 dabf
00000050: 49e0 cb29 7fd0 de3f 05d6 4f9a 5c4f da3f
00000060: 2445 595c 2194 e4bf f641 a855 192b d43f
00000070: d3ce 146c 4d61 cb3f fbdc 334e a035 b83f
00000080: 739c cdaf f7fc e1bf db01 6d23 3388 e03f
00000090: 0991 9809 9850 d8bf f379 f405 a102 e2bf
000000a0: 8514 ac12 8b7e dcbf 593c 7481 08dd e33f
000000b0: 58e6 defa 76d0 e2bf 5e7b 728b 6ec6 e8bf
000000c0: 186f b15d 872b e3bf 661d a312 2f8c e0bf
000000d0: 26a4 20f8 37c0 e4bf 99a3 86cd 343c a2bf
000000e0: f136 cbce 965c debf 03b1 a137 8ec5 e53f
000000f0: a7fd 9f6e 9c70 b1bf 5109 6cec a59f e03f
00000100: d7fb 69ec 106d e1bf 034e 4bae 6bae e53f
00000110: 84f6 1660 bc60 e4bf ab39 c4ef 41dd cfbf
00000120: ae39 d26e b150 e23f bbcc c371 1504 d7bf
00000130: 005c cedf 1d58 e53f 25d3 b502 ea67 e7bf
00000140: 28b2 1a3e 175a debf 79d6 0bd5 3a75 dcbf
00000150: b860 fff8 6dcd e2bf c03e 3875 c162 e73f
00000160: ae4d 5932 00c5 e0bf 5e93 a22d af40 d0bf
00000170: d11d 13fb 28dc d43f d767 96e5 d215 b43f
00000180: 225d 7413 2dcd dcbf 4d82 c3ef af0c dbbf
00000190: a8f1 5436 4ca2 e1bf afe0 55f2 e2d8 d3bf
000001a0: 7ed2 5dad be12 dfbf a4d3 b534 beb2 dbbf
000001b0: 2fd2 62c2 d328 d73f c45d 559f f0b6 e6bf
000001c0: 6f89 53a6 8f2f e4bf f2d6 abcf fe4f e53f
000001d0: 7a90 c1d7 4fe6 e23f 2a22 5a7a e4a5 c13f
000001e0: d790 0b77 01fb dd3f be05 4c2f e436 e0bf
000001f0: a68d f86b f62e 973f 06cf 26ab e219 b33f
00000200: 426c e08d 71ba e13f 054b 11c2 0145 d1bf
00000210: 4e42 cb93 9312 e9bf 26da a36e 606d e6bf
00000220: d3df 18c5 76dd a93f ccd9 b2ee 7c3a e53f
00000230: e009 2712 d281 c93f 38e6 f7dd d593 e63f
00000240: a401 16e3 abdd d7bf 1742 0c74 4255 dabf
00000250: 340d 8279 9e2f d5bf 83a6 7091 6a17 debf
00000260: e3b1 0057 f010 ea3f 1285 0bd9 d334 de3f
00000270: 202c d40d b090 e2bf 2957 7849 851f c03f
00000280: 1a34 a95e b88c e0bf 22ad 0132 a348 c33f
00000290: 1d40 14e7 57ce d33f 1067 4810 bcfb c2bf
000002a0: acd5 8ec8 a857 d83f 0400 a5ac 3725 d63f
000002b0: 5e1f 31cb 8479 e53f 89b6 c13d 8132 ca3f
000002c0: 44ba 1820 b574 dd3f 3fa7 9bce 5b04 e4bf
000002d0: 3871 80a2 5318 d5bf 0979 c212 d2d8 e5bf
000002e0: 755b e560 190f aebf 781a 36d1 564d e0bf
000002f0: c478 db25 52db c4bf b2e2 e49c 7b6c e5bf
00000300: 2b5d d9c2 f7df d23f af99 e099 b4d6 81bf
00000310: fd4f b41a e345 cabf a0ea 8fa9 6cb2 e0bf

fc_in.bias f8 [50]
-0.6750884659518344 -0.24190603128136076 0.5048203375975943 -0.669294497739835 0.6231720777582964 -0.34979169834208385 -0.563591618948531 0.07558472420731795
0.37337360216658966 -0.3172401973114578 0.09549397545486757 -0.7039788609482073 -0.2996897313192531 -0.03870846989893914 0.6250307373350352 -0.26102953472541873
-0.5916903819209814 -0.08892157600466748 0.30806560013183887 -0.7040490297308329 0.23522129427972766 -0.48480463753387887 0.06223396259608235 -0.19338066820404906
-0.24569163970250565 0.40075503979638616 -0.13549500579514373 0.2168405436779303 0.18260871672466145 0.258165364056636 -0.6037936331588292 0.5034404028305515
-0.1797840918321892 -0.10603114017251673 -0.051394103418035124 0.5523343646710147 0.5076414844240988 -0.6416412270617325 -0.5931060860424011 0.1470022844936568
0.038995934899939515 0.36693885507262336 0.5783652675281414 -0.2645922751595887 0.18380881650698813 -0.15561892783999048 -0.3702490282305341 0.6226117839606289
0.4989612291928996 0.21856581435124628
00000000: 2270 6520 539a e5bf 1f80 87de c6f6 cebf
00000010: 8bcb 0afb 7c27 e03f 48ee 654b dc6a e5bf
00000020: 7312 b891 06f1 e33f b7a8 32b8 fc62 d6bf
00000030: 56e0 754a f108 e2bf 2d30 8c3e 8559 b33f
00000040: a4b1 9f64 5ae5 d73f a079 1bd4 a94d d4bf
00000050: ce2e 8b0d 4b72 b83f d921 1bad fe86 e6bf
00000060: 61a5 bdd6 1d2e d3bf 0c9a 96b8 98d1 a3bf
00000070: e628 fb75 4000 e43f a7e3 bb38 b5b4 d0bf
00000080: edaa f6aa 20ef e2bf 9b4c d97c 90c3 b6bf
00000090: e7af 65c7 58b7 d33f c52e afd4 9187 e6bf
000000a0: 5a8a 203b bb1b ce3f a50e ca07 0a07 dfbf
000000b0: 3bf0 1944 21dd af3f e7b8 ce9e b2c0 c8bf
000000c0: d520 b6da d272 cfbf 747d 6877 f8a5 d93f
000000d0: 24ab 547d e657 c1bf b593 c551 6ec1 cb3f
000000e0: 6e02 26f1 b85f c73f e952 e504 c885 d03f
000000f0: fa67 7e06 4752 e3bf 988d 340c 2f1c e03f
00000100: f351 6145 2a03 c7bf 7307 6657 db24 bbbf
00000110: f780 c6f2 5350 aabf 9b01 171e b9ac e13f
00000120: 8238 b65a 993e e03f bdda bf2e 5388 e4bf
00000130: a68a 539d b9fa e2bf a334 2b8a f8d0 c23f
00000140: 77f5 2472 46f7 a33f 5cca 8a1b ed7b d73f
00000150: fe9e a5e0 f781 e23f 2e6b 2570 14ef d0bf
00000160: dd96 ce1b 0c87 c73f 4a0d db2e 52eb c3bf
00000170: 270f e8fa 28b2 d7bf 40e2 468c 6fec e33f
00000180: edbf 5614 fbee df3f 4ec3 54f0 f6f9 cb3f

fc_out.weight f8 [1, 50]
0.08457709661896187 0.10981510714431003 -0.23815848613039495 -0.006532954292611648 0.15097370448141578 0.02993125430428742 0.045270822045569176 -0.01863759894091518
-0.0002849373837707122 -0.1010510828867386 -0.07073491846983355 0.09369445429856989 0.038036757455542296 0.10559104748820027 0.1222480376624202 -0.06913900117470882
-0.037221688430939766 -0.09445083745145454 -0.10580184859910978 0.06019856126029532 0.163052803878032 0.1261440733588447 0.040242989606073754 -0.03806991223351052
-0.05106136269981316 -0.00026102649547942705 0.007762749484121092 0.13162144389712813 0.001965347160498157 0.10477590382419594 0.037438418532472754 -0.058077894099909495
0.09460196230011414 -0.0004900812884920823 -0.09952813987370591 -0.15170585614382118 -0.09321856923232064 0.01707063965331762 -0.09715200724635097 0.10926963660119689
0.08900595415953558 0.19954983238006374 0.15364240340037333 -0.0031716050485551747 0.06459192827353888 -0.14185639790930207 -0.11481446492897815 -0.14071056541839003
0.07032126342579767 0.17648965431152258
00000000: 3215 f837 d8a6 b53f dca2 cac5 d71c bc3f
00000010: 01f3 982e fa7b cebf 4d4a 8790 4cc2 7abf
00000020: fcdd a639 1b53 c33f 18f0 7579 4ca6 9e3f
00000030: ac29 4cb8 bc2d a73f 9772 b517 bc15 93bf
00000040: 41db a4be 74ac 32bf 5153 39d8 7bde b9bf
00000050: 8d5e 8301 af1b b2bf 9567 0719 5cfc b73f
00000060: 4787 a2ca 8d79 a33f f152 b6cf 0308 bb3f
00000070: 20a1 c2bb a54b bf3f 2f69 ecf4 17b3 b1bf
00000080: 218c 069d b80e a3bf 1f0e ef19 ee2d b8bf
00000090: c7ea 9677 d415 bbbf 3f29 c287 58d2 ae3f
000000a0: 1cb0 160e eade c43f 0c8a d42e 7d25 c03f
000000b0: 90b1 80a8 ba9a a43f 2f50 0248 e67d a3bf
000000c0: 8910 c505 b724 aabf 96ef ef42 4c1b 31bf
000000d0: 43da 9432 d5cb 7f3f 87c7 7eb2 f8d8 c03f
000000e0: 53b2 f2b8 a119 603f 7c71 55f8 97d2 ba3f
000000f0: 1fff 6bde 202b a33f f12f 8fbf 62bc adbf
00000100: fc66 378e d537 b83f 8e51 a08d 190f 40bf
00000110: 490e ca19 ad7a b9bf 19ec 5ff5 186b c3bf
00000120: 2094 3b12 2cdd b7bf 5096 213c f77a 913f
00000130: 1f24 dd35 f4de b8bf bddf a54b 18f9 bb3f
00000140: feb4 431e 18c9 b63f e050 ff51 d98a c93f
00000150: a614 f1e4 8daa c33f f02e b37e 56fb 69bf
00000160: b83a 85bb 1889 b03f 2dd9 dfb6 5928 c2bf
00000170: 8e4a fa13 7b64 bdbf 493a 56c6 cd02 c2bf
00000180: 4e90 a006 9300 b23f c6d7 ac86 3697 c63f

fc_out.bias f8 [1]
0.0951136575564003
00000000: 1691 9b60 5e59 b83f

fc_hidden_list.0.weight f8 [50, 50]
0.024140634904627267 0.013120286585309242 0.06686767118389167 0.10597969076708355 -0.09693570430959701 0.11153509488828248 0.19916661905999916 -0.06558502343655132
-0.020262255780251218 0.07239188076992686 -0.09063367063722041 0.02358291413207645 0.08200278136495959 0.09434656851909441 0.1254248599942227 0.16605412563333802
-0.016200968183212056 -0.07850100801977071 -0.14370678999295108 0.07393406453585531 -0.12972003528851958 0.04509769858475589 0.1025930773569757 -0.006059340614590985
-0.058500982317324646 0.10191903630200554 0.07409527292988488 -0.16940724898339593 0.13965341894787073 0.09947458635982091 0.0063670488635499 -0.014307185773900256
-0.009886166722222015 -0.04876726753307055 -0.06086617357534522 0.1171429204542859 -0.019064802606047638 -0.051258460820906425 -0.10159790323828471 0.04267164009701353
0.11529357614905877 0.054780243918557445 -0.08760944039678147 0.04101535597023182 -0.047837073586080255 -0.07691822187366129 -0.06901381528620676 0.07650147300179469
0.018939509471750923 -0.014925215707607927 0.039691745504588344 -0.03462914266417096 0.07858280651834595 -0.003929211974796292 -0.04661312200915726 -0.009492153914364384
-0.012052755475266365 -0.05229723710323406 -0.015764453141631093 -0.11988199540292854 -0.19788030772604967 0.07356148673724215 0.020917803378562187 -0.05054043814683226
0.007751442308496308 -0.15716653897418098 0.06361776134590948 -0.11999694978484439 0.10523440876800037 0.056766434531848264 -0.1279472341678885 -0.16787660850012648
0.10052348591054334 0.059082148476605124 0.022158572832580405 -0.03346417022749776 -0.03755075167769321 0.048974064725605844 -0.009647859651211189 0.02542934720846138
-0.06768365351137352 -0.07249278711980665 -0.02996690211115822 0.034186565844260476 -0.14935545138015346 0.047977216303234 0.10173587748905888 -0.09786215083198055
-0.02686368458641659 -0.12026148816781901 0.01636139125007521 0.09182650197339541 -0.08279511746173915 -0.08753323470472382 0.07956912996701594 0.11161328261862097
0.08215785617214533 0.05050468864558458 -0.13407495809006467 0.08477384340728228 -0.016422145436447374 -0.0853179917551085 -0.13897986885768482 0.10942005354340595
-0.033307607158393544 0.1399748171486813 0.09389695673117639 0.11830161655481708 -0.1050270694310414 -0.1027448696978267 0.03996856059539974 -0.06498931069009083
0.0652823158501059 0.02945739392952515 0.09985583926037699 -0.0871947408484444 -0.16506410782039344 -0.06318941002678867 -0.0990680909472177 0.02497831346103705
0.12967636688154086 0.003058131056994696 -0.1150508208049837 -0.13267361785812912 -0.07959865219732648 0.007095115369093097 0.06589388710341575 0.05659932603805508
0.15856330936578023 -0.10303923893223728 0.005111527068342859 -0.11823087104701785 -0.15080223446095609 0.0684115901452421 0.10460930695156698 0.011647516440357462
0.06098984490629701 -0.04844112614285248 0.09997733653759791 -0.012957177210970524 -0.050388266263404494 0.045400155671574065 -0.11340155798897764 0.09590694080620918
0.13413810266313095 0.006792618202299101 0.11047194280545738 -0.04761805007190308 0.12043018773779605 0.0037476017309842407 -0.06867757891702021 0.03686955030109706
-0.0021597284074155744 0.0026861967281629462 -0.03269355673832137 0.13992136309652162 0.10014411883381467 0.1234914977056445 -0.12185741864886013 -0.07895073226408221
0.0664909104627459 -0.07271909498593804 -0.07554361664312342 -0.013710961905304065 -0.007164232366751055 0.2713614279866927 0.2685193133761005 0.026601893134588203
-0.04215594597922321 -0.0048572911158564405 -0.1952222433015054 -0.005031471527896954 0.016309246551331088 0.03794158599404453 -0.09362882950891777 -0.005242395246782069
-0.0036069853790034185 -0.18131245312930025 -0.029576129757453377 -0.07213265497568011 -0.0031059631754046884 0.03760015115632267 0.06635892367147682 -0.1336293018771885
0.19425260444818399 0.019871306013392268 -0.1688018603377618 -0.07917169772976185 0.0313940512932362 0.06613549390564423 -0.05057262834797296 0.03946415987954518
-0.13677715158990933 0.15019017221378583 -0.019302212739104582 -0.14114408210473728 -0.15623825256198687 -0.21407345389180354 -0.007188451443693556 -0.009665491815664444
0.127046939919675 -0.0661239088483833 0.14233064835461898 -0.0853651793287502 0.0048277663500130436 0.04197079876667474 0.11264403607227759 0.09563536467040985
0.017599837304839012 -0.03332723890842581 0.057156530284742976 -0.11498805904083242 0.014730571440534725 0.021586273693909 -0.08203269761617002 -0.08033060702049558
0.13279121141896136 -0.03769862974302707 -0.1378114891365998 -0.023843581220594153 0.1357076425350277 0.009126128033333115 -0.016550921332780064 -0.0655684959537955
0.011278371253067214 0.025767995026803995 0.0879219097821003 0.03256793409128909 0.09073780676149508 0.0786139833240931 -0.08146028012722649 0.058009651216252324
0.06601706728410772 -0.007251855979721998 -0.11171363807407368 -0.0738163692375419 0.09969754508397372 -0.025521194619920435 0.03643117705700739 0.08161411107117168
0.01682969884376044 -0.013165844328663008 0.08782412768215762 -0.07247312107456891 0.02233790078047756 -0.005189686555502371 0.06294514298654555 0.10983899264614641
0.03830239581927237 0.019413417374201585 -0.15173520311421018 -0.12851713511556814 0.06902340146759141 0.038635089799691796 -0.059121160493771384 -0.13680720113357742
00000000: a321 ae95 52b8 983f 6968 620e cfde 8a3f
00000010: b6fd e45c 3d1e b13f 5e83 e229 7c21 bb3f
00000020: db0e d33f c7d0 b8bf 1ec4 e660 908d bc3f
00000030: aea6 a8b1 4a7e c93f 1c73 c41a 2eca b0bf
00000040: 446e adf7 a0bf 94bf c01b 6738 4688 b23f
00000050: e2a4 4dab c433 b7bf 7a3e c493 1e26 983f
00000060: 04bf 2460 22fe b43f 6982 47c2 1827 b83f
00000070: 90e9 e3fb eb0d c03f 1504 7bf7 4241 c53f
00000080: c5ae 0a92 fc96 90bf fbdf 255e a418 b4bf
00000090: 85ce 9ded fb64 c2bf 03ea 3dc5 57ed b23f
000000a0: c39e 9986 aa9a c0bf b2c0 17a9 0b17 a73f
000000b0: 4451 0b38 8a43 ba3f df5e 66dc add1 78bf
000000c0: e86e ac3b d7f3 adbf 83c7 c1af 5d17 ba3f
000000d0: 0ca5 0566 e8f7 b23f d664 0b01 23af c5bf
000000e0: b3ed 93c9 29e0 c13f bbd4 329f 2a77 b93f
000000f0: 1275 41aa 5514 7a3f d43c f9f7 154d 8dbf
00000100: d5b8 09d6 323f 84bf baf2 56f6 05f8 a8bf
00000110: 15a6 e0e1 d929 afbf 5a20 4f14 14fd bd3f
00000120: 0d6a ca3e b985 93bf 6bf9 bc89 8c3e aabf
00000130: ac27 c0f7 5102 babf c2e0 5da5 0ed9 a53f
00000140: 90c4 ff3a e183 bd3f 06b8 31f8 270c ac3f
00000150: ab35 5381 926d b6bf 8948 0df9 f6ff a43f
00000160: c157 2dd5 197e a8bf e2f1 699f e9b0 b3bf
00000170: 905e a0af e3aa b1bf 0a77 a3bc 9995 b33f
00000180: 5c41 22f7 e064 933f aba3 cc8a 1c91 8ebf
00000190: 940a baf9 7952 a43f 0357 7636 e9ba a1bf
000001a0: 6a31 06b8 001e b43f 4590 e4ce 1318 70bf
000001b0: 0305 30d5 acdd a7bf 6bdd 0b55 9f70 83bf
000001c0: a75e be74 1daf 88bf ec20 0f16 b4c6 aabf
000001d0: 5c03 bb8a 8e24 90bf 4882 a221 96b0 bebf
000001e0: a357 1a55 2454 c9bf 7716 c8f3 ecd4 b23f
000001f0: 7e0b a905 7a6b 953f ecab eeb1 6fe0 a9bf
00000200: df9f 63f3 f9bf 7f3f 00b6 757c 081e c4bf
00000210: f1e7 6cec 4049 b03f d516 f2be 1eb8 bebf
00000220: 8f8c 1268 a4f0 ba3f f04d a677 7d10 ad3f
00000230: a2af 2e31 9360 c0bf 82be a20f fb7c c5bf
00000240: 2538 773c e8bb b93f e507 f8ee 0340 ae3f
00000250: c75f 91a6 bcb0 963f b804 6e39 3722 a1bf
00000260: a5b4 ca24 da39 a3bf 2184 b2ec 2013 a93f
00000270: c742 6dcd 41c2 83bf 69d3 799a 260a 9a3f
00000280: f91d 4e46 b753 b1bf 1f1e e025 e38e b2bf
00000290: 1393 1ec2 a4af 9ebf 0dfd 86cc e680 a13f
000002a0: 1b1b 9455 141e c3bf ca75 f33d 7890 a83f
000002b0: 0037 a5ca 5c0b ba3f 6eee 5671 7e0d b9bf
000002c0: 13b0 fe5a 2782 9bbf b029 a6f6 74c9 bebf
000002d0: 6733 5861 0ac1 903f 7bbe e10e f181 b73f
000002e0: 0e43 c491 0f32 b5bf 86b0 5efc 9368 b6bf
000002f0: f9c0 fa7a a45e b43f 346c a526 b092 bc3f
00000300: 086c 5e19 4c08 b53f b40d 0e24 c0db a93f
00000310: 91cd 1a44 5e29 c1bf 9491 fd14 bdb3 b53f
00000320: 1f9c 5186 f7d0 90bf 1b3d 5960 66d7 b5bf
00000330: 6ee7 c5a3 17ca c1bf ecd8 7edf f302 bc3f
00000340: 0119 e8d6 b10d a1bf b365 f5de b1ea c13f
00000350: 59b5 5a86 a109 b83f 18b8 2ac6 0349 be3f
00000360: d4aa 66d4 0de3 babf 2817 2fdf 7c4d babf
00000370: 2b39 4059 c276 a43f e7e6 00b4 23a3 b0bf
00000380: 3f56 9583 57b6 b03f d8f6 353e 142a 9e3f
00000390: 9f1d f0fb 2690 b93f 93c7 5300 6552 b6bf
000003a0: 3a7f 6a18 d220 c5bf 6fc2 8461 2e2d b0bf
000003b0: 4109 b2c2 865c b9bf 7a93 b23d ea93 993f
000003c0: 1900 6935 3c99 c03f e8b6 0d9c 5d0d 693f
000003d0: a540 bc78 f873 bdbf af0f dff8 72fb c0bf
000003e0: 1442 fec7 9360 b4bf 5aae 8b87 c40f 7d3f
000003f0: 8b90 1dfa 6bde b03f c240 9e3c 96fa ac3f
00000400: c428 0972 cd4b c43f 352f 6b91 c760 babf
00000410: 1b5b 7519 d3ef 743f ec47 86dc 6044 bebf
00000420: 4036 96d4 7c4d c3bf f756 5706 6c83 b13f
00000430: 2ed6 36f0 acc7 ba3f cc14 8731 a7da 873f
00000440: f274 859a 0f3a af3f b442 2179 46cd a8bf
00000450: ca29 c55e 1d98 b93f 2bee f4e2 4a89 8abf
00000460: 3a2c 68a7 7dcc a9bf ef78 af6f b03e a73f
00000470: 96cb e06e e207 bdbf fed9 3876 5b8d b83f
00000480: 2ff6 0af6 6f2b c13f 4888 8790 93d2 7b3f
00000490: 0a9b 79a5 e347 bc3f 8b27 849f 6461 a8bf
000004a0: 13f4 c845 83d4 be3f 4eb3 ef5b 4ab3 6e3f
000004b0: 81c4 6a93 da94 b1bf 4fdb 85d1 90e0 a23f
000004c0: 8354 195c 47b1 61bf fb7c 23e3 5c01 663f
000004d0: 0947 f6b9 35bd a0bf 5572 4177 f1e8 c13f
000004e0: 2729 4783 0ba3 b93f 51d4 fa87 239d bf3f
000004f0: 9030 df3b 0c32 bfbf c7c9 117d 1d36 b4bf
00000500: b733 eb5d 8c05 b13f e462 c2f6 b79d b2bf
00000510: e45d e792 d356 b3bf 3a01 d727 7e14 8cbf
00000520: b34f 75fb 3d58 7dbf 2c51 a652 fc5d d13f
00000530: cfdc 52a1 6b2f d13f 4c56 19d4 863d 9b3f
00000540: 0d1b a0d2 7695 a5bf 1609 d627 3de5 73bf
00000550: a042 37df 0afd c8bf fbf1 9b5a e19b 74bf
00000560: 0fd1 3d02 5fb3 903f 126e 015e 146d a33f
00000570: 9c1c b418 0ff8 b7bf 96c0 33c2 0c79 75bf
00000580: 3fd5 ad87 658c 6dbf d920 4618 3f35 c7bf
00000590: 1eba 3378 3449 9ebf 581d 1822 4977 b2bf
000005a0: 13a6 5948 ad71 69bf 2306 15b7 5340 a33f
000005b0: 237d f7fe e5fc b03f 6dc7 acd4 c31a c1bf
000005c0: 6e46 a2f3 44dd c83f a147 d3c5 2459 943f
000005d0: 74cb d3a2 4c9b c5bf d0a3 84ac 9844 b4bf
000005e0: 99d1 2f8f e112 a03f f1f6 6d77 41ee b03f
000005f0: b394 a7d1 a7e4 a9bf 2bf1 1778 a534 a43f
00000600: cc97 75e8 e981 c1bf 645e eb7a 6e39 c33f
00000610: 5cce d191 f5c3 93bf ecf6 5460 0211 c2bf
00000620: 6ca7 9174 9dff c3bf 8c1a b449 c266 cbbf
00000630: 34b5 c03d a371 7dbf 7cf9 fb59 80cb 83bf
00000640: 5185 01fa 1243 c03f 3bcc fc19 7fed b0bf
00000650: 7966 f303 e437 c23f ef24 6f0d 7eda b5bf
00000660: 9066 60a9 47c6 733f ce02 2e50 327d a53f
00000670: a116 0553 3dd6 bc3f b5b6 992b 8f7b b83f
00000680: 958b 8e16 b105 923f 3ff7 5a92 4410 a1bf
00000690: decf a6e8 9e43 ad3f d8c9 0281 db6f bdbf
000006a0: 5439 b5d4 0f2b 8e3f 873b 3b4e b61a 963f
000006b0: becf 7649 1800 b5bf da56 05f2 8b90 b4bf
000006c0: f9cd 1e6b 4dff c03f 605c b31b 3c4d a3bf
000006d0: a068 6d8f cea3 c1bf 7f75 3fa6 736a 98bf
000006e0: 7aaa 4037 de5e c13f 3ac7 892b b8b0 823f
000006f0: ac30 5f87 b9f2 90bf 55fb c4d1 18c9 b0bf
00000700: cff9 785d 1d19 873f d1c7 b1df ec62 9a3f
00000710: 14b1 1ddf 0c82 b63f 8d07 a487 beac a03f
00000720: d527 8dc8 973a b73f 01a1 62c7 0b20 b43f
00000730: 97c6 11b7 94da b4bf cdff a6e5 70b3 ad3f
00000740: 088c f698 7ee6 b03f 7e94 4a44 1fb4 7dbf
00000750: 8b9a 0bd6 4399 bcbf 4ae2 c82b a1e5 b2bf
00000760: 148d a03f c785 b93f e558 fd60 3a22 9abf
00000770: e17d 0774 1ba7 a23f f15a f191 a9e4 b43f
00000780: 4cbb 8af8 cd3b 913f 57d4 86b6 b1f6 8abf
00000790: ffd0 315c a47b b63f d6b4 da34 998d b2bf
000007a0: 76f7 4025 bfdf 963f 279a 84e0 c741 75bf
000007b0: d2ba 9142 2c1d b03f faa3 3d81 681e bc3f
000007c0: 09f0 cd22 5f9c a33f 8b36 e762 1ce1 933f
000007d0: 7c83 8323 0f6c c3bf 6303 26de 3f73 c0bf
000007e0: 8d44 f683 84ab b13f b4dc 557e fac7 a33f
000007f0: 8306 a5f5 2045 aebf deed 5cfb e582 c1bf

fc_hidden_list.0.bias f8 [50]
-0.019973969302124694 -0.10896751613353947 6.593071844215373e-06 -0.024959533761421047 -0.028839000307636163 0.12749832961356744 0.009851767784939703 -0.003256277151983497
0.13162183100499328 -0.05324867646598132 0.09566316247608503 0.024742409816101964 0.11504426085284877 0.10665645369269099 -0.09209622846786202 0.012891047502280147
-0.012255249989667571 -0.07438819524654187 0.05921802335311957 -0.14416772642283995 -0.02518428335462194 -0.09228410079822427 0.025130354664501822 0.070132027541617
0.13181237942988033 0.11347487821751931 -0.007640358678795021 0.14016159669110453 0.1529927860449807 0.0790887304046671 0.025262804519850118 -0.17771709289766724
-0.007001708707480795 -0.10171507977468973 -0.08849531812315566 0.010145579719885759 0.023699227469382786 0.09587706922675172 -0.14873357938542262 -0.0808844345783154
-0.02176811519139276 -0.16871034786622044 -0.026002514983088358 -0.10260195305891529 0.037812414355225206 0.0025626000034788426 -0.13689030389317544 0.10683571408389025
0.05595283334881195 0.08327772406051652
00000000: a01b b263 0e74 94bf 0eb2 1e8e 4be5 bbbf
00000010: 4f57 f3c9 41a7 db3e 4933 eaf4 fd8e 99bf
00000020: f6b9 ae8c f887 9dbf 3811 fe81 dd51 c03f
00000030: 8d85 8de3 292d 843f e0bf fb7b e8ac 6abf
00000040: 3194 cdf1 fbd8 c03f b20e f417 6943 abbf
00000050: bc47 448a 617d b83f 3a03 f003 1356 993f
00000060: 3e9a f469 8a73 bd3f 5b77 845c d64d bb3f
00000070: b7ba 5a51 9e93 b7bf 1ec2 771b 9f66 8a3f
00000080: 9387 47cf 4719 89bf 1bd8 cad1 1a0b b3bf
00000090: d454 4523 d351 ae3f 8df8 0f8b 1674 c2bf
000000a0: 1773 86a5 e8c9 99bf 0280 de4a ee9f b7bf
000000b0: b404 af8d c5bb 993f bb83 b12c 2cf4 b13f
000000c0: dcfc 6d61 3adf c03f c6a0 dc8a b00c bd3f
000000d0: 316e 7b2a 7f4b 7fbf 81c2 f8b0 d0f0 c13f
000000e0: a926 4b82 4495 c33f 06f9 91b6 283f b43f
000000f0: ab3a df1c 7ede 993f 30c4 f706 6fbf c6bf
00000100: 44cf a2de d2ad 7cbf 4f6f 24dd ff09 babf
00000110: 5525 3011 a1a7 b6bf 9557 c4a8 34c7 843f
00000120: 3c94 af3b 9c44 983f e5e5 c34c 668b b83f
00000130: 2b82 a3b1 b309 c3bf e8f1 44a1 d7b4 b4bf
00000140: 9ed0 5e7b 614a 96bf 8985 4af9 4c98 c5bf
00000150: 1e4d dd3d 67a0 9abf 00ce e420 1f44 babf
00000160: 61b5 1316 265c a33f e53d a566 29fe 643f
00000170: 172b 2e19 9f85 c1bf 50fd 08da 9559 bb3f
00000180: 1f10 b48a d9a5 ac3f 5342 535d b051 b53f

fc_hidden_list.1.weight f8 [50, 50]
-0.032299411836720616 0.1564283087682491 -0.06045296198320417 -0.13822665168456327 -0.012030486706799797 0.009123314111853744 -0.13227329550676492 0.15898452344487488
-0.1215940499345109 0.1819945054893118 0.05701086424313692 -0.08953361348289045 0.08316194056592248 -0.16603489212653327 -0.19542736812808711 -0.06224040249067786
-0.11057681568151125 -0.06101127364584169 0.07943015465406873 0.03367042347912535 -0.16053917700221795 0.02224696831026405 0.08612438889322396 0.15603533382389756
0.02679243218742129 -0.09179701867833201 0.11539498212705636 -0.09518840122214324 0.06481460876215249 0.02860180100260328 0.10342198847885363 0.12205855191781063
-0.005193677301533673 0.049092908184908336 0.08566087861432646 -0.13758038502483277 0.059737151874429524 0.15087392163600657 -0.04526398156852877 -0.11122889608587727
-0.17483038566549766 0.10781637193390625 -0.13856777712741644 0.11479701038823635 -0.09303229426624889 -0.02071214370862189 -0.06291256819215935 -0.11234404037998784
-0.08518553780607693 0.001196910130323541 0.07209239178109862 0.10549435860081285 0.012739760371261696 -0.09450567488454646 0.025997305582723985 0.02136001510605523
0.09938069874537164 -0.003616521571926714 -0.1435217633229214 0.03504956775612304 -0.030752427153583183 -0.04763884595809544 -0.013920063073370828 -0.1669376822121152
-0.11915052143602889 -0.09689277129292061 -0.019646063712973737 0.05104369952288475 0.14727908901655554 -0.06461649127628465 -0.08375083689926256 -0.021527055941285917
-0.13773871468760382 -0.0406188455979221 -0.044873115197593315 -0.15867488173247538 0.04313862344681715 0.08970725192405349 -0.13056017949181328 -0.1397262199870104
-0.08342961508486518 0.0658244809783357 0.14190709422082412 -0.06223476985734663 0.02328253585834768 -0.02414921631547212 -0.04640170001147166 0.08889147356398834
-0.09377121253475139 0.05381610311811242 0.04641633769301434 0.10043281267141439 -0.03308125459689083 -0.04886448293228635 0.07212391843075013 -0.008830208738934527
0.1640294606349892 -0.025658904024381014 -0.08643710609322042 -0.0820984994954399 -0.04832188111200393 -0.05334244692252466 -0.14765907349456198 0.024100414007455134
-0.13013484806869038 0.0354562576359842 -0.10735107896898076 -0.09764302846163957 -0.04893082224355686 -0.15285836193924218 0.08863164654200255 -0.09539627247442534
-0.12417425929191585 0.11631753305974096 0.14481094139642187 0.17795490645398118 0.23273768182834303 -0.05308107322018914 0.004548512030088525 0.04284373432069994
-0.05107801899330698 0.009316434478163372 0.03568235866502195 -0.013492764024938588 0.02174439925554805 -0.14567112763542908 -0.006031142912087552 -0.10756368067311835
0.03434641383377305 -0.06446744458950718 -0.06627994834308944 -0.05303577052656137 -0.15612329717211035 -0.15317005871353964 0.11780263657400926 0.1541897401541189
-0.13182289218069995 0.0073612032473042675 -0.0985609669701448 0.06685018852430692 -0.06990063181104426 0.12674762287272884 0.15465022185621835 0.12744034618243713
-0.12926413839148568 -0.031369811079550336 -0.0885286321593633 -0.006830262112256872 -0.04871993411265198 -0.04458274410362243 0.05760865442326336 -0.19035171696303524
-0.06441766925068258 0.33478806467595495 0.003594975012638522 0.0169557898030317 0.033337519073746734 -0.1123420900640181 -0.08305320114472274 0.12242663492905898
-0.09836607103180504 -0.04211110575584221 -0.04264071053826047 -0.003970213428911478 0.09827039059521714 0.2809041911186669 0.10759936440416289 -0.141941178388353
-0.15433652004996534 0.04642409237384466 -0.18712964704304458 0.02821968262282497 -0.09924077582514367 0.14322747946300415 -0.084124972791032 -0.20813542318473668
-0.19859811426447485 -0.3979804852219969 -0.05675478908538971 -0.007936067398730446 0.16809176104130605 0.1706634411306241 -0.06800659762493157 -0.18591997063745908
0.2408864835942542 0.10394956635141224 -0.05494687766483521 -0.024421396348846394 -0.019177950394645888 -0.07592489038682654 -0.1602232609616611 0.21069396208914276
-0.023537503247561084 0.07753726147783223 -0.0904898466690049 -0.07518610729791383 0.10546098166343747 -0.17123046167025852 -0.17810434300138803 -0.23158295322512873
0.11189721569988327 0.0222301798169856 0.05290012064788475 0.1647934101443898 -0.13732343084206564 -0.09233852793963672 -0.05317526159662128 -0.06581266900272412
-0.12115118483043522 -0.10152041914247122 0.1331722599614228 0.16092917232940007 0.0689225470005446 0.038549739268977236 0.1449774923148468 0.07222498014795356
0.1302149546130468 0.062088600305578445 -0.2913288988380205 -0.010112028868845678 -0.1562465982682764 0.021390088936935305 0.09728607649341718 0.03516989575815389
-0.15353154643211678 0.12192853322509115 -0.05835074206750396 -0.17160223921773127 -0.0510833530535086 -0.1574087979771961 0.11874624283369116 -0.12338958542750143
0.010466322058735955 0.03353848817992262 0.146623779369607 -0.05535018957892011 0.05022187548179243 0.023313450606288803 -0.04504203994975484 -0.008992789463630732
-0.1326167539974836 0.11886871928228607 0.043804278899329314 -0.013150942593970536 -0.09241230855853275 0.05999880020710302 0.09908966397729606 -0.07175617370050755
-0.2116549347630349 -0.0033665804658209566 0.021597534900274898 -0.16307502218078748 0.10085684706492141 -0.07288392378106565 0.08709621792946752 -0.10544667772389305
00000000: a599 096b 8c89 a0bf 1c03 2ac3 d705 c43f
00000010: 2211 54cd b0f3 aebf 34dc 3532 69b1 c1bf
00000020: a372 af97 70a3 88bf 41b0 ee7d 3eaf 823f
00000030: 30f8 2ad3 54ee c0bf 7308 62d8 9a59 c43f
00000040: cc5e dba3 c920 bfbf b26b 9090 984b c73f
00000050: acc6 e12a 8730 ad3f 773d cdc5 aceb b6bf
00000060: fda5 00d7 194a b53f 1ed4 d69f a140 c5bf
00000070: 0f3f 6d95 c303 c9bf d0ea 5f5a f9dd afbf
00000080: e143 0c1f c34e bcbf 800d fea1 de3c afbf
00000090: cd31 8edc 8855 b43f 77e1 5eef 3f3d a13f
000000a0: 97c3 7939 8c8c c4bf 1a99 4fc5 e8c7 963f
000000b0: b233 af79 3f0c b63f 80a4 e53f f7f8 c33f
000000c0: f4e0 19b0 796f 9b3f 28ff 1769 0280 b7bf
000000d0: c1b3 5b8a 868a bd3f 5927 355e 445e b8bf
000000e0: 27bd efb0 b097 b03f 4dca a65f ca49 9d3f
000000f0: 0f37 340a dd79 ba3f 2522 afb0 3a3f bf3f
00000100: a73d 7f22 f745 75bf e54a 3da6 b422 a93f
00000110: dff5 3110 dfed b53f f259 20eb 3b9c c1bf
00000120: f14f 5033 de95 ae3f 257a 9f2f d64f c33f
00000130: 6512 0c31 d72c a7bf 481c 0f37 7f79 bcbf
00000140: 7be3 6392 d760 c6bf b0f3 6d8f da99 bb3f
00000150: 7555 85c3 96bc c1bf c3c9 4b3d 5663 bd3f
00000160: 4d6b 58e5 f6d0 b7bf 6d30 6f6f 9035 95bf
00000170: 9c87 e4be 091b b0bf 1322 553b 94c2 bcbf
00000180: 3622 f82a b8ce b5bf 4964 6c77 349c 533f
00000190: 3980 fda0 a574 b23f 645d 1aa4 ad01 bb3f
000001a0: cb41 3ab1 4d17 8a3f 8b60 ea1e 8631 b8bf
000001b0: 2a34 0ca5 099f 9a3f a050 4a59 66df 953f
000001c0: 340a f772 0371 b93f 05f5 0d3c 65a0 6dbf
000001d0: cb3b decf eb5e c2bf 96c2 8056 04f2 a13f
000001e0: e3cb 9673 907d 9fbf e382 d16a 1e64 a8bf
000001f0: 555f 443d 1f82 8cbf 0219 c9c6 365e c5bf
00000200: c07c de08 a680 bebf bf01 ecf3 f6cd b8bf
00000210: 63c5 9104 191e 94bf 6a3b 3c58 6622 aa3f
00000220: cdfa 5a8b 0ada c23f 875c d0d4 b48a b0bf
00000230: e1b5 7ee1 b170 b5bf c5e9 fc44 300b 96bf
00000240: 7df8 7c15 6ca1 c1bf b681 e34a fecb a4bf
00000250: 5392 7ce4 9bf9 a6bf 4d6b de61 754f c4bf
00000260: 3b0d cc01 4416 a63f e853 3af1 0df7 b63f
00000270: 9be2 892a 32b6 c0bf e073 9e7c 8ce2 c1bf
00000280: 6caf 4eac a45b b5bf 0f00 1489 dfd9 b03f
00000290: abd9 5ffc 022a c23f 5b3b 6c5a 3cdd afbf
000002a0: b575 5188 60d7 973f 6f28 3279 92ba 98bf
000002b0: aa5f 0eb0 f6c1 a7bf 83bf d973 97c1 b63f
000002c0: 1f9d 24e3 6301 b8bf e9e9 c7c5 c88d ab3f
000002d0: 507e c8d8 e1c3 a73f 0b78 defd f6b5 b93f
000002e0: 4266 35b5 06f0 a0bf 199f 42f8 c304 a9bf
000002f0: a560 eb8e b676 b23f 9e2e 018e 9215 82bf
00000300: 86ff 80d8 eafe c43f 6a2e 8be6 5346 9abf
00000310: b8cd d4ff bd20 b6bf c032 6242 6804 b5bf
00000320: ca50 1d46 a5bd a8bf 11ae 0a82 b34f abbf
00000330: 70f3 ce15 7ee6 c2bf 68a6 ed67 c7ad 983f
00000340: b131 433a 42a8 c0bf 585f f895 5227 a23f
00000350: a7b1 5c3d 5c7b bbbf ebd5 ec2d 22ff b8bf
00000360: d5dc 9af2 750d a9bf 9c7e b9e0 dc90 c3bf
00000370: 43dd 4947 90b0 b63f 441e 70de e36b b8bf
00000380: f9ee a95e e2c9 bfbf 8c67 7160 fcc6 bd3f
00000390: 0247 b338 2a89 c23f a9f8 b0f3 39c7 c63f
000003a0: 76f2 ff2d 59ca cd3f bada 0843 712d abbf
000003b0: e694 a2e6 75a1 723f 19e9 7d2b 9def a53f
000003c0: 0ecf 3dea e526 aabf 1a3b 31ab 7e14 833f
000003d0: a854 0547 f544 a23f bb0f c221 18a2 8bbf
000003e0: 5fea b1ee 2944 963f b332 95fc 59a5 c2bf
000003f0: b5e7 0999 1cb4 78bf 6d7a ba1a 4b89 bbbf
00000400: a547 4d68 da95 a13f 0a2b 2b3e f080 b0bf
00000410: 959e 8302 b9f7 b0bf 1d07 dc27 8127 abbf
00000420: 4bbb bf23 d9fb c3bf b155 7394 139b c3bf
00000430: 21cb 7747 5028 be3f 5c9b ab49 7dbc c33f
00000440: ebde 6391 92df c0bf fc55 4df3 c726 7e3f
00000450: 3e85 cca1 4a3b b9bf 417e 710d 181d b13f
00000460: d321 99ff 01e5 b1bf 2ec4 8a1f 4439 c03f
00000470: 6c86 9816 94cb c33f b7b1 851b f74f c03f
00000480: 39f1 772f ba8b c0bf 3834 5631 b40f a0bf
00000490: 0453 e2fb cfa9 b6bf def2 5286 0cfa 7bbf
000004a0: d2ae 5ab7 d1f1 a8bf 8530 c8a7 8cd3 a6bf
000004b0: 91d0 6dad e17e ad3f ddfd 8bef 715d c8bf
000004c0: 9f5a b726 ad7d b0bf 81f5 37eb 2a6d d53f
000004d0: 2fba 7e83 3573 6d3f 813c baca db5c 913f
000004e0: d393 4d84 9d11 a13f ea0b ca82 73c2 bcbf
000004f0: 43a4 be7e f942 b5bf dcfc 2d19 5a57 bf3f
00000500: 0f1c 1ed2 842e b9bf 511b 0a3c 968f a5bf
00000510: 61e5 7ad2 00d5 a5bf 1273 5d0d 1243 70bf
00000520: d087 c591 3f28 b93f 1b7f 8a92 55fa d13f
00000530: 23af 2fc7 a18b bb3f 5d1c 91e7 202b c2bf
00000540: d8b5 1891 4cc1 c3bf 89fa fb0c e6c4 a73f
00000550: 20b9 1441 ddf3 c7bf 0dc7 dfd7 9ee5 9c3f
00000560: bf41 99ee d767 b9bf 874f 172e 4755 c23f
00000570: 4d14 ead6 3689 b5bf 25d9 db79 2ea4 cabf
00000580: a116 e8ba a96b c9bf 4a61 1e24 8378 d9bf
00000590: 86b8 06b6 f60e adbf cabe 7def c840 80bf
000005a0: 6321 33e4 0784 c53f 6ab1 23b5 4cd8 c53f
000005b0: 9118 b660 e168 b1bf 52d4 c7c0 39cc c7bf
000005c0: 43fa 8a48 5ed5 ce3f 8da6 e953 709c ba3f
000005d0: 83f1 2c45 ff21 acbf f454 902a ec01 99bf
000005e0: 454c ff76 62a3 93bf 1cef 2949 d06f b3bf
000005f0: 75c4 f120 3282 c4bf a69a 510e 05f8 ca3f
00000600: fc08 b61a 371a 98bf dfc8 4462 7bd9 b33f
00000610: fd3c 10b4 572a b7bf 2e45 f58f 653f b3bf
00000620: fb9e 3fab 7dff ba3f 72f3 7938 e1ea c5bf
00000630: 31b7 3b84 1fcc c6bf 06de 349d 82a4 cdbf
00000640: e5c7 f1c1 4ba5 bc3f de4e 311d 82c3 963f
00000650: 8134 4680 b915 ab3f da4e 9551 f317 c53f
00000660: e778 386e d093 c1bf 8159 a96d 7fa3 b7bf
00000670: 0808 07b3 c939 abbf e277 075d 19d9 b0bf
00000680: 22e7 b798 c303 bfbf 1fd7 1700 3efd b9bf
00000690: 7465 a2e2 c90b c13f 8445 10be 5399 c43f
000006a0: 6309 5375 e8a4 b13f 75f2 db9a cabc a33f
000006b0: 68fd 125a 9f8e c23f d290 b017 567d b23f
000006c0: 3daf c135 e2aa c03f d8a3 88b7 13ca af3f
000006d0: 38e5 38f7 21a5 d2bf 8c9e 4d8a 9db5 84bf
000006e0: 2935 d676 e3ff c3bf e74a c591 48e7 953f
000006f0: b337 e584 bde7 b83f 2285 2be0 c901 a23f
00000700: 8945 6af5 eba6 c3bf faa8 a656 b536 bf3f
00000710: 5828 c101 26e0 adbf aa25 aeea 0ff7 c5bf
00000720: 1a3d 78e5 9827 aabf d015 b5b3 f825 c4bf
00000730: 1f5b 7e5d 2766 be3f 77ff 13ba 7596 bfbf
00000740: 6d07 9df7 5d6f 853f a9b4 c7eb f42b a13f
00000750: 3fac 9a68 91c4 c23f dd41 232c dc56 acbf
00000760: fbe5 7981 aeb6 a93f aec8 a42f 7bdf 973f
00000770: 5d03 0f11 c00f a7bf 583a 2bc5 cf6a 82bf
00000780: 3f12 a9f6 95f9 c0bf fab6 d52d 2e6e be3f
00000790: 994f 98b2 836d a63f 3f48 d2a2 e1ee 8abf
000007a0: f6ba 0143 55a8 b7bf 40a3 60a9 29b8 ae3f
000007b0: 2374 27b2 f05d b93f 266c 54d3 9c5e b2bf
000007c0: 5510 6c47 8217 cbbf 1a70 0020 3b94 6bbf
000007d0: d499 4808 aa1d 963f 6fcd 876f a4df c4bf
000007e0: f3b4 b81b c1d1 b93f ae38 0b55 85a8 b2bf
000007f0: 17c3 9c0f f04b b63f d8c4 4bb0 8dfe babf

fc_hidden_list.1.bias f8 [50]
-0.04959443930885547 -0.03252638651675381 0.10622433940084018 -0.10765745016389335 0.0003658597699820963 -0.08666643337778947 0.027565482768040602 0.12495255059694513
-0.014076841809601592 0.02286249017744257 -0.03142274652344427 -0.09495628397094957 0.05942952433713582 0.08794655555421099 -0.08822335305722281 0.023301798065561877
-0.07982697438792892 -0.03094137679414168 0.06835710643665507 -0.03206995216291819 0.05228493585868781 0.13128638550673724 -0.12263162213408611 0.06252084306587315
-0.08022794412882765 -0.061136074343924145 -0.12663543090044643 0.10930803193596554 -0.017434167301858546 -0.050715400008225754 -0.04017327365777916 0.04851864818546662
0.10750110892159002 -0.05702945447142826 0.15404058495375933 -0.09837726250613796 0.045161243461910805 0.020113875439654403 -0.1590673994216575 -0.09215562276182114
0.1089098127825948 -0.1026395744351472 -0.07772217696184865 -0.06250397231230784 -0.09097013198235673 -0.14169772534304648 -0.08536825935549984 -0.0998447144652382
-0.10189872810069091 -0.13995075908458607
00000000: 463c ca3d 7164 a9bf 266a b16c 4ca7 a0bf
00000010: 4f0c c4af 8431 bb3f 7dea 9f4b 708f bbbf
00000020: 9713 3bbf 1bfa 373f e9c0 0479 c52f b6bf
00000030: dfe0 f23b 203a 9c3f 329c 5dee e3fc bf3f
00000040: 9329 a0b9 51d4 8cbf ff0c 78be 4369 973f
00000050: a55e 5669 a416 a0bf 7875 3416 0e4f b8bf
00000060: 56c1 e3ee 8b6d ae3f f4b3 e65b aa83 b63f
00000070: c6cd 1f40 ce95 b6bf c1b1 8432 6ddc 973f
00000080: 6db4 5564 8a6f b4bf a53a b2a5 18af 9fbf
00000090: 5239 98f0 d97f b13f 80b2 7207 796b a0bf
000000a0: 974c 2c53 17c5 aa3f 89ab 1406 fecd c03f
000000b0: db75 8536 c964 bfbf 3949 49b0 5d01 b03f
000000c0: 9335 428c d189 b4bf f771 d33f 3a4d afbf
000000d0: 86bb 1dfd 9635 c0bf 8be7 5a76 9cfb bb3f
000000e0: 42f1 9329 43da 91bf e5b5 e070 5ef7 a9bf
000000f0: 661c 1161 9791 a4bf 75c9 67ae 6fd7 a83f
00000100: 3f1a 1a53 3185 bb3f 5f1d baf3 f632 adbf
00000110: 9e09 5115 9ab7 c33f 4645 2295 402f b9bf
00000120: 3863 6edf 5f1f a73f 0927 d654 bb98 943f
00000130: d519 300f 525c c4bf 9b8f e7c9 8297 b7bf
00000140: c75e 1d74 83e1 bb3f b36c 794f 9646 babf
00000150: d59d 39c0 99e5 b3bf 5692 f3a4 4200 b0bf
00000160: 2aeb c68d d149 b7bf 780b 22ac 2623 c2bf
00000170: 8f5e 0cba b1da b5bf 0581 4e57 6c8f b9bf
00000180: 714b b2f8 0816 babf 3fca a80e e8e9 c1bf

fc_hidden_list.2.weight f8 [50, 50]
0.04552967555816171 -0.1382463786825986 0.06333250575077924 -0.014857162476620365 -0.02274767123502543 -0.04025817051988855 -0.04926225825908782 -0.16293030249706655
0.02556613361090567 0.09340889672473415 -0.12420025739977213 -0.05276395308857209 0.04567475032874667 0.07862980358645776 0.07420796995889961 0.05673197754038594
0.13973919663775541 -0.0879585938829083 0.04614491255731713 -0.08336490518342093 0.1275672252452959 0.044411702196654114 0.10933809230255348 0.08642155807049977
0.1358602158056312 0.012645778861605807 0.08402842023711957 -0.024875246304615538 0.01227398634342562 -0.12596470271860385 0.12912966891151403 0.10498987901471932
-0.03489716698692408 -0.024405587535906235 0.12874499871492617 0.02476209904538743 -0.09966102752839862 0.08938800337626604 -0.10403920047278295 0.07426195396422955
0.045281565579055626 0.053778814000317254 -0.05061094592217796 0.047880044624762086 -0.06804716985400378 -0.03426360458481125 -0.052351354739009044 -0.0808467435566364
0.0723564915519213 0.08257972808301216 -0.106605082101908 -0.17307332315880794 0.157938891264929 0.07868920429144417 -0.03740465585756911 0.030637953996916333
0.024613534394793767 0.0313537030467215 0.0557233153374331 0.015215110696506929 0.011567057019251904 -0.1545313033537245 -0.10271180184110917 0.0948284199862292
0.030317163356908598 -0.13390312435517424 -0.008651984916471707 -0.013672100911583019 0.11302734760777583 -0.0938884466819738 0.04577304396657088 -0.12018891240110298
0.02615434338985157 -0.12951172067193711 0.11582920886880443 0.09303262998562574 0.02556964207326899 -0.05618077410052047 -0.008591519556090194 0.05754150593526386
0.1443377900092037 -0.0445138061795015 0.19335864353659607 -0.14812769522106983 -0.0985426726615574 0.10652470046306596 -0.08100249004120177 -0.19745652432777497
-0.27422475045755285 0.0013642122153799366 -0.10464176337024428 0.025413374913598314 0.18431955062837546 -0.043063066810418035 -0.0557367978779871 -0.0899421816437692
-0.15120190844833573 0.10691395150644079 -0.12847901368617934 -0.11212729983845371 0.021305844970521914 0.18757393955130966 0.010592163367075174 -0.018479838616820822
-0.08142171941577286 -0.07498055368134439 0.047318370691031994 0.21232631062751753 -0.27036431549609913 0.22564055326041418 -0.23856432760236942 0.07274485002535984
-0.05899505078677231 0.05949554843387381 0.021042869271602437 -0.019124721649495812 0.09649162370916738 -0.1560318170100922 -0.10986123948448086 0.2498370119972392
0.07929465096756898 0.02327255203415322 -0.070896060684749 -0.12832498915319476 0.03140966777872281 -0.031131407495905504 -0.010703818144629269 -0.02260105263343028
-0.19135721890420113 -0.07241777333688064 0.20247289088998166 0.25076754498958814 0.09298444163550368 -0.14392309266519396 -0.17874380427954562 -0.04296473251867124
-0.011580417003356942 0.0815255074703177 0.234517025235388 -0.09209974262446012 -0.07177552244332408 0.1230717544804417 -0.1080118150248681 -0.013654529247580306
0.10669413304989935 -0.08165952090294233 0.13444855830516075 0.05480829753861388 0.1642983423772359 0.13379480796496404 0.06499619668484673 0.03684658835445658
-0.17064245259666674 -0.14196729577682243 0.11622945484767386 0.1212881625280502 -0.12766355427773535 -0.01922083718433603 -0.03345613252655005 -0.05150593806672035
0.06129631707139649 0.13975586206879143 0.0035718610077607156 0.2305455449539076 -0.04144162678625881 -0.11697477853843637 -0.04372895496077437 -0.11244997196071049
0.014095396991466272 -0.14839651762709358 0.001627045875980311 0.07688249445022592 0.1223390041264272 -0.12259664765550955 0.028653411554546638 -0.08106831166334183
-0.013506908431999903 0.08117498511202187 0.06503249254717605 0.044076553013928044 0.051587446649608314 -0.07274770590686354 -0.06620128861963265 -0.10808033858693139
-0.1351162489900386 -0.09004698863182521 -0.004330200325108027 -0.05632086994978628 0.016266993500906383 0.12560445147310972 0.016178028175697575 -0.08221517265540194
-0.11579535654157014 0.009313843808140522 -0.041173487559104306 0.08177734216156056 0.09638238871819786 0.0069353787708956215 0.015075883119507324 0.15015294784871197
0.11385227587819007 -0.1805280740717894 0.07836105085457962 0.08471013258762862 0.08014747921729069 0.013491137971530757 -0.029033497357462346 -0.15430687697201084
0.23451297799494358 -0.09774302978743066 0.17722942427176502 0.1067170544630373 0.12208178898783936 -0.029618292570324504 0.2296328021678584 0.14577417671257403
-0.06838039492775147 0.2009170223821029 0.046141841852760816 -0.18293604632369023 0.06012462147741531 0.12899037542963193 0.032991866521871464 0.07136199707665124
0.12689268572916954 0.0520343024705571 0.13581992935371545 0.07534694653139135 0.23764810551273116 0.07671829539122182 -0.12093777463150142 -0.21865632432966536
-0.007504477610411951 -0.018380895508792107 0.052989030069207584 0.17821328243538204 -0.0687748860045217 0.007504597813532719 -0.20548056137037315 0.02094207908558284
0.013869671851660215 -0.14268904089882717 0.12282127945362602 -0.08800986130196971 -0.11508289407801238 0.13005177078797028 -0.0613443376410775 -0.12730462231707532
0.0939455431414166 -0.06731698269393267 -0.13272961661677235 0.08761760632312221 0.10603000164683912 0.11340846802820762 -0.01885391170121279 -0.1109065912224401
00000000: 9522 0a67 aa4f a73f 7cb8 9dad 0eb2 c1bf
00000010: 132c f920 8f36 b03f 3269 9697 6e6d 8ebf
00000020: c5f1 0e60 2a4b 97bf 7f36 8f0b b89c a4bf
00000030: 21be 4c18 e738 a9bf f94a 6070 e6da c4bf
00000040: c6dc f92e 022e 9a3f 9e92 963c a5e9 b73f
00000050: 57d2 af8b 96cb bfbf f39f d879 e003 abbf
00000060: fe71 d44d ae62 a73f a70d e532 1521 b43f
00000070: 5476 1324 4bff b23f 2fc3 5848 f90b ad3f
00000080: fea4 c357 f9e2 c13f aa15 2154 7484 b6bf
00000090: 32f4 9e54 4ea0 a73f 749d 6505 6757 b5bf
000000a0: 5629 3c72 1f54 c03f 9d17 fd70 21bd a63f
000000b0: cc80 a5ca 94fd bb3f 8708 9525 b91f b63f
000000c0: 5f39 db17 de63 c13f cef4 24b5 07e6 893f
000000d0: 725c daf4 e282 b53f f6dd 6e85 e578 99bf
000000e0: 1715 7e8f 1a23 893f dd39 5083 9c1f c0bf
000000f0: 9189 752c 5287 c03f b67a c7e0 9de0 ba3f
00000100: a820 dd9d 0ade a1bf 56bc 3941 c7fd 98bf
00000110: a488 8053 b77a c03f 892d 5256 3c5b 993f
00000120: 0c94 eb95 6283 b9bf 86e2 27d7 21e2 b63f
00000130: da57 8823 50a2 babf 5209 9dd7 d402 b33f
00000140: 7325 8c36 252f a73f 00b4 b28e e588 ab3f
00000150: a05a 1c8b ade9 a9bf 28b8 96b3 bb83 a83f
00000160: c4b9 1b11 8a6b b1bf bf09 45ca ff8a a1bf
00000170: b9bb 02f9 cbcd aabf 9c58 9047 5fb2 b4bf
00000180: d369 de7c f485 b23f 27da 6def f123 b53f
00000190: 2010 377d 784a bbbf a778 6343 4427 c6bf
000001a0: 5ceb 5f72 5737 c43f 4de2 fac6 f924 b43f
000001b0: bcb6 40fb b326 a3bf b380 bb49 8e5f 9f3f
000001c0: 06f6 0e55 4a34 993f 8469 63b2 970d a03f
000001d0: 0b79 ff31 c487 ac3f baaa c596 1929 8f3f
000001e0: 1486 de1c 78b0 873f 7666 0e87 aec7 c3bf
000001f0: b81f d215 524b babf 2c7c 92e2 ac46 b83f
00000200: 016c 8064 760b 9f3f 5f06 f8d1 bc23 c1bf
00000210: 9106 18c2 21b8 81bf 8d4c 4352 1e00 8cbf
00000220: ec6d 8739 5cef bc3f 3ea8 f8bf 1209 b8bf
00000230: bee4 bf7d 906f a73f 89c3 1a58 b3c4 bebf
00000240: e2f3 0746 34c8 9a3f 3e09 5e0e d793 c0bf
00000250: 7058 03a8 fba6 bd3f 15c7 3f87 fcd0 b73f
00000260: cc84 e6a1 ed2e 9a3f 40f5 d9f6 b9c3 acbf
00000270: 107d 213c 6e98 81bf f020 4f8c 1476 ad3f
00000280: 154e d523 a979 c23f aedb 857b 83ca a6bf
00000290: b5bd 31dd f9bf c83f e49c 4d2b d9f5 c2bf
000002a0: ab81 57b4 173a b9bf 197f b4e8 3345 bb3f
000002b0: 6a1c 9f45 94bc b4bf c54f 2f61 4146 c9bf
000002c0: 4903 bef7 e58c d1bf 721d 64b6 eb59 563f
000002d0: 7c91 7877 cdc9 babf 0521 8ab8 f605 9a3f
000002e0: 482c fb74 c897 c73f ae7f 3bbf 5c0c a6bf
000002f0: ebb1 2398 8889 acbf 87dd b068 7306 b7bf
00000300: 056f f089 955a c3bf a0cf 3475 b65e bb3f
00000310: b192 0015 0072 c0bf 8081 cbed 5fb4 bcbf
00000320: 03ba 720d 33d1 953f 7135 fa3f 6c02 c83f
00000330: 9637 0b1a 58b1 853f 4a79 faf9 60ec 92bf
00000340: 3c28 13c6 0dd8 b4bf 81b8 e5f1 ec31 b3bf
00000350: d668 3c0d 1d3a a83f 01de 1c30 822d cb3f
00000360: 3dea 4321 a64d d1bf 4fd1 7326 cae1 cc3f
00000370: 1faf 85a0 4689 cebf 53b4 cf0f 689f b23f
00000380: 6895 826b 9934 aebf ace8 8f55 3376 ae3f
00000390: b396 570d 438c 953f 7366 1e58 6e95 93bf
000003a0: 4537 2bd0 acb3 b83f 85ce 98bf d9f8 c3bf
000003b0: 0d12 afbe dd1f bcbf 65e3 edc1 a8fa cf3f
000003c0: 1348 a77c a74c b43f 3b4b 8687 c2d4 973f
000003d0: fb64 0e86 3e26 b2bf 5715 d607 f46c c0bf
000003e0: e492 c68f ed14 a03f c61f 4b64 e9e0 9fbf
000003f0: f7f4 fc26 e2eb 85bf 65bc a9f7 ba24 97bf
00000400: f505 86b2 647e c8bf 0b8c 21a0 f889 b2bf
00000410: 647a 59b6 a1ea c93f 2d39 2851 930c d03f
00000420: c07e dc0f d4cd b73f 876e 1168 126c c2bf
00000430: 9423 dfb4 13e1 c6bf 1b21 1932 79ff a5bf
00000440: a47c 6d42 79b7 87bf 16f4 5f0c dbde b43f
00000450: 95df de64 a704 ce3f 53c5 8a46 d993 b7bf
00000460: d021 8c71 e15f b2bf e709 8e68 a181 bf3f
00000470: 6f08 1d8d a9a6 bbbf 1a2d 7ce4 e7f6 8bbf
00000480: 0dd8 1f84 4e50 bb3f 0567 af6b a3e7 b4bf
00000490: 331f 7540 9c35 c13f 18a0 f44a d50f ac3f
000004a0: ee0b a663 ba07 c53f 79c4 4a32 3020 c13f
000004b0: 7334 203b 97a3 b03f 9733 e757 8edd a23f
000004c0: ff1f 9ba4 9cd7 c5bf f443 3bfe fb2b c2bf
000004d0: 3e15 67ab 36c1 bd3f 312d 73b3 bd0c bf3f
000004e0: 90ca 4183 4757 c0bf 2e11 6f8c a0ae 93bf
000004f0: 98b6 1a86 2921 a1bf 34bd 177f fc5e aabf
00000500: a0b0 5f1a 3b62 af3f 5c3f 8124 85e3 c13f
00000510: baa4 da46 bc42 6d3f 5263 e833 8482 cd3f
00000520: cbe3 7a3f d637 a5bf 8588 4720 0ff2 bdbf
00000530: 95ba e33e a463 a6bf e8e2 0178 85c9 bcbf
00000540: 5be3 d128 0cde 8c3f 4f3a 0637 a8fe c2bf
00000550: 862e e434 53a8 5a3f 7b72 4c37 92ae b33f
00000560: f28a bfe5 9b51 bf3f 0d97 4770 7e62 bfbf
00000570: 6db3 2ee6 5157 9d3f 5803 5693 e4c0 b4bf
00000580: 1651 e28f 82a9 8bbf 3436 4f42 e2c7 b43f
00000590: 4ae0 aa2c f8a5 b03f c832 6eb3 3391 a63f
000005a0: 6b09 7d78 ab69 aa3f 11a0 baf9 979f b2bf
000005b0: 840a 9351 91f2 b0bf 544c 922f 27ab bbbf
000005c0: 2803 493f 7d4b c1bf b5e7 46c7 510d b7bf
000005d0: 1ce4 804c 8bbc 71bf f57f 08cd 16d6 acbf
000005e0: 11d0 5c74 4ba8 903f 248e a781 ce13 c03f
000005f0: 3fab b617 f990 903f d339 cab5 0d0c b5bf
00000600: 90ec 5fb5 c3a4 bdbf 54b8 72f4 2213 833f
00000610: bda6 0efd b014 a5bf 9b40 2322 5cef b43f
00000620: 237c 7427 84ac b83f c516 1a90 4568 7c3f
00000630: 2b1f a7c7 1ae0 8e3f 4640 3438 3638 c33f
00000640: bbd4 7839 6c25 bd3f 40f8 123f 8b1b c7bf
00000650: 545b b346 780f b43f 598b 1a31 90af b53f
00000660: af58 1892 8b84 b43f ef06 fde2 3da1 8b3f
00000670: 6d22 8e06 f5ba 9dbf 6843 12e7 53c0 c3bf
00000680: aae8 7c71 8504 ce3f 0056 59ec af05 b9bf
00000690: 046d 912a 74af c63f 3b1d d812 cf51 bb3f
000006a0: 4ed3 238b c040 bf3f f1c5 cff7 4154 9ebf
000006b0: 4f2c b38f 9b64 cd3f 6a79 ca6c baa8 c23f
000006c0: 4efa e6a7 6081 b1bf 62a0 2b24 a6b7 c93f
000006d0: 3f39 784b e79f a73f 1922 1cc8 726a c7bf
000006e0: f718 dc85 a7c8 ae3f 3609 fcb1 c182 c03f
000006f0: afa9 7d57 4fe4 a03f 4f18 9fa3 c744 b23f
00000700: 4b79 a7ff 043e c03f 942e c376 3da4 aa3f
00000710: 0010 5c25 8c62 c13f 6cae 34ff ef49 b33f
00000720: c317 91cc 406b ce3f 64cd b569 cfa3 b33f
00000730: 6db0 e42a c7f5 bebf 1a9d 0731 eefc cbbf
00000740: 7e85 90de 03bd 7ebf 0a69 5304 71d2 92bf
00000750: e954 63ce 6021 ab3f 5cea e25d b1cf c63f
00000760: c4f0 2c1e 3b9b b1bf 642f dc22 24bd 7e3f
00000770: 2755 86e1 2f4d cabf 959c 2123 d771 953f
00000780: 00b4 12d8 b367 8c3f 9c3b 146e a243 c2bf
00000790: 5b96 8122 3771 bf3f fd77 0474 d087 b6bf
000007a0: 6de3 6492 1276 bdbf c11d 2953 89a5 c03f
000007b0: d129 ed67 8668 afbf d1a0 bd92 844b c0bf
000007c0: 2ab8 65ab d00c b83f 55c6 228f af3b b1bf
000007d0: 2632 4ab9 48fd c0bf 402c b681 1b6e b63f
000007e0: dcce 773d c824 bb3f ea46 455d 5608 bd3f
000007f0: 8a2e a298 704e 93bf 9312 36d6 5f64 bcbf
