savedModel/poisson2d_inverse_tanh/noise_0.1/ParticleWNN_3/trained_model_final.pth (torch, 131953 bytes, 20 tensors)

fc_in.weight f8 [50, 2]
000000 ff 7d 31 61 f9 eb e5 3f d2 22 cb 1f d0 9b df 3f
       0.685055436926575 0.49388506989320746
000010 f7 22 60 e2 2e d4 e4 3f 8b 3f 19 e5 f4 a2 e3 3f
       0.6509012624165668 0.6136421656210457
000020 da d5 53 9f 48 5b e1 3f 8b 5e 42 6c 7a ab da bf
       0.5423930274834519 -0.4167161996096886
000030 97 3f 18 2c 8f b2 e3 bf 03 34 a5 29 c3 a9 7d bf
       -0.6155467854714399 -0.007241976122100094
000040 12 fb 93 8e d5 7e 68 3f 50 72 2c 62 20 9a e6 bf
       0.002990166762742227 -0.7063142697766782
000050 6e 68 80 75 67 61 d5 bf 74 7c 37 72 ed 7f d9 3f
       -0.334070076701784 0.398433076419628
000060 15 a5 fa e3 fe 58 d9 3f 46 d1 6e 11 13 81 ca bf
       0.3960568643911569 -0.20706404067244416
000070 e1 16 b5 67 49 56 da bf ed e2 67 fd 8a 66 de 3f
       -0.4115165245787989 0.475008723703964
000080 35 c7 54 c6 c2 9e e4 bf d5 03 b9 18 4f e9 e4 bf
       -0.6443799852042732 -0.6534800989976427
000090 e0 5e fa 64 ea 25 e4 3f 0f 3b a3 7e 99 74 df bf
       0.6296283695437204 -0.49149167410807676
0000a0 d9 ae 21 88 a4 cf c5 3f 7a e9 80 4d d0 48 d0 bf
       0.17039925238656542 -0.25444419449527056
0000b0 4b bb 75 48 cf e8 d1 bf 24 33 92 4e 04 95 e3 bf
       -0.2798345763794045 -0.6119405302611978
0000c0 6d e1 c0 10 35 79 ea 3f 6e e9 5e 1a 9b a7 de bf
       0.827295811387598 -0.4789798505331849
0000d0 3a 0e ab 6c a0 72 d2 3f cc 61 d3 f8 a9 1e 52 bf
       0.28824625599029086 -0.0011059436686108202
0000e0 15 5a 7c bc e9 e4 e1 bf 0e 0f 41 6a 35 66 e7 3f
       -0.5591934853899284 0.7312266421581357
0000f0 75 60 d1 49 f9 6a d6 bf 66 06 29 0d 0d 9b e6 bf
       -0.35027916153695254 -0.7064271218334397
000100 97 cc 88 9a 4e a8 dc bf 47 5d 1c ba d3 22 e4 bf
       -0.4477726468205189 -0.6292513499237565
000110 53 e8 5c 29 ab 1d bf 3f 71 3d 85 27 46 09 b5 3f
       0.12154645690762438 0.08217276062827296
000120 ef 27 94 21 68 22 e7 bf db e0 9a a9 5a eb e8 bf
       -0.7229500442347198 -0.7787297546956568
000130 fc 05 a3 51 34 83 ea bf af 05 a7 60 ce aa cb bf
       -0.8285161585301348 -0.21615009040219266
000140 04 2e b6 5c 18 d2 e4 bf 22 15 5b 9e e2 89 b5 bf
       -0.6506463824056827 -0.08413521162136253
000150 80 67 52 53 22 01 d4 3f 42 af 14 a0 fa 5d 90 3f
       0.31256921898749823 0.015983501453930467
000160 dc 9a 7e 8b fc 23 bb bf cd d9 9f 0d 09 d5 da bf
       -0.10601786046627687 -0.41925264673718915
000170 85 1c 2b 5c 53 99 d8 bf c8 ba c9 a6 22 60 e7 3f
       -0.38435825348683067 0.7304852731302498
000180 a0 eb e7 8b 3d d2 9c bf bc 00 a2 f8 91 f7 e3 bf
       -0.028145753540211538 -0.6239709716901625
000190 a2 e7 4d e7 ce 9e e5 3f 5a 53 2b dd 32 79 e0 bf
       0.6756357686674515 -0.5147947616302233
0001a0 2e 18 09 2d 25 7e b0 3f 7f b1 41 90 cd 35 b2 3f
       0.06442482327938201 0.07113346835985189
0001b0 f2 41 92 8a 5f 08 e2 bf 7e 10 14 b2 bc 4c dc 3f
       -0.563522120139224 0.4421836604162833
0001c0 a8 3f 51 92 9d 1d cc 3f c7 61 63 81 f7 56 dc 3f
       0.21965379375842287 0.4428080333286996
0001d0 72 a3 77 2d 26 81 cf bf 3e 55 a1 cc 7b b6 96 3f
       -0.24612881870350695 0.02218049465621629
0001e0 74 c1 67 6f 7a ba e4 3f 4d b2 6b f5 f2 28 e9 bf
       0.6477634597668342 -0.7862486642239418
0001f0 d1 96 73 16 4d d7 e2 3f 99 e9 c6 61 a2 72 b8 bf
       0.5887818754678965 -0.0954991806710609
000200 1e 6f bc e9 16 30 e6 bf 83 bb 22 04 c4 f7 c6 3f
       -0.6933703007848384 0.1794362087434501
000210 dc 75 b0 1b 14 72 e9 3f 88 80 96 58 98 97 dd bf
       0.7951756039435014 -0.46237763072168336
000220 80 53 e2 81 42 23 bd 3f 14 27 b0 03 3d 8e e9 3f
       0.11381927176473816 0.798613078311265
000230 a4 e0 28 f4 7e 1d dd bf c0 78 8f 03 e0 7a e2 3f
       -0.4549252876636365 0.5774993962802668
000240 aa 8f 83 7a c0 27 d4 3f ee c5 9a 1d 33 3c e4 3f
       0.3149262615609084 0.6323485925879007
000250 e7 98 dd cc 4e d3 d5 3f d9 ac e2 ef f4 21 e6 3f
       0.34102220541389133 0.6916451154005713
000260 28 25 27 1c 58 a1 b0 3f 5c 24 e2 75 ed 22 cd 3f
       0.06496191680266306 0.2276284051515941
000270 2d f6 28 52 78 3a d0 bf a3 60 31 4f 47 18 d2 bf
       -0.2535687258094608 -0.28273184522323386
000280 2d bc 68 ad 0a e3 e8 3f 24 17 57 97 d1 c8 d3 bf
       0.7777150523087407 -0.309132001679574
000290 e7 89 d3 d5 e6 a8 e6 3f fb 90 22 05 22 f3 e8 3f
       0.70811788332895 0.7796793079656078
0002a0 96 42 7e 46 1a e2 e5 3f c4 6a 4c 22 c2 8c e1 bf
       0.6838504196949369 -0.5484324140446337
0002b0 3a ed e7 da fd 56 e8 3f 74 44 45 fc 9a c0 ca bf
       0.7606190944201565 -0.20900285070323188
0002c0 8d 1f 75 39 e0 05 dc bf 04 82 ae b2 97 58 df bf
       -0.4378586350544474 -0.48978226136571856
0002d0 55 da 8a 1c 6e 47 a7 3f 59 c1 d4 01 c5 96 d0 bf
       0.04546684358995338 -0.2592022436029047
0002e0 1c 0e 99 9c 57 9c df 3f d0 b5 95 58 cd a5 d1 3f
       0.49391737263451474 0.27574475909099494
0002f0 4d c3 46 9f da 1f b8 bf 9b 62 67 e3 c6 58 e7 3f
       -0.09423605335792935 0.7295870248299993
000300 52 98 e0 5f fd c5 d2 bf 0e 04 dd 68 e1 a4 e1 3f
       -0.29333433497447914 0.5513770149337931
000310 11 f6 d9 c6 17 e0 e2 3f 84 aa 3c 6d 97 ff d0 3f
       0.5898550876442546 0.26560006778405687

fc_in.bias f8 [50]
000000 e3 23 2d a7 9b 92 dc 3f 38 4b f9 36 f9 09 e3 3f
       0.44644824338734973 0.5949674676615819
000010 6d 20 84 b3 03 60 da 3f c7 32 2a 0b c5 f0 c1 bf
       0.41211025744315216 -0.14016020817907401
000020 fe 75 14 bb e5 fc c1 3f d4 0a 14 33 7a 76 e6 3f
       0.14053031573068603 0.7019625661490303
000030 b8 62 69 0f dc 61 df bf 97 69 84 56 b0 56 e5 3f
       -0.4903478765968816 0.666832131365754
000040 a3 ad 9d b3 4d 90 e2 3f fd d3 d5 22 ff af e3 bf
       0.5801151760219238 -0.6152339630485809
000050 b1 61 e6 09 1e 54 c2 bf 67 e8 28 e2 4e 2a d9 bf
       -0.1431920574511998 -0.3932072838393936
000060 22 66 c5 f3 96 88 c4 3f 6f ac 90 e1 5c 52 dd bf
       0.16041838553319204 -0.458152027395676
000070 9b db 71 ba b5 36 e0 bf 6f de c6 51 39 c0 b4 bf
       -0.5066784516810573 -0.08105810400490453
000080 a7 4d c0 ba 31 26 df 3f ae ed 78 c6 89 02 c7 3f
       0.4867061923734703 0.1797649592498209
000090 bc 7e fa a1 28 ce e1 bf 74 8e 31 d4 43 c0 e0 3f
       -0.5564158595697886 0.5234698433309419
0000a0 4e e8 52 17 64 72 d8 bf a2 b5 ae 56 e9 81 e4 3f
       -0.3819818713924449 0.6408583348290231
0000b0 48 93 e2 ce fc 67 e5 bf f8 5f da 74 66 e9 c7 bf
       -0.6689437905048203 -0.1868103094645901
0000c0 3e 43 36 41 81 e3 d8 bf d3 c9 83 0a a8 74 bd bf
       -0.3888857971988279 -0.11506128555973953
0000d0 8c 7d af 7d aa 50 e0 bf 47 8b 96 c1 24 da d1 3f
       -0.509846921424399 0.27893942742428063
0000e0 a4 7e 7c b2 29 d4 dd 3f ef c3 f9 5e 84 df e2 3f
       0.4660743945150705 0.589784799098309
0000f0 06 6d 80 f6 1f eb e2 bf ef a8 8a 69 58 00 a9 3f
       -0.5912017645345322 0.04883075989103413
000100 02 31 11 14 f0 77 e4 3f db ac a0 86 a5 ae d8 3f
       0.6396408454834559 0.3856595816348098
000110 d1 ba 0d b3 08 c5 d5 3f 26 83 a4 6c d7 84 e6 bf
       0.3401509998865722 -0.7037160036016743
000120 58 df 40 28 cd 5a d3 bf b8 d1 51 ad a1 ea be bf
       -0.30241707736012335 -0.12076769334254933
000130 cd 94 15 cc a7 ee da bf d6 28 30 10 f6 63 cf bf
       -0.4208163731585273 -0.24523807325778674
000140 72 d7 53 d8 d2 21 d3 3f 44 91 5f 0a 23 dc e7 bf
       0.29893942952855135 -0.7456221773723333
000150 af 9c 94 f1 30 df cc bf f4 d3 1e ae 89 9c e3 bf
       -0.22556125446246741 -0.6128586197652326
000160 fa 13 f4 b9 8e df d4 3f 6e 14 60 57 5e 22 db 3f
       0.32614486846460944 0.4239726880335358
000170 ec 43 80 9a a9 26 ba bf 55 8e a4 64 78 17 e2 bf
       -0.10215244314191779 -0.5653650251083017
000180 f9 22 97 e2 5b 23 e6 bf 5b 0d 84 10 9b 87 e1 3f
       -0.6918162751763638 0.5478034327101499

fc_out.weight f8 [1, 50]
000000 15 52 10 ff 26 31 b7 bf df fa 8c 02 c1 1e b4 bf
       -0.09059375502722163 -0.07859426796219847
000010 18 cd 97 ca 57 12 a5 bf 2c 49 f1 74 a5 de cc bf
       -0.04115557048853641 -0.22554462633213157
000020 de 01 a3 f0 a0 75 a5 3f 5e 5b 5e 08 f5 c4 c1 bf
       0.041913060545542655 -0.13882315548536445
000030 0e 6d bc 7b 17 40 c3 3f e0 62 a3 c9 09 41 b3 3f
       0.1503934244327429 0.07521115467842376
000040 2e 77 79 55 a7 b7 28 bf 7d 87 36 51 06 a8 cc 3f
       -0.00018857877397498432 0.2238777061984897
000050 6d 00 fe 6a 66 86 ae bf db 3e 88 a2 84 c4 a7 bf
       -0.05961914115960174 -0.046421189155919605
000060 19 11 91 92 df 6e a7 3f 66 99 68 6a 6e 4f b6 bf
       0.04576777137893568 -0.08714952562204345
000070 b8 c8 d6 50 be f9 3b bf 24 75 1a 6f e6 26 a0 3f
       -0.0004268731725815089 0.03154678446046891
000080 1b d7 53 3e 1a 9a c1 3f 22 08 1b 5d 7a c1 b6 3f
       0.13751533549628267 0.08888973973356021
000090 50 ac 59 44 39 85 72 bf b5 f0 2d 3c 97 b8 a0 3f
       -0.0045215832702566044 0.032658315750241064
0000a0 c1 55 8c 03 7e 81 c3 bf 5b c7 92 ab 44 dd ae 3f
       -0.1523892896008601 0.060281892723095885
0000b0 d9 b3 f1 7d df ed 94 3f 8a aa 38 18 40 c4 c5 3f
       0.02043866354181376 0.1700515859859773
0000c0 dd 4e 95 7f 4c 6e a7 bf 8a 66 b0 1d b5 18 b9 bf
       -0.04576338822758228 -0.09803325629072837
0000d0 2d 2f cd 59 9e 36 b0 bf 47 be b8 39 0e 86 be bf
       -0.06333341305179081 -0.11923302563877157
0000e0 ca 33 b8 b0 68 45 a7 bf dd 04 ec 1d 7c db ac 3f
       -0.04545142323704672 0.05636203637369317
0000f0 ca 9f 1a 39 4d 49 a7 bf 93 62 5f 2e ca 11 86 3f
       -0.04548112222738572 0.010776118793658617
000100 1f f6 c0 d7 cc 1a b9 3f 9f 7a e5 19 f3 45 ac bf
       0.09806518809724495 -0.05522117320173447
000110 e1 2c 96 ed 14 06 c9 3f a4 2b 1c 5a 05 6a a9 bf
       0.1954981002894334 -0.04963700032211385
000120 5e df 24 6a 92 69 ae bf 7d a8 ae 58 74 d4 b2 3f
       -0.05939919992164165 0.07355429806799126
000130 f4 3a 48 b2 a9 ac b3 3f 0b ac b0 d6 8b a3 46 3f
       0.07685337641326467 0.0006908829503847758
000140 d8 9a 70 3c 48 75 9f bf 87 2e f6 bc a4 78 b2 bf
       -0.030720833481747117 -0.07215337384530517
000150 15 9d 1f b3 2a 67 c5 bf a9 72 e0 bf 1c 49 a1 bf
       -0.16721090074791137 -0.03376092760320166
000160 4e 89 12 0c 34 99 a8 bf e7 ae 47 03 b6 45 17 3f
       -0.048043848489458627 8.877681177182525e-05
000170 17 e2 42 23 8d da bd bf 80 29 e1 5d e1 9a c0 bf
       -0.11661607848044074 -0.12972657283746614
000180 eb 73 6f 10 c3 c8 8e bf fd c8 43 b7 a2 45 b1 3f
       -0.015031360568110904 0.0674688050674241

fc_out.bias f8 [1]
000000 00 36 bd 78 a9 ff 76 3f
       0.005614912031729258

fc_hidden_list.0.weight f8 [50, 50]
000000 a4 f1 e1 ac 17 f7 b7 3f a1 86 19 36 43 17 b3 3f
       0.09361408205763283 0.07457370825570787
000010 2d 56 89 5b 7e 9a c2 3f eb ef 8a 6c 6b 59 95 bf
       0.1453397700267244 -0.020848921298906403
000020 e9 d5 e6 50 85 fb 96 bf 39 2d 12 8c d3 16 b7 bf
       -0.022443850577209466 -0.09019205255224429
000030 53 44 1c 2a 9f 6d a2 bf 3e 11 0e 6f 9f 7c bc 3f
       -0.035992597475463704 0.11127659283926492
000040 a3 85 5a be c1 ab 91 bf a6 24 0b 96 34 77 96 bf
       -0.017256762736570185 -0.021939107568674253
000050 99 f6 0a dc 42 b4 97 3f 31 6f 63 53 55 0f c3 bf
       0.023148579292629454 -0.14890543529224368
000060 46 59 6e 7c 7e 2b c3 3f e2 3f 49 16 db 92 82 3f
       0.14976483417258118 0.00906916772615313
000070 3e 44 b9 92 68 d5 b0 bf 8e 09 fb ae d0 dd a3 3f
       -0.06575635511514208 0.038801690444887446
000080 a1 38 bd e9 24 a5 a2 bf bb 5a 79 c7 72 c1 a1 3f
       -0.036416200192080035 0.03467901883111809
000090 85 7c 7d 20 69 b7 b6 3f 3d 7d c1 1e 19 9e b3 3f
       0.08873612445084873 0.07663113594889111
0000a0 cb 70 66 19 ed 5c ba bf 07 5b 1a 7f 23 fc b0 3f
       -0.10298044080849704 0.06634733059977914
0000b0 a0 42 87 5f 53 9c aa bf 90 9d 5f 7c 4d 5d c2 bf
       -0.051973920260597994 -0.14347237179684358
0000c0 24 39 b0 23 bc 47 b2 3f 8c 4e ca 2a 12 fb ac bf
       0.07140708800600187 -0.05660301945058874
0000d0 e2 67 f4 71 db 22 a6 bf 25 bd a6 0f 49 2a aa bf
       -0.04323468938873966 -0.05110386196190068
0000e0 d1 57 13 d0 5f 59 65 bf f7 42 91 ca b0 3f be bf
       -0.002606093534818201 -0.11815934129232263
0000f0 ad c2 7f 30 76 eb be bf e4 8c 0c cc b3 5d b3 bf
       -0.12078036006983935 -0.07564853412309308
000100 73 f9 0a 8f c4 cb 90 3f 3e b9 ca 60 1e d2 c8 3f
       0.016402312498706672 0.1939123127571722
000110 df f2 14 dd 52 ac 8e 3f da de 1f 51 1b 59 c0 bf
       0.014977118846780822 -0.12771932088047927
000120 17 43 8c 6d ac 89 a1 bf 9a 23 19 4c 96 d4 b1 bf
       -0.03425349080328582 -0.06965007169595908
000130 18 83 9f 54 73 1a be 3f 97 24 d6 9d 74 ac b5 bf
       0.11759110275262363 -0.08466271260671686
000140 9d 32 9e 36 83 99 ba 3f e9 4f 98 03 ca 88 c1 bf
       0.10390491565176281 -0.1369869725755273
000150 77 ff 02 9a f1 33 a9 bf dc ee 83 1a 4d 7c b5 bf
       -0.04922442441011204 -0.08392793557498684
000160 ab b1 39 ed 29 97 a0 bf ee dc 61 db 78 35 a3 bf
       -0.03240328808610412 -0.0375173347283012
000170 ed 18 81 93 57 9a 93 3f e2 ef 64 33 1c 6a b2 bf
       0.01914345586580961 -0.07193161253684324
000180 66 91 b8 64 d2 53 99 3f d6 6a 15 da 00 69 76 bf
       0.02473381747962957 -0.00547123272675761
000190 b5 46 d7 56 75 94 a9 3f 5b 22 e6 69 df ec b3 3f
       0.04996077237195832 0.07783314071105833
0001a0 f4 87 0b 1c cc a4 a6 3f c7 ff fa fe e4 bc 86 bf
       0.04422605364176482 -0.011102475196253082
0001b0 de a3 17 23 34 b1 b4 bf ab b9 2b 4c fe e7 a5 3f
       -0.0808289132761639 0.04278559379405363
0001c0 64 a9 0b 48 68 f4 b2 bf f2 9f c6 4b be e9 ae bf
       -0.07404186018871922 -0.060377070188508145
0001d0 6e c9 15 6d 93 b9 b9 bf 9d 7a 32 f5 7e 1f ad bf
       -0.10048791325769965 -0.05688091986779862
0001e0 02 ff 4d 41 84 4f b2 3f 04 5b ed 04 c2 2e 9a 3f
       0.07152582735397675 0.0255689921862894
0001f0 50 c8 e4 c0 f8 90 b6 3f 5a 0d 49 b1 cc f8 b3 bf
       0.08814959248846432 -0.07801513031249865
000200 87 03 04 cd 5a 8c bc bf 18 6f 5c a8 6b 49 c0 bf
       -0.11151664262071224 -0.1272406169963396
000210 49 32 ee ff 75 e8 a4 bf 2a 68 4e 13 26 b8 c4 3f
       -0.04083603619719562 0.1618697733181887
000220 27 1e 70 70 01 d5 bc bf f7 5b 6c ad 0d ad af 3f
       -0.1126252078539599 0.06186716787322404
000230 c6 35 60 53 47 b1 ae bf 76 3f 20 09 58 85 bd 3f
       -0.059946278503143755 0.11531591627885782
000240 24 55 bd fe 32 1b b6 3f d5 b3 93 a1 9b f9 b9 bf
       0.08635252684810674 -0.10146496481657093
000250 93 3d 68 ad d3 34 b3 bf f9 b1 fc fd c6 ed c1 bf
       -0.07502482398580516 -0.14006888772691165
000260 9a 1a 4b 23 bf 52 a6 3f 32 22 ee aa 38 3c ba bf
       0.04360005670382812 -0.10248140500164807
000270 fd b1 a6 c2 b1 8b 91 bf 7f 7e 5f 5c ab 4b a0 bf
       -0.01713445425564152 -0.031827311540607355
000280 3e 41 2c 0f 87 ba a4 bf 6a 18 75 82 93 04 ac bf
       -0.04048559246268944 -0.05472241370675664
000290 2d c9 d1 b2 e7 45 a1 3f 61 d0 91 c7 f7 fa ab bf
       0.03373645837645465 -0.054649108039399825
0002a0 a3 3f 07 cd 17 b6 a6 3f 76 ef 05 01 33 72 c1 bf
       0.044358009126539664 -0.1362975840564748
0002b0 07 d9 e9 ef 41 34 b5 3f 2d 3b 66 3d e2 53 bb 3f
       0.08282863719236754 0.1067487144375547
0002c0 34 87 11 e7 37 37 c0 3f 4e 8a 5a 32 37 5e c3 bf
       0.12668513090744116 -0.15131273230243142
0002d0 c9 11 0b 57 e5 29 b3 bf f1 41 4e 64 fd c4 bb bf
       -0.07485803008154969 -0.1084745759856174
0002e0 bd fb 43 dc 27 ed b8 bf 84 ba f0 74 9f f1 97 bf
       -0.09736870887353084 -0.023382655632469454
0002f0 98 bf 5c 06 03 da b4 bf 17 84 9d 8b 0e 12 b6 bf
       -0.08145159631089738 -0.08621302517487127
000300 f4 90 bd ba c6 99 b7 bf 64 76 b9 59 6f b9 be 3f
       -0.09219018992513722 0.12001701298273698
000310 2f fb de ee ce 8c 93 bf 08 89 c3 18 44 62 54 3f
       -0.019091828660516782 0.0012441315657772418
000320 97 da 3a 12 77 5e b2 bf ff f2 ea 4f b1 98 c2 3f
       -0.07175392336908214 0.1452848091338623
000330 a0 e5 aa f8 78 4e c7 3f 37 28 2c 36 b6 66 b6 3f
       0.18208229200335513 0.08750475714273952
000340 6e 92 48 4b 0a f9 b9 3f 75 45 6d fd 10 57 c2 3f
       0.10145630205131237 0.14328205465657687
000350 cf 0a d6 c8 d9 99 9f bf 9e c5 0e 6b 80 3e b2 bf
       -0.03086033142381944 -0.07126619924272012
000360 30 6c 12 90 9e e8 bf bf a5 c7 66 ae c2 a4 96 3f
       -0.12464324014074246 0.02211288632833654
000370 5c 84 17 0a e6 a9 a5 3f ac 53 67 05 bd 19 ac bf
       0.042311848384777945 -0.05488386813127674
000380 4f 3e 4b 2e 56 e9 b3 bf c8 3c be 79 1c 06 b7 3f
       -0.07777918462965626 0.08993700000995652
000390 ed d6 b4 b2 71 0d 72 3f 5e 39 a7 ae b5 dd 94 3f
       0.004407352574437457 0.020377005372034566
0003a0 db 19 a2 bc 1f 4c a4 bf 3b 20 42 11 7b 45 c2 3f
       -0.03964327981616452 0.14274538366976394
0003b0 d7 5d e0 43 25 1a be 3f f0 64 fc 9e a4 10 b4 3f
       0.11758644969119501 0.07837895280353613
0003c0 01 9e 91 e2 0a dd b1 3f bc 5a 86 1c a1 ae be 3f
       0.0697790911814238 0.1198521322861365
0003d0 a7 55 0b b1 24 27 b9 bf 72 a5 6e 39 7a fb a4 bf
       -0.09825352976198208 -0.04098112059666449
0003e0 ed da ff 6e a4 ca a4 3f d2 13 f0 62 ea ab c1 bf
       0.04060853819821895 -0.13805894690463433
0003f0 b5 a5 c0 ba 07 2e a9 3f 90 3b 14 03 1a 93 ab bf
       0.04917930750554992 -0.05385667121492255
000400 81 73 a6 09 8e b2 94 3f c0 9b ec c5 a2 c4 c2 3f
       0.020212382639886343 0.146625849383069
000410 81 1e 7b 09 d3 dd c3 bf e6 67 58 24 c8 04 a7 bf
       -0.15520704234062424 -0.04495835727375645
000420 32 c3 3a d2 2f 19 c3 3f d2 76 62 65 17 3e 80 bf
       0.14920614018549255 -0.007930929929269057
000430 64 95 5e e4 26 c8 b2 bf 70 e0 1d 45 93 c2 8f bf
       -0.07336657596041146 -0.015507841631674263
000440 f3 05 64 83 b7 a6 c2 3f 31 d5 cb 66 54 30 c6 3f
       0.14571279445230764 0.17334990519854324
000450 1b 77 94 ca 54 99 c1 bf 93 91 51 d6 a3 f3 ba 3f
       -0.13749179736708403 0.10528015119922988
000460 1d b6 09 08 e9 d7 a8 bf 48 3a f4 22 87 c0 c2 3f
       -0.04852226470107388 0.14650048453082065
000470 d0 88 65 ed 68 ab a8 bf f2 b1 bf bd a0 f5 b8 3f
       -0.048182753542975854 0.09749798424281389
000480 16 8c 20 43 a6 aa a5 3f af 0e e2 70 c9 9a c3 3f
       0.04231757707045618 0.15316122066370982
000490 3a cb 43 eb 6c eb be 3f ff 61 66 09 5c 8a b7 3f
       0.12077980750818265 0.09195494870653674
0004a0 d4 eb 02 20 37 7f bf bf bf d6 11 d2 d4 18 c2 3f
       -0.12303490191963756 0.14138279206570378
0004b0 4b fc a9 6c 2c 2e c2 bf 0e 02 3e a6 be 54 c2 bf
       -0.14203410440311112 -0.14321120374008028
0004c0 92 47 b7 0f ff 0d 6a bf 0a 5b a5 2b 85 4f bf bf
       -0.0031805020969181775 -0.12230713191580037
0004d0 9c d3 37 ae 9b 49 c7 bf bc d2 10 2d 32 b0 b2 3f
       -0.18193384176961735 0.07300103759991833
0004e0 47 ae a1 93 ee 2b c0 3f 3b 41 61 f5 e7 e7 c2 bf
       0.12634069641659293 -0.14770221215668208
0004f0 f6 1c 84 ca 02 44 de bf 38 e1 3a c3 46 d1 c0 3f
       -0.47290105606994304 0.13138660938944624
000500 c9 f9 51 6e 54 0a 87 bf fc 46 c1 ba c0 ab b5 bf
       -0.011250171295839178 -0.08465199050376876
000510 f2 d6 25 5b 8e ef a9 bf 83 30 60 55 3d d5 c6 3f
       -0.05065579283374956 0.1783825556634647
000520 49 9d 6e f9 d6 49 c1 3f a2 f6 b3 e1 48 61 d0 bf
       0.13506591014195582 -0.25593778649622767
000530 78 db 5f ce 0b 5c dd bf f9 02 ea 57 de 54 ae bf
       -0.4587430491805473 -0.05924124549074423
000540 b6 f9 6c 7e b2 d0 b4 3f b7 81 7b 99 e3 57 dc bf
       0.0813094671875437 -0.4428643225528747
000550 66 75 82 a7 d9 18 bf 3f f9 3b 5e 93 14 60 c2 bf
       0.12147293414678514 -0.14355714030941139
000560 5a cc 07 8a 7f f5 b1 3f 0f e0 b2 af f2 de a7 3f
       0.07015225524792026 0.04662283320197968
000570 53 e1 ca f0 fb eb 83 3f 37 4e 1a a1 8b 54 c1 bf
       0.00972744778242488 -0.1353926216730643
000580 76 19 60 20 71 9d c2 3f 82 38 18 36 d1 dd a3 bf
       0.14542974549130933 -0.03880170617422697
000590 04 d4 f2 ac f7 f1 8e bf 4f d0 ec c7 c9 eb b1 bf
       -0.01510995384738046 -0.07000409251196625
0005a0 1e 80 cd b7 1c a1 a1 3f c1 0c a6 c7 93 6e c8 3f
       0.03443231338201279 0.190874550327953
0005b0 f8 fb 29 d1 f0 49 ce bf 7d 41 27 e7 6d 05 a7 3f
       -0.23663149083219515 0.04496329733558733
0005c0 d5 17 67 86 5a fa b2 3f b3 bb 04 59 82 f0 98 3f
       0.07413259297672366 0.024354969676263227
0005d0 0d be 25 91 3f 51 ce 3f 16 26 64 b3 99 b8 d1 3f
       0.23685450160290636 0.2768921138636825
0005e0 9d 40 d4 22 1f 3f b5 3f cd 19 1c f5 e7 98 a8 bf
       0.08299440956420985 -0.04804158083975416
0005f0 a8 61 5c d0 aa 2e c2 3f 16 1b e9 7c bb 3a de 3f
       0.1420491711985623 0.4723347396688252
000600 6b 5f 51 ad 60 f4 58 bf 3f 3b 40 b4 54 74 cc 3f
       -0.001523107920794654 0.22230013657869027
000610 58 a7 24 10 17 c0 cf bf 25 73 f1 37 ba 52 bd bf
       -0.24804962433091293 -0.11454357019233592
000620 7a 5b 97 0a 3d 00 ca 3f 80 ca 5c 25 40 04 cd 3f
       0.20313227669859285 0.22669221710528475
000630 c9 1e 76 63 43 73 cb 3f 66 d5 82 87 d0 c2 b5 bf
       0.21445505482210184 -0.08500388439536763
000640 1f b2 78 4f eb 56 b7 bf 48 b5 cd 0a 2b 1b b4 3f
       -0.09117003145429024 0.07853955281980973
000650 24 8c 81 ec a9 9b a1 3f 8d fb ee 35 09 c4 8a bf
       0.03439074527775457 -0.013069221456928815
000660 85 36 87 96 03 bb 62 3f 9e 67 ed 3f 1a 71 ce bf
       0.002286440856756058 -0.23782661553815115
000670 14 f3 8b 3c 49 2a 9f 3f 92 1a 53 d8 ee e2 cb bf
       0.030434746094203893 -0.21786294520116606
000680 49 ed c8 16 d5 8a a9 3f cf 18 fc 4b f1 a8 c7 3f
       0.04988733199248913 0.1848432179469399
000690 6f 34 43 37 ad bf cb 3f 69 a7 bc a6 e9 c5 94 bf
       0.21678700636258294 -0.020286227037252944
0006a0 42 11 e1 65 2e 4c a9 bf c9 68 18 ee ae 26 c3 3f
       -0.04940934175150115 0.1496180212569185
0006b0 e4 61 1e 9a ae 78 b9 3f 1a 40 62 40 47 e6 91 bf
       0.09949771177924266 -0.017480004601168365
0006c0 67 ad 92 24 08 7d b7 bf d7 b0 75 e2 1c 69 98 bf
       -0.09175158398527615 -0.023838473627095205
0006d0 12 bd d7 7d f8 1c c0 3f 28 2d 81 a3 51 67 cb bf
       0.12588411469139565 -0.21409054263708893
0006e0 97 0d ba 89 87 8b 97 3f af c4 47 08 bc 6f b6 bf
       0.022993200093436163 -0.08764243318707331
0006f0 4a 9b d7 55 27 2b bf 3f 6d 53 d2 3e f9 cc c2 bf
       0.12175222249753151 -0.1468802983041785
000700 e4 e3 f7 26 52 30 cf 3f b4 97 04 66 7d 38 c0 3f
       0.24366213705778172 0.12672393304199903
000710 f5 55 91 34 e2 39 a7 bf 06 62 5b 40 91 29 94 bf
       -0.04536349193282866 -0.019689817002332098
000720 cd 4b 64 63 d4 55 c8 bf cf 47 6d 58 91 76 af bf
       -0.19011931279291475 -0.061451475185677056
000730 a1 e6 42 b5 3e 5c d2 3f eb 14 84 ff fc a6 c8 3f
       0.28688018513967434 0.1925960776936003
000740 45 eb 5b 7f 18 1e d0 bf d3 f6 59 d3 5f 4d bf bf
       -0.25183689534576487 -0.1222743884081539
000750 82 e6 50 14 33 44 cc bf 8a e1 bf 38 e8 e4 94 3f
       -0.22083128444664984 0.020404461349217175
000760 5f a5 e4 01 be ed a8 bf e2 9e 69 e8 1a ca 95 bf
       -0.04868882916555139 -0.021278782306039974
000770 c9 76 b7 ff cf 41 b3 bf f8 85 85 03 1a be b3 bf
       -0.07522296898920468 -0.07711947046256984
000780 6e 72 e2 c8 58 6c 90 bf bb 44 a4 ac 28 8f a1 3f
       -0.016038310299892826 0.03429534060900027
000790 f5 d1 a1 61 f9 02 c0 3f 2d 0c d5 58 80 54 d2 3f
       0.12509076373284214 0.2864075534345741
0007a0 ee b4 d2 8f 1e 9a 9d bf 3d 5c f4 42 56 5f b9 bf
       -0.028908231285346746 -0.09911097654945507
0007b0 78 e0 06 5a 0b 3c ad 3f c9 8e 65 52 e9 04 af bf
       0.05709872697792745 -0.06058434611148084
0007c0 72 e9 40 1d ef 76 af 3f 3b 72 7a 00 66 89 b7 3f
       0.061454269715301005 0.09194028388669377
0007d0 ad 6c 28 ed 68 2a c8 bf 99 67 8f 04 bd 15 94 3f
       -0.18879424648262014 0.019614175227480855
0007e0 99 ea e8 64 9e 54 a8 bf 63 e4 3d 35 6e 33 cd 3f
       -0.04752058965501255 0.22813203429885495
0007f0 13 7b 5f 43 ec b1 c9 3f f8 10 6e 46 d0 06 a9 bf
       0.20074227609344372 -0.04888010844936902

fc_hidden_list.0.bias f8 [50]
000000 37 db 57 c8 ba bc be 3f fb d9 72 fd 66 36 b8 3f
       0.1200672854537118 0.09458011329375175
000010 c4 75 e2 d4 fd 79 b3 bf b3 bb 6b cf ff 3b c2 bf
       -0.07608019301775132 -0.14245603206606247
000020 e5 e2 60 c7 60 db b0 3f 86 42 df 75 bd 46 a2 bf
       0.06584744327200161 -0.03569595397823826
000030 cd c6 da 00 52 40 20 3f d9 4b f7 e8 9a df bd 3f
       0.00012398720757782756 0.1166931933178569
000040 40 cd 76 91 f7 51 a7 bf 13 2d 11 87 ec 03 af bf
       -0.04554723406490746 -0.060576812255556466
000050 d0 d1 33 57 b0 ba 99 3f 7a dc 11 5b fc eb b1 3f
       0.025126223871625275 0.07000710700400417
000060 5e b9 7d 50 f8 e1 a3 3f 62 05 37 2f 4d 5e b2 bf
       0.03883338911588184 -0.07175142672260429
000070 29 bb 29 41 8c f5 b7 bf b7 b4 b8 74 bf 57 a7 bf
       -0.0935905131425271 -0.04559133815596666
000080 7a 7a 9f c2 22 7d b9 3f 11 bc d5 e6 89 e1 c0 bf
       0.09956567050492451 -0.13188289424167057
000090 04 03 f9 7d 4a 7c ba 3f 68 e2 91 37 51 6d c2 bf
       0.10345902991776873 -0.1439610978448116
0000a0 55 55 85 da 15 27 b8 bf 09 c5 06 8a 5e d5 b7 3f
       -0.09434639534932406 0.09309950704370719
0000b0 5a fa b5 9e bb 1e a2 bf 9e c7 30 ec a1 80 b7 3f
       -0.03539072334659883 0.09180652634020567
0000c0 ce e8 8c 36 49 03 ae bf 18 3d 65 d1 d3 16 73 3f
       -0.058618820103633604 0.0046604417933189465
0000d0 a3 de 1c dc 2a f8 9c 3f f7 39 e7 67 f6 9b ac bf
       0.028290433582894747 -0.055877399619578876
0000e0 fe 20 00 cd 09 ed b7 3f f8 bc 80 a6 55 28 c3 3f
       0.09346066718001464 0.14966841344855886
0000f0 2d 47 e5 06 67 23 94 3f b8 c0 ca f7 49 58 c4 3f
       0.019666299625277595 0.15894436454028038
000100 7d 2d f7 21 13 63 b5 3f e3 bc f4 43 ff f9 b7 bf
       0.08354301051365627 -0.09365840348322112
000110 4b 5b 49 82 1f 5f bb 3f f0 ff 7a 71 f5 59 c5 3f
       0.10692021303962666 0.16680782357252566
000120 21 1d 22 fb f0 51 b6 bf 1a fc 18 ba cb 19 b1 3f
       -0.08718782550032646 0.06679986279867514
000130 97 b1 d4 d2 ac 12 bb bf 11 ac db ae 12 3b ba bf
       -0.10575370928990534 -0.1024638821506161
000140 fd c2 2f dc 79 00 82 3f 20 9b 84 ac 51 fe ba bf
       0.008789970428524802 -0.10544310056557693
000150 1f 91 a7 42 41 9a a3 bf 19 4d c8 b3 7a d9 bc 3f
       -0.038286246668379535 0.11269347085208316
000160 b2 e5 7a d2 9a e5 c1 3f e8 5f 9b 88 32 35 b8 3f
       0.13981948163363495 0.09456172785883121
000170 72 e2 6f c1 2b 7a bc bf ff d3 9b d2 71 9a a4 3f
       -0.11123918030342297 0.04024081893832231
000180 b9 37 67 2d b2 7b b7 bf 93 e1 c0 1d d2 2e bd bf
       -0.0917312012527124 -0.11399567819979088

fc_hidden_list.1.weight f8 [50, 50]
000000 96 a7 26 da 1e ff be 3f 5c 6f 57 cd 18 f8 bb bf
       0.12108033014251726 -0.10925440800877823
000010 47 e7 35 91 37 45 85 bf b5 2c 7a 76 0c 14 b6 bf
       -0.01038592731378042 -0.08624341862212044
000020 fb e0 a6 30 c2 33 b2 3f 59 07 46 6b cd 80 a1 bf
       0.07110227287092023 -0.03418580946437428
000030 ea d9 99 69 b0 f5 af 3f 9f c2 cd 92 df cb af bf
       0.062421334162468714 -0.062102305097942116
000040 16 b7 42 f9 60 e6 a0 3f 7d c9 be da f6 2d c6 bf
       0.033007650782890405 -0.17327771836205477
000050 04 4c f5 4f a6 31 c5 3f b1 ac c8 16 41 af b6 3f
       0.16557768730362465 0.08861166769263452
000060 25 65 cd 3c ce ca c1 3f 1c 7d 15 9d ff bb b1 bf
       0.1390016362081862 -0.06927487931306014
000070 46 aa 62 43 3b c4 b2 3f e4 26 36 57 95 0a b4 3f
       0.07330675501968029 0.07828648928821341
000080 d9 cb ea 41 8e f0 5e bf a7 1a f9 c4 e7 c3 ad bf
       -0.0018884076340952487 -0.05813526420074782
000090 ed 64 a4 92 4b 05 b8 3f 7a 7f 4d da 80 9e a2 bf
       0.09383079843646032 -0.03636553444698527
0000a0 59 89 d8 74 ad 4f c5 bf 14 ec 93 4c 2f fe af 3f
       -0.16649406628955424 0.0624861508349214
0000b0 4d c7 95 ed b7 84 ad 3f 61 e8 f7 77 18 e3 b2 bf
       0.057653186561664606 -0.07377770356097947
0000c0 6c 24 16 5a 2e fa 95 3f 32 58 df d2 32 7d b6 3f
       0.02146217751354522 0.08784787796261709
0000d0 35 08 fe 6a 29 60 b4 bf ce ba d1 12 57 62 c0 bf
       -0.07959231245152483 -0.1280011026278402
0000e0 a6 80 93 2d 40 8c be bf 6a 01 58 1c 55 91 c1 3f
       -0.11932755577754736 0.13724769481633398
0000f0 7e 7d c2 1e 9c 6c b3 bf 5a de 5e f8 dd 5c a4 3f
       -0.07587600470514208 0.03977101952426372
000100 1b cd 55 1e f6 c0 b2 bf f1 ee b8 82 9e 75 c2 3f
       -0.07325685730556979 0.1442144525807332
000110 70 8b 62 39 61 3a bd 3f a7 5e 88 7e be f7 9c 3f
       0.11417205477714076 0.02828881881040837
000120 29 16 29 c2 01 7e a5 bf 38 0d 87 91 5f cf 7a bf
       -0.04197698111651633 -0.0065454228537789524
000130 d4 6c 20 9a d9 64 c0 bf e9 72 85 77 5c 21 8b bf
       -0.1280776979991517 -0.013247225186824934
000140 4d e0 22 f7 7b 14 a4 bf 75 ca 1f 0c 2f c9 b4 3f
       -0.039218782346723026 0.08119482084274827
000150 0b 6b fd 02 8c 3c c4 3f 9b 6c 3a 6b 53 30 97 3f
       0.1580977453803246 0.02264528600663294
000160 3f 51 ac 98 fd c7 be 3f 68 2c 0a d9 02 b2 c1 bf
       0.12023911454554524 -0.13824496839183387
000170 3f 69 74 7c 00 f7 c2 bf d0 03 ab 48 d9 9f 91 3f
       -0.14816289975062522 0.01721133714704931
000180 39 85 82 d0 4e 21 93 3f 83 b5 b4 28 48 a4 a8 3f
       0.01868174693720912 0.04812837120912674
000190 ce 3b a6 0d af 90 c0 3f 26 e6 0d 4c 08 40 87 3f
       0.1294153992316453 0.011352600880616025
0001a0 43 99 92 40 5b ca 86 bf 5e 76 d1 dc e8 f9 be bf
       -0.011128151805973934 -0.12100081816739691
0001b0 6a 51 67 20 ca aa ba 3f ac bd 32 d4 9b 92 ad bf
       0.10416854182341742 -0.05775916066465511
0001c0 1d c6 9b a5 1b 8d b6 bf 97 4e 61 00 30 d9 bb 3f
       -0.08809063714195316 0.10878276833801191
0001d0 d3 a7 53 e8 38 aa c0 bf e1 2c ae 40 2d ee ac 3f
       -0.13019477218705208 0.0565046445327313
0001e0 23 32 55 68 a8 f3 bf bf d8 5f b9 fd 11 b5 b4 bf
       -0.12481167361438188 -0.08088791317402355
0001f0 89 00 b7 13 ab 53 b0 3f a4 e0 28 b0 95 25 a1 3f
       0.06377667647666575 0.033489873651377594
000200 03 7e b3 5d 26 41 b1 3f 55 47 2f e7 fb ae 7a 3f
       0.06740035808206106 0.006514533993099499
000210 eb c1 b1 ef 90 73 9d bf 77 a5 86 9f 66 eb c2 3f
       -0.02876116240480712 0.14780886449197414
000220 17 4b 8f a3 a2 40 bc bf fd 20 4b 48 f4 9b 97 3f
       -0.11036125653417304 0.023055855667537085
000230 e3 2a 83 82 0b 60 b5 bf f9 59 90 9e ac 4a a4 bf
       -0.08349677978837237 -0.039632219654027474
000240 6d 16 be 0c 94 b0 ab 3f 3d ef c8 97 05 b2 a5 3f
       0.054081560664639074 0.04237382390826248
000250 1e 0b e8 a5 4c 57 b9 3f 9b 2c 69 77 fc df 8d 3f
       0.0989883332295389 0.014587376016740363
000260 9e 2f 9b fd ac cc b4 bf 4e 5f 23 af 72 54 af 3f
       -0.08124810401494506 0.06119116199414397
000270 34 27 d2 eb 72 e6 c1 3f c6 d1 61 40 f7 cc 90 3f
       0.13984524264042764 0.01640688257653424
000280 c5 13 c8 82 42 e7 b3 bf a6 84 a8 71 37 54 b0 bf
       -0.07774749462994553 -0.06378504299984175
000290 a1 49 8d 95 54 56 b9 bf de 32 2e 3e 99 8e 98 3f
       -0.09897354746980237 0.023981470508760754
0002a0 6f 45 80 0a 53 1f b2 bf 10 7b 18 0b 23 cb a8 3f
       -0.0707904720914223 0.0484248114628284
0002b0 98 e1 e6 cb 3a d7 b7 3f 6b f6 b1 a5 28 fa c0 3f
       0.09312789419244039 0.13263424006065647
0002c0 c3 8e 29 92 31 6a bc 3f 2b 3d 3f 26 55 d7 a3 3f
       0.11099538629928944 0.03875223247416167
0002d0 2a cb 9e 2d 41 a8 b4 bf 31 c8 e1 80 6d 5e a5 3f
       -0.08069236148621131 0.04173605154291272
0002e0 61 7f 9e 00 4c 8a 9a 3f be 46 be 4a 5d 86 b3 3f
       0.02591818574694516 0.07626898836886206
0002f0 87 dd 82 c7 8b 25 b6 3f eb 1a 31 09 07 f0 8d bf
       0.0865104066932557 -0.014617972343456262
000300 a4 3a 7f 17 6d 2f ae bf 29 0d b2 89 ff 38 c4 bf
       -0.05895558273151849 -0.15798944686330543
000310 20 96 95 41 67 d6 bc 3f 65 22 0e f6 47 a7 c5 3f
       0.11264653540782676 0.16916751398482002
000320 37 47 ef c4 ac a6 7c bf 09 09 f6 77 87 1d b1 bf
       -0.006994891052231548 -0.06685682944047157
000330 a2 07 ab 17 f2 ad 75 bf 81 16 be 5c d7 b1 d2 3f
       -0.005292840646406479 0.2921045690239695
000340 0c ed 32 30 97 6f b2 bf 0e 29 73 a1 90 6c c3 bf
       -0.07201523710948637 -0.15175063975613806
000350 f7 9c d9 42 d9 41 b0 bf 58 a0 9c 48 1d ad bb 3f
       -0.06350477106171924 0.10811026594876816
000360 5c 19 48 69 cf ca 97 3f af 2f 69 a2 e4 07 b0 3f
       0.0232345970162212 0.06262043919667691
000370 49 83 f5 8e 44 43 bf bf 13 9f 6b 3a 36 31 b3 3f
       -0.12212017526827625 0.07496966291693878
000380 9c d0 4f fe cf e1 be 3f a5 d3 f7 00 25 92 a5 3f
       0.1206331249121057 0.0421306194001894
000390 7f 81 80 f1 ec 0d a0 3f 2e 6d f0 14 fb 39 b2 3f
       0.03135624359152 0.07119721661768061
0003a0 be fd c5 01 51 81 ce bf 35 72 68 0c c5 8a bb 3f
       -0.23832142435638376 0.10758620789460667
0003b0 ee 85 d0 01 ae 77 b5 3f 34 19 56 d2 40 bf c3 bf
       0.08385741752910977 -0.15427408476188875
0003c0 32 0f e5 37 3b 7a ae 3f 8b 2f 70 59 1c 37 a7 bf
       0.05952630097684021 -0.045342336576225405
0003d0 f6 40 cf 9f b3 eb be bf 71 b7 8a 20 7f 89 ba bf
       -0.12078402186967083 -0.10366053146819156
0003e0 cf c5 0f d7 52 6e ae 3f 5a 43 eb e3 26 14 96 bf
       0.05943545222534007 -0.021561248456069528
0003f0 73 9c 4f 2e c8 8a bb bf 44 77 c2 be 4b 8a a9 bf
       -0.10758639460219559 -0.04988323882683557
000400 3c 6d 7d d6 75 83 6e bf 42 cb 57 ea 48 fb c7 bf
       -0.00372479453282684 -0.1873561043026602
000410 43 64 e2 8c 32 3e c1 bf 46 47 f9 c2 30 bd aa 3f
       -0.13471061591261177 0.05222465877581199
000420 31 75 2a d0 5b 26 c6 bf 82 eb f2 03 7e bf b2 3f
       -0.17304561294887713 0.07323443981560554
000430 12 25 40 85 43 1e ab 3f 45 11 7e b0 26 77 c8 bf
       0.05296526910394496 -0.19113620393557987
000440 d5 17 1c 71 52 a7 c2 3f fa 09 ca 92 3c 88 a9 3f
       0.14573126337944467 0.049867527884106935
000450 59 78 4e f1 b8 c4 b1 bf cb 8c c5 78 64 8c a3 bf
       -0.06940799609444194 -0.038180484526287715
000460 da ee 1b 34 24 6f c0 bf 8a c3 ad de 3c 66 83 3f
       -0.12839176697149562 0.009472346826187712
000470 45 d3 72 ce 0f c7 c8 bf 47 bf 73 73 a2 ee ba bf
       -0.1935748823213094 -0.10520377463012408
000480 fe e9 6c 87 97 7c 9e 3f d3 7f ee 70 8b 6e bc bf
       0.029772155419076178 -0.11106177813644473
000490 e1 15 9e 68 2a 55 c3 3f fa 8e 1f bd f0 b0 b8 3f
       0.1510365496471158 0.09644989602344003
0004a0 28 6e 0e 1f b4 01 72 bf 2a 03 e5 61 7f 41 c9 3f
       -0.004396155928499769 0.19731132774361387
0004b0 ee 8a 04 12 fb d3 6b 3f ce a2 42 9e bf 10 ab 3f
       0.0033969787329096645 0.05286215597999942
0004c0 b7 e5 bf c7 40 95 91 3f ce f6 a3 e8 55 e0 c0 bf
       0.017170917693851453 -0.1318461786212794
0004d0 af fb ee 78 8c 24 ab 3f 68 30 fb 7a e3 df b2 bf
       0.053013219606774846 -0.07372876884909518
0004e0 fc 55 14 8b 0e 4c be bf e3 bd 92 97 32 90 c1 3f
       -0.1183480348157317 0.1372130622962536
0004f0 0d e8 e7 8a c6 72 7c 3f 70 f8 c0 19 05 21 cb bf
       0.006945396000896065 -0.21194518811711616
000500 b4 45 37 07 73 5a 96 3f 83 45 15 87 3e d2 b4 bf
       0.02182941180746463 -0.08133307264258431
000510 f7 23 96 16 8b 73 88 bf a6 b3 f2 16 88 84 b1 3f
       -0.011939131380829677 0.06842852173094957
000520 dc 27 d8 8b 9e 6e b7 3f ad ac ae 39 74 33 b8 3f
       0.09153166689080144 0.09453512581119368
000530 9b b8 ff fa 82 62 bb 3f b2 31 cf 14 7c c7 97 3f
       0.10697191837218371 0.02322191121111112
000540 c3 66 a7 cd 08 25 7b bf 54 88 0d 3c 1c 8c b5 bf
       -0.006627115619687709 -0.0841691633809501
000550 53 2b 92 81 b5 5e 98 3f 7a ad b3 e6 e6 24 a2 bf
       0.02379878619516813 -0.03543778959450612
000560 ba 22 44 83 c6 3a 97 3f a4 b3 7d c6 44 36 63 3f
       0.022685148012018465 0.002345213248125382
000570 c6 a6 3f fb 53 84 c3 bf 83 4f 1b 64 de 6f c7 bf
       -0.15247583168029716 -0.18310146224996168
000580 ee 53 23 d3 6d 21 c2 bf f8 30 47 46 b1 bb af bf
       -0.14164517220947864 -0.06197885496985295
000590 a6 eb e0 1b fb 9d b8 bf f0 3a 7e cc c7 82 ac bf
       -0.0961605971396425 -0.055685275757346164
0005a0 a4 30 fb 85 dc ba 99 bf ad 68 73 0c b6 a6 c0 3f
       -0.025126882245601792 0.13008761985731124
0005b0 c6 c3 79 38 a1 b6 c4 3f 7e c2 41 61 0a ca bb bf
       0.16182341821288854 -0.10855164408145332
0005c0 bd f2 f0 bb 57 05 48 3f 2e cb 15 45 d6 d4 c4 bf
       0.000733058775842808 -0.16274526952073515
0005d0 3b f2 17 d6 36 43 ad 3f 1e ba e6 89 04 dd c2 3f
       0.05715342868277103 0.14736992581806957
0005e0 77 05 76 e4 d5 9d c0 bf c1 8f 85 ed 9f e0 a4 bf
       -0.1298167577297524 -0.04077625059542767
0005f0 eb 99 4c 1e e4 67 b7 3f ce b8 76 69 e9 4d b2 3f
       0.09142900218703402 0.07150133919523968
000600 b0 c2 6e ea 6c 2f b6 bf c4 02 18 b4 a8 23 b2 bf
       -0.08666115497067994 -0.07085661312886332
000610 e1 4f 5d 79 ca 41 bc 3f 3a 26 1f 77 8b 3d a4 3f
       0.1103788896846818 0.03953204945680651
000620 a3 58 0d 1a 2c a8 c3 bf da b3 02 c7 df 56 ba bf
       -0.15356971046521037 -0.10288809403091595
000630 09 a7 90 4b fb 31 ad bf af 37 16 90 62 c8 8d 3f
       -0.05702195451188003 0.014542360326938423
000640 50 f4 ba 04 75 1b ad 3f a5 48 d6 3f 7e 53 b0 bf
       0.05685010607474139 -0.0637740045406497
000650 c1 04 50 10 7c be a3 bf f4 eb 9a 12 9e a1 a7 3f
       -0.038562657347946956 0.04615491845239453
000660 de 1f 29 31 b6 fb a3 bf be 63 be 5f e6 fc aa bf
       -0.03902978277307033 -0.05271072310205892
000670 c9 12 5e 0a b1 54 bd bf 90 ac 71 28 83 75 b0 3f
       -0.11457354071724092 0.06429309594538979
000680 41 b7 20 75 f5 f1 c0 3f 41 27 e9 57 21 25 c6 3f
       0.13238399714594531 0.17300812523381562
000690 ab 21 27 19 5d e4 aa bf 02 d7 52 92 dd b0 c2 3f
       -0.052523526497285054 0.14602250714022352
0006a0 37 be ec c6 1b a2 c7 bf ac e0 67 94 eb 75 c0 bf
       -0.18463465893863582 -0.12859863993049225
0006b0 7c 14 3a fb 26 96 b1 bf b0 0e 1a f2 b9 51 9b bf
       -0.06869739182919149 -0.02667894878551519
0006c0 79 8b 4b 0a 86 14 a4 3f 94 60 89 84 b8 64 aa bf
       0.039219082600331974 -0.05154968850973876
0006d0 c7 cf 46 c7 cf 7b d0 3f 92 6c 6a fb 49 da cc 3f
       0.2575568624554276 0.22541165138395464
0006e0 a7 a2 a3 27 76 03 85 3f 76 2b 6c 46 75 af a3 3f
       0.010260508618061449 0.038448014112950554
0006f0 0a 08 63 11 04 1b b4 bf dd 79 04 2f 9c 30 c4 bf
       -0.07853722977145608 -0.15773346229339227
000700 bc eb 06 e4 62 3d c5 3f 32 e8 25 30 49 fb b3 bf
       0.1659358609593634 -0.07805306840410323
000710 df f0 df 26 89 fa bf 3f a7 ae ca b6 ed 37 a9 3f
       0.12491662215319675 0.049254826129382416
000720 6c 0b 40 31 a8 90 c3 bf 17 f4 eb 67 25 e7 c7 bf
       -0.1528520813445441 -0.18674151968289784
000730 ea cf 92 dd c8 7f b7 bf 3c a9 ed 2a 5b 16 c0 bf
       -0.09179358872898971 -0.12568225475417616
000740 4d e6 c8 ec 9b b9 95 3f 39 1a 85 ad f5 74 b5 bf
       0.02121585495681293 -0.08381591306997728
000750 1f 22 33 b3 97 a2 96 3f 08 fe c9 16 30 e2 a4 bf
       0.022104616463169188 -0.04078817632852966
000760 3f fc 18 7a 5e 4a c0 bf 07 ce 41 87 79 ce a3 bf
       -0.1272695633105929 -0.038684652100439414
000770 04 fc aa 3e 9f 1b be 3f 49 bd b0 54 8d c0 a4 3f
       0.11760897903421613 0.04053155573671547
000780 ee 50 e8 2d 11 f2 a6 bf 69 13 69 49 75 34 a2 3f
       -0.04481557546037772 0.035556473933445805
000790 4a 7d 90 dc ce 64 bb 3f 81 fd 8c 63 bc 21 bc bf
       0.10700695881722769 -0.10988976889074388
0007a0 78 c2 87 b1 fd 71 c8 3f cb 74 c3 85 be 8d 55 bf
       0.19097872894737455 -0.0013155327388212786
0007b0 09 95 33 9b 9a ed 98 3f 97 5f 9b 47 03 a6 c2 bf
       0.024343887064692846 -0.14569130894119262
0007c0 48 7d 19 55 bf 3a bb 3f ab 7a 78 8f ab 63 ba bf
       0.10636516406656427 -0.1030833459158013
0007d0 aa 62 d1 69 7e 9d 87 bf 20 5b 4f 32 c3 0f b6 bf
       -0.011530864338213338 -0.0861780164553747
0007e0 c6 49 af d3 12 dc ad bf 11 1e 75 1e 5d 4d c0 3f
       -0.05831965288202272 0.12736095416242724
0007f0 92 e3 bb 99 fd d3 ad 3f dd 9f 1a e0 05 4a c3 3f
       0.05825798513064408 0.15069650118425573

fc_hidden_list.1.bias f8 [50]
000000 d9 a4 91 2b 0b b7 bd bf 7f d0 a5 36 19 85 bf 3f
       -0.1160742741937101 0.123124671785094
000010 aa c7 e8 b9 1e 3b c2 bf e4 82 11 00 f5 e4 bc 3f
       -0.14242919995882392 0.1128686070601464
000020 87 7b e3 f1 98 b2 bf bf 52 be 08 78 2a 02 b1 bf
       -0.12381893067821013 -0.06643929892083492
000030 c3 ee 7b ec 0d 3a a3 bf c3 53 86 1b 1b 48 a1 3f
       -0.03755229484337754 0.03375324927325309
000040 98 33 7a 38 e1 d2 ae bf 90 88 09 92 5a 6a c1 3f
       -0.06020263494892858 0.13605816012119876
000050 fd ce 7f 04 11 46 ac 3f 5d bc 49 be ea 2a bf 3f
       0.05522206478044998 0.12174861093238705
000060 7f b3 aa 36 90 e7 b5 3f 4c 07 1e 3d fe c9 b2 3f
       0.08556462607039171 0.07339467041131548
000070 c8 93 30 9c 3a 4e bc bf 7f 6b c8 29 ff 0b be bf
       -0.11056867898203315 -0.11737055559244246
000080 e1 1d d6 f8 9e 1c a3 bf 4d 48 8f d9 43 77 bb 3f
       -0.03732773578218108 0.10728859006420173
000090 b1 84 c2 e6 18 64 b9 3f 36 95 d0 53 9f c9 b7 3f
       0.09918361314568604 0.09292026325473021
0000a0 6b ee 79 2e 46 8b a4 3f e4 81 57 28 93 24 aa 3f
       0.04012507741296364 0.051060293840922616
0000b0 be 99 ba 45 d1 51 ba 3f 93 c9 ba 0a 43 d5 b4 3f
       0.10281093551984719 0.08137911807970104
0000c0 d9 a5 98 fb 36 87 b1 bf ba e9 a9 df a8 45 9e bf
       -0.06846946375357933 -0.029562605525350817
0000d0 d4 0f c0 6d 20 27 ba bf b5 74 32 77 77 ad bd bf
       -0.10215952567528969 -0.11592814121327673
0000e0 06 41 86 da a2 17 af 3f 79 11 95 2d 44 87 aa 3f
       0.060727204490037365 0.05181325012611899
0000f0 5e d9 68 ce 92 65 ac bf 77 93 a1 15 d5 34 aa bf
       -0.055462444015960996 -0.05118432892849161
000100 6c e2 d9 bc e7 65 ae 3f 3e e5 8c e4 d5 b1 61 bf
       0.05937122516929069 -0.0021599938958415657
000110 1a 0b ae 68 8f 80 90 bf 42 e4 35 ae b0 57 c7 3f
       -0.016115418209220335 0.18236359125492824
000120 3d da 03 8b b0 f0 c1 3f 9f 78 14 a6 2b 84 ba 3f
       0.14015776431888752 0.10357926182448061
000130 1f 87 45 69 74 ba a0 3f 20 de c0 24 a8 20 72 bf
       0.032672536707435855 -0.004425675211727348
000140 9c cb 36 9e 2c 64 b9 3f 3a 62 32 43 6f 04 a5 bf
       0.0991847883476979 -0.04104945845864845
000150 c6 dc 71 4a 19 2e 9a 3f 69 bf fb c9 2f 1b b0 bf
       0.025566477936504815 -0.06291483575091451
000160 ea f0 46 1c 70 18 b0 bf ee 71 57 e0 f2 f8 b0 3f
       -0.0628728932414934 0.06629865624513062
000170 6b 88 3e 5d 0d 65 bd bf fe 3f 9f ff d9 60 b6 3f
       -0.11482318426581777 0.0874153374745674
000180 c2 72 26 69 10 97 c3 3f d3 fd fc 63 ef 24 93 bf
       0.15304761060987998 -0.018695583799169867
