savedModel/poisson2d_inverse_tanh/noise_0.1/ParticleWNN_3/trained_model_best_loss.pth (torch, 132191 bytes, 20 tensors)

fc_in.weight f8 [50, 2]
0	0x3fe5ed425c5d4bfa	0.6852123073571186
1	0x3fdf9d42b17e9fd6	0.49397342046222315
2	0x3fe4d5269a22c938	0.6510193834749662
3	0x3fe3a5ccf2571663	0.6139893277365441
4	0x3fe15bc2c46fa383	0.5424512707369192
5	0xbfdaa86ab79ba374	-0.41652934961762544
6	0xbfe3b1229eb3936a	-0.6153729533803987
7	0xbf7dcde8e6cc59f3	-0.007276448985769057
8	0x3f62ce1f49eff95c	0.0022955523595548488
9	0xbfe69b272ed8d182	-0.7064395823459082
10	0xbfd55ec82e28c2a5	-0.33391003139244396
11	0x3fd98173241c9ec0	0.39852598692457875
12	0x3fd957c3daea590e	0.39598175409754865
13	0xbfca856a7fa1f979	-0.20719653350893077
14	0xbfda5075065cb433	-0.41116071339894517
15	0x3fde6c564b556a3d	0.47536237103273377
16	0xbfe4976e0e12d88d	-0.6434850954890564
17	0xbfe4e958be251463	-0.6534846986547901
18	0x3fe4257626488def	0.6295729396555866
19	0xbfdf756fdc8bb30d	-0.4915427831427202
20	0x3fc5b7d889d91238	0.16967303019386448
21	0xbfd04aff3306c328	-0.2545774458222234
22	0xbfd1ec0e8d86ac78	-0.28003276654153053
23	0xbfe395f2cac5135e	-0.6120542488430194
24	0x3fea78e21f5d617c	0.8272562611191883
25	0xbfdea63afab6e008	-0.47889589771102736
26	0x3fd267e005d3e2cc	0.28759003228291813
27	0xbf58782b17d35184	-0.001493494113039424
28	0xbfe1e033d6eb7fd2	-0.5586184690146132
29	0x3fe764e993034d22	0.7310684081407184
30	0xbfd66a18375d6797	-0.35022550017094417
31	0xbfe69d5eddcf455d	-0.7067102749080437
32	0xbfdc9f7e5e90d92c	-0.44723471865599396
33	0xbfe42260b1d0821a	-0.6291964981974758
34	0x3fbf3a203c9b780f	0.12198068122549464
35	0x3fb51e772d39c776	0.08249611715453206
36	0xbfe7243424a618c4	-0.7231693950459648
37	0xbfe8ec26b9f5cc2c	-0.7788270599397769
38	0xbfea7d3906222cfd	-0.8277859802050497
39	0xbfcb953df8d7861d	-0.2154920067833225
40	0xbfe4d1ccc8deb9f9	-0.6506103442423515
41	0xbfb5a2dff91c4f61	-0.08451652366448804
42	0x3fd3f57de6ecc3d3	0.3118586306691757
43	0x3f921a3cbdef5936	0.017678212254247337
44	0xbfbb2fb84e0ddd43	-0.10619689851397589
45	0xbfdad1e41e405aeb	-0.41906073526608506
46	0xbfd8911a2d80e57c	-0.38385633891774495
47	0x3fe760a02886e39d	0.730545119432566
48	0xbf9d3e48ea4ead54	-0.028557910252556454
49	0xbfe3f7d809f742af	-0.624004382576535
50	0x3fe59c944aadf434	0.6753636797508364
51	0xbfe0787b0515f6e6	-0.5147070979434971
52	0x3fb08bc717d8eae0	0.0646328385563879
53	0x3fb20b0bec5f3a73	0.07048105736542158
54	0xbfe202f089063e65	-0.5628588367707833
55	0x3fdc5775014176eb	0.442837954736986
56	0x3fcc1b28aa61e95a	0.2195788223214759
57	0x3fdc55538c48baa6	0.4427079076730628
58	0xbfcf7acdf9466e7c	-0.24593519851338275
59	0x3f96a51ac8777359	0.022114199147711264
60	0x3fe4b8046f7cbd82	0.6474630525098493
61	0xbfe92a5fe5abf90d	-0.7864226804520357
62	0x3fe2d77dbf9e4139	0.5888050787489539
63	0xbfb877dba8d54297	-0.09557888862515039
64	0xbfe62e3db47ffff9	-0.693144657649099
65	0x3fc704c315fbaf75	0.17983282636066247
66	0x3fe970c6a49d5fe3	0.7950165953761793
67	0xbfdd92e3e78bca6b	-0.4620904694740264
68	0x3fbd32c2b19521d5	0.11405579410087026
69	0x3fe9928df0009fa9	0.7991399467036803
70	0xbfdd1ec05c6a0b9c	-0.4550019171221551
71	0x3fe2795ab2cd494b	0.5773137562012293
72	0x3fd426b2d8a9ac13	0.31486197622751994
73	0x3fe4392ae08bb75b	0.6319784532222273
74	0x3fd5ce38db84840d	0.3407117980696633
75	0x3fe623ced979aadd	0.6918710944713343
76	0x3fb07e60f90e5652	0.0644283874556433
77	0x3fcd1af20b9bad12	0.22738481108476855
78	0xbfd03f557ef921f1	-0.2538655986759571
79	0xbfd215cf6240c7e5	-0.28258118243240765
80	0x3fe8e406668558ca	0.7778350832329803
81	0xbfd3c90d34ed1e38	-0.3091462151391826
82	0x3fe6a088d47b114a	0.7070964956297214
83	0x3fe8f34f902cc338	0.7797010246195901
84	0x3fe5e084706c4dfb	0.6836569019091593
85	0xbfe18dc08961f8af	-0.5485537226920963
86	0x3fe84fc5040097ee	0.7597374990625647
87	0xbfcad9f729f0f813	-0.20977677867807695
88	0xbfdbfef88c6872ce	-0.4374371882602589
89	0xbfdf56313cda60ec	-0.4896357626216872
90	0x3fa774b579626373	0.04581229311697301
91	0xbfd080e08c7500ad	-0.2578660365725323
92	0x3fdf9c50b0ee291c	0.4939157226405244
93	0x3fd19cb9b49f8d3a	0.2751907600306428
94	0xbfb811230fad6775	-0.09401148922679943
95	0x3fe756966d0fe502	0.7293197755926999
96	0xbfd2c2dbc6a85fe5	-0.2931432189957362
97	0x3fe1a11825313687	0.5509148336802391
98	0x3fe2e07e7c7fa6ec	0.5899040633787229
99	0x3fd105ef2852ed2f	0.2659871953762431

fc_in.bias f8 [50]
0	0x3fdc8b2be94a1507	0.4459943559853205
1	0x3fe30550e9192afa	0.5943989327145964
2	0x3fda63a6e6b9c9ed	0.41233227283296864
3	0xbfc1f054cb2937ff	-0.14014682693454003
4	0x3fc208048d7f08f9	0.14086968335147512
5	0x3fe677d6b5df7d37	0.7021287491042248
6	0xbfdf63a03efc21ad	-0.4904556861006551
7	0x3fe555836fb9688d	0.6666886503328598
8	0x3fe292f5c65d083e	0.5804394602093976
9	0xbfe3b10090710059	-0.6153567143555946
10	0xbfc256df83a3d5c2	-0.14327615668996257
11	0xbfd9231f8d9df2c1	-0.3927687533357976
12	0x3fc48b7e1cad3540	0.16050697708343797
13	0xbfdd5929c7a3f2b5	-0.45856708999762513
14	0xbfe0397e31d63b02	-0.5070181821227779
15	0xbfb498a3c8b340ad	-0.08045409822375645
16	0x3fdf2b65d7c20c30	0.4870237929355339
17	0x3fc6fa34b6cfe9c1	0.17951067854285266
18	0xbfe1ca951df7299d	-0.5559793076766258
19	0x3fe0c1a607af403a	0.5236387395943958
20	0xbfd8706abf645cf4	-0.38186138811711534
21	0x3fe484bf13316ae0	0.6412043928970341
22	0xbfe5679a0e9ca5f2	-0.6688967023266612
23	0xbfc7eded34d00b06	-0.1869484432100636
24	0xbfd8e0cd4feee3e1	-0.3887208252522765
25	0xbfbd735e1c5a9d34	-0.11504162018046743
26	0xbfe04e38065d8a3a	-0.509548199112323
27	0x3fd1d9e1f8901aa6	0.278923504578794
28	0x3fddcd83915d2f6a	0.46566857524589145
29	0x3fe2e0f41c67e038	0.589960151176462
30	0xbfe2ed2aa6b1df81	-0.5914510017164362
31	0x3fa8ebdca9e09f35	0.04867448400210465
32	0x3fe4777e81ec7f99	0.6395866906714104
33	0x3fd8b108090469c0	0.3858051384028407
34	0x3fd5bdedd780adf4	0.3397173504369839
35	0xbfe684d90d58efb9	-0.7037167797748146
36	0xbfd361749309bfc6	-0.3028232036513113
37	0xbfbf05d2fa7f0f4d	-0.12118261924393643
38	0xbfdaf744009e4452	-0.42134189663290045
39	0xbfcf546323edc115	-0.244762795012783
40	0x3fd3224c725bcf21	0.2989684216292848
41	0xbfe7e087ce23b0f7	-0.7461585069809463
42	0xbfccd8c59433bd37	-0.22536535011702494
43	0xbfe39e0c28a0e5d4	-0.6130429070973897
44	0x3fd4e5b56bf9f52b	0.32652030510492364
45	0x3fdb2c83a05fafc0	0.4245919290685798
46	0xbfba3b458b4a2fbf	-0.1024669137061087
47	0xbfe21a3a528da7fd	-0.5657016384477626
48	0xbfe6234e8cc1ffe4	-0.6918099164176934
49	0x3fe1861a717fac88	0.5476200310489654

fc_out.weight f8 [1, 50]
0	0xbfb737ac6341c6b3	-0.09069325850739567
1	0xbfb41f2223cd40e1	-0.0786000573546093
2	0xbfa506bde0042275	-0.04106706008503106
3	0xbfccdca81deabcdb	-0.22548390827930728
4	0x3fa57f37349d2480	0.04198620335825698
5	0xbfc1cc19250e2c06	-0.13904108342498506
6	0x3fc34447d10f7f90	0.15052125652345838
7	0x3fb340ff0093c752	0.07521051181882157
8	0xbf470f9f818d06a8	-0.0007037667120146267
9	0x3fcca47e97dbaae4	0.2237699738974107
10	0xbfae8f5860e640d4	-0.05968738730291681
11	0xbfa7b62df7062b40	-0.04631179466658475
12	0x3fa76616ef1c2b92	0.04570075672935227
13	0xbfb64bf465b136f2	-0.08709647639008347
14	0xbf3f405f58fc8532	-0.0004768593580469382
15	0x3fa0380817360c14	0.031677487214459316
16	0x3fc19929b3ad1fdc	0.13748666070227855
17	0x3fb6b72d26c116f5	0.08873254963063089
18	0xbf72f4ca52666144	-0.004627981490920089
19	0x3fa0a23b155417e2	0.032487722734046334
20	0xbfc372841dd9586a	-0.15193225343199696
21	0x3faebc8495820292	0.06003202748343485
22	0x3f94c402bc8faac6	0.020278971442091252
23	0x3fc5c5c0615af503	0.17009739640881358
24	0xbfa78bb472d0fc05	-0.04598773862425535
25	0xbfb9233544cc20bf	-0.09819348268149762
26	0xbfb052fa90aff530	-0.06376615555196419
27	0xbfbe7395920f49e5	-0.11895117584143795
28	0xbfa769e8d0be5c09	-0.04572989986552762
29	0x3facc86f53c7e688	0.056216696717410974
30	0xbfa756dfc0b7accb	-0.045584671282847454
31	0x3f8599329fb4c14c	0.010546107767908673
32	0x3fb90f442f53d060	0.09788919597105084
33	0xbfac6c3fa916506c	-0.05551337184002211
34	0x3fc8fc588c4014ea	0.19520098541412462
35	0xbfa968c4bda5aef9	-0.04962744536427794
36	0xbfae63451e5655d1	-0.05935111995055887
37	0x3fb2d8dd00001bb0	0.07362157106409373
38	0x3fb3bfb61c6c6ed8	0.07714403337416387
39	0xbf30db4a4e88d923	-0.0002572113431002101
40	0xbf9f89f2186b6e83	-0.030799658527810535
41	0xbfb2727be1b3ea07	-0.07205938587495818
42	0xbfc5681baa3cdaf4	-0.16723962604893183
43	0xbfa15de65efd1fc0	-0.03391952428370315
44	0xbfa8c52d346f32b0	-0.048379337931327426
45	0xbf35c69fad595bd6	-0.0003322734677104177
46	0xbfbdea6531128aa6	-0.11685783813531234
47	0xbfc096cf75a0f452	-0.12960236781683193
48	0xbf8f1725d90467af	-0.015180869756068775
49	0x3fb14b9c788ac8e8	0.06755998557017373

fc_out.bias f8 [1]
0	0x3f77319b3f5df4c9	0.005662542758611618

fc_hidden_list.0.weight f8 [50, 50]
0	0x3fb7f856df80bfd4	0.09363310772528105
1	0x3fb311d0ff472e0e	0.07449060661672766
2	0x3fc29e453c0d9b57	0.14545503074915686
3	0xbf958108db1f9eaf	-0.02100004041122244
4	0xbf96f18f56b2ff53	-0.02240585295362447
5	0xbfb71d439c8ed92a	-0.09029028484551263
6	0xbfa261120de6d93a	-0.035896839329711175
7	0x3fbc7725306bb461	0.11119301254412185
8	0xbf91dc6c334103db	-0.017442408207219855
9	0xbf966a6786204c93	-0.021890275536929748
10	0x3f97d6fa024bae35	0.023281008138765286
11	0xbfc30bbeec27ab88	-0.14879595309261284
12	0x3fc32f16660105b3	0.1498744962755559
13	0x3f82dce4931b8098	0.009210382212984577
14	0xbfb0d97f08140846	-0.06581872889731341
15	0x3fa3dda85ae6a208	0.03880048856382606
16	0xbfa2baa57714a703	-0.03658024862882139
17	0x3fa1b4121c39f7c5	0.034576955743417716
18	0x3fb6baf8c350f7cb	0.08879046219314472
19	0x3fb39636b9a907c8	0.0765108302375942
20	0xbfba65ae9768e86c	-0.10311404415634379
21	0x3fb0f58deb4a0b8e	0.06624686235777075
22	0xbfaa87ee31e83495	-0.05181831702439258
23	0xbfc25efaa3cdb5f0	-0.1435235309431131
24	0x3fb24f29483560bb	0.07152040493872651
25	0xbfacf31ea5694326	-0.056542356197161234
26	0xbfa60f2b86ba308b	-0.04308448810215378
27	0xbfaa324f8ff9ff93	-0.05116509087110823
28	0xbf6672cb85ad2500	-0.0027402854006238764
29	0xbfbe489c0020e652	-0.11829543116700705
30	0xbfbee80185c419c0	-0.12072762981197283
31	0xbfb35424e2c3c5a6	-0.07550268684624103
32	0x3f90bc21cb65fd20	0.016342666663601624
33	0x3fc8d6e754860027	0.19405833842393003
34	0x3f8e7aee13dbbe78	0.014882907849339974
35	0xbfc05b3bfc3b21ba	-0.12778425041166291
36	0xbfa17afd70325a9d	-0.03414146418179096
37	0xbfb1d1075d4480c5	-0.06959577586212891
38	0x3fbe21fc0d28c8a8	0.11770606347343693
39	0xbfb5a617ab66f6cb	-0.08456561979889014
40	0x3fbaa41ea48cec79	0.1040667678579882
41	0xbfc182e70f819f99	-0.13680732972283918
42	0xbfa92d45d2674fce	-0.04917352860834932
43	0xbfb5793ca708da37	-0.08388117864601773
44	0xbfa0abe2b0a64790	-0.03256138235441519
45	0xbfa34120f68fe422	-0.03760626802245094
46	0x3f93c5a68707da8d	0.019308664313906255
47	0xbfb268ea06ec46ff	-0.07191336316125428
48	0x3f99505348071602	0.024720479270191838
49	0xbf7683c3286132ab	-0.00549675210465909
50	0x3fa9580bf2de32e5	0.049499867817848466
51	0x3fb3caa0c81831ea	0.077310608721923
52	0x3fa69ed2c083a94f	0.04418047523525336
53	0xbf868b3607021a84	-0.011007711495279134
54	0xbfb4b885faa2b8b3	-0.08094060296091037
55	0x3fa5cfbcb5025820	0.042600533576816924
56	0xbfb2e95a51fa6257	-0.07387318135659747
57	0xbfaefb548dc724b7	-0.060511247927544635
58	0xbfb9cf78a59d2978	-0.10082201045330474
59	0xbfad15c847702e79	-0.056806811066135894
60	0x3fb25709b7948da6	0.07164059383335672
61	0x3f9a88c756f5960e	0.02591239422090124
62	0x3fb69720fecc5fbd	0.08824354382193085
63	0xbfb3e7cf3a4ab62a	-0.07775588200703312
64	0xbfbc8bc43f33c1fa	-0.1115076689054674
65	0xbfc04af2cb0d1b8b	-0.12728724398240518
66	0xbfa512864fea4d0a	-0.041156956916120604
67	0x3fc4ab8751b01228	0.16148463715229977
68	0xbfbcb716bc394d71	-0.11216871352489989
69	0x3faf92dff035d35d	0.06166744048360926
70	0xbfae904134f3cb6f	-0.05969432612791691
71	0x3fbd6e5c60bc8551	0.11496522294739477
72	0x3fb634945be7824c	0.08673979991682151
73	0xbfb9fa8727f3ce39	-0.10147900319480464
74	0xbfb32733e965304e	-0.0748169369518916
75	0xbfc1eae752ab9f56	-0.13998118912354113
76	0x3fa67bbd7cfb0c14	0.04391281271593797
77	0xbfba415bdf2854ce	-0.10255979726965167
78	0xbf91f9e4358e43f5	-0.01755482270124627
79	0xbfa07035c17fc98d	-0.0321060942368546
80	0xbfa4b1ab27a82924	-0.04041800364582773
81	0xbfac05f8afe961d2	-0.054733058427419615
82	0x3fa13495d3dae0ac	0.03360431872482769
83	0xbfabf58788c519ed	-0.05460761589579364
84	0x3fa6a4fbe2611592	0.044227477440055854
85	0xbfc16e264f2f9154	-0.13617400042051975
86	0x3fb545d9e3e61ece	0.08309709371507809
87	0x3fbb604a19794438	0.10693801042477069
88	0x3fc040a6380c6703	0.12697293984165733
89	0xbfc34eef42539a5c	-0.1508463929996705
90	0xbfb329013341445b	-0.0748444318899301
91	0xbfbbadc70deda743	-0.10812038507506565
92	0xbfb8e72112539690	-0.09727675149368964
93	0xbf97d6039547a51f	-0.023277336107558996
94	0xbfb4ec1c52a96a7c	-0.0817277623949994
95	0xbfb623518340c9f8	-0.08647641615315382
96	0xbfb7932f19a06872	-0.09208959937714825
97	0x3fbec6470e566f56	0.12021297550239515
98	0xbf935e6931de3310	-0.018914836567591797
99	0x3f4a2cb6157e3e77	0.0007987870294403195
100	0xbfb26818995e8d39	-0.07190088028305731
101	0x3fc296ef057436c5	0.145231130278651
102	0x3fc74005a2c92431	0.18164129684945032
103	0x3fb687cdb7135e0d	0.08800969810123878
104	0x3fb9dd93baf434c1	0.10103724779419833
105	0x3fc2610adc1ab22c	0.14358649966506343
106	0xbf9ffa098f6aa941	-0.031227254274804443
107	0xbfb22531925cce07	-0.07088002990058594
108	0xbfbfe5a19527d9a4	-0.12459764377113075
109	0x3f961998c180f594	0.021582018671542594
110	0x3fa55fd2ce062c12	0.04174669995253323
111	0xbfac2c38f2de854d	-0.055024890563127295
112	0xbfb40bdc065b7e2b	-0.0783059611817342
113	0x3fb6f9eb88e79695	0.0897509774436805
114	0x3f73d226f2dea87f	0.004839088576696792
115	0x3f94b33b706ce222	0.020214966523072538
116	0xbfa45218f7a4e388	-0.03968885443686704
117	0x3fc241b27f38b133	0.142629921073771
118	0x3fbe1b46eb058894	0.11760371435005573
119	0x3fb4236c9bd0da02	0.07866553119752243
120	0x3fb1f6cc159dad7f	0.07017207648975975
121	0x3fbea5e9109b004c	0.1197190919438082
122	0xbfb92d2ba07857b3	-0.09834549586989176
123	0xbfa4b37583451ae1	-0.04043166377464558
124	0x3fa4a0b89e10b6a2	0.04028870515354056
125	0xbfc1c1785378c378	-0.13871673656242556
126	0x3fa92d9d4bb7f637	0.049176135533326386
127	0xbfab3ee9605ada5e	-0.05321435261923989
128	0x3f94cb527e3f9f3c	0.020306862788771016
129	0x3fc2c9396915f4e8	0.1467658770670035
130	0xbfc3f2a5c5a22f06	-0.15584251546930988
131	0xbfa74c714d9dd385	-0.04550508568255566
132	0x3fc325d5585f09b5	0.14959208312036557
133	0xbf81263df1638178	-0.00837372200879892
134	0xbfb2b4754094dba9	-0.07306607081123552
135	0xbf8f1c890c685e20	-0.015191145602371725
136	0x3fc2ab4d92eff600	0.14585275339770476
137	0x3fc6354572bdd0ec	0.17350071051226423
138	0xbfc1968ad22103bc	-0.13740668544963153
139	0x3fbaf6440bc2b2f9	0.10532021796343462
140	0xbfa9161b30816088	-0.0489967819891613
141	0x3fc2bfab4edba117	0.14647427893147189
142	0xbfa903aee9788a48	-0.048856225967274514
143	0x3fb8d91683b5f21a	0.09706249919504054
144	0x3fa5acf5c258b949	0.04233520505327932
145	0x3fc394c2721abc00	0.15297728129868915
146	0x3fbedd2a7ba8103a	0.120562224568915
147	0x3fb7a1175ec3dae0	0.0923018080101019
148	0xbfbf6c8bf56b03e0	-0.12275004140521117
149	0x3fc211cc3e28eaf0	0.14116814646862208
150	0xbfc2301e1c4f7946	-0.14209343321176443
151	0xbfc2557cd8ae9f28	-0.14323387699300238
152	0xbf6ae7150a05350b	-0.0032840166970006294
153	0xbfbf3d010fdc1379	-0.12202459943007495
154	0xbfc741053d0e6adc	-0.1816717670561364
155	0x3fb2b6cb2988ddaf	0.07310170902279965
156	0x3fc02238047ee05d	0.12604427546989685
157	0xbfc2e3e6efab033a	-0.14758001997508946
158	0xbfde345577d7aa19	-0.4719442053161927
159	0x3fc0c8351c595a1c	0.13110984691839256
160	0xbf8732ab4de9debf	-0.011327112498505596
161	0xbfb5a76ff7e8c5eb	-0.08458614160988247
162	0xbfaa18583ec61208	-0.050966985380942076
163	0x3fc6c861ec653e1d	0.1779901890063095
164	0x3fc1493084316778	0.13504606680617903
165	0xbfd05ebf70c3b78e	-0.2557829476562511
166	0xbfdd4d151445826c	-0.45782973270073657
167	0xbfae6721f25c7666	-0.0593805893279125
168	0x3fb4d175e9da6d48	0.08132111510569928
169	0xbfdc42d8158a67c2	-0.44157983878687557
170	0x3fbf21961e728444	0.12160623782485042
171	0xbfc26179eb1c7c5a	-0.14359973888437844
172	0x3fb1f687267b2be3	0.0701679676960079
173	0x3fa7d735a24d840e	0.046563793241837556
174	0x3f8402d37185965f	0.009771015073691545
175	0xbfc1641e95ec5dbf	-0.13586790390466594
176	0x3fc2998cb04a78c5	0.145310960845512
177	0xbfa3a9eec83d4b57	-0.038405858939447306
178	0xbf8f116092e46876	-0.015169863207621353
179	0xbfb1de3617478f7c	-0.06979692524288156
180	0x3fa18843f0279e64	0.03424274736954372
181	0x3fc861e446e106d5	0.19048741780175385
182	0xbfce35516851ad64	-0.23600213617042265
183	0x3fa6efe03e686633	0.044798858278408814
184	0x3fb2f71c99d823aa	0.07408312564815725
185	0x3f98e5d7c4165c7a	0.024314280837270698
186	0x3fce3fbcfe6de744	0.2363201372461906
187	0x3fd1b3ec5f9246df	0.2766066487612146
188	0x3fb527090c6d11a7	0.08262688210840584
189	0xbfa8858b76cc38fa	-0.047893865825345786
190	0x3fc227c80bc1a1cd	0.14183903287927394
191	0x3fde27739bc3d738	0.47115793429781005
192	0xbf5ff9af0cb36f07	-0.0019516190976024987
193	0x3fcc5c18f1f2fab6	0.2215605908767963
194	0xbfcfa94f99d3cfa1	-0.24735445986845853
195	0xbfbd460a855cdb54	-0.11434999233175108
196	0x3fc9f1d6a0d38c93	0.20269282200670044
197	0x3fcceefd73196dee	0.22604339714131022
198	0x3fcb6fb744ba88d2	0.21434679847613453
199	0xbfb5c70aa7d9751b	-0.08506838415037914
200	0xbfb74b2d9778346c	-0.09099087665545519
201	0x3fb4271b18741302	0.0787217077923508
202	0x3fa1ae19aa6073be	0.03453140454096325
203	0xbf8b2230a3477a83	-0.013248805983434813
204	0x3f65211ad3469118	0.002579262154727268
205	0xbfce7afd969d9e29	-0.23812837461740458
206	0x3f9f71259ef2e65a	0.030705058886019244
207	0xbfcbf90f34dc8a2f	-0.21853818970801472
208	0x3fa9c348aa599873	0.05031802253215369
209	0x3fc7bbe1628623d3	0.1854211550783292
210	0x3fcbccc9f7b15d5d	0.21718716234566218
211	0xbf947b2bcfaf6f0e	-0.02000111060247805
212	0xbfa9319e96b2f8c0	-0.04920669164265368
213	0x3fc3239051856944	0.14952281933330813
214	0x3fb96f5575768320	0.09935506932971494
215	0xbf917144688cb18e	-0.017033642655563556
216	0xbfb7650b22dab048	-0.09138555146154304
217	0xbf9869b44eee6613	-0.023840730016308664
218	0x3fc017d64f1a74b5	0.12572745192020354
219	0xbfcb5b5bc1b96955	-0.21372553786461404
220	0x3f975b7b8ae01345	0.022809915877604742
221	0xbfb66988e2729e0c	-0.08754783180722131
222	0x3fbf2caf67b3eaab	0.12177559167677525
223	0xbfc2d3f35561683b	-0.14709321660012784
224	0x3fcf43a7c8465513	0.2442521789459212
225	0x3fc04149fb619c9e	0.12699246191480013
226	0xbfa746865150239c	-0.04545993559447156
227	0xbf9483db3f06ef82	-0.020034242364757933
228	0xbfc858de4ecb67ea	-0.1902120480288539
229	0xbfaf6cf038627941	-0.0613780087307867
230	0x3fd26427f720e90c	0.287363044105988
231	0x3fc8ad0842422f88	0.1927805255439774
232	0xbfd01f34dff87c94	-0.2519046961987865
233	0xbfbf42e49a40fd4e	-0.12211445585216049
234	0xbfcc53a4936b394f	-0.22130257795510963
235	0x3f94c6d175e820e1	0.020289681264359486
236	0xbfa91c2d2d1762f6	-0.04904309440070691
237	0xbf9632ffe271b317	-0.021678922840169337
238	0xbfb34c0f3e4d8572	-0.07537932654442672
239	0xbfb3b7b3c11e1abc	-0.07702182259354634
240	0xbf903c840549133b	-0.01585584909686875
241	0x3fa15816ce04a2ce	0.033875191353507014
242	0x3fc00ceb88e7d461	0.1253942888721751
243	0x3fd2576c507d7bf1	0.2865858827626076
244	0xbf9d379c1092fbe8	-0.028532446395498484
245	0xbfb9560684d0e7c5	-0.09896889441088692
246	0x3fad19a61113ffd3	0.05683630903695271
247	0xbfaf1f0f32ea76a3	-0.06078383919269228
248	0x3faf66428a89e72c	0.06132705632349053
249	0x3fb7949a72d6c708	0.09211125663457775
250	0xbfc817f7e4afd9cf	-0.18823145548203832
251	0x3f94906a7f24ad31	0.02008215333004876
252	0xbfa81a203b7e015f	-0.047074324857933496
253	0x3fcd1e9732170cff	0.22749605127146563
254	0x3fc9b3ab21ffa378	0.20079554710471448
255	0xbfa8f5f4c7a7e111	-0.0487514966698105

fc_hidden_list.0.bias f8 [50]
0	0x3fbeb32c125a1f37	0.11992145011947462
1	0x3fb820de6ec96440	0.09425153927567553
2	0xbfb3794c43bf9882	-0.07606960920347386
3	0xbfc23a93e6915e7a	-0.1424126506633348
4	0x3fb0dfb250d21712	0.06591333840523486
5	0xbfa2292072637a29	-0.03547002216668133
6	0x3efcbd1ca4c6cbd6	2.740737754587302e-05
7	0x3fbdd3aff4000555	0.11651134211571919
8	0xbfa71d1c3087acb3	-0.04514396755606622
9	0xbfaf3a7baaed92aa	-0.06099306546710655
10	0x3f99bb7f6aa42534	0.025129309543477876
11	0x3fb20964bc59cef8	0.07045583341988138
12	0x3fa3ccec32a0fdf9	0.03867281072643531
13	0xbfb26f195ed6edc8	-0.07200773778361402
14	0xbfb7fbd1382140ab	-0.09368617649420467
15	0xbfa737e1d1843828	-0.04534822161268465
16	0x3fb998640cc22309	0.0999815493725117
17	0xbfc0e964b1b74413	-0.1321225993874867
18	0x3fba943c585b8bb3	0.1038243976322935
19	0xbfc25fecc8aa764a	-0.14355239675653514
20	0xbfb822c4ad9baefa	-0.09428052175979565
21	0x3fb7bd853b9a9250	0.09273560242815759
22	0xbfa2030a6da226fa	-0.03517944896982601
23	0x3fb780af95bdff87	0.09180734067740391
24	0xbfae21e33b2d09ea	-0.058852292035698486
25	0x3f71db430e4b0f2c	0.004359495102736404
26	0x3f9cf5676cacda41	0.02827989197541059
27	0xbfac82d49717f50b	-0.05568565697101676
28	0x3fb7bdd42d3ca6c2	0.09274030785004597
29	0x3fc31c561368948c	0.1493022532241962
30	0x3f93b4a6d2e14a58	0.019243818875404578
31	0x3fc45971f77d9ffc	0.15897965034969264
32	0x3fb56fc1944ee815	0.08373651381307952
33	0xbfb7f76c576c86c2	-0.09361912855504342
34	0x3fbb58fc5f76c938	0.10682656603492979
35	0x3fc56292b60c236d	0.1670707119849583
36	0xbfb664094b9ec60c	-0.08746393295475502
37	0x3fb103c8a730c477	0.0664639862232138
38	0xbfbb148c36089205	-0.10578228301216804
39	0xbfba24f34c9b2cb9	-0.1021263181711899
40	0x3f817936302cbb9d	0.008531974167991946
41	0xbfbb1405a623a13d	-0.10577426248676587
42	0xbfa38cb1b4742ad6	-0.038182786253022336
43	0x3fbcb4e7a346f265	0.11213538872011382
44	0x3fc1ee3c621d964a	0.14008288183974776
45	0x3fb8541663627f32	0.09503307272325115
46	0xbfbc8cbf86662221	-0.11152264624809806
47	0x3fa46c14d594eef3	0.03988709552001337
48	0xbfb75833f3a9ad62	-0.09118962000655054
49	0xbfbd4802e0e06032	-0.1143800543799223

fc_hidden_list.1.weight f8 [50, 50]
0	0x3fbf1f2cab337a7f	0.1215694349261671
1	0xbfbbde88e45c4338	-0.10886436057286353
2	0xbf843ff7cda4e96b	-0.009887634242308171
3	0xbfb6409a6309f0f7	-0.08692326467457066
4	0x3fb201bda9cbdc03	0.07033906360071289
5	0xbfa12d2efc6f2f6c	-0.03354784804795838
6	0x3fafa6a1e575f694	0.06181817937884407
7	0xbfaf683150b92339	-0.06134180174246357
8	0x3fa12494464967bf	0.033482202129291753
9	0xbfc62d872ddb99a4	-0.17326440562392265
10	0x3fc52b87d6dc4388	0.16539094916563735
11	0x3fb69dd27dd0b57c	0.08834567615186545
12	0x3fc1c053dd1607cb	0.13868187232225035
13	0xbfb1a8d5210f1ef4	-0.06898243004900079
14	0x3fb2cdaa134fb0b0	0.07345068904368435
15	0x3fb40de836dbd304	0.07833720530818417
16	0xbf563ccecc292c17	-0.0013572711474292337
17	0xbfadb56ed736106a	-0.0580248487194986
18	0x3fb7ee166a76aac6	0.09347667788703537
19	0xbfa2a367edad6635	-0.0364029386170838
20	0xbfc559d88ac7e93a	-0.16680437828456168
21	0x3fafe060205b5299	0.06225872416476825
22	0x3fada10427e99144	0.05786908137523253
23	0xbfb2e0e908759cf4	-0.0737443586018463
24	0x3f956ff8c867801e	0.02093495104952591
25	0x3fb65e58cb7264d1	0.08737711874927646
26	0xbfb457c40ee1ea6f	-0.07946420062391167
27	0xbfc04a02ca615962	-0.1272586334404862
28	0xbfbe932a58e018ed	-0.11943306608018008
29	0x3fc1a7974c3a719d	0.13792697164616366
30	0xbfb392288ade8ce1	-0.07644894972195317
31	0x3fa48a5d02245ff0	0.04011812831066652
32	0xbfb288f9552a3c14	-0.072402556698066
33	0x3fc27a0753552bc0	0.14434901780108866
34	0x3fbd46a7aa86dc8c	0.11435935891391774
35	0x3f9daa9283a08179	0.028970994266388914
36	0xbfa5a2d0f3345977	-0.04225781410984813
37	0xbf7c808b9df11c26	-0.006958527926207691
38	0xbfc07956f484f154	-0.1287029928152018
39	0xbf89dbe137d23abf	-0.012626418605831245
40	0xbfa3deaaf2307c94	-0.03880819517530046
41	0x3fb4aadcee11a1f1	0.08073216259220552
42	0x3fc43c4be69397b7	0.15809010275478183
43	0x3f96c3c4d83797b6	0.022231174179885925
44	0x3fbee7e483a02960	0.12072590077892675
45	0xbfc19417749c777c	-0.13733189767748033
46	0xbfc300442a307fa4	-0.14844562587768195
47	0x3f919939fff655e5	0.01718607544679242
48	0x3f92c6027c08bc0b	0.018333472080652096
49	0x3fa84883aede0bb3	0.04742824086772348
50	0x3fc08a58030064c0	0.1292219175964302
51	0x3f86641a55c0cb9e	0.010933118574120656
52	0xbf8686cc91bd0332	-0.010999296376782295
53	0xbfbef3c3f59dcafa	-0.12090706583493818
54	0x3fbaa1ff934b940e	0.10403439851832294
55	0xbfad7b82e6563c59	-0.05758294164399364
56	0xbfb697f23c79a1ee	-0.08825601555293591
57	0x3fbbdd7c1776e600	0.10884833882200695
58	0xbfc0ac7b609c3e88	-0.13026373116780499
59	0x3facc48c13522a11	0.0561870359025144
60	0xbfbfe4dfbafa986a	-0.12458608927644979
61	0xbfb49e760146444c	-0.08054292231669641
62	0x3fb04e9058e790bc	0.06369878931542677
63	0x3fa1274fcf455808	0.03350304989969294
64	0x3fb136a4772b066e	0.06724002751709587
65	0x3f7be2c4bf503a54	0.006808060211382545
66	0xbf9d5c2e1f425afb	-0.028671951921377375
67	0x3fc2d867c7f32d36	0.14722916854075557
68	0xbfbc1e10a4e703ee	-0.1098337557405242
69	0x3f981dce9846ca3a	0.023551204723569287
70	0xbfb54732ff58ee40	-0.08311766370837237
71	0xbfa462562172831a	-0.03981274755756754
72	0x3fabb87e48d9929a	0.05414194716721461
73	0x3fa587cf4c4fcae3	0.0420517712263029
74	0x3fb95e4318743ae3	0.09909457537672099
75	0x3f8dd252dc0fdf7f	0.014561316815146828
76	0xbfb4bdebf8223a17	-0.08102297599746354
77	0x3faf7fb2bf352690	0.06152113517835034
78	0x3fc1d6d5b671ef0d	0.13936873825502297
79	0x3f90b029b6418bd8	0.01629700827505673
80	0xbfb3e836faf97119	-0.07776206614784477
81	0xbfb0555bbcd60d3e	-0.06380246505982698
82	0xbfb947848359a3f9	-0.09874752241888975
83	0x3f98a0fddd61ff5a	0.02405163444245715
84	0xbfb246c3797779b3	-0.07139226642127632
85	0x3fa8c43edc04fecb	0.04837223468575543
86	0x3fb7cc4ec144ecba	0.09296123713004337
87	0x3fc0f003dc3d3b3b	0.13232467893473107
88	0x3fbc68cdccca1bb7	0.11097418069594665
89	0x3fa4134bfe983664	0.039209723308982786
90	0xbfb4b1eb2024423f	-0.08083982023914248
91	0x3fa577acc7e3fea8	0.041928672218998486
92	0x3f9aad78c8990f81	0.026052367442630512
93	0x3fb36d59df26df96	0.07588731477778618
94	0x3fb633875b739994	0.08672376616195826
95	0xbf8dfd015d5d2732	-0.014642725621928674
96	0xbfae5434905d8659	-0.059236185667725656
97	0xbfc440c912552bfb	-0.15822709460402948
98	0x3fbce2fdd705aa94	0.11283861636699505
99	0x3fc5983158719dda	0.16870705431504868
100	0xbf7c27a04474f92d	-0.006873727840966998
101	0xbfb1113de047150a	-0.06666933751610685
102	0xbf754ff17255013a	-0.005203192854708322
103	0x3fd2994d7e015adb	0.29060685448841433
104	0xbfb29810aa8e35c5	-0.0726328293223651
105	0xbfc360fcc1da34c1	-0.15139731851050978
106	0xbfb055e67bf1a7a6	-0.06381073499656384
107	0x3fbbcb047f9a823a	0.10856655230828319
108	0x3f982cec2e7c3495	0.023608866059522688
109	0x3faff6e69581507b	0.06243057799352499
110	0xbfbf6d18baa8ece9	-0.12275843197942361
111	0x3fb3208e27dabeba	0.07471550438890065
112	0x3fbee0271634d68d	0.12060779850147636
113	0x3fa58a85c13da03d	0.042072467650371405
114	0x3fa08a48a6b22b3a	0.03230502161848965
115	0x3fb22d38179a9337	0.07100248886360992
116	0xbfce748789b51153	-0.2379311964415459
117	0x3fbb8c32db0c15ba	0.10760801170189085
118	0x3fb56cc36d6465b7	0.0836908475943322
119	0xbfc3bb946ac574f3	-0.15416197980349686
120	0x3fae73ce877c5f3a	0.05947728542213189
121	0xbfa797c40f3c561d	-0.046079756603074375
122	0xbfbee6cd9a352593	-0.12070927634080979
123	0xbfba5ea5f02a3900	-0.1030067168560187
124	0x3fae237bec9edb4c	0.05886447204050302
125	0xbf96c48cdac33d8c	-0.02223415456029225
126	0xbfbba6530267a8d4	-0.1080066567298304
127	0xbfa94e469448df14	-0.049425321198610345
128	0xbf6e042700db2bec	-0.003664089373022863
129	0xbfc7f35c14c039b5	-0.18711424840189542
130	0xbfc15b3f7b10b4e4	-0.13559716710134417
131	0x3faabfe7e53b0872	0.0522453753778941
132	0xbfc5ed9e4df087c6	-0.17131403737681533
133	0x3fb2b6c580e983c4	0.07310137173909853
134	0x3fab329ebd3e9839	0.05312057552446032
135	0xbfc866674bcc85a3	-0.19062510682219366
136	0x3fc2afcbda48b134	0.14598987730404078
137	0x3fa99ebe696de011	0.05003924405076544
138	0xbfb1db035b7d505c	-0.06974812492018273
139	0xbfa345a8f7d2453f	-0.037640838863021824
140	0xbfc06b650d46455a	-0.1282774271790384
141	0x3f82c5034803fb92	0.009164834628334426
142	0xbfc8d3bcc208c667	-0.19396171068506193
143	0xbfbb07633f39610b	-0.10558147710378678
144	0x3f9eda0f23ac78b3	0.030128704597807764
145	0xbfbc37873ed250d3	-0.11022229465226312
146	0x3fc35591e6029e7e	0.15104888659447008
147	0x3fb8c8527da7e3c6	0.09680667464989687
148	0xbf72573c78bd3261	-0.004477726189929671
149	0x3fc92d0f53f4c6bd	0.19668761825010064
150	0x3f6b1ec21851a8af	0.0033105650823489134
151	0x3fab01df30aa0fca	0.05274865597769425
152	0x3f91adeb825c6b56	0.01726501448784331
153	0xbfc0ddc86bcda0e1	-0.13176827682332884
154	0x3fab11966ba0f5c5	0.05286855758502499
155	0xbfb2e05a9514eaf2	-0.07373586787882028
156	0xbfbe50b0eab71428	-0.11841874819136022
157	0x3fc193b552cd3b37	0.13732019942332283
158	0x3f7bb40eeeb5819d	0.0067635138796905666
159	0xbfcb250f1b47e2de	-0.21206845123358326
160	0x3f965afae5896ca6	0.021831436405005754
161	0xbfb4cce705a13bde	-0.08125156295248767
162	0xbf88a53f21e45e6b	-0.012033932897380603
163	0x3fb18b755e975467	0.06853421744684028
164	0x3fb76cb6e140b99b	0.09150259970986101
165	0x3fb82fcde41e79af	0.09447943515122036
166	0x3fbb5a8ece8773b8	0.1068505529614886
167	0x3f97954bc35597de	0.02303045634962319
168	0xbf7a90be07a6a0bd	-0.006485693268054313
169	0xbfb58346487f396b	-0.08403434057183794
170	0x3f98894730673a14	0.023961174325274184
171	0xbfa23816d23b521d	-0.03558417621903607
172	0x3f9744d0beb1d37d	0.022723447455479374
173	0x3f623131e2998eee	0.002220723564095076
174	0xbfc3870eb8302a11	-0.15255912774621597
175	0xbfc770865db2417a	-0.18312148642554488
176	0xbfc21f5032e707a7	-0.14158060536834435
177	0xbfafa526f30c8410	-0.061806885880521745
178	0xbfb8a10945ed5017	-0.09620721776201467
179	0xbfac9107160e88a1	-0.05579397339103421
180	0xbf99d8e0febea63d	-0.02524138979757694
181	0x3fc0a60e82690633	0.130067647625809
182	0x3fc4b8657e99afbe	0.16187733346612093
183	0xbfbbca106377a33a	-0.1085520022239849
184	0x3f417f8991f1f9af	0.000534002468967112
185	0xbfc4d9fec5564e70	-0.16290268550493492
186	0x3fad4e323195e09a	0.05723721366206398
187	0x3fc2dbebe3bfd212	0.14733646984645127
188	0xbfc09d77be9c5c78	-0.1298055344311455
189	0xbfa4c75ee4039468	-0.040583577474344434
190	0x3fb769c35b65aeb5	0.09145756703736192
191	0x3fb26e0c525e3651	0.07199170123041056
192	0xbfb62ee6d2e1cd47	-0.0866531624649741
193	0xbfb2300515592fc5	-0.07104522486878213
194	0x3fbc41cff68c6e06	0.11037921685458948
195	0x3fa438433bd13b09	0.03949174981300103
196	0xbfc3a7e94693c2cf	-0.15356174417640608
197	0xbfba51c16e89bcef	-0.10280999134714695
198	0xbfad294480e023e3	-0.05695547173679196
199	0x3f8d4460ecf70368	0.014290578109354704
200	0x3facf2605bdd1b98	0.056536685193854186
201	0xbfb036311d6af767	-0.06332690208634305
202	0xbfa415e4921bbf14	-0.03922952922391523
203	0x3fa7bbd97202c430	0.04635505215390656
204	0xbfa4336a81d5f90a	-0.03945477328214693
205	0xbfaaff2e283cd74f	-0.05272812119657876
206	0xbfbd3ed441a158bf	-0.11423994638730316
207	0x3fb0857859d92136	0.06453659242209117
208	0x3fc0e95dc7eda045	0.13212177526588867
209	0x3fc63676f142355d	0.1735371282597197
210	0xbfab422bbc537ad3	-0.053239218462967884
211	0x3fc29d626883db35	0.14542799094462003
212	0xbfc7b5730c41a558	-0.18522489641626794
213	0xbfc08cb1547183a1	-0.1292936003037797
214	0xbfb1685a7203edb9	-0.0679985550267962
215	0xbf9c07f195cbd156	-0.027374052779991352
216	0x3fa3ffbccb3968de	0.03906049710049485
217	0xbfaa40d73adfe4cd	-0.05127594560321711
218	0x3fd0733dd67aa5df	0.25703378625129675
219	0x3fcce17c840f867d	0.22563129852555966
220	0x3f8595a9d664fd0a	0.010539366584110716
221	0x3fa36a1342f37d0a	0.03791866485857483
222	0xbfb4451e54abebc0	-0.07917966429879097
223	0xbfc4170a1594b433	-0.15695310643914837
224	0x3fc52b733de992ea	0.16538849375788028
225	0xbfb420d13873eb5a	-0.07862575176470213
226	0x3fbfca43155fb9a6	0.12418002387833002
227	0x3fa8f6ee1ff1a9af	0.04875892772618628
228	0xbfc37998b7e14b02	-0.15214833239095787
229	0xbfc7e676b03a1b0e	-0.18672069172699718
230	0xbfb7a6add6cedf40	-0.09238707060182794
231	0xbfc02c2a87ca1cd9	-0.12634784345957575
232	0x3f95b20fe2c03ab5	0.021187065329338412
233	0xbfb5a41fb45ce7ef	-0.0845355811442514
234	0x3f976d01fa340abe	0.02287676896686252
235	0xbfa4ac349ebc3e06	-0.04037632405936269
236	0xbfc0388db6193a99	-0.12672587768107205
237	0xbfa37e0a9f36a45d	-0.03807099526904587
238	0x3fbe20abaf1d23fe	0.11768601441612245
239	0x3fa4a7efe7ab12b4	0.04034375861150377
240	0xbfa7160ee3f56229	-0.04509016545006645
241	0x3fa2098173fb0a94	0.03522877255229165
242	0x3fbb32b0e4a153c9	0.10624223310271853
243	0xbfbc30f15fbf22a4	-0.11012180888713857
244	0x3fc866a39aa3e242	0.19063229609288795
245	0xbf5146bb55cfb5b5	-0.0010544614262884948
246	0x3f9970fcebd5870b	0.0248450774137217
247	0xbfc28bfa7806b110	-0.1448968015732892
248	0x3fbb587f240796b1	0.10681910161619147
249	0xbfba702af3f7b108	-0.10327404457320111
250	0xbf872248096dd898	-0.01129585531974113
251	0xbfb60c1e7838f3a0	-0.08612242159956773
252	0xbfada2a4ca20e108	-0.05788149802578074
253	0x3fc046c8b0dcc9fb	0.12716015468465955
254	0x3fade85a7401fcab	0.0584133402453458
255	0x3fc34892b0403cb3	0.1506522522545076

fc_hidden_list.1.bias f8 [50]
0	0xbfbd9650474169d3	-0.11557485332142585
1	0x3fbf800a7067c0aa	0.12304749721784228
2	0xbfc23596ce1b7595	-0.142260409010231
3	0x3fbcdf761ab6ac1c	0.11278474952875722
4	0xbfbfb4b24d0d2cc8	-0.12385095959796211
5	0xbfb0faedd7b1c763	-0.06632887378671408
6	0xbfa355774b9753aa	-0.03776142881148499
7	0x3fa16f39b2de249f	0.0340517073482911
8	0xbfae8168a6f751ec	-0.05958106077347111
9	0x3fc15be6903441d3	0.1356170848962522
10	0x3fac5efc513e0b1e	0.05541218272903435
11	0x3fbee914007c9fc5	0.12074399005780297
12	0x3fb5e180e8bb79e0	0.08547216112081157
13	0x3fb2e02c63af726b	0.0737331145641719
14	0xbfbc5ecec9ac93dc	-0.1108216516846165
15	0xbfbe13b934ae95bd	-0.11748845611744847
16	0xbfa311b27b1e54e8	-0.03724439385329409
17	0x3fbb637d17fcd21c	0.10698682628282835
18	0x3fb97bf37246bfd9	0.0995475915904075
19	0x3fb7c3b9974ab04e	0.09283027595182711
20	0x3fa43b23733e336c	0.03951369077467501
21	0x3fa9f11a24a9c08c	0.05066758821055925
22	0x3fba552f40fbfd72	0.10286231361896173
23	0x3fb4ee5f4f9fb6fa	0.08176227277700923
24	0xbfb1dbc0a75c6049	-0.06975940786321745
25	0xbf9e55f05f1f227d	-0.02962470608307165
26	0xbfba2b4ebb36819f	-0.10222332068088356
27	0xbfbd8e714bc210b4	-0.1154547510105342
28	0x3faedb52e2e2c0a7	0.060267057605757395
29	0x3faa4bfd9ca64827	0.05136101281381427
30	0xbfaca2341c096d71	-0.055925014898742804
31	0xbfaa7da119d8b711	-0.051739725499244334
32	0x3fae999ad97d19bf	0.059765662239942945
33	0xbf62ad404fee0cc1	-0.0022798782442251257
34	0xbf908f077a22d890	-0.016170613126370414
35	0x3fc772d2b88a4190	0.18319162379021892
36	0x3fc1eab936de22ed	0.13997569254959022
37	0x3fba84ada41e93a2	0.10358700997183104
38	0x3fa072fa59d1ca35	0.032127212013524455
39	0xbf6deced7228f8cf	-0.003653014909359965
40	0x3fb97770a88b646d	0.09947876086097703
41	0xbfa528c1b0885a26	-0.04132657318057324
42	0x3f99ce59daee3b2e	0.02520122908350258
43	0xbfb01f55bc777146	-0.06297813273653671
44	0xbfaff9c69d41a394	-0.06245251340516869
45	0x3fb0fb8270fb7d1f	0.06633773096426808
46	0xbfbd69208790d804	-0.11488536176406688
47	0x3fb66b436e8d4dc4	0.08757420968077329
48	0x3fc3af14306d0d0b	0.15378048290777033
49	0xbf931f975662d055	-0.01867519821890114

fc_hidden_list.2.weight f8 [50, 50]
0	0x3fa01cb68ba73196	0.031469063327310184
1	0x3fa844a76000184c	0.0473987869918778
2	0x3fb98869e5e1808b	0.0997377573235118
3	0xbfb6ac62d9b047dc	-0.08856790365851402
4	0xbfb36c8699c46956	-0.07587472204287357
5	0xbfb75c9e7a4d033c	-0.09125700460300562
6	0xbfb285d1e09aabd1	-0.07235442861080733
7	0xbfa5a55e988ec21a	-0.04227729427600853
8	0x3fa62f4c52bfaa2f	0.043329606152685655
9	0x3f6ab6ac33c26c12	0.0032609332393582846
10	0xbf9b1cf2a92c4ab0	-0.026477614951611883
11	0x3fbd9ed6c67ee293	0.11570494028172566
12	0x3fbca066e9cd8367	0.11182254036022031
13	0xbfc5f1cae6209a14	-0.1714414237660128
14	0xbf96ea9024e9731a	-0.022379162075924254
15	0xbf634008ee18ac4e	-0.0023498701491653567
16	0xbfb4aaf2be9b172e	-0.08073346284353697
17	0x3fbcc432987612f8	0.11236873838613437
18	0xbfb5b260e1f0779c	-0.08475308910462193
19	0x3fa45b2195b9fed6	0.039757775809446436
20	0xbfb874257bfc080f	-0.09552225377049715
21	0x3fcdb826ce68a475	0.23218236044457155
22	0x3fa9b7f32a3515de	0.05023155107714293
23	0xbfc73bb581094aa8	-0.18150967407799112
24	0xbfc19d5c89cebb62	-0.13761479119190329
25	0xbf4f1d580a2804a4	-0.0009495429879394957
26	0xbfa75f045818b4f7	-0.045646796945542016
27	0x3fb48c8dbc64d60c	0.08026967858753425
28	0xbfc0402b949677b3	-0.12695832019102013
29	0xbfb8744ebc5f1b29	-0.09552471255220198
30	0x3fbe64d8a9ffcf2f	0.11872629309055747
31	0xbf9033d380a093b9	-0.015822701192650366
32	0xbfc49050af6f1b16	-0.16065414968598962
33	0xbf53ae207f044fd1	-0.0012011830659206422
34	0x3fb31befeabf9a8a	0.07464503747142195
35	0xbfbb997a5ffc648c	-0.10781063884168612
36	0x3fae9abcf6c21958	0.05977430832085656
37	0xbfc3caddf9b3e0df	-0.15462851231109817
38	0xbfb356ba94b9b24d	-0.07554212695112845
39	0x3fc0f9977690c167	0.13261693276718775
40	0x3fb31de8b0cb23e8	0.07467512432334866
41	0xbfb53f569f0b6808	-0.08299771674083456
42	0x3fc4ea1266b782f5	0.16339330687971879
43	0xbfc077d91796785f	-0.12865747119662083
44	0xbfbfb5f0b275adea	-0.12386993748594191
45	0xbf8f261d627f2262	-0.015209416931513068
46	0x3f9a6f426ab14300	0.025815046083439874
47	0xbfc85b7613277fb7	-0.1902911752249545
48	0xbfaa8adf41262d96	-0.05184075994756225
49	0x3f9e98bd679b6337	0.02987953133456075
50	0xbf8f0726ae43608d	-0.015150358384218765
51	0x3fa88e4e461582ea	0.04796070676343851
52	0xbfb1a13082ac009f	-0.06886580648643069
53	0xbfc4bf538d7cc14e	-0.16208881767807742
54	0x3f7177925cd9fde2	0.004264423112203515
55	0x3f9989415372c55d	0.024937649458199974
56	0xbfa4784e872dcfc0	-0.039980367661797356
57	0x3fc0d16c4b4554b2	0.1313910834821051
58	0xbfb7d3fd2f70a9c1	-0.09307844551282242
59	0x3fb810f32db1f453	0.09400863519290796
60	0x3fc033327da17cee	0.12656241545025843
61	0xbf89791eee3e966d	-0.012438050885815255
62	0xbfbe8c0cfa3c8afb	-0.11932450398721166
63	0x3fb162685d878a17	0.06790783198770388
64	0xbfc17c15d68d242e	-0.13659928299083063
65	0x3f86402284d0e01c	0.010864514997692303
66	0x3fc3f776783bb006	0.15598946448096757
67	0x3fbd113ad425f138	0.11354415587806421
68	0x3f96f120bb2e14fb	0.022404204773484242
69	0xbfced5a9cdb2edcd	-0.24089548629659277
70	0xbfa56f96b8733ac3	-0.04186697961414645
71	0xbfc0bc6ee12c6608	-0.13075052256390074
72	0x3fc8c0562ec50985	0.19336964877772914
73	0x3fc30adcecc2a574	0.14876901207507454
74	0xbfb7e17c2905ab91	-0.09328437806622804
75	0xbfa2137fa8c3457a	-0.0353050130376102
76	0x3fbe4f970fa3b10e	0.1184019482786349
77	0xbfc42c2ed6cc95db	-0.15759835708847345
78	0x3faad93eb771582b	0.05243869771281625
79	0x3fc452c477790db0	0.15877586206089012
80	0xbf9449bc01aca3b5	-0.019812524416156403
81	0x3fd3098801006755	0.2974567422657988
82	0x3fbbe88c269905d6	0.10901714269950644
83	0x3fc359c368d7bb1d	0.15117685908577352
84	0x3fd147b2679be260	0.27000103109415896
85	0xbfba84dfdcd5be60	-0.10359000340917524
86	0x3fabfb98c40a0506	0.054653905802306155
87	0xbfb5b3c47b8709f9	-0.08477428451354986
88	0xbfc3a8669d7f7535	-0.15357668581320075
89	0x3fb813b362441aee	0.09405060910294669
90	0x3fc73cb01ec744c7	0.18153954985476714
91	0x3fc218ec6a519ab4	0.1413856047758678
92	0x3fa6142c51cd92e1	0.04312265871593524
93	0x3fb2385eb0cc9f0c	0.07117263618840414
94	0x3fbedc037b8f4c13	0.12054464117618151
95	0xbfb2abcc123a98a9	-0.07293391652146632
96	0x3f93e74b49a7c123	0.019437004442751104
97	0xbfa56424854529ac	-0.04177965285142035
98	0xbfc2fbdbf749cc3d	-0.148311134096362
99	0x3fbfc85307f6d9d9	0.12415045685234051
100	0xbfc52c49fc74d9f6	-0.16541409327483309
101	0xbfb06d1d75169007	-0.06416496380421687
102	0xbf8609ae7ef4d2b3	-0.010760653733634972
103	0x3f7fbd7816c9383e	0.007749051187216747
104	0xbfc17f0804b70475	-0.13668918829174329
105	0x3fa891de6b67a252	0.04798789082616807
106	0xbfa7c21889cc4aaa	-0.046402708836599985
107	0x3fb5c29ac701ddeb	0.0850006805284164
108	0xbfa0d3f909bfbea5	-0.03286722415930158
109	0xbfb2832215f5cc23	-0.07231343303810482
110	0xbfcc1dcc928ef46b	-0.2196593967072745
111	0xbfbceb15c0bf5cda	-0.11296211200475473
112	0xbfb797ad3398d1ed	-0.09215815076533547
113	0xbfb7fc61e46c9d67	-0.0936947996784646
114	0x3fc0357b06e44569	0.12663209759243024
115	0x3f74abaee95be043	0.0050465424044361966
116	0xbfb4f2c8c9c7c2ab	-0.0818295948627205
117	0xbf9d7755798a329c	-0.02877553514786034
118	0xbfbdd74eb8c85ef2	-0.11656658183380467
119	0x3fb593cadad6f0c0	0.08428638308299963
120	0xbf9b053ecc4e0baf	-0.026387196750430494
121	0xbf91664d5a67cb27	-0.016991814272795083
122	0xbfce2c8a2925a0ca	-0.23573424348001587
123	0x3fc5e2efe156109e	0.17098806860679344
124	0x3faf997d44fd8a0c	0.061717905685117896
125	0xbfaf8c39d0c5fcdf	-0.061616713271172456
126	0xbfc35d1298e0e7bb	-0.15127785172245276
127	0xbfbe4318f6b4df26	-0.11821132681950228
128	0xbf90b5e403e3f1fe	-0.01631885789628206
129	0xbfb1b0c71ac7c882	-0.06910366443460883
130	0x3faabadb1065221b	0.05220684600005062
131	0xbfc097f526110266	-0.12963737829888372
132	0xbfc460ba2507e03a	-0.15920187767165023
133	0xbfc89ad036322e44	-0.19222452780046428
134	0x3fb556f01dd16327	0.08335781791664641
135	0xbf83a5379cda11b5	-0.009592470621336039
136	0x3f699edd137ac742	0.003127509869806839
137	0x3f81c238c3eb18ad	0.008671229819253357
138	0xbfa6610146cd63a5	-0.04370883931432638
139	0xbfa9bd24eb627454	-0.05027118085238472
140	0xbfca52c66d7a391c	-0.20565109582498386
141	0xbfa4f299ee78cb59	-0.04091340099366531
142	0xbf9738ad15ce0738	-0.022677139716967804
143	0xbf9085a31b620472	-0.016134785219496135
144	0xbf6f7f513e8ccd96	-0.0038448893359601206
145	0x3f9851246ebc5395	0.02374703336598179
146	0xbfbcdf51dadc693b	-0.11278258889470731
147	0xbfbb1031e5ca94be	-0.10571586475505776
148	0x3fc2ec627570ab7c	0.14783888563519187
149	0x3f31e0f0ca43c8ce	0.00027280691780541273
150	0x3fb63d2e3371a6a8	0.08687103992419998
151	0x3fbc58c3ce87c188	0.11072944442981314
152	0x3fbc65d5254fccec	0.11092884217196158
153	0xbfa0c0ad1e1cffcd	-0.032720003057420045
154	0xbfc31413f575f8f5	-0.14905023084060756
155	0xbf96a85ff7d66f26	-0.022126674176987347
156	0x3fcf09160c77e6e1	0.2424647866135308
157	0x3f84f47eafd382c4	0.010231961956777787
158	0xbfa296793f66c745	-0.03630427264159989
159	0x3fad70f6e282b6ad	0.05750247492811176
160	0x3fbd975df77ac19b	0.11559092800121677
161	0xbfc1083880aaf2ce	-0.13306337626081305
162	0x3fc6f6f8f0bf0d96	0.17941200022879106
163	0xbfc49abeafa6e893	-0.1609724385905947
164	0x3fc56925fcbc3eb4	0.16727137413589832
165	0xbfa764bcc7a67feb	-0.04569044053209822
166	0xbf8b9b76d21916c6	-0.013480118071253055
167	0x3fb2baf1f2173e4c	0.07316505585117133
168	0xbfd34be0e54ecbc7	-0.30150625603999653
169	0xbfcda9c13769a9bf	-0.2317430038995791
170	0x3fc735de02483103	0.18133139716554333
171	0xbfc237f8710f59e2	-0.14233308334833256
172	0x3fbb1703c062e50e	0.10581992575579965
173	0x3fac1343b7a8d31f	0.0548344766324702
174	0x3fb3b9319b2200fe	0.0770445827238326
175	0xbfb625b3214e2ee8	-0.08651275218124577
176	0x3fa4ef6f6e14695f	0.04088924616572131
177	0xbfc362e1fd543e2a	-0.15145516271194143
178	0x3fae8f7d692f584b	0.05968849095340597
179	0x3fb6d58d9a6350dc	0.0891960622714722
180	0xbfbf395d2dcbbe63	-0.12196905487120939
181	0x3fb2332a41e875de	0.07109321698268142
182	0xbfc094390e0830a5	-0.12952340302615997
183	0x3fb5d1d7001f135a	0.0852331519409523
184	0x3fc741416c354522	0.1816789415702625
185	0xbfca3f15b285585f	-0.2050501939472182
186	0x3f92209d5a1b4ab2	0.01770254003970235
187	0x3fcdabefd1934121	0.2318095944706409
188	0xbfb3cd0c8c9b0aaf	-0.07734754975084955
189	0x3fa0afa1e9ad2265	0.03258996942037554
190	0x3fd110b804c849e2	0.2666454359724907
191	0xbfbd1ab140a9ecf2	-0.11368854359345784
192	0x3fcafb8a83755540	0.21080142420638914
193	0x3fa858e4838a33b3	0.047553196961508525
194	0x3f9075586489d856	0.016072636734371613
195	0x3fa6c21bb6d3d82a	0.044449678485691216
196	0xbf9b7e5392a97902	-0.02684908468869996
197	0x3fc53a19430df98c	0.16583553098821502
198	0xbfbbe35f32c1e9da	-0.10893816937633663
199	0xbfc49c3baaa35b04	-0.16101785499514432
200	0xbf5ce3c15fd36592	-0.0017632854863250708
201	0xbfac8203cea93427	-0.0556794347545309
202	0x3fc8bf139a1cb048	0.19333119416239897
203	0x3fbc85b1b361a625	0.11141501073293421
204	0x3f4dd9307c2071b4	0.0009109007589845259
205	0xbfc529b86440d137	-0.16533570189643296
206	0xbfbe3dfbccbf5822	-0.11813329457012903
207	0x3fbda01e508ae397	0.11572446314211358
208	0xbfc6a7db5ff48be8	-0.17699758706393642
209	0xbfa5e2fda3b62b4e	-0.04274742721016499
210	0xbfc5376ddfcb73a3	-0.1657540648219796
211	0xbfb90a1f1fffb0b0	-0.09781069308491186
212	0x3f963d0b0d594b5b	0.021717236222979035
213	0xbf85b8f9d6e03d4b	-0.010606719846718923
214	0x3fb1ff9e051f0dfd	0.07030665993720926
215	0xbfb1ae141c0804da	-0.06906247791632172
216	0xbfc041cd0ddce51f	-0.12700808693788532
217	0xbf723b3e191238df	-0.0044510293675001636
218	0x3fb4bb6d8a2bef26	0.08098492263155474
219	0xbfc61b155f6a84fa	-0.1727015224360356
220	0xbfa48a664dbfbd5b	-0.04011840533336893
221	0xbfba56691afcdcd3	-0.10288102063065034
222	0xbfbd87e6b3a01a49	-0.11535493741403359
223	0x3fb963a202916c07	0.09917652666756292
224	0xbfbbbd919d941584	-0.10836134049539764
225	0xbfae7ca794371f02	-0.05954478916424756
226	0xbfacf625c1d5ade4	-0.056565456305943035
227	0x3fbe075eac1f3dad	0.11729995443533055
228	0xbfb507af2be43adf	-0.08214850255556481
229	0x3f8608de9f2542b7	0.0107591049497001
230	0xbf9b43eb7695ac64	-0.026626280892213208
231	0xbfbd140dd3049550	-0.11358724977306633
232	0xbfc2f565906e4daa	-0.14811391403473567
233	0x3fc3865e4c7eeec3	0.15253809676311478
234	0x3fbccbea74f9ed3b	0.1124865089022266
235	0xbfc35d3b64dc48af	-0.15128271508053134
236	0x3fc79b6a0d595271	0.18443036701013996
237	0x3fbfa40ab0b00557	0.12359682859098108
238	0x3fa714077b041c1b	0.04507468582783521
239	0xbfc566ddc9ecde91	-0.1672017322505224
240	0x3fa39b002fa02f51	0.0382919366967075
241	0x3fc0915739c13479	0.1294354469304471
242	0x3fb1e85a20639b20	0.06995166102170147
243	0x3fc1aa0c20e806f7	0.13800193411594083
244	0x3f92f1af0429c112	0.018500074986548994
245	0x3f602ee7c4bf3d57	0.001975491211829865
246	0xbfbab426d9370c04	-0.10431139758206603
247	0xbf9dbd6fd3ff5826	-0.029042956651970674
248	0x3f9c81ac053e4359	0.027838409252186256
249	0x3fb2a097fdd40d83	0.07276296565037481
250	0x3fba62c45cf29961	0.10306956547956282
251	0xbfa610b19ce37863	-0.043096113587794325
252	0x3fbb769d5746076f	0.10727866535856177
253	0x3fc4f3e88305ffeb	0.16369348905209277
254	0x3fbb8d0f873c6984	0.10762116481456557
255	0x3fbf6561e9cc5c4f	0.12264072378126055

fc_hidden_list.2.bias f8 [50]
0	0xbfbaf72ff4e5faad	-0.10533427933658386
1	0x3f2085c9387e03f4	0.00012605744654695073
2	0x3fc1a953a5f10a53	0.13797994234671992
3	0xbfbad4f58de0f7fa	-0.10481199945294853
4	0x3fad622dcc72f583	0.05738967056957291
5	0xbfb094f1cf154683	-0.064772713715934
6	0x3f8d6d5c14ac8c85	0.014368743306084628
7	0xbfb9846153bb28ec	-0.09967621130195753
8	0xbfb6c1b97a45bff8	-0.08889350161712162
9	0xbfb2d9af22627e9a	-0.07363409604522034
10	0x3f4d8b09144bec14	0.000901584084743392
11	0xbf99464dd4b224e4	-0.02468225107853507
12	0x3fbc3ed1c1a26c93	0.11033354737667116
13	0xbfa5f35d5baaae5d	-0.04287235015848687
14	0xbf9633199c12f41d	-0.021679306174281366
15	0xbf699b4adaaf4d2e	-0.003125806998903655
16	0xbfbc3c1354d403e9	-0.11029167958260157
17	0xbfc09c10c57dfcd3	-0.1297627415005765
18	0xbfb120c19f976047	-0.06690607210418974
19	0x3fb60980f00ae5fa	0.08608251438536021
20	0x3fc0861075f36be1	0.12909131774253438
21	0x3fc63b1517cfa9a7	0.17367805159240143
22	0xbfb8d1204b731cc4	-0.09694101182968767
23	0xbfbd1cceef108994	-0.11372083031213825
24	0xbf88f4c16d71c715	-0.012185584213713999
25	0xbf946247c5e35bf3	-0.019906159833080705
26	0x3fc38c841af019f3	0.152725709107656
27	0x3fbc8041e236825f	0.11133205197121175
28	0xbfb34219dabafdc2	-0.07522737112139224
29	0xbfb3f25437d01800	-0.0779163967382317
30	0x3fb3c5f85e1d621e	0.07723953531002123
31	0xbfb2b23151670f83	-0.0730315040337342
32	0x3fa5c81519507639	0.04254213270199298
33	0x3fbb06c325c033f9	0.10557193442964764
34	0xbfa03d151f9e38bb	-0.03171602259600222
35	0x3fc135d98599cb1f	0.13445586226915737
36	0x3fb1628d06e1b333	0.06791001718529514
37	0xbfbe6d80477d7a4e	-0.1188583540474408
38	0xbf9f6364b3ddc7af	-0.0306525931150145
39	0xbfbfc5eeda0204ee	-0.12411396810968586
40	0x3f9f5eaba949d5d2	0.03063457699541578
41	0x3fb7aebd12f333e1	0.09251004898688066
42	0x3fc37e9eed69376d	0.15230166046461183
43	0xbfb2bc3190b83f79	-0.0731841066665292
44	0xbf86db580934240f	-0.01116055276954067
45	0xbfb9c5bb25ceac4b	-0.10067338631658733
46	0x3fc3f2184104f008	0.15582564520616438
47	0x3fa6527f1418df7e	0.04359814758612311
48	0xbf20d78b8275ad9e	-0.0001284940528692825
49	0xbfad7e4812ba1ada	-0.05760407665825591
