savedModel/poisson1d_sin/ParticleWNN_3/trained_model_final.pth (torch, 65815 bytes, 10 tensors)

fc_in.weight f8 [50, 1]
00000000: efa8 ddb4 8e85 e83f 855c 7ac9 3e24 e73f
00000010: 3f19 a42f c227 d73f 6e9a 5c4c c0f6 c93f
00000020: d87a b2ed 52ac c13f dd19 219b 4ba7 ebbf
00000030: ac87 b4dd 501e bfbf 5e17 7cac 56b8 e9bf
00000040: a4d8 9d0c 2d09 acbf 3e4b 274b 69aa de3f
00000050: 03e8 fa38 d59a e7bf a46a 3f44 6963 d73f
00000060: abb6 f59d 989b e7bf 24db 16e5 321c cfbf
00000070: 975f e130 3f2a d1bf 3c41 8d31 e724 bd3f
00000080: c12b f91e 9502 d6bf c1ab a90a ea24 e53f
00000090: 2df1 40c1 651b df3f 3a0c f633 006d d7bf
000000a0: 9f98 115b 29fc cabf 71de 7a63 0d44 cf3f
000000b0: 5f88 e012 a69a 9abf 7bb1 c4bf c3c3 cdbf
000000c0: 065c 120f efe1 e73f 0457 eaf7 7dd1 ecbf
000000d0: 0295 dcb5 042b d63f c357 86e5 4ca6 ea3f
000000e0: d364 2281 7635 ee3f 177d 308c 7a94 e13f
000000f0: 0be8 93c7 4724 bf3f 2a62 9a4a fb3e cc3f
00000100: e1f6 4d23 2ed1 e1bf 201a ec4c 845f e8bf
00000110: b126 7861 eb63 e73f 20c8 32ab 6639 d53f
00000120: a7dd 91ae dab3 e1bf 7e46 54f8 a201 ee3f
00000130: db29 cdc3 77cc e23f e4d1 4612 f5f8 c83f
00000140: 6c66 872c 9c60 e5bf d0d1 744f 7164 bfbf
00000150: a8ab f86e d4c0 b5bf d2f6 7828 3cbb c63f
00000160: dac8 b12d 689f b9bf 1242 c384 2895 d13f
00000170: 9bf6 389e 8662 a6bf 213f b1c3 0f67 ea3f
00000180: d927 a762 6be2 d0bf 7fd2 5a99 7fec e0bf
0.7663033993278797 0.72317447043578 0.361801668667244 0.2028427479610459 0.13807140928562123 -0.864171793925205 -0.12155633366322033 -0.803752266773454
-0.05475750712405272 0.4791510805054492 -0.7376505005734092 0.36544257798019886 -0.7377436719086367 -0.2430480593299872 -0.2682035424563706 0.11384434661636517
-0.3439076235269419 0.6607561310059894 0.4860472094767541 -0.36602788042381784 -0.21082035967555598 0.24426429135722885 -0.02598056307045515 -0.23253676284492628
0.7463298124665705 -0.9005727617356745 0.3463756347649253 0.8328003390222353 0.9440262338786404 0.5493748415064229 0.12164734480384724 0.22067204611518437
-0.556784695581623 -0.7616597654712827 0.7309471992204718 0.3316284820422215 -0.5532048615995578 0.9376997804813099 0.5874594520803912 0.19509757416166373
-0.6680432195382315 -0.12262638273097726 -0.08497359952222772 0.17758895851323203 -0.10008860698306724 0.2747288986693387 -0.04372044259478721 0.8250807592503159
-0.2638195479781849 -0.5288694377146185

fc_in.bias f8 [50]
00000000: 5175 5f1b e437 ce3f 5eba 4aef 74f8 d4bf
00000010: d28b e992 8baf eb3f 8289 154c 1685 b03f
00000020: 6bd0 d24b 14d0 be3f 1f64 ec5b 6a25 e23f
00000030: 38cd 7a52 f8c8 efbf d8f3 eeb6 079e e6bf
00000040: c121 da2d abff afbf 8918 60ce 8275 ebbf
00000050: 3b60 013b f2fc e53f c65d 57c3 ba21 ecbf
00000060: b71d 95ab 8858 debf 5658 7279 6286 e6bf
00000070: fd9e 1839 1501 f0bf 37c0 f216 c645 e43f
00000080: f49b c569 46f2 eabf 6662 c156 8b83 e8bf
00000090: c131 87b2 8a88 e53f 5eff 975a 32ab ec3f
000000a0: 774c 871f 3a98 c1bf c475 c556 6779 db3f
000000b0: 1cd5 052f 9650 d7bf e815 4372 ec33 e2bf
000000c0: 96dd 6dac fcd4 ca3f 462b d4a6 c563 debf
000000d0: 98a0 0377 52fa edbf 7cd2 9588 e7e9 d13f
000000e0: f610 bd16 5bb4 ebbf df7c 8619 283d d4bf
000000f0: 6d29 d9c3 9a3d bb3f 473a 3825 fc34 71bf
00000100: a02d ab68 3e93 b7bf 3cfe 0585 1be3 e0bf
00000110: 9b80 eb5a 6de6 eebf 8382 787c 255d e23f
00000120: 79fd 14e3 9121 ef3f 47c4 a374 1884 d93f
00000130: e267 70d9 fa59 dabf bf23 7b58 6200 bbbf
00000140: 3bcf 94b7 8415 ea3f da94 9a8d bf18 97bf
00000150: bcd1 7bc5 93bd e43f 8fef b909 3202 db3f
00000160: 42a6 9588 bc7e de3f 4c14 b094 eac5 dbbf
00000170: 19e9 36bb 1c6f a93f 00a9 2a63 1ffe de3f
00000180: 3c31 0a33 e8b8 dabf 9f61 0b3e a188 b73f
0.2360806592613849 -0.32766459816313 0.8651788586979541 0.06453074796221439 0.12036253787192812 0.5670673175219497 -0.9932824717456361 -0.706790787975133
-0.06249747214048141 -0.8580945997971564 0.68712722324836 -0.8791173758754034 -0.4741536784753992 -0.7039043781285368 -1.000264380485475 0.6335173080642623
-0.842074591241611 -0.7660576528970295 0.672917698562337 0.8958980340394012 -0.13745810069540074 0.42928489183199425 -0.3642936190802446 -0.5688383323364947
0.20962484759705252 -0.47483960430024685 -0.9368069004531376 0.2799013933029426 -0.8657660907852278 -0.3162327050467421 0.10640876084759095 -0.0042009210042253725
-0.0920905118502362 -0.5277230833161819 -0.9656283164768128 0.5738704138821763 0.9728478846736116 0.3986874713000969 -0.41174193605695397 -0.10547461185627947
0.8151267610141767 -0.022555344598590966 0.648141751966754 0.42200900029978866 0.47648537958466275 -0.4339548542050735 0.04967584405263121 0.4842604130195838
-0.4175358293948823 0.09192855610616

fc_out.weight f8 [1, 50]
00000000: 8716 8816 b94e c4bf 4279 974e 674f c83f
00000010: acf1 23a1 8c00 c3bf def4 a9cc 9907 c2bf
00000020: dd14 05ac 545d c53f 52d1 151c 0d59 c03f
00000030: 2641 0f50 52f5 b03f a51d beeb da19 c13f
00000040: 8d4b 6923 505d b33f 6115 effd 08da b43f
00000050: c65c 4439 0938 533f 275a 503a a424 bb3f
00000060: c991 3bc0 94a0 c6bf 0096 ca9e 9801 b43f
00000070: 50a5 058a 3ef1 b0bf 9345 4e7f f8c1 b3bf
00000080: 1d75 c9fc feac afbf 413b be7d cb15 c4bf
00000090: 8bd4 068c e454 c6bf c2d2 7c40 2761 b13f
000000a0: 40c8 05b8 7acb a23f bf93 b9e0 daa6 b7bf
000000b0: 8fb7 e488 b7ac c23f 756f 7bcd ff46 b7bf
000000c0: cc18 b4cc 92a9 bdbf 4bf3 10cf a337 bc3f
000000d0: 7bc5 b07b 6a87 bebf d197 d163 78ad c0bf
000000e0: 0db2 703a c565 b43f a737 6cc7 01a0 c1bf
000000f0: 3eef 33be b7e3 c2bf a9dd 75a6 b710 ba3f
00000100: 044f 7906 1587 b3bf 82f1 081e ae51 c13f
00000110: 70d9 86b2 87f8 c4bf 0901 5426 378d b63f
00000120: d48e b1ba dc1b bebf b43b c931 16a6 c4bf
00000130: 3a10 30b6 2543 c33f 550c cb25 7abf c2bf
00000140: 7270 2f2e 1d08 c6bf 7c55 74e9 bd29 b23f
00000150: 12ef 69e6 2e05 b2bf 4027 f594 044a c8bf
00000160: c07b babd d9e3 8fbf 9921 dc02 e07f a43f
00000170: 08c4 5cba 9028 b43f aa7f bb86 9e11 a3bf
00000180: c30f 0b96 c692 c3bf d59b d57f 0482 c43f
-0.15865243530440784 0.18992320382580813 -0.14845426433738618 -0.14085695737222798 0.16691072844893187 0.1277176272520913 0.06624330954150945 0.1336015368544682
0.07564259399923241 0.08145195197638123 0.0011730279994191391 0.10602785514525036 -0.17677554499017692 0.0781493556665609 -0.06618109578780218 -0.0771785078816463
-0.06186673007753483 -0.15691512718009373 -0.17446572148552195 0.06788869213489604 0.03670867439622372 -0.09238975511978163 0.1458959024834567 -0.0909271122613385
-0.11586873529094815 0.11022399716689539 -0.11925378341472552 -0.13029389261208604 0.07967789341700655 -0.13769552457273201 -0.14757439410447576 0.10181758703207912
-0.07627993972829122 0.1353051802306134 -0.16383453576208806 0.08809227643724084 -0.1176126437945258 -0.16131856375656428 0.15048667331586946 -0.1464684185540103
-0.17212261920110766 0.07094942998477011 -0.0703915894063665 -0.18975884698221002 -0.015571309187462634 0.040038109158618336 0.07874397802221733 -0.03724379915888616
-0.15291673971489503 0.1602178215209437

fc_out.bias f8 [1]
00000000: a590 fb1d c7e1 d93f
0.4044053833770341

fc_hidden_list.0.weight f8 [50, 50]
00000000: 8696 455b f05d bc3f cb12 e465 0980 a03f
00000010: 07fd 6f36 e235 bfbf 2524 480c 5d74 b93f
00000020: e236 b484 c3a5 ae3f 604c e28a f88b ad3f
00000030: 3d43 05f2 7dd1 bb3f 194f b32c dd0d a03f
00000040: 57e8 4157 4582 c0bf 4243 ac12 0234 a43f
00000050: 9947 44f0 1494 b1bf c15c adb3 c8f9 8ebf
00000060: 47bc 1ac9 c1f2 b9bf d660 2976 0a7d be3f
00000070: 724c 40c5 7b87 bbbf be4b 207c 4a8e 98bf
00000080: 2fbd 33b4 b2bb a23f 688a 13cd eb96 c3bf
00000090: 6b13 63c7 559f c03f 8aeb 4e26 16a3 a2bf
000000a0: 8c56 23ac 98fd b93f 1ef5 f281 95de b13f
000000b0: c523 f5a5 8001 bf3f 0936 9534 60c5 bd3f
000000c0: 7be6 6992 4c23 c23f 24c5 969b b416 a8bf
000000d0: dc13 9adc 3b6e c0bf 3f07 960d 8e82 a83f
000000e0: dc44 833c fe03 8ebf f7c8 60b0 0b35 9d3f
000000f0: 9e85 bc24 47cb b03f d8a0 5c25 fc5c 973f
00000100: a147 cdc2 5100 b4bf de18 dcc6 bd38 a6bf
00000110: a5c7 b6ae 1d1a acbf 192d 0dea 3288 b13f
00000120: 9906 10b0 5443 b8bf 0c81 59ee c760 c1bf
00000130: 6038 910b 5ec9 b3bf e52f ed4c 58a2 c23f
00000140: 58ae 869d edcf 97bf a60d 4a91 be68 9fbf
00000150: a7c6 c6ae 6141 a0bf 803d 3770 6017 c1bf
00000160: 5d14 8320 75a1 bfbf 79a3 84fc 2976 b1bf
00000170: f413 8dfa 9031 c2bf a9d3 9848 22e3 9a3f
00000180: 4e51 2ad3 8942 b43f 045b 741d 1dc0 bebf
00000190: 2587 99ec a168 bbbf cd8b d67e 0808 bb3f
000001a0: 42d4 1f2f e77c b5bf d2ce 1c4f 8f3a af3f
000001b0: 4ebd dd5c 9ace a3bf eb92 015d 3a7b bc3f
000001c0: 354c 04d1 938b 8e3f 1665 b42a 898e babf
000001d0: a47c f2e4 b503 b43f f6f2 7644 24f9 883f
000001e0: 036e 699c f644 b73f 09ff fa9b 2a31 c03f
000001f0: e384 f46f e665 a3bf ac50 bf2a 8bb8 a93f
00000200: 60bf fb09 08b7 b03f 4cc3 343c 7a22 b73f
00000210: 9973 278f 7236 c0bf f3df e536 fa2c a83f
00000220: 2788 0722 4072 c23f a9e1 6ca0 f2e3 bebf
00000230: 2c9f ce8d e905 c23f f872 7ac1 b0cc b13f
00000240: 42fe 1fa0 b7aa 87bf 2b66 5339 3af6 bb3f
00000250: 178c 7d03 573e c1bf 2147 eb26 bcd0 adbf
00000260: 0358 deba 4aa3 653f 9cfb bdaa 36b0 973f
00000270: 7ea4 ba46 dcfd bbbf 48ab 2615 c553 ac3f
00000280: 62b2 668a c947 c0bf 032e 1cbe fd6f babf
00000290: e58d 1a1a fee9 b53f edcf 16b0 b20b ad3f
000002a0: c7e3 f3d6 44fc a43f ee50 09a4 3e39 be3f
000002b0: abc4 92ea c04f 92bf 6960 bce3 b334 bc3f
000002c0: 3afb cd00 c0ec b9bf f74e 6101 fc13 bbbf
000002d0: 83f2 599e 4bc2 bebf 7cc0 13c3 a95f 83bf
000002e0: 6fdc f321 9635 b2bf 95aa 645b 47a9 8fbf
000002f0: ebc9 6f6b 6aea 803f c529 051e e1e2 b73f
00000300: b109 6a28 dc87 b43f 2395 1e8d 8d40 963f
00000310: 5c79 b6f8 066d a6bf d2fa bf2d 4c99 bc3f
00000320: fe2e 0df3 cd71 8ebf 96aa 4add 0c9f c33f
00000330: d36e 37ca 65a6 a2bf be9b d287 b3ad bebf
00000340: 663e d593 5ddf a3bf 6d49 acf3 9cd1 a4bf
00000350: 46c1 f84d 905d 5ebf d9eb e0d8 1d85 b0bf
00000360: 5f42 f848 c4b5 b9bf bdc5 a51a 96bd 853f
00000370: d7e0 f9a9 99d6 a23f 9ad6 43e6 2e30 b03f
00000380: be26 8257 fc4c b7bf 85e2 21f9 0750 6d3f
00000390: 189b a7b0 a5d0 96bf 5af1 1587 39aa babf
000003a0: 2fff bc2f fe43 7d3f 7cba f0f4 25b3 babf
000003b0: 62d3 3032 7e3b a53f de66 fe08 a8d6 b6bf
000003c0: 7e94 cff4 9b78 b1bf 5a60 a5bc 8119 b2bf
000003d0: 63e9 fa17 d7f7 bebf 284a 1c2e 3a40 b83f
000003e0: 8260 d656 6e59 c5bf 125a 774d 63d2 8fbf
000003f0: de1a 9f95 f647 8e3f c452 6209 24ac b03f
00000400: 3825 c9cb 1e13 b8bf e4ab 25de 981d af3f
00000410: 618c 7903 0d26 a93f 2f72 679c ecbf c0bf
00000420: 135f ef7a 293f af3f f3b8 217d 5f28 b3bf
00000430: ef09 5cbc 3a40 a6bf b139 8a9f ab80 a63f
00000440: 0342 3962 23fc 9dbf ad3b 8b3b 7d41 bcbf
00000450: 9e4f 44f9 4c75 c43f 5db8 df3f 68e4 a43f
00000460: 52b3 3f33 7f0e acbf b0e1 807c 5f11 b5bf
00000470: 61de 609e 0054 9fbf 4a22 a3a9 2521 b7bf
00000480: 289d 0f4f c670 98bf 0340 3a3b 8e44 8b3f
00000490: f4ea cb82 9ec3 963f 1c0c b63a 8b45 c1bf
000004a0: a6b3 a376 73ab 913f 8f27 cf7a 5e34 b43f
000004b0: 47b3 ec76 65ee 983f 1151 9b30 c253 c33f
000004c0: 23ef 4042 4f08 b3bf 538d 7e9d 2f0d b33f
000004d0: e94c 1b57 f1c3 9fbf 3d32 163f db4b bf3f
000004e0: 7890 41ac 0d79 79bf 7065 2892 f7d3 c03f
000004f0: b2f0 05ea 3395 abbf 7575 1e3c 8e65 c13f
00000500: cffc 6cfe 18a8 b8bf 405f e0e6 3c6d 9ebf
00000510: 62dc 4401 ed4c b9bf 3a99 7838 0a6f b93f
00000520: 3852 6b3d a5ab 9d3f a357 6ce2 5906 5f3f
00000530: 8958 ed80 7033 b93f fd15 5f22 946a a8bf
00000540: 5fa7 25b7 cde8 983f 45d7 6788 4135 7d3f
00000550: 9e8b 0ea5 b677 993f ac2d 127b f462 aa3f
00000560: 1265 eff1 f582 c23f 1795 646c 2970 c03f
00000570: 5da2 65aa e882 ab3f 7ded 45b0 3882 ba3f
00000580: 94f0 e854 79da 87bf 5a8a f182 a473 683f
00000590: 78e3 aafb a9ee b13f d740 ead4 67e3 a6bf
000005a0: c537 1ef4 4ad8 af3f fb56 6bd7 ea78 663f
000005b0: e56a cc2e 9447 b8bf fa01 7f48 09d0 babf
000005c0: e526 1061 39f7 9d3f c4f2 ba7d 7836 c3bf
000005d0: 1833 d123 c258 bc3f 2abf fbf3 f3d2 b13f
000005e0: e7b3 4a18 a70a c33f 1f33 d92b fd11 babf
000005f0: c80b 8e86 a98e a83f 5ab8 8229 3198 b4bf
00000600: 0d2a 4cc6 c718 a13f f85d dac6 82f8 babf
00000610: 4043 d867 5b7e 63bf c342 4ef2 8fc3 c23f
00000620: e079 a627 0430 c4bf ad54 d65e 5364 c3bf
00000630: 4c61 5cb6 e1d4 b9bf 2d51 e6a2 b90b adbf
00000640: 06fa 1f89 35c3 b63f 3d6e 619f 5aaa c53f
00000650: 4211 68c5 95a0 babf d9e5 d42e 17e9 aebf
00000660: 824c c841 c9fb b0bf 1535 1058 a6db aa3f
00000670: e2d4 fcd6 78fa 91bf c888 7953 cb04 c83f
00000680: efc6 af60 1ef3 c03f 0ee4 5c32 e19f adbf
00000690: 48f2 2b1a d5b4 a3bf 0ec0 1bb0 84e0 bf3f
000006a0: 807b 8113 2634 ae3f a493 62bd 3bf1 b6bf
000006b0: 4f88 72bc aa7f ac3f 6ecc e090 30bb c0bf
000006c0: 67d9 c381 a311 bc3f 85fc 9d96 3d2c 9abf
000006d0: 60c7 7fff 0910 9abf 8057 32d0 884d a53f
000006e0: 1198 fabe 6778 b2bf 1928 08f3 0649 8a3f
000006f0: 0f5e 62ce d51c b0bf 5cff 812b 06e4 c03f
00000700: fa08 5889 0b90 b5bf df17 525e 1aad b23f
00000710: b676 bcdb a991 babf e50c 78e2 8d02 b73f
00000720: a463 dd03 762d b4bf 20c6 263d 553f 9dbf
00000730: d2bd 183e 1197 babf abb3 3ba0 3c0d b1bf
00000740: 80d9 5aac 5ff9 b33f 889b ea8b 0936 b8bf
00000750: 24ea ceda 1ec6 b6bf db61 0787 1254 a8bf
00000760: 7885 f143 0ab9 9bbf 8d2a 342e 9a6e c0bf
00000770: 16a2 2c2c 19d5 ac3f 68cd 4c81 ab5a b9bf
00000780: 5ab2 66cc b65a b4bf 0fd4 4dac 4ece b2bf
00000790: be17 4fc3 ffe8 b23f 94ce 3fb8 83de b1bf
000007a0: 62ce f629 d91d bd3f b224 a3e2 b913 b03f
000007b0: 88a8 0f3c 17a8 a5bf f747 5877 4c94 bdbf
000007c0: 6bfc c4ec d7b0 aabf 845f ed67 5108 b43f
000007d0: 9920 2418 3597 943f 637b 5c96 eec6 b8bf
000007e0: da45 8bf5 4cf5 aebf 11b8 9323 fb7b b23f
000007f0: ecd9 fc50 41b1 b43f 395b 3338 b6ba ae3f
0.11080839374843707 0.03222684258256477 -0.12191594914473934 0.09943181562279386 0.059858426999296346 0.05770851798401888 0.10866534384446154 0.03135577364596837
-0.12897555122964618 0.039459290294081587 -0.06866579881559999 -0.015124862654984363 -0.10136042747284178 0.11909547219090952 -0.10753606382086092 -0.023980296922740278
0.03658827256901486 -0.15304324639790257 0.12986252055830091 -0.036400501419357204 0.10152582361782886 0.06980261252006811 0.12111667682360323 0.11629296573411109
0.14170224331956036 -0.04704822921065446 -0.12836406966758218 0.04787105480046571 -0.014656053754523439 0.028522665634405944 0.06560177466282943 0.02281564691580304
-0.07812987333207257 -0.043401651883003586 -0.0548867488645464 0.06848448003909303 -0.09477738665011727 -0.13576602113881397 -0.07729137213138548 0.1455793738954291
-0.023254120578413 -0.030673005693200438 -0.03174882181646171 -0.13352590064321745 -0.12355739635229797 -0.06820928969376706 -0.14213764413776142 0.026257072144477842
0.07914029508021267 -0.12011892289261189 -0.10706531549797356 0.10559132668144784 -0.0839371194886818 0.06099365082482468 -0.03868563064213025 0.11125530977876578
0.01491466027849784 -0.10373742382616444 0.07818161811381913 0.012193950023055216 0.09089604681633294 0.12650044075234515 -0.03788681141510055 0.05023608109300545
0.06529283756003457 0.09036983461261378 -0.12666160573908483 0.04721815033093426 0.14411164914696536 -0.12066570679315326 0.14080542968917464 0.0695295784339115
-0.01155608613407744 0.1092258825259697 -0.13471496267729385 -0.058233146429883094 0.0026413402146756595 0.023133138819953922 -0.10934235312255855 0.05532661326591054
-0.12719077356213676 -0.10327134982451729 0.08560169350908316 0.05672987365269919 0.040987159003584454 0.1180609846572371 -0.01788236076089748 0.11017917928654843
-0.10126876849788582 -0.10577368768400307 -0.12015221229553145 -0.009459806695730537 -0.0711301644222304 -0.015459592320060703 0.008259612468440166 0.09330565436281464
0.0801980589549547 0.02173062490296219 -0.043800561771819985 0.11171413533154897 -0.01486550233825978 0.1532913284803114 -0.036425763067851634 -0.11983797136291138
-0.03881351880647514 -0.04066172098659391 -0.0018533620094665789 -0.06453119797599473 -0.1004297903202853 0.010615513504236835 0.03679351997283369 0.06323521730140627
-0.09101845871387135 0.0035782008863488057 -0.02228030100550446 -0.10415992305747093 0.007144921222618269 -0.1042960856436625 0.041469520212934055 -0.08921289653371953
-0.06824660040691019 -0.07070170264830847 -0.12096924148037184 0.09473003030533589 -0.16679171791179576 -0.015538001824933399 0.014785696450315407 0.06512665967086223
-0.09404175257909209 0.060772683255741616 0.0491184298268983 -0.13085706364553704 0.06102876306220941 -0.07483479313825452 -0.04345878171263339 0.04395042727002208
-0.029282143468948984 -0.11037428573329917 0.1598297326205484 0.04080510883055475 -0.05479810238452977 -0.0822963408435331 -0.03059388128914831 -0.09034953490766742
-0.023867701125621782 0.013314353163224274 0.022230602963626958 -0.13493481032136934 0.017255596271684624 0.07892408846160336 0.024346909888822734 0.150993608220809
-0.07434554450531698 0.07441995234562641 -0.03102089971691849 0.12225122728541123 -0.006218961152715356 0.13146872173892232 -0.05387270194748463 0.13591173110482271
-0.09631496631208168 -0.029713584510403068 -0.09883004456502101 0.09935058478058503 0.028975087999088184 0.0018936040666565977 0.09844115398058952 -0.04768813056538688
0.024325575164233167 0.007130866992602074 0.024870733093517942 0.051536216758076264 0.1446216040920168 0.1284229068052489 0.05373313026467905 0.10354952148002457
-0.011647174743409296 0.002984830199737315 0.07004797357775583 -0.04470371698437397 0.0621970580096867 0.0027432047603309618 -0.09484220640699055 -0.10473688144612217
0.029263397740613057 -0.150099812881214 0.11072934507792487 0.06962513643861415 0.14876259504435937 -0.10183698959845032 0.0479634262801692 -0.08044726623003964
0.03339218421577437 -0.10535447459039193 -0.0023795876757123635 0.14659308749516783 -0.15771533905076662 -0.1514991963455591 -0.10090456678552079 -0.0567300807335037
0.08891615484024137 0.16926129133467951 -0.1040128333043571 -0.0603720898311157 -0.06634195190444994 0.05245704483977868 -0.01755703746967619 0.18764630866923526
0.13241939278628176 -0.057860410116013936 -0.03848901695707646 0.1245196275665423 0.058991613274648635 -0.0896184289327509 0.05566152143843849 -0.130712576619405
0.10964414518443776 -0.02555938941759141 -0.025451809138707815 0.041607165732030715 -0.07214973843164808 0.012834600726836997 -0.0629399899356644 0.13195874332813673
-0.08422920325395813 0.07295384218932054 -0.10378514876034725 0.08988272456194897 -0.07881867975574025 -0.028561908585919338 -0.10386760488540084 -0.0666082278437005
0.07802389104731411 -0.09457454362801176 -0.08896057931898632 -0.04751642130185348 -0.027073059460581445 -0.12837531333964983 0.05631331123578691 -0.09903976351488597
-0.07950918665182752 -0.07346049982682266 0.07386778372082767 -0.06980155227921109 0.11373669886125407 0.06280099661957442 -0.04229805572670481 -0.11554410852139073
-0.05213045850040817 0.07825192248617269 0.020108060453850916 -0.09678546114853996 -0.060465245221745526 0.07220430010394831 0.08082969882239127 0.06001824794809924

fc_hidden_list.0.bias f8 [50]
00000000: 6b83 29fa fb8d 80bf 6b2d a06e f5a7 abbf
00000010: 0457 1299 139b c0bf cc2a c31f 97b3 b9bf
00000020: f18c b8ea 7e16 b6bf 7200 e698 a1af c0bf
00000030: b626 4123 d7d4 a7bf 63f5 11c5 8410 b5bf
00000040: 3690 53a9 9d7a bc3f a131 6a81 609d b9bf
00000050: 42d9 7840 70f4 bb3f 6a0d a99a 1801 a3bf
00000060: 8417 935e f33e 9abf f46d 1a22 4b1a b4bf
00000070: 0e8b 3988 930c c23f 5a09 cd65 d7b9 bf3f
00000080: 2565 2462 7e3f c03f b8c1 fbc0 522e a03f
00000090: 350c 3f99 e0d5 c2bf f916 c5fb e884 a9bf
000000a0: d74e 1bc4 0480 b1bf 843c 08ee f359 c3bf
000000b0: 8754 2a9b e818 b53f 575b df52 8e27 b33f
000000c0: af50 9fdf 17f3 913f a765 fc27 0b6e b7bf
000000d0: cfb5 3c7e 4716 b5bf d455 88b5 61e8 bb3f
000000e0: 10a1 a5b0 7417 b9bf 482b af85 2bff b2bf
000000f0: c923 b670 07b4 963f fd28 7ae7 9d32 b73f
00000100: 0102 29f6 7848 893f 2cbe 4723 a404 b3bf
00000110: 59f0 e070 bd5b a3bf 4404 cdf5 ce44 ac3f
00000120: ea09 13e1 3e68 a13f 0497 3668 c304 c2bf
00000130: ed61 b9ce 6135 bc3f c600 f8fa 5374 a8bf
00000140: 59cf 4c36 6fe4 93bf e676 5c12 708b b0bf
00000150: 2f46 9b76 483a a1bf 452f 5d2a c24b b53f
00000160: 0449 00d2 ba13 b03f 761b 8b1d 93b0 b5bf
00000170: d011 fb52 8b48 a73f 16a4 b348 b1ae 9f3f
00000180: 8c7f 87d3 e5da bdbf da9b 47f6 a1ed b3bf
-0.008083313533633526 -0.05401579833422939 -0.12973256086541352 -0.10039658093880205 -0.08628075819483506 -0.13035984006637907 -0.04654571824410196 -0.08228330432208035
0.11124596961923391 -0.10005763206044672 0.10919858526253726 -0.037117737655104246 -0.025630762717603797 -0.07852620680426253 0.14100879813766948 0.12392946467756386
0.12693767349336685 0.03160341840510078 -0.1471520183823444 -0.04984214852679076 -0.06835965907822171 -0.15118264315285412 0.08241132534233674 0.07482232592825021
0.017528889678786793 -0.09152288175791644 -0.08237120468103075 0.10901461297938592 -0.09801415741606356 -0.07420608533645379 0.022171131376612672 0.0906161012773374
0.012345261585438473 -0.07428956853231544 -0.03780929568208142 0.0552124667215215 0.03399845597734326 -0.14077036465203474 0.11018954560257273 -0.04776251257499235
-0.019426095666133267 -0.06462765167494985 -0.0336477894576429 0.0831872323444119 0.0628010523508103 -0.08472556563638797 0.045475343589291506 0.030939836561547272
-0.1166213647297793 -0.0778447366970875

fc_hidden_list.1.weight f8 [50, 50]
00000000: ed3b 586e 7f8f 8b3f 13a8 4c74 078e b53f
00000010: f15b 888b e541 babf e460 923c ff78 9e3f
00000020: b393 fa2f 7cdc a1bf dc06 7cf5 eb50 babf
00000030: 5076 776a 65f9 c4bf 2449 b457 d69e c13f
00000040: e147 b8f6 a273 b33f c3bf 259d 7963 78bf
00000050: d644 cc5a c45a a8bf c01d 32da 7440 bbbf
00000060: e854 8676 09e8 be3f 368e db88 6126 c2bf
00000070: 17a0 40a2 46de ac3f 15f6 ccf1 8748 bebf
00000080: 5f71 7e86 f90c ab3f 365a deba 92cc babf
00000090: c8da 1bc2 51b5 b6bf 5e22 dff3 647f ba3f
000000a0: 6816 c528 3b80 b8bf c868 b004 874c b53f
000000b0: 5667 e464 f141 b3bf ea3f 688b c158 b13f
000000c0: 46b5 4f3b 88f3 c03f 200b 12ea d159 ad3f
000000d0: 543a 4b1b 7217 7dbf 048b 69d7 0b3f b93f
000000e0: 8cd8 c6a2 10de c1bf 928f 6e0f ec82 b33f
000000f0: 2a0f f92c 4d9f ac3f 20e6 449b ad24 b33f
00000100: e9bc 4a9c 79ed c2bf cbe8 80d2 5de1 a7bf
00000110: 2062 9969 1bfd c2bf 1cdd 2e1b 2fa2 94bf
00000120: 4a71 4953 17a8 c03f 93b8 7b80 9ac6 c1bf
00000130: 5c2a 99d8 1904 a6bf f4bd 217d 935a b1bf
00000140: e636 f6ff d44a bf3f b9af 833f aa7c 873f
00000150: 0d8c f623 9e25 bb3f 2c6d 1556 e3a1 9cbf
00000160: fe83 901e 12b4 a53f 3117 cb89 58e1 963f
00000170: d830 8d6e 3181 83bf d516 bbc8 56b2 70bf
00000180: 11e0 a7ea ce06 99bf 4e81 7c91 bd1f b2bf
00000190: 719a 9748 ec0f ac3f 75bb 4025 9307 c13f
000001a0: 8511 f745 73e3 9e3f 8a95 9676 0c93 283f
000001b0: 4ec8 834c b107 c33f 8fe5 9f44 4fed a9bf
000001c0: a51c f883 a2a8 b3bf 825f e124 fb56 be3f
000001d0: 5710 676c 8a0b bb3f 99a1 5e44 9194 bbbf
000001e0: 0454 07bc 4369 c5bf 468e f48f 14a4 bc3f
000001f0: 24c6 8ece a30c 5bbf 610d 8c56 4a83 903f
00000200: 6f81 428e e1ab 80bf 4003 c717 d5e5 783f
00000210: bd9a 2647 4e20 a23f a255 bc7d 9502 b43f
00000220: 8541 ad59 8980 c2bf c866 85df 4a81 a83f
00000230: c693 ee2b 0f56 bebf 33f0 6241 8dec b13f
00000240: fb91 5157 af07 a1bf 23fb 77e7 4f6c a0bf
00000250: f423 9182 c696 ba3f d8c0 4994 fdb9 b0bf
00000260: 667a c434 4d76 c03f 8373 8744 e98c 81bf
00000270: 2633 ca19 52e9 abbf 35fc 5c47 7a5a 663f
00000280: 7953 7e2b 8728 aa3f d207 6b74 1083 b9bf
00000290: 5aa8 5253 30b1 bf3f 79b9 a440 88dc c03f
000002a0: 7762 4a19 69af 943f f995 475b 68be bbbf
000002b0: 133f 0ed1 ce9f c0bf bd51 ae66 934a 803f
000002c0: cc15 e986 60cb b03f cf48 c8a6 2b91 b8bf
000002d0: bce0 ffe7 6bef 90bf 0213 ed0c 80d5 bd3f
000002e0: 763b c193 deab 973f 0285 9a18 2927 c0bf
000002f0: d7ae a6fc 078f b1bf 1c7d 8068 ed5e c03f
00000300: 80e2 36c3 60ce 88bf d3dc 4f0f 6e0b 4dbf
00000310: 03f4 be7b 8b62 b63f c4c7 049c fc1b 9ebf
00000320: 8e22 d419 c6c0 bd3f 0c23 e554 662b c3bf
00000330: a854 a1cd b3c8 b5bf f495 15e1 cdd9 c13f
00000340: 5dbd 6276 fae2 bd3f 8e69 91bb fa91 acbf
00000350: 2592 8dc8 57af be3f 15b0 ef4a 4a6d c0bf
00000360: 5966 9fa5 b0da abbf 5dee 5489 14ea bbbf
00000370: 4a8a 134d 9697 b43f 1ffd 1b69 e487 a7bf
00000380: ac23 2423 ceca bcbf 42d2 7b02 aa98 bdbf
00000390: 4afa 9a09 0e90 77bf dece 5f49 8eac adbf
000003a0: e54c 6fa5 2211 9b3f a407 5348 ed8f c3bf
000003b0: fe46 2518 e7b4 b3bf 40d4 0c76 fa5a a13f
000003c0: bf0d b0d6 2453 a33f 3dbb e9ed 566a c03f
000003d0: 2289 a7ec 8875 b33f 740e 8b5b d589 b43f
000003e0: 7c60 d023 3f2e 9b3f 687e f3c8 5e46 c0bf
000003f0: cf59 e261 b14c ad3f e700 718b 1e33 a03f
00000400: 55f1 2bad f3b5 bfbf d46b f9a0 50d8 853f
00000410: 37f7 fe31 b983 893f 65f8 003a 3e2e b33f
00000420: db72 c65f d29e adbf 18ed 7891 6c07 b2bf
00000430: d47b d8f8 e55d 9b3f 8c6e 9852 8b90 b93f
00000440: 2793 8505 67f9 b73f 4b31 f8d5 103c 97bf
00000450: 9ab8 d280 7555 b9bf 603d dfa8 61b5 9bbf
00000460: bf5e 0738 9ff5 ad3f 7c76 52c2 88f7 ba3f
00000470: 300c 3f27 404c 863f feee 0c4c d02f 9fbf
00000480: cb7e c073 030c 6fbf c846 59e0 f7ea 97bf
00000490: 7d6f 06e9 e9e0 ae3f c64f 7041 27bc a3bf
000004a0: fb7a ae7d 0eb3 a8bf 5be6 baf1 b6c9 bf3f
000004b0: 51c6 d0d3 215f aabf cf68 d1d7 374d 9dbf
000004c0: c37b 39f2 29c3 bd3f 5257 b24c 5369 af3f
000004d0: 77f1 1c1e 0558 9a3f 6334 3894 425e 943f
000004e0: b755 d40b 8173 a73f 346c 411d 3ab1 af3f
000004f0: aa8c 86c8 4ab9 bebf 0da5 e665 4f18 c2bf
00000500: 209e 6429 ffa2 9ebf 0ba2 4fca 945d bfbf
00000510: ff28 565c 2688 b13f f6af 04e8 bae5 ad3f
00000520: bc40 232f 1b14 b63f 4fdc cb57 4921 693f
00000530: 2480 cbeb bb73 8fbf 6ffd 23b5 c0f5 a93f
00000540: 5e66 66a9 5ec3 b73f 069b a067 2938 a4bf
00000550: 1261 7fa0 5ffd aa3f 4d10 09ea ddfe bfbf
00000560: 3121 1107 6c26 b53f e424 dbaf 82ff 99bf
00000570: 44f4 37cc 5f73 b73f 7684 7dd8 d2b7 c13f
00000580: 0623 ca4e 21d4 b4bf 101b a30b c59a 62bf
00000590: 534d a06c 2a29 a13f a57a 5421 8f22 903f
000005a0: cacb 5b92 9269 ad3f 51e8 7f46 61a3 babf
000005b0: 4da9 3d06 8ecf 773f 30ed 229b a991 af3f
000005c0: 5fd5 f5ca bb51 b53f d4fe 13ab 8891 b4bf
000005d0: 6005 e3af f59a af3f 6ddb 53a6 bf81 b2bf
000005e0: eaa2 3f62 9e8a 9f3f 24b8 5aff 375b b3bf
000005f0: ecf9 b87d 3378 a7bf 10c9 d68e bbc4 b13f
00000600: 2fa3 38e0 9860 bcbf 4657 2496 64ab 963f
00000610: 5ce0 aa9e 0a18 903f 5f37 d87e 82f3 c33f
00000620: a4dd 5f44 44be b7bf 6a66 4332 05fd a8bf
00000630: 48d7 e740 d481 b4bf fe14 cc01 e58c a2bf
00000640: 2a04 b492 27d9 7abf 7bfb 05f8 b9c2 bf3f
00000650: 345e 897e e59a b9bf b588 a508 abb3 b6bf
00000660: d196 537c 9bd8 b23f a620 1c9c cfe3 9e3f
00000670: 5607 4550 340e a93f 68e2 79a2 0ea2 bd3f
00000680: 5506 3c61 6c7e b13f 24f9 9aed fbad c1bf
00000690: c379 ea4c 2f61 a73f 12f2 cd85 96e3 9ebf
000006a0: 6484 0691 08ff 97bf 6f0e 68a5 b111 babf
000006b0: 4a13 0938 8a86 b73f 09db b07b 7b12 9cbf
000006c0: 9678 46a9 d41a a4bf 19cc 4a30 dd07 9f3f
000006d0: af59 5328 eea3 c2bf a504 f405 6d19 aebf
000006e0: 9e33 e7cd 94ee b8bf 1cbc 8f48 0c61 af3f
000006f0: 0a51 ac5d 2b96 ba3f a75c 89b9 1b71 a3bf
00000700: a2ed f4ab b036 b7bf b89f 40b7 d643 c33f
00000710: ca1b 85c8 292b b73f 056e 6677 d408 77bf
00000720: bf0a 1e50 52c2 ba3f 17e5 2e66 51ff ad3f
00000730: 063e 819e eb96 b83f 0f78 65de 466c b33f
00000740: 0cac 34be 1d45 b53f fcef 1af4 479d b2bf
00000750: 2989 151b fa14 aabf 4472 7c45 9222 bbbf
00000760: 461c ca62 c646 c0bf 5478 b8c9 4235 97bf
00000770: 92a2 74f9 0113 a7bf 347b 492e 0146 ba3f
00000780: bcb9 f94e 1e3c 973f 8ad4 4380 6210 b23f
00000790: d2b4 1b6e 787c 71bf 79b7 73c7 5f55 6dbf
000007a0: b546 883a b09c b0bf ea1e c9ff f735 943f
000007b0: 2f3b 329a 339e bd3f e70c cb22 6371 bfbf
000007c0: d13a ecac 50d0 aabf 0043 54e1 26f1 b43f
000007d0: cbfa 43f2 24e2 b8bf aad6 775b 4430 c0bf
000007e0: fc4e 6794 eb96 b63f 2798 efc9 f279 c1bf
000007f0: 1072 67ba 5b26 c2bf 0ed4 d9ab 5ced 91bf
0.013457294039680401 0.08419844235746181 -0.10256800324019345 0.0297584419937217 -0.034885292870320404 -0.10279726737283162 -0.16386096666876648 0.13765982897218365
0.07598322413858184 -0.00595424180424681 -0.04756749733327019 -0.10645227744145469 0.12072810310049287 -0.14179629499914065 0.05638333063717498 -0.11829423573814098
0.052833364169802215 -0.10468403875561524 -0.0887042139910178 0.10350638345620086 -0.09570665116651755 0.08319896568756058 -0.07522495949924965 0.06776055959221564
0.13243201156675805 0.0573258970480508 -0.0071024377145492874 0.09861825951660924 -0.13958938549120992 0.07621646286730613 0.05590287374482579 0.07477841416120912
-0.14787216311876897 -0.046641284891352074 -0.14834921508988064 -0.02014993289386978 0.1301297337221377 -0.13887339852903277 -0.0430000378515458 -0.06778833203292561
0.12223559617106225 0.011468248427682558 0.1060427511024928 -0.027961303834087278 0.04238945601560572 0.022344001207577683 -0.009523760019554947 -0.004076327324303815
-0.02444003398156275 -0.0707968216124801 0.05480898271689661 0.13304366415965388 0.03016452898533963 0.0001874878610525317 0.14867225872109419 -0.05063865387632937
-0.07679191324142438 0.11851472521209241 0.10564484736011202 -0.10773570937329281 -0.1672749202831768 0.11187866701634971 -0.0016509627987314557 0.016125833065428256
-0.008140337137149982 0.006078560251297216 0.03540272348918936 0.07816442794531622 -0.14454762343167374 0.04786142328766868 -0.11850066015774904 0.07001574369763901
-0.033261756333363444 -0.03207635593934401 0.10386315047902867 -0.06533799047770417 0.12861027790582397 -0.008569548038332325 -0.05451447071854991 0.002728689981182276
0.05109045415807762 -0.09965613214720229 0.12379743608713181 0.13173010975283342 0.020200388115514358 -0.10837414005762715 -0.12987694938464553 0.007954742022584388
0.06560328763688189 -0.0959651262458323 -0.01653832057488168 0.11653900447442925 0.023116567390668995 -0.12619508458468692 -0.0685887328933704 0.12789695360786701
-0.012112384755583294 -0.0008863723184039614 0.08744117518558885 -0.02940363600027475 0.11622274523336726 -0.1497619547392549 -0.08509372492092615 0.1394593571705368
0.11674466505313803 -0.055801234623419224 0.11986302038491965 -0.12833527239797662 -0.05440284749756747 -0.10904053070856308 0.08043803579088507 -0.04595865042755975
-0.1124695621293898 -0.11561071930538794 -0.005752615770403377 -0.057957121331041014 0.02643255362256704 -0.15282979995214163 -0.07697910632603208 0.0338972348312514
0.03774371262263853 0.1282452260670314 0.07601218965240666 0.08022817120495934 0.026543604432021514 -0.12714752971713783 0.05722574539065627 0.03164000942388317
-0.12387011506865993 0.010666494286104035 0.012458273733382803 0.07492436328991088 -0.05785233897333849 -0.07042578269549826 0.026725381196339118 0.0998618199013725
0.09364932904061317 -0.02269007020918083 -0.09896025080772333 -0.027059102947359803 0.05851457175202545 0.10533957237427133 0.010887623975469024 -0.030455832139735677
-0.003789908163540056 -0.0233572703057863 0.060309705443812846 -0.03854487108051745 -0.0482410934848669 0.12417167092908114 -0.05150705061568018 -0.02861487631558007
0.11625921405491994 0.06135044394720403 0.025726394617991723 0.019890823647120814 0.045803101247809 0.061899009772524854 -0.12001483340877664 -0.14136688686020485
-0.02991865816252759 -0.12252168597445505 0.06848373178778287 0.058393326590106584 0.08624429608176148 0.0030676300506189756 -0.015357463963880554 0.050703069793594284
0.0928248561453073 -0.039490980052781 0.05271433672140992 -0.12498270953898434 0.08261752293140458 -0.025388757689857835 0.09160422073178248 0.1384223515588336
-0.08136184857916015 -0.0022710655731289567 0.03351719451907322 0.0157568325131431 0.05744607960323085 -0.10405548068220695 0.005813174040535008 0.06165819185977239
0.08327840523800976 -0.08034567047797775 0.061729123802716 -0.07229230700236906 0.030802225824944886 -0.075610637514473 -0.045838936898224464 0.06940815198212058
-0.11084895586158149 0.022138187087953363 0.01571671098165016 0.15586882775863395 -0.09274698895739292 -0.048805391679434276 -0.08010603508577419 -0.03623119017542285
-0.00655475099779416 0.12406503968484899 -0.10001978244087512 -0.08867901764964155 0.07361766610446387 0.030165904906454565 0.048936495588818005 0.11575404612256934
0.06833531736267535 -0.13812207319092196 0.0456633359328751 -0.03016505424192146 -0.023433812953616587 -0.10183248794788267 0.09189666622212403 -0.027414254593362695
-0.0392672020563946 0.030303436348457866 -0.14562775582335294 -0.05878773400946472 -0.09739046122486036 0.061287292344666094 0.1038539031690712 -0.037972322844035226
-0.09067825506365648 0.15050777385590464 0.09050236840731354 -0.005623655268574894 0.1045276113127711 0.0585885464892703 0.09605286235568408 0.07587092332457267
0.08308587926573824 -0.07271241864776806 -0.05094129162422895 -0.10599626728475992 -0.12715987991052397 -0.02266411167340039 -0.04506689233887075 0.1026306856160602
0.022690270967751877 0.07056251174420161 -0.004269094877355788 -0.003580748623440874 -0.06489087513935028 0.019737124430576104 0.11569521441036267 -0.12282390212481041
-0.052370568379151224 0.08180468560409437 -0.09720068850217982 -0.12647299257485162 0.08824036000379104 -0.1365340696349346 -0.14179560281526493 -0.017507026661821405

fc_hidden_list.1.bias f8 [50]
00000000: bcf3 7c64 23da 8c3f ae78 ad42 4826 a23f
00000010: d1d6 4e05 8732 c03f c646 7944 f59f 5f3f
00000020: 9a89 937b 7996 c23f 72af 05e0 138f bb3f
00000030: 7159 941d c2fe 593f 5465 42b4 9a98 bf3f
00000040: f782 93bf 350f be3f b9ea 259a 8c7d abbf
00000050: 8b31 4209 fe95 a3bf f8e1 8d7f 7bed 923f
00000060: 2d20 2cb7 866e 803f 2746 63ed a3b0 9e3f
00000070: dd92 3225 27cf 99bf 34a6 dea4 aa52 a03f
00000080: f010 41c2 8b97 b23f ae1e f7b7 ee20 be3f
00000090: 4cf4 4f22 407a b73f 1e04 cc2b 2eab bf3f
000000a0: dfe3 f928 ce6e 913f a007 919d 807d a83f
000000b0: 9626 f054 dc1a b43f efe6 069a e3cc aa3f
000000c0: 8491 5be2 c421 b43f 0564 9f77 9737 bf3f
000000d0: b9d9 6d87 40ff bbbf 4df3 25a5 aa88 503f
000000e0: d4bd b2a5 e685 853f b58c fc8b 4076 913f
000000f0: 4b44 7630 d78e bd3f 77a2 503e 2651 c13f
00000100: 882f 08ff a7ae bebf 8cba 67ca 4924 b23f
00000110: 457a cfec cc3a bb3f 47ec 2512 e6e0 a03f
00000120: b0ab e4f9 5e3c b63f 30ee 35fe e6b5 bdbf
00000130: 5596 76bf f8fc a8bf 7503 631e 5f1d a5bf
00000140: e079 a9a0 0dea a5bf bbb1 6419 978e 98bf
00000150: 26a9 0b09 fdb0 973f fc85 8f1c 417b b7bf
00000160: 64d6 8755 d972 b53f 2a6b 2631 eb83 bb3f
00000170: 4f61 dffb 6583 63bf 6418 685e e5e9 a63f
00000180: 8f33 ab31 531c 8bbf ca1f 852a 8ac8 c0bf
0.01408794069686247 0.03544832052169632 0.12654197463205333 0.0019302268209639302 0.14521711858749314 0.10765194148342319 0.0015866180095308292 0.12342230702269791
0.11741958548692454 -0.05369223958674269 -0.03825372565288195 0.018484048519413293 0.008023312058426846 0.029970704425812535 -0.025204288144453513 0.031880695939730336
0.07262490742238348 0.11769000998821852 0.09170914495185051 0.12370575494061639 0.017024251223549555 0.04783250735682931 0.07853486131366547 0.05234442954265527
0.07864027525244494 0.12194201155161018 -0.10936358744024845 0.0010091463524013078 0.010509302074153938 0.017052658599948162 0.1154608243289356 0.13528898279880128
-0.11985254265181144 0.07086621467144932 0.10636597424989087 0.03296584102187033 0.0868586883631639 -0.11605685907664376 -0.04880502068708085 -0.041239712199518865
-0.04280130945402383 -0.023981438565145768 0.023136094739052336 -0.09172446200638967 0.08378370607518942 0.10748166990235278 -0.0023819915649988875 0.044753234647985335
-0.013237619355459333 -0.13111998630688354

fc_hidden_list.2.weight f8 [50, 50]
00000000: 96d9 8ad7 4277 9a3f dc70 9f9b f5f1 a33f
00000010: eda2 2750 bc10 a2bf 24b0 47fe ee7d 92bf
00000020: 0e18 51d9 cc21 bfbf 2e4d be24 c20d acbf
00000030: a3c6 6ac0 ac4b 823f a258 eea7 5450 b9bf
00000040: 459c 3cde 6404 ab3f 7552 ef34 3ed0 a93f
00000050: 668a 7d80 b843 93bf 64e8 bc94 00c8 a93f
00000060: 2213 0764 bebf a33f 0374 0e6f 644f c6bf
00000070: 5227 d9ae 1a86 a7bf a106 4260 92b5 b4bf
00000080: 9be6 840c da8c be3f ae7c b8d7 8773 913f
00000090: 8005 0103 9cc0 a6bf 3f82 0dc0 3080 c23f
000000a0: e38a 8977 bbe9 c2bf 199d 0bc5 609d 99bf
000000b0: a318 0a5c 10ed a73f 329c e4c5 1620 c6bf
000000c0: 3234 0656 5de8 c5bf f46b 86c6 1901 843f
000000d0: 41d0 87fb 300d c13f 9184 136d a051 c03f
000000e0: 1899 bad0 48ec b0bf 731b 1b3e 4cd2 bbbf
000000f0: 8242 ced9 d245 b3bf 283b 840e d398 ae3f
00000100: 33e7 f207 de00 b23f 8f8d 472d 294b af3f
00000110: 7d26 c9dd 503c aabf ee0f f75c 3bd7 be3f
00000120: c17a ae16 bced ac3f c637 5b0d 3e39 c33f
00000130: 0642 4dd0 3d0d c33f bd3d 9ff7 60ab bc3f
00000140: 8c51 b77e fff9 c43f 84c3 5fbe 77d9 9b3f
00000150: 3d9b e2d7 21b3 b9bf 3a0f dd69 09f8 a23f
00000160: 9199 b20f 7452 b03f ad5b 49b8 6c45 c2bf
00000170: 54b0 f88d ff4b b63f 1685 ccfc b367 b73f
00000180: e69d 872f cfed bf3f 90a5 a453 a2c8 9f3f
00000190: 7fa0 61c6 9953 573f 1e90 dba8 74e2 ac3f
000001a0: 1d6f d027 f8dd 843f aba5 73c5 c7ec 94bf
000001b0: d28c d096 9baf aebf 617c 4b6f 60d5 9c3f
000001c0: 4ea1 bb16 d796 b23f 8c31 01ca 575f b8bf
000001d0: ec1b 8f9e 887b a93f d9f0 f45a 1e33 b23f
000001e0: ea4f 2293 c33c bc3f 7d88 c266 742b a3bf
000001f0: 1adb 9f7d 03b9 b53f f0f3 8cf8 909b c4bf
00000200: d7ff b180 c9e9 b9bf ea99 9f90 11bd c23f
00000210: 9428 e216 b27d b6bf f68b 2094 5a39 bd3f
00000220: 740f 8ab6 901e bb3f 0ded b72f ad6b c33f
00000230: 8b92 1445 fbcb 9abf da4e 90d9 5f6f bebf
00000240: 8624 6e3a 1793 ae3f 3d5a 53a9 c8e0 aebf
00000250: de3e d35b 8876 c0bf 1b45 fb0f b735 bb3f
00000260: bddf c3a1 b8e6 af3f da76 442f 9b3a bdbf
00000270: be88 d579 2141 a53f 5cc5 4173 5d4b c63f
00000280: f8b5 ceed 093d 7ebf e949 6557 5542 c63f
00000290: fec3 6de9 4493 9abf c36a ee82 f58b bbbf
000002a0: cb31 55cd 05d1 b33f cfc5 08e1 a6fd b7bf
000002b0: eb41 f242 dab6 c0bf cc7b 6346 0043 b63f
000002c0: 4a90 9886 af4f b2bf 3f54 7f75 f270 a13f
000002d0: a90c 41d2 e21c b23f 63a0 740d 74ae bdbf
000002e0: 63cc fcc4 a0d4 b43f 55e6 a756 80f6 b03f
000002f0: da50 dfa9 672e c33f e557 e604 1cd0 b3bf
00000300: 1d8f 29b3 f3f8 acbf eb70 3acd 7438 aabf
00000310: 698b cc35 1078 a8bf 7a23 fc39 128e b73f
00000320: 0139 bcff 6120 a4bf ca62 d1da 592a 80bf
00000330: 5bb0 03b4 2c76 aa3f 006b 7343 3a2b c0bf
00000340: 5767 9afc 1443 a03f f8cd 0aff 388f 64bf
00000350: b4b9 7fe1 647e c23f bfa0 2bb8 b1e8 80bf
00000360: 314f e0ac e48e adbf 2549 189c 2d76 96bf
00000370: e517 7ae3 c241 c03f c414 92eb f959 ba3f
00000380: 2146 394e 1ffa bbbf d5e7 288d 54a4 bebf
00000390: 4e12 8be5 52c6 b2bf a697 edba 7361 bcbf
000003a0: 2740 cbf1 e6fa c3bf 94d7 6c87 1262 a23f
000003b0: 2281 dc04 3e11 a13f 4213 c08e 30cd b23f
000003c0: 85de 3f42 160d 94bf b7fc 359b a359 9dbf
000003d0: 78ea 75ab d23f b23f e759 e3c4 7999 90bf
000003e0: d7db 8e05 3790 87bf 37ef ec60 ca67 ac3f
000003f0: 87be f8bd d1bd bdbf b454 608a 0377 c43f
00000400: a508 36ed 04cd b23f bf97 53d6 2abc b43f
00000410: 1b28 9104 9cfe bbbf 35df 0c15 6c5b c1bf
00000420: 0b6c c02b 465b 5b3f 2ebc da9b 42bf c0bf
00000430: 9691 b037 683d 5b3f bbda 54c2 6a06 b73f
00000440: 89be 79a8 2483 6dbf 5e2c 967b 9b58 b3bf
00000450: ddcb 38f0 a41d b3bf ce36 3773 56f5 b2bf
00000460: 35dd 9734 3982 b93f 47bf 62a4 306f bcbf
00000470: 2162 8752 6e1a bcbf bfc1 7f08 082c afbf
00000480: 4fcf ba96 64b3 bebf 488c f8e5 0350 c03f
00000490: 936b 1591 9588 c0bf 1b8d 7531 c3a8 c33f
000004a0: 3e44 09e7 6f9c 8fbf 3f79 a890 ea2d b3bf
000004b0: c304 545f 5a34 b7bf 9af6 12d7 0554 70bf
000004c0: e513 e3f0 c73c bebf 1fec e555 edf7 c2bf
000004d0: 362d 9185 4a7b bc3f a315 5432 60c9 a0bf
000004e0: 7523 e54e 470e b2bf f3ab 3b83 4d96 763f
000004f0: 9c6a fa55 69e0 a83f 15bd b079 9ece afbf
00000500: 5851 8312 f3e9 ae3f de3c 2320 9e9b c2bf
00000510: fcdd 4275 3c68 b63f 44e4 7430 8d74 b63f
00000520: fe98 5f96 653d b23f aad9 1ac7 df2a 78bf
00000530: ab99 f014 f07b 543f 8900 764f 158f c03f
00000540: 4b08 8a99 b53c 82bf a6e6 9b27 37ee aabf
00000550: ce47 0215 f859 a1bf 1e31 faa9 5ce9 b43f
00000560: 4b8c 8389 6b8e a13f 004e 4fba 6072 c03f
00000570: 4f78 fe6a 43cd c1bf 6346 ebd6 d0f4 bbbf
00000580: 87af 9271 dfc0 bcbf 0e6e cf93 6489 b63f
00000590: 9e04 9e1e f942 83bf 180c cfa7 743b 71bf
000005a0: 3d40 4680 842b c3bf 4fea 7bfd 318b a4bf
000005b0: 7c22 9917 6842 b63f b311 36d6 df44 afbf
000005c0: e9f3 0a4b f84d a2bf c9a6 438f 2403 be3f
000005d0: 16a9 ea60 adc6 c0bf 52aa ca38 b9a0 b43f
000005e0: e617 1113 86bd be3f b8f2 beb0 a75a 85bf
000005f0: e1c5 0880 dfa4 aa3f 8a34 565f 5d36 c63f
00000600: 302c 1957 9c5b bc3f 36c6 6f22 17da c3bf
00000610: bf63 0a5c 3972 c23f 885b da8c 0a6f 94bf
00000620: b2fa 8b4b 0e18 a93f 6baa 1acd f60d b73f
00000630: 8a29 8575 ca4a 913f ecef 4b1e ec15 b8bf
00000640: 9b2a 2d65 dfc7 b13f 9182 4957 4b7c 84bf
00000650: bbee 4b00 363f c0bf a69d 598a 17c5 bdbf
00000660: ec36 274d 961f b7bf f583 782a c965 ab3f
00000670: 942d 085d 5b53 27bf 5136 45e7 03aa 72bf
00000680: 4b56 eb6e 813a b0bf 80f2 1a33 ea74 bc3f
00000690: 5285 a6a9 3b39 c0bf 3c08 1d8e c021 c33f
000006a0: 806c 2058 d33c c03f d844 8d1e bd7f b7bf
000006b0: 2454 4f80 6c03 98bf 884f 3b80 9a0a a9bf
000006c0: 7dd8 07c1 dfbf b4bf e717 6010 8900 b0bf
000006d0: 6512 393e 34c2 b43f 7d85 67ac 9d71 a5bf
000006e0: f229 bfae d1ff bd3f 7d30 af30 492d c13f
000006f0: b26b a2e3 d9b7 723f e093 ecfd f7da 9abf
00000700: ea11 316f 5e71 bbbf 2acf bdf6 73c5 b23f
00000710: 2b49 c2d2 975d a03f 0700 1d49 004f b9bf
00000720: ce43 68ec ae86 c3bf 650d 96d6 e72a a3bf
00000730: e2c4 eb0f 0aa5 b5bf b8e6 2ce1 e082 b5bf
00000740: 25f1 8e19 1657 b83f cd9e d979 0c7d c1bf
00000750: 80b9 4c87 5f7b bd3f 9114 5f55 8e17 a43f
00000760: ec1b 9adc eb02 7ebf d5aa 9e35 db5d af3f
00000770: 4cd3 8ec8 be3a b4bf 56e8 0029 b058 8b3f
00000780: e5cd 8856 fae3 c13f 4483 7c67 9d73 c1bf
00000790: 56f5 ede1 ec5c c13f 688f 680a eae8 c13f
000007a0: 69f4 b61d 15ee b3bf 639e 7d6a cae8 963f
000007b0: 8279 bcb2 071b b9bf dc20 25cc 5cec bc3f
000007c0: 1f34 7af7 d8d5 a7bf 2833 baf9 d904 b83f
000007d0: c7eb ed29 d099 8dbf 0923 358f d33f babf
000007e0: 8b1f 941c b29e be3f ddd2 96ac 4332 c03f
000007f0: e523 ec23 1f9e bcbf 8063 d468 78e7 b8bf
0.025845569997466088 0.038955378767896426 -0.035283932480359194 -0.018058523435613108 -0.12160949998460088 -0.054792468056940144 0.008933400747398073 -0.09888199901465325
0.05276789868212765 0.05041689296891586 -0.018813021509581772 0.05035402122162294 0.03857226344147181 -0.17429786131552313 -0.0459450090825856 -0.0808955655102417
0.11933672719615133 0.017042276898902635 -0.04443824326200296 0.14453706147743792 -0.14775794350415258 -0.025014411951727576 0.0467305290558653 -0.17285427725548314
-0.17115370464708374 0.009767724390988143 0.13321506768954985 0.12749104810703618 -0.06610541435165762 -0.10867764011628171 -0.0752841741325572 0.05975970794872004
0.07032573408187374 0.06112030675628965 -0.051241423676924726 0.12047167796760025 0.05650127198099631 0.1501843991485982 0.14884159728036667 0.11199003262958392
0.16387933432873714 0.02719676112605242 -0.1003895904601508 0.03704862038878649 0.06375813849681423 -0.14274367330901097 0.08709714141940711 0.09142613336418423
0.12472243223566401 0.03103879580991059 0.0014237405498765119 0.05641521989107921 0.010188997950585194 -0.02043449537896939 -0.05993353096007471 0.028157717507266592
0.07261413865092445 -0.0952048175979085 0.049770612101887796 0.07109250755906106 0.11030218450679255 -0.03744090799706699 0.08485433403971535 -0.16099750648746136
-0.10122355834937423 0.14639491616908568 -0.08785546358754664 0.11415639988312862 0.10593513924146497 0.1517235262871072 -0.026168752757387764 -0.11888693868268821
0.05971596325168442 -0.06030871455157125 -0.1286173294415595 0.10628837719129473 0.06230713820144682 -0.11417550949087332 0.041512533304528074 0.1741749584939879
-0.007382429871467526 0.1738993336426369 -0.025952412364350856 -0.10760435530248018 0.07740818274505228 -0.09371417039871875 -0.13058021801818084 0.08695985525581235
-0.07152840648683526 0.03406484302801304 0.07075326569706654 -0.1159431965685385 0.08136944588913901 0.06626131168004552 0.1498536662535404 -0.07739424819587233
-0.05658685266533168 -0.051211977054863876 -0.04779101044393636 0.09201158443114635 -0.039309561221772434 -0.007893278112690711 0.051682850813308 -0.12631920140741926
0.031761794886917265 -0.0025097001274276796 0.14448224077882588 -0.00825632899564288 -0.05773081407838133 -0.02193518891551451 0.12700687510749656 0.10293542863117283
-0.10928531322249359 -0.11969498106273531 -0.07333868125994877 -0.1108620005958004 -0.1560944252619276 0.03590448287142958 0.03333467301695438 0.07344344601740452
-0.01958117274622719 -0.028662258480377924 0.07128636060762428 -0.016210463182540293 -0.011505536896818143 0.055479358989457266 -0.11617766273479378 0.15988201386122614
0.07344084540639757 0.08099620564061548 -0.10935378180980175 -0.13560248401494737 0.0016697106611960357 -0.13083679781036167 0.0016625898122209818 0.0899416660730407
-0.0036025730112710414 -0.07557079093219118 -0.07467108597556611 -0.07405605614550412 0.09964330228819025 -0.11107162488292231 -0.10977830424179348 -0.06088280776737375
-0.11992481880116411 0.12744187096640958 -0.12916822036899286 0.15358772196768986 -0.015435098875203331 -0.07491937667552849 -0.0906425936446054 -0.0039863803987693295
-0.11811494475394076 -0.14819113439793427 0.11125627289691384 -0.03278637518273377 -0.07053037334584451 0.005514433654506756 0.04858712362802928 -0.06212325320700011
0.06037864304531365 -0.14537407464238233 0.08752801764318713 0.08771593506834657 0.0712493412134769 -0.00590026295838301 0.0012502522038261115 0.12936655406884182
-0.00890485644163532 -0.05259868963726193 -0.0338895345349922 0.08168582105480879 0.03428970388065319 0.1284905347553007 -0.1390766403609995 -0.10920434233710234
-0.11231800577905747 0.08803394898080105 -0.009405084845413744 -0.0042070919852817065 -0.14976555121802618 -0.04012447566306731 0.08695078445556165 -0.061072344683484124
-0.03575111309098828 0.11723545549071014 -0.13106314880617081 0.08057744633212252 0.12007940259454095 -0.01042681701789526 0.05203913152616813 0.17353408007730692
0.11077286840843281 -0.15509308988070963 0.14411084169549146 -0.0199548386068176 0.04901165649606777 0.0900568247549615 0.016886866972791327 -0.09408450832046328
0.06945606441619605 -0.010002697564403891 -0.12692904486163123 -0.11628863456427627 -0.09032573112127879 0.05351093905870378 -0.0001779603030772457 -0.004556670425086632
-0.06339272459020966 0.11115897891699866 -0.1267466143008656 0.14946753443843075 0.1268562488847671 -0.0917928886022027 -0.02345056088582366 -0.04890902343109277
-0.08105276549017222 -0.06250816964902094 0.08108831900705978 -0.04188244561715757 0.11718473926809006 0.13419451596417167 0.004569865350414414 -0.02622592437105087
-0.10719862188950172 0.0733253934284305 0.031964058377655334 -0.09886171135894993 -0.15254770797085232 -0.037436718887898825 -0.08454954994865063 -0.08402829644628695
0.09507883190139362 -0.13662868451796442 0.11516377499785868 0.03924221794253769 -0.007327004752034388 0.06126294164217475 -0.07902138134415998 0.013352752925232785
0.13976983285247893 -0.13634078553243445 0.13564835578646733 0.13992047794556162 -0.0778516004129003 0.0223724009987606 -0.09806869615247218 0.11298160537728869
-0.046553402146948246 0.09382402750834429 -0.014453531531890008 -0.10253641363409484 0.11960900495262032 0.126533946296738 -0.11178774477970384 -0.09728195723836386

fc_hidden_list.2.bias f8 [50]
00000000: b54e 0fdb 908d ba3f d9fe cb05 805d a13f
00000010: 8011 d165 d5a7 b73f 4724 aac1 a92b be3f
00000020: 3e32 fe9a 4268 a4bf f12d 7b72 b6af c0bf
00000030: b413 98c3 2649 b83f 0607 25a1 b877 c3bf
00000040: e809 a496 d5f6 563f 0dc5 0cfa c5fc a4bf
00000050: c07d 16bd f903 b63f a1f7 f9d3 fb80 b53f
00000060: cd46 8674 d1bd b2bf 7763 ead7 476d c0bf
00000070: 1a91 3444 3371 813f 00ac a018 1565 b63f
00000080: d622 efc3 8a9b aabf 43bb ec34 4fa9 bb3f
00000090: 2d4b 40c2 8f1e b83f d9ab cfaf e0e6 a03f
000000a0: bb3e 59e0 921f b53f 6e7a 12be 596b 993f
000000b0: c8c2 b94b 5192 9fbf 17c9 6dba 8a28 b3bf
000000c0: 922d baa8 1a48 c23f 0439 cdd9 2095 933f
000000d0: c4b8 804a 3566 9b3f f4a5 bda1 1596 bb3f
000000e0: 1071 c9e9 a12c a13f 2c5e d760 2a46 9fbf
000000f0: 9777 e2cd 97be 843f 109e 2347 2b3c ab3f
00000100: 4c20 a9f5 eedb c1bf 9657 2151 a2f3 833f
00000110: 005f 9eae 7141 b03f 1cce f758 6ce0 9abf
00000120: 4ded fcad 4e84 b23f 3d49 0a07 cc89 c13f
00000130: 7e8d b636 9b16 9fbf d0f9 bf0a a373 b03f
00000140: b19f 2091 4631 c03f 0b3f a85e 5b93 bc3f
00000150: c422 0689 3446 b03f e79f 792b b782 a83f
00000160: e750 2e6b ffea a73f 39b3 7e3c df2e b73f
00000170: 750b 7dc9 e23a 7ebf 776d a12a 7851 973f
00000180: f0cb 7b53 bbde 42bf 449d 3771 34d4 c1bf
0.10372262333049316 0.0339164740635149 0.09240468726881623 0.11785374620571175 -0.039857942028082224 -0.13036232557202213 0.09486620211835267 -0.1520911013449721
0.0014016233276953286 -0.04099100758902283 0.08599816194918386 0.08399938512044837 -0.07320889563404905 -0.12833498041871014 0.00851669361015488 0.08747989512691845
-0.051967941682567506 0.10805220644099926 0.09421633236369749 0.03301145692952163 0.08251302697430678 0.024823572374425167 -0.03083159470264965 -0.07483737040982806
0.1428254436362804 0.01912356690746099 0.026757080719271867 0.107758857715133 0.03354364374965446 -0.03054109779426832 0.010129152269936088 0.05319342845342245
-0.13952433581494217 0.009742038823030968 0.06349859727049179 -0.026246731691527456 0.07233134982827956 0.13701773017653265 -0.030359673704550165 0.06426447880219333
0.12650377355862255 0.11162348805396165 0.06357124657928198 0.04787228017522676 0.04671476539002289 0.09055896021773159 -0.007380376708001947 0.02277171859928503
-0.0005758680990467484 -0.13928847816644396
