savedModel/allen_cahn_tanh_sin/ParticleWNN_3/trained_model_final.pth (torch, 249111 bytes, 10 tensors)

fc_in.weight f8 [100, 2]
0	0xbfcdc98f4e1531c0	-0.23271361649166344
1	0x3fbb5e7b87d42c48	0.10691043916828946
2	0x3fd9f1f1b79a59ca	0.40539210252736935
3	0xbfcc001998924911	-0.21875305127884606
4	0xbfe148a692f8ca8c	-0.5401184912246477
5	0x3fdecda80add41c6	0.4813022714706928
6	0xbfd735ce65cd6349	-0.36265907231932154
7	0xbfe44295857c1cfc	-0.6331279379964196
8	0xbfe29fd009913a57	-0.5820083796368846
9	0xbfdf96f86b19e4c6	-0.4935895009908332
10	0x3fd3c76aa57ff1cb	0.30904642259681897
11	0xbfdf73ee2a780b94	-0.4914508261428463
12	0xbfc08f9b33cd5549	-0.12938251523397984
13	0x3fd33e0a6f3c103f	0.3006616674686064
14	0xbfc3d788e167d270	-0.1550150967228947
15	0x3fd497ff6a0c092b	0.32177720409539984
16	0x3fb71a33db188112	0.09024356936470593
17	0x3fd59bbcc56d1e2e	0.33763045577913686
18	0xbfcb027111532381	-0.2110120138734395
19	0xbfd8cc89c94db88c	-0.38748402269892135
20	0x3fcd529fe4482651	0.22908400198530157
21	0xbfe0d6caef802e7a	-0.5262198140857912
22	0x3fc54098470a71ee	0.16603377789296253
23	0x3fe4e12163a506c8	0.6524817415413162
24	0x3fb0edf0904893f3	0.06613067171618052
25	0x3fd081ec50e3e181	0.25792987727574973
26	0xbfe0b84cedfbd153	-0.5224976204031385
27	0xbfc271df81397d45	-0.14410013017457338
28	0x3fdf543cc00d9f44	0.48951643710323745
29	0xbfa2e143ad57c8be	-0.03687488070490151
30	0xbfcc08e4a7ce03fc	-0.2190213984831927
31	0xbfc2df194d255268	-0.14743343607792103
32	0xbfe419455852b4c4	-0.6280848240909553
33	0xbfb5da10e1635e51	-0.08535867216721128
34	0xbfca68d922fa141d	-0.20632471282820655
35	0xbfd5efe9e5680b7c	-0.34276816752406325
36	0xbfd4a534d2cb8064	-0.3225833948654382
37	0x3fb056619a3c388b	0.0638180734206079
38	0x3fe4d0f5660b64ff	0.650507640176471
39	0x3fc6488691686140	0.17408830738055237
40	0xbfe0fc5f5700e0cd	-0.5308071803365465
41	0x3fe603321d1d1870	0.6878901070238168
42	0x3fd59182e4a38c3f	0.3370063050080638
43	0xbfc8431715e7230c	-0.18954742974735728
44	0x3fde7db5be3ad9c4	0.47642272545945397
45	0xbfe4d7a70ba7c1e2	-0.651324770702612
46	0x3fd5e064315852e1	0.3418207628140362
47	0x3fae7bc648bd1566	0.059538074855064946
48	0x3fe57e8c248bd0a7	0.6716976846496622
49	0x3fe0f435bfaf3130	0.5298107856592988
50	0x3fd970247acd1b65	0.3974696349363767
51	0x3fc05fc63bdf2733	0.12792280124113517
52	0xbfda33c0c11ef8d7	-0.40940874919387
53	0x3fdb1f78fdf1ac2a	0.42379593657705306
54	0x3fde24a20bc201a4	0.470985900385154
55	0xbf8bba2a6e0b311b	-0.013538676722781908
56	0x3fba3a36aab01800	0.10245076815780862
57	0xbfdc75e2d5eaa1a5	-0.4446951951054195
58	0x3fe0552f9a4ef649	0.5103986753308131
59	0xbfe0dcbf0e0104a8	-0.5269465707316572
60	0x3fe2e03b89cefb1e	0.5898721400807039
61	0xbfb24119689e1b0d	-0.07130583576336509
62	0x3fcd52e61f99595e	0.22909237425728696
63	0x3fdbe554917acbd7	0.435872213430398
64	0x3fccccf080a3278e	0.2250042560684133
65	0x3fc81f68a46675a9	0.18845851924281234
66	0xbfb8d6e2e26ed468	-0.09702890422961874
67	0x3fe34ebddd990427	0.6033620193558179
68	0x3fbeb1454a235a07	0.11989243564617179
69	0x3fe3955ddf52590a	0.6119832383872403
70	0xbfdde8dabe2231b3	-0.46733730857593087
71	0xbfbdb4423bbd68ed	-0.11603177984708042
72	0xbfd3e78d55e451d2	-0.31100781810644407
73	0x3fc82b8f883f1994	0.1888293662324939
74	0xbfa0ba3ac49d3383	-0.0326708188064009
75	0x3fb87ddc3002828c	0.09567047283281677
76	0xbfd36750e37356bf	-0.30318090640990286
77	0xbfe0a88239ed7b49	-0.5205699092292458
78	0x3fe05ea522f1ed91	0.5115533525962964
79	0xbfdaa448fcf18681	-0.4162771673346484
80	0xbfc04b69a8d85d33	-0.12730141395943803
81	0xbfe2187c9e2e096b	-0.5654891099405125
82	0xbfc8734afcf39080	-0.19101846076148732
83	0x3fcb930888c7eac6	0.21542460135227354
84	0xbfe2c67566aa107f	-0.5867259030496966
85	0xbfc52fd08557dfdd	-0.1655216837968955
86	0x3fc447c4f326e43c	0.15844022629406307
87	0xbfe0d2b24ce9cbb5	-0.5257197859012793
88	0x3fb42e8b2938b828	0.07883519894014113
89	0xbfd21e09760ec90a	-0.28308331040456436
90	0x3fd17fac98843e59	0.273417614881486
91	0xbfe25096e917d3de	-0.5723375847434189
92	0xbfd9d43ea6f89245	-0.40357939058074904
93	0x3fd54d7456badcfd	0.3328524443599717
94	0x3fd2911b733a95e1	0.2901066422731145
95	0xbfc86f2f31c717ac	-0.19089307718803405
96	0xbfe2ad78e7574dd4	-0.5836758154277342
97	0x3fe33818748cef83	0.6005975986840756
98	0xbfd66b84912ba228	-0.3503123681717022
99	0xbf804d6ab70a3dc3	-0.007960160933435106
100	0xbfdda9e6c63abd02	-0.46349496229500187
101	0xbfe599f3c64058bd	-0.6750429985138663
102	0x3fd09bb2d2c39680	0.25950308401511535
103	0xbfd8317da11df0c7	-0.37802067503049525
104	0x3fa7d1683131c454	0.04651952362554171
105	0x3fe27ecba4a57ec5	0.5779779639960557
106	0x3fe0192d20bc9963	0.5030732764615035
107	0x3fe09fce5ac6f734	0.5195075772278188
108	0x3fc87122bb744466	0.19095262673411922
109	0xbfbfab35c1fd6f08	-0.12370620714267144
110	0x3fe63e8a5da60e61	0.6951343373370485
111	0x3fd06d7accc3d25e	0.256682109800101
112	0xbfd5f8ef553f4737	-0.3433187801830288
113	0x3fb101dc1055210d	0.06643462561362785
114	0x3fd7175bf0272b36	0.3608007283443614
115	0x3fafe9f7d835a15d	0.062331910269508774
116	0x3fd231d07f730d3b	0.2842904324172257
117	0xbfacdeed01d71aef	-0.05638828895057723
118	0xbfda8b0f64633887	-0.4147375564906572
119	0xbfa2a98eedfeeeb3	-0.03644987731192142
120	0x3fe2b5812631f5ff	0.5846563096999374
121	0x3fe448b034d64f06	0.6338730842566924
122	0xbfd35c7159512b2a	-0.3025172588574373
123	0x3fc04d0be537fcb5	0.12735127155608486
124	0x3fe22be6787cbc35	0.5678589204088725
125	0xbfc412c24cdeef2c	-0.15682247880419575
126	0x3fe6faca6e6d3289	0.7181141049164391
127	0xbfc0bf88efdbcdb4	-0.13084518157812186
128	0x3fe3bf73377fccb7	0.6171203693360415
129	0xbfbee298a62085e7	-0.12064508491359725
130	0x3fe370f69424d313	0.6075394528803336
131	0xbfd34a751e37e5ba	-0.30141952467928557
132	0xbfe2568eee21781c	-0.5730662013045307
133	0x3fc76c1438b690fc	0.18298580903240935
134	0xbfcf82485163ed49	-0.2461634061254279
135	0xbfd49e36454c536c	-0.322156493829701
136	0x3fcdff626b799aa3	0.2343562149792052
137	0x3fb2eda246c1d12f	0.07393850543468682
138	0x3fc3c17d6002c73b	0.15434233844785603
139	0xbfdfe779d2fad643	-0.4985031662321015
140	0xbfd8256fa88380ef	-0.3772849221841303
141	0x3fe5cc650c1b450c	0.6812005268531336
142	0x3fdf1a8266c48035	0.4859930041875516
143	0xbfd8dde2425748b8	-0.38854271391495443
144	0xbfd94f564f529cba	-0.3954673552165776
145	0xbfd1b8ab18afa2d2	-0.27689626131772827
146	0xbfe25537e0a136e4	-0.5729026210117039
147	0xbfc97c970564ab1d	-0.19911468280164338
148	0x3fdc38293b4da7a3	0.4409277991422817
149	0x3fd8c10d14c47fe7	0.38678290393909126
150	0xbfd205d88abe71f7	-0.28160680340968675
151	0x3fe4f17832e46be0	0.6544762605657262
152	0x3fdffd38ac0f2f67	0.49983040621440583
153	0xbfe4e734b79e43e6	-0.65322337973532
154	0x3fd9c4f4c72868cc	0.40264625023850154
155	0x3fe62b374e68a156	0.6927753955288078
156	0x3fe312d81853a7c8	0.5960503077633286
157	0xbfe22037aadd68c1	-0.5664327943043405
158	0xbfd2fea40a157a73	-0.29679203972583607
159	0xbfc4c2941feb76e6	-0.16218806799491076
160	0x3fe299e58ae7aba3	0.5812862122523835
161	0x3fa4a270ab68cfda	0.0403018197288529
162	0xbfacbfa84c83fee8	-0.05614973005321905
163	0xbfdae6702ef7936a	-0.42031483255987345
164	0x3fc9840e6c87a436	0.1993425397807031
165	0xbfc840cb52e396e0	-0.189477363083987
166	0x3fd08af6b1f297e6	0.25848166825960417
167	0x3fde5ba63995b149	0.47434383033284583
168	0x3fd425d68d57c760	0.3148094539929982
169	0xbfc4e187cad4175d	-0.16313264278158615
170	0x3fd5b9677a891f2f	0.3394411751400978
171	0x3fdb7b2a2db3a73c	0.4293923803621629
172	0xbfe051d3f3493dcf	-0.5099887611085537
173	0x3fb1580b131ef953	0.06774968354054538
174	0x3fa1f7819b1712a6	0.03509144800367396
175	0x3fb1d9ea86addf37	0.06973138607088179
176	0xbfdc1be8f5513238	-0.4392034907985223
177	0xbfe2eeadf9867c33	-0.5916356919805196
178	0x3fd2b22f28b919a5	0.29212550141201127
179	0xbfd55af018a680ea	-0.3336754074789626
180	0x3fe54ab2f9a97e97	0.665368545171037
181	0x3fe08ba6ec23bb6b	0.5170473682500022
182	0xbfdadc38dfca98a8	-0.4196912942374049
183	0x3fe1699dcdd53a65	0.5441426296400321
184	0x3fdb7d1a8c205f69	0.42951072391723827
185	0xbfc53466c673abc8	-0.16566166582137343
186	0xbfb80021603ddbdb	-0.09375198936127964
187	0xbf5da41d8b5d264f	-0.0018091476935801103
188	0xbfd9675d08209be7	-0.39693380159081787
189	0xbfda860e39f6d7b8	-0.4144321027810025
190	0xbfd15d0b646a3740	-0.2713039856542885
191	0x3fe3d166f6f2005d	0.6193117926741355
192	0x3fd890fe28171e2b	0.383849658156097
193	0xbfdb4c1f86e1a6b2	-0.42652118846909126
194	0xbfd66a2eff59f2e1	-0.35023093163162683
195	0xbfd178452d2a7ecf	-0.27296571169607103
196	0x3fd873474f746dc0	0.3820360446859148
197	0x3fc367320a995232	0.15158677594685482
198	0x3fdea18403fa6855	0.4786081351136365
199	0x3fb503c5713c590b	0.08208879484695701

fc_in.bias f8 [100]
0	0x3fc8caf59d2a77d1	0.19369383024326095
1	0xbfba2a582bbb0237	-0.10220862453116629
2	0xbfd66afc8a02dd15	-0.3502799365773666
3	0xbfc5a00ae6e4ef3a	-0.16894661211142098
4	0x3fdf97f66d965a34	0.4936500616253483
5	0xbfde2650204f9806	-0.4710884395157112
6	0xbfd7e2c07ebf60fb	-0.37321483972256403
7	0xbfc488deddd782e5	-0.16042695839043755
8	0x3fde0c9b377a9157	0.46951942842340116
9	0x3fe2b56ce678281a	0.5846466542582249
10	0xbfe1f123c315c936	-0.5606859979873551
11	0xbfdc2abf617b7ce2	-0.4401091052986442
12	0xbfc5954820dfb74d	-0.16861821751757092
13	0x3fd467b5ee367db0	0.3188299967095771
14	0xbfd7af4ea7d3ad02	-0.370074905293862
15	0x3fe2c090e4811cdc	0.586006590173294
16	0x3fd44e0f0e74f599	0.31726433193019826
17	0x3fbfa4520d5a6d13	0.12360108209616198
18	0x3fde9be967b4291d	0.4782660973293263
19	0x3fdc4d95ac1ccc49	0.44223539169178544
20	0x3fa18a995ebe022e	0.03426055223008394
21	0x3fde93e82b82dc90	0.4777775216020439
22	0xbfd0a260b93afccb	-0.25991075600536523
23	0xbfe0e1bfff329676	-0.5275573715523041
24	0xbf99f39d1f8396ba	-0.02534337525221162
25	0xbfc74559c0db756b	-0.18180391232355517
26	0x3fa0e2c68c5f0a9c	0.032980160365260164
27	0xbfd54d637de19533	-0.33284842770656836
28	0x3f94357ee71961b4	0.01973531995312934
29	0xbfd4aabcdbfaa558	-0.3229210041268593
30	0x3f937d667c2c299f	0.01903305180443626
31	0x3f6d2fbaf96a59e5	0.0035627986756694313
32	0xbfdecc64ef07dd68	-0.4812252363476177
33	0x3fe166c251ac06a8	0.5437938304096024
34	0x3fdad21691b6b21d	0.41907276372765684
35	0xbfb368571023fc9f	-0.07581085342461556
36	0x3fdbd3faf4c0a5cb	0.4348132505570816
37	0x3fc2aa76ea7d50da	0.14582716417010638
38	0xbfdbb3cc154ac5ea	-0.43284895018868375
39	0x3fda1554626d44d8	0.40755185710902486
40	0x3fe5655a0fa5dc51	0.6686220460532103
41	0xbfb4406cf0346432	-0.07910805572863991
42	0x3fdf43690e5599ca	0.4884894027694854
43	0xbfd5d08261ccef72	-0.34085139799912334
44	0xbfb0df97fc914e95	-0.0659117690677767
45	0x3fe2c73374183a21	0.5868165271256808
46	0xbf9564af7a47c5b3	-0.020891897047425178
47	0xbfe0faa189585eef	-0.5305946047328386
48	0x3fc30d2f04776d1b	0.14883983343211402
49	0xbfd10d403f9b6202	-0.2664337750589142
50	0x3fe2244f6ecb9049	0.5669324077575847
51	0xbfc9d5c3008c80c1	-0.20183599020766077
52	0xbfe20aa2eefae147	-0.5637983958795666
53	0xbfb3c5d3b5317647	-0.07723735021269205
54	0xbfd83567779f8f6e	-0.37825953180276073
55	0xbfe56068a1bec889	-0.6680186423384536
56	0x3fda2d15813d5657	0.40900170918516693
57	0xbfe45cfebcbd435a	-0.6363519369425419
58	0xbfe3444002e46d7f	-0.6020813042154457
59	0x3fd7ebf825e9b409	0.37377742483550996
60	0xbfd5a7a7ba226a37	-0.3383578603476595
61	0xbfd42a7fe3051050	-0.31509396715069204
62	0xbf85686c01e7555c	-0.010453075225920365
63	0x3fb1e47e3a64adfe	0.06989277768723665
64	0x3fe349fb51cd87a2	0.6027809713088923
65	0x3fbf26ebdc5356b9	0.12168764237443498
66	0x3fb48cc6350c4118	0.08027304453958484
67	0x3fbe83d822dc9a4b	0.11919928408733786
68	0xbfc5f0560ecdd3d2	-0.1713969776425573
69	0x3fba2a0d8a1a8905	0.10220417615576956
70	0xbfa85ecba5d36a1b	-0.047598232262050476
71	0xbfe121fbaf840102	-0.5353983333625651
72	0x3fc23004ae708c39	0.14209040181694535
73	0xbfd3f2d0c6600b7a	-0.31169528362823196
74	0x3fb9b4c84453dee8	0.10041476886896883
75	0x3fe204b7d9ec5afb	0.5630759483636604
76	0x3fe18ba9dae068e4	0.5482987666066745
77	0xbfd05e372e1b4693	-0.25575046064941737
78	0xbfab3126cb59e0c5	-0.0531093714934641
79	0x3fc47e03947d1aac	0.16009564161705236
80	0xbfca2d548ccfd3bc	-0.20450837016656276
81	0xbfe364dd556a0b27	-0.606062571358369
82	0xbfe158dd6cb15be1	-0.5420977709680949
83	0x3fc4ce41226d272d	0.16254438572860277
84	0xbfbe2625ac432a34	-0.11776957946418848
85	0xbf94b49352ce43c5	-0.02022009079843536
86	0xbfdf31729e67a94a	-0.4873930499003519
87	0x3fdeaa416619aae3	0.47914156885842213
88	0x3fe32e7db1663ec5	0.5994251694518985
89	0xbfe2d8f375573da4	-0.5889832774936861
90	0xbfc8d79a88205d40	-0.19407970091627114
91	0x3fc9a983142e2423	0.20048559651721218
92	0xbfd66a53d1c55214	-0.35023971066883175
93	0x3fdb3a64ce3cf133	0.4254390729945669
94	0xbfcbe6a745eb7eed	-0.21797648347909818
95	0x3fd4dd0849e10b6e	0.3259907456851384
96	0x3fdf259edb28adb5	0.48667117502437957
97	0x3fd63626b056e49e	0.347055122572394
98	0xbfdf8606666252e4	-0.4925552368015771
99	0xbfcf3802f3da30d8	-0.24389683634615866

fc_out.weight f8 [1, 100]
0	0x3fa00d314ce3f6b5	0.031350651393933594
1	0xbf88bb62a512c491	-0.012076159155500117
2	0x3f8c92297ad28a6b	0.01395065694879812
3	0xbf87fff9b7fd1444	-0.011718703200708565
4	0x3f932aafadc0dac5	0.018717522602140563
5	0xbf8719e80e34fe44	-0.011279881413997057
6	0x3f9c6885a9eb5c17	0.027742470260673082
7	0x3f72b7b3efcd353b	0.004569723966438228
8	0xbf79fbecbab02e69	-0.006343769763599385
9	0xbf9ecf4eead550c3	-0.030087693293652473
10	0xbf3d0e2b64cd6706	-0.0004433494512362388
11	0xbf832da85424fdfa	-0.009364428584944118
12	0xbf9eb537900b2fb2	-0.02998816315339043
13	0x3f7ab30fc2ba34b2	0.006518422665647327
14	0x3f84d8f0a232230a	0.010179405164551198
15	0x3f808d183038fd0f	0.008081616374623594
16	0x3f879877632908d7	0.011521275247222835
17	0xbf93b0d13edb8588	-0.019229192220227925
18	0xbf73e401e88bee27	-0.004856116728429372
19	0xbf8774e5459c5687	-0.01145342940030082
20	0x3f8520c91ee68724	0.010316439872272883
21	0x3f0255fe4e0c935b	3.497297598745757e-05
22	0x3f80757e14ee45b1	0.0080365991723593
23	0x3fabd312add26c8b	0.05434473392343716
24	0xbf7b4ee2d947bcec	-0.006667028549130576
25	0x3f835e162044c02b	0.009456799373396127
26	0x3f863a83391a5e57	0.010853791408677411
27	0xbf98acb4ee9b0708	-0.024096324027374855
28	0xbf7f9b5c1ebdcb20	-0.007716522068096393
29	0x3f6c597f0561c13e	0.0034606438521721785
30	0xbf85019120fd2fb7	-0.0102568948929259
31	0x3f92758bfb414cd6	0.018026530466454492
32	0xbfb0e626fc8ac1e9	-0.06601184526039784
33	0x3f4418a7ad4c77d0	0.0006132906661127039
34	0xbf96e4f2507804f2	-0.022357736741473518
35	0x3f984154341740a4	0.023686710051891283
36	0xbf7b65b9ffc61a7e	-0.006688810881661509
37	0x3f5ff0a452dad9bd	0.0019494633410609274
38	0x3f961e7cff047636	0.021600678505924807
39	0xbf75ed8dc18377e9	-0.005353502019913117
40	0xbf91c8307eefeae0	-0.0173652245975785
41	0xbf83599768785848	-0.00944822585647044
42	0x3f876a790b520af3	0.011433549554799671
43	0xbf8c6a9c05b4eb7d	-0.013875216411738606
44	0x3f960ed1bd313580	0.021540906116845004
45	0x3f53bffa047a3bee	0.0012054387642910186
46	0xbfa489f0911b5a24	-0.04011489650081426
47	0x3f8ea659e6b13f8d	0.014965727188751799
48	0xbf88c3621a30b63f	-0.01209141390253443
49	0xbf9731ed17f47339	-0.022651390635576283
50	0x3f961f015959a431	0.02160265071725948
51	0x3f69fbb23e63f390	0.0031717759439957097
52	0xbf82e6eb3bd54e92	-0.009229505313363338
53	0xbf97b2192bcde531	-0.023140328692055682
54	0x3f67a6ea4785955f	0.0028872085351163003
55	0x3f90c08baa91984c	0.01635950306481275
56	0x3fa95178fa3d1b3d	0.049449711367336203
57	0xbf01a5f8cfc55f9b	-3.366151392708503e-05
58	0x3f92aa96dedfc444	0.0182288716823147
59	0xbf8227de3af98dc7	-0.008865104841965355
60	0x3f889c7dbc6b3472	0.012017233193001273
61	0x3fa72c3ed5bd594f	0.04525944098593248
62	0xbf8b09bffdfc518d	-0.01320219034054373
63	0x3f6c2161de4ce6af	0.00343388667024843
64	0xbf87dc4b036adf97	-0.01165064434222511
65	0xbf85c1ddbb56b9dc	-0.010623676566720634
66	0xbf72e82d0804c898	-0.004615951446156917
67	0x3f9b1729abef3bef	0.02645554649262388
68	0xbf85a2f6f09b0ddc	-0.010564736573889393
69	0xbf91501e4ae241a3	-0.01690718967489747
70	0x3f4839ab53d25b67	0.0007392965850553213
71	0xbf719bfe80d47b6c	-0.004299158242502137
72	0xbf7fa3c6ea0b5ff0	-0.007724549301848058
73	0xbf7d367d59002c16	-0.00713204349450349
74	0xbf858b144f781f2c	-0.010519179034431746
75	0x3f573d8497cf7b90	0.0014184756139383504
76	0x3f929b4a2d313fda	0.018170508392642983
77	0xbf92d0ed2cf79dde	-0.018375116223891534
78	0x3f751c0cebb6e82f	0.0051537041394400926
79	0xbf710e813d93df97	-0.0041642235239506475
80	0xbf00069df2ac6869	-3.0566878498742446e-05
81	0x3f6a275373535e00	0.0031925802128218717
82	0xbf7fed9366088655	-0.0077949292904420835
83	0xbf91ac8db56800f8	-0.01725980205265018
84	0x3f8f8dbc460301d6	0.015407057653988792
85	0x3f18859cf321044b	9.354372449001215e-05
86	0xbf99bd973c9c5783	-0.02513729388655107
87	0xbf57e066f4dd8cff	-0.0014573102411866155
88	0xbf89280c940ada28	-0.01228341891088032
89	0x3f8de1ce922c4074	0.01459084876617587
90	0x3f9b34b86030409e	0.026568299170378944
91	0xbf9fcdbe1125488b	-0.03105828265808745
92	0x3f9566b04c4a2574	0.020899538666105014
93	0xbef9d07dcc476266	-2.4618548893547836e-05
94	0x3faee813c946eb4f	0.06036435920710536
95	0xbf7cb2db5ce1de59	-0.007006508718511017
96	0xbf85499eb40ab071	-0.010394325131834333
97	0xbf833e42a8660d56	-0.009396096004599268
98	0x3f99520c19108967	0.024727047948667116
99	0x3f6176b82b330c49	0.0021318051381924758

fc_out.bias f8 [1]
0	0xbfb2e4a0d8b1ac9c	-0.07380109110242689

fc_hidden_list.0.weight f8 [100, 100]
0	0xbf95297bd2925cf2	-0.02066606018760537
1	0x3fb1dabfdc47ba01	0.06974410179075365
2	0xbfa2c7e1c36c1040	-0.03668122778438532
3	0x3fafdd940987615d	0.06223738304442137
4	0x3fb90c834f7f2c51	0.0978471821864997
5	0x3f891b6452171f69	0.012259277110288474
6	0xbfa0f1382fd2cf96	-0.03309035857947078
7	0x3f96efa99fac2960	0.02239861523688924
8	0xbfa34b99f0a2227d	-0.03768616735857664
9	0x3fb4a73243835900	0.08067621372478939
10	0xbfb092c5339c08b1	-0.06473953733442063
11	0x3fa53eda6b52ee00	0.04149515686136951
12	0x3fad4867025fb111	0.05719301132180211
13	0x3fa0dbe8c6d2f04b	0.03292777468729521
14	0x3fa9aab4d5da7508	0.050130511384148646
15	0x3fb1db95587c5909	0.06975682649894933
16	0xbfb88614170cb84a	-0.09579587519394397
17	0x3f604c7044c005e3	0.001989573740502891
18	0x3f56e6d0b8dda992	0.0013978040983269918
19	0x3fb8f7ade4eda15d	0.09752928580349392
20	0xbf8fe6a8a284060f	-0.015576665362917045
21	0x3fba5410108b0819	0.10284519580730524
22	0xbf8d63c26d214878	-0.014350432353385609
23	0x3f8a1ab2e883bd7a	0.012746236534865164
24	0x3fa9980f82cdb271	0.049988255231117835
25	0xbfab63a2a0b0cf40	-0.05349453174167573
26	0x3f9c23ea645b55a8	0.02748075711754941
27	0xbfb93312d8ea9f94	-0.09843557163060118
28	0xbf97de5c5d7c4a4a	-0.023309176641371367
29	0x3f85097e4a72a568	0.010272013327567733
30	0xbf919c7f720c132a	-0.017198554359327968
31	0xbfbb7599856539af	-0.10726317888950264
32	0x3f986c2cd9c9a0a7	0.023850155632687244
33	0x3fbc1bbd13cdd88d	0.10979825719354804
34	0x3fad210a1d759061	0.05689269647226137
35	0x3f9facfa6a350817	0.03093329690205601
36	0xbf95cbffdcd8563c	-0.021286008695901013
37	0x3f3e104a86093342	0.00045873469756401244
38	0xbfbcb804fb46f134	-0.11218291411109221
39	0x3f8f1fd366c72a33	0.015197421621356266
40	0x3fbf7898ea5e311f	0.12293391916154349
41	0xbfc09cdb7a3568c2	-0.12978690592973946
42	0x3fb08660f53ff6d1	0.06455045688195617
43	0x3fb0bb056226a3eb	0.06535371443045761
44	0xbfa4b1012419a4a0	-0.04041293683696634
45	0x3fb053f22cd19939	0.06378091425140021
46	0x3fa3aa6e8a2392ec	0.0384096664072667
47	0xbfbdcd06099170d3	-0.11640966161343451
48	0x3f4cee04de8a72f4	0.0008828662658576223
49	0xbfc0769132bbed3b	-0.12861838319063587
50	0xbf934f8f00cc456c	-0.018858179496480984
51	0x3fb0591a1d5d122b	0.06385958878406288
52	0xbfaeba5257c32a24	-0.06001527139013188
53	0xbfb47f4fdcb23e9a	-0.08006762636272882
54	0xbfb3ad1d3d8e55b6	-0.076860263374633
55	0x3fa73ff35959b6e0	0.04540977922156997
56	0xbf9f146a9f352088	-0.03035132023549683
57	0xbfae26e24cad2d66	-0.058890411243363514
58	0xbfb1ab385d1d8353	-0.06901886246988669
59	0xbf821669d6448a85	-0.00883181271689649
60	0xbfa813356910bbf5	-0.047021550250398926
61	0xbf6613305d944cd8	-0.002694696868852025
62	0x3fc11b9454baa7be	0.13365415703930056
63	0x3fc129d501b95c45	0.13408911308462926
64	0x3fb20c7cb7c99b17	0.07050303923606936
65	0x3fba507a7a1e7b93	0.10279050332472499
66	0xbf899e213005d792	-0.012508639600792102
67	0xbfa43dc7e4769cc7	-0.03953385032519346
68	0x3fb1c4adc5bf4384	0.0694073303013863
69	0xbfa5378a8d762421	-0.041439370887992995
70	0xbfbe98e616475105	-0.11952055019293446
71	0x3fb1fb7eb1b076ee	0.07024375761144672
72	0x3fb39807efd91572	0.0765385590139738
73	0xbf92224f2594dc3e	-0.017709004086295936
74	0x3fb9184c44fc6cf5	0.09802700695256646
75	0xbf99b2edb90afbbb	-0.02509662095939878
76	0xbfa3f3c3ee8e7b92	-0.038969157095599574
77	0xbf9d16a827bdbe97	-0.028406741548165994
78	0xbfa825ff6d4b8b7d	-0.047164899913489024
79	0xbfa4ae4e6ce65e3f	-0.0403923519071978
80	0x3fb95b08b4404c84	0.09904531860984106
81	0xbf90c265bd3b3ae7	-0.016366567301527104
82	0xbfa5a274940e2724	-0.042255061219363094
83	0xbf95e85ffa4124c6	-0.021394252442665594
84	0x3fb0a447b69a14e1	0.06500671585134256
85	0x3f86d779562596c0	0.011153171483509694
86	0xbfb4769ef321f47f	-0.07993501125197787
87	0xbf760e51c9cb64d1	-0.005384749875440424
88	0x3f90cde3ae80b60d	0.01641040566044265
89	0x3facb50d61402e92	0.05606881916182006
90	0xbfac1a582aea8a95	-0.054888491858283185
91	0xbfc11a4efef00b66	-0.13361537407044038
92	0xbfb97823074ba9f2	-0.09948939254869751
93	0xbfa1613a60150ff3	-0.03394491598967866
94	0x3f94c53e40f70606	0.02028367301477909
95	0xbfb71b4e991e0f73	-0.09026042211740819
96	0x3fa1934ee58e172c	0.034326997300963974
97	0xbfa5718d2ea9ec92	-0.041881954141865255
98	0xbf9b177044a54208	-0.026456598462859332
99	0xbfb74530c2e44f25	-0.09089951284505256
100	0xbfa088575009fba6	-0.03229019977606322
101	0x3fbf41781734885f	0.12209272924931856
102	0x3f9ae2491dbe23ce	0.026253836098053367
103	0xbfae9ca8f8c04311	-0.05978897129546657
104	0x3fb63dbd6a86783a	0.0868795762130227
105	0x3fabc1a3e90edc79	0.05421173305460853
106	0xbfbd11f13fb41196	-0.11355502896555544
107	0xbf737edf039a460a	-0.0047596656310289285
108	0x3fb3d3befda5ffad	0.07744973843182264
109	0x3fb0639eed631de3	0.06402009292207071
110	0xbf7ab31241af9a14	-0.006518431963718391
111	0xbfc7c7993c199b4b	-0.18577876505443167
112	0xbfb96a9acf8a762f	-0.09928290907779379
113	0x3fc472c219c80cd9	0.1597521425138442
114	0xbfbb952d03d6119b	-0.10774499267251374
115	0x3fb34ec25abac993	0.0754205199726015
116	0xbf98c94df535e936	-0.024205415812937413
117	0x3fbbc17acf8cdfe4	0.10842101637979301
118	0x3fa0cf5b4f3ee18c	0.03283200590471144
119	0x3f99c40fab184bac	0.025161976640514602
120	0xbfb74ada17730efa	-0.09098589966293594
121	0x3fbf90405b576acb	0.12329485158935964
122	0x3f9c925200359e3f	0.0279019177081905
123	0xbfb7434e3d7a3cd3	-0.09087075234332369
124	0xbfc0886ac6425399	-0.12916311913127457
125	0x3f876f026d87c030	0.011442202537153973
126	0x3f5275e3f74b76ef	0.0011267400961325021
127	0xbfbb112adb0e0a59	-0.10573070381182371
128	0x3f68de8cd26e3abc	0.003035807650525994
129	0x3fb06fcf9bbcd0ce	0.0642061000078826
130	0x3fc1605a0811638f	0.1357529200929801
131	0xbf90e65d901ba418	-0.016503774567272783
132	0xbfc603285b94bee4	-0.17197136375170097
133	0x3fa5cf0a0b7f804b	0.042595209029741975
134	0xbfbdc68704454b1c	-0.11631053785576423
135	0x3f9977399760df1d	0.02486886965218026
136	0x3fa56723ffe837ee	0.04180252550951012
137	0x3fbac717b7100480	0.10460041255284303
138	0xbfa2bd337f36d446	-0.036599740294527325
139	0x3faa9fdc85ce263d	0.052000895818377725
140	0x3fadcb544df3e779	0.05819190455981888
141	0x3f9cea835eb8316c	0.02823834672567342
142	0x3fc76559087d394b	0.18278038897046608
143	0x3fa94e53f8fcbdb2	0.04942572035212879
144	0x3fbf758c41d827ae	0.12288738830116472
145	0x3fbf3af9514b7f17	0.12199362025011982
146	0xbfae9a8634617c3d	-0.05977267636694037
147	0x3fa32a8c23bed527	0.03743398605676367
148	0xbf86eba80c218ba9	-0.011191666479310873
149	0x3fa66c9dfbbd7bb5	0.043797432880402644
150	0x3fa9d1ba7d0b9abe	0.05042822624618769
151	0x3fbd89f35fd64da2	0.11538621034406174
152	0x3f8546b139780666	0.010388741079626129
153	0xbfaba1c1f353fd5c	-0.053968487694869366
154	0xbfa24be35846f45e	-0.035735229993840475
155	0xbfc7d879fd3e8107	-0.18629383912503547
156	0x3fc208804d3f9df8	0.1408844353857004
157	0xbfbd0ab0c4602f8b	-0.11344437403039202
158	0x3f8340e545351835	0.00940112225965715
159	0xbf7eb6c0157bb7b1	-0.00749850304394599
160	0xbf981faf05453dcb	-0.02355836362522527
161	0xbfb9e862ecb07f7d	-0.10120218542624389
162	0x3fa983499ab9381e	0.04982976926531556
163	0x3fc2614399db7065	0.14359326374585915
164	0x3fc006dcdd83f998	0.12520943466365675
165	0x3fc08ebe6388bb5c	0.12935619220794592
166	0x3f99f24e42e433a7	0.025338385422447065
167	0x3fa338abc7373945	0.037541740482640175
168	0xbfafbcddb71c8cd4	-0.06198780880210966
169	0x3fb66ff30b128c8f	0.08764571209262527
170	0xbfc69185aea2673f	-0.17631598498410914
171	0xbf68a1902185de49	-0.0030067267472835596
172	0xbf9553cbe27fb4b1	-0.020827470492737536
173	0x3f8a1a5853f27779	0.012745561658728853
174	0xbfa970f7a6f7d70e	-0.049689997798777794
175	0xbfb05644bec7e9d8	-0.06381635339486225
176	0x3fc5645ca665c6f3	0.16712530255204391
177	0xbfc3d756af7ad283	-0.15500911300991413
178	0x3fb10c5ad1108b60	0.06659476856343138
179	0x3fb8523ef4365ecf	0.09500497305122767
180	0xbfa03e1d89dac46c	-0.03172390277666967
181	0x3fa0c87c52387d32	0.03277958396597071
182	0xbfaeffd53d540ea3	-0.06054560063969674
183	0x3f45c25021275e1d	0.0006640330560072103
184	0x3fb0bb988f00e15d	0.06536248675627605
185	0xbfbd3f0d93b9ea92	-0.11424336296651408
186	0xbfb5405bef8dfd38	-0.08301329229833676
187	0x3fab99cf8616a0cf	0.05390785705395872
188	0x3faebc79a5a39a03	0.06003170153580941
189	0xbfa822c9f0717849	-0.047140417672139785
190	0xbfb40aefc0d94497	-0.07829187830181393
191	0xbfb04e7fc97ad997	-0.06369780224745224
192	0xbfb0ef1c1ecb3fa1	-0.066148526685764
193	0xbf68d3166827cf21	-0.003030341876405177
194	0x3f938d4990453319	0.019093655996857615
195	0x3f9faf3a1a2fea11	0.030941875313127257
196	0x3fc51a745c60ab53	0.16486982832551664
197	0x3fc68c5c2607641b	0.1761584459007118
198	0xbfb2a8ac8d998105	-0.07288626153013318
199	0x3f6b1ff2b70ed0ab	0.003311132481451725
200	0x3fb4bc1eddbfc685	0.08099549211308428
201	0xbfa9016192a880e9	-0.04883866229306639
202	0x3fa9da10e03315b0	0.05049183594523343
203	0xbfba0fdec12c0e8e	-0.10180465904346134
204	0xbfa0a3cc2b1ce1f3	-0.03249967600135397
205	0x3fb766dc6042ee53	0.09141328191884072
206	0x3fb0f991c97865a9	0.06630812805851484
207	0x3fae431b1b4075c7	0.05910572726882495
208	0x3fad4eee14004c0a	0.05724281305460728
209	0xbfb620e996e6b4d3	-0.08643970426665541
210	0xbfb90c5e4d8852b7	-0.09784497635730359
211	0xbfaab45a13384b9a	-0.052157225462131154
212	0xbfb2bc873f4c1e3d	-0.07318921370835425
213	0xbfbb038dbb2d93ed	-0.10552297420288399
214	0x3f91d362aafe5e32	0.017407933889982803
215	0xbfb5302f68cd7244	-0.08276649769454375
216	0x3fb2938683f18b11	0.07256355973508401
217	0xbf9682086d12630a	-0.02198041120263653
218	0xbfb0690f3e013c3b	-0.06410308135785751
219	0x3faa4db9063cbc45	0.05137422753465918
220	0x3fb3497c937f60cb	0.07534006691946897
221	0x3f9ce73e36762e86	0.028225872110438498
222	0x3fa41716c45ba8be	0.03923865458439611
223	0x3f904e913ec6fed9	0.015924710709213172
224	0xbfb28ece584a45df	-0.07249154716034621
225	0x3fa66408638992d7	0.04373193945938219
226	0x3f6efe96799e1ad7	0.0037835062948404596
227	0x3fb4dd79c3c1b0af	0.08150445012296602
228	0x3fb413c96a2ef381	0.07842692224853744
229	0xbfb177815c36ae4b	-0.06822975636776467
230	0xbf98fe70c7d369ba	-0.024408113666916732
231	0xbfa76e95d2350d58	-0.04576557341581616
232	0x3fb768bb6bb94f5d	0.09144183521249034
233	0xbf93ea9aa1177a57	-0.019449630815751764
234	0x3fb7e8cf5d029201	0.09339614887955607
235	0xbf875441e569bfeb	-0.011391176999694571
236	0xbfab8130ffe17fdb	-0.053720027194458196
237	0xbf94b4ba73d559c4	-0.02022067386618588
238	0x3fb3276fe036d818	0.07482051109295218
239	0xbfb03eba06480d22	-0.06345713284831736
240	0x3fb2986791e9eaca	0.0726380091891016
241	0xbf7e9eaa358522de	-0.00747553337016235
242	0x3faa4d05a77733e7	0.051368881886084065
243	0xbfb02634c3187f44	-0.06308297885015884
244	0xbfb0be065cfff537	-0.0653995492029552
245	0x3fb03d9384a313c4	0.0634395788975573
246	0xbf9906e5cfc021ee	-0.02444037514217883
247	0x3fa4228ef04c1d07	0.03932615931813115
248	0xbf9f68aa661eea85	-0.030672705157238873
249	0x3fa100ef4e10a608	0.03321025684301665
250	0x3fab02f8e8d82e35	0.05275705187167682
251	0xbfb08820b155ebc6	-0.06457714395030142
252	0xbfb3fd2535e8a5dc	-0.07808144155628532
253	0xbf7f950f419fe6a4	-0.007710513682462814
254	0x3fa9910d45758536	0.049934782723321566
255	0xbfaa4ecfa1faf552	-0.05138253071116118

fc_hidden_list.0.bias f8 [100]
0	0x3fbad2c0cfbb56e3	0.1047783381612493
1	0x3fbb8d01e4b14ffe	0.10762035210910878
2	0x3fa17f4701fe864c	0.034174174302517984
3	0x3fb6e8ea65ff2d09	0.0894915102973536
4	0x3fbcd911518ebccb	0.11268718949462479
5	0x3fbde553120fe7a4	0.11678046408624582
6	0xbfb6e03b8a7dbaf7	-0.08935901766902164
7	0x3f57af4bc6853b99	0.0014456024164990254
8	0x3fa515a13f70aa9a	0.0411806478444607
9	0xbfa5cd0a753bd874	-0.04257996254993737
10	0xbfa7c08c40680861	-0.04639089857302348
11	0x3fa71ba2b2534f1d	0.045132717388382405
12	0x3fb8fdf29174fe22	0.09762493182369572
13	0xbf8b4f8f30f22b4b	-0.01333534114953285
14	0x3fbfdc98aa5fb7f0	0.12445978316802075
15	0x3f9aa609896128ff	0.026024006853085698
16	0x3fb3aaf450b768fa	0.07682730646721217
17	0x3fbdcb628c8cc7ac	0.11638465815920424
18	0x3f6e5f0edc3627aa	0.003707436584311237
19	0xbfad09cae3fea866	-0.05671533616198658
20	0xbfbc1eb8dcca936f	-0.109843782333497
21	0x3fb8b902357050e4	0.09657300762802695
22	0x3fb735957ed3857f	0.09066137644142279
23	0xbfa6cb43e991ced9	-0.04451954103651951
24	0x3faf86a8083a041e	0.06157422161505387
25	0x3fb953190b1a2ee1	0.09892422219325737
26	0x3fb32cd607cad32d	0.07490289392701462
27	0x3f9e30aaa540f54d	0.02948252328518679
28	0xbfb7c6d71a4a817a	-0.09287781135436105
29	0x3fa936709ef1c1d9	0.049243468668354225
30	0x3f9dee01e4340c35	0.029228238633560905
31	0x3fb7b50249606f65	0.09260572711394628
32	0xbfa37453cc37ff4a	-0.03799688213257342
33	0x3f994f9da22e3e8d	0.024717772506447622
34	0x3fabb1e74d649a8a	0.05409167117823184
35	0xbfc0749564819884	-0.12855784804850512
36	0x3f8abf4425527a16	0.013060123814566043
37	0x3faf32d45a2d82dd	0.060934673316983747
38	0x3f4dab2740e0fe31	0.0009054128329423814
39	0xbfbb09df98262e4f	-0.10561940636233057
40	0xbfb6b5fcfa7413db	-0.08871441950402874
41	0xbf754b7aae796e1f	-0.005198935723082636
42	0x3f9ebb154ddde467	0.03001054084549928
43	0xbfb98fa457533c83	-0.0998480523296497
44	0xbf98d07093ba74db	-0.024232634560225157
45	0xbf819d21d112c0e7	-0.008600486939343855
46	0xbfc14aac8eb3632b	-0.13509137122925927
47	0xbf98bad8fabb703f	-0.02415026693675792
48	0xbfb460fbc483733a	-0.07960485027019795
49	0xbf9ab3c083b05ab8	-0.026076324498798015
50	0x3fadbb9f96d57b52	0.058072077905981914
51	0xbf9e5efdb105c7d6	-0.029659236840821133
52	0xbf8f5465a38ea673	-0.015297693303938353
53	0xbfa9916f00de81f1	-0.04993769536600102
54	0xbf9d3c5589298865	-0.028550468918531986
55	0xbf76498de534b212	-0.005441240576413724
56	0x3f918b039c21557d	0.01713185921137982
57	0xbfa7a741737ed2c8	-0.04619793448310855
58	0x3f9596d6c0b98d18	0.021083217156399575
59	0x3fa34ff6da4ac9fb	0.037719453951826375
60	0xbf98592ee49d3611	-0.023777706817147918
61	0x3f86dbdc3e53249e	0.011161537792207018
62	0x3f9af42d7a5dd5d1	0.026322088807736514
63	0xbf99328bc97af4fd	-0.02460688035238422
64	0x3fa71a0142327d4d	0.045120276766506075
65	0xbfb3e82ebcb8a947	-0.0777615748162691
66	0xbfbd8bed242ccb5b	-0.11541635640314267
67	0xbf910dd66f1b79bf	-0.01665434888024619
68	0x3f92a7eb4cd3b13c	0.01821868568815542
69	0xbfa19acb384cdaf8	-0.03438410818346499
70	0x3fa31c0964e9f975	0.03732327801570793
71	0x3fbaec9a093af47a	0.10517275548314045
72	0xbfc16e30ae167e18	-0.13617523670562615
73	0xbfad64b34883dcc1	-0.05740890751069961
74	0xbfb8b8256ef17375	-0.0965598483903259
75	0xbf94bc5f8b86dc87	-0.020249836817779723
76	0x3f933f2ca23441b0	0.018795678520349746
77	0x3f7050ac214bec77	0.0039831851797728
78	0xbf88624ef78911d7	-0.011906258515531327
79	0x3fb610f9526dccab	0.0861965013735239
80	0x3fb6f372cc9f2e95	0.08965222831391835
81	0x3f82c427e5549461	0.009163200079067292
82	0x3fbb9de8cffdfefc	0.10787825658735167
83	0xbf9b9e8df00358a1	-0.02697202470229654
84	0x3f91cda940d26f2a	0.01738609750883239
85	0xbfb0a82444b1da8e	-0.06506563832395271
86	0x3f948d2e4a5e3c8b	0.020069812096661848
87	0xbf9dc3ce69b1f927	-0.029067254258273636
88	0xbfa4cfe2226cedc3	-0.040648524000484375
89	0x3f9effa24350bc91	0.030272040709118434
90	0x3f8c907e3ebb3d5d	0.01394747380200439
91	0xbf6e72c2e1da910d	-0.0037168318074966068
92	0xbf9725cba7ceb2f4	-0.022605116002227768
93	0x3fbfafbe3205bf41	0.12377537461520395
94	0xbf82b27c63909409	-0.009129497326350504
95	0xbf9dfd725888d715	-0.029287134793967235
96	0x3fb661c0648c10f5	0.08742907004131324
97	0x3fb1580ce491fd35	0.06774979191140036
98	0xbfb5e33a213b279c	-0.08549845992379662
99	0x3f9ebfb59cea54b9	0.030028188421586253

fc_hidden_list.1.weight f8 [100, 100]
0	0x3f8fc75eb6868daf	0.015516986794699898
1	0x3fb189a8a52d716d	0.0685067561402712
2	0x3fa8a2045b9811c8	0.04811109178629952
3	0xbf96f7ccf1cfd3a0	-0.02242965913679351
4	0x3f8ca84dca00675f	0.013992889144038121
5	0x3f9feef5ba3fb6d9	0.031184997074823115
6	0x3fac2d0c7b333dff	0.05503119472416173
7	0x3f951658c373e500	0.020593058518874052
8	0x3fa809fb61a12d9e	0.046951156299282135
9	0x3fa3d166a5387395	0.03870697752811406
10	0x3fa55ff4887d380c	0.041747705136558094
11	0x3f980eaf7926145b	0.023493520516712923
12	0xbfb081c6ebd333d1	-0.06448024041601676
13	0xbfbac1b2176e5311	-0.10451806137127685
14	0xbfb945b440ab552d	-0.09871985033835946
15	0xbfa3331516e77068	-0.03749910263624728
16	0x3f790d8ede9a4f10	0.0061164456216322854
17	0xbf8ef852dfc10b68	-0.015122077420647265
18	0x3f993b360184f884	0.024639934389818055
19	0xbf741188a1d368e4	-0.004899533957735101
20	0xbfb438fa2595170e	-0.07899440209902428
21	0x3fad5eca09bb0498	0.057363809287843626
22	0xbfbaf144eff20bc3	-0.10524397714657056
23	0xbfb2494f488c48b2	-0.07143111725989362
24	0x3fb554a010e589e4	0.08332252895846853
25	0x3fa78522ed8a6613	0.04593762540498516
26	0x3f9e419a877f4cc0	0.029547132988068325
27	0xbf7d1dbf464bd26a	-0.007108447233566831
28	0x3fb7559d61592cd6	0.09115012766521899
29	0xbfa66f54b7f946fc	-0.043818137605411395
30	0xbfa3d599074da288	-0.03873899664069308
31	0x3fb2d1a114bac80c	0.07351118808836093
32	0xbfa55f6df37f24df	-0.04174369428035062
33	0x3fb6c8d4cd562a9f	0.0890019418058423
34	0x3fba28b8a54f9f47	0.10218385730661082
35	0xbf7f922e53bec0dc	-0.007707768407201079
36	0xbfb08772d1794e3e	-0.06456678022487325
37	0x3fa280b88cc9e679	0.03613831251727801
38	0x3f9f4f8ad0fc10f8	0.030576867108735833
39	0xbf8396bab2a3ab2f	-0.0095648370520017
40	0x3fa26db8f5c3c165	0.035993366241998705
41	0xbf9c95adad296a3a	-0.027914727872806668
42	0xbfa593aea74181b4	-0.04214235107133693
43	0xbfa4e1cd7e350667	-0.04078523793806426
44	0xbfab133c67650ba9	-0.052881133672165355
45	0x3fb9b3256b6596cd	0.10038980361931778
46	0xbf9c0b3ab8c62cac	-0.02738658669254039
47	0xbfa2229c15ef8907	-0.035420301130004765
48	0x3f9ae4586628195c	0.026261693225046442
49	0x3fb62ff42e46a11d	0.08666921739370932
50	0x3fba5bdbe36ce223	0.10296415617347825
51	0x3fb4b5d2ce5297de	0.08089940583394603
52	0xbfc0d49b03515b20	-0.13148820554734986
53	0x3fb72e3e7266366c	0.09054937642050626
54	0xbf9000f4b3d2b963	-0.01562864635041573
55	0xbfb80fa20b54663e	-0.09398854042628899
56	0xbfab63bebf650e50	-0.05349536978112879
57	0xbf8316d41fcc6652	-0.009320885868464721
58	0xbf93e50fd513323f	-0.019428489093842535
59	0xbf9655ffd3ef5788	-0.02181243639991906
60	0x3f856ab103f346da	0.010457404072812638
61	0x3fa2baab0df43542	0.03658041520439294
62	0xbfb6123ed907ad65	-0.08621590422233323
63	0x3fbe666aaf999072	0.11875025546174969
64	0xbf9c7bd93c536d49	-0.027816194827079675
65	0x3fb94a126f02da28	0.09878649912102644
66	0xbf81c5f6bac917da	-0.008678367209665017
67	0x3fbf45360b088653	0.12214982766502062
68	0x3faeb3dfcbf20c0b	0.05996608128136679
69	0xbfb6603a212f76cb	-0.0874058085459765
70	0x3fb1ea52d74b04fc	0.06998174434831478
71	0x3fa10479da848e5e	0.033237274097953615
72	0xbfa3f6485dea7ec6	-0.03898836275516042
73	0xbfa91972172f4bee	-0.04902226002709385
74	0x3f9bb37bff0f1edf	0.027051865999765275
75	0xbfb17301bd164cc4	-0.06816111437210554
76	0x3fc287b64710411c	0.1447666022290911
77	0xbf8358eafd4f08ec	-0.009446941237801508
78	0xbf75aa31f6801e3c	-0.005289263885067504
79	0xbfb2d994b8cd315b	-0.07363252174144945
80	0xbf9418313638000a	-0.01962353604722015
81	0xbfae3e579a538a88	-0.0590693832289349
82	0xbfad1d97543eda6f	-0.05686638739955618
83	0xbfbab9cfaada79fc	-0.10439775391794365
84	0xbf92dcbb8f72264e	-0.01842015326523088
85	0x3f8dad5c25ff3b0c	0.014490814122749572
86	0x3fa326823e93fd97	0.03740317357914618
87	0x3f7f2d190ce9c128	0.0076113680394061314
88	0x3fb2035657d96f11	0.07036342282065912
89	0x3fa34f9ba2c3537f	0.03771673547604503
90	0xbfb9ef0a5403d49f	-0.10130371619364319
91	0xbf8deacc61bf2441	-0.014607998593321738
92	0x3fb93e481f18694f	0.09860659369625079
93	0x3fa8027e9121e6fc	0.04689403077732199
94	0x3f9ce966211f8432	0.028234096309351205
95	0x3fbed2b417fa9213	0.12040258012218201
96	0xbfab6ee9796c60be	-0.05358056647509234
97	0x3fae24f9dd33a8f6	0.05887585473267791
98	0xbfbf6fcac75fad82	-0.12279956214449864
99	0x3fabef012ab72655	0.05455783506802151
100	0x3fb1b68ab1331a3e	0.06919161630785539
101	0xbface0a48c7ac7d0	-0.05640138830985075
102	0x3fb4787dc2e8b6b4	0.07996355064889366
103	0xbf8652e4ed54644a	-0.010900295727468774
104	0xbf74421f3a3ff5b6	-0.004945871336528842
105	0x3fbaeac1fbad8313	0.10514461893536646
106	0xbfacdd868889d584	-0.05637760559776964
107	0x3fa4147bea517638	0.03921878085450853
108	0x3f8c49fc082b4b03	0.013812989234258227
109	0x3fa55b45216360ce	0.04171196014948607
110	0x3f9d4b89b3ba6b39	0.028608466715563472
111	0x3f7b3c9eb8611b26	0.006649608612923774
112	0x3f980e4498f5af55	0.023491927944106667
113	0x3fc06fbcefbf4fbc	0.12840997415935174
114	0xbfa42df645933bfa	-0.03941316222482523
115	0x3fc0bfe91dfd721e	0.13085664715153283
116	0xbfb6457dd1f1083b	-0.08699785590673141
117	0xbfafb3930b6fb610	-0.061916918893853645
118	0xbfb0872f4e3b5030	-0.06456275615647722
119	0xbfaa1867080ef6ab	-0.05096742604608314
120	0xbf99cc3166630ca9	-0.02519299685878865
121	0x3fc456196410837a	0.15887753854715553
122	0x3fbc6baa12fd4122	0.11101782764058446
123	0x3fb4683f6880a354	0.07971569348650337
124	0x3faa808f247e7a56	0.051762078480568505
125	0x3fa9cd9a2f76985d	0.05039674596200492
126	0x3f837a8cdb0ee1ea	0.009511089739917506
127	0x3f838a35de5160c5	0.009540959212401732
128	0xbfadd8ba58a331c9	-0.058294127769474686
129	0x3fb68a6bdecf4c35	0.088049642464555
130	0xbfabd7e7bb9dfe7c	-0.05438160100220288
131	0xbf9c81702d4db867	-0.027837517514335632
132	0x3fac5febba4f0317	0.05541931771541025
133	0xbfbc94d6b8024d71	-0.11164609901816448
134	0xbf982e219bcffe5b	-0.023613476882017852
135	0xbf86e7c076e511b3	-0.011184219005948437
136	0x3fba8b765df7c376	0.10369052690636046
137	0x3fa0560ce29a8d46	0.03190651193770093
138	0xbfa899924849743e	-0.04804665691765607
139	0x3fbc166297d45903	0.10971656996511929
140	0x3f8b9af2f485aede	0.013479135596490218
141	0x3fac2edd3ce38258	0.055045045550063676
142	0x3fb0f52908f13e2b	0.06624084919280253
143	0x3f9fc26a286b0782	0.031015070645259886
144	0xbf91287ef0df7c5b	-0.016756041957588824
145	0xbfa94380a1eb069f	-0.04934312798060358
146	0xbfa3b346f5a1a9a5	-0.03847715137893041
147	0x3f80ba7f06dd2eb4	0.008168213269207449
148	0x3fb5fd61a958a6eb	0.08589754471236304
149	0xbfa71d3d9e0a62d0	-0.04514496378141575
150	0xbfc29a4faa17f74e	-0.14533420377113732
151	0x3f93e4c34c2c30ae	0.019427348636825208
152	0xbf8765eb52812cce	-0.011424864249553936
153	0x3fa0d811fdd91898	0.032898485410030875
154	0x3faa153264302327	0.05094296906469813
155	0x3f96a3e66cff22ba	0.02210960426580997
156	0x3fb635343c0b43a0	0.08674932924192413
157	0x3f851e990e5ec2d5	0.010312267066042416
158	0xbfa55decf009d4e1	-0.04173221998363786
159	0x3fa51f972a383828	0.041256641296158414
160	0xbfb6e89ed32a88d0	-0.08948700576232516
161	0x3fbb67f827f7e0b1	0.10705519653118035
162	0xbfa1176f41197a9d	-0.03338191671058619
163	0x3fb084f2a00296e4	0.06452862173554369
164	0xbfa38059c94263cc	-0.03808861333636279
165	0xbfa0a0f663fe0f36	-0.03247804613695708
166	0xbfbed8e2e2992d65	-0.12049692184625867
167	0xbf9efc5adfeb7dcf	-0.030259532849297884
168	0x3f912d50cde07d27	0.01677442795346198
169	0xbf83a8b8e71dd80f	-0.009599155953520037
170	0x3f83d0da14c63835	0.009675697096806693
171	0xbfa42303502fab0c	-0.039329627550463625
172	0xbfb2893d11964450	-0.07240659407968164
173	0x3faed708419326ee	0.060234315876710784
174	0x3fc1df557c095f65	0.13962811047053517
175	0x3fb1b6e509ec299a	0.0691970013832929
176	0xbf8c9d0a7c50417b	-0.013971406859156535
177	0x3fb6e180aeb5cd8a	0.08937839761147451
178	0x3fadc922aa940a09	0.058175166437667576
179	0xbfae4408b47a5317	-0.059112808257088804
180	0x3f718a5deee5025d	0.0042823476090353115
181	0xbf9538493708f65c	-0.0207225265351013
182	0x3fb1d7efcbbde4c0	0.06970118259586666
183	0x3facb82662a36d39	0.05609245256502011
184	0x3f957df73a8c8468	0.020988333653012253
185	0x3fbde94d9684d346	0.11684117245461065
186	0xbfa3f0ec35bf07aa	-0.03894746929246591
187	0xbfb0c043089776a8	-0.06543368301160035
188	0x3fa46cfd263f7a3d	0.03989401904958754
189	0xbf8bfa0e6ef63085	-0.013660538445741341
190	0x3fbe7d639cf0253f	0.11910078603263673
191	0xbfa15a70a522c430	-0.03389312759225793
192	0x3f9eec8887ef1c2c	0.030199178025011417
193	0x3fa8db8d2e147858	0.04855004489421394
194	0x3fb7f966becd4cf5	0.0936493125748717
195	0x3fab0dbcf3bbdc41	0.052839188339867345
196	0xbf9c7b51220884bc	-0.02781416673872593
197	0x3fb4e4cbcb298428	0.08161615095151886
198	0xbfa9266c039efb18	-0.04912126106454745
199	0x3f302fb11af9c42e	0.0002469832788625806
200	0xbf89a3cf1f4f20dc	-0.012519472258546598
201	0x3fb58dc0f80cfa10	0.08419424110341134
202	0x3f9cfb83b769a889	0.02830320174181414
203	0x3f943e85e04f9841	0.019769756141521325
204	0xbfca189cd97164c7	-0.20387611977893114
205	0xbfa1b78a46e618c9	-0.0346034251734167
206	0x3fbbfc372ded1f6e	0.10931725379225352
207	0x3fbfa1e31f3bfc2c	0.12356395256573255
208	0xbfb0cf3b5c38cd8b	-0.0656621074820604
209	0x3fa688f81100be52	0.044013740611600696
210	0x3fb9c9dcbae1c6e3	0.1007364231352557
211	0x3fbff123a686b048	0.12477324309901505
212	0x3f8c650ff3c78c72	0.013864636065539868
213	0x3fa8b46fb44e222e	0.04825162006369897
214	0xbfb895a19366d10b	-0.09603319023773708
215	0x3fa33bfe7f574c1e	0.03756709389167433
216	0x3fa464481d93dbfc	0.03982758866361988
217	0xbfbbc2b0fccdf93a	-0.10843950435625951
218	0x3f8fe53953fda9fa	0.01557392871446427
219	0xbfa0a8833e67048b	-0.03253564965007979
220	0x3fadeb4e2902c064	0.058435862070269434
221	0x3fbeaae058381faf	0.1197948661211956
222	0xbf9c7cb6c8623b0b	-0.027819496136142024
223	0x3fa5d13ccc835362	0.042611980404820185
224	0x3f8e91907d167c26	0.01492607957589882
225	0x3f751d837860e2e8	0.005155099444942059
226	0xbfa2d1732caf84ff	-0.03675422592619703
227	0x3fb66f0e4ad30b75	0.08763207747237607
228	0x3f971294ef78d422	0.02253182136174215
229	0xbfaee08685d1c3dd	-0.060306743464827874
230	0x3fb6fbd88515dcd7	0.08978036164431856
231	0xbfa447adcdc1adeb	-0.039609366766707975
232	0x3fba5b83b37058be	0.10295889979201697
233	0xbfb5e87503f62145	-0.08557826372828455
234	0xbfa78a1b5f7b98d1	-0.04597554722367792
235	0xbfc11904e64d9993	-0.13357602353353268
236	0x3fbfa1f53d76f423	0.12356503248788946
237	0x3fa074b32408e666	0.03214034857633123
238	0xbf70ba6458f47f0d	-0.004084007246347954
239	0xbfc3fd214115fe8a	-0.15616241148017124
240	0xbfa1986bbabc6395	-0.03436600355616474
241	0x3f9cefe175637b8f	0.028258822240669054
242	0x3fa437e955999bfe	0.03948907060549088
243	0xbfbfa8b52fa2ae2f	-0.12366802609420156
244	0xbf601a083a7853ad	-0.0019655380926999117
245	0xbf879f9091914a01	-0.011534814302796017
246	0x3f6c6d5d3b712039	0.003470117658739749
247	0x3fb569a527f59079	0.08364326692168501
248	0x3f9cbfe7fa9024ba	0.02807581393065981
249	0xbfaee9fb43dd424b	-0.06037888720914405
250	0xbfbc74a7bf27a0fb	-0.11115501801362264
251	0x3fa23a250985d020	0.03559985867732984
252	0x3f3e6f60a123de39	0.00046440228574293505
253	0x3fa1beebaa2536d1	0.034659733314226344
254	0x3fa8425275c356de	0.047380997538920985
255	0xbf857e7a282d4871	-0.010495142317868496

fc_hidden_list.1.bias f8 [100]
0	0x3fa12743b35e8aa3	0.03350268902365385
1	0x3f813d2f657c76e0	0.008417482647526453
2	0x3f9c09df96bad564	0.027381414007967023
3	0x3fbb20fa8186b226	0.10597196256885208
4	0xbfbf37b45aaa7936	-0.12194373334429973
5	0xbfa71f78e7b45bad	-0.04516198948311199
6	0xbfa84997b7994c43	-0.0474364673251775
7	0x3fa1429b63a561e9	0.03371129599935669
8	0x3fb920a384ee6f3c	0.09815427775759827
9	0x3fa4d3e556c015e1	0.040679137076988565
10	0x3fb7af9c06e8a1fa	0.09252333801908455
11	0xbfb3e1d2a3407b47	-0.07766453252450588
12	0x3f8e6f1d007c4585	0.014860369279207539
13	0x3fa1e6d71a7ded13	0.03496429632556377
14	0xbf9fd6d2a9758a23	-0.031092921822514562
15	0x3f97406df10da545	0.022706716382719056
16	0x3faa99fc0c793761	0.05195605900062961
17	0x3fa51ce8294720d5	0.041236166991042524
18	0xbf84ae0f410d00e2	-0.01009761731404563
19	0x3f836f1267f26f95	0.009489196583949236
20	0x3fb706b3d8c54a3e	0.08994602243664304
21	0x3fac8ad839c8b85d	0.05574680047389855
22	0xbfa0cab00e1c206b	-0.03279638454665775
23	0x3fb77abaafe99c13	0.09171644968738261
24	0x3f944edef5cf9bdf	0.0198321187525855
25	0xbfaaa550c2e15e30	-0.052042506970505165
26	0xbf72c4fa63b98370	-0.0045823841897750656
27	0xbfb2ec00f61c58e4	-0.07391363152087
28	0xbfb4695f2166f3ba	-0.07973284306986175
29	0x3f4f5097fcd51cbf	0.0009556524397930296
30	0xbfb451cfd7537da0	-0.07937335021005376
31	0x3f751df9be16005e	0.005155540043574628
32	0x3fa8c89a4fa4dbbf	0.04840547773567704
33	0x3fa5643e358220ab	0.04178041842630028
34	0xbfb4ef958ad4d554	-0.08178076400220863
35	0x3f99770700501acd	0.02486811580095143
36	0x3fb39378858e4f82	0.07646897564546687
37	0x3fac63f8ebc210ae	0.05545022848039714
38	0xbfb07fc88844611b	-0.06444981886705074
39	0xbfbda891d178562a	-0.11585341800704244
40	0x3f948e481027d131	0.020074010835700654
41	0x3fa218fe9fb093d1	0.035346943848970754
42	0x3f780d5ee30728b6	0.005872126247093037
43	0x3fbb162413a206c3	0.10580659369773131
44	0xbf997fdaa6c49053	-0.02490178721303977
45	0x3fa5a2f7f6ee4727	0.04225897683421769
46	0xbfb25959bdb5d8ea	-0.07167588121032833
47	0xbf6591917c1fe91e	-0.00263288893711179
48	0xbf92934b3bf230a2	-0.01814000657445603
49	0xbfb39778ed9a0d14	-0.07653003502678174
50	0x3fabdac619de42ae	0.05440348687910067
51	0x3f72c9a94ca7e9bf	0.004586850477148407
52	0xbfb075927247561b	-0.06429400720602312
53	0xbf7a935e6b2059fa	-0.006488198110693672
54	0x3fa408b97f9cc7b5	0.03912906344193293
55	0x3f9620df9135b089	0.02160977672376466
56	0xbf94b19776e08fb0	-0.020208708410919207
57	0xbfa47730281986f4	-0.03997183312891464
58	0x3f9be52374b7d585	0.0272412815083576
59	0x3f935419ed7e188b	0.018875508423228864
60	0xbfb4af8ed4d19d71	-0.0808038014962358
61	0x3fb792bce4d892c1	0.09208279215870176
62	0x3f9e356003cadda4	0.029500484687302056
63	0xbfbaaf9e4e53ae03	-0.10424222385670849
64	0xbf9aa0ed756ef4cb	-0.026004514973227793
65	0xbfbcb02e0e72ff84	-0.11206329205287885
66	0x3fa8dc76ba6d6ec5	0.048557005173930835
67	0x3faa2adc2fa524ca	0.05110824662785658
68	0x3f9c651eda4010fd	0.027729494162501023
69	0x3fc291bebe19ef84	0.14507278711596083
70	0xbf6fddd8b6e381c8	-0.003889964361505547
71	0xbf9b0d4fb4d96e64	-0.026417966283004538
72	0xbf7a206145917033	-0.0063785361936333105
73	0x3fb8aab8e4ef4b3d	0.09635501469828696
74	0xbf97edb82a902e35	-0.0233677650431174
75	0x3fb89b3a7ea5209b	0.09611859886092804
76	0x3fa339cf34a63cb2	0.037550425698208115
77	0xbf8396d45a8b9975	-0.009565028203223783
78	0xbfa3992d7e5d13d5	-0.03827802817844598
79	0x3faf3c7b5b8b494f	0.06100831501466308
80	0xbfb0d8fecc1dd4be	-0.06581108554185541
81	0x3fa595da05d3cc1f	0.04215890236982766
82	0xbfb4cdd1319fc401	-0.0812655206825781
83	0xbfb452ecef5216f6	-0.07939034312047596
84	0x3fb1f5182daf5517	0.07014609446862995
85	0xbfb9895ae5feb652	-0.09975212206946907
86	0xbfb43be90a42111e	-0.07903915882531407
87	0xbf9a25b8ba26b8c7	-0.025534521447917038
88	0x3fa4aff4b4ba7274	0.04040493684917559
89	0x3fa1b318f523012c	0.03456953041450314
90	0xbfa540981a1a61e3	-0.04150843924179861
91	0x3fb39aee1e0af3fe	0.07658279641596263
92	0x3fab8bab14de5bda	0.053799959466395555
93	0x3fb02db58db2ff28	0.06319746694043415
94	0x3fb4a2dffa181ab0	0.08061027389349351
95	0x3fb15ec76e268fcd	0.06785246314262779
96	0xbfad767f49b43662	-0.05754468702990036
97	0xbfb4272c6b50afd5	-0.07872274036407075
98	0x3f9247aadbc1a940	0.017851514494773513
99	0x3fa4d35ed9a82433	0.04067512900298489
