savedModel/poisson2d_inverse_tanh/noise_0.01/ParticleWNN_4/trained_model_final.pth (torch, 131953 bytes, 20 tensors)

fc_in.weight f8 [50, 2]
0	0xbfd86605157aeacf	-0.3812267980353398
1	0x3fadffbb86308c3c	0.05859170926148535
2	0xbfeb44c55a31c5dc	-0.8521448861703749
3	0x3feb96859ced1445	0.8621242585146623
4	0xbfe03075ec3eea34	-0.5059156049895308
5	0xbfe8a98d7b6ab119	-0.7706973467334449
6	0xbfb2cbd782e8d754	-0.07342287965806565
7	0x3fc3e3a2c6b63b25	0.15538439467169343
8	0xbfd0d64a94738389	-0.26307930466833135
9	0x3fd5105c2279044d	0.32912352911450143
10	0xbfe0c2c3bbf14eca	-0.5237749739412376
11	0x3fe08136997c958d	0.51577310541022
12	0x3fe5d103b72fff36	0.6817644670372605
13	0xbfd8b69bb1f7ac98	-0.3861455190623899
14	0xbfe11862a669bcfa	-0.5342267275099453
15	0xbfde37665aaf487e	-0.47213133674552654
16	0xbf9e050d45d0f76b	-0.029316146265265724
17	0xbfe1ca50746a9545	-0.5559465669399876
18	0x3fdfa97b821dd976	0.4947193880720059
19	0x3fd18d2885ef550a	0.2742406185110019
20	0x3fe063e768c0d9a0	0.5121953054393096
21	0xbfe4e0772bb83d84	-0.6524005750560922
22	0xbfd31d3e1ef1d92c	-0.2986598303026706
23	0xbfe77d1de9a66e13	-0.7340230525473451
24	0xbfdbecc8b381c0d8	-0.4363271477696009
25	0x3fd8119ae3580ff2	0.3760745258480248
26	0x3fc48d25effd9c2c	0.16055750101370003
27	0xbfd166c6fa06c553	-0.2718980256714378
28	0xbfccf878be08215c	-0.22633275298017963
29	0x3fd448b51b462478	0.31693771041370367
30	0x3fc689651ee8618e	0.17606796273390696
31	0x3fe84c7c56952e03	0.7593366328305254
32	0xbfd23b164b92464e	-0.2848563898088273
33	0x3fe9d32c82e09ea3	0.8070280605506536
34	0xbfd555aac70f5a00	-0.3333537048287383
35	0xbfe548e9e1b0a802	-0.6651505859383635
36	0xbfe17fc2f37f0914	-0.5468458896432673
37	0xbfc24090a1f53290	-0.14259536655517424
38	0x3fb2a1f992373fc4	0.0727840406391343
39	0xbfdcacb4866800b9	-0.44804108739482335
40	0xbfbbf79612770e59	-0.10924661589438624
41	0x3fe8d6223e099af7	0.7761393748922661
42	0x3fd3536a11f8ddc5	0.3019662070759888
43	0xbfe73e53b5fe3a6a	-0.7263582758476563
44	0xbfea09d23d462932	-0.8136988827475646
45	0x3fe851a7c5492150	0.759967694591106
46	0x3feca1cdff30f428	0.89475154726063
47	0x3f88dde193be9b1d	0.01214195472841833
48	0xbfde096242cd2ed3	-0.46932274364074295
49	0x3fd724ee258d2bca	0.3616290442193387
50	0x3fdd6e9b642d5512	0.45987591536443617
51	0xbfc43730a6d74828	-0.15793426653414255
52	0xbfe157eeb09f2ead	-0.5419839334149025
53	0xbfd8a247d7309d30	-0.3849048234428265
54	0x3fe9e9c241e4a50e	0.8097850119567356
55	0xbfe54556d2dae499	-0.6647142523062427
56	0xbfe8d275c8eb6dc8	-0.7756909298145098
57	0x3fd784b3ef58853b	0.36747454045878997
58	0x3fe0ea2d20df1887	0.5285859720249996
59	0x3fb0a54f213408e5	0.06502241669298632
60	0x3fe3aa9ead247efa	0.6145776158991503
61	0xbfe7453b3e56b142	-0.7272011010696036
62	0xbfd7843971620853	-0.36744533608009994
63	0x3fd38b0c5544fc58	0.30536182715508664
64	0x3fdde61b190e4b3f	0.4671695465742011
65	0x3fb7ed8e212a3fa6	0.09346855458920675
66	0x3fec8fee67fa5f1d	0.8925697356052954
67	0xbfeedfe2065733d5	-0.9648294566956063
68	0xbfcb4d0bc28f2d43	-0.21328875541653688
69	0x3fcd41d78b8a8dd0	0.22857183755432553
70	0xbfd3e7f34f958894	-0.3110321309269548
71	0x3fd273ab9895713e	0.2883099546504758
72	0xbfe8478afee26753	-0.758733270474503
73	0xbfa045f091897922	-0.031783597722766524
74	0x3fe657de9960f0af	0.6982262607266615
75	0xbfe5782be608cc47	-0.6709193699702006
76	0x3fe86e10a15743be	0.7634356642903339
77	0x3fd88cf6b30ddafe	0.38360373960260563
78	0xbf9e6ee47248398d	-0.02971989581606631
79	0x3fbcdef7e488ca77	0.11277722672893185
80	0xbfd9609ac19b1e51	-0.3965212717707561
81	0xbfe6c974b199ce75	-0.7120917767301324
82	0xbfac5bb66b196f3a	-0.05538721139302401
83	0x3fde17900ce4d821	0.47018815287754206
84	0x3fdfb6bd28e56494	0.49552849763637963
85	0x3fb738fcb9a01046	0.09071330577722944
86	0x3f8ffc72873853f1	0.015618223907077651
87	0xbfe3a98bdbe332e3	-0.6144465727498666
88	0xbfe78f8976de64bf	-0.7362716027884274
89	0x3f81552b0471c4c1	0.008463226388104041
90	0x3fd378fd5c2df5b5	0.3042596244993903
91	0x3fe762f5c850d252	0.7308300888458439
92	0x3fe611ea349c9bb6	0.6896868732045423
93	0x3fc14932db16e2cc	0.13504634568905372
94	0x3fd6bc081794c6d1	0.35522653868529824
95	0xbfc44c29320ad310	-0.15857424682112553
96	0xbfe0d0fa2a428681	-0.5255099130046831
97	0x3fd4e8b2fe0692ea	0.3267028313369297
98	0xbfe1ace241a69fb7	-0.5523539812320369
99	0x3fd6d27de1355158	0.3565973948764358

fc_in.bias f8 [50]
0	0x3fe096fa262757e1	0.5184298272313265
1	0x3fddbf7d1f6abc34	0.4648125464254378
2	0xbfdd7338a96b22c4	-0.4601575521924526
3	0xbfe679ae9c548791	-0.7023537686657041
4	0x3fe4aef09f8ab4b6	0.6463549724627657
5	0xbfe2c66c29343bf7	-0.5867214970365912
6	0x3fe1936f29c9c0b1	0.5492473426984558
7	0x3fa5f2d6d944ce5a	0.04286834146696768
8	0xbfe3574aebf3e411	-0.6044058426333568
9	0x3fe202fb573a1b63	0.5628639892246209
10	0xbfd8629f7e0eea0b	-0.3810194712674792
11	0x3fe574d3be186a35	0.6705111229706008
12	0x3fdcef9f32fc8d45	0.4521253583827341
13	0xbfdd2f09e0db9744	-0.4559960075260856
14	0x3fe575fbc987cf0b	0.6706522880690228
15	0x3fe2c8370f31df19	0.5869403168462412
16	0xbfe2ef4395ee7b9f	-0.5917070320464183
17	0xbfd8a7b937123399	-0.38523702981984226
18	0x3fb990e8ad4e8d74	0.09986738425373237
19	0xbfd8e1abebeb49b0	-0.3887738994500536
20	0xbfe25913a0ef337d	-0.573373617482147
21	0x3fe2800af868caf7	0.5781302310700472
22	0x3fe3573fb6372206	0.6044004973310286
23	0xbfe3ca9fd4accc90	-0.6184844163712047
24	0x3fdd300c6fb82566	0.45605765256967457
25	0x3fb239c7895b03e6	0.07119414428144885
26	0xbfe40c853b1a1cb0	-0.6265283731780951
27	0x3fda86996de18572	0.4144652913147048
28	0xbfe0ac76daab465f	-0.5210527678374993
29	0xbfb1b699fa1b79c0	-0.06919252735267545
30	0xbfb170f7a9145c42	-0.06812999608915596
31	0x3fd0188526bd6626	0.25149658950030795
32	0xbfddd7430dbfd8ac	-0.4662635454436763
33	0x3fa8ca33d04cdd7e	0.04841768186309546
34	0x3fc5f0b82e4a5117	0.17140867481487795
35	0x3fb15b93c0b77d2d	0.06780360655783531
36	0xbfd60bd6b7a55c77	-0.3444725793282894
37	0x3fe66f1ac9311ddb	0.7010625772026587
38	0x3fcfb5ae7a718ab9	0.24773198107421537
39	0xbfc716879afb9574	-0.18037505214230587
40	0xbfc14ff3cee684a1	-0.13525245287477097
41	0x3fe290611c573286	0.5801244309928542
42	0xbfe61533d4196754	-0.6900881903231757
43	0x3fd3f72b954b2b86	0.3119610746331819
44	0x3fd8d4625cb02ee6	0.38796290446837955
45	0xbfe0841dad5ae1e6	-0.5161274324264553
46	0xbfc4f6b10c5f2a8b	-0.16377843002404222
47	0xbfdfd79526ffadd2	-0.4975331192824487
48	0xbfd952792b1b8796	-0.3956587716075942
49	0xbfdc7008c6825245	-0.44433802972460895

fc_out.weight f8 [1, 50]
0	0xbfd2cc863521ef4a	-0.29373316944814987
1	0x3fb920cb355596c5	0.09815664341075621
2	0xbfc0d4f6fb95491d	-0.13149916920026153
3	0x3fbc4ba8f6801bdb	0.11052948015286239
4	0xbfa5a2619ac5d730	-0.042254495757261146
5	0x3fa50fd2bff65473	0.041136346753014495
6	0xbfc2b0354a834e7d	-0.14600244654012676
7	0xbfb086936ca3c32b	-0.06455346491180751
8	0xbfb93fbc6913507b	-0.09862878384893918
9	0x3fbb7c06340d1e29	0.1073612095907427
10	0x3fb88a0ec4346dd1	0.09585659303814188
11	0xbfc0306b27a4a20a	-0.12647761760423776
12	0x3fbd32c354d2c0f7	0.1140558321083097
13	0x3fcbc53abe50dcd8	0.21695646565215188
14	0x3fc116e0d28d384f	0.1335106876453573
15	0x3f32d856e34ced9b	0.0002875530365604396
16	0xbfb0768418524234	-0.06430841058523457
17	0xbfc0b35486695c67	-0.1304727226549602
18	0xbfc014bf0d41fedc	-0.12563312671044613
19	0xbfc40b15e7f69e5f	-0.15658830477080962
20	0x3fb7611ab2325e97	0.09132544374949202
21	0xbfc2acd52c995682	-0.145899435784191
22	0x3fb6350c03c07d9f	0.08674693194961101
23	0x3fa50cb48011f2a3	0.04111255706172769
24	0xbfb5a96f72e0a17f	-0.08461662821412651
25	0x3fa446074e20da4b	0.039596775328779
26	0xbfc09c594a5ae201	-0.12977138643852018
27	0xbf875e50123352be	-0.01141035609763585
28	0x3f9f54adeb0d417a	0.030596463653013363
29	0xbfc927d234538cb2	-0.19652774386404342
30	0x3fc13c33878d6928	0.13464969748276556
31	0x3fbc1599574f8d71	0.10970457440958171
32	0xbfaeb16929fedcb7	-0.05994728696480805
33	0xbfb9990d2a1bda95	-0.09999162939116453
34	0xbfbbb5fd1414376f	-0.10824567547044038
35	0xbfbff25c2df7ea03	-0.12479187128329987
36	0xbfb6d560e0e79319	-0.08919339648089099
37	0x3f92733764e98ca0	0.018017640623281594
38	0x3fb0037ab42cbb64	0.06255309008404947
39	0x3fb342b27e4f1c30	0.07523646911350634
40	0x3fc01d3185b18e4a	0.12589091327673635
41	0xbfba239bfd670b76	-0.1021058553369992
42	0xbfc5e413b19c6051	-0.17102285549549603
43	0x3fb3a9f163d2bfb8	0.0768118733128621
44	0x3fcdc38f355765d8	0.2325304995018047
45	0xbf784dff2f83c513	-0.005933758562819652
46	0xbfbda8be473e859c	-0.11585606803284637
47	0xbfc26211706d6671	-0.14361780156723428
48	0xbfb34aee427ce14d	-0.0753621017764818
49	0x3fc282ab812032ef	0.1446127300736388

fc_out.bias f8 [1]
0	0x3f75a46afe7414c7	0.00528375429644718

fc_hidden_list.0.weight f8 [50, 50]
0	0x3f9202c6a5985292	0.01758871446334582
1	0x3fb645620ca41f29	0.08699620064373605
2	0x3fbc4ce80b6c3a40	0.11054849890590734
3	0xbfab0c41b00bda6c	-0.05282788537981706
4	0xbfb1926f8cc34018	-0.06864068209256435
5	0x3fbd18a6ed81c3ad	0.11365741060741526
6	0xbfbeaf0f662098ff	-0.11985870593398217
7	0x3fb13873dc1d766d	0.06726764797118685
8	0xbfae94bb01afa299	-0.05972847362119644
9	0xbfb9c8d2c472f9f2	-0.10072057052727937
10	0xbfb2a9741d2d9487	-0.07289815628390005
11	0x3fad886e62ea1f36	0.05768151242688051
12	0xbfbcc03237e90759	-0.11230768074986254
13	0xbf79fc3554ed1712	-0.006344040228958086
14	0x3f9eecde6931331f	0.030200457735463645
15	0xbfbbe813da229300	-0.10900997233927612
16	0x3fb7cccdcb14faa0	0.09296880920462991
17	0xbfbcfe9d33804ea0	-0.11326010234216222
18	0xbfa5091ef72b8891	-0.0410852123948341
19	0x3fb8bf0d25c59425	0.09666521236575017
20	0x3fac0fc8c699717e	0.05480792450245796
21	0x3fb6d6c98d687ee3	0.08921489431713385
22	0xbfbdfafb021ca004	-0.11711090852315925
23	0xbfa78fe151168b1f	-0.04601959338039862
24	0xbfb1e3d4c2698904	-0.06988267656700847
25	0xbfa235fd4ff73642	-0.03556815720694974
26	0x3f84002b65b1692e	0.009765948334621823
27	0xbf9fea017ce865bd	-0.03116609883190845
28	0xbfc09b4fda206fb5	-0.12973974371641153
29	0xbfb1da9839c2c34f	-0.0697417393701134
30	0xbf9b182f4b1645f9	-0.02645944495959005
31	0xbfa4c61225fc5991	-0.04057366098111282
32	0x3fbb5c31bcb7e58f	0.10687552316075809
33	0xbfc2ed11d49b5546	-0.14785979157628953
34	0x3fac7308648e1447	0.05556513049581518
35	0xbfab94938d611d61	-0.05386792279073905
36	0x3fbca959cfa5af04	0.11195908851157915
37	0xbf78fcc8acf63d2b	-0.00610044850272055
38	0xbfb2989dbc3912f4	-0.07264123769079928
39	0x3fa926cc5740ce1f	0.049124131823557564
40	0x3f588d17bf192108	0.0014984828852835936
41	0x3fb01ce7b6c44c79	0.06294105732040291
42	0x3f8eb8742b2ced06	0.015000255172358933
43	0x3fbdf3a3b5727647	0.11699889354573499
44	0x3fb44402331b412e	0.0791627287646903
45	0x3f9d0ab8025a653f	0.028361201423284795
46	0xbf9f07ef94d95c25	-0.030303710422540448
47	0x3f0abc1fc5473c3f	5.0992698252032714e-05
48	0x3f708aa3585eeef3	0.004038465563947591
49	0xbf632f2a95a60821	-0.0023418266038684053
50	0xbfa7064cd1aa74c7	-0.044969940752005715
51	0x3fb228f5bc473c52	0.0709374985374194
52	0xbf8268f118769ce6	-0.008989223059713013
53	0x3fa8e584da60460c	0.04862609067653176
54	0xbf85159ce8332dcf	-0.01029512961976922
55	0x3fbea04be9862c00	0.11963343096992674
56	0xbfbd4cab5bfcd464	-0.11445113178054239
57	0x3fb8cabcb6d328b8	0.09684352363106796
58	0xbfb83609ca83db59	-0.09457455820289108
59	0x3fc1938d74069208	0.13731544652286254
60	0x3f8dd6a1fe4b84ab	0.014569535801856345
61	0xbf9d82db9db5abdc	-0.028819495678742743
62	0x3fbeb923fbc4d8c5	0.12001252075865228
63	0x3fadce9756b30629	0.05821679051724644
64	0x3fc09b8be76facb4	0.12974690247151488
65	0x3fb58833f0191d2f	0.08410954105157907
66	0x3fb6deff952e659f	0.08934018509025642
67	0x3fac3e1ab66fa990	0.05516131855968631
68	0xbf992a96a3c1d3bf	-0.024576524491255244
69	0xbfbe9ab882d90920	-0.11954835123564012
70	0x3fb29510b93f0ad9	0.07258705637563469
71	0xbfc2e944ca8d0040	-0.14774379625487377
72	0xbfb7433019bc7e42	-0.09086895588233637
73	0x3fc0cb709bb82eaa	0.13120849231232984
74	0x3fc240f6f2c599b1	0.14260756353469398
75	0x3fb2f9de8ad62b94	0.07412520303311815
76	0xbfb26c90dd286e18	-0.07196908377994082
77	0x3fb13f061cc7f094	0.06736791803990833
78	0xbfa16968cbb98c5f	-0.03400733458399751
79	0x3fc1ea31243915fa	0.13995947140408288
80	0xbf818b99d0fa5017	-0.008567048730846278
81	0xbfa955fa8ae4d6e5	-0.04948409028513171
82	0xbfc245dd848a58a5	-0.14275711986255604
83	0xbf922758d98c61b8	-0.017728222158525958
84	0x3fa31cc1e6c26f43	0.03732877675903847
85	0xbfa631894832c683	-0.04334668165519153
86	0x3f8c199699916d5e	0.013720680772329071
87	0xbfba6e20c72fe2f4	-0.10324292052235845
88	0x3fc09fee35ae48fc	0.12988069172985905
89	0xbfb7985f7db2aa61	-0.09216877764507948
90	0x3fa105181c4a5885	0.03324199052183111
91	0xbfa2fefefd1bfa1d	-0.037101715466622866
92	0xbfc2ef6ccc7f8e1c	-0.1479316710020705
93	0x3fbc145febc78739	0.10968589311917477
94	0x3fb28d3d20c4f067	0.07246763277083944
95	0x3fc05df4c23651e4	0.12786731226937242
96	0x3fa15d3dc143465f	0.03391449913182209
97	0xbfb6ee1d8c9f442c	-0.08957085307271545
98	0xbfad0be7529a2ea1	-0.05673144229248562
99	0xbfb489eff48232b5	-0.08022975654075533
100	0x3f96a6c5b066c8c3	0.022120560542767686
101	0xbf855bf65845cd68	-0.010429310387485471
102	0xbfa7cc5479a996c7	-0.046480789042829644
103	0xbfa1ca8dedd00f06	-0.034748492507814574
104	0x3f9ba9ffcffce15a	0.027015683240479184
105	0xbfc7cebb3f969f70	-0.18599644284153838
106	0x3f81c34b933a7505	0.008673277311852088
107	0x3fb5c3f475a288ca	0.08502128478952212
108	0x3fc408e9c0d2ce53	0.1565220061798863
109	0xbfb26acd43026305	-0.07194216619462786
110	0xbfaf5bac0468d409	-0.061246276415126095
111	0x3faaebba5d45beaf	0.05257971180514908
112	0xbfbc4ab5b416fd20	-0.11051498076175337
113	0xbfb9c4312f97f0fd	-0.10064990436507411
114	0xbfc29289c7ed56b2	-0.14509699117723113
115	0xbfcb80a56ddd77a0	-0.21486347069270284
116	0xbf73582d5cc10d5a	-0.004722764202657126
117	0x3f964f2d9a092ab2	0.021786415602302163
118	0xbfab57821eb76172	-0.05340201020198067
119	0x3fc78b1d2c9aace1	0.18393292119922136
120	0x3faea592563823d7	0.05985696127397205
121	0x3fc79cd98fd9676d	0.1844741775883522
122	0x3fc1715026ec7ccd	0.13627054119658624
123	0xbfaeeecde0e65739	-0.060415681556305896
124	0xbfc179ae9d1283c9	-0.13652594251200714
125	0x3fc55330e41a7aee	0.16660128724921414
126	0x3fb07dd0bbbd3120	0.06441979011032517
127	0x3f87e10fc008dcff	0.01165973954003485
128	0xbfbf060a70f6c312	-0.12118592508228357
129	0x3fb0e78eb5192ded	0.06603328629824264
130	0xbfaa299d86a8e3c0	-0.05109874981685136
131	0xbfb0abf8186c3981	-0.06512404056795697
132	0x3fbfb490c72e8e3d	0.12384896147573783
133	0xbfb5ccfd1f9759e1	-0.08515913029928114
134	0x3fb40f7a59c3a272	0.07836117450245597
135	0xbfc2d3789b897031	-0.14707858652661934
136	0x3fb7201ca04589ce	0.09033373749620141
137	0x3fb5e7a6c801be75	0.08556597121218508
138	0x3fb736e669ef9352	0.09068145834278354
139	0xbfc7197c838d20e4	-0.18046528266336914
140	0x3fb8be8ba90b29f0	0.09665749432603099
141	0xbfb903dbd3efc39b	-0.09771512912972329
142	0xbf799e80562b7b6b	-0.006254674258086772
143	0x3fbb8517b685fd66	0.10749958234918253
144	0xbfbaaa56df606880	-0.10416167214899197
145	0xbfbd8e1dad9a73cf	-0.11544976700174846
146	0xbfb515e4e2c8d342	-0.08236532723169623
147	0xbfbf867817f36fbd	-0.12314558586825704
148	0x3fb50c7eed100737	0.08222192084943179
149	0x3fb653bbaed5ef27	0.0872151662678645
150	0xbf78e7417ab419df	-0.006079917696530462
151	0x3fb3ac81cd83846d	0.07685099856782225
152	0xbf9466c08c933067	-0.019923218326582417
153	0xbfc2c479feeb8a7c	-0.14662098834294912
154	0x3fb7e52238415ce9	0.09334005235119815
155	0xbfc0579c3b59fd49	-0.12767365358375063
156	0x3f94740cb531cd54	0.01997394424365713
157	0xbf9ab2dc21307716	-0.026072921300616413
158	0xbfbb63e8926d659f	-0.10699323248754532
159	0x3fbc8cb71ed54f20	0.11152214529766669
160	0x3fa6127f90e58a48	0.04310988086469486
161	0xbfbc3f75f8a34b2a	-0.11034333534489052
162	0xbfc35daca003a0e1	-0.15129621327583379
163	0x3fb9ed1a43ad7535	0.10127414848598877
164	0x3fab54d6cd5fb650	0.05338164574628179
165	0xbfbcf7a3d7f5e6b2	-0.11315368673777007
166	0x3fb55b900faf4178	0.08342838652538898
167	0x3fc14fa8c13cd11c	0.13524350581577316
168	0x3f9375bb60d473dd	0.01900379923346295
169	0xbf80af630cb91c69	-0.00814702398851193
170	0x3fb49b056b53a073	0.08049043531684834
171	0x3fbfb02d2913d605	0.12378198864811203
172	0xbfbf471d5d8fdb21	-0.12217887434222209
173	0x3f98c02048e15242	0.024170402954341925
174	0x3fbd5ed397e4c3b6	0.1147281881174099
175	0xbfbc2e683becc35f	-0.11008311713227446
176	0x3fb2e5b19d45dfc7	0.07381734933539895
177	0x3f93a986a8ab7100	0.019201377911358897
178	0xbfb7ecad1da39e52	-0.09345514272319491
179	0xbfaf82eec9c862ab	-0.0615458127323952
180	0x3fc43767d450c9c6	0.15794084422084448
181	0xbfb915f4e17b2731	-0.0979912806025396
182	0xbfaede9f5405b675	-0.06029222393668202
183	0x3fb9964cbb2c6b32	0.0999496418921069
184	0xbfbcfa3ac7938cf5	-0.11319320080251656
185	0x3fb4accad338d676	0.08076160103595406
186	0x3f95595afc143c10	0.02084867633407944
187	0xbfa3181ec50552c3	-0.03729339747466078
188	0x3fb9e86bae5b0cb2	0.10120270735483208
189	0xbfbd5a2b25b568e2	-0.11465711279507532
190	0xbfbce1166239ab09	-0.11280956171109947
191	0xbfc2745d0a2008d7	-0.14417613024131157
192	0xbfa1f1e2c0631102	-0.03504856680368286
193	0xbfad245fcc8b2718	-0.05691813823575681
194	0x3fa067b944d3e020	0.032041349078952175
195	0x3fc1446cf4a31b38	0.13490068383381426
196	0x3fab7845331e0ec0	0.053651964654844786
197	0x3fb868036809de58	0.09533711709979664
198	0x3fbfc65a376bab56	0.12412036755601483
199	0xbfb267337829a92e	-0.07188722308788861
200	0x3fbfb3bfd2fa9d34	0.12383650685170694
201	0x3fd0d8c317a256b3	0.26323010738392866
202	0xbfd4c8fb55cdaef1	-0.32476695422404506
203	0xbfc4f43b8f64c424	-0.16370338918344018
204	0x3fc0648b607b2062	0.12806837283119693
205	0xbfc3a6f084581455	-0.15353208982574765
206	0xbfa09268f5f6d90e	-0.03236701967709808
207	0xbfd3e48b0e380bb7	-0.31082416904990445
208	0xbfd7c17dc70f9ad0	-0.37118477286859974
209	0x3fd1acfb486cae05	0.27618295738895454
210	0xbfb4b081ca3ca685	-0.08081828296112732
211	0x3fb78542b63bd8f3	0.09187714528147577
212	0x3fac733331b841f3	0.055566406077676954
213	0xbfb5d3e8cceb1772	-0.08526473048104125
214	0x3fc6f96397a7030f	0.17948574929143787
215	0x3fdb3f701078adc6	0.4257469330647975
216	0x3fbf90168c2cb023	0.1232923595641187
217	0xbfd3d14ce257a5f5	-0.30964967826602613
218	0xbfb03fa39e9d105e	-0.0634710561981264
219	0xbfd8ad35b63ad041	-0.3855718879306132
220	0x3fc3276745156371	0.1496399962732329
221	0x3fb35b7979f6424a	0.07561454036318441
222	0x3fa8dacc2483a824	0.048544291932401756
223	0xbfd12476adc5b4b7	-0.26785056085538933
224	0x3fb83525bf83da7f	0.09456096578274219
225	0xbfa99b17e0f615fe	-0.05001139279469767
226	0xbfc8fbc798dc12bd	-0.1951837059388221
227	0x3fad2c7d241f16ac	0.05698004785476249
228	0xbfc5db85caaaeeb9	-0.17076179881938972
229	0x3f9d24ecae29c229	0.028461168413232017
230	0xbfcb0bbefdb95b54	-0.2112959612738573
231	0x3fc114d410910b01	0.133448131646297
232	0xbfb0305b44034f3f	-0.06323786173316835
233	0x3fad5f945655751e	0.05736983827476137
234	0x3fd3d36291fed5ed	0.30977691895836196
235	0x3fcaf42b6d0090c9	0.21057646582005976
236	0xbfc17b2d3b9ae4f0	-0.1365715542831718
237	0xbfb8005e6aec8831	-0.09375562773178171
238	0x3fcc5128d5ac25de	0.22122679169869647
239	0xbfb56c8aa278761f	-0.08368746248785229
240	0xbfc9e29ceb940b00	-0.20222817900511103
241	0x3fd4ae0104765274	0.32312035976182263
242	0x3fa55ea0b4c6352a	0.041737577502411874
243	0xbfcb1ea6a977e9d7	-0.21187289500069426
244	0x3fbefc0058dbaf94	0.12103273553264976
245	0x3fa4a934591e8f27	0.04035342777140576
246	0xbfb49064dea2fc19	-0.0803282779261142
247	0xbfa8c5f98086edaa	-0.0483854264634503
248	0x3fb8f7b94f58a375	0.09752996623195805
249	0x3f7d7fb47e6d00c9	0.007201867155174743
250	0xbfa192716abbc000	-0.03432039668939524
251	0x3fb0d1c7ab33c8f6	0.06570098809951105
252	0xbfa09b4d34c42caf	-0.03243485707397419
253	0x3fb9bf7175291eec	0.10057744131438157
254	0xbfb52a212ef149ea	-0.08267409702356301
255	0x3fa7670e5bdd99ff	0.04570813056379918

fc_hidden_list.0.bias f8 [50]
0	0xbfbc3751aa2af165	-0.11021910099493011
1	0xbfbd10b6ac0302ff	-0.11353627871995896
2	0xbfc06f0e2382e355	-0.12838913663815768
3	0x3fbedbe0e5de5e7d	0.1205425797655781
4	0x3fb9158235778e8c	0.09798444562289371
5	0x3fbc80f461faecb3	0.11134269134611223
6	0x3f72c0ad55a57115	0.004578282440288702
7	0xbfb242d480791345	-0.07133224617525709
8	0xbfb9d09fecf0a772	-0.1008396104304248
9	0xbfaaa9f23fda2377	-0.05207783727116227
10	0x3fc324bb7e0a68e8	0.1495584836419035
11	0xbfa039b7a1915c9a	-0.03169034812224787
12	0xbfb3276222d847ab	-0.07481969214157284
13	0x3fce2c22ab3edf74	0.23572190629578993
14	0xbfc304987973c434	-0.14857774668010537
15	0xbfaee1589d419d77	-0.060313004680945186
16	0xbfb6b0c6f0a7b572	-0.08863490462655024
17	0xbfb789e0a91f27a0	-0.09194759491870608
18	0x3fb60b0ca5e0c7be	0.08610610055691745
19	0xbfb0a2b0bd3eaee1	-0.06498245830760709
20	0xbfb7562221fc693e	-0.09115804033027516
21	0x3fb49f315d9c1292	0.0805540898837285
22	0x3fb9cd25dbeef9fc	0.10078655833692801
23	0xbfb7022094032d1b	-0.0898762093885818
24	0x3fb17a1370757a16	0.06826898093775244
25	0xbfb82ca05c6701b5	-0.0944309449760173
26	0x3fb56d8ba63a6977	0.0837027817564485
27	0x3fbd2c06f444c533	0.11395305121984194
28	0xbfaac7b6ad996e24	-0.05230494374401598
29	0xbfbdde92a62ff91a	-0.11667744214353029
30	0x3fb279a97a514447	0.07216891514077971
31	0xbfc05ad7c9b47307	-0.12777230595465758
32	0xbfbe103aad5a0079	-0.11743513805595453
33	0xbfb0f5adf5b81c8f	-0.06624877213481482
34	0xbf968ddb599e18fc	-0.02202551588518363
35	0x3fbe439f84d8a7f8	0.11821934693639935
36	0xbfbb21a4495a241e	-0.10598208227942549
37	0x3f63d8f98c63d3d2	0.0024227975837853655
38	0xbfa2f00f8fb94555	-0.036987768453978255
39	0xbfbbde02d9f0399d	-0.10885637112389764
40	0xbfbedecec6382733	-0.12058727588023714
41	0xbfb5ff6a751d1824	-0.08592858657093011
42	0xbfb462f9af1680f8	-0.07963524365050378
43	0xbfb5e810af375c72	-0.08557228353252969
44	0xbfa9232b02da31e6	-0.049096435640510624
45	0xbfc39d0cc9e69e01	-0.1532302842945086
46	0xbfc8cf318a8c0faa	-0.19382304444309045
47	0x3fb770cc4d7379a9	0.09156491175551786
48	0xbfc21c16e0aa8f06	-0.14148221941024292
49	0xbfb08305736e8b2f	-0.0644992262664743

fc_hidden_list.1.weight f8 [50, 50]
0	0x3fc20522a16c48d8	0.14078171617490542
1	0xbfc45e9da7520de4	-0.15913744611690028
2	0x3fbca8761a9c46de	0.11194551610631318
3	0x3fb6cca51f305e38	0.08906013499687837
4	0xbfb05f99598fd1cf	-0.06395872532431855
5	0xbfb37754d42709f7	-0.07603960208420078
6	0xbfb80c2a03140256	-0.09393560958052069
7	0x3fb3ebdb557522c2	0.07781763874403239
8	0x3f902d9b037041cc	0.015798971257085445
9	0xbfd14d59d13d419b	-0.27034612115405715
10	0x3fb55af60c3d91ba	0.08341920660820437
11	0x3fb64e24a41b879e	0.08712986952335064
12	0xbfb4cc37ffd1fd9d	-0.08124113078701219
13	0x3fb944445ee4de18	0.09869792286632906
14	0x3f86671feedf6d53	0.010938882329290555
15	0xbfb545ceafffe142	-0.0830964259802203
16	0xbfc551984a610f8b	-0.1665525782756244
17	0x3fd603da8caa2eb0	0.34398521172327445
18	0x3fc1c6fc3a3b01a4	0.1388850483254035
19	0x3fd3a6425e0a9b07	0.3070226591466256
20	0xbfa236116c4a6cff	-0.03556875655086777
21	0x3f971ed4ab23dde1	0.02257854742580701
22	0x3fb783e2a63f1a2e	0.09185616072418476
23	0x3fc00298767ac211	0.12507921013958925
24	0xbf8e4802fa3f8f18	-0.014785788785907125
25	0x3f44171c37834c24	0.0006131065156530541
26	0x3fc18fbc1d7542ad	0.1371989387357834
27	0xbfa4de4fe2b8e79f	-0.040758606363353815
28	0x3fb382c58feb61e6	0.07621416820200685
29	0xbfa7380a4d19dd18	-0.04534942809271508
30	0xbfae34e4991732d9	-0.05899729126722315
31	0x3f66d52f0d1a6c35	0.0027872008293577063
32	0x3fbddf564b4e77cd	0.11668910349405266
33	0xbfb335f72e46a3db	-0.07504219894202839
34	0x3fb7b99955e80ea9	0.0926757654888727
35	0xbfc5252722895e26	-0.16519631563527176
36	0x3fd139e173a2ac85	0.26915775578044815
37	0xbf97893347c06ed1	-0.022984315161109607
38	0xbfca041a9043d98e	-0.2032502369326718
39	0x3fd0912b7e67db89	0.25886046737962737
40	0x3fd0733f5df1fee9	0.2570341508326082
41	0xbfc71483f7b32990	-0.18031358332366354
42	0xbfbee47c10550c87	-0.120673898684844
43	0x3fb6fc633e67c842	0.08978863023347208
44	0x3fb026ebb5c0c5eb	0.06309388339356985
45	0x3fc1351dd13e7f92	0.1344334861469148
46	0x3fb91d25d43b4c5f	0.09810100966869716
47	0xbfb538303ba23c02	-0.08288861709500853
48	0x3fc137998790ff6d	0.13450926894619944
49	0x3fb1c44159c56606	0.0694008678596206
50	0xbfc08bdfe5e6fb26	-0.1292686340875317
51	0x3f804915b75af468	0.007951898248729175
52	0xbfb28c129ad6002c	-0.07244983940290756
53	0x3fba402b767aa51a	0.1025416530852862
54	0xbfb7cfdd28aad17e	-0.09301550143101697
55	0x3fb10b49de44432d	0.06657849956924329
56	0x3fb6405ad3f3b674	0.08691947626695101
57	0x3fb390fc895f5c7e	0.07643106798001217
58	0xbf940a1f7806796e	-0.019569865895044662
59	0x3fa03012fde10fb4	0.03161677693472545
60	0x3f9d48561ebd4368	0.028596253992250992
61	0xbfb5365a405d2aac	-0.08286060401330059
62	0xbfbe60823fc9070c	-0.11866010720498482
63	0x3f934d19ba2cee17	0.01884880255532381
64	0xbfac690e6c80d164	-0.05548901628972905
65	0xbfc341869fb8ebb6	-0.15043719099943836
66	0x3f83a64ca4cd9e63	0.009594534663576576
67	0x3fabb074b7a78d10	0.05408062688709425
68	0xbfb6b66c28043a32	-0.08872104622808122
69	0x3faff32148be7a1c	0.06240180981625462
70	0x3fb0d1dffa135210	0.06570243697508027
71	0x3fc20ec35e7ba49f	0.1410755359022788
72	0xbf63d95bb1b88ae9	-0.0024229803946281725
73	0xbfadc9ab3de29eca	-0.058179236702299145
74	0x3fbac7285fc20570	0.10460140550460095
75	0xbfb941b505fb0e19	-0.09865886112225332
76	0xbfadbd5c389d584e	-0.058085328970876135
77	0x3fc1c5189473f27f	0.13882739304235156
78	0x3fb4f5b7083ee3a6	0.08187431289014899
79	0x3fb7c0bf50d79e0c	0.09278484080970645
80	0x3fb2d5b569e51ce7	0.0735734351666114
81	0x3fab69bbd7109255	0.05354105949689784
82	0xbfb98b8f0c956a79	-0.09978574807375108
83	0x3fae9ec8f85ab4aa	0.05980518371266304
84	0xbfbd6c4965517015	-0.11493357394778088
85	0xbfacf775e58a5478	-0.05657547404295199
86	0x3fb67e1e1fc0d788	0.08786190295435692
87	0x3fc4d91042d4206f	0.16287425292125898
88	0x3fbfeed15493d27d	0.12473781885985065
89	0xbfce44a9e794ddb2	-0.23647044952097712
90	0x3fa68392d2e0b583	0.04397257637206577
91	0xbf8fb6b7453cc5d9	-0.015485221672494486
92	0xbf8b1a5f61613162	-0.01323389545373094
93	0xbf814d6fe584a9c9	-0.008448480789032058
94	0x3fa82765355a2fd2	0.04717556263230417
95	0xbfae781a91472743	-0.05951006911671055
96	0x3fc14507aa800d1c	0.1349191267509945
97	0xbf9c12e6c61253fd	-0.02741585334714002
98	0x3faab4a98b0b0418	0.05215959379484775
99	0xbfbbb353d08f54fc	-0.1082050689868374
100	0xbfbf7914dcff7418	-0.12294130702453321
101	0xbf9f85e853d2405b	-0.030784254184766584
102	0x3fa113ec52dd1815	0.03335512649077558
103	0x3fb174948bfcba2e	0.06818512361199033
104	0xbfb6e6ab021f57c5	-0.08945721437279903
105	0xbfccf31e0b9dd662	-0.2261693531724403
106	0x3fb6b5f3341cbd3b	0.08871383688232452
107	0x3fb67fbfce8a636c	0.08788679878706568
108	0xbfa5c7a81d6c9437	-0.04253888472730021
109	0x3fa4d43f281f5698	0.04068181385779929
110	0x3fb16b14c73bceb4	0.06804017891027564
111	0x3fbc01884ad5ceb3	0.1093983824446763
112	0x3fc0aea5e40a6395	0.13032983431619685
113	0x3fc93122144d35b6	0.1968119238976393
114	0xbfc9695d5ba64c0f	-0.19852797484472304
115	0x3fa5f8388867150e	0.04290939965316386
116	0xbfd03ea875e2c016	-0.2538243437984432
117	0xbfb2e146d211100d	-0.07374994877415038
118	0xbfbda5030ecb06e0	-0.11579913245352769
119	0x3fb7ff580eefbea3	0.09373998989735326
120	0xbfc40bbc7f5e69bf	-0.1566081640165304
121	0x3fcd16e8969b0e16	0.22726161340516232
122	0x3fc348eaafc8a5ae	0.15066274245445527
123	0xbfc1b51e50ff4651	-0.13833979563655643
124	0x3fbea4ec5020edb4	0.1197040267588168
125	0xbfb04d8da3f64c64	-0.06368336918812784
126	0x3fb32ffad7ca6d87	0.07495086448982678
127	0x3fcf7ae3b4a4db0c	0.24593778915888043
128	0xbfafa726eceb287e	-0.06182214395592299
129	0x3fba37e5d3fd270f	0.1024154322195978
130	0x3f96c2fe3854a1cd	0.022228214443346595
131	0x3fbacaca169ccee4	0.10465682079375999
132	0xbfb57037fb2530c6	-0.08374357110477879
133	0x3fbe9761ea55cbb0	0.11949741335938202
134	0x3fa6e41fd95e4b44	0.044709201130123805
135	0x3fbb20d72ff00e28	0.10596985740999598
136	0xbfc7fa6275412d36	-0.18732863164255215
137	0x3fd10b35a7ddb115	0.26630917924082215
138	0xbfa82f1b2d3274bc	-0.04723439146730743
139	0xbfb9c3da5eea032a	-0.10064472977866204
140	0xbfa94f3aa05b707d	-0.04943259437070056
141	0x3f86ad330576d91b	0.011072538952117619
142	0xbfc235a6768a54be	-0.142262275582345
143	0x3fc2e97ba00d89e5	0.14775033297617238
144	0x3f9184832f85852a	0.01710705735729793
145	0xbfaf7d9efe83c2aa	-0.061505287712752946
146	0x3f850bc74299d54b	0.010276371688841343
147	0xbf9994f398594525	-0.024982267545344734
148	0x3fa13e48d54dfbb6	0.03367831806007564
149	0x3f80d486b1edf5db	0.008217861466387191
150	0xbfa859ae3836e26f	-0.047559208261593315
151	0xbfc08f97024631ca	-0.12938201533360277
152	0x3f922a6882b6f1d9	0.01773989961451314
153	0xbf9a059cff454077	-0.025412037926173938
154	0x3f8f26f79063a5a2	0.015211042493734454
155	0x3f9e186f11e019cf	0.02939008280375238
156	0xbfc036c84011092e	-0.1266718209099706
157	0xbfb71a8a4d956175	-0.09024872202042451
158	0xbfb549c7e63d94ab	-0.0831570565329282
159	0x3fb70aae971a1075	0.09000674427994844
160	0x3f76ff56e399ced3	0.005614604387676986
161	0xbfacbdc35d0b69f6	-0.056135277851087226
162	0x3fc0060ec74fcc54	0.1251848672105519
163	0xbfbf5e4367640f72	-0.12253209375563559
164	0x3fc08a71f4b6ac94	0.12922501038460565
165	0xbfb77831ea7c76a1	-0.0916777799106634
166	0xbfa9369c65c2f652	-0.049244773313586024
167	0x3facf50429223178	0.05655682565802328
168	0x3f721a281bce5e77	0.004419476198470932
169	0xbf9b54602b882e81	-0.026689055115680652
170	0xbfaeb462c7a5cbba	-0.05996998488526324
171	0xbfbcbec00f5ebcad	-0.11228561759229434
172	0xbf91f1ca82d98cbc	-0.017523922192037786
173	0x3fb939e90932a15c	0.09853989100031896
174	0xbfc187b9efea07ea	-0.13695453848418931
175	0x3fa1f4c1c2109e98	0.035070471705975936
176	0x3fb90a6425fac665	0.09781480719791487
177	0x3fc1e6003ce82a43	0.13983157133073307
178	0x3fb29a1dcda9fc85	0.07266412993520717
179	0xbfa47205f4279502	-0.0399324284115128
180	0xbfbcd491ce7b1c43	-0.11261855402982328
181	0xbfa72c4e1eb89d36	-0.04525989651693367
182	0xbfa11f0abe99a4a2	-0.033439956442472565
183	0x3fb5434b62e31a07	0.0830580822394965
184	0xbfc263a4f1f36adc	-0.14366590322500528
185	0x3f8ffbfc5216b6b5	0.015617343192242708
186	0x3fbc014e31027c84	0.10939491936231788
187	0x3fb906e063157f14	0.09776117724458927
188	0x3fbef7682a8b80f9	0.12096262968725914
189	0xbfc304ac6a8cd8bf	-0.14858012392659778
190	0xbfaf8fd89a32d3d5	-0.06164433367067771
191	0x3fc27ffdf6b64261	0.14453100725633575
192	0xbfa23ba1ca5ddecb	-0.03561120600983044
193	0xbf957f449e6ee7f4	-0.0209933015537231
194	0xbf3f4820141a5326	-0.00047732146422534356
195	0x3fb54fdb057e4684	0.08324974903214338
196	0x3f91d8f4946be675	0.017429181631973784
197	0x3fa3af1ba93cf460	0.038445343407581545
198	0x3fb7d2c01509e5f4	0.0930595446933678
199	0xbfc010500238e16f	-0.12549781902795185
200	0xbfb67785701f99a6	-0.08776124942196492
201	0xbfb08b40bf51c205	-0.06462483092196443
202	0x3fa8d3e737ad4718	0.04849169306420559
203	0x3fb846efb4eab580	0.09483240286745875
204	0xbfb955e1ee726914	-0.09896671363313586
205	0x3fb67aa1a0773352	0.08780870597474902
206	0x3fbcae5ddc437216	0.11203562381292217
207	0x3f7364c9d4342a59	0.004734791177961905
208	0xbf98c024cd8502a8	-0.024170470279616524
209	0x3fc358734051c50d	0.151136785894359
210	0x3fb9c8c38cec3689	0.10071966352935581
211	0x3f9918bbe1c6580f	0.024508414893340155
212	0xbfc63e55a03d6175	-0.1737772972508186
213	0xbfb8dce4bacd9902	-0.09712056694624852
214	0x3fc83103fe6539ff	0.18899583741809065
215	0xbfb90b17722822b9	-0.09782549416571386
216	0xbfcc2e744d58a3e8	-0.2201676728884927
217	0xbf7546da7fa1282e	-0.005194524297687448
218	0xbfca7caa441b69f9	-0.20692947698155686
219	0xbfc457c58c5bfa0c	-0.15892857888680145
220	0xbfa9f2f342232fbc	-0.0506816881403149
221	0x3fcfcc26138164eb	0.2484176249734341
222	0x3f80d019bcf3388e	0.008209420279311066
223	0x3fc0c82b0efec222	0.1311086486071114
224	0x3f958e1f05363c6c	0.021049961751085908
225	0x3fc21424abfe3b1b	0.14123972318744724
226	0x3f951d53804e24d3	0.020619682985430664
227	0x3f4a4c743410ce87	0.0008025710486720552
228	0xbfcce417d741c050	-0.2257108498629372
229	0x3fd0ece831f21d86	0.26445965650096814
230	0x3fb73f0e42c6b4cf	0.09080590372350915
231	0xbfd0a2f07352f09c	-0.259945023175314
232	0xbf8f9825061ffa4c	-0.015426911591928015
233	0x3fcb7dd7eb38a507	0.21477793679631693
234	0xbfd459c1dfc5de1d	-0.317978352096789
235	0x3f9b85a32ff91ae2	0.026876973918002707
236	0xbfc04383130ef921	-0.12706030302610663
237	0x3f407db0b99e2d1f	0.0005032647052173634
238	0xbf503b892d1df8d0	-0.0009907569514946875
239	0xbfca5cc1805fd810	-0.20595568435936729
240	0xbfd1bfa261ba7c8f	-0.27732142967028833
241	0x3fbe12cacfde3981	0.11747424673942498
242	0x3fb05d325af73ce2	0.06392206879467069
243	0x3fb3caf3147dbf1d	0.0773155140902841
244	0xbfd1427ce35823e0	-0.269683095947185
245	0x3fc872ea8f1738af	0.19100696551180849
246	0x3fbc7965bca59d46	0.1112273774684712
247	0x3fc1e11cffc44aa1	0.13968241203891288
248	0xbfd2c89cdbd94b2b	-0.2934944292984933
249	0xbfbb6b4ff6c1bbd5	-0.10710620664916289
250	0xbf9cbf25741c9592	-0.02807291527928652
251	0xbfaec448dc653ccd	-0.0600912827527452
252	0xbfb3ffa297e7412a	-0.07811943253114309
253	0xbfab098197303020	-0.05280690165099622
254	0xbfbe3c9e843a02c0	-0.11811247566402994
255	0xbfbeb719bb56bb5e	-0.11998139213276945

fc_hidden_list.1.bias f8 [50]
0	0xbfc39319fae7599c	-0.15292668105275886
1	0x3fbb0a33847466c5	0.10562440856702
2	0xbfc082e021be74c6	-0.12899400375036957
3	0xbf85b587d3514289	-0.010600148331066055
4	0xbfb5f2b274fb25e0	-0.08573451381666741
5	0x3fb8d858795ae768	0.09705117190142476
6	0xbfb6bf11fa0d1b79	-0.08885300020948063
7	0x3f8dfa5e27190244	0.0146376949006718
8	0x3fbde7c7cbb7d117	0.11681793902954883
9	0xbfbb4acbdf94251e	-0.10661005218948502
10	0x3fc2094e8aa65c61	0.14090902109157624
11	0x3f938f4713fdc31c	0.019101248355073527
12	0x3fb7c4f72c789bed	0.09284920535775117
13	0x3fbf004fa560f9c3	0.12109849727219228
14	0x3fb794c23268984f	0.09211362581899717
15	0x3f934c43399b36e4	0.018845606223115832
16	0xbfbab5110854492c	-0.10432535603857634
17	0xbfa799f74b13f308	-0.04609654227713206
18	0xbfb2cb127579a97d	-0.07341113441512977
19	0xbfb90b21f903f938	-0.09782612161140924
20	0xbfaa8e2cf6f3fab4	-0.05186596407474067
21	0xbfa85c9c21cb9bbd	-0.04758155739346346
22	0xbfb5bc8e04660a1f	-0.0849083672274351
23	0xbf88031589f9ce75	-0.011724632523715453
24	0xbfb582f1d467683d	-0.0840293067516606
25	0xbfa370d634d924b1	-0.037970251036833054
26	0xbfaf54f0a216d6c2	-0.06119491556766611
27	0xbfb4e57ba2303ed9	-0.08162663182906317
28	0x3fafec3390c9f914	0.062348948883469785
29	0x3fabad9ab4ea2850	0.05405887087279437
30	0x3fc2477692587def	0.14280588289055582
31	0x3fb02beeb2f11aad	0.06317035549828161
32	0xbf992f129b689270	-0.02459363053835023
33	0xbfb928a5fcb1682e	-0.09827649516356082
34	0xbfc24aa91ba7da20	-0.14290346002935994
35	0x3f7273b4630a6f22	0.00450487578987316
36	0xbf76c6173e9d402e	-0.005560007857482714
37	0x3fc1c3e4a3ff9fff	0.13879068382016155
38	0xbfb42dbc51d20c25	-0.07882287023134944
39	0x3f97ef809386cf48	0.023374566082295517
40	0xbfba8a0daffb6d48	-0.10366902872504113
41	0x3fbdcf38380cc971	0.11644317024619057
42	0x3fbf819c212df13a	0.12307143983884297
43	0x3faddf93e5da5aeb	0.058346387680264865
44	0xbf53bd1bfd6dbfa0	-0.0012047551478779686
45	0x3f870cbc0a7c10ea	0.011254757947888955
46	0x3f90ffd9c996b5fd	0.016600993088720973
47	0xbfb0daad1c34e03d	-0.06583673418651954
48	0xbf9f22b2a8370f66	-0.030405799405130017
49	0xbfb5be6cbe31a3ae	-0.08493690150647978

fc_hidden_list.2.weight f8 [50, 50]
0	0xbfa20dcbb919ee97	-0.035261503548977995
1	0x3f8dfaa70ddc24ad	0.014638238058539999
2	0xbfb61cd4abb21460	-0.08637742225444489
3	0x3f80a99065b3111f	0.008135917762395693
4	0x3fc8064278505202	0.18769102930731668
5	0xbfa399e8955e7dfc	-0.03828360389092819
6	0x3fc6822372ce8139	0.17584651094240103
7	0xbfb833173d56df74	-0.094529583430697
8	0x3fb4822aa94a159f	0.08011118538896377
9	0x3fbe6d639978952d	0.11885664460040309
10	0xbf9b958ce014b14e	-0.02693767659836626
11	0xbf9d675b77adddc5	-0.02871458929027228
12	0x3fc669954ac25862	0.17509714269971527
13	0xbfb46306b2050dc3	-0.07963601919350709
14	0xbfb1826418ca43bb	-0.06839585881449654
15	0x3fb70112cb72be7a	0.08986012904164822
16	0xbf74292099120760	-0.004922034583730056
17	0xbf9313f713514615	-0.018630848459286826
18	0xbfce3ff2d21b9c4e	-0.23632655390903995
19	0x3f99e87dcb7d95c2	0.025300946755484117
20	0xbfa20a16c356bbdd	-0.03523322233683477
21	0x3fb64cce589fde03	0.08710946716006877
22	0xbfa9e72b53acd814	-0.05059180637765351
23	0xbfaa044e61063969	-0.05081410345438792
24	0x3fc37dbce6ed7d0a	0.15227471614614557
25	0x3fa0cec65d77c71e	0.03282756701436383
26	0x3fb31c80dbf6415a	0.07465367670216008
27	0x3fc71c8e60dbceab	0.18055896500992694
28	0x3fb9d6e690cf7698	0.10093537364397276
29	0x3f9e09ebf074fa92	0.029334723044707696
30	0x3fbda3de03af671a	0.11578166570634743
31	0xbfc4181cb1286652	-0.15698584223064188
32	0xbfc39b51283b1e75	-0.1531773992958169
33	0xbfae238a9e4ffe65	-0.05886490995908104
34	0xbfc3e47c36568716	-0.15541031506750674
35	0x3fc34549e0520a2e	0.15055201962612003
36	0xbf87e8a4a646228c	-0.011674200367239672
37	0xbfb0990687c5f8a8	-0.0648349839666219
38	0x3fc621bf1592c000	0.17290485909825293
39	0xbfbfe6c23a87f2ea	-0.12461484841328355
40	0xbfc3634db34fd257	-0.15146800284823556
41	0x3fc817f471dc0324	0.18823104438345084
42	0x3fbbc86d788388d8	0.10852703277808773
43	0x3faa25bdbd491cc9	0.05106919227233104
44	0x3f9333f349aa3287	0.01875286233057463
45	0x3fb68b3dd9e9ede2	0.08806215830002587
46	0xbf978714981f8bec	-0.02297622850882057
47	0xbf5f530dd151b01f	-0.0019118914545073263
48	0xbfa284886a18be4a	-0.0361673955452458
49	0x3fb03139779ba15c	0.06325110597720623
50	0xbfc33c2d6f2f677a	-0.15027397088016042
51	0xbfb15255952fa106	-0.06766257183301513
52	0xbfbb3ed85a682359	-0.10642769057461744
53	0x3fbe8f55c36d8ade	0.1193746187323472
54	0x3f917b4aaa9ec196	0.017071882880999555
55	0x3f8a7ec4ed5ae55d	0.012937105649472863
56	0x3fb015e6e8b4131d	0.06283419781909712
57	0xbfb4933dbd21dfab	-0.0803717219113184
58	0x3fae254ea5663157	0.05887838143380247
59	0x3fa6354d14c33a15	0.04337540510606545
60	0x3f922fe5c511ee6a	0.017760839608384073
61	0x3fb18a213f1682fa	0.06851394453270734
62	0x3fb7366a02030857	0.09067404317014059
63	0x3f9204ee9b554caa	0.01759693930700893
64	0x3fbe3d37ded86c87	0.11812161627351446
65	0x3fb1dec84ef6e7da	0.06980564048617968
66	0xbfb886407ea18441	-0.09579852191520023
67	0xbfad5779ab621f98	-0.057308008356869056
68	0x3fbb6bec4ed32cbb	0.107115525478707
69	0xbfc87fc5f1a02965	-0.19139932916761918
70	0xbfbc2a74a9051fba	-0.11002282263245791
71	0xbfb3dc4667dd5a31	-0.07757988010175933
72	0x3f63b2fb21bcca1d	0.002404680721064935
73	0x3fa654ca801597f5	0.04361565412072813
74	0xbfc176b328453c90	-0.13643493143397167
75	0xbfc5561cc25d5e34	-0.16669044008698253
76	0x3f913ae3abf93b33	0.016826207515175894
77	0x3fb0996411c33690	0.06484055932670629
78	0x3fc18cc13fd02fc0	0.13710799804573348
79	0xbfb2d331139223c4	-0.07353502967647702
80	0xbfbfb6c2b635a5d3	-0.12388245533443092
81	0xbfbe42c1a0ca3cc6	-0.11820612121140348
82	0xbfba70413b6e1552	-0.10327537251403854
83	0x3f39b4d21be69349	0.0003922474824327627
84	0xbfb581eed8b034fb	-0.08401387014619736
85	0x3fc28d90ce236490	0.14494524064392467
86	0x3faa3c7e62658469	0.05124278021936208
87	0xbfa8ea54c677a92b	-0.048662804820042226
88	0xbfb6cc5f583c76fa	-0.08905597595409268
89	0x3fb7d886232c8e1c	0.09314764364949507
90	0xbfbb22396e5ae704	-0.10599097198692325
91	0x3fab7d4e21c9b513	0.05369037783098398
92	0xbfa71dede647969e	-0.045150217399890766
93	0x3fa5c65293f69cc7	0.04252870613282194
94	0x3fa4beb1e9245741	0.040517387113296006
95	0xbfb671b571aba06a	-0.08767255807072308
96	0xbfbc131c29da0a29	-0.10966659566660354
97	0x3fba24718cd5a3f2	0.10211858452170455
98	0x3fb6c20a24b3df29	0.0888983096700683
99	0x3fb34f3e7c24ffb9	0.0754279187285637
100	0x3fc9fdaa12440421	0.20305372135047242
101	0x3fb8db50479d84d1	0.09709645985050776
102	0xbfc698320b344516	-0.17651963755683003
103	0xbfb90cc55f53bb49	-0.09785111977883533
104	0x3fa545f22e088bc1	0.04154927074366511
105	0xbfa9b63f4d279a07	-0.05021856133298646
106	0xbfc6230af91732a4	-0.17294442331912763
107	0xbfb255a62be16444	-0.07161940165805541
108	0x3fb2aa0a854c9119	0.07290712122318545
109	0x3fbc280765c6b1b3	0.1099857924916197
110	0xbfcb434d70b331ae	-0.2129914093296867
111	0x3f974592a28c48cf	0.022726336642400476
112	0xbfc2e0ecb7dd9768	-0.14748915651142203
113	0xbfbdff1a5f8217f0	-0.11717381316893216
114	0x3fa4956a8f6dbce3	0.04020245552862336
115	0x3fddeebd82c4dfa4	0.46769655008710687
116	0x3fcb246b076fbfd0	0.21204889166938168
117	0xbfc5ec5b75a82824	-0.17127555127109517
118	0x3fbd6e42cbdf31c7	0.114963698171045
119	0x3fb3c6450d151895	0.07724410600084959
120	0xbfaf037f95eddce8	-0.06057356553258747
121	0xbfbe42d7340a5344	-0.11820740719333594
122	0xbfb6ff2f499d122c	-0.08983130976873416
123	0xbfc79635a048cdd2	-0.18427152944933184
124	0x3fb6f474c72743cb	0.08966760503905317
125	0x3fc9220b1bd41d9a	0.1963514219171259
126	0xbfc38776d640f15f	-0.15257153951268784
127	0xbfd01b9e5a0eb882	-0.2516857032268335
128	0x3fc6326a73fd8342	0.17341356910312739
129	0xbfc29ba984a0af7b	-0.14537543273888417
130	0x3f9791ca73b8b529	0.023017085373955446
131	0x3fd0077bee310859	0.25045679341213184
132	0xbf37de279b9e35cf	-0.0003641936015064935
133	0xbfda14d768b75160	-0.4075220606439611
134	0x3fb1ff2f6dea4cd7	0.07030006822087685
135	0x3fb0c086217a100c	0.0654376823168265
136	0xbfc3d7eb69724bb9	-0.15502684258225743
137	0xbfc2f39ed3256f04	-0.14805970487474707
138	0x3fcd2cad3020aaea	0.22792591905575615
139	0x3fb790b68059b9bb	0.09205189355427638
140	0xbf9192e7315744ce	-0.017161953341035034
141	0xbfbc3701d1155c1e	-0.11021434168411345
142	0xbfb8b0c5da659554	-0.09644733983949055
143	0xbfb4219367cd9639	-0.07863732609038089
144	0xbf8e2e073d064a4b	-0.014736229467222325
145	0x3fc94ba8fca936f8	0.19762146317446372
146	0xbfa835c4c4e85af2	-0.04728522208841025
147	0xbfab6b553e1ada45	-0.05355326064220781
148	0x3fc8691362983af9	0.19070665659133804
149	0xbfa49bfeb4e4b298	-0.040252647000987796
150	0xbfbe8c1aa8d115fa	-0.11932531949522476
151	0x3fa34475219f0085	0.03763166461385573
152	0xbf6147a4fb6a3cd4	-0.0021093580538217114
153	0x3fb4f4ccafb261cb	0.0818603447863843
154	0xbf88b331ef184508	-0.012060537442297306
155	0xbfba3e67c1674ae1	-0.10251472923054507
156	0xbfbd47d42791e4be	-0.11437726942121437
157	0x3fb058da04c00840	0.0638557683560359
158	0xbfbe9c19c533c4d2	-0.11956940712458966
159	0xbfb5c760157761c6	-0.08507347606735668
160	0x3fac9a84e389c1d5	0.05586638715329043
161	0xbf9837088a17a8a1	-0.0236474355969355
162	0x3fc2c5876ee164be	0.1466531077774444
163	0x3fd0de8e068bc2c7	0.2635836662221149
164	0x3fa944e10cf8ef8d	0.049353630860848964
165	0x3fb53724db6059a8	0.08287268024319039
166	0xbfb7ed3942e7abaf	-0.0934634960500904
167	0x3fb59b7b6e719f0c	0.08440371939070362
168	0xbfba3b5b47cdcd73	-0.10246820929551408
169	0xbf95bcd739855fca	-0.021228182683756626
170	0xbfbbfc04412905be	-0.10931421843363062
171	0x3fb722e77970b4d8	0.09037634577608189
172	0xbfc14d50090e5802	-0.13517189447583183
173	0x3f9d67b069b82641	0.02871585507640462
174	0xbfc16693ea4168b5	-0.1359429258180335
175	0xbfc6cdadd5e36fe9	-0.17815182632227725
176	0xbf9c9119e44126b0	-0.02789726691870581
177	0x3fc474343b0cac02	0.15979626544262265
178	0xbf984844d9ebd0f8	-0.023713184166767015
179	0xbfb078b4a2be7a21	-0.06434182141536172
180	0xbf968d6cddf0dc08	-0.02202386955852023
181	0xbfc2841bf77f7f9f	-0.1446566542135743
182	0x3fa4170df5ffd002	0.03923839214249371
183	0xbf9f51923e08d1a8	-0.030584607158930105
184	0xbfbb01c90d799ff9	-0.10549599246007792
185	0xbf7aec5f5ff1e9a9	-0.0065730786874333225
186	0xbf6d69296f18076f	-0.003590184140876688
187	0x3f72a2c611a5ab63	0.0045497643535366864
188	0x3fb572611a1e75a0	0.08377653968496768
189	0xbfabbd3592e32f2f	-0.05417792718944125
190	0xbfc00246493c26e8	-0.12506941390920834
191	0xbfa5aa5d7ff52dbf	-0.04231540858253479
192	0xbf98a32a80d485ac	-0.024059929001969557
193	0x3fb41371692f3d77	0.07842167680722932
194	0xbfb7c7d29762f191	-0.09289280124625622
195	0x3fa3b599523b268b	0.03849486473843652
196	0xbfad37f145a72ca2	-0.05706743216759348
197	0xbfa4aa298cd6871a	-0.04036073536123137
198	0xbf91e4acad286047	-0.01747388655539364
199	0x3fbe855762aef6a5	0.11922212752593937
200	0x3fb686ba002b86ed	0.08799326423789085
201	0xbfb52de80378c778	-0.08273172459374034
202	0xbfc47c2aac4f7c67	-0.16003926671598664
203	0xbfb5808efaf125c4	-0.08399289728654141
204	0x3fc79ff7c7225c4e	0.18456933234549172
205	0xbfb4241f31c04413	-0.07867617573380441
206	0xbf5aeb7b39d2ef30	-0.001643057191627894
207	0x3fa4a1330c2d3ae0	0.0402923538555251
208	0xbfc3814a9f71f72e	-0.15238316331299856
209	0xbfbc67bc7b7585f6	-0.11095788969171125
210	0xbfc0f44452ec69f0	-0.13245443390844924
211	0xbf9a548c5a92d77c	-0.025713151004957066
212	0x3fc070b926de4753	0.12844004056801825
213	0xbfc0770a8a2cd966	-0.1286328482326084
214	0x3fb83358980c99ff	0.09453347885264661
215	0x3fc38c999d69bf5c	0.15272827325997695
216	0x3fba91aac10082a8	0.10378520214045273
217	0xbf83172cee19e9fc	-0.009321547523758682
218	0xbfb34cf4c958c95d	-0.07539300838178549
219	0x3fb6a71f0c8c7787	0.08848756843914717
220	0xbfb94b130e26ecc1	-0.09880179496296916
221	0x3faaba345a0a6158	0.052201877585676015
222	0x3fbd6b4269666140	0.11491789887657422
223	0xbfa9b7e714623d55	-0.05023119090867093
224	0x3fc4bcb5b7ac2da0	0.16200896709811463
225	0x3fb49c6b7e2dcd06	0.08051177816905772
226	0xbfa073e1ae22d4f9	-0.032134106165736705
227	0x3fa8c57f3293bbf3	0.048381781505547304
228	0xbfc173750bd7237f	-0.13633597448486154
229	0xbfba3937434805fb	-0.10243554489718314
230	0x3fa644e1b1092662	0.0434942749603351
231	0x3f78b0b6b2a102f1	0.006027902281915174
232	0xbfa9559c49ba7d54	-0.04948128128057286
233	0xbf9cb91a03a614c5	-0.028049856636717125
234	0x3fc010c41224b28b	0.12551165471940737
235	0x3fb490733b815a9c	0.08032913401380387
236	0x3fb39d0c955060e0	0.07661512990341945
237	0x3fa53d022ee080a5	0.041481083128247755
238	0xbfada72e9e74a44a	-0.05791612324021196
239	0x3fc3c9a3fe4ddec0	0.15459108273693367
240	0xbfba0434c69f3200	-0.10162668084303306
241	0xbfa5899514cfc0ff	-0.042065295019598985
242	0x3fce2c8c2bfd4605	0.2357344832221743
243	0xbfb9c46ccd894bc9	-0.10065345781303771
244	0x3fa0a8db5847365e	0.032538275266784863
245	0x3fb276feac5d3b6d	0.07212821682081279
246	0xbfbefa087fd28e2d	-0.12100270386377394
247	0xbfbe706deb6d6caa	-0.11890303609600275
248	0xbfb5c9d85b54326b	-0.08511116246899923
249	0x3fb92f60fbafd3ac	0.09837919373224108
250	0xbfba13d408a732a7	-0.1018650551915906
251	0xbfc13ddc16ffea80	-0.134700309019383
252	0x3fa42113886cd51d	0.039314852145631664
253	0xbfc1fd24348466a6	-0.14053776325527173
254	0x3fa1a91896499a14	0.03449322542728708
255	0xbfb82e9c76e0a7d3	-0.09446123029979896

fc_hidden_list.2.bias f8 [50]
0	0x3fc0c270424d3517	0.13093379247076406
1	0x3fba09c9a17bc03d	0.1017118472334468
2	0xbf90ad4f4c815b67	-0.016286124271882054
3	0x3fa96caab236d827	0.049657186751048514
4	0x3fc17f4cd9b8def6	0.1366973937126585
5	0xbfc0fa7af1646943	-0.1326440504715923
6	0x3fc28b6c8223e591	0.14487987856390963
7	0x3fb2cdc570bd3d9f	0.07345232012197876
8	0x3fad1f52f52c4ff2	0.05687960856280928
9	0x3fb3097c7d9bbe17	0.07436349932299212
10	0xbfa6f27d9e21af7f	-0.04481880717580022
11	0xbfa7d54f515513b4	-0.04654929988695447
12	0xbfbca9b543f1b146	-0.111964539611738
13	0x3fbfe73a0b86329f	0.12462199002602369
14	0xbfa61572bc0bcad9	-0.0431323866413515
15	0x3f9f9422dca80fd6	0.030838532178691334
16	0xbfb6e0e99111e76d	-0.0893693904089596
17	0xbf7c1ab1a8db53aa	-0.0068613948657984345
18	0x3fc09b9a6c02ef7b	0.12974863313672444
19	0xbfc0f1a2dd02091e	-0.13237415114787948
20	0x3f70cac5eb5ff5fa	0.004099629519257681
21	0xbfb6569a331d9927	-0.08725894687595269
22	0x3fc3afb38bebee93	0.1537994797907812
23	0x3fc26ac8d50eebdd	0.1438838043521561
24	0x3f85a6e12fc64d46	0.010572203894105524
25	0x3fb26c536e7fb86f	0.07196542213179823
26	0xbfbb9353b4594c49	-0.10771678116843576
27	0xbf812fca537baf30	-0.008391934082701974
28	0xbfb8ff58d0e01291	-0.09764628505224439
29	0x3fae1b924647d668	0.058804102973152805
30	0xbfb04f1840f1a116	-0.06370688996833382
31	0x3fc09ef81bf69f2e	0.12985135426901578
32	0xbfb9f121363861b5	-0.10133559774147367
33	0x3fb321cfa5654582	0.07473466670969311
34	0xbfa302d04a2eb13a	-0.03713084130808615
35	0x3f9ab759741f10dc	0.02609004756210785
36	0x3fb0c3cb1e870544	0.0654875707177967
37	0xbfb93c7894eabd68	-0.09857896457355297
38	0xbfbfe28bf1cdc1b5	-0.1245505776730685
39	0xbfb6caa06a4525c3	-0.08902933687672658
40	0xbfc3f0523c0ad2f7	-0.1557715218711093
41	0xbf6c3fac7d41b054	-0.003448330777294154
42	0x3fb4417dedaf5beb	0.0791243272100101
43	0x3fbc27657294dfab	0.10997613952065304
44	0xbfad7c535db134a8	-0.057589154421841926
45	0xbfb3fdd1a1fe0d46	-0.078091718720363
46	0xbfa84d92c278c27a	-0.04746683715746243
47	0xbfb077a58ffb0a79	-0.06432566418792786
48	0x3f5f26c2e7b7ed76	0.0019013312693222074
49	0xbfc0bd596d861876	-0.13077848289339372
