savedModel/poisson2d_inverse_tanh/noise_0.01/ParticleWNN_4/trained_model_best_loss.pth (torch, 132191 bytes, 20 tensors)

fc_in.weight f8 [50, 2]
00000000: 7766 5d32 a961 d8bf 546d eee1 652b ae3f
00000010: edb5 c877 ef45 ebbf 935a 1c71 7995 eb3f
00000020: 36ca 056c 6c33 e0bf 860e 5fbe faa5 e8bf
00000030: bb65 4ebe 9dde b2bf b98e 05a8 92da c33f
00000040: be1d 11b6 88d5 d0bf eba2 94be 2e0a d53f
00000050: 132d 80be afc0 e0bf 3a18 05ac 457e e03f
00000060: cee9 7e23 91cf e53f 3c51 b82f dbba d8bf
00000070: 7267 dc6c c619 e1bf 87e1 43bf f13b debf
00000080: 1e88 e6b1 7647 9ebf e3b4 aff4 89c4 e1bf
00000090: 0e71 f54f 33a9 df3f 1658 b031 ce90 d13f
000000a0: 79d7 f1ac 2963 e03f 539e aa7f bde1 e4bf
000000b0: 7461 cd9c b31f d3bf f2ea e77c f97e e7bf
000000c0: e608 de08 53ec dbbf 491f 28f8 b90b d83f
000000d0: 4a6e ed63 1c90 c43f 728d 98d6 2566 d1bf
000000e0: c8a6 391f b8f6 ccbf a0e3 690e e143 d43f
000000f0: 2718 7c8e 7098 c63f cefd 84e2 1f4d e83f
00000100: 03bb d68b 883a d2bf 6c80 3736 1fd4 e93f
00000110: 4765 3d90 955e d5bf 9778 6885 b04a e5bf
00000120: 5131 7f9c 1b7e e1bf 1dd1 04ec ea46 c2bf
00000130: c75c e3a8 158b b23f e102 29e6 aba8 dcbf
00000140: ef0c a5de 5402 bcbf d54a e663 99d3 e83f
00000150: 3097 2447 a454 d33f b8cb fbda 953b e7bf
00000160: cf3c c9b6 990d eabf e87a 0864 1a4d e83f
00000170: 0a26 9387 bb9e ec3f 998b 117e c655 883f
00000180: a1c9 95d7 f905 debf 24ab 8cab 7123 d73f
00000190: bda5 68b9 5469 dd3f 56a0 5c38 0c45 c4bf
000001a0: a0ab 5146 a558 e1bf a579 45b8 b1a2 d8bf
000001b0: 8970 496b eae7 e93f 9588 f13c 3546 e5bf
000001c0: 3dbb 3339 58cf e8bf 04b1 839d 3e87 d73f
000001d0: bfa7 33a2 abe9 e03f bf56 5a18 01b6 b03f
000001e0: 8c4f 2ee5 f8a8 e33f d2e9 dd9d a145 e7bf
000001f0: 1ac2 5daf d379 d7bf 27bf 6f1e 6091 d33f
00000200: fc03 8f4b 23e6 dd3f 850e 5a6c 2afc b73f
00000210: d770 d092 f58e ec3f afb5 509b c2dc eebf
00000220: 0643 3ff4 5040 cbbf 542a 7611 d644 cd3f
00000230: a91e 7850 2be5 d3bf d70a 05ca 1675 d23f
00000240: 1602 4fab ca46 e8bf f509 7d27 0354 a0bf
00000250: b9ec 579f c656 e63f e5f5 ef2b 0778 e5bf
00000260: 4db2 5027 966c e83f 63f3 e826 a394 d83f
00000270: 2acc fa5c 414d 9ebf 77f2 b332 23dd bc3f
00000280: 479c 6c8e 7a63 d9bf 510a e361 d4cb e6bf
00000290: e4db 3a27 d676 acbf 8ca2 d667 e413 de3f
000002a0: 0c80 fd8c 5eb6 df3f 321b e4b0 df46 b73f
000002b0: 25a3 605f 5eff 8f3f c645 ba0e 26a8 e3bf
000002c0: 53fd 39f5 698e e7bf 2ca1 531c d2dd 803f
000002d0: d916 cd77 447b d33f 25c4 9036 ac62 e73f
000002e0: e3d4 6245 ea10 e63f 5708 1fdb 1e57 c13f
000002f0: 318b b2be 8fbb d63f e369 2399 773e c4bf
00000300: 1872 277b 6fd0 e0bf 6eae 04a7 12e9 d43f
00000310: 26e8 a0eb a0aa e1bf 1464 f3c8 5dd2 d63f
-0.38096074980203504 0.058924850301276394 -0.8522870387584455 0.8619963845438455 -0.506277285558389 -0.7702611654462579 -0.07370935341022904 0.15510781482872973
-0.2630330827709847 0.3287464963091639 -0.5235213013378676 0.51541408155095 0.6815877621914355 -0.38640479717402676 -0.5343963743391511 -0.47240871122587474
-0.029569487198053072 -0.5552415637045239 0.494702175221179 0.2744632230036371 0.5121048333955819 -0.652556180332747 -0.29880991280290137 -0.7342498244828148
-0.4362990938754038 0.37571572526984603 0.160647915642459 -0.27185960728294056 -0.2262792732683947 0.3166430130727864 0.17652708966505878 0.759414617939848
-0.28482259422428075 0.80714378918857 -0.3338979633895928 -0.6653673749567756 -0.546644025476363 -0.14278923534733048 0.07243476269956083 -0.44779489018041657
-0.1094105762068016 0.775829978100172 0.3020411200289912 -0.7260236050627702 -0.814160210613318 0.7594119981548291 0.894376530451326 0.011882353517824561
-0.469114742786724 0.3615383315360978 0.4595538912422759 -0.15835716964761798 -0.5420709966104944 -0.3849300670171039 0.8095600219198938 -0.6648203077604814
-0.7753106229045909 0.3676296747423893 0.5285242240909084 0.06527716488411793 0.6143764949979285 -0.7272499163948913 -0.36681072354898137 0.3057480141860531
0.46717150095724924 0.09369149346644619 0.8924510829415578 -0.9644482644559299 -0.21290027547959073 0.22866321423164726 -0.3108623777229505 0.28839654663549424
-0.7586415620681375 -0.03189096314465082 0.6980927574326393 -0.6709018571997915 0.7632551925540355 0.3840721015911212 -0.029591580677060282 0.11274929035057278
-0.39669670017832853 -0.7123815452435541 -0.05559415081864197 0.46996412411184774 0.4955059410913243 0.0909251982558146 0.015623795781793579 -0.614275959744355
-0.7361345090466024 0.008235589494191752 0.3043986482556256 0.7307950082523617 0.6895648341366293 0.13547120761183137 0.35519784567638896 -0.1581563470598005
-0.525443783316919 0.3267256384885745 -0.5520786859626738 0.3565897428903224

fc_in.bias f8 [50]
00000000: 344c e228 2297 e03f d8f4 9604 25be dd3f
00000010: 1de2 2820 3272 ddbf 9390 1494 ea79 e6bf
00000020: 34cb c8ea 14b0 e43f 774c 9513 34c6 e2bf
00000030: 5ca6 b876 4d93 e13f b2c4 e497 44da a53f
00000040: 32c9 4258 1758 e3bf b4b3 cda8 6703 e23f
00000050: 37ff c09d a362 d8bf e99e 0571 7d6f e53f
00000060: ff87 0def 1cef dc3f 7ae5 9e96 e32e ddbf
00000070: 159f 0fdb 3f76 e53f 18e5 b561 26c3 e23f
00000080: 1109 3672 2fec e2bf 3784 874c f19f d8bf
00000090: 5d33 587c 837f b93f fd0b 1046 90e1 d8bf
000000a0: d473 2a90 a156 e2bf 97a7 d516 717f e23f
000000b0: c20c 1705 8b58 e33f 2fd2 f74c 38c9 e3bf
000000c0: a21f 69ed b633 dd3f b76a 6100 fc3e b23f
000000d0: 9722 d0dd 4d0d e4bf ef98 fd0b 0e86 da3f
000000e0: e21d 96b3 2eac e0bf b4d7 1b8d 4db0 b1bf
000000f0: eb68 72b2 706b b1bf 8895 3f40 8713 d03f
00000100: bddd 4ebb 0bd7 ddbf f04a f54c 85cb a83f
00000110: b281 5e1c caf4 c53f feff 9760 3e5f b13f
00000120: f4b2 ab86 fd0b d6bf 0c2c d71d 786d e63f
00000130: a2f7 bfd4 36b9 cf3f 11e8 aeb6 8216 c7bf
00000140: fb1d 2324 fe4b c1bf d3d0 665b 7290 e23f
00000150: 8c26 35aa 8715 e6bf cf3e 35dd 44f2 d33f
00000160: 1357 3031 c1d2 d83f 19ee 9744 6482 e0bf
00000170: 0e02 758d 1cef c4bf 7215 a0f5 c0d9 dfbf
00000180: 83a5 9625 6d50 d9bf ceb2 bced 0d71 dcbf
0.5184489058032171 0.4647305054493933 -0.4600949586925099 -0.7023823635286298 0.6464943490630959 -0.5866947538837753 0.5492312735343137 0.042680877248480256
-0.6045033191533433 0.5629156395858588 -0.3810204544606565 0.6698596198520735 0.4520943006992865 -0.45598687848140396 0.6706847456489152 0.5863220127495508
-0.591331217831142 -0.38476211999483517 0.0996019533706209 -0.3887673076825989 -0.5730750861872544 0.5780568548191124 0.6045584773459256 -0.618312979057526
0.456281406256034 0.07127356538095851 -0.6266240436826419 0.4144320599647377 -0.521018362765002 -0.06909641928709115 -0.06804565769781205 0.2511919143128911
-0.466250355642355 0.04842773975783199 0.17153288254941185 0.06785955293889853 -0.34448183204112515 0.7008629401037765 0.24783978832414016 -0.18037446899489898
-0.1351316143466049 0.5801326546848266 -0.6901281666152541 0.31166192629187334 0.38786344340893314 -0.5159169521061272 -0.1635471049030603 -0.49766563402984965
-0.3955338351321062 -0.4444002935077095

fc_out.weight f8 [1, 50]
00000000: bfe7 cb0b ddd0 d2bf 2b25 4fc9 6729 b93f
00000010: 12c9 7a73 4ed3 c0bf 1eac 442d e557 bc3f
00000020: b026 45c7 b8a1 a5bf 89a8 fbeb a20c a53f
00000030: 0ddd f7db 02b2 c2bf 962f 4174 257c b0bf
00000040: 84b8 8a69 8242 b9bf ba8d 8be1 448a bb3f
00000050: 17b0 9f92 f28b b83f 3e2d 2656 662f c0bf
00000060: 37ac a814 0f2e bd3f 42a2 4ca6 fcc1 cb3f
00000070: 9cf5 dd1a 0808 c13f b776 d107 288d 393f
00000080: fcf7 2014 cf84 b0bf c784 87b6 50b8 c0bf
00000090: 640d be53 8b10 c0bf 1958 a044 dd0f c4bf
000000a0: f9a5 6c28 2d65 b73f 1873 cb19 0db1 c2bf
000000b0: cfe1 2b4c c737 b63f 012b 888d 5bf4 a43f
000000c0: e902 bdf4 c6af b5bf 7259 1c81 5532 a43f
000000d0: 0016 1df3 8aa2 c0bf 903e f807 c22f 87bf
000000e0: 59df 68a9 b478 9f3f f4e7 7952 e12c c9bf
000000f0: 4f40 2455 783f c13f 7c37 97f3 0c25 bc3f
00000100: 5323 eb2e 69b3 aebf 7d02 0a28 2b9a b9bf
00000110: 0b50 57c7 56b8 bbbf e3b9 bf9b bcfb bfbf
00000120: 451b 95f3 1ccf b6bf 5017 ab2d 1261 923f
00000130: baad 0687 c30b b03f cd7e 1266 2e48 b33f
00000140: 4efa f890 4420 c03f e6d0 3db9 a42b babf
00000150: d033 ec21 9de4 c5bf 2969 5a73 ffcc b33f
00000160: 9d8c 25ad 42bc cd3f 4d4a 810a 84fc 78bf
00000170: 7ccd abc4 48a8 bdbf efed 1599 9a56 c2bf
00000180: 662c 6f97 ee4f b3bf 681f 7592 0586 c23f
-0.2939980139923328 0.09828804650091587 -0.1314485610833534 0.11071617465192715 -0.04224946434494592 0.0411120331826434 -0.14605746975551206 -0.06439432228324757
-0.09867110325532918 0.10757856852028783 0.09588543014223237 -0.12644652563572295 0.11398405317656644 0.2168575107582616 0.1330576068102517 0.0003898833018122038
-0.06452650300431623 -0.13062485611502536 -0.12550489033683754 -0.15673414088149754 0.09138757931636822 -0.14602817306049398 0.08678861245778723 0.04092680075344469
-0.08471339678818492 0.03944651795443378 -0.12996041174680784 -0.011321559780326923 0.030733893241829822 -0.19668213393362033 0.13474945218377107 0.10994034716642703
-0.05996254632697764 -0.10000867583767988 -0.10828153959965918 -0.12493494799102893 -0.08909779497944921 0.01794842151391346 0.06267950102362976 0.07532014839170671
0.12598473623980272 -0.10222844622132107 -0.1710392394674316 0.07734676901091987 0.23230775312831478 -0.006100192818922223 -0.1158490638879836 -0.14326794123540718
-0.07543841549993288 0.14471501971479062

fc_out.bias f8 [1]
00000000: bc61 bf90 c3bd 753f
0.005307926108763569

fc_hidden_list.0.weight f8 [50, 50]
00000000: 6ed6 2d7b aa02 923f c034 f660 2c48 b63f
00000010: a03a b2dd 4c4e bc3f 65bd 4f18 340f abbf
00000020: 20af 9f16 cf8f b1bf 2426 36f6 f512 bd3f
00000030: 3f22 b26d 8cac bebf 121d d4ad a838 b13f
00000040: 52ec 1e10 ef90 aebf 880a 23ca 19cf b9bf
00000050: 3584 df88 1ead b2bf 6868 18cc 8789 ad3f
00000060: 84d8 7b12 d6bd bcbf 73bd 125a ad18 7abf
00000070: c277 d07a 8bf3 9e3f bba3 4c6b 91e9 bbbf
00000080: 9b99 292f bbc8 b73f 6d7e 1636 21fc bcbf
00000090: 8546 c709 040c a5bf 5f6a ceba 20c0 b83f
000000a0: c72b 57f5 ae07 ac3f c6ee 76be f1db b63f
000000b0: 9c85 4a0c 87f8 bdbf 2a8d 3a90 f689 a7bf
000000c0: 56f4 5441 f8e0 b1bf 1fbd b536 ac31 a2bf
000000d0: 2632 1d55 8035 843f 8fc3 4e15 bdea 9fbf
000000e0: 5262 e079 759b c0bf 4f77 b2d5 01d8 b1bf
000000f0: 8ac9 735d 4b1f 9bbf 41d7 9f5f 1ec3 a4bf
00000100: fc78 8ccb 8d5f bb3f 3428 f887 81ee c2bf
00000110: dd55 fd65 6975 ac3f eb1e 8352 c193 abbf
00000120: 251b dfa2 d7aa bc3f 68c0 b53e fbb5 78bf
00000130: 1985 8ac7 3598 b2bf 553d ae12 7625 a93f
00000140: 3166 5fd4 18d9 583f 18fe 269d 551d b03f
00000150: 5366 c320 ddd1 8e3f f37a df72 91f6 bd3f
00000160: affd c03d 9140 b43f cabb 59a2 5f05 9d3f
00000170: 116e 5a78 cefc 9ebf acfb 4190 f996 043f
00000180: c0d2 a629 c95f 703f 2a52 c417 3aa7 63bf
00000190: 9e85 c7d2 cdfe a6bf 9910 9312 b325 b23f
000001a0: c2a0 4a0c f97d 82bf 6768 2744 e4de a83f
000001b0: 0a8b 8c12 911f 85bf 918c 019f e69f be3f
000001c0: 78da 1b88 a24a bdbf bd42 b5c4 a8ce b83f
000001d0: d057 bb4f 6637 b8bf 0ac8 bbba 6997 c13f
000001e0: 0765 e6a5 bf07 8e3f 8692 e6d8 165e 9dbf
000001f0: 1914 34c9 93b7 be3f eb7b 70a8 28d1 ad3f
00000200: 6bc3 5971 7a9b c03f d27e c468 7789 b53f
00000210: 09bd 3b12 2ddb b63f 4f43 2aee 273b ac3f
00000220: a242 bd14 8016 99bf f73b fb62 8799 bebf
00000230: 9c70 0057 c98f b23f d142 f164 f6e7 c2bf
00000240: 3401 c3d2 9245 b7bf 6a82 e01d 9cc6 c03f
00000250: d8ff 01b1 1040 c23f a14c 1545 68f9 b23f
00000260: 9131 4599 bb74 b2bf 91bf 04bc 5440 b13f
00000270: 58f8 d24b 9b6f a1bf d128 6844 7de7 c13f
00000280: 511b 3fa5 2b68 81bf fd4d b7b0 9959 a9bf
00000290: 222c 3d56 384a c2bf 802b e468 d91e 92bf
000002a0: 6f51 bf28 c714 a33f 32c8 f642 263d a6bf
000002b0: 70bb 8fd1 42f8 8b3f 4e64 85a1 ad6d babf
000002c0: 4be9 ab87 e3a0 c03f f3d1 a343 cd9e b7bf
000002d0: 7807 ee5a fc09 a13f f037 13e3 8400 a3bf
000002e0: 0abb b97e 93f3 c2bf 3cf1 0f2b a91b bc3f
000002f0: c2b4 22a2 3c96 b23f f2cd 6505 a859 c03f
00000300: f1fa b84d 3250 a13f fd36 b38c 3ff0 b6bf
00000310: ac7b 1e75 6410 adbf 4e9e eeae 4f8b b4bf
00000320: f3a9 de90 a0b9 963f 453d 3854 9c19 85bf
00000330: bda2 d889 ebdc a7bf 4169 09f6 28c4 a1bf
00000340: 12f8 94e6 8cc4 9b3f 38aa 62ba fac8 c7bf
00000350: 7b31 fbcd 0b4e 813f 0619 4783 8ac5 b53f
00000360: ea71 b0d8 7e05 c43f 0213 5a05 d76f b2bf
00000370: 799d bcd0 e676 afbf 6208 b0e4 b0ee aa3f
00000380: d5b2 9049 9340 bcbf 3ead 4788 e1cb b9bf
00000390: f005 ff37 0690 c2bf 073f 1b11 597b cbbf
000003a0: b868 cf2f 95db 72bf 9ab0 bc3a e22f 963f
000003b0: f308 ffa5 0b47 abbf 6035 b0c6 8086 c73f
000003c0: a29a c7d9 c3ae ae3f 057e 9595 e898 c73f
000003d0: ac34 1b94 2174 c13f ee88 12d8 b9fa aebf
000003e0: 7b09 566d 6474 c1bf 2e69 6a65 7a4b c53f
000003f0: cba6 3e04 8f80 b03f c420 6517 fa4b 873f
00000400: 82ff 3ceb cff5 bebf 9bbc 6270 abde b03f
00000410: dbed 4f55 6c4a aabf f829 b8b8 109d b0bf
00000420: 82dc ad7c dfb1 bf3f 1296 131e dade b5bf
00000430: b3e8 e1a1 4d21 b43f b9bd 39e3 03c9 c2bf
00000440: 21f2 35e8 c329 b73f 58b0 bb70 bcd9 b53f
00000450: 184a 2ac3 da35 b73f 032b f8a8 3615 c7bf
00000460: e668 7c2b 12b8 b83f e975 362d 2ffc b8bf
00000470: f4c9 de85 92ae 79bf 0430 d984 ab7e bb3f
00000480: 82f0 8377 5ba4 babf a2e8 6ab3 af8f bdbf
00000490: 2b69 e26e 271d b5bf 9566 1a90 7b8c bfbf
000004a0: 664e cc8f e71a b53f 18fb d592 4761 b63f
000004b0: be91 cb57 acdf 78bf 2f74 b2ff 20ad b33f
000004c0: f131 c2aa ca47 94bf e89d bd15 7cc0 c2bf
000004d0: c54f 8d2a 66e1 b73f 83a9 1bd5 e34b c0bf
000004e0: 4c0c 578c d017 943f 3061 6081 d370 9abf
000004f0: bc40 3c85 da60 bbbf 00bc 8527 d285 bc3f
00000500: 5688 1301 1711 a63f 7459 aa03 bf44 bcbf
00000510: 87dc 9914 e55d c3bf beba d748 9fef b93f
00000520: f800 19ac d94d ab3f 3b61 cd13 6cfc bcbf
00000530: 1f34 4cdd 936c b53f c009 aa22 7552 c13f
00000540: c58f 890e 4fb8 933f d6b3 103e 42a5 80bf
00000550: c286 dff6 b1aa b43f 025b a425 609d bf3f
00000560: 4e90 12d3 6747 bfbf 2689 3dd5 9eb1 983f
00000570: fa39 6efc 4c5e bd3f 86e1 b48f f53e bcbf
00000580: 1298 ecfa 8deb b23f c166 e142 3568 933f
00000590: be2c f8a4 a6d6 b7bf aba5 191f 25a6 afbf
000005a0: fd74 9d94 be34 c43f 3178 9301 3413 b9bf
000005b0: 4571 ef81 a5e9 aebf de54 5a9d 8791 b93f
000005c0: c5ac a25b 13f7 bcbf 9120 bc9a 85b4 b43f
000005d0: d75d 40ff 9ca7 953f ee51 69ab 9b47 a3bf
000005e0: a042 44e6 c6d5 b93f 7ccd d952 2e51 bdbf
000005f0: d24d b5c2 31db bcbf 4e0c 00ff 1376 c2bf
00000600: c01a 523e ebf6 a1bf baf5 8c56 df3b adbf
00000610: 1818 10e4 d376 a03f abd5 9bd8 8747 c13f
00000620: a44b 8ac4 465a ab3f 60e5 6cab 8768 b83f
00000630: 4597 d636 81db bf3f d59a 01b1 aa50 b2bf
00000640: 495f 3b10 dd7e bf3f 23f9 85cf c4cc d03f
00000650: a285 efea 2acb d4bf 333f 20fe 65e9 c4bf
00000660: 1a80 e758 0a41 c03f 5588 1af8 66a4 c3bf
00000670: 4366 677d c391 a0bf 505d 9137 87ee d3bf
00000680: 441b 2be5 699c d7bf a4e5 b4bb c9a9 d13f
00000690: 11e2 b9a6 7f72 b4bf 226e 5828 a168 b73f
000006a0: b134 481e 36d7 ab3f ca5b f2db 7480 b5bf
000006b0: 8e98 fc91 54d8 c63f c724 3a28 a425 db3f
000006c0: dad2 749f 479e bf3f 05eb e52f 3ccf d3bf
000006d0: f8df a914 886c b0bf 90fe b36f 2e71 d8bf
000006e0: fbed 75a2 6c30 c33f f27e f336 e64e b33f
000006f0: af92 5bff 1b67 a83f cb28 b70e 0815 d1bf
00000700: 3439 0eed 7eea b73f 239e 2036 a767 a9bf
00000710: de16 e57a 33f4 c8bf 3ccc feb4 b63e ad3f
00000720: 56f8 e76a 24dd c5bf e590 233a 87d0 9d3f
00000730: 0d40 091d 57fc cabf 7929 6864 f8f3 c03f
00000740: 0525 0dfb ddfe afbf 2908 52b2 a792 ad3f
00000750: df7d 1874 00c1 d33f 1e7c a08b ffdf ca3f
00000760: cb4a 13f8 4881 c1bf e87b 7c1b a605 b8bf
00000770: 768c a9e2 625f cc3f 4c0b b2cd 5b61 b5bf
00000780: 21cf 5007 c4ee c9bf 9c8d d223 db8e d43f
00000790: 865e baea b1b9 a53f 8d20 dc54 2b25 cbbf
000007a0: 769e bd54 57c2 be3f 7cde ff0d 78e2 a43f
000007b0: 684a 891f e85f b4bf ab6f c094 c74a a8bf
000007c0: 6cae f484 b7f3 b83f 5897 fc43 7761 7d3f
000007d0: 5c54 7ce2 1394 a1bf 175b 8527 97df b03f
000007e0: 587a 55c1 13bd a0bf e033 8ce2 f9c3 b93f
000007f0: 99dc 9a1f 702a b5bf f7ea 5316 5677 a73f
0.017588294761898764 0.08703877799253501 0.11056976711754851 -0.05285036846896211 -0.06860060026491199 0.11357056866668153 -0.11982038190957044 0.06727079624043977
-0.05969950744425802 -0.10081635651571663 -0.07295409051541031 0.05768989912412864 -0.11227167083038309 -0.006371190219553002 0.030225924845687542 -0.10903271550763709
0.09290666486194825 -0.11322219439034038 -0.04110729808202244 0.09668163834286635 0.05474611992720884 0.08929358387006933 -0.11707347917628969 -0.04597445021252107
-0.06983901591316174 -0.03553522270055453 0.009867670629000246 -0.031168894219891604 -0.12974422884942044 -0.0697022577973858 -0.026486566141963354 -0.04055113713540815
0.10692678660823057 -0.14790362490777087 0.055583280277158066 -0.05386165744999779 0.11198184706072974 -0.006032926011684571 -0.07263504144295431 0.04911393144640878
0.001516603706014041 0.06294760786749298 0.015048720896106682 0.11704358152881493 0.07911021955168594 0.028340811046685656 -0.03026125535562413 3.927182299977931e-05
0.003997598449519912 -0.0023990759492653795 -0.044912750224976636 0.07088774875143357 -0.009029336631400379 0.04857552844960438 -0.010314114931650593 0.11962739355071707
-0.11442008803337866 0.09690336992685906 -0.09459533163621292 0.13743325822684965 0.014663216829648563 -0.028679234493795856 0.11998866712754398 0.05823638015885265
0.12974482092570425 0.08412882144738923 0.08928186125898575 0.05513882429398242 -0.024499894395662587 -0.11953016439950646 0.07250650762620342 -0.14770393303708443
-0.09090535779524062 0.13106109103047753 0.14258011477431753 0.07411815344430518 -0.0720937012858427 0.0673878630666407 -0.03405461598002607 0.1398769935625013
-0.008499470692084595 -0.04951172144106051 -0.1428900166596075 -0.017695805575424384 0.037267898296394424 -0.04343528335029169 0.01365711404829792 -0.10323605721841142
0.12990993618570665 -0.0922668733727006 0.03327931032164505 -0.037113335341572795 -0.1480583542611032 0.10979707051587168 0.0726049323881908 0.12773609412725723
0.03381497572671844 -0.08960339722690587 -0.05676568917919353 -0.0802507211761789 0.022192486612462713 -0.010302754707508863 -0.04660736139004971 -0.03469970706346937
0.027116967748263283 -0.18582090473985757 0.008449642394588555 0.08504548745176885 0.156417709164898 -0.07201904183063948 -0.06145402238899584 0.052602317729921536
-0.11036034151102155 -0.1007672269549191 -0.1450202725809926 -0.21470177970194745 -0.004603941689277295 0.021667036852861622 -0.05327640916176959 0.18379220677926877
0.05992710145419734 0.18435389808563243 0.13635654193641267 -0.06050663721659243 -0.13636451090503585 0.16636590911805044 0.0644616494525067 0.01137538322349519
-0.12093829625245969 0.06589766973296422 -0.05134905377778028 -0.06489662656546347 0.12380787652897321 -0.0854317019871689 0.07863316728790685 -0.14675949664113633
0.09048103732306646 0.08535363914751437 0.09066550507331106 -0.180334885124772 0.09655870019597365 -0.09759802678896502 -0.00627000079650707 0.10740158074730749
-0.10407039325576942 -0.11547372942269132 -0.08247610528124898 -0.12323734539168137 0.0824417806691656 0.08742186865672996 -0.006072686400078129 0.07686048739056227
-0.019805113479877737 -0.14649916707570232 0.09328306712023877 -0.1273159781042744 0.019622095647502655 -0.025821022769464352 -0.1069466185838363 0.11141694512274114
0.04309913528574387 -0.11042398299682593 -0.1513029432860302 0.10131259468446793 0.05332832551767014 -0.11322665675595982 0.083688012626411 0.1353289050349087
0.019257769834794453 -0.0081277060690698 0.08072960164238466 0.12349511069292521 -0.12218331244599875 0.024115068211707634 0.11472016489845052 -0.11033568151913728
0.07390677810744276 0.018952209670124235 -0.09311906364034692 -0.06181446079865379 0.15785963303179776 -0.09794926680066919 -0.06037633143543756 0.09987685767767426
-0.11314507472222875 0.08087954547602495 0.02114720638209441 -0.03765570132660288 0.10091822740310841 -0.11451997301792533 -0.11271964076632138 -0.14422845793896716
-0.03508696685553536 -0.05709741527105501 0.03215658339472344 0.13499544216726397 0.053423129550672216 0.09534500060262507 0.12444312657188757 -0.07154337712709531
0.12302953382765937 0.2624980951876685 -0.3249003690999307 -0.16337275417799332 0.12698487607031056 -0.15345465769229585 -0.03236208825883271 -0.3114336054472533
-0.3689217317554958 0.27598803835607044 -0.07987211056195799 0.09144026980396139 0.05437630767492275 -0.08399134034912872 0.17847687843567822 0.42417243889265105
0.12350890772797687 -0.3095236270670941 -0.06415606026155263 -0.3819080439425102 0.14991529400491274 0.07542265740948631 0.047661662026972855 -0.2669086593347287
0.0934218720196654 -0.049618935925817696 -0.1949524259636552 0.05711909255423861 -0.17081122608209637 0.029115784572142273 -0.21082581441669426 0.1324453821437819
-0.062491356750408435 0.05775951434863231 0.3086548932787689 0.2099608833095496 -0.13675796616606414 -0.09383619471599014 0.22166095798010915 -0.0835168244539492
-0.20259905202112186 0.3212192392186013 0.042432365325280094 -0.21207181590603277 0.12015291041245199 0.04079032107250399 -0.07958842058114046 -0.047445523174445135
0.09746882434836274 0.00717302883257339 -0.03433286800115162 0.0659117194639801 -0.03269254431755958 0.1006466081709756 -0.0826788022194357 0.045832338548242584

fc_hidden_list.0.bias f8 [50]
00000000: fdac b733 c836 bcbf 52a0 0788 b70d bdbf
00000010: 791b 519b c66f c0bf 536b 0b5c b4d6 be3f
00000020: 0b9b 140a 65f9 b83f 45d8 e16d 037e bc3f
00000030: 5cdf fad4 e19e 723f 4a23 9b9f 5149 b2bf
00000040: 6e7f 3cb5 0ddd b9bf 2c4e 033c 98ac aabf
00000050: 819e 1b11 4920 c33f db87 29bc 6d27 a0bf
00000060: 52b8 c7e2 7a1c b3bf 7b1a d948 3527 ce3f
00000070: d530 bd02 64ef c2bf 429a a9b8 86cd aebf
00000080: 6ae9 3a09 60c2 b6bf 9b46 82fa 9479 b7bf
00000090: dcfd 29be 3c02 b63f 7047 5f89 f5a7 b0bf
000000a0: 68b8 29e3 3457 b7bf 2676 9cb5 a5a1 b43f
000000b0: 12bf 9ae6 15d8 b93f 874e c711 6cf7 b6bf
000000c0: e030 7064 cd7e b13f 78a3 67ea 5d2c b8bf
000000d0: ac4c 7af4 6b68 b53f 3e73 b644 9a33 bd3f
000000e0: 22cb e1bd 70b1 aabf f807 bdbf 8fe3 bdbf
000000f0: 1195 a2c2 6784 b23f 4169 b985 d15d c0bf
00000100: 89b8 b80c 200d bebf eb0e 0fe6 93f6 b0bf
00000110: 2dc7 2401 c37d 96bf 05a5 752b bf44 be3f
00000120: 3535 bb40 d42f bbbf 37a2 c0b4 d875 643f
00000130: 5f6d 1876 01fc a2bf 607b 4afc 00de bbbf
00000140: cf2c f4ef 42d4 bebf 6a5e f8f6 c300 b6bf
00000150: 2e28 48f1 2d62 b4bf c682 bc18 d3e2 b5bf
00000160: 7ff5 9433 bb2e a9bf 8d61 9aa3 669b c3bf
00000170: fd0b 454f 4dc9 c8bf 5297 aa63 965f b73f
00000180: 62a8 eab6 331e c2bf 2fb4 038a bb83 b0bf
-0.11021090757974501 -0.11349055357970997 -0.12841112693623893 0.12046363112623952 0.09755546089273197 0.11129781181975414 0.00454605308157582 -0.0714312567389587
-0.10102925944056348 -0.05209804279880034 0.14942277274461804 -0.03155081674482548 -0.07465332066178235 0.23557153756174273 -0.14793062337628862 -0.06016179088765174
-0.08890342927307918 -0.09169894329013532 0.08597163813282499 -0.06506285289586144 -0.09117441698046636 0.08059154209009786 0.10095345382682933 -0.08971286233946262
0.06834109975915537 -0.09442698452734344 0.08362459868139877 0.11406864335590414 -0.05213501279731349 -0.11675356322396613 0.07233284475167447 -0.12786311177735324
-0.11738777456841566 -0.06626247755690044 -0.021964117951205942 0.11823649226211692 -0.10619856434205562 0.0024975998440093477 -0.03707890097231358 -0.10885625991293812
-0.12042635305640491 -0.08594918040795965 -0.07962309971495138 -0.08549231866755766 -0.04918465618764411 -0.15317996014051652 -0.19364324923125756 0.09130229886303923
-0.14154669219471133 -0.06451007956975795

fc_hidden_list.1.weight f8 [50, 50]
00000000: 1ea2 bb35 c306 c23f 70c0 8f45 1a66 c4bf
00000010: 7822 8711 4f99 bc3f b82d ae2e 12c1 b63f
00000020: 3397 0921 9143 b0bf 28c7 de9b e17a b3bf
00000030: 81c3 bcc6 a5e5 b7bf d492 a4a9 d8f0 b33f
00000040: 1458 5ac1 efd5 8f3f 19e2 6505 4c3b d1bf
00000050: c1b7 a7d2 6e57 b53f dd52 1aec e954 b63f
00000060: a879 ee0c 4bca b4bf 28fe 8f10 794f b93f
00000070: 0b89 7e5b b6ee 853f 2968 b270 612e b5bf
00000080: de27 22a7 9a50 c5bf 8428 dab0 b6e9 d53f
00000090: 9eb9 ef10 c5bc c13f 672c 55a3 659b d33f
000000a0: 7ed3 985a a248 a2bf 33f6 e2bf c295 973f
000000b0: 288a 6119 1e7f b73f efa4 b924 36f6 bf3f
000000c0: 6af5 a39b 18f9 8dbf 710d 6494 05c6 4f3f
000000d0: 34ab 110a e083 c13f 921e 3aeb 17b7 a4bf
000000e0: c417 0e9e 1471 b33f 0c2a d843 3021 a7bf
000000f0: 418c dbbb 2e87 aebf 5459 75cc df98 663f
00000100: 615f 1cbc d2e0 bd3f fbe5 8701 002b b3bf
00000110: e734 cca9 1eba b73f 2475 97cb 6b1f c5bf
00000120: 79b5 5811 522a d13f 01b7 62e1 2168 97bf
00000130: e2b8 86f0 10f8 c9bf 6370 409f 8394 d03f
00000140: 7728 bbe0 336c d03f 357c 6148 3814 c7bf
00000150: 3e31 68bc 29e6 bebf 6ca6 2204 c4f6 b63f
00000160: 3e8a becc 9d30 b03f da08 ccd2 272f c13f
00000170: f7bb 6474 9216 b93f 7ece 1257 1531 b5bf
00000180: f466 8cdb a62c c13f e110 2836 b8ac b13f
00000190: 01f4 27fe ed8a c0bf 4d99 7a8c 7de7 803f
000001a0: e7af 4bfa 4a9b b2bf 26c9 e007 953f ba3f
000001b0: be8a bafc b5c6 b7bf 4343 0e02 2f1a b13f
000001c0: f3aa ed27 3b39 b63f 259e ef80 1e8e b33f
000001d0: b104 385f 643e 94bf 5808 d1c9 7a41 a03f
000001e0: c1be 2db2 e603 9d3f 2969 d025 a737 b5bf
000001f0: b75a d11f 2b54 bebf 60fa 2d31 cccf 923f
00000200: b505 a099 d461 acbf 467f 28df c736 c3bf
00000210: 77a7 494b d654 843f 37c9 aa57 469e ab3f
00000220: 9c74 4cdc d4bd b6bf 0d4c eb18 aee7 af3f
00000230: 5efc 3364 afd2 b03f 055d 5fde 5807 c23f
00000240: be01 5006 1a64 63bf 36bb e665 aae2 adbf
00000250: d2be fc77 92c6 ba3f 58cd 8707 a724 b9bf
00000260: e4ac c12f 67f6 adbf cf68 21a5 4dc0 c13f
00000270: ad64 7f0d dafd b43f 6c4c 5e76 26ae b73f
00000280: 6826 0a14 f9d3 b23f 3835 06ae 238f ab3f
00000290: 2b0b b435 f699 b9bf 821e 9be3 2f77 ae3f
000002a0: 1807 02bb c867 bdbf ee62 b943 d8ea acbf
000002b0: f8e1 473c 227b b63f 4709 6015 6bd4 c43f
000002c0: 302e cdb5 dbf7 bf3f 02ba 2767 0f36 cebf
000002d0: 869f af8a fa87 a63f fee6 3eed f5aa 8fbf
000002e0: 2da2 292d 9c7b 8bbf d294 3294 f089 81bf
000002f0: 1dd1 bb9b 8043 a83f 9ca3 f7c6 8b6f aebf
00000300: 1533 ebc6 2f41 c13f 62ed da59 f43a 9cbf
00000310: 8ee5 9ee9 c8c3 aa3f 0c11 8f1b 85a8 bbbf
00000320: 269e 4743 7373 bfbf aa22 8a1d 8a81 9fbf
00000330: 079b 4811 0315 a13f c2a2 e2fa 7b76 b13f
00000340: 097c a9a3 bde8 b6bf 557f 0a04 30e0 ccbf
00000350: d731 49a4 688e b63f fc24 20a1 8879 b63f
00000360: c74b f4f6 78c9 a5bf 54e6 2c3d 95b5 a43f
00000370: 6a1b 46a0 c75d b13f 984b 2c49 0ce8 bb3f
00000380: 7b2b 4a8b bbad c03f bc3e cf49 2623 c93f
00000390: a2a0 0648 e139 c9bf d7b2 d435 86fc a53f
000003a0: d380 2c46 363a d0bf 8afb fa0c 1dda b2bf
000003b0: e922 59ec 9ca3 bdbf bc14 07de 9f01 b83f
000003c0: c2dc 7c68 06fa c3bf e1b8 bbf4 d7fc cc3f
000003d0: 4f15 711d 2236 c33f 21a4 33d5 1ea8 c1bf
000003e0: f506 32c9 3593 be3f 0977 f0f9 e04d b0bf
000003f0: 5707 90cd f632 b33f f84e 9f86 b56b cf3f
00000400: 4605 cbbe 12ac aebf 61e3 17a0 743c ba3f
00000410: a47e 0a76 d598 963f 6184 1a63 02ca ba3f
00000420: ed78 551c 4e67 b5bf 70c2 6413 e996 be3f
00000430: 8992 8861 13f6 a63f 19ef f35d 881d bb3f
00000440: 98dd e1fa d4e8 c7bf f17e 386e 4501 d13f
00000450: ba20 56fc 783e a8bf e4b9 06c5 e2c4 b9bf
00000460: c4bc ab7e c92f a9bf aeec 7630 fe89 863f
00000470: abc4 8f24 3c13 c2bf b77f b857 88e0 c23f
00000480: 59c0 b101 505d 913f c250 d44c b113 afbf
00000490: 45bf 53d6 e731 853f bccf 7d15 626f 99bf
000004a0: 8d8d a1be 396e a13f c3de dbd9 24aa 813f
000004b0: 5cb6 2bfb cb5e a8bf 0cb6 2593 138f c0bf
000004c0: f9a3 625e 5138 923f 96a5 9e30 9cf1 99bf
000004d0: b931 5b31 98c0 8e3f 2da3 7f28 db49 9e3f
000004e0: f2bf 6910 153c c0bf 5124 b6d5 1017 b7bf
000004f0: 6598 1ee4 6d4d b5bf 3f4a 498b 870a b73f
00000500: 0414 69e5 0c1e 773f b5c8 ebfb 66bd acbf
00000510: f921 0b54 e201 c03f 5e70 3cd3 ec71 bfbf
00000520: 9040 f207 a68b c03f f4dc 91ec b27c b7bf
00000530: 307d 37a2 be36 a9bf f435 6def 07ff ac3f
00000540: f1e1 2dfa e8a9 723f 42c8 4bbf 7749 9bbf
00000550: 4f71 a2a8 62a2 aebf 45f4 7dc7 1ac9 bcbf
00000560: 6541 3717 5510 92bf 7a1b a0a1 ab41 b93f
00000570: 0850 3017 a88c c1bf 4376 f698 1c08 a23f
00000580: 4136 298f d001 b93f a72e d6f2 71e3 c13f
00000590: 1926 5bd6 13a2 b23f 1918 ef7e 9ea2 a4bf
000005a0: 1d91 e416 57c8 bcbf b98e 772d f025 a7bf
000005b0: 1582 a47b 3623 a1bf 888f 8f17 8c43 b53f
000005c0: c9d2 088f d264 c2bf cc2b 0f1e aabf 8f3f
000005d0: 0f9a 3172 2f06 bc3f 6c79 4fd4 26fc b83f
000005e0: b1aa da76 59f0 be3f 11e3 e361 a800 c3bf
000005f0: b6c4 8a62 356f afbf 5d0f 1410 107b c23f
00000600: 7165 3154 b783 a2bf 891e ca3b 734f 95bf
00000610: 6ff0 84fe e113 3dbf 16b6 fd0e 2e4b b53f
00000620: 078e 144e d9fa 913f 68fd f336 788d a33f
00000630: 27d5 7d5a f0d5 b73f d93f 2cf7 6d0b c0bf
00000640: 24eb acd3 69e8 b5bf 4f22 1835 6e05 b0bf
00000650: 2f9b cdf5 238f a83f c320 74a3 eb27 b83f
00000660: e8e5 ad50 e31e b9bf 6ed0 796d 537b b63f
00000670: edd7 dd8c 5f8c bc3f eb09 614a b315 743f
00000680: 972b fb4e 9a64 99bf fb78 d31e 0a3a c33f
00000690: 20c5 2b7c e586 b93f 9c6d 17f3 3954 993f
000006a0: c3fc 50ae 7bc9 c5bf 0bf6 4202 74d9 b8bf
000006b0: 9665 5415 793c c83f 1d32 da67 87d6 b8bf
000006c0: 099e 4a2b fa16 ccbf 6ba8 b84c 739b 74bf
000006d0: dd7b 6aad 3093 cabf b68f e920 652b c4bf
000006e0: c5b0 1b36 c208 aabf 2789 2c7f 42b8 cf3f
000006f0: 9380 9a7d 4440 823f 240e 87f7 adbe c03f
00000700: 1c81 9b07 aad8 953f 07d6 97d9 390b c23f
00000710: 44ee 4739 ca0c 943f 004a 6fbd fde9 223f
00000720: f500 b1a6 8ad9 ccbf cc9d d2ea 5cda d03f
00000730: 4be0 93c1 19d3 b63f 95ef fe68 7667 d0bf
00000740: 6e79 f1e1 82fc 91bf d951 48d9 d246 cb3f
00000750: 066a cd98 3724 d4bf 7942 a867 d4c5 9c3f
00000760: 9a4d 8112 d623 c0bf e332 9f89 6270 233f
00000770: 11d7 6bdd d289 313f a620 140e cb59 cabf
00000780: 7194 0988 40a5 d1bf f923 4208 982f be3f
00000790: 9877 d345 a679 b03f c03d b477 5a87 b33f
000007a0: bc7f dbb0 8039 d1bf ddeb c1e7 0679 c83f
000007b0: c922 d76b b152 bc3f 8dcc c069 90cc c13f
000007c0: 91f0 16ac 3fb2 d2bf 4546 1d9d eb50 bbbf
000007d0: d20a 372a 9bde 9cbf 762e a661 0ad9 aebf
000007e0: 6b4c 8b68 4eee b3bf 87e8 293f 8ef3 aabf
000007f0: 8851 6ee9 bc48 bebf 7a90 d767 f2bc bebf
0.14083137630156356 -0.15936592480238998 0.11171430757452494 0.08888353004129257 -0.06353098923281379 -0.0760937696020646 -0.09334789373384746 0.07789377347632903
0.015544770324861935 -0.2692441990580235 0.0833653702063364 0.08723318113545582 -0.08121174874984283 0.09886891035420631 0.010709213893111988 -0.08273896218671041
-0.1665223423081547 0.34238974829407476 0.13857329680417946 0.3063596816106781 -0.035710404929353054 0.023032229387118085 0.09178341025975867 0.12485063931093852
-0.0146352694032383 0.0009696509594338388 0.13683701030398654 -0.040459392036663946 0.07594422205701706 -0.04517508342913254 -0.059625111038052576 0.002758442980545764
0.11671177952336854 -0.07487487828611698 0.0926837124390719 -0.165021395120598 0.2682080430411911 -0.022858170873113263 -0.20288287872740002 0.2590645842735794
0.25660416551966797 -0.18030456098765205 -0.12069950914173419 0.08970284558258762 0.06324182747497617 0.13425157349417455 0.09800067273748413 -0.0827802026349733
0.1341751644147774 0.06904174158268318 -0.12923979673351485 0.00825403294522844 -0.07268208132489883 0.10253268663726497 -0.09287583751806047 0.06680578041256262
0.08681077694715693 0.07638731620647173 -0.019769256889053014 0.031749570022399254 0.02833519423023634 -0.08288044617839731 -0.11847180868913197 0.018370810033497498
-0.055433887246191395 -0.15010927578350158 0.009927438900564784 0.05394191570430212 -0.08883409860978236 0.062314453641782654 0.06571479984630588 0.1408492170146262
-0.0023670681280238684 -0.05836994642174036 0.1045924704492294 -0.09821552213525331 -0.05852053125348691 0.13868113101017918 0.0819984705880354 0.09250107183315642
0.07354695071458084 0.05382644175834134 -0.10000551997295008 0.05950307515518906 -0.11486486974356713 -0.0564792235060788 0.08781637164782541 0.16273249191005787
0.12487576664460032 -0.2360247853934681 0.04400618498749424 -0.015462800314583355 -0.013419361236814609 -0.008563880465155913 0.04739000226064347 -0.059444778478627586
0.13480183804349424 -0.02756864355499767 0.05227496959509913 -0.10804016039680081 -0.12285538094112577 -0.030767591526940898 0.03336343370420108 0.06821417689446732
-0.08948884244590273 -0.22559166142763823 0.08811048518072738 0.0877919572232208 -0.042552738328729904 0.040447868077944676 0.06783721602378781 0.10900952135516062
0.1303018980146041 0.19638517955762846 -0.1970788575829419 0.04294223219981113 -0.2535529790202535 -0.07364064757255853 -0.11577778597087342 0.0937747876224248
-0.15606765844288445 0.22646617364757218 0.15008951604446927 -0.13794312868347539 0.11943374788281942 -0.06368833639177408 0.07499640005701501 0.2454745204291766
-0.059906564512412205 0.10248497875717312 0.022067389802599494 0.10464491767426544 -0.08360756103272467 0.11949021075703015 0.04484615865320502 0.10591938298960847
-0.18679296732055373 0.265702588689222 -0.04735162811545153 -0.10066048917972342 -0.04919271155619634 0.011005388120670947 -0.14121200356706728 0.14747719081151242
0.016957521537222273 -0.060697117451270724 0.010349093654866368 -0.024838955461248466 0.034044079323190514 0.008625305079007167 -0.04759824219750605 -0.12936634716918183
0.017792960534880085 -0.0253357319522017 0.015015782362206008 0.0295786136120199 -0.1268335657255189 -0.09019570558133806 -0.08321272677730603 0.09000441694778603
0.00564389264633736 -0.05613252473075773 0.12505749801336188 -0.1228321090424642 0.12926173580172362 -0.09174650455121364 -0.04924579363045678 0.05663323209465068
0.004556570117408829 -0.026647444773466818 -0.05983265217330091 -0.1124436127701794 -0.017640428106291312 0.09865830131466949 -0.1371049988962343 0.035218137428483696
0.09768393988743986 0.13975357396372098 0.07278560622503284 -0.04030318545805773 -0.11243194874674996 -0.04521132044808724 -0.03347177752789691 0.08306193900312853
-0.14370185836891938 0.01550228981240833 0.10946938074048539 0.09759752925262938 0.12085494186127722 -0.1484575727443134 -0.0613953287878614 0.14438057694507736
-0.03616116430994055 -0.020810890697730264 -0.0004436899894420037 0.08317840448372524 0.017558474913256485 0.0381887023049739 0.09310819825426063 -0.1253488022707632
-0.0855775968347357 -0.06258286281821167 0.047967075114505035 0.09435913792197241 -0.09812756271084988 0.08781930372953337 0.11151692570805923 0.004903507569965697
-0.024797831602693412 0.1502087259786505 0.09971460610883698 0.0247353605862891 -0.17021127711811887 -0.0970680718919185 0.1893454889439396 -0.09702345166642386
-0.21945120920030117 -0.005031061543869435 -0.20761688678336912 -0.15757431132362648 -0.050848073105812776 0.2478106614081039 0.00891164310752427 0.1308190783148443
0.021334320749589172 0.1409675896135669 0.019580039735940483 0.00014430258190019363 -0.22538884295682463 0.2633278172674778 0.08915863967911368 -0.256314852271083
-0.017564816513521313 0.2130988655996038 -0.31471052095517427 0.028098410441148112 -0.12609363463944306 0.00014830782748589182 0.00026761434621334993 -0.2058652704947736
-0.27571118626503394 0.11791372491474296 0.06435622410523789 0.0762840788122423 -0.2691346861956807 0.19119345012936054 0.11063679583379406 0.13905530132032987
-0.2921294384539204 -0.10670349679755826 -0.028192924930190717 -0.060249638004361936 -0.07785501530024568 -0.05263943215409577 -0.11829739283559182 -0.12007060084539659

fc_hidden_list.1.bias f8 [50]
00000000: 3060 5e81 2c8d c3bf cc31 b389 320b bb3f
00000010: cf51 ef33 5084 c0bf ea5d 585a f9ac 85bf
00000020: 5248 48a7 9ff0 b5bf 272c dc6b 4bd4 b83f
00000030: 7f0a 8be7 6dc0 b6bf 574f 0025 2bed 8d3f
00000040: 63ac 270b 23e1 bd3f a587 d7d3 ef4c bbbf
00000050: 368d 2881 d507 c23f 8f49 94e7 a289 933f
00000060: abf3 c57b f99e b73f f37e 7967 36fc be3f
00000070: 06fc 4637 047c b73f d2db 52e9 56d7 933f
00000080: 1c33 a6a0 d9b0 babf bd88 9e51 10ae a7bf
00000090: 4600 ca16 dddb b2bf 4abd 48e6 ece6 b8bf
000000a0: 65b5 4473 4599 aabf bfc2 033b bd5d a8bf
000000b0: 42af c8c1 aab2 b5bf 8208 3147 47c3 87bf
000000c0: 864c bade 028e b5bf c389 0473 f266 a3bf
000000d0: 23b8 c76b 114d afbf 74a9 baae d6f1 b4bf
000000e0: 2df3 3d25 fbf3 af3f 61cc ade1 63b4 ab3f
000000f0: 0b3e 2774 9944 c23f b06c 4638 d72e b03f
00000100: 36ac f579 9b53 99bf ff73 e3b2 6330 b9bf
00000110: 07e1 f71f 014c c2bf a87a 61ed 1c84 723f
00000120: 71fc 4d48 fba4 77bf c531 596e c1ca c13f
00000130: a73a 5d89 f11f b4bf 1bf3 70f1 7d4a 983f
00000140: 069d 890e 0d9b babf 83da 5058 40c2 bd3f
00000150: bbba cfa5 3f8e bf3f 5c97 ac61 96e1 ad3f
00000160: a7f0 87e7 c33b 4fbf 64a4 caa3 31d0 863f
00000170: cc5d b40c 1d17 913f 3a2e fc93 42d8 b0bf
00000180: 85f7 1e1f 1137 9fbf 37b8 b3e3 92bd b5bf
-0.15274578396633975 0.10563960897270092 -0.12903788123970947 -0.010583828038803273 -0.08570287546197733 0.09698935874273272 -0.08887373831661625 0.014612519327819191
0.11671656629884945 -0.1066427128021404 0.14086407476961832 0.019079728493190336 0.09226950904662938 0.12103595758662404 0.0917360911325745 0.01937614249319692
-0.10426101848697694 -0.04624987598732975 -0.07366735273717592 -0.09727364179774614 -0.05195061714253305 -0.04759017320055169 -0.08475749236157262 -0.011602932796567215
-0.08419816911400532 -0.037894798794031036 -0.06113485756564809 -0.08181516424034446 0.062408302589551524 0.054110642718023134 0.14271848842189203 0.06321473239806852
-0.024732999152018396 -0.09839461438555473 -0.14294447003317876 0.004520524022238938 -0.005772573062926432 0.1390001095591186 -0.07861241916291793 0.023721664296533534
-0.10392839054985722 0.11624529033802315 0.12326429174548086 0.058361720488661034 -0.0009531694950619855 0.011139285861036359 0.016689733410286497 -0.06579986679951669
-0.03048350098082821 -0.08492391642695983

fc_hidden_list.2.weight f8 [50, 50]
00000000: 03ae 56c9 396c a2bf e517 ce63 a64c 8f3f
00000010: 7c0e d266 4a15 b6bf 4b5c 9dfe 4f91 803f
00000020: fef5 884d bc07 c83f 333a 1ece 0cc3 a3bf
00000030: 2d3c deb9 4b96 c63f 80e1 1b58 384b b8bf
00000040: 2c38 2873 677e b43f ec0b f8ad bc51 be3f
00000050: 3c6f da9c 8c8b 9bbf 25df 4601 e23e 9dbf
00000060: 7775 f5f6 6274 c63f 3f24 d500 1f69 b4bf
00000070: 9862 5f87 126c b1bf 28ae 1201 8507 b73f
00000080: d57b 332b eafd 73bf 231b 9ff3 8630 93bf
00000090: b586 a0e4 a954 cebf 1bcf 4cef 954d 9a3f
000000a0: e47b 8098 5a0d a2bf feda d537 0f5a b63f
000000b0: 2f26 510a a3b3 a9bf 49b3 7e23 6e1b aabf
000000c0: f25d 4970 9b88 c33f 1162 ba12 3085 a03f
000000d0: e6d8 764b d61d b33f d038 793b f41b c73f
000000e0: 6777 9ffc 34c9 b93f 1134 d277 1f4e 9e3f
000000f0: 9ac1 8b86 b99a bd3f 9e76 0072 2a19 c4bf
00000100: ac51 092e 9aa4 c3bf ec83 204d 7c29 aebf
00000110: 80b5 85de c9df c3bf dc66 591f 3e48 c33f
00000120: 1e52 d3e6 3342 86bf fa49 13ea 9393 b0bf
00000130: 6404 c107 6f34 c63f 8d57 10be 2d0a c0bf
00000140: 0b5e 31b5 9f5f c3bf bfc2 9cb8 e40d c83f
00000150: ba90 0c9c cb0c bc3f 0262 b694 8512 aa3f
00000160: ad31 c599 817f 933f 886e 63ec 3787 b63f
00000170: 667f 3699 b6f2 97bf ea08 b731 4a78 5fbf
00000180: 1608 8790 6361 a2bf b9fe a9d3 dd25 b03f
00000190: 1ec7 2d45 1e3a c3bf 24c7 470e 364c b1bf
000001a0: b9a6 49b2 3b25 bbbf 27b8 73c0 0298 be3f
000001b0: d38d 5142 5e58 913f f031 b981 916e 8a3f
000001c0: 5f30 259f 5d13 b03f 4380 fdb3 5f87 b4bf
000001d0: edd0 200b fc17 ae3f 3c62 c11d 9451 a63f
000001e0: a081 da25 8171 923f 7d13 7cbf 3092 b13f
000001f0: 09f0 9a85 8728 b73f f2b9 fa0b b530 923f
00000200: e75c 1590 c316 be3f 996a d097 c3d4 b13f
00000210: 07b8 598c fd96 b8bf 6e34 de82 b35e adbf
00000220: 0993 0892 ff73 bb3f 4640 8193 3c80 c8bf
00000230: 4aad 4d15 1921 bcbf cd02 c462 9dd6 b3bf
00000240: bf7a 9dd4 64aa 643f a3dc 042d 4e53 a63f
00000250: a5f2 8110 bf74 c1bf 48b8 256d e861 c5bf
00000260: 5a27 cc63 b8ef 903f 10e7 c412 c89e b03f
00000270: 00d3 8722 0589 c13f 2ca4 c0a9 6ed3 b2bf
00000280: 7d22 5119 41a5 bfbf 02cb 4da8 3843 bebf
00000290: f4b1 d707 ea6c babf c480 f251 00fc 403f
000002a0: c547 4b92 cd8b b5bf eb87 0eeb ca85 c23f
000002b0: dc32 be9b b026 aa3f e329 1628 e9da a8bf
000002c0: 355a b492 9fcb b6bf 4851 a254 00d5 b73f
000002d0: d655 d894 fd1a bbbf 385b 4fbd b557 ab3f
000002e0: d725 b16d f725 a7bf 9c69 fff0 490c a63f
000002f0: 3fa5 cd85 8fa9 a43f 65e7 335b 9d7c b6bf
00000300: f260 eccf 2712 bcbf b2aa 3ba4 281b ba3f
00000310: f48f 92cd 9eb5 b63f 7f88 63e3 aa4e b33f
00000320: ccff 6905 ddff c93f fe1a d3f0 19e9 b83f
00000330: f983 03b2 d79d c6bf beed f95f 5612 b9bf
00000340: d364 b342 ccdb a53f bddf c9fd bc8c a9bf
00000350: 2e56 084d 861e c6bf 40b5 2ba0 f955 b2bf
00000360: 220a 56b6 43a9 b23f 6d98 36e3 f225 bc3f
00000370: 6723 303a 6050 cbbf 223f 6f18 84f6 963f
00000380: b526 41a3 03d6 c2bf 8cd2 615e 57f3 bdbf
00000390: 32ce bc9c 67ed a53f 6151 c06c 42e7 dd3f
000003a0: 7615 6c62 a228 cb3f daf8 c42f bde8 c5bf
000003b0: c3b8 79e4 bf81 bd3f 9d9b 49d5 57b4 b33f
000003c0: 7669 bee0 c0d2 aebf e684 dddd 774b bebf
000003d0: 7743 68fc 06f1 b6bf 6056 2da1 6281 c7bf
000003e0: dd90 03d7 7dee b63f 005d 368b 9103 c93f
000003f0: cb4c b83e 9f6c c3bf 84fb 8d7e d00e d0bf
00000400: eb1a 3d2b 0f40 c63f 38a1 07d2 1a9e c2bf
00000410: a7c4 f7c3 df7d 973f 7e59 b471 9b0a d03f
00000420: d28f 1ef5 acdf 2abf 2ead e2e1 8e17 dabf
00000430: ea85 af78 6818 b23f f88b e1f0 fed4 b03f
00000440: 62c0 d937 e7c3 c3bf 3311 763f efe3 c2bf
00000450: a728 525e b62f cd3f ce7c 5a18 5196 b73f
00000460: ac7e 1e17 2e11 92bf 1b61 00ae 9e52 bcbf
00000470: 4394 596f 058e b8bf 5f18 104f 9232 b4bf
00000480: 47be 000f 5b14 8dbf 2a89 f911 3455 c93f
00000490: daa4 1170 d34f a8bf 1f7a 7d74 ff82 abbf
000004a0: 6d03 6e3a 1863 c83f 7fb3 61fb 8ac7 a4bf
000004b0: 0a35 3f3a 887b bebf 3fbc 7321 9156 a33f
000004c0: 9180 a0b7 3a92 60bf 9427 be70 c5fa b43f
000004d0: f804 d012 2ce4 88bf 1420 5388 193c babf
000004e0: 20b8 0eb5 124d bdbf 513d 416e c96a b03f
000004f0: f44a 6a6d 48a3 bebf 71cb f3a5 cdc4 b5bf
00000500: 68ac 3b5d 4d99 ac3f de12 f2b0 452c 98bf
00000510: 2cf8 17ad bac2 c23f e7aa 1073 c3db d03f
00000520: 1a61 e23c 07f8 a83f 53ab 32e0 7b40 b53f
00000530: 59e5 32f5 b6ee b7bf 0232 8f1d 5d90 b53f
00000540: 8e56 6f41 d834 babf ef20 c570 7aee 95bf
00000550: d5c4 deda 81fe bbbf 9b4e 80e8 d91a b73f
00000560: b813 c5d5 6349 c1bf d7de 88c9 4e49 9d3f
00000570: a4af 54b0 8465 c1bf 34d6 e315 31d0 c6bf
00000580: 7a22 3650 bfd4 9cbf f0f7 83e9 4272 c43f
00000590: 95b1 fcc7 843b 98bf d5c9 b9a5 8b8c b0bf
000005a0: e00e 95e7 da78 96bf de97 3a3e 5c7b c2bf
000005b0: 6a34 81af cd12 a43f f50a 6c2f e86d 9fbf
000005c0: 6794 0ab8 6700 bbbf 2c69 c273 d15b 7bbf
000005d0: fb47 ddf3 a542 6ebf ca94 946c aa30 723f
000005e0: c433 3848 4f77 b53f 6647 d021 64a8 abbf
000005f0: 8a94 475e 89f8 bfbf a81f 152b 8ab8 a5bf
00000600: c96a 5296 5695 98bf 0213 b688 472b b43f
00000610: 4e60 9286 20c9 b7bf f5eb 4764 ffb0 a33f
00000620: 5e54 a659 9f3b adbf 949b 19e1 4dad a4bf
00000630: 9d36 48bd cbdf 91bf bd11 1660 6f92 be3f
00000640: da1d b689 048c b63f f80b 4ef9 965e b5bf
00000650: 5517 fe41 4e6a c4bf cb25 2806 d39e b5bf
00000660: e795 3b68 1891 c73f 1310 6c5a ff37 b4bf
00000670: 2132 7ee1 9176 5ebf d4d3 108e 70b1 a43f
00000680: ab4d 1b7a d87a c3bf 7383 e9cf 1c79 bcbf
00000690: 1236 f534 14ed c0bf 241b 894c 9512 9abf
000006a0: bdc7 8efd 3263 c03f b023 10fd b467 c0bf
000006b0: 22e6 e663 362e b83f 05e2 8add 2577 c33f
000006c0: 3cb2 482b c57c ba3f 1c92 0652 c6e6 81bf
000006d0: 520d 779d 561e b3bf f161 c997 5fd7 b63f
000006e0: 4cbf d62a 1860 b9bf d69b 38c4 2ac8 aa3f
000006f0: 5242 59d0 6964 bd3f 7034 9daf abd2 a9bf
00000700: e688 ceff 14b9 c43f bf4b a1b4 f087 b43f
00000710: 850f f49f af5e a0bf 3aca 242e 2ab2 a83f
00000720: f3e0 87a8 b779 c1bf 90b5 7b6c 3643 babf
00000730: 482c f349 c673 a63f 82f1 b277 4cee 783f
00000740: efcf d812 6239 a9bf fd22 7d80 3719 9cbf
00000750: e296 64b4 581b c03f d177 f7ec b6a9 b43f
00000760: d0c0 a4e1 9eb9 b33f 02ed 8063 6d43 a53f
00000770: 63bd 25ab 8849 aebf d3ba e7ad 4cca c33f
00000780: b591 355e 89f4 b9bf 69e5 50ce 73b5 a5bf
00000790: 28fe f803 a6ee cd3f 8a32 fc88 5ca1 b9bf
000007a0: e839 29c1 dda7 a03f 8866 b895 5368 b23f
000007b0: aaa3 f59a 3df6 bebf 11db 1c76 2087 bebf
000007c0: 311b f2dd 3fbf b5bf d096 71a6 a02a b93f
000007d0: e7dd 2125 f4d1 b9bf 26eb a1d6 370c c1bf
000007e0: a550 ef71 b928 a43f 7e0d 9823 8a08 c2bf
000007f0: 424b 14b0 a38a a13f 0a00 5746 a353 b8bf
-0.035981946780648165 0.015282916947182154 -0.08626236925379688 0.008089661557887725 0.1877360704983601 -0.0385974885567645 0.17646166396704768 -0.09489776755424906
0.08005377351239024 0.11843470809257867 -0.026899525712550373 -0.02856019146722057 0.1754268365720397 -0.07972902078940168 -0.06805530362124512 0.0899584891910129
-0.004880823823639487 -0.018739803904988094 -0.23695872939520304 0.025686590891566313 -0.035258132091477795 0.08731169808548242 -0.050198645600698526 -0.0509905260399593
0.1526064203523983 0.03226614216436386 0.07467402784718366 0.18054058937054274 0.10072642486144688 0.029594890297222124 0.11564216170132227 -0.1570179993295157
-0.15346076248046125 -0.05891025964252336 -0.15526698460909572 0.15064217119907297 -0.010868459207281463 -0.06475185837488331 0.1734751499043653 -0.1253106287046503
-0.15135570857340527 0.18792399420046554 0.10957024154464792 0.05092256012284581 0.019041085253137236 0.08800076981736471 -0.02338681516778198 -0.0019207691719747518
-0.03589926852465923 0.06307779710368323 -0.15021112802383468 -0.0675691399444785 -0.10603688338019425 0.11950699995551926 0.016938660428776075 0.0129062049592443
0.0627954972780471 -0.08019064087193421 0.05877673755495203 0.0435911451647297 0.018011110244175677 0.06863693880957374 0.09046217929693524 0.017763928276218928
0.11753484981214833 0.069652771533962 -0.09605393101239211 -0.05736313793668378 0.10723874392767753 -0.1914134712446886 -0.10988003511527214 -0.07749351178427873
0.0025226563783883045 0.04360431956814039 -0.13637531572375852 -0.1670504124589931 0.016539460269121654 0.06492281397086352 0.13699402032911934 -0.07353870052669781
-0.12361533039178059 -0.11821321591359538 -0.10322439853161552 0.000518322140028026 -0.08416447469360751 0.14470802762394838 0.05107643033179496 -0.048545156615620554
-0.08904454547551029 0.09309389177571348 -0.10588059314644424 0.053403548583153826 -0.04521153654111359 0.043062506359734715 0.040356144984637236 -0.08783896900777462
-0.10965203119519965 0.1019769097289707 0.08870880621776661 0.07541912127956783 0.2031208301959836 0.09730684403903564 -0.17669197265698225 -0.09793605654879564
0.042692549841100956 -0.049901872615861965 -0.17280653725963319 -0.07162437591951676 0.07289527131619214 0.10995405242155849 -0.21339037743771458 0.02242475890289975
-0.14715619536791782 -0.11699434332133246 0.042826879389761166 0.46723995800245716 0.21217756086131673 -0.17116513092509572 0.11526107147230662 0.07697056729521852
-0.06020167106108236 -0.1183390537894585 -0.08961528456008049 -0.1836360251424365 0.08957659243930345 0.19542140290716503 -0.15175238192077808 -0.2509042011151268
0.17382993327392823 -0.1454499745880271 0.02294110902397919 0.2506474123378196 -0.00020503031060769991 -0.40768787440420595 0.07068493791987121 0.065750058945511
-0.1544159910877197 -0.1475810108060017 0.22801856618418023 0.09213740200583517 -0.01764366165264046 -0.1106356787498765 -0.09591707199577208 -0.07889666013952155
-0.014198981662132527 0.1979127013938265 -0.04748402350453214 -0.053733809442509044 0.19052412846579206 -0.04058489149688337 -0.11907245084804088 0.037769828160769674
-0.0020228525945783023 0.08195146563062244 -0.012153953861345532 -0.10247954920043895 -0.11445729179715203 0.06412943784493065 -0.11967899962682421 -0.08503423024721514
0.05585710299586638 -0.023606385159399383 0.14656766368710927 0.2634132980044072 0.04876730554787141 0.08301519607145495 -0.09348624693202136 0.08423406573928818
-0.10236884686977474 -0.021417534954964287 -0.10935222238073845 0.09025346685694517 -0.13505218446712575 0.02859995942182433 -0.13591059312727538 -0.17822850769850762
-0.028155316611022198 0.1597369804584896 -0.023664545732729875 -0.06464455410040355 -0.02194540060487682 -0.14438965834159395 0.03920595900908881 -0.03069269933167625
-0.10547493212887248 -0.006679361507986575 -0.003693889738237919 0.004440942496590947 0.08385177148029671 -0.05401909744990867 -0.12488611747501657 -0.04242355132970427
-0.02400718014232942 0.07878539169002965 -0.09291270528262993 0.03845975970394725 -0.05709550828320496 -0.04038470623782256 -0.01745527594362405 0.11942192169050876
0.08807400095076137 -0.08347457491440469 -0.15949419233600773 -0.08445471668542053 0.1841154583882336 -0.07897945363589569 -0.0018593239419458856 0.04041625723076661
-0.1521864505981346 -0.11122303081493871 -0.13223507486183955 -0.025461514278755662 0.12802731877087395 -0.12816488606065723 0.09445514620792797 0.15207360570435938
0.10346634203660526 -0.00874094903776617 -0.07468167633401393 0.08922383743027475 -0.09912253423567313 0.05230840344693603 0.11481343590390594 -0.0504354144928606
0.16189825525822882 0.0801992836943972 -0.03197239711337744 0.04823428929593772 -0.136527020731371 -0.10258808277622777 0.04385203983982727 0.006086634351217037
-0.04926592330994583 -0.02743994447453967 0.1258345490288582 0.08071463857001439 0.07705109604717397 0.04153005447047954 -0.05915476884080808 0.15461119166817258
-0.1013875823023856 -0.042399996695574434 0.23384547418571455 -0.10011843056072159 0.03253071768687105 0.07190439610749355 -0.12094483407203308 -0.1192493713723304
-0.08494948547932492 0.0983066946369846 -0.10085988909292319 -0.1331853673944689 0.03937320247465096 -0.14088560808168532 0.03426085972218697 -0.09502621142655712
