savedModel/allen_cahn_tanh_sin/ParticleWNN_2/trained_model_best_loss.pth (torch, 249235 bytes, 10 tensors)

fc_in.weight f8 [100, 2]
0.17420416511101788 0.021626510975168836 0.6413177635572539 -0.6113229820330569 -0.28826462315562185 -0.5077748413036658 0.3395644309618514 0.6458847172814844
0.039620601837743054 0.24871411320451153 0.4643175651548741 -0.13273596755392747 0.4009017185971384 0.27527012519144295 -0.5703081804118811 0.6996002923300558
-0.4988030755165138 0.306832500793578 -0.527054543812686 0.1365093759327101 0.6406995332579759 0.1525177234336544 0.16477630807238894 0.6125041235913224
0.38539229354617893 -0.05384833786231609 -0.6468617231959416 0.3500458100812626 0.4343850424015444 0.5430706228389336 0.44019650119807313 -0.10077047295812175
0.5776861393964798 0.4841057654632331 0.06143797490983671 -0.1799176351916966 0.5404927915896809 0.3280844003345272 -0.24784420129599932 0.3499483846323582
0.537700901485555 0.14653693385245772 0.3765649091534953 -0.07114421481646321 0.24039101995589815 0.1584181915729399 0.7060710563340797 -0.508416208336286
0.017744614730322034 0.2836824092938913 -0.3537507217093734 0.2622079849051951 -0.4378388293257038 -0.39964153545747655 0.5645915466994527 0.026178445325327586
0.09741576309974304 0.15882313217142058 0.4737256162598135 0.029567373092687935 -0.12904367754829338 -0.06673106269898492 -0.6422192905220723 0.6350090736768313
0.23587485366627803 0.3702236978331525 -0.2501207769177225 0.3989404680531201 0.045430315052612885 -0.1761844841517254 -0.4965552569678591 -0.14074503145286382
0.12351393609862796 -0.3446972011136293 0.11425640376796617 0.34851387698732883 0.26861826378910675 0.03189342881754033 0.3300058864737633 0.4925737462613046
0.3546241183484678 0.337129250799667 -0.16401586168219445 -0.5411221491600541 -0.36002275097112024 -0.36784750606545324 0.0393539228852681 0.5478720908929078
-0.1147290577279439 -0.5588643236012808 0.381213765051017 -0.6128234903415731 -0.32553032345752947 -0.511463441674835 0.011618601497076029 0.3798564354848914
0.07347176879181168 -0.21432026010518376 -0.2325057306885524 -0.3780681323328955 0.5286932080186696 0.3949434101102415 0.08058689681059089 0.43264595587479
-0.40579567599537913 -0.5383886454076532 0.4254816776944001 0.0685298698678655 0.2879379664824157 -0.26715210967126507 -0.1967333538826934 -0.7079675745213927
-0.5166128245870389 0.5197789314529474 -0.32260382298397605 -0.12040981298186819 0.37391276426731074 -0.22498662279896156 0.163627465697594 0.05736502508016219
0.573522282664437 0.07228939287245295 -0.32882441171522975 -0.6069993322695002 -0.3629468037481621 0.11833771959612396 -0.41430593801016896 0.497484131093022
0.5976542156694569 0.6856447025905701 -0.17540349552113646 0.2264615162008213 -0.39219789176132025 0.35957657058348264 0.4488506466433169 -0.028996125929558907
-0.4060778465030706 -0.35867394260391317 0.3446590735936734 0.576501615416604 -0.35090086094137884 0.09206173675013873 -0.5765383040042847 -0.26540152730250033
-0.20315568088526387 0.24683201759441814 -0.41914964599171767 -0.2758841174792527 -0.5008912677511944 0.23312458976414532 -0.26288207785193507 0.6586617893761911
0.03543018882158808 0.25117267284507727 0.22367964533167117 0.42777287177192314 -0.4123890225630608 -0.5290147182504403 -0.29578610086328355 -0.49732854234038926
0.616693277658961 -0.17554684073809543 -0.062454960287160265 0.49171682371101805 -0.006009788850077378 -0.40733507044112116 -0.24080944342313132 -0.2786833168661895
0.020126887942018674 -0.02751160420749113 -0.6440498757424501 -0.14701601792955668 0.3555005131354255 -0.6753318052047933 -0.6237072720671869 0.10590782257307013
0.3133463092130871 0.629832831861359 0.6831612043192222 -0.11664281090084305 -0.5205355507387872 -0.13841313996679447 0.5740253536168888 -0.006063845772160727
-0.020039635926809712 -0.5913825868784266 0.6471456881461566 -0.2695775695323448 0.26115584707735695 0.15872988519873482 0.1235165583069064 -0.6244614615005621
0.6114980872594158 0.023169884527848555 -0.25832899859304487 -0.4603466050109001 0.41992768416018816 0.16524071565821702 0.4356686933437325 -0.44071561235804924
00000000: 8449 fd73 524c c63f 94b1 7595 4225 963f
00000010: 0150 9ad4 ac85 e43f 6f01 e436 f58f e3bf
00000020: ac04 4376 ed72 d2bf cc2f 2406 b13f e0bf
00000030: 926c 7773 6cbb d53f cfb9 366d 16ab e43f
00000040: cd29 48ca 2649 a43f ac2d 2233 ddd5 cf3f
00000050: 2c1b 5305 61b7 dd3f 10d2 d2ff 7dfd c0bf
00000060: e03b 92ae 5fa8 d93f 31d6 5096 069e d13f
00000070: 5b54 f0f0 f63f e2bf 538c fa26 2063 e63f
00000080: 9435 1fbc 63ec dfbf 2d88 10c9 24a3 d33f
00000090: 2747 9c7d a1dd e0bf e13a 9da4 2379 c13f
000000a0: 9ef9 bc4e 9c80 e43f 139d 1a65 b385 c33f
000000b0: c7cb 29db 6317 c53f 08ad 6f3f a299 e33f
000000c0: 4152 3a70 44aa d83f ea0d 2064 0292 abbf
000000d0: 0f25 455b 17b3 e4bf 87a7 998a 2667 d63f
000000e0: 021e bfeb f6cc db3f c95e 90a4 d560 e13f
000000f0: f965 1df2 2d2c dc3f 1cf1 c1fd 17cc b9bf
00000100: 9eee 81a4 677c e23f 750e 9ebf 96fb de3f
00000110: 50c0 f059 cc74 af3f 8d9d 8f83 8a07 c7bf
00000120: dc3e f389 b74b e13f a5ee 70b6 55ff d43f
00000130: 46e7 88d9 5bb9 cfbf 2e2d d2e8 8d65 d63f
00000140: 2b20 5d85 d834 e13f bdb5 46e5 b8c1 c23f
00000150: 98ab 68b4 a319 d83f e4b1 efdb 8136 b2bf
00000160: a338 7b08 22c5 ce3f c0d8 f21b 0c47 c43f
00000170: ec6c f353 2298 e63f 04f1 7111 f244 e0bf
00000180: d593 c9ef a42b 923f 3689 9743 da27 d23f
00000190: e866 2b11 daa3 d6bf 75be faff 03c8 d03f
000001a0: 57dc 3727 8d05 dcbf 0170 3a17 ba93 d9bf
000001b0: b682 954a 2211 e23f 0e2f 21ba 85ce 9a3f
000001c0: f4d6 a04c 3df0 b83f 0624 43ff 5054 c43f
000001d0: 0b41 473f 8551 de3f 74ce d8d1 e846 9e3f
000001e0: a4a9 69d3 8084 c0bf 1b62 eb73 4915 b1bf
000001f0: 4ae2 3478 0f8d e4bf 2b5e 838c fe51 e43f
00000200: 8004 39af 2531 ce3f e371 99bc beb1 d73f
00000210: c859 3a93 fa01 d0bf 8cb3 d599 3d88 d93f
00000220: f4bf cb6a a442 a73f ed44 bf92 368d c6bf
00000230: 7d5d 55b3 8fc7 dfbf b20f 95e5 ee03 c2bf
00000240: c2d2 24fc 9b9e bf3f c791 73d9 840f d6bf
00000250: 96bf 8a5d e83f bd3f 3437 f725 0d4e d63f
00000260: eb47 85a8 0a31 d13f 4210 75e3 5554 a03f
00000270: 7a1b 7902 d11e d53f 53df c308 5486 df3f
00000280: f97c ab5b 29b2 d63f 4b69 ad90 8693 d53f
00000290: eea2 f9c4 78fe c4bf cb13 b965 df50 e1bf
000002a0: 9829 4fdd 9c0a d7bf 96d7 1d44 d08a d7bf
000002b0: 95e7 8587 3226 a43f 74d6 180d 2b88 e13f
000002c0: 84a8 d72e e25e bdbf e198 186f 37e2 e1bf
000002d0: 2077 6b6b ce65 d83f a79a 2702 409c e3bf
000002e0: 1bcf 4623 7dd5 d4bf 05fa 6294 e85d e0bf
000002f0: f23e a44b 7ecb 873f a74b e55d 914f d83f
00000300: e5dd 23bc 0bcf b23f 2bd0 02a6 d86e cbbf
00000310: 2c4f b86e bfc2 cdbf bee4 01ae 4432 d8bf
00000320: 21d7 c104 0eeb e03f d26d 8cb9 c046 d93f
00000330: 1ca1 49c6 57a1 b43f 01a6 cea9 78b0 db3f
00000340: 1089 506d 8ef8 d9bf 1a09 12d3 7a3a e1bf
00000350: 87a8 af80 173b db3f bab1 e16d 2c8b b13f
00000360: e765 545d 936d d23f 7d1c 8629 0519 d1bf
00000370: 2fb2 7afc 8e2e c9bf 9454 669d aba7 e6bf
00000380: e074 499e 1788 e0bf 01b0 f76c 07a2 e03f
00000390: d0f7 5181 8aa5 d4bf cbe5 df70 2dd3 bebf
000003a0: 9371 85cd 2fee d73f 6dc1 7a95 5ccc ccbf
000003b0: f802 f3aa bef1 c43f b399 4ed5 f25e ad3f
000003c0: d645 f266 4b5a e23f 2821 3cc2 8e81 b23f
000003d0: dd5f 9c8b 750b d5bf aa52 19dd 896c e3bf
000003e0: 3d4f 123b 853a d7bf 226f 8c7b 614b be3f
000003f0: b3b4 920d fd83 dabf 53b4 54ae c7d6 df3f
00000400: 38bd d3bb fb1f e33f 2cab c928 cdf0 e53f
00000410: c505 6f2a 9f73 c6bf 034b f1e2 b0fc cc3f
00000420: 8033 ab2f c519 d9bf d516 c472 4d03 d73f
00000430: a1c6 0710 f8b9 dc3f 5e07 5012 29b1 9dbf
00000440: 4917 97ef 2dfd d9bf e850 5a8d 83f4 d6bf
00000450: e0af 56ee e40e d63f 86c6 0984 b372 e23f
00000460: f069 78e2 2875 d6bf d807 8ea4 5b91 b73f
00000470: e5de 1275 0073 e2bf f4a6 04b0 56fc d0bf
00000480: 8e0c b35e 0101 cabf 8a3c 9609 3198 cf3f
00000490: 9c85 6a09 59d3 dabf 22ca 83db 15a8 d1bf
000004a0: cdfc ba1f 4d07 e0bf 0518 77cc 06d7 cd3f
000004b0: 9207 c559 0fd3 d0bf cddb 8fe3 c113 e53f
000004c0: 4c45 8fdc e723 a23f 562f e18b 3613 d03f
000004d0: f87d bddc 88a1 cc3f 2017 9877 a160 db3f
000004e0: efd0 48ed 9464 dabf 1ea0 3f46 b0ed e0bf
000004f0: 1f6d 74d3 28ee d2bf 6409 2e18 3bd4 dfbf
00000500: 45aa 668a f3bb e33f 5370 f1a1 5178 c6bf
00000510: c30a d0b7 18fa afbf 23d6 2ed7 4978 df3f
00000520: d737 1269 b89d 78bf 00be 831d c711 dabf
00000530: f6ff 0806 d8d2 cebf c463 f88c f2d5 d1bf
00000540: c2c6 ec95 249c 943f 68a1 5381 002c 9cbf
00000550: 61d0 297c 0e9c e4bf ad6f 7fbe 6bd1 c2bf
00000560: 0a2f 6839 85c0 d63f 0fb4 2972 519c e5bf
00000570: 47ca f9f3 68f5 e3bf 3487 576a c61c bb3f
00000580: ed1e 99ad dd0d d43f d154 d92e 9727 e43f
00000590: 194e cee2 74dc e53f 40f4 21a2 4ddc bdbf
000005a0: 9482 da2b 3aa8 e0bf 1f3d bf92 85b7 c1bf
000005b0: fb7f 1b6b 6a5e e23f 357f 7834 67d6 78bf
000005c0: 28b3 b733 4585 94bf 9422 c22c 9bec e2bf
000005d0: 9cb9 cadf 6ab5 e43f 001a 3847 c240 d1bf
000005e0: accf 9603 c7b6 d03f 7ec7 e9c8 4251 c43f
000005f0: dd50 71fa c79e bf3f 9e3b 589a 96fb e3bf
00000600: 5810 cb6f 6491 e33f 0b63 32a1 d8b9 973f
00000610: 1932 245a 7688 d0bf 2a2c 569b 5176 ddbf
00000620: 2bcb 895d 18e0 da3f 621e dc96 9b26 c53f
00000630: 425a 73f1 fee1 db3f 1a86 7a41 af34 dcbf

fc_in.bias f8 [100]
-0.02107372240520444 0.33006357457811963 0.4531831858833226 -0.07443850198399758 -0.3259331639249568 0.2537341223738261 0.46862971016743715 -0.27760110875738003
0.5801107969473456 -0.5225651144597988 -0.13509739999348233 -0.21675438001692676 -0.161815445999281 0.5217234336183288 -0.4346577153146253 0.13752467263424129
0.21634455835315464 -0.5988824249915814 -0.5190914450230328 0.48728735556412894 0.17877553566001902 -0.16258293271711596 0.25418416096497076 -0.6245606906827497
0.49822328708024116 -0.5602591974300835 -0.4927785913414386 0.37762907569325704 -0.44827497592232723 0.556635409486661 -0.12131246339006688 0.43475310782553556
0.05084261752386228 -0.29049820927809095 -0.43791971621809667 -0.15284983930796023 0.1657131430927364 -0.1563919939267223 -0.48476256022574526 -0.3440971542623619
-0.5242497352429663 -0.3670584667618308 0.5311035717697878 0.6318849441798855 -0.0009472644143411592 -0.13437126009845432 0.3021256608184312 0.654215301821305
0.08679918109572027 -0.367037316578448 -0.528045263777088 -0.2333700861382023 -0.2005679092026161 -0.07092627605066204 -0.2322937176472461 -0.1274530236497907
0.1500811181210554 -0.4008857067588613 -0.15490659174935983 -0.611124852821872 -0.497772611929083 0.4835966297508532 0.24146193228144255 0.328936522943887
0.46465058794995473 0.14753466880750102 -0.358073035843831 0.5767855649577625 -0.3601464614206901 -0.2320171881447349 0.4080789298532841 0.39796034645426187
0.4623249479007141 0.014308822660094865 0.46018589204805327 0.42534717379650383 0.5416769639435872 -0.2869384231920515 -0.23827519666922978 -0.44756968387691104
-0.5602240843753369 -0.5714896739888635 0.17952334484451257 0.052143305950978304 -0.5871877781673349 0.6908729757383294 0.37484024696280216 0.0937529547795014
0.49447256147629637 -0.4326466099878466 0.4287370406890165 0.4221280888229233 0.2779022842216391 0.3935284711005766 0.6079010437533198 -0.08389100791034516
-0.2843494319067382 -0.1784641505235976 0.3329679084511749 -0.48010593705163745
00000000: ff2e 2492 5994 95bf 067d 9af8 c21f d53f
00000010: 48d2 9d0c f400 dd3f d7a1 95d3 660e b3bf
00000020: e953 efc5 16dc d4bf dc63 5e0b 2e3d d03f
00000030: 3699 c677 07fe dd3f f58f dc70 37c4 d1bf
00000040: 4640 9e84 4490 e23f a554 9479 dab8 e0bf
00000050: cf91 5f21 df4a c1bf 92fe b786 9bbe cbbf
00000060: 04fc 4658 5eb6 c4bf 5352 9e57 f5b1 e03f
00000070: c7be 0e98 6ed1 dbbf d4b7 ad91 689a c13f
00000080: aead 65b1 2db1 cb3f d29d af79 0b2a e3bf
00000090: de3b 80a9 659c e0bf 96be f94d b72f df3f
000000a0: 7409 7ee3 1de2 c63f 2f32 747d 84cf c4bf
000000b0: 325e a0a4 8d44 d03f c62f 9bb3 66fc e3bf
000000c0: 5760 07ed e3e2 df3f 72da 47b2 a4ed e1bf
000000d0: 53bf 7e37 af89 dfbf 85c2 8724 132b d83f
000000e0: bce6 4c86 89b0 dcbf 0c4e f10f f5cf e13f
000000f0: 6287 db66 550e bfbf 7c7b fcb2 fed2 db3f
00000100: da1b 0427 0b08 aa3f 7b57 19cd 8597 d2bf
00000110: 768a db6a e006 dcbf cf65 8362 9590 c3bf
00000120: cbe2 0c99 1636 c53f 9bc0 a221 a704 c4bf
00000130: e8aa 9f8b 5906 dfbf 5506 0d12 b005 d6bf
00000140: 30c4 7961 a7c6 e0bf db90 9dcb e27d d7bf
00000150: e847 f1ea ccfe e03f eecb 42c6 6638 e43f
00000160: 68c1 12d7 3a0a 4fbf f794 d2d3 1333 c1bf
00000170: ded7 1fde 0656 d33f 54b0 bbed 54ef e43f
00000180: e02d 209c 7838 b63f 156d c715 8a7d d7bf
00000190: 825e 572e bfe5 e0bf 2305 ea2b 12df cdbf
000001a0: ab7f 5391 35ac c9bf a88d 1074 3928 b2bf
000001b0: 263b 2ef0 ccbb cdbf c313 2d74 6150 c0bf
000001c0: a4dc 09ab db35 c33f 57a4 fd85 1ca8 d9bf
000001d0: 14c9 bfac fad3 c3bf 7091 14b5 558e e3bf
000001e0: 431d 45a8 81db dfbf 4916 4f47 3ff3 de3f
000001f0: 855a 307f 39e8 ce3f b040 20c6 4b0d d53f
00000200: 88fb d3d1 d5bc dd3f d9f6 c680 6ae2 c23f
00000210: 0ed6 a12a abea d6bf 188d 4900 0775 e23f
00000220: 7b9b 64be a30c d7bf 9383 983d bdb2 cdbf
00000230: a404 7a16 f71d da3f 7d0e 48ac 2e78 d93f
00000240: 30f1 d660 bb96 dd3f df78 f4aa f14d 8d3f
00000250: 9053 1b87 af73 dd3f 91ba 395a e338 db3f
00000260: 024c a4ed 6a55 e13f c3d7 e4f9 325d d2bf
00000270: 3737 9238 cd7f cebf 4dac bb50 fba4 dcbf
00000280: 115b 1a0f 5bed e1bf 7815 79b6 a449 e2bf
00000290: 1fe4 7cf7 9efa c63f 7590 8703 87b2 aa3f
000002a0: 0ede fa05 3eca e2bf fc8f 8fa4 a11b e63f
000002b0: d281 7bf2 61fd d73f 576b ae92 3100 b83f
000002c0: bcd7 133e 70a5 df3f 59e0 2768 7bb0 dbbf
000002d0: 20f6 157c 6d70 db3f 84ea 0d88 2504 db3f
000002e0: fecc 8da9 26c9 d13f b7ff 5a0a 922f d93f
000002f0: 25fe c3e3 ec73 e33f dd45 678f e179 b5bf
00000300: 5a3d abf5 c732 d2bf 52ee 00cd e9d7 c6bf
00000310: 9394 5aa1 584f d53f 5524 9040 0eba debf

fc_out.weight f8 [1, 100]
-0.043357404850083485 0.0266213613152072 3.7208472567373243e-06 0.019209979462017055 -2.7228089700076574e-05 -0.00799832222686084 -0.0027546362360756776 0.027850530618684404
7.764063244236952e-05 -0.01812751834996408 0.025036818954041466 9.350906646317619e-05 0.0009662180208764088 -0.018261560487814108 -0.022142734066669504 -0.0144016772458291
-0.05117902717106785 0.00854826255477005 0.04044497930459892 0.009201672169475351 -0.009686494446501706 0.018371355547668052 -0.01891200380847971 -0.029611966749467
-0.01110325994504312 -0.0070778506303917025 0.009141922314893709 -0.0028037029918045403 0.0230196808631979 0.015838973039185883 -0.011725002152316076 -0.013839348696882706
-0.01240353533004043 0.005528604663730154 0.00705778536892408 0.051172868567882654 0.031065680536571615 0.018455906987162644 0.016571618025345323 0.010132367227999458
-0.02295699343616059 -0.0111960163878194 -0.01781262766034737 0.011299088249672691 1.3432341948550938e-05 0.012107004934529575 -0.010326890350254421 -0.007266394087946557
0.00023661925177417026 -0.001603142060744187 -0.02146087020565258 0.019386384831859203 -0.007424069438433424 -0.0030045408686747554 -0.022425385318677663 0.04188697169591658
-5.3673013769580595e-05 0.018158768575183382 0.022361003996091724 -0.0069061515702957404 0.02062285642822297 -0.031345264725707235 -0.024165187869839327 -0.0065234095069806345
0.0045433953942956564 0.01886063889210005 -0.0049356678913762475 -0.02684044660979559 0.010886103734859983 -0.00730617962983367 0.03259372827454356 0.00950193506096948
-0.0005988599516297116 0.015916277010897744 0.009163098420914154 0.023273794878703454 -0.02321351756176098 8.120144742389655e-05 -0.00236763637062569 0.012848657448352853
-0.03075721153115096 -0.017888006728845586 0.009140342996331798 -0.006099857238502665 -0.013080145209047874 -0.005797779826583136 -0.03833484730682775 -8.803027881134571e-05
0.03022066361265539 -0.024592919229653877 -0.017517271623599277 0.037786837043151535 -0.008185263033699548 0.0037636200792484525 0.015195031322929323 -0.008767023820333312
0.022520144150551757 -0.03539749938447195 -0.07117327532960903 -0.02695587237280914
00000000: 77b7 bd17 f132 a6bf 9f2f e550 a142 9b3f
00000010: d78e 7769 7536 cf3e b94d 2fe6 c7ab 933f
00000020: 7a46 a313 fc8c fcbe d10f 19a3 6c61 80bf
00000030: 6077 7b11 e490 66bf 6be6 bb78 d984 9c3f
00000040: f610 a2e8 5f5a 143f 8408 e229 0590 92bf
00000050: eef6 697a 40a3 993f b0d4 8387 4983 183f
00000060: 39cd 7566 39a9 4f3f d9be 4694 28b3 92bf
00000070: 3138 a4ba 95ac 96bf 0b21 3a66 a07e 8dbf
00000080: b5b4 e12f 2334 aabf c803 e260 c081 813f
00000090: e421 cd4e 34b5 a43f 5491 4a88 53d8 823f
000000a0: bb87 e246 83d6 83bf 2fac 0acd f0cf 923f
000000b0: a8de 6f17 ab5d 93bf c66b 0973 9952 9ebf
000000c0: f95a be52 4ebd 86bf 1a70 bc0f aafd 7cbf
000000d0: aa9a eb0a 00b9 823f f238 0a95 caf7 66bf
000000e0: 731d e3a1 7892 973f 3876 d27c 1738 903f
000000f0: 795c 5126 4703 88bf a88d 68f0 cd57 8cbf
00000100: 6e47 c754 0667 89bf e85d 9283 29a5 763f
00000110: 6dab 77d5 9fe8 7c3f 7614 e289 5433 aa3f
00000120: b3f0 ba87 aecf 9f3f 8e26 b6f3 1ae6 923f
00000130: d9b7 d775 26f8 903f b1a7 004f 47c0 843f
00000140: f057 17c0 0982 97bf b56c d9e1 efed 86bf
00000150: 742f 0735 793d 92bf 2442 0ef4 f923 873f
00000160: 076a 2405 6f2b ec3e 1374 f8b1 8ecb 883f
00000170: e4fa 96c2 4326 85bf 4a33 7bcf 5dc3 7dbf
00000180: d7da 5ce5 9f03 2f3f f5f5 30ae 1044 5abf
00000190: e339 b59e d6f9 95bf 89ad 5c43 06da 933f
000001a0: 7595 0f77 b368 7ebf 1c8e a798 fa9c 68bf
000001b0: 21f9 2c22 aef6 96bf 0ef8 1f8b 3572 a53f
000001c0: 7044 e6b5 de23 0cbf bd07 aa54 3698 923f
000001d0: 37cb 7993 cde5 963f 1094 2bf2 9f49 7cbf
000001e0: 0d25 a377 281e 953f 9543 c38d 7c0c a0bf
000001f0: 9b1e 694e c2be 98bf 23b7 da67 4ab8 7abf
00000200: bfca 196a 189c 723f d197 e40c 3450 933f
00000210: 978a d642 6c37 74bf 47af 98e1 0f7c 9bbf
00000220: fe3b 2d1c 744b 863f d3f4 19a9 15ed 7dbf
00000230: 32dd fc09 20b0 a03f 6744 af22 c075 833f
00000240: 76f5 1cf4 999f 43bf 2b8b f144 5b4c 903f
00000250: 1502 6240 1ac4 823f 8f6e 6eef 15d5 973f
00000260: 4ef4 02cb 48c5 97bf 260d 8a3e 5649 153f
00000270: 6225 fb18 4b65 63bf 8732 4e9c 6550 8a3f
00000280: bfdd 9186 d17e 9fbf 7a67 90cf 3b51 92bf
00000290: 349f f211 2cb8 823f d31d 98f5 29fc 78bf
000002a0: fec5 325f c3c9 8abf fdcf e9ab 69bf 77bf
000002b0: cabf f506 a0a0 a3bf 3c06 99ac 9c13 17bf
000002c0: fbe2 8467 2af2 9e3f 7ad7 37df e22e 99bf
000002d0: 5e3b f432 0cf0 91bf dda4 a3da cb58 a33f
000002e0: 64a9 4f68 6fc3 80bf e546 f524 e2d4 6e3f
000002f0: c2d9 bf94 921e 8f3f af90 bb04 72f4 81bf
00000300: b0e4 824a 850f 973f 68d7 6efc 9e1f a2bf
00000310: cfce e369 6938 b2bf 79ff 1af9 519a 9bbf

fc_out.bias f8 [1]
0.02872939470865473
00000000: 5687 d40a 3d6b 9d3f

fc_hidden_list.0.weight f8 [100, 100]
0.04530057786503379 0.028817623752979242 0.0313538701384819 0.06671868899342265 -0.06443887595860069 0.01753834393102136 -0.1055528554110894 -0.004842796141708712
0.07732244721615095 0.029805291486486925 -0.013990375483284353 -0.09036810622884692 -0.09413420623170567 0.05024947724916189 -0.020855100358776378 -0.051274335848597474
-0.005012689967154882 -0.07962067735215171 0.0030513311660429294 -0.045174358899071426 -0.06416709108101669 0.012891641755306608 -0.017932404977661187 0.07273688655118593
-0.07655408997363498 -0.04020968393683343 0.09863783715339426 -0.0445839583239381 0.03960936437785175 0.03220425062630783 0.051031688988276494 0.05998677943610972
-0.05274827244130382 0.10336143075294339 0.0195675891974603 -0.06894180892011471 -0.013737705988180618 0.09489689360878548 0.09498981287064284 0.04335001871188742
-0.033743277997105935 0.0627705363018475 -0.025251385466649803 0.06653720806277184 -0.0817226071521453 0.04311348995058321 0.09632408541253791 0.02842532911099799
-0.0008234328102707387 0.09082702616367117 0.04422168543936049 0.012183132220322166 -0.06082035010249578 -0.09850890789973754 -0.0021839274551531387 0.018230343758450725
0.06838948826547409 0.08260796233548581 -0.0919786368138813 0.03102482115801326 0.006520450122782269 -0.04022426315115819 0.1035553941058989 -0.013453342089526388
-0.05015657887381781 0.07425606180604244 -0.02201624895758272 0.021065060031547744 0.09169149261213957 0.09113336574779686 -0.03548601925436435 -0.01160479456036801
-0.06270099029662288 0.05720863424388027 -0.07653506003995796 -0.059306001308644454 -0.020457214638712518 0.07540125626538903 -0.06090988392168504 0.02605106634042917
0.020740312197204146 0.04069968412678851 0.08424269162098881 -0.027894936287131657 0.054319250545442024 -0.04365337177195572 -0.058409328704963896 0.05969176100748616
0.07052608221607896 0.05685022298247513 0.04288930340498529 -0.024648275039955758 -0.08627307944987418 -0.0032371075688001714 -0.05585251952485411 0.06733127780595322
-0.1227687618284691 -0.08862334683025169 0.03701745278760347 -0.06974882970989327 -0.003769333378091825 -0.08992280854378377 -0.0389109527772268 0.016157321818759368
0.028506908636728646 -0.0025091583558396213 -0.03877915159504613 -0.023902770092934348 0.027447969762591597 -0.0725461577157322 -0.024737662159932658 -0.06444652150165643
-0.02660048369344467 0.12025457479129342 -0.03180074318763769 0.03962073714556372 0.02800143145802012 0.07416012854473497 0.03473747473922734 0.009917197695464723
-0.010369020398445946 0.028544611661849312 -0.056765681599996454 -0.10633716227966887 -0.021764872003433886 -0.05398136123350522 0.02934921941016278 0.0193056680549341
-0.04064133633234885 -0.021570279482194168 -0.08130834926067221 0.06775451320545443 0.05417919204923678 -0.03782636509934163 -0.11619618213825054 -0.05684536744176501
0.04387228094282549 0.05287194331468498 0.07360258947800985 0.0514696861608699 0.08832346361630519 -0.10979569167901417 -0.0334396651069889 0.054080823089129586
-0.07764968543366882 -0.08362639165207676 -0.0018689483680133586 0.0254569222881837 -0.06850084973142069 0.019898690812458875 -0.056704397295233085 -0.008796441537759506
0.07921414179311866 -0.03903301703088112 -0.15357172508922298 -0.050268885365741534 0.013538879338168237 -0.09134284676292054 -0.03687572059342998 0.04212367770153743
-0.06929318256795926 0.07706652922956678 0.1476809010689431 0.015539580500125778 -0.03834943388044389 0.009727496761312897 0.06155795309524243 -0.057344849955260194
-0.06652973065068575 0.07882485498638833 0.02711639037177315 -0.05345821639582901 -0.057138358537334226 -0.0999942591792841 0.08996079206933649 0.12417972361548603
-0.007901462491675617 0.06100533424809173 -0.10328169317517516 0.05638838835054734 -0.08390226357985597 -0.04467522705390963 -0.10007079348921881 -0.03517836742400068
0.08124335027995008 0.11051508311407628 -0.051921929185407556 0.13229158042432249 0.11663751270735684 -0.05534109113789539 0.12932738845634528 -0.06176861880596628
-0.08050508730619452 -0.07384668123295571 -0.06438030059119716 -0.003185276724528687 -0.026653828427270574 -0.08122603583003962 -0.059273160911437174 -0.07405734227185459
-0.07267801701661729 -0.004141239506160818 -0.022538826637598704 -0.04985178686468452 -0.04931921930763217 -0.062014344932969354 0.009360028848811784 0.02131634358967918
0.048316213821598356 0.09598462621689513 -0.09918770847985134 -0.06663614890325117 -0.07102802013450984 -0.09856057687641666 -0.07676655280303321 0.05903591716906919
-0.04436863658443457 -0.019932252829135962 -0.041853359972063256 0.06625271467841239 -0.08000770920146656 -0.06123119147456664 0.004632472019392096 -0.03517146073750738
-0.0075203087614191194 0.05279942119088787 -0.03400635370617767 0.01973327755642368 -0.05171385410865992 -0.10120312279691149 -0.06358269965229657 -0.04925293703979437
0.022371189020545842 -0.0583770451031661 -0.02742089150473418 -0.05073360172600883 0.05954872877152788 -0.08004219502685322 0.11347337972463853 -0.005428501915932537
0.02053623059454465 0.09513655898122517 -0.028736354820546053 -0.008689359129693316 -0.01682360002764458 0.0028987856975110095 0.0634147219055528 -0.12128865787878557
0.04258143968377576 0.058132275272143305 0.014935027026664703 -0.07524813712760452 0.03489592393316267 0.010108835898952036 0.08334955552410707 0.08116377225730138
00000000: 4a27 d728 a331 a73f 1e19 45fe 5d82 9d3f
00000010: 4014 b24d 9d0d a03f 243d 42db 7914 b13f
00000020: fb4b d5f0 107f b0bf d95e 7056 92f5 913f
00000030: a173 fd0d 8305 bbbf a21e cc30 0ad6 73bf
00000040: 0441 0a66 67cb b33f e294 ba40 4785 9e3f
00000050: 5e96 4669 fca6 8cbf c6b6 da3c 5d22 b7bf
00000060: 7139 33e9 2d19 b8bf f73c daaa 4cba a93f
00000070: e6a3 fb17 0a5b 95bf a80c 3037 a140 aabf
00000080: 8d2a 95b7 2f88 74bf 8f17 504d 0562 b4bf
00000090: d64d 28f2 1aff 683f e4b5 2df4 1721 a7bf
000000a0: b723 ac25 416d b0bf 62a8 d8dd ee66 8a3f
000000b0: f0b4 ab53 df5c 92bf b040 f374 e29e b23f
000000c0: 5fd2 cf80 0c99 b3bf 0f7e fb1a 5d96 a4bf
000000d0: 21d5 b84c 5440 b93f abe6 da65 b5d3 a6bf
000000e0: 6b87 3cb9 ad47 a43f 40e0 7656 137d a03f
000000f0: 2251 8756 d320 aa3f 7cac bd4f 96b6 ae3f
00000100: a99e 1c52 d201 abbf d36c c00c e575 ba3f
00000110: 4a9b a8ae 8609 943f c993 a39e 2ba6 b1bf
00000120: d5c7 87af 8322 8cbf 7eae 8aae 294b b83f
00000130: c489 bb9b 4051 b83f 070e 4c41 f931 a63f
00000140: 2b31 ea86 cc46 a1bf e99d 91d8 ba11 b03f
00000150: 3424 08cb 7fdb 99bf c7c4 981c 9508 b13f
00000160: 30f4 0fd5 c5eb b4bf 0557 b5aa f812 a63f
00000170: 59f9 a9fc b1a8 b83f 919b a38b 871b 9d3f
00000180: 83df ca7e 74fb 4abf 7c45 f7a2 7040 b73f
00000190: e6db 7889 39a4 a63f 32d0 9753 78f3 883f
000001a0: e333 3e4d d823 afbf c846 cb39 e137 b9bf
000001b0: be1f e51f 07e4 61bf af14 f3a8 f9aa 923f
000001c0: 008a 7d37 f981 b13f 9ebf 9ea0 cb25 b53f
000001d0: 20d9 0b75 e98b b7bf 33a0 f380 f8c4 9f3f
000001e0: 2252 8500 30b5 7a3f 1ad7 7a4d 4698 a4bf
000001f0: b25c 0237 9b82 ba3f 6d0f 5f02 6d8d 8bbf
00000200: 1974 e283 1fae a9bf d498 fcfc 7102 b33f
00000210: 677e 0375 6d8b 96bf e3f1 b13f 1492 953f
00000220: 462f 17fa 1779 b73f d110 7629 8454 b73f
00000230: 3150 5338 392b a2bf 449c e828 41c4 87bf
00000240: fe34 c00e 2c0d b0bf 46a9 403a 734a ad3f
00000250: d377 de3b cd97 b3bf aa81 2730 5b5d aebf
00000260: fdb1 5c6f bcf2 94bf 95b6 bc29 7f4d b33f
00000270: 1dc2 e48e 942f afbf 3810 d577 21ad 9a3f
00000280: 161f 62ca f23c 953f b46d 90c8 96d6 a43f
00000290: cd6c 70d5 ed90 b53f 7716 4f7c 7d90 9cbf
000002a0: 2a95 4599 bbcf ab3f b0c9 3d18 bc59 a6bf
000002b0: 8765 23d9 d3e7 adbf 6c50 bc22 eb8f ae3f
000002c0: a310 a250 ff0d b23f 93c7 f5f0 781b ad3f
000002d0: fdfc f136 96f5 a53f 9035 ccbc 653d 99bf
000002e0: e92d c316 fe15 b6bf 543d 88e4 b484 6abf
000002f0: 8a53 8491 b398 acbf 64a9 2c64 9f3c b13f
00000300: 6a10 0609 c66d bfbf 7c49 4c08 05b0 b6bf
00000310: fd3c 359a f3f3 a23f b8cb 892e 0fdb b1bf
00000320: 08a3 c572 dde0 6ebf 512a dc61 2e05 b7bf
00000330: b3ce 44eb 22ec a3bf 78c7 3583 8b8b 903f
00000340: fa1f 3841 ea30 9d3f c5a9 8522 168e 64bf
00000350: 3715 bc67 dcda a3bf 71f3 54bf f779 98bf
00000360: 0a41 e311 521b 9c3f 4ceb d68e 6292 b2bf
00000370: 7c5c d367 d454 99bf 89c9 3036 917f b0bf
00000380: 18a2 153e 283d 9bbf 2849 ecf9 00c9 be3f
00000390: be73 f5df 2f48 a0bf 2435 9154 2b49 a43f
000003a0: f9dc 6941 68ac 9c3f 884c c47e 28fc b23f
000003b0: 09b6 e63b 1cc9 a13f 3cef 28be 774f 843f
000003c0: 1ee7 055c 5a3c 85bf 0537 4276 cc3a 9d3f
000003d0: 08a7 0334 6410 adbf 0b33 578a e938 bbbf
000003e0: d953 d3d5 8749 96bf c8d4 2eea 71a3 abbf
000003f0: 027e 1ec6 b80d 9e3f ed88 b173 ddc4 933f
00000400: a98b d3f4 f0ce a4bf c733 c4f3 8416 96bf
00000410: 9861 f7bc 9fd0 b4bf 1fb3 5f1a 5c58 b13f
00000420: 2a4a f303 60bd ab3f ea73 0e32 fa5d a3bf
00000430: 372f 3472 08bf bdbf fad6 2e04 d61a adbf
00000440: 5362 b377 6d76 a63f 2838 d306 0812 ab3f
00000450: cc7e b58a 9ed7 b23f 42b7 9715 3c5a aa3f
00000460: fa93 b3d3 5d9c b63f e1c8 0009 921b bcbf
00000470: ac23 0cf8 001f a1bf b763 044d 7bb0 ab3f
00000480: b277 7b8b d9e0 b3bf 8168 3a09 8a68 b5bf
00000490: a2fe 9507 f09e 5ebf f2fd bc22 6111 9a3f
000004a0: c93b 588d 4589 b1bf a045 1789 5260 943f
000004b0: 0947 d8d7 5b08 adbf 088c ce65 de03 82bf
000004c0: add4 61c4 6047 b43f ce43 39b7 22fc a3bf
000004d0: 279c 6c00 3da8 c3bf 78f1 4de5 d7bc a9bf
000004e0: 4afa da9f 45ba 8b3f 14fe 91ab 3e62 b7bf
000004f0: b930 eedb 5fe1 a2bf db0e 3b14 3c91 a53f
00000500: 9113 f7b0 32bd b1bf 663f a8ce a1ba b33f
00000510: bade 2a30 35e7 c23f 2432 5530 37d3 8f3f
00000520: 9259 ac78 89a2 a3bf 3cbc b183 02ec 833f
00000530: 099e b426 8684 af3f dac1 4dde 4d5c adbf
00000540: fd3b 5ba9 1708 b1bf 7e4a 479e dd2d b43f
00000550: 9e4f 5427 66c4 9b3f 5cc2 3e16 e05e abbf
00000560: 87aa 872a 3d41 adbf 4b78 f648 3999 b9bf
00000570: a82c dca3 ab07 b73f a13c c10b 3eca bf3f
00000580: 2144 f057 a42e 80bf cf46 f456 173c af3f
00000590: 8c7f 7646 ab70 babf 7af3 ad57 f0de ac3f
000005a0: 48c7 2266 9e7a b5bf f79c 46de abdf a6bf
000005b0: bb2a 5251 3d9e b9bf fbba 3923 e602 a2bf
000005c0: 9e48 783c 5dcc b43f d58e b06b b74a bc3f
000005d0: d8d5 97d7 8295 aabf 06b4 ba35 eeee c03f
000005e0: 1c9c 90be f4db bd3f cbda 1fe1 aa55 acbf
000005f0: e0d3 f2c3 cc8d c03f 7ea5 61eb 22a0 afbf
00000600: 6e48 243d fb9b b4bf 724d d0b8 9de7 b2bf
00000610: 41bc 8b35 3a7b b0bf 9eb6 896b 0218 6abf
00000620: 391f a225 244b 9bbf 5047 79bf 3acb b4bf
00000630: 7d53 4a3f 0d59 aebf 5a17 1607 6cf5 b2bf
00000640: 0379 39ca 069b b2bf d6dd e683 67f6 70bf
00000650: 6fde 310d 6b14 97bf 5343 7664 2c86 a9bf
00000660: 0027 fb63 5e40 a9bf 466c bd1e 58c0 afbf
00000670: ecb2 5cce 592b 833f 2715 5a9a f3d3 953f
00000680: f2ea 751c e7bc a83f 9435 85ce 7292 b83f
00000690: 7e0d 169c 5d64 b9bf 6e56 4510 110f b1bf
000006a0: 2acd 936f e42e b2bf 33ee 5b16 443b b9bf
000006b0: 1e37 b709 f9a6 b3bf ef9f 0fab f439 ae3f
000006c0: 904e 3266 7cb7 a6bf cf9f 25d8 1e69 94bf
000006d0: 6a8e 9db8 cd6d a5bf dda3 d01a f0f5 b03f
000006e0: bdbb 729e 627b b4bf baba c1d9 b159 afbf
000006f0: 7eb2 2abd 7ff9 723f 4983 3d63 fe01 a2bf
00000700: 3956 fa82 9dcd 7ebf 8f72 8696 8608 ab3f
00000710: 6169 0ce2 4769 a1bf 10ad fdd6 f534 943f
00000720: a02a 4b00 3d7a aabf 5272 aaa6 72e8 b9bf
00000730: d016 99af f446 b0bf 0ebf a253 ae37 a9bf
00000740: 4c0f dd14 79e8 963f 3045 1c97 98e3 adbf
00000750: eac1 f5e0 3814 9cbf 1168 7130 c1f9 a9bf
00000760: f625 2fc5 2b7d ae3f 4cbd f031 a57d b4bf
00000770: 0e48 e266 970c bd3f cc8d 1f63 323c 76bf
00000780: 7790 251b 7307 953f 4e74 7a99 de5a b83f
00000790: 6459 a420 106d 9dbf 9e27 480a bacb 81bf
000007a0: 99ca adaf 343a 91bf 0303 9bb8 31bf 673f
000007b0: 3456 ab7c f23b b03f e411 f702 c60c bfbf
000007c0: f881 b705 3ccd a53f f697 457a 83c3 ad3f
000007d0: b9bb 2765 4196 8e3f bb48 0c40 7643 b3bf
000007e0: 92ff 1ce8 e0dd a13f f16a b1fc f0b3 843f
000007f0: 91b7 1c7f 6556 b53f e510 7723 26c7 b43f

fc_hidden_list.0.bias f8 [100]
0.07948026927256295 -0.04971282724416135 0.042547562288470474 0.06478796034750914 -0.07539104748823541 -0.03707499187208601 0.0002091638356160727 -0.11650954680695451
-0.07155984366568403 0.023527426385979096 0.015705587536262666 -0.01812460831308132 0.005815760429689768 -0.06206538869380352 -0.025715957232958005 0.047311856902860036
-0.061064611567333206 -0.05208337126881066 -0.024526559750250528 0.017090531272579482 0.0020904391653214015 0.05459786178599035 0.0053967237975362185 -0.03218280781840998
-0.07974324724319812 0.09814562584135161 0.10462142904474926 0.0312728679954434 0.10624367384531284 0.03476309261140265 -0.025188654556581036 -0.09085600321788828
0.1262133778115654 0.07191353238901242 0.0466884850306313 0.06333636398711587 -0.1361123946873517 -0.1172711405473343 0.06957513788705146 -0.06612676391688968
-0.0074014083361771815 0.035201952277341714 -0.0934005483743602 0.08114016294079647 -0.01052416822935644 -0.12381279285459987 0.00013158713917330622 -0.06853353564840615
-0.052664422090868704 0.0443328307924694 -0.06542410930177898 -0.06211973080828855 -0.04234100572895119 0.024322917128199995 -0.06166596374241664 -0.07547731642774326
-0.07607762788739646 -0.03417406697148798 0.06450707212745578 -0.04229456638247556 0.05125585007909279 -0.03662427583746145 0.05442409495870855 0.04418769238597489
-0.04419430753669726 0.054741982737409225 -0.06143973637455905 -0.037522797850398415 -0.05354079407273895 -0.05306565948945967 0.04538546498911469 -0.11189335208436699
0.03006891683816502 0.06296283688315475 0.044388264761149696 -0.09694514064403063 0.01832708340933307 -0.047315802737951815 -0.008225167934067565 0.11196818301044344
0.034612506514342584 -0.04225354703296552 -0.04129402592675714 0.037055511774062695 0.032786413560166004 0.041320783383530964 -0.04304610493597585 -0.09111962363353987
0.02156833643753073 -0.04997240937569777 0.009201825752128967 -0.06236036546720483 0.04332025719928752 0.0576276587584957 -0.10913076993556901 0.07229212772987702
-0.05790074518892156 -0.004385144200562652 -0.010171808721011633 0.03831968252170888
00000000: 53f3 33a5 d158 b43f 5d26 69ae f573 a9bf
00000010: d364 1b49 cbc8 a53f 0afa dd9a f195 b03f
00000020: 0687 5fe3 d34c b3bf 571e 2e4b 7efb a2bf
00000030: b87d bdaa 5f6a 2b3f 9b28 35d5 91d3 bdbf
00000040: 9940 40f4 be51 b2bf 8f1c 8cdb 9217 983f
00000050: d0b2 5423 2015 903f 4f79 d4df 418f 92bf
00000060: eada 8c4d 44d2 773f 518c 4edd 08c7 afbf
00000070: 521c 34ad 4855 9abf d6bc 387c 4239 a83f
00000080: bdd0 3f5b dc43 afbf dca9 87f0 abaa aabf
00000090: 1ff9 0a90 7d1d 99bf 3148 8c23 2e80 913f
000000a0: 4fbc 2dfb f71f 613f 7fce 9a3d 40f4 ab3f
000000b0: 9a95 7403 e01a 763f efa4 25d6 437a a0bf
000000c0: 4683 fcae 0d6a b4bf 34eb 3b5d 1220 b93f
000000d0: 593e 3550 78c8 ba3f b3c9 9552 ff02 a03f
000000e0: f78f 9210 c932 bb3f e161 bfd3 77cc a13f
000000f0: a0f9 33fe 0dcb 99bf 6452 77ca 5642 b7bf
00000100: cd59 028d c227 c03f 472a c0dd ec68 b23f
00000110: 83d9 9c98 8de7 a73f 12e3 f8db cf36 b03f
00000120: f896 e185 216c c1bf fd58 6a41 7b05 bebf
00000130: 7dee d61d adcf b13f 92d1 6900 afed b0bf
00000140: 70b8 f86b f050 7ebf c4b4 9283 fd05 a23f
00000150: 8943 b22c 19e9 b7bf 850b 390a 9ac5 b43f
00000160: 0ac9 e6f2 b18d 85bf c60d 23f8 31b2 bfbf
00000170: d974 2ceb 543f 213f 0906 4aee 698b b1bf
00000180: da06 16c5 d4f6 aabf 8e17 c9f4 cab2 a63f
00000190: a731 d269 a2bf b0bf 7b0e 8448 28ce afbf
000001a0: 946c c565 b8ad a5bf 3d8d 6f56 1be8 983f
000001b0: c399 1963 ae92 afbf d9a1 a53d 7b52 b3bf
000001c0: dfce bbcb d279 b3bf f517 0768 437f a1bf
000001d0: 39ec 2515 8983 b03f 348d d226 a2a7 a5bf
000001e0: 0a03 a3ef 343e aa3f 3554 ecc5 6ac0 a2bf
000001f0: 0a92 ec97 79dd ab3f d4ef 5deb c49f a63f
00000200: dc36 14e3 a2a0 a6bf ca96 2623 2407 ac3f
00000210: b5a3 ce74 0775 afbf 1867 3e2b 3036 a3bf
00000220: 73ac 16ef b269 abbf 8686 1810 6c2b abbf
00000230: b41a af7f c33c a73f 6e98 d7ef 0aa5 bcbf
00000240: 9bc4 c8d9 62ca 9e3f d1ca 461d 551e b03f
00000250: 165e f302 0fba a63f cb7d 9290 65d1 b8bf
00000260: 1a21 7fbf 55c4 923f f6dd afe2 c639 a8bf
00000270: 3857 3f5a 5bd8 80bf 09ef 3864 f2a9 bc3f
00000280: 04fc 05ff bab8 a13f 280d 4bc5 41a2 a5bf
00000290: 624e c095 7d24 a5bf 798b 69a6 f0f8 a23f
000002a0: 53f3 fc7b 61c9 a03f e102 8e6a ff27 a53f
000002b0: 8324 d799 230a a6bf 60a6 879b 9d53 b7bf
000002c0: 3966 838e 0216 963f cb1f f1cf fb95 a9bf
000002d0: 20e0 5925 68d8 823f f41a 7fa4 b2ed afbf
000002e0: 2aba d99f 122e a63f 6bf2 6c5b 5f81 ad3f
000002f0: 3f4e dc7f feef bbbf e7aa 5ba4 bc81 b23f
00000300: a63a 009e 2aa5 adbf dae3 df2e 28f6 71bf
00000310: fa1f 620e f5d4 84bf 7a9b 722e a39e a33f

fc_hidden_list.1.weight f8 [100, 100]
0.07394442716596195 -0.06303141327395521 -0.05989638269385385 -0.023541065713813963 -0.07552464488254561 -0.008483063543078243 -0.0023807203678317414 -0.10293277774438281
0.08682185717054212 -0.09390194722299273 -0.04049211262852054 0.012643742450600745 -0.06956775301207764 0.07740811353779178 -0.05214775650969028 -0.0005351131270235681
-0.024801572180958326 -0.05617247336181082 -0.06405716051735176 0.07039095751486883 0.0163610268596297 -0.035086110109401325 0.006341866858097497 0.06711827742293971
-0.04528841986980712 -0.08615078863130277 -0.13135392150862135 0.04817989959428686 0.08753523518488554 0.012910944462088103 0.0953922860204098 -0.06512174842578065
-0.03339316138237688 -0.07756036822818406 -0.07883186127016888 -0.03235098749774623 -0.061431878909497424 0.08002292307037226 -0.027996818408070778 0.07946900203886713
0.0007710043798697076 0.10257252904776856 -0.0735317831332793 0.057619765315009425 -0.061885637022771965 0.09858716586938593 -0.08432105334937187 0.045752663313756194
0.019755115028869705 0.015487178223949028 -0.08364316310628261 0.058447741878402446 -0.06287711046875495 0.005556904356763655 0.057861716050944235 -0.028020550736477697
-0.07699657043930974 0.04561348264232359 -0.07390593284038063 0.05685932609249354 -0.029769085649670478 -0.10606217618186427 -0.019804148224143933 -0.014623938242871717
0.020002932195259122 -0.012754564711683604 -0.029835503991747236 0.055223914470029424 0.07075864968443406 0.05909724121479251 -0.049780916578592564 0.01625109806285119
0.03758092833929447 -0.04535921685315187 -0.032012729022063466 0.06708619449921323 0.0011765833445902961 -0.032068192737029176 0.08946632777017909 -0.009344656524995543
0.010286402194889483 -0.00946682985519058 0.09657893075039922 -0.03538704308637177 -0.0037901862207040363 -0.00757950777811217 -0.03853480049381777 -0.09052371418942624
-0.09550491313881036 0.009092544607646082 0.05172051105670987 0.02921715162197686 -0.015739952149840728 0.06218575017034928 0.008834722528263068 0.07679409698081485
0.05357364412483645 0.038907863312889555 -0.026755693487870408 -0.04045028869305 -0.08611134562295425 -0.06979040932570192 -0.060458184124449164 0.1082470875578127
0.07793170939705421 -0.0056929713063614655 0.052008816513108284 -0.05205697930786303 0.03685998332588043 0.07319324437072787 0.023245292829455304 -0.2938458187922465
0.031046228791042185 0.09783819875195456 0.07134555990472537 -0.00846605377695316 -0.07150024377787706 0.08162978970807878 0.12621361803548017 -0.03669777768314338
0.06793444779916283 -0.08192590798439169 -0.023267189013042096 -0.03364997608128804 -0.11267781687820874 -0.017145628923619184 -0.08997549844297574 0.014964530485791383
0.0035706973089961124 -0.06649236997453542 0.015808254286614146 -0.05031462942050201 -0.06438740554265808 0.07087482221448992 0.07214478985188867 -0.0873350115848293
-0.00026830522024685373 0.011791727333606861 -0.042569923738144166 -0.006045462085259098 0.052820063253102005 0.05171381148722715 0.12383262291736337 -0.007930931360616466
0.022142877569244778 0.04530679958148422 0.08664363986934388 0.04223818579895725 -0.009981007600291782 0.06442169184440302 0.04985382911317317 -0.05583040263978406
-0.015649792921823242 -0.14827248793154355 -0.10665735958048597 -0.09381390505067332 -0.06561017778898419 0.015187990290933729 -0.03193231358900129 -0.06513279532779365
-0.09457010102134666 -0.08168717651654567 0.09899333684144315 0.01036813411489755 0.10389656874369113 -0.10687195366835546 0.0874682974301915 -0.08390233011485107
-0.06105934105529658 0.028590981259955534 0.0715682054041591 0.12292453715847373 0.21144047297696072 -0.02924878510218732 -0.036022476721643625 0.0474997763597782
-0.1415655865741392 -0.02583494922911015 0.061884736775252136 -0.07712929253460497 -0.06454088015951677 0.0040199789581923245 0.03885793308574793 0.028715167390542883
0.0484920793651549 0.07657697638472087 0.00043653588832622545 -0.04489865726483928 -0.04843912046466395 0.042266812513189984 0.09578164356961819 0.018657006995547155
-0.04822348275441444 -0.08794300445030517 0.0607426252212592 -0.1317610415142513 0.02822888322861966 -0.06317864043078887 0.05604689336841257 0.02050024877820692
-0.03156337363870722 0.04890673149449207 -0.05841941393085031 -0.04052318158031913 0.02988780939616224 -0.02379606445314143 0.009217922078117688 0.0479989739071653
0.09171521516058236 -0.11374187930555668 0.04650892964862956 0.058464812366682516 0.07604454874822501 -0.038987651117429266 0.05495829491769428 0.06853325648205173
0.0934728083771394 0.08080868367943488 0.1510185237446621 -0.07259032831011489 0.01773160577318395 -0.02452180180807916 0.03883426197222914 -0.0624304742717548
0.03669373386651599 -0.07235208328822856 -0.08253254186649048 -0.06735537053683667 0.10559034253046423 -0.03999067102618033 -0.01527478431399612 -0.018629532403933266
0.007968116992728418 -0.06740403766318871 0.013605614531705633 -0.06429577937089466 -0.0932603291351873 0.12531119406553004 0.01099132086160725 0.0699740216835284
-0.0878745681905952 -0.005340543181846478 -0.06942526889269983 0.021220257629729466 0.08144735686793464 0.06602044296472609 0.04635235902034551 0.11708707993569392
0.021182409489492713 -0.005669923979877593 0.03773528924315834 -0.0034330448070022013 -0.06480791474996887 -0.07597962681291907 -0.07547854409691022 -0.025449044048474326
00000000: f035 66a0 05ee b23f 47de a1a2 d322 b0bf
00000010: 1a3a a319 bdaa aebf 3b4f 6a2d 261b 98bf
00000020: 1703 d047 9555 b3bf b537 e683 915f 81bf
00000030: c340 dd83 bb80 63bf 483b 1972 cd59 babf
00000040: 3f1e 200d f539 b63f 217d 5a40 f509 b8bf
00000050: 288c f8d6 61bb a4bf 0553 9862 f6e4 893f
00000060: 3907 0b38 31cf b1bf c201 17a4 04d1 b33f
00000070: 10ac 8959 1cb3 aabf 3843 abb0 da88 41bf
00000080: 985b a055 9565 99bf 4a7f 0c70 a3c2 acbf
00000090: 5724 7fd1 0c66 b0bf 7be2 754c 2405 b23f
000000a0: c012 2aed f1c0 903f 806e ed7e cef6 a1bf
000000b0: 3091 04ec edf9 793f 4ed1 7ed6 a92e b13f
000000c0: bde8 7434 0b30 a7bf 9830 b263 fa0d b6bf
000000d0: 445a 8a8e 34d0 c0bf 47ff 292a 09ab a83f
000000e0: 74e3 5d8c b568 b63f 9316 cda1 0d71 8a3f
000000f0: 1693 bffc a06b b83f cf3f bfa3 d1ab b0bf
00000100: 6b3f 1890 e818 a1bf 037a 010d ffda b3bf
00000110: 73c6 092a 532e b4bf b09d 9702 4f90 a0bf
00000120: 413d b2cd ff73 afbf a67f 84dd 617c b43f
00000130: c0a0 d1ad 32ab 9cbf 337d cd9c 1458 b43f
00000140: e2d1 5d4c a743 493f be69 ba79 3142 ba3f
00000150: cc24 c69b fad2 b2bf 7c27 437f 5680 ad3f
00000160: b3b9 3566 79af afbf fcde 362d 023d b93f
00000170: 6ef4 7f86 1096 b5bf 0564 46a1 e46c a73f
00000180: b92d e953 af3a 943f a75e d5df bdb7 8f3f
00000190: 8052 136a a369 b5bf 861b c9c7 dcec ad3f
000001a0: 255a 21dd b618 b0bf 4836 ab27 d6c2 763f
000001b0: 3d2c 4204 0da0 ad3f 42c7 1d54 6bb1 9cbf
000001c0: 18e5 f017 0cb6 b3bf e32f 6980 a65a a73f
000001d0: 72a1 87cc 7feb b2bf 6e68 1464 aa1c ad3f
000001e0: 164a 3085 c97b 9ebf bd2f 0b0a e426 bbbf
000001f0: 2c95 cae3 8947 94bf 1b53 efc3 27f3 8dbf
00000200: 9235 690e a67b 943f 94bd 7db2 101f 8abf
00000210: f3ee 9dc7 328d 9ebf 9535 3615 4f46 ac3f
00000220: 8bc3 4d26 3d1d b23f 7c4b 9a5c fe41 ae3f
00000230: e704 5761 e27c a9bf 81ee d0ba 20a4 903f
00000240: 7c57 57b4 ce3d a33f 09b5 e9c1 5239 a7bf
00000250: b633 69f0 f863 a0bf 9520 6393 8f2c b13f
00000260: c22c 1bbf f246 533f 3b40 18fe 3d6b a0bf
00000270: 13bb dde7 43e7 b63f 9a71 5691 4a23 83bf
00000280: aa17 2a88 0911 853f 17ac ff64 5863 83bf
00000290: ae3c 0e95 65b9 b83f f326 8421 401e a2bf
000002a0: f936 a3bb 980c 6fbf bfa5 6da0 b00b 7fbf
000002b0: 44f6 c157 d5ba a3bf d5be f4e7 8f2c b7bf
000002c0: dfdb 898e 0273 b8bf 416e d1ad 1c9f 823f
000002d0: 46bd 0a5f 1c7b aa3f 916e cbda 19eb 9d3f
000002e0: 098d e54e 221e 90bf 798b 8486 cfd6 af3f
000002f0: a4ff 9f62 f017 823f b8f6 0e27 c7a8 b33f
00000300: a02e e332 016e ab3f f3e1 f840 bbeb a33f
00000310: 187f 0c32 d865 9bbf 1fcf 1976 e6b5 a4bf
00000320: 4ce0 43a5 640b b6bf 19db a0c5 c8dd b1bf
00000330: c31b 2e07 60f4 aebf acb3 f2c4 14b6 bb3f
00000340: 7285 2e1f 55f3 b33f 6c08 3f59 8351 77bf
00000350: df0f 0e4c e6a0 aa3f b2c7 4f5f 36a7 aabf
00000360: bade d4cd 4fdf a23f fb43 dcde cabc b23f
00000370: 3e2d f431 9dcd 973f cfdb 71b1 5ece d2bf
00000380: 3061 4925 95ca 9f3f f16e f097 ec0b b93f
00000390: 496f 81de b343 b23f 6a18 c980 a656 81bf
000003a0: 2c98 ae08 d74d b2bf 39f1 2c9d b0e5 b43f
000003b0: 35d8 e290 c427 c03f 3b4f f815 0dca a2bf
000003c0: a2b8 91e7 2664 b13f fff1 7ca7 18f9 b4bf
000003d0: d201 869f 5ad3 97bf 5d85 8fd5 913a a1bf
000003e0: 5e01 7a12 74d8 bcbf 0a35 fcad 9f8e 91bf
000003f0: 43fe 405f a208 b7bf 40b0 4a48 b9a5 8e3f
00000400: 734f 5085 4b40 6d3f ae62 79da a405 b1bf
00000410: 61e3 abfc 0930 903f 2e2a becf d6c2 a9bf
00000420: 3f7b 1469 b17b b0bf 6f63 8533 da24 b23f
00000430: 899b fdb8 1478 b23f b378 8d5a 965b b6bf
00000440: a154 7425 6a95 31bf 2deb 16da 4226 883f
00000450: 1041 7f9c b9cb a5bf 5657 205f 20c3 78bf
00000460: 874c 7d38 3b0b ab3f 09a5 2d92 3b7a aa3f
00000470: 4da4 9ba9 7eb3 bf3f a6ba 9096 173e 80bf
00000480: 5338 ff5b 9fac 963f 4251 faec 7332 a73f
00000490: 092e a50f 472e b63f b53b 4c55 3ea0 a53f
000004a0: 1488 cb29 ec70 84bf 66ec 9fa3 f07d b03f
000004b0: e22e 3eeb 7086 a93f 88b7 eb72 cd95 acbf
000004c0: 2553 27d3 7f06 90bf 1f01 48c7 97fa c2bf
000004d0: 5aa1 468f e54d bbbf f749 1a26 3004 b8bf
000004e0: 5370 e31f d4cb b0bf ed71 bb8c e11a 8f3f
000004f0: 01cb 19a5 6e59 a0bf a476 d4f9 8aac b0bf
00000500: f0eb 1003 bf35 b8bf f021 a467 73e9 b4bf
00000510: 5683 4198 a057 b93f f75d 8d67 e33b 853f
00000520: 88b7 eb2c f798 ba3f a97e ddd9 f55b bbbf
00000530: e243 e684 5264 b63f 7ac7 e683 9f7a b5bf
00000540: 3747 e581 2b43 afbf 2563 e345 f446 9d3f
00000550: 21ef a43d 4b52 b23f 90b9 f882 fb77 bf3f
00000560: 0e50 3e3e 7b10 cb3f a2b4 d8bd 64f3 9dbf
00000570: 9379 e1be 8971 a2bf e0ab 1004 e451 a83f
00000580: 1899 4936 d21e c2bf 0aa3 2118 7a74 9abf
00000590: 587e 2431 5baf af3f 4fef ffcc bebe b3bf
000005a0: 3949 8a49 c085 b0bf 3028 7fe2 4077 703f
000005b0: 413e 96df 2fe5 a33f 96be 5d43 8267 9d3f
000005c0: 840c fa2d f4d3 a83f c3ed 3279 8c9a b33f
000005d0: 66fd 275d db9b 3c3f b970 2cf1 f4fc a6bf
000005e0: e447 7c2c 03cd a8bf a18f e6e2 fea3 a53f
000005f0: a24a b052 2585 b83f ba68 8c8b d21a 933f
00000600: 0dab a892 bfb0 a8bf c4aa 06c8 6e83 b6bf
00000610: 14d4 9849 a819 af3f d565 18ba 8bdd c0bf
00000620: 30fe 1349 08e8 9c3f 35bb 74b2 792c b0bf
00000630: 1995 1eac 2db2 ac3f cac1 3f68 04fe 943f
00000640: b231 0f13 1329 a0bf ec6c a598 4d0a a93f
00000650: 87a8 9140 26e9 adbf 0614 3c57 74bf a4bf
00000660: 2b55 9fef e89a 9e3f 0325 66da fe5d 98bf
00000670: 8b96 e68e d8e0 823f 7a7d 584e 5293 a83f
00000680: b909 a9f9 a57a b73f d08d cd13 301e bdbf
00000690: 162b a0b7 04d0 a73f abd1 2992 19ef ad3f
000006a0: fba6 e9d1 a777 b33f 2b93 fe7c 30f6 a3bf
000006b0: b97e a15e 7e23 ac3f ed5e 473f 658b b13f
000006c0: ec8a 0b7f d5ed b73f b3cf a2bd e0af b43f
000006d0: 3569 4932 9354 c33f 760c 199e 4795 b2bf
000006e0: f105 9beb 3b28 923f 9d01 3843 3e1c 99bf
000006f0: 6c21 459a 15e2 a33f c8ba 8a1a e3f6 afbf
00000700: 3281 d965 85c9 a23f 9439 8587 aa85 b2bf
00000710: a61d 2c48 da20 b5bf b569 aa99 333e b1bf
00000720: 9c18 f1fb f707 bb3f 3ab3 6740 a879 a4bf
00000730: d012 a8d8 6248 8fbf 1c9e a8c1 9e13 93bf
00000740: 1ce0 278f 9651 803f 39ba 6119 6441 b1bf
00000750: 0c30 a5ab 42dd 8b3f 0d38 ab2d b075 b0bf
00000760: f55a a6af e8df b7bf c8c5 2a7c 320a c03f
00000770: fca1 1f1d 9e82 863f 184a b346 d1e9 b13f
00000780: bd5a 879c f27e b6bf d747 f124 f7df 75bf
00000790: b7ff 68bb dac5 b1bf e328 2162 c3ba 953f
000007a0: 64ea 17e6 bbd9 b43f 78a3 663b b7e6 b03f
000007b0: 706f 2b14 7fbb a73f 2aa2 1b3b 6bf9 bd3f
000007c0: 290a 0870 d7b0 953f c4b3 07a1 5839 77bf
000007d0: b9af 6832 0a52 a33f a932 7fe5 9d1f 6cbf
000007e0: ab81 5f62 4097 b0bf bbe2 529c 6673 b3bf
000007f0: 0728 72d6 8f52 b3bf 1453 9c6f 500f 9abf
