savedModel/allen_cahn_tanh_sin/ParticleWNN_2/trained_model_final.pth (torch, 249111 bytes, 10 tensors)

fc_in.weight f8 [100, 2]
0.17420012631557102 0.021592226249281275 0.6412729371618954 -0.6113069694323225 -0.2884411513314826 -0.5077799632002219 0.33948654855140725 0.6459012767935459
0.03972301489672729 0.24865890954847278 0.46423787678078193 -0.13270977076135512 0.40084954908939263 0.27528178024464967 -0.5702643651346231 0.6995952178072896
-0.4988246762922586 0.30682088251473216 -0.5270238123730522 0.13641533842463097 0.6408510765386297 0.15246172053258591 0.16481417965714984 0.612478925266875
0.3851140094866406 -0.053667673101848085 -0.6469657066188789 0.35004776272975324 0.43432363974549526 0.5431058554461399 0.4401906139167107 -0.10073207075411901
0.5776233803950646 0.4840925783658104 0.06130352354738019 -0.17991290452687195 0.5405420442173801 0.32808772272362285 -0.2478402886930709 0.3499339793086878
0.5376737724125301 0.14647774783043901 0.37659527315414826 -0.07113632961473774 0.24040701044331528 0.15836715269504723 0.7061305249903019 -0.508407615407134
0.017585198106047178 0.2836672897849479 -0.3536598273333321 0.2622486072866632 -0.4377305487182674 -0.39962689117525824 0.5646098759420524 0.026165420159076972
0.09751426688420661 0.15876756300409278 0.4737264937451866 0.029524753754427414 -0.12908673644072177 -0.06674890308222473 -0.6422118300447222 0.6349767952692644
0.23587786599575106 0.3701886289684024 -0.24992923003825085 0.3989074469307978 0.045538079679742834 -0.17606637857102936 -0.49650703454432027 -0.14073640001916793
0.12355990828381792 -0.344686874040557 0.11421105906992837 0.348517488833424 0.26852981490363714 0.0319237877681776 0.32998568426818586 0.4925306023016548
0.35457690164633193 0.3371036213582459 -0.16402968583660915 -0.5411058106834715 -0.36013041345369784 -0.3675734762986607 0.03940391152880621 0.5478514198566702
-0.11475129201728834 -0.55883721022165 0.38126848701183463 -0.6128240473924728 -0.3255266327334357 -0.5114668767292497 0.011559724406384373 0.3798559009647638
0.07340059076004722 -0.2142699876324521 -0.23244762176672323 -0.37808607808841077 0.5286998675334961 0.39493135324037965 0.08063332030125037 0.4326528119525357
-0.40559114876849894 -0.5383907150256668 0.4256218326382707 0.06860017205279238 0.28789163152153047 -0.2671327593503518 -0.19672170854130341 -0.7079565005491119
-0.5167249688602447 0.5197653039487712 -0.3224571660682951 -0.12040767160352746 0.37388780970843666 -0.22497659321659644 0.16356923266579856 0.0572735819474146
0.5735444682777531 0.07227572055996527 -0.3286945216253381 -0.606981301347961 -0.36295014447572155 0.1182863510791647 -0.4142540467353765 0.4974725182548585
0.5975832900771985 0.6856399101279977 -0.17535531485843348 0.22646104070292247 -0.3921339167736022 0.35946307176964465 0.44877719279175515 -0.0288929044034978
-0.40603898661203863 -0.3586655713576452 0.34466011164088184 0.5765089216996558 -0.3508556662112719 0.0920387435900432 -0.5764693852561334 -0.26543095898127933
-0.20326089670493022 0.24672829880784566 -0.41913742327427755 -0.27589677043104777 -0.5009000235122127 0.23312323513392905 -0.2629951857202967 0.658673228462828
0.03531825856666215 0.25119202149724357 0.2235408782154975 0.4277725886602711 -0.4123203580010989 -0.5289924692040001 -0.29566755897162317 -0.4973524297627448
0.6167337037275135 -0.17554824625823445 -0.06228418709159062 0.49172021618175604 -0.006089803182528525 -0.40729031289287915 -0.24076960150638524 -0.2787050712721859
0.020141136356944832 -0.02747020841015686 -0.6441998670804852 -0.14695781049871762 0.35541598954059017 -0.6753207045634904 -0.6237807553981621 0.10567714846775911
0.3132689064696818 0.6298221551825999 0.6832548561518808 -0.11666653859075388 -0.5205569004602535 -0.1383717272467964 0.5739255868243555 -0.006019038691162308
-0.0199488653779291 -0.5913687785269713 0.646959116350439 -0.2696231013917969 0.2610148367413022 0.15875766754576098 0.12348863198357705 -0.6244552558438285
0.6116930753223176 0.023275893881521972 -0.2584009780546844 -0.4603118864755305 0.4198634414618104 0.16527165423483248 0.4357242248661859 -0.44071012647920993
00000000: 5802 be92 304c c63f a69e 5ac6 451c 963f
00000010: 4f72 9dd2 4e85 e43f 16eb 30a2 d38f e3bf
00000020: f883 f2df d175 d2bf 074a f0c3 bb3f e0bf
00000030: 1674 ddc9 25ba d53f cabb 8827 39ab e43f
00000040: b68a c233 9356 a43f bf52 2f1e 0ed4 cf3f
00000050: bfa0 95c8 12b6 dd3f 77cc a33e a2fc c0bf
00000060: 7023 fddd 84a7 d93f ac77 d578 379e d13f
00000070: 227a ca0d 9b3f e2bf 2573 9d82 1563 e63f
00000080: 003c c755 beec dfbf 4a5c 080e f4a2 d33f
00000090: 4060 cb0a 61dd e0bf a170 9acc 0e76 c13f
000000a0: b4df ea1d da81 e43f 1528 ca9b dd83 c33f
000000b0: 10b3 c58b a118 c53f a855 3067 6d99 e33f
000000c0: e17f fe3a b5a5 d83f 9453 a649 547a abbf
000000d0: c1f8 f16c f1b3 e4bf a295 3dbb 2e67 d63f
000000e0: a88a 2561 f5cb db3f 6408 ed87 1f61 e13f
000000f0: e1d1 b140 152c dc3f cd1b 8cb5 93c9 b9bf
00000100: e674 0607 e47b e23f 7951 1470 5ffb de3f
00000110: fbf7 87e9 2c63 af3f e11f 89d4 6207 c7bf
00000120: 2eda 40d4 1e4c e13f fa4a d4a5 63ff d43f
00000130: 32b2 4807 3bb9 cfbf 05f5 387d 5165 d63f
00000140: 6fb8 8da0 9f34 e13f 1501 4368 c8bf c23f
00000150: c19d 810f 231a d83f dbb5 4091 fd35 b2bf
00000160: 4da5 ca2b a8c5 ce3f a9fd caf6 5f45 c43f
00000170: 114d f10a 9f98 e63f 66c0 260c e044 e0bf
00000180: 9b5f 09ab da01 923f 4790 24d9 9a27 d23f
00000190: 1290 13d4 5ca2 d6bf e0ef ed61 aec8 d03f
000001a0: 3f20 cdfd c603 dcbf ebca 0cab 7c93 d9bf
000001b0: 726e 05bb 4811 e23f e132 7a9f 1bcb 9a3f
000001c0: c03c 29eb b1f6 b83f 5054 62d9 7e52 c43f
000001d0: c898 78ed 8851 de3f 3ddd 30af bc3b 9e3f
000001e0: 601d ae07 ea85 c0bf 0a33 c8c3 7416 b1bf
000001f0: 3eaf e4d2 ff8c e4bf e6cf 2cdb ba51 e43f
00000200: a2a8 26f4 3e31 ce3f af4d b1a5 2bb1 d73f
00000210: 6c14 aa56 aefd cfbf 64b6 ac19 b387 d93f
00000220: 39ef e465 c450 a73f 04a1 f1d4 5789 c6bf
00000230: db83 e670 c5c6 dfbf 6e34 b87d a603 c2bf
00000240: 71fe 2c45 9fa1 bf3f a656 d788 590f d6bf
00000250: 72ff 8b9b ef3c bd3f 15e9 274c 1c4e d63f
00000260: 82c5 40ad 972f d13f 6e87 db90 5058 a03f
00000270: 601f 8546 7c1e d53f ea8b 4a13 9f85 df3f
00000280: 763b 1f51 63b1 d63f 8432 4611 1b93 d53f
00000290: e4e5 1ebc ecfe c4bf 59f4 1122 bd50 e1bf
000002a0: a107 056f 600c d7bf 191b e5e6 5286 d7bf
000002b0: f48e b3de bf2c a43f 0240 6bb3 ff87 e13f
000002c0: ec53 6336 5760 bdbf 5d13 b692 fee1 e1bf
000002d0: cd84 adf0 b366 d83f c718 382d 419c e3bf
000002e0: 854b 64a8 6dd5 d4bf b142 91c8 ef5d e0bf
000002f0: 25a5 35f2 9fac 873f 8985 f51f 8f4f d83f
00000300: af4c d290 61ca b23f 81a6 b2ee 326d cbbf
00000310: e6b1 c2fa d7c0 cdbf ac9b 1df3 8f32 d8bf
00000320: b796 0efc 1beb e03f ee46 9527 8e46 d93f
00000330: 5069 a9a1 62a4 b43f f4f2 766b 95b0 db3f
00000340: 5d7f e093 34f5 d9bf 602b 302a 7f3a e1bf
00000350: fe46 e95a 633d db3f bb7a 77e7 c78f b13f
00000360: e354 8b05 d16c d23f 6366 4600 b418 d1bf
00000370: eb8f 4c4c 2d2e c9bf 592b 1b64 94a7 e6bf
00000380: fa00 49cd 0289 e0bf 6dc6 c1d8 eaa1 e03f
00000390: 60f2 a761 23a3 d4bf 3583 b983 09d3 bebf
000003a0: 1988 c422 c7ed d73f 1b8a 1d73 08cc ccbf
000003b0: c338 772c d6ef c43f bf20 c782 f652 ad3f
000003c0: c4bf c1ed 795a e23f 1b92 1960 a980 b23f
000003d0: 1055 30bf 5409 d5bf 2056 d20c 646c e3bf
000003e0: 3d82 263e 933a d7bf 5dbc 72a9 0348 be3f
000003f0: c7b3 bd67 2383 dabf 6c0e 24f9 96d6 df3f
00000400: 9490 f0fd 661f e33f cea0 da1b c3f0 e53f
00000410: a895 3fff 0a72 c6bf 038f d1e5 acfc cc3f
00000420: 007b 0cdb b818 d9bf 66b3 5766 7101 d73f
00000430: 37cd 8ef9 c3b8 dc3f 0477 fffd 1996 9dbf
00000440: 7c94 19f2 8afc d9bf d4a9 cb70 60f4 d6bf
00000450: 54ee ee48 e90e d63f 01ac 91d6 c272 e23f
00000460: dd98 ff52 6b74 d6bf 7325 afe1 d98f b73f
00000470: 0b40 9aec 6f72 e2bf ace9 0a22 d2fc d0bf
00000480: a59f f3fb 7304 cabf 114f 30fb ca94 cf3f
00000490: e988 5fc5 25d3 dabf 18b2 84ed 4aa8 d1bf
000004a0: 649e 717c 5f07 e0bf bb41 6b6f fbd6 cd3f
000004b0: ca24 6bc2 e9d4 d0bf 64f4 dfe0 d913 e53f
000004c0: 50b0 fd1a 3c15 a23f cf31 56b3 8713 d03f
000004d0: 6099 a0cc fc9c cc3f b6f3 9a47 a060 db3f
000004e0: 2abe 45ed 7463 dabf 8bf7 619d 81ed e0bf
000004f0: 895c 11a0 37ec d2bf 31b2 1a49 9fd4 dfbf
00000500: 4f38 fb51 48bc e33f 864e 466c 5d78 c6bf
00000510: 398f 3b85 b6e3 afbf a117 d211 5878 df3f
00000520: 20eb 2018 9ff1 78bf bd8f 7663 0b11 dabf
00000530: dba1 2bce 89d1 cebf 10fa 95cb 4dd6 d1bf
00000540: c654 d4c7 e09f 943f 1397 f17a 2621 9cbf
00000550: e857 260a 499d e4bf c5eb fd76 83cf c2bf
00000560: 1859 e3b4 22bf d63f 082e 8d2a 3a9c e5bf
00000570: a3e5 090f 03f6 e3bf 0883 9a58 a80d bb3f
00000580: 9705 0907 990c d43f afc6 d9ca 8027 e43f
00000590: 282d c049 39dd e53f 4ce9 c8b7 dbdd bdbf
000005a0: a4e2 e5f1 66a8 e0bf a1a6 9b2d 2ab6 c1bf
000005b0: 61f1 3731 995d e23f 2b77 4f65 6ba7 78bf
000005c0: 6ce2 8fb1 796d 94bf 0bc3 7437 7eec e2bf
000005d0: cd5f d29a e3b3 e43f b853 ae40 8141 d1bf
000005e0: 6ec7 e492 77b4 d03f 9294 0cd7 2b52 c43f
000005f0: 1f18 cc73 f39c bf3f 0c44 b596 89fb e3bf
00000600: 5d5e 365b fd92 e33f 6474 06cc a2d5 973f
00000610: 42f4 7f41 a489 d0bf 85d6 97fc bf75 ddbf
00000620: be53 77e9 0adf da3f 887c f21e 9f27 c53f
00000630: 9403 f8db e7e2 db3f 78a1 0f3f 9834 dcbf

fc_in.bias f8 [100]
-0.02119742293747825 0.32988868733613586 0.4529798185864641 -0.07448935506559275 -0.3257639635584147 0.25358198407519766 0.4685102849824172 -0.2775272662858969
0.5800441944118463 -0.5224719136284782 -0.13507182795565273 -0.21667890673575424 -0.16198137527561665 0.521550425737789 -0.434599145708864 0.13751013026134487
0.21630910528073624 -0.5989344691419581 -0.5190163241711482 0.48726713241648695 0.17868152148473856 -0.1626761572200564 0.25407205489682627 -0.624571202478521
0.49783569367361646 -0.5601254960438091 -0.4925898856001635 0.37767623543187584 -0.4480998187315926 0.5565057982097129 -0.12140732375532398 0.434738537488342
0.050958266102291754 -0.2902812435684088 -0.4378957546215416 -0.15279878563617572 0.16569690101681261 -0.1563608809846488 -0.48472144148401397 -0.3439674724413809
-0.5241987767845919 -0.367058795908954 0.5310743667743452 0.6318098682327812 -0.000944965936404951 -0.13437500885899653 0.3021407609042057 0.6540413027304104
0.08669568492170439 -0.36696874754994335 -0.5278244744597282 -0.23323880878232064 -0.20033069770983442 -0.0709248730170931 -0.23232099546349216 -0.12740227121539255
0.1499731095452609 -0.4005940502905054 -0.1549455997262851 -0.6111235733435206 -0.49776577907989805 0.4836437092024394 0.24149937187764345 0.32907196440698394
0.46453930939741167 0.14758413749111024 -0.3580051446178122 0.5765281972636946 -0.36008196163511613 -0.2318895121023122 0.4081241572340206 0.39800711570754743
0.4622285000469756 0.01434344545989941 0.46012828653078514 0.4251198361982456 0.5416647464775491 -0.28702269345968995 -0.23817015491222907 -0.44741014306911686
-0.560212379314489 -0.5712580512806184 0.17937339622906365 0.05209841718598422 -0.5870788449843352 0.6907652992490391 0.3746371887784068 0.09376658788679232
0.4944109457233737 -0.4325837501231092 0.4288165724438144 0.4220243320288376 0.2779477268755355 0.393360080938037 0.6077125417556828 -0.08395499995860571
-0.28412588903475844 -0.17841185175559507 0.3329301291513286 -0.4801245218152692
00000000: 7692 1af9 c6b4 95bf ee75 db70 e51c d53f
00000010: 8aeb a410 9ffd dc3f 8127 e8ff bb11 b3bf
00000020: f1b7 6c18 51d9 d4bf 0d4c 1dee af3a d03f
00000030: 2cb4 f58f 12fc dd3f b78e 1cb9 01c3 d1bf
00000040: 3579 a7d7 b88f e23f 799c c304 17b8 e0bf
00000050: 8b19 d79d 084a c1bf 6ae0 1469 22bc cbbf
00000060: 1d58 af42 cebb c4bf 1c47 b884 8ab0 e03f
00000070: 5f1a 6cef 78d0 dbbf a9ab 2b94 ee99 c13f
00000080: 09ff 804a 04b0 cb3f b92d ad9e 782a e3bf
00000090: 87f7 4c1f c89b e0bf b33f 897b 622f df3f
000000a0: af96 963d 09df c63f 32af 8c83 92d2 c4bf
000000b0: 2c00 a76f b742 d03f 8465 15bf 7cfc e3bf
000000c0: 9e04 c73d 8adc df3f fa3e e54d 8cec e1bf
000000d0: ae8e 3fba 9786 dfbf df00 eaf1 d82b d83f
000000e0: 0ded b2dc aaad dcbf ff0a 6b3f e5ce e13f
000000f0: e424 06e5 8c14 bfbf eeb0 3496 c1d2 db3f
00000100: f78b bdac 3317 aa3f 882f f1c7 f793 d2bf
00000110: 6408 4aea 7b06 dcbf 8a83 961d e98e c3bf
00000120: 9a37 7559 8e35 c53f d6f5 1923 a203 c4bf
00000130: 1c01 b614 ad05 dfbf 3981 4125 9003 d6bf
00000140: ac93 5c83 3cc6 e0bf 91d6 082d e47d d7bf
00000150: 6645 a1ab 8ffe e03f 1732 2b54 c937 e43f
00000160: 31f9 76e5 f2f6 4ebf 1f7c 3946 3333 c1bf
00000170: ccd0 b733 4656 d33f 2cbb ae06 e8ed e43f
00000180: 1d6b 713b b031 b63f ba63 587c 6a7c d7bf
00000190: 48a7 fa26 f0e3 e0bf 6d64 f0ef c4da cdbf
000001a0: 8e38 86b1 6fa4 c9bf 84d4 14ea 2128 b2bf
000001b0: 704d d8c2 b1bc cdbf a632 27b6 b74e c0bf
000001c0: 7d5e 63a0 5132 c33f d712 3e3a 55a3 d9bf
000001d0: 5de3 bde5 41d5 c3bf 0b67 2a06 538e e3bf
000001e0: f6d4 8dff 64db dfbf fa32 7cbe 04f4 de3f
000001f0: df08 1c90 73e9 ce3f 6824 4adb 830f d53f
00000200: 2b5f 6415 03bb dd3f 4162 f779 09e4 c23f
00000210: 6eba fb68 8ee9 d6bf 5e05 0f43 eb72 e23f
00000220: e98c 4636 950b d7bf dbe5 6137 8eae cdbf
00000230: 84c5 01c9 b41e da3f 5282 62d6 f278 d93f
00000240: fac6 bed8 2695 dd3f 023e 4ca9 1860 8d3f
00000250: b34f a7e9 bd72 dd3f c58c 56d4 2935 db3f
00000260: f18c 704e 5155 e13f ffa0 676e 945e d2bf
00000270: 819a 1d11 5c7c cebf bc5a 1827 5ea2 dcbf
00000280: df0a ff82 42ed e1bf 5976 faf6 be47 e2bf
00000290: 7bc3 491b b5f5 c63f e66d f9cb a4ac aa3f
000002a0: 9232 ec92 59c9 e2bf 938f 2fd4 bf1a e63f
000002b0: ecca 6a42 0efa d73f 8c68 6e4c 1601 b83f
000002c0: 01a5 aace 6da4 df3f 99d3 e3c0 73af dbbf
000002d0: 7f41 a810 bb71 db3f ce86 0b58 7202 db3f
000002e0: c863 3b43 e5c9 d13f ee91 cbc2 cf2c d93f
000002f0: ccb5 8692 6172 e33f ab6b 282b 137e b5bf
00000300: 447a 565a 1e2f d2bf 9129 4116 33d6 c6bf
00000310: 7ab6 232c ba4e d53f f011 cd33 5cba debf

fc_out.weight f8 [1, 100]
-0.04335034970634676 0.02659666960120495 1.287994427316135e-06 0.019203557096745066 5.805816807382035e-05 -0.008045665683896176 -0.0027309381934645547 0.02786928302582813
4.956083870559421e-05 -0.01811286286928263 0.025016312500402316 9.688642217592639e-05 0.0009689387869590794 -0.018270673426194962 -0.02215381799746625 -0.014415663788293906
-0.05120641173156462 0.008555983448795771 0.040450406827866256 0.009162003199359166 -0.0096835402426015 0.018343877384523206 -0.018940783735426008 -0.02964651911581002
-0.011096099664541718 -0.0070502976398495905 0.009201082471256561 -0.0028561932235253314 0.023055072085571917 0.015890322092602598 -0.01177633734388847 -0.013844900274508605
-0.012475814051647017 0.005541519759173036 0.007085180293201549 0.05119289892366065 0.03109635439420603 0.01851725708113306 0.01660456650469577 0.010139543017915413
-0.0230351418270363 -0.011162659150512394 -0.017919588071670753 0.011359443632265315 7.265194368080247e-05 0.012205952106377158 -0.01034688558614616 -0.007220989046671032
0.00020560607034303754 -0.0016672874507339362 -0.021460993718528113 0.019417552854860062 -0.007396095850706301 -0.002964068361320704 -0.02243353737429766 0.04192928417576182
-3.480965689673798e-05 0.018180226892590648 0.022399607236405855 -0.006906176347674285 0.020543611791241315 -0.031352155343886884 -0.024113864327973418 -0.006529623236910109
0.004528593845939451 0.01889770681932054 -0.004870038489330734 -0.026870300654831408 0.010984085883458774 -0.007310998404718452 0.03264847256641977 0.00951980965253958
-0.0005276875134146567 0.01589840036083594 0.009108608779525417 0.023275227036867217 -0.02324873140424956 2.481028335292154e-05 -0.0023565494985742204 0.012880246578357069
-0.030804055261601015 -0.01790200257092524 0.009100344521009494 -0.00614062612816842 -0.013163138445157124 -0.005740688117891114 -0.03833725902598149 -4.898359503210017e-05
0.03023803165486615 -0.02457928396215457 -0.017580783496014038 0.03774944952035886 -0.008279761445209276 0.003799386720314526 0.015212389773024328 -0.008735565490618312
0.022577790554560426 -0.03544486351280924 -0.0712042825267446 -0.027012756048784305
00000000: 7f91 845c 0432 a6bf b490 7a48 283c 9b3f
00000010: d7a8 6ed9 e49b b53e 4820 cae6 18aa 933f
00000020: 1589 1377 6f70 0e3f 3423 e5f7 3e7a 80bf
00000030: a675 4e47 315f 66bf 9db6 a2ec c389 9c3f
00000040: 7857 8373 f1fb 093f 895a a4a6 2d8c 92bf
00000050: f014 3950 e09d 993f cf30 060f f065 193f
00000060: d8ad 6e33 0cc0 4f3f ea98 5d23 8cb5 92bf
00000070: b363 1f8f 7daf 96bf 65b5 2aa4 f585 8dbf
00000080: d414 770f ba37 aabf 6214 c8a8 cc85 813f
00000090: 6e04 df6c eab5 a43f 9e54 db40 87c3 823f
000000a0: a937 36c5 f6d4 83bf 321f cbc5 bcc8 923f
000000b0: 6e2a d17a 3665 93bf 93aa 2b38 a85b 9ebf
000000c0: fcff 6049 8db9 86bf b4bd a4dc c5e0 7cbf
000000d0: 202e 6a62 04d8 823f a31d 8e0f df65 67bf
000000e0: 6733 75b2 bf9b 973f 8eb0 d776 8d45 903f
000000f0: afbe 113e 311e 88bf 51c5 290f b75a 8cbf
00000100: 8d0e be6a eb8c 89bf ed2d 2c62 b4b2 763f
00000110: 473b 549a 5905 7d3f b240 54a5 f435 aa3f
00000120: ca7d 9704 b9d7 9f3f a2e4 4c16 30f6 923f
00000130: 1f5f 6898 c900 913f 7c43 446d 0ac4 843f
00000140: cd2e 3933 8696 97bf bd1b e7bf 72dc 86bf
00000150: 4c08 e732 8359 92bf 1def 35b7 9e43 873f
00000160: ac26 6ee3 960b 133f 254f e828 6fff 883f
00000170: 80e2 a979 bf30 85bf 18ba cd7c c193 7dbf
00000180: 82c0 2ab2 fef2 2a3f 7053 bb44 1c51 5bbf
00000190: f198 a4e8 def9 95bf ac7e ebe9 31e2 933f
000001a0: 5ef5 bf5c 5e4b 7ebf 3371 9915 1a48 68bf
000001b0: 42c0 6c35 d1f8 96bf 1226 8f50 c177 a53f
000001c0: a185 22b4 1240 02bf 9409 c05f d69d 923f
000001d0: b82c 1832 ecef 963f d8d4 db98 a649 7cbf
000001e0: a1f1 2373 6209 953f dce2 b8c3 630d a0bf
000001f0: f2e0 ac0a 4eb1 98bf 19aa 1f64 cebe 7abf
00000200: 3c5d 7127 938c 723f 3794 08a3 eb59 933f
00000210: dec5 ab00 9bf2 73bf fb4b 2f5a e383 9bbf
00000220: 3bd3 2a0d d37e 863f 503c ca30 23f2 7dbf
00000230: fece dff3 4cb7 a03f a773 f938 1f7f 833f
00000240: 7e72 6a4e 904a 41bf ed1b 6f96 ab47 903f
00000250: 269b 8fc6 88a7 823f b9a5 b80b 76d5 973f
00000260: c40d 38f4 83ce 97bf 832c 8fb0 f503 fa3e
00000270: fa95 e3e0 0a4e 63bf 8034 8c6e f560 8a3f
00000280: a023 bb27 198b 9fbf 25d5 4c0e e754 92bf
00000290: bff0 cc90 33a3 823f d4f0 5bc6 e926 79bf
000002a0: f0cd 1389 46f5 8abf a8e8 903b 8c83 77bf
000002b0: 0e41 78f3 f0a0 a3bf b4ea 7682 77ae 09bf
000002c0: 1d56 36f4 b7f6 9e3f 3c30 1bd3 4f2b 99bf
000002d0: 8c1e 9d68 b200 92bf 308e 4356 e553 a33f
000002e0: 8cc0 01c5 faf4 80bf d2e9 ac36 e41f 6f3f
000002f0: 8e9b 8d64 ac27 8f3f 9911 c1c0 f3e3 81bf
00000300: dceb 30e0 a11e 973f b988 3243 d425 a2bf
00000310: 689a c9a0 713a b2bf c7a8 375f 3ba9 9bbf

fc_out.bias f8 [1]
0.028716424493537243
00000000: d42e 3ba0 d667 9d3f

fc_hidden_list.0.weight f8 [100, 100]
0.04519550963918554 0.028912563627599586 0.03155903707762753 0.06656978633591429 -0.06458572745863023 0.017581724608445395 -0.10555997476313882 -0.004948795036335716
0.07734611996863697 0.029757378614317487 -0.014162750065130889 -0.09054329049630486 -0.09420460564657972 0.05026553920722467 -0.021088626512893786 -0.051244979747987196
-0.005081561099057786 -0.0796510362207399 0.0028258321792801982 -0.04517427168327947 -0.06419819406974307 0.01283246211529366 -0.017942562497235668 0.07273468214867525
-0.07654966130781794 -0.04028713074978371 0.09865833622238052 -0.044567894048164344 0.039498012152624336 0.03223257647490149 0.05103922829529622 0.059955278529793724
-0.052855032795578114 0.10324372597038049 0.01954564348501777 -0.06890650010498357 -0.013601512493186146 0.09471112577847642 0.09489757995797551 0.0431254456599188
-0.033929921919275526 0.06281630358508532 -0.025059256116632775 0.06652152249849748 -0.08159819982489298 0.04319026009018769 0.09654173410973745 0.02842890400869523
-0.0006852063952660049 0.09085592783221332 0.043990560642445865 0.012003042158673694 -0.060744150630204004 -0.09864087428081114 -0.002164740487004111 0.018328892354909018
0.06832813197401312 0.08259694066244891 -0.09195899689567588 0.030943277973956206 0.006378189614911166 -0.04001601002036235 0.10359390003510227 -0.01348838140713238
-0.05020510621320394 0.07421799777323981 -0.02210691861736165 0.02110338158657914 0.09172256523144953 0.0909347674301777 -0.03542589614456648 -0.011333037461249246
-0.06268626381220314 0.057340015688134675 -0.07650480999923945 -0.05934802455082625 -0.020445627024221508 0.07518967511358826 -0.06084192925808155 0.02608378122436833
0.020685655049351846 0.04056448745002343 0.08440516767867098 -0.02773016483340004 0.054263761106049635 -0.04351233659794902 -0.05828426273939415 0.059718855951508956
0.07048659340682743 0.05677697042911605 0.04307499739842953 -0.024624654791078324 -0.08610668081890685 -0.003180244796975976 -0.05583130561527479 0.06742886241393607
-0.1229243706487808 -0.08854834125670656 0.03701076317554317 -0.06974058773088652 -0.003746552409825789 -0.0899503967141875 -0.038953879355482654 0.0162585868750972
0.02852869188161455 -0.0025102810861684275 -0.03874534721126651 -0.023866603702566113 0.027501553340513518 -0.07254826374031054 -0.02469973765627383 -0.0643750465970512
-0.026624335770708333 0.12031956429152742 -0.03174507655443905 0.03961840058304506 0.02806295316705489 0.0741297854198628 0.03476880099145484 0.009977594304948562
-0.010341554383899878 0.02851619356829152 -0.05673085023813406 -0.10640864167558811 -0.02172265457535 -0.05397665443186197 0.02930740078696975 0.01931873564570945
-0.04063547910042491 -0.021557538194958908 -0.08133926253529188 0.0678387422152863 0.05427590677039697 -0.03779691721731379 -0.1162311233594336 -0.05687511396756714
0.04382991384109632 0.052938007096748375 0.07359217759775136 0.051526182846884386 0.08835072598105678 -0.10986890363683337 -0.033466338604204705 0.054138174316255505
-0.07774987288210866 -0.08370664921103234 -0.0019342810232446047 0.02549993636856813 -0.06854499286787243 0.019843393546799228 -0.0566675101310753 -0.008742665186183192
0.07913588246638222 -0.039005551571160084 -0.15365213887636198 -0.05037296124296029 0.013605627302929538 -0.09136493635725997 -0.03693666573693253 0.04211677917880191
-0.0692957453096654 0.07701873526180535 0.14773221843420895 0.015630653077696437 -0.03829011197020224 0.009813390200595563 0.06157523291902003 -0.05733499054361336
-0.0665765246512808 0.07890344619279308 0.027148270221521626 -0.053498888194834456 -0.05708817845009621 -0.10006491580726871 0.09001477257273932 0.12427180495652913
-0.00786454765372481 0.061060284994937535 -0.10335436553199603 0.05633122833727799 -0.08394163336589414 -0.044651061819933356 -0.10012656321994438 -0.03527366899471434
0.08122749114997016 0.11051266212040341 -0.05195755394141187 0.13230143485789048 0.11669991282906554 -0.055373640655440724 0.12931028290968005 -0.06175833000685087
-0.0805586118030292 -0.07385371788200672 -0.06435738520517044 -0.0032798494423337534 -0.026651581915679 -0.08130759426091239 -0.05924468296253444 -0.07413424315204181
-0.07277229050559632 -0.004178196886987892 -0.022483343044435646 -0.049894342589003673 -0.04933881951549398 -0.06206409688834918 0.00933169445688523 0.021345634551641846
0.04834947873347226 0.09601767568280976 -0.0992946747236031 -0.0666719322335527 -0.0711352245089601 -0.09851449072015753 -0.07683785547957055 0.05897064490054904
-0.04441492205878479 -0.019934886629749484 -0.04194549404302711 0.06626549429845706 -0.08006511052092531 -0.06133218540242786 0.004602565830750832 -0.035207819513776724
-0.007525656018558301 0.052820996390747624 -0.03397671978364876 0.01968963149328908 -0.05173799426083562 -0.10123243258846906 -0.06354966440927703 -0.04922195288998249
0.02233177389053458 -0.0583609156603881 -0.027421944978788963 -0.05067390044836923 0.05954470648815035 -0.08008002363428028 0.11343566056093944 -0.005492239634499136
0.02047169224497073 0.09515478458807439 -0.028671318466136124 -0.008697963415745354 -0.016798319706454828 0.0028797030641232358 0.06347494821552507 -0.12129344500252419
0.04257827110010046 0.058154819157030545 0.014845722723855148 -0.07527879657991673 0.034933706808178346 0.010003641124244733 0.08331739996522984 0.08118899488369997
00000000: f517 a7a7 dd23 a73f d06f e54c 419b 9d3f
00000010: e087 4890 8128 a03f d2e6 36af b70a b13f
00000020: b822 39b3 b088 b0bf 575d cd90 f100 923f
00000030: efcf 5f7f fa05 bbbf 7ee6 5e0d 3045 74bf
00000040: b2df bc8f f4cc b33f c04c dadf b778 9e3f
00000050: 782c cf22 5c01 8dbf 92c9 8d57 d82d b7bf
00000060: 8f77 6204 cb1d b8bf 438c 059e 67bc a93f
00000070: 0102 c3c4 4198 95bf 781d 3430 c83c aabf
00000080: 0eb1 ba2b 67d0 74bf 611c a9a3 0264 b4bf
00000090: b763 6819 3326 673f df27 0007 1521 a7bf
000000a0: 1be7 fdf7 4a6f b0bf 4415 e6e8 e747 8a3f
000000b0: 993b 87fc 885f 92bf 550f 1d79 bd9e b23f
000000c0: a942 d633 c298 b3bf 0c3d 0aca 83a0 a4bf
000000d0: a08a 8d37 ac41 b93f 16e4 c65e 9ad1 a6bf
000000e0: 49b2 e75c 1539 a43f acaa a6cb c980 a03f
000000f0: b7c8 ae50 d021 aa3f 2a1d 0451 75b2 ae3f
00000100: 9e70 929a d00f abbf 335a 8f4a 2e6e ba3f
00000110: a690 30ee c503 943f 11c7 6e3c dba3 b1bf
00000120: 23ca ac1a 1cdb 8bbf a930 c903 fd3e b83f
00000130: c698 6332 354b b83f 9c34 78d5 8914 a63f
00000140: e98c ff41 435f a1bf 63b5 8db1 ba14 b03f
00000150: 4c9e ee35 22a9 99bf f575 9cf3 8d07 b13f
00000160: 350f a99f 9ee3 b4bf 83a9 2fa5 081d a63f
00000170: b150 b386 f5b6 b83f dcf3 e973 771c 9d3f
00000180: e2be 8287 ed73 46bf 49e5 af86 5542 b73f
00000190: 4d82 9546 ee85 a63f 9a2d 310c 0d95 883f
000001a0: 8192 c278 db19 afbf 10be 1541 8740 b9bf
000001b0: 1583 1233 cabb 61bf 8ce8 f124 cfc4 923f
000001c0: f9a3 39d4 f37d b13f 3e16 e5b6 1225 b53f
000001d0: a869 3df4 9f8a b7bf b67a b73b 98af 9f3f
000001e0: 4b14 dc3c 0420 7a3f bd2d b57c fa7c a4bf
000001f0: 7042 b73c 2185 ba3f 4228 28e8 cb9f 8bbf
00000200: 2e4b 8ed2 7bb4 a9bf 32ee 3561 f3ff b23f
00000210: f458 e831 32a3 96bf cd59 fff6 1f9c 953f
00000220: e26b f949 217b b73f 3096 2e3c 8047 b73f
00000230: f0ab bed2 5723 a2bf fd50 158a c635 87bf
00000240: eb59 fbfc 340c b0bf b7ec 43a8 ab5b ad3f
00000250: 16f5 eeb8 d195 b3bf 8556 0e41 dd62 aebf
00000260: 0836 a9cd b2ef 94bf 0c17 9c6b a13f b33f
00000270: c52b c760 ac26 afbf b03b 42ed b4b5 9a3f
00000280: e6b3 bbcf 9e2e 953f 1626 f455 dec4 a43f
00000290: ee14 cbba 939b b53f b7df 49dc 4b65 9cbf
000002a0: d8eb 9dae 75c8 ab3f da4b 52bd 3f47 a6bf
000002b0: 73a1 ac54 6fd7 adbf 0254 884a 7893 ae3f
000002c0: 3b20 7dcd 680b b23f 176a 51fe de11 ad3f
000002d0: 0afd 3312 ed0d a63f dc0a 039c 3437 99bf
000002e0: b295 1562 160b b6bf ee5f aeec 740d 6abf
000002f0: fad1 6bbf eb95 acbf afd4 df96 0443 b13f
00000300: 9f61 d1b7 f877 bfbf b306 d0a5 1aab b6bf
00000310: 3dbf e022 13f3 a23f bf0a 82e7 84da b1bf
00000320: ea9e 5502 17b1 6ebf 3250 263c fd06 b7bf
00000330: 5eac c44b c3f1 a3bf a680 a14b 17a6 903f
00000340: bf4b 841a a036 9d3f ab4e 67e5 7090 64bf
00000350: 0b03 4a1e 6ed6 a3bf 03f9 79a9 7c70 98bf
00000360: a02f bf00 5e29 9c3f 706e 25e4 8592 b2bf
00000370: f55b d055 e34a 99bf 6214 d00f e27a b0bf
00000380: 41d3 a6ed 6843 9bbf f579 b351 43cd be3f
00000390: 727d 3803 e440 a0bf 19e4 a5ed dc48 a43f
000003a0: 05a4 53e8 88bc 9c3f cfad 096c 2bfa b23f
000003b0: 5ede 5b5e 37cd a13f 2a2e dc09 226f 843f
000003c0: 9b01 f3ee f32d 85bf a8fd 205b 5933 9d3f
000003d0: ffe4 e474 d30b adbf b428 02c4 983d bbbf
000003e0: 1109 efab 763e 96bf f38e 10fb d3a2 abbf
000003f0: b0a8 a45f c202 9e3f 8d8d 3167 4ac8 933f
00000400: e654 966b 2cce a4bf 8b54 1ee6 2d13 96bf
00000410: 3747 7860 a6d2 b4bf e867 373b e15d b13f
00000420: 7246 1439 0dca ab3f fc0b ad16 1e5a a3bf
00000430: f529 9ba9 52c1 bdbf bcd9 e424 bc1e adbf
00000440: 4b69 11dd df70 a63f 9553 64c2 b01a ab3f
00000450: 8615 06dc efd6 b23f 921f 6ecc a361 aa3f
00000460: 829f aa36 279e b63f fbb2 f753 5e20 bcbf
00000470: e5d2 a4fb 7f22 a1bf e892 4eb0 ffb7 ab3f
00000480: 00fc 4b69 6ae7 b3bf 61b2 d188 cc6d b5bf
00000490: e568 1c6f f6b0 5fbf b327 03c3 a71c 9a3f
000004a0: 790c ac26 2a8c b1bf c7f6 4c99 d351 943f
000004b0: 9176 841d 8603 adbf d1af 6fa8 ace7 81bf
000004c0: 251a 22cb 3f42 b43f 279d b820 89f8 a3bf
000004d0: 3c9b b78f dfaa c3bf 0d4a 481a 7cca a9bf
000004e0: a80f 7662 44dd 8b3f 51d2 a745 b163 b7bf
000004f0: bd10 bad6 5ce9 a2bf 3822 5f9a 5490 a53f
00000500: 9e61 dbaf 5dbd b1bf d7f4 20f5 7fb7 b33f
00000510: 41c7 5eab e3e8 c23f cba3 225f 7b01 903f
00000520: 2c2a 58f5 c29a a3bf baa9 cbef 0a19 843f
00000530: c3f4 42f7 c986 af3f 8142 9a0a 035b adbf
00000540: aeff 0ebc 280b b1bf ee92 f028 0433 b43f
00000550: 9545 fa92 c1cc 9b3f 099e 56ce 3464 abbf
00000560: 35dd dc66 a93a adbf b784 deb4 da9d b9bf
00000570: cc56 5b48 350b b73f 396a 1aea 46d0 bf3f
00000580: 48c0 c3b7 491b 80bf 1f80 462e 4b43 af3f
00000590: 36d7 db83 6e75 babf ef7b e75e 72d7 ac3f
000005a0: 7a4f 14ea 327d b5bf 9b1f 7f04 81dc a6bf
000005b0: df93 7dfa e4a1 b9bf 3705 7ced 630f a2bf
000005c0: de76 062a 53cb b43f 25dd 99cd 8e4a bc3f
000005d0: 1ec3 ea35 2e9a aabf 8cd9 f6df 40ef c03f
000005e0: cf00 0ca5 0be0 bd3f d3e4 590f ef59 acbf
000005f0: 4419 1146 3d8d c03f b61e 45af c99e afbf
00000600: 6cec 1a3b 7d9f b4bf 33c1 fdc6 13e8 b2bf
00000610: 1158 b6c0 b979 b0bf 3e6b e6c2 57de 6abf
00000620: 8ca7 db62 8d4a 9bbf c85d 4412 93d0 b4bf
00000630: 296b 92af 5155 aebf 140b da35 76fa b2bf
00000640: d1cb c66f 34a1 b2bf 3d17 c62f 281d 71bf
00000650: da88 529c df05 97bf 9ab2 5953 c08b a9bf
00000660: db0d 7c10 f042 a9bf f74f c884 ddc6 afbf
00000670: d395 11d4 7e1c 833f 4026 3f49 a1db 953f
00000680: edb8 e04b 43c1 a83f 3346 e548 9d94 b83f
00000690: 58d6 9a34 606b b9bf ae15 8168 6911 b1bf
000006a0: d40e dc06 eb35 b2bf 7a3e d3e3 3e38 b9bf
000006b0: df28 614c a5ab b3bf d034 8b7e 6631 ae3f
000006c0: 1acc 647b 8dbd a6bf 3739 7f98 cf69 94bf
000006d0: 083c 423a e179 a5bf 4f7a dd82 c6f6 b03f
000006e0: 8ded 3ca7 257f b4bf 09c4 fda4 ee66 afbf
000006f0: a03d 88db 23da 723f 9112 c062 c206 a2bf
00000700: b2c1 b0e7 38d3 7ebf aaae 1488 5a0b ab3f
00000710: 0a9e 9788 6565 a1bf c5fb 55cd 8429 943f
00000720: 8531 9f02 677d aabf 6212 4363 5eea b9bf
00000730: 4243 4f72 ca44 b0bf a8c1 d0ab 9e33 a9bf
00000740: 6d07 16fa 23de 963f 9980 4060 7be1 adbf
00000750: 0ea6 8193 7f14 9cbf a97d 5ff2 edf1 a9bf
00000760: ef75 08ce a47c ae3f d377 92da 1f80 b4bf
00000770: 4f34 4f94 1e0a bd3f c79f cad9 077f 76bf
00000780: 6a63 be02 88f6 943f ba1b dd5f 105c b83f
00000790: debd 949c 035c 9dbf 7ea8 4ce3 3cd0 81bf
000007a0: 1b62 1127 9433 91bf 2976 71cf 2c97 673f
000007b0: 0473 b3ea e43f b03f bb48 8153 160d bfbf
000007c0: 8c51 cab3 d1cc a53f 2bbb c4ec 77c6 ad3f
000007d0: e0ef ac2c 6f67 8e3f 469a 64a1 7845 b3bf
000007e0: c5d1 89b0 d4e2 a13f 60a4 c1fb c97c 843f
000007f0: 7bd5 0904 4a54 b53f 0513 d24d cdc8 b43f

fc_hidden_list.0.bias f8 [100]
0.07953893053829061 -0.04970054775682361 0.04254870159443218 0.06476551725825776 -0.07536743639744671 -0.03703088069360882 0.00033919174400370134 -0.11651930694398943
-0.07147443901264401 0.02342753869853243 0.01580708094218943 -0.01815205380018483 0.0058037463316626455 -0.06205773336392823 -0.025721481654086966 0.047286569238625155
-0.06107244700601218 -0.05200056227573657 -0.02453642553675184 0.017061686009309393 0.0020772016199259295 0.05457167957793563 0.005376773813440089 -0.032274345171186575
-0.07975250844280096 0.09822553069119871 0.10462800712957514 0.03127711526036746 0.10629258908033437 0.034794370067520994 -0.025068885083772256 -0.09076087522280127
0.12623823418236038 0.07185608459258304 0.04671735137931947 0.06334214665072986 -0.13613012818018216 -0.11727041849110645 0.06971413432851499 -0.06616136632116065
-0.007396074207207614 0.03531529798379665 -0.09345274874994279 0.0811734583250006 -0.010480083543245028 -0.12375324960601654 9.777844884844043e-05 -0.0685385180204907
-0.05267101756071078 0.04432258165935382 -0.06540945196208575 -0.06221579666136382 -0.04232868557872544 0.02435760515260173 -0.06167238437232902 -0.0754819100091967
-0.0760810907013423 -0.03417133337082852 0.06456673831109207 -0.04229499658132996 0.05123654605081773 -0.03663577161267797 0.054510040357473546 0.04415636189836465
-0.04423870958507645 0.05477366660288011 -0.06144081830683258 -0.03752819198029585 -0.05344231417126807 -0.05311031062271049 0.04540713674564846 -0.11195419021845672
0.03004453310436241 0.0629050061941989 0.04432736767923117 -0.09689482588301501 0.01832500664930537 -0.04739789872326844 -0.008207460632583064 0.11203915756337916
0.034640388963425216 -0.04231244410339627 -0.04124843500988282 0.0370196252185591 0.032870428823240636 0.041209338184049975 -0.04306955727576637 -0.09109081852606718
0.02146090267858212 -0.04997736676600319 0.009204345725719945 -0.06232067212063063 0.043256313281063344 0.05757323452327153 -0.1091425021005906 0.07232590786394878
-0.0578925779664998 -0.00435635127378162 -0.010178672538034865 0.03831151190509986
00000000: d6b7 6bd1 a95c b43f 8bed 6aa6 5972 a9bf
00000010: e6b2 ab83 f1c8 a53f b161 8812 7994 b03f
00000020: 29a9 82c2 474b b3bf 3fd1 0a2b b6f5 a2bf
00000030: 7de3 9372 b13a 363f 3451 ad94 35d4 bdbf
00000040: 2d2b 0f1a 264c b2bf a2d5 2482 63fd 973f
00000050: e588 c43e bb2f 903f 6646 b5b5 7396 92bf
00000060: c634 054b abc5 773f 991f 86fe 07c6 afbf
00000070: c72e 096a bb56 9abf ad01 d7f8 f135 a83f
00000080: 1ab0 2745 e344 afbf f01f b254 d19f aabf
00000090: e1df f6a4 1320 99bf 8ccb b25d 9e78 913f
000000a0: 9dff ca20 3504 613f a069 26b6 d1f0 ab3f
000000b0: 3ac8 fcba f405 763f d426 0552 4386 a0bf
000000c0: cc29 890f a96a b4bf fc70 f3f1 4e25 b93f
000000d0: 83ff ddac e6c8 ba3f de20 50d6 8d03 a03f
000000e0: 723e e8b9 fd35 bb3f d6c2 0c53 91d0 a13f
000000f0: a1f3 5366 a8ab 99bf be98 d6ce 1a3c b7bf
00000100: 1db5 a80f 9328 c03f 3d00 580d 2965 b23f
00000110: f6ea a830 56eb a73f 25c5 52e0 3037 b03f
00000120: b25f 4448 b66c c1bf 1221 3524 6f05 bebf
00000130: 4d8a 0217 c9d8 b13f e0a9 9b88 f3ef b0bf
00000140: bf80 6b8d 584b 7ebf 141e c7c3 d814 a23f
00000150: ef30 9af3 84ec b7bf f320 cfa4 c8c7 b43f
00000160: fde4 9e00 9576 85bf 81e1 d4ff 4aae bfbf
00000170: e4ac d1f5 cca1 193f 7f10 6a85 bd8b b1bf
00000180: 3d97 bd13 b2f7 aabf 8805 670d 73b1 a63f
00000190: dcc4 0681 acbe b0bf 9508 e9b7 bfda afbf
000001a0: d990 7c00 1bac a5bf b53f 2836 33f1 983f
000001b0: df17 e4d3 8593 afbf 79da ed4e c852 b3bf
000001c0: a101 68e4 0c7a b3bf 0aac 93ae e77e a1bf
000001d0: a99d 741d 7287 b03f 40d6 3396 b0a7 a5bf
000001e0: c0e8 4b33 ad3b aa3f e35e e181 ecc1 a2bf
000001f0: 9229 4771 bde8 ab3f fa12 87a4 a99b a63f
00000200: bc31 c5c5 74a6 a6bf d595 7b45 4b0b ac3f
00000210: b2de 88c2 2b75 afbf 9a7d 772a e536 a3bf
00000220: 7b22 2d7f ca5c abbf 48ee 684e 4631 abbf
00000230: f2b5 a7ae 9a3f a73f 7570 a3a1 07a9 bcbf
00000240: c563 6d7c fec3 9e3f cfd7 5be0 8a1a b03f
00000250: 8f08 00a5 13b2 a63f b8b4 516c 19ce b8bf
00000260: 62ef 0761 cac3 923f 08c4 d491 8944 a8bf
00000270: 8d4f 00b8 12cf 80bf ab29 9b25 99ae bc3f
00000280: 5bf0 6f93 62bc a13f cc9c 4607 faa9 a5bf
00000290: 8cdb c1ce 831e a5bf 466e 3f7f 3cf4 a23f
000002a0: de45 9a91 64d4 a03f 07a2 94ef 6319 a53f
000002b0: 35bd e787 360d a6bf 5a0b 8956 ba51 b7bf
000002c0: 3bae 96cc d8f9 953f 52b1 9927 a296 a9bf
000002d0: c8fe fb5e bad9 823f dfe5 3ec1 7ee8 afbf
000002e0: 4a80 c605 b125 a63f fb05 ce2e 3d7a ad3f
000002f0: 762a 2055 c3f0 bbbf 09de ed60 f383 b23f
00000300: bc30 1892 18a4 adbf e431 0324 f7d7 71bf
00000310: 0f26 574d 8ed8 84bf 02ac 6205 919d a33f

fc_hidden_list.1.weight f8 [100, 100]
0.07391791696006306 -0.06287021570609869 -0.05968624713677896 -0.023558765833395907 -0.07563949742886873 -0.008622887393085567 -0.002297798041301386 -0.10297613618509911
0.0868724524842882 -0.09389603433173863 -0.04048314114995674 0.013070784432461164 -0.0695336108788669 0.0774348750573269 -0.052293364865122746 -0.0005815241720972289
-0.02483104140400699 -0.05617082821957262 -0.06408557983908625 0.0703948265844673 0.016335053871291666 -0.03502922470083625 0.006380513392142196 0.06709959719575134
-0.04521114578256673 -0.08619906821621427 -0.1313548475331312 0.04826346408135976 0.08763856256166289 0.013052225891479004 0.09539839391897087 -0.06493327676602298
-0.033397024239788964 -0.07758460905131083 -0.0789268831380758 -0.032378244378217076 -0.06135717857187222 0.08018743144022192 -0.027936006811667368 0.07939763638347158
0.0007120116829448428 0.10254086428904143 -0.07366832337998992 0.05762844493366344 -0.061854510247130345 0.09863210692468129 -0.08473657551111012 0.04564344205853938
0.01971921496419037 0.015493455102659728 -0.0836192211619958 0.05831744187952328 -0.06325221039086615 0.005383578469173789 0.05788851069520807 -0.02801982654321805
-0.07697762299137172 0.04558180698747278 -0.07299466127732188 0.056876276550997924 -0.029791550585612482 -0.10596445086237746 -0.019904349049393196 -0.014646881117451976
0.019973082536578465 -0.01279268908559632 -0.02982740807361971 0.05525061148562463 0.07090901391645907 0.05874080810938583 -0.049725602772958344 0.016314685544669888
0.03718567014356803 -0.04548139619282098 -0.0319712198255875 0.06714972544031753 0.0010342631249490562 -0.03204186659511688 0.08949578477855837 -0.009307934719711823
0.010248825682571646 -0.009477273098079785 0.09640978138815082 -0.035516349312142884 -0.003791934622467754 -0.007528433410605224 -0.03836583495482838 -0.09049742228237195
-0.09550584130680287 0.009217596453983526 0.05170409020397801 0.0291928390671837 -0.015661445013027787 0.06223831110620735 0.008808457679906307 0.07687600717933914
0.0534782103452259 0.03916707922179824 -0.026727043801205688 -0.040399087997604465 -0.08598674736618313 -0.06980547194832824 -0.06062423841925956 0.10824546772921145
0.07790611041194208 -0.005423469857396183 0.05206522084131776 -0.05211735831891846 0.03670510820490935 0.0731052025498748 0.023197787061504112 -0.2939392928440768
0.031103552256325665 0.09791327078102435 0.07133359476331155 -0.00850310855509981 -0.07138744664755786 0.08183124340836313 0.1260986812353323 -0.036611127585921915
0.06800117291493367 -0.0817749207025331 -0.02310531077474256 -0.03357087861844408 -0.1126286270283182 -0.017137497219163574 -0.09012767852163987 0.014827150419050457
0.0035621551263728514 -0.06669439395803206 0.015850406463309725 -0.05054941479895965 -0.06427540667361235 0.07087336555309082 0.0725463194273436 -0.08739248561140585
-0.00045682181290320124 0.011469503435231876 -0.04247771365639928 -0.006083145385888117 0.05279154428922782 0.05192088233618364 0.12391553210035994 -0.007890237818038855
0.0221054459971324 0.04545243293076036 0.08691020781176459 0.04225984908138256 -0.010027985074757158 0.06444536106134995 0.04986852651854325 -0.055843338592708416
-0.01595371903324965 -0.14813984961611387 -0.10673924507605168 -0.09388908330454797 -0.06559276290195128 0.015137825938763607 -0.03208789058136537 -0.06506377780221427
-0.09457068508267553 -0.08157808429521944 0.09919245628281155 0.010291959621990733 0.10397951149239751 -0.10694302524752305 0.08746045134720665 -0.0838286069624699
-0.06108094537024187 0.028829290027420646 0.07158288405068147 0.12280959792533336 0.21155528312568858 -0.029165308528764537 -0.03615283632570999 0.04754144704388129
-0.14153324249858037 -0.02578238228138106 0.061821267113385134 -0.07703144140303905 -0.06440132843263348 0.0039032788653128128 0.039200808677600105 0.028789908776356808
0.048407865255493975 0.07642869582258885 0.0003876836003399374 -0.04514419498462787 -0.04843407182238175 0.04204839109303958 0.09570552513006567 0.018817381892587144
-0.04828799428836735 -0.08794366132732681 0.06077235379109714 -0.13175609383378642 0.028206451540332012 -0.06334421103351356 0.05610030452673616 0.020570436574993266
-0.03157567254686928 0.04893473188700806 -0.05841631864447661 -0.04058880336380549 0.02985077950941693 -0.02375214091951399 0.009215525167131346 0.04795796628896577
0.09176730949159201 -0.11373161436363706 0.046428949961204224 0.05875730456153293 0.07605183406318858 -0.0390104055724236 0.05500441050470998 0.06864116947108405
0.09333378795381199 0.08125978009410578 0.15110871684938937 -0.07270236297379641 0.017668349543043783 -0.024527298211442457 0.03870013870793111 -0.06235430134533304
0.0366666476878459 -0.07232183043805059 -0.08244347237418014 -0.06733003737774382 0.10547242747159324 -0.03992494942365704 -0.015268969926382258 -0.01879123247737376
0.00784097653573675 -0.067462072095238 0.013495239734090687 -0.06429394217175012 -0.09311531993772217 0.12531789833003285 0.010980410001130907 0.0700972342341816
-0.08791022090736687 -0.00536393469925457 -0.0694644834575921 0.021102045567268465 0.08151188464168582 0.06599788371936936 0.04635422675377829 0.11703554658784078
0.021109204048025746 -0.0057138277723570744 0.03767650111421559 -0.003285805958453872 -0.0642781378708562 -0.07587665504709677 -0.07532934379290658 -0.02516689735612376
00000000: f491 eedb 48ec b23f 0ca4 5930 4318 b0bf
00000010: a266 f21e 328f aebf a57b 2703 ca1f 98bf
00000020: 8d2c be2f 1c5d b3bf f49a cd5a e0a8 81bf
00000030: 2823 16ee d4d2 62bf 1df6 2ee1 a45c babf
00000040: 97e4 57e6 453d b63f 16cd ad0c 9209 b8bf
00000050: 8c8c 8ece 34ba a4bf 1728 5dfd dac4 8a3f
00000060: e190 b268 f4cc b1bf a5e9 f09f c5d2 b33f
00000070: 8678 c927 32c6 aabf 21e0 86a6 2d0e 43bf
00000080: cff8 05fb 4e6d 99bf ed74 623c 6cc2 acbf
00000090: b0d7 8d9d e967 b0bf 9ae5 fc35 6505 b23f
000000a0: 8854 9fe8 22ba 903f 7018 fdbc 59ef a1bf
000000b0: 0e74 9d05 7422 7a3f 82d0 876f 702d b13f
000000c0: 1604 1a51 ea25 a7bf 292f ef62 2411 b6bf
000000d0: f0b5 2953 3cd0 c0bf a468 a41f fdb5 a83f
000000e0: 6e1f 1218 7b6f b63f 3152 c01a 20bb 8a3f
000000f0: 5010 f975 076c b83f e6d6 219c 779f b0bf
00000100: a087 c92d 6a19 a1bf 115f 8cbe 95dc b3bf
00000110: 8e6e da5d 8d34 b4bf 29a5 6999 e193 a0bf
00000120: 979a ae46 356a afbf ca03 96db 2987 b43f
00000130: 333b 8cae 419b 9cbf cc8e a54b 6753 b43f
00000140: ac4e 4172 c954 473f 7900 a03a 1e40 ba3f
00000150: bd0f ab5f eddb b2bf 7a6c 9ebc 7981 ad3f
00000160: 1838 3ef5 64ab afbf 99bb 9329 f43f b93f
00000170: 7762 98d4 4bb1 b5bf 192b d6c5 935e a73f
00000180: 9df7 7e1d 4631 943f ee65 be57 08bb 8f3f
00000190: f62f 35bc 1168 b5bf b35f 51a3 c8db ad3f
000001a0: 904a 07ff 4b31 b0bf e76a 5e57 170d 763f
000001b0: 8108 8018 90a3 ad3f b023 92ba 3ab1 9cbf
000001c0: 0392 4535 ceb4 b3bf 0989 9ba4 7f56 a73f
000001d0: 66fc f732 c7af b2bf f1d9 6827 e31e ad3f
000001e0: 6a6e d91d ad81 9ebf 2615 fe7a 7c20 bbbf
000001f0: df7a dc40 ce61 94bf 5654 1a1b 2fff 8dbf
00000200: bcfd 2de1 d273 943f 1917 01aa 0d33 8abf
00000210: 5d75 cd78 138b 9ebf 645b d4e2 ce49 ac3f
00000220: e646 c3d7 1727 b23f fb74 8a73 4613 ae3f
00000230: 9013 5e5b a275 a9bf 887e 6f03 ccb4 903f
00000240: e5fd 4a0a 000a a33f cffc 726a 5649 a7bf
00000250: 03d5 201f 885e a0bf 5298 b372 b930 b13f
00000260: 75ee 0393 03f2 503f f1f4 41a2 ca67 a0bf
00000270: 99f6 c01c 32e9 b63f 8939 b7d9 0910 83bf
00000280: 6b4b 0819 56fd 843f 4694 1710 d268 83bf
00000290: 309d 13ba 4fae b83f e2b5 89ed 322f a2bf
000002a0: 1e6e 2566 4310 6fbf 475d 9e74 22d6 7ebf
000002b0: 6156 d4cc afa4 a3bf 0c39 13cd d62a b7bf
000002c0: f25b fd20 1273 b8bf e869 8ada ace0 823f
000002d0: bcb4 fd60 f578 aa3f d8a5 4844 bae4 9d3f
000002e0: dd64 8ec8 8d09 90bf 8ed4 842d b3dd af3f
000002f0: 6aa3 4e2d 2b0a 823f b5ac ae60 25ae b33f
00000300: 0c74 f6f8 7e61 ab3f 28c8 ac18 b50d a43f
00000310: 3704 2e8c 555e 9bbf ebd2 7973 30af a4bf
00000320: 75c1 d33b 3a03 b6bf 0b94 197b c5de b1bf
00000330: af14 b6e2 230a afbf dc51 d697 f9b5 bb3f
00000340: 31bb 60a4 a7f1 b33f 9198 b19a eb36 76bf
00000350: 2882 8be9 4aa8 aa3f f93c 115b 20af aabf
00000360: ef25 ac0e 03cb a23f cd81 1ec6 05b7 b23f
00000370: 822e 1323 29c1 973f 4e94 71c0 e6cf d2bf
00000380: c1df eb0e 9cd9 9f3f fc50 d917 d810 b93f
00000390: 7e52 9d20 eb42 b23f 3197 44e9 136a 81bf
000003a0: 8c3a b29c 7246 b2bf 09dd 3a72 e4f2 b43f
000003b0: ccbb fc67 0024 c03f 746c 4d97 b1be a2bf
000003c0: 3f60 c25d 8668 b13f 3fe5 0c82 33ef b4bf
000003d0: 86d4 9028 eba8 97bf 9d45 87c3 3330 a1bf
000003e0: 0715 aecd 3ad5 bcbf ffcb 5df8 7d8c 91bf
000003f0: 1300 b787 9b12 b7bf f73c 2471 b25d 8e3f
00000400: 5a71 ac78 612e 6d3f 6454 e040 e212 b1bf
00000410: 258a 8dc5 163b 903f ea74 c9e6 9ce1 a9bf
00000420: fbaa 9961 5a74 b0bf 0c3e 35c3 c124 b23f
00000430: 5ab7 6245 6592 b23f cdfc 9d9b 5a5f b6bf
00000440: 25d9 1bbf 32f0 3dbf 73d5 3eb1 527d 873f
00000450: ce19 ed8d a3bf a5bf 47c6 d3e7 a3ea 78bf
00000460: ee83 7448 7e07 ab3f 000c 3ab7 5f95 aa3f
00000470: 5c65 d6a5 edb8 bf3f 31d0 16cb c128 80bf
00000480: 0616 7c5e cfa2 963f da28 ec91 8a45 a73f
00000490: b676 3d54 bf3f b63f fd13 7a3b 15a3 a53f
000004a0: 9ee0 865f 8d89 84bf 4b2d 23be 7d7f b03f
000004b0: 6363 fe14 5e88 a93f c207 e981 7f97 acbf
000004c0: 2e51 fdf5 2b56 90bf def3 aa20 3ff6 c2bf
000004d0: a626 cd5e 4353 bbbf 7b94 3e6e 1d09 b8bf
000004e0: 51a6 84f3 afca b0bf 9b5b b79a 9400 8f3f
000004f0: cb07 4af1 d26d a0bf 8f91 d00d 05a8 b0bf
00000500: e124 97cf c835 b8bf d348 1e24 4de2 b4bf
00000510: 259d be43 ad64 b93f d4d6 e76f f313 853f
00000520: fa5b 50b9 669e ba3f a631 f93b 9e60 bbbf
00000530: 74ca 3ae2 ce63 b63f f37f 5fa5 ca75 b5bf
00000540: 5d43 8c6d 0046 afbf e5b3 56e7 6c85 9d3f
00000550: 2877 f381 4153 b23f 3c66 b926 7370 bf3f
00000560: b711 2957 3e14 cb3f 6134 3cb9 82dd 9dbf
00000570: c166 5ae3 9f82 a2bf be16 8440 5a57 a83f
00000580: c503 eae3 c21d c2bf db93 d862 b266 9abf
00000590: a606 e680 09a7 af3f aefc 9621 55b8 b3bf
000005a0: d1e6 6fff 9a7c b0bf d5a3 5be2 c4f9 6f3f
000005b0: be7c 7ede 2012 a43f c6db 9812 1a7b 9d3f
000005c0: 7b75 486c eac8 a83f 02b1 08bd d490 b33f
000005d0: 83c9 7862 4068 393f e35e 20d2 231d a7bf
000005e0: 497e fac4 59cc a8bf be23 30e1 5d87 a53f
000005f0: 56ea 7a44 2880 b83f f2cd 4c1f dd44 933f
00000600: fb14 8438 34b9 a8bf 2297 4acd 7983 b6bf
00000610: a141 11d0 8d1d af3f 054c 0839 62dd c0bf
00000620: cd94 9beb 26e2 9c3f 1ca5 c782 5337 b0bf
00000630: 8ad7 79da 2db9 ac3f 0689 6aa1 6a10 953f
00000640: a942 e0c1 af2a a0bf 94bb 2f22 f90d a93f
00000650: a1f0 4264 bee8 adbf 1809 103e 0ec8 a4bf
00000660: 3b20 03e7 3391 9e3f ae51 d631 7b52 98bf
00000670: 1496 aad9 96df 823f 226a 9651 f28d a83f
00000680: 6cb9 1bf9 0f7e b73f 0d8e 36dc 831d bdbf
00000690: 588c 570b 89c5 a73f ce5c fcfa 6f15 ae3f
000006a0: ae2a 1a0c 2278 b33f 5b46 4600 2cf9 a3bf
000006b0: 35c9 81c0 8929 ac3f 9399 09ba 7792 b13f
000006c0: 8998 df1e b9e4 b73f 74fd fbe1 70cd b43f
000006d0: 7e1b 81ca 8757 c33f 017b 503f 9f9c b2bf
000006e0: eabf d8dd a617 923f 52a4 b51e af1d 99bf
000006f0: 22d4 332c 81d0 a33f b015 162a e7ec afbf
00000700: 82b4 5889 f8c5 a23f 4dae 84f8 ae83 b2bf
00000710: f7a3 9df1 031b b5bf 0a6c 9394 8a3c b1bf
00000720: 10c7 9eb2 3d00 bb3f f85b 2300 0b71 a4bf
00000730: 39c1 d173 5645 8fbf 3575 c443 023e 93bf
00000740: 6a4a 510e ee0e 803f b693 5ec1 3145 b1bf
00000750: 2a0f 7a6a 64a3 8b3f a165 f55a 9175 b0bf
00000760: a19b e3d5 67d6 b7bf 2d29 77b9 6a0a c03f
00000770: 36ee cfae e57c 863f aa6b 9370 e4f1 b13f
00000780: b701 c8c3 4881 b6bf 8e62 c741 7ef8 75bf
00000790: 7c13 afa4 6cc8 b1bf 5f48 5c4e c69b 953f
000007a0: 3278 c57e f6dd b43f 130e 2ec0 3ce5 b03f
000007b0: 6cb0 e0bf bdbb a73f 6173 10a5 0af6 bd3f
000007c0: 219a 1fb4 a69d 953f 830e adf6 6167 77bf
000007d0: adfd 3998 554a a33f 3af1 3da4 d5ea 6abf
000007e0: 96cb 0034 8874 b0bf 0b08 f507 a76c b3bf
000007f0: 6109 05ac c848 b3bf 9f69 58e4 59c5 99bf
