savedModel/poisson2d_inverse_tanh/noise_0.01/ParticleWNN_1/trained_model_best_loss.pth (torch, 132191 bytes, 20 tensors)

fc_in.weight f8 [50, 2]
-0.5254032698656934 0.53622322491901 0.087950514544222 -0.678461757359439 -0.04181931620012501 -0.683421232112706 0.6666461033136262 -0.5504983418562741
-0.3412023637401244 -0.514624362379624 0.007239266038073475 0.5428597170069828 -0.6003936821052628 0.23768518052173887 -0.23040288975578904 -0.09328145473596072
0.6194657764691128 0.6097750408028699 -0.6579937127547656 -0.5882479128817496 -0.17150561515869886 0.5002672130695017 0.23193714262649331 0.5172328072361629
-0.5689682046987479 0.3665555999405652 -0.6406688660888028 0.7061014559544446 -0.6401249933283905 -0.034431232923172156 -0.732687040409721 0.11724927359785661
0.42082297837229454 0.13741049579017145 -0.7375691305629944 -0.5128125268364099 -0.5194930103411142 -0.47296776976983157 0.19852941791543974 0.5286280717262403
0.80385644446313 0.5483853583728674 0.24857391851491384 0.10407868161415271 -0.29310354925546045 0.21388310457056564 0.6567550627934012 0.2743267338579088
-0.6093793313275055 0.30745917291141184 -0.7498125940295777 0.19247721362797968 0.7978935722502796 0.10385454693214065 -0.3441124047913528 0.5796025137568729
-0.5165664981061704 0.2740208252881191 -0.3389646531825609 0.12131409893378464 -0.167975042578313 -0.4832497391484768 -0.3766067851743614 0.49186998334665416
-0.7313903545209324 -0.030530295655245957 -0.612933267253653 0.4078579938850121 -0.17426434986223888 0.5572061299596923 -0.44032256949865684 -0.6072351532514878
-0.041837697365140425 -0.012413684818854378 -0.2368917025042737 0.10932862300671305 0.251860110538582 -0.40899864689904125 0.5855056974632381 -0.4043977336654949
-0.5795271754076652 -0.34157238897791703 -0.3420816984781554 -0.5882779752464 -0.731049683518735 -0.10894224983953738 0.6364386527872437 0.5111531629071068
-0.6645433040437534 -0.4224716929133928 -0.5089160210624804 0.6340346101553513 -0.49503351615063934 0.020740321510742152 0.22906818516153327 -0.5735150404251962
-0.3453365232845247 0.47210689979887044 -0.08482015659698526 -0.4655754007655311
00000000: 921b a984 1ad0 e0bf e63f cc9b bd28 e13f
00000010: 1941 a2c7 ec83 b63f 5b41 6e6e f5b5 e5bf
00000020: 7e5b d766 5769 a5bf 781d 2a34 96de e5bf
00000030: 909c 7735 2a55 e53f 30cc d8b2 ae9d e1bf
00000040: 133b 6570 42d6 d5bf 9ba6 c482 cd77 e0bf
00000050: 97cf 16ae eba6 7d3f b98b 5b57 1b5f e13f
00000060: 7bbf abcf 6c36 e3bf 42d8 8ace 776c ce3f
00000070: 48d7 3386 d77d cdbf a80c 6a1d 4be1 b7bf
00000080: 7fa2 5de4 a9d2 e33f e44a 45f2 4683 e33f
00000090: b72b a8d4 480e e5bf 4f8e 7849 edd2 e2bf
000000a0: bfee 1760 e5f3 c5bf 59a0 ec62 3002 e03f
000000b0: 277c 27c5 1db0 cd3f 46ec efd0 2b8d e03f
000000c0: 7aa3 f4ce fc34 e2bf c843 7a9e a575 d73f
000000d0: 8556 6dfe 5b80 e4bf 336f 9f14 6298 e63f
000000e0: 3153 f668 e77b e4bf 1c62 bb76 f8a0 a1bf
000000f0: b668 9817 2c72 e7bf 0622 9563 0c04 be3f
00000100: a0ea 6080 c3ee da3f 1ae1 c5c8 aa96 c13f
00000110: b5d4 c993 2a9a e7bf 64ba f7d0 f568 e0bf
00000120: 364d 3dce af9f e0bf 904d ce9b 1a45 debf
00000130: 3fd0 9e76 6969 c93f cff9 f96a 85ea e03f
00000140: 48bc 7426 31b9 e93f 7322 7a73 5f8c e13f
00000150: f07e 5429 45d1 cf3f 6a5b be85 e6a4 ba3f
00000160: d632 9963 35c2 d2bf 6215 a685 8560 cb3f
00000170: 41c3 8531 2304 e53f 4da5 95b7 918e d13f
00000180: 981e 5d15 0980 e3bf 4d9f 203d 69ad d33f
00000190: fe8c 2ffb 76fe e7bf c5f1 e0e4 17a3 c83f
000001a0: 321d d019 5888 e93f 054c 9d2a 3696 ba3f
000001b0: 7783 2e09 f005 d6bf 2f7c 2892 1a8c e23f
000001c0: 6e68 f276 b687 e0bf 0444 c2a4 8e89 d13f
000001d0: 3bd2 facc 98b1 d5bf 40dd 76d7 700e bf3f
000001e0: 0d83 35c9 3480 c5bf 065e 5c50 90ed debf
000001f0: 1aa3 7158 531a d8bf 8fe8 163d cc7a df3f
00000200: 3cdf a8be 8c67 e7bf 3187 8175 5543 9fbf
00000210: 0984 2f3a 269d e3bf aa7d 496a 581a da3f
00000220: a62d c251 4b4e c6bf e5d7 29f3 a1d4 e13f
00000230: a9fe ebb6 3e2e dcbf 454b 866a 786e e3bf
00000240: c0b0 d82b c06b a5bf ae03 8f92 586c 89bf
00000250: 0b8d 79a1 7752 cebf a59e 54ec f5fc bb3f
00000260: a787 7bde 791e d03f 5d89 22a9 082d dabf
00000270: ab3d c771 76bc e23f 50de 2a08 a7e1 d9bf
00000280: 1a9d 3093 7c8b e2bf 951c f86f 52dc d5bf
00000290: 1c86 e1a2 aae4 d5bf 0a7e 1455 2cd3 e2bf
000002a0: 0cda 4e4e c264 e7bf 40a6 36a8 a3e3 bbbf
000002b0: 5635 f497 b45d e43f 01db bde0 5d5b e03f
000002c0: 3c99 b451 f043 e5bf 2a1f 23b6 c609 dbbf
000002d0: 2cf6 5b40 0a49 e0bf 6cc7 64f3 024a e43f
000002e0: d79d 920e a1ae dfbf a97e 636a f33c 953f
000002f0: 6853 e935 1b52 cd3f a17d cc36 3c5a e2bf
00000300: a0c4 675c fe19 d6bf c488 b6db ff36 de3f
00000310: 9f2a a016 c6b6 b5bf 0d0b 07c4 fccb ddbf

fc_in.bias f8 [50]
0.00801275271229756 0.25511546044197253 0.4289512597318498 -0.41205507738827396 -0.36534644347464684 0.05579644707662087 0.6490290073399894 0.019292423716454527
-0.020968619261751413 -0.017296142660712686 0.4311635665523355 -0.3285773085387939 -0.3425463449214873 0.6224674009877282 -0.5808987767094466 -0.5919214263899026
-0.2549253649431844 0.12681253464158407 -0.651675762779151 0.2985716683987336 0.5514029927215914 -0.15286114079359003 -0.1877376170988827 0.18891828971698157
-0.5165803258429649 0.20579633307244077 0.2868655217037008 0.6337836727273449 0.15657157397815605 -0.5561587742858558 -0.38962718806089836 0.6886406593326472
-0.32482904470634133 0.5031686531867998 -0.6869869934557236 -0.6124181470304737 -0.49507280857785635 -0.029987315522410123 -0.4186578525351956 0.34240764202015955
0.6181278011747561 -0.49438254946324495 0.45701154669525035 -0.7050788547046833 0.662007162935201 0.3222187512231967 0.6730868591326389 -0.20244700194239923
0.5661749179201199 -0.3419997796244934
00000000: 9c51 cd76 fd68 803f 2058 d3cb cf53 d03f
00000010: 3e15 08fc ef73 db3f fe22 6242 1c5f dabf
00000020: cebe 9b0c d661 d7bf 6baa da16 5a91 ac3f
00000030: 76c7 157b d8c4 e43f 95e4 b0a3 64c1 933f
00000040: 5ed0 e237 cc78 95bf 2681 4c7c 14b6 91bf
00000050: 816a 6412 2f98 db3f c36f 981e 6907 d5bf
00000060: fe55 3381 47ec d5bf 6c30 42c1 40eb e33f
00000070: 811c 0808 b996 e2bf 84ae 0434 05f1 e2bf
00000080: 9484 567a b250 d0bf 9115 81a4 643b c03f
00000090: 106f 1721 87da e4bf d038 d257 cc1b d33f
000000a0: fffb 94e3 17a5 e13f 08d4 4430 f490 c3bf
000000b0: 0897 d546 c907 c8bf 2db0 f979 792e c83f
000000c0: f414 a876 d387 e0bf d667 17c4 8857 ca3f
000000d0: d74f 8434 015c d23f 6e49 63b2 f447 e43f
000000e0: 1d16 dc8e 890a c43f 481e 5e7c 0dcc e1bf
000000f0: f0a7 96df a6ef d8bf 75f2 d022 5809 e63f
00000100: 847f f3c2 ffc9 d4bf d4e8 b925 f519 e03f
00000110: 2c6e b525 ccfb e5bf 3621 1ff1 ed98 e3bf
00000120: cbc4 7edc 45af dfbf eeb5 daad feb4 9ebf
00000130: 5c8b 364e 4acb dabf c321 18be 01ea d53f
00000140: 2f68 59f4 b3c7 e33f 6718 6ab4 f6a3 dfbf
00000150: 9ed4 bc5b ad3f dd3f 18d9 c187 0190 e6bf
00000160: 25c8 50a5 292f e53f 7d57 aa65 3b9f d43f
00000170: 04f2 ea73 ed89 e53f 7a07 428a c8e9 c9bf
00000180: 6a09 89dc 1a1e e23f 717d 2e0b 53e3 d5bf

fc_out.weight f8 [1, 50]
-0.02623369977340724 0.0885184528559479 -0.11254505532734618 -0.08830511755233833 -0.06549714902611092 -0.07475133079992395 0.11163694196069784 0.2932132749019018
0.1112237227721305 -0.16196436607050863 -0.07863229261776525 -0.01906368618296555 0.15546085153998748 -0.015091564181399435 0.001979028872372302 -0.07989829128074931
-0.0975230182120725 0.12420155098887745 0.1103420181704106 0.014559528294809524 -0.09975460640337888 0.07529139656514172 -0.25579527822329573 0.14067593337669745
0.024015859122009434 -0.09274602702422839 -0.026254771950406496 0.07714991477766142 -0.13586552061977897 -0.11277722853268624 0.15761882014960452 -0.10217828820076484
0.10823818159119085 -0.10879014144470425 0.14790719346520215 0.13958452731168122 -0.11678851248833967 0.139159955278181 0.14488045761559923 -0.08438239886114589
-0.13299813892942994 -0.07088753448195426 0.0800622081637837 -0.09403903832742978 0.0289107956693465 -0.14210856047633827 -0.11114275780916984 0.02723953134660696
-0.0635322616282387 0.14924503515282686
00000000: 94c8 51ca 01dd 9abf 3cdb 1b34 25a9 b63f
00000010: 421c f5b3 c0cf bcbf 2cec f407 2a9b b6bf
00000020: f062 0cd1 6bc4 b0bf 233f 1e39 e722 b3bf
00000030: 4824 bf16 3d94 bc3f ff3a 9d9c 01c4 d23f
00000040: e47d d86b 2879 bc3f 4af2 b193 3fbb c4bf
00000050: f6ea 33f5 3e21 b4bf eec5 c952 6e85 93bf
00000060: 5d16 9624 24e6 c33f 3636 d674 53e8 8ebf
00000070: b416 1c09 5336 603f 1f9e 0ee4 3674 b4bf
00000080: fdfb d3bd 44f7 b8bf a215 9c3f accb bf3f
00000090: 1ba3 6adf 5f3f bc3f 2f9d f8ce 62d1 8d3f
000000a0: babb 2094 8489 b9bf 08de ea05 4c46 b33f
000000b0: 7c2d 9c28 f35e d0bf dbf5 9742 ab01 c23f
000000c0: 01b8 0e06 9d97 983f 8f2a e720 34be b7bf
000000d0: 0351 90eb 87e2 9abf 58f7 dbc8 18c0 b33f
000000e0: b8a4 db97 0a64 c1bf 300a 48ec f7de bcbf
000000f0: 8169 e37e da2c c43f fbfc 2e36 5b28 babf
00000100: 33d8 1c5a 7fb5 bb3f 1ad9 a1b3 abd9 bbbf
00000110: 225a 6377 9fee c23f b367 eae1 e7dd c13f
00000120: 9197 af19 dae5 bdbf f792 6a50 fecf c13f
00000130: fded a45d 718b c23f 5376 77bb 159a b5bf
00000140: f1bc 9040 1506 c1bf e647 4b7a af25 b2bf
00000150: b680 b5f5 f47e b43f c9e1 2942 f112 b8bf
00000160: 5dcf 9aa7 ca9a 9d3f 151f dd01 9d30 c2bf
00000170: 2946 fa0d da73 bcbf 830d 2b01 aee4 9b3f
00000180: cb27 ef79 a643 b0bf 7d2f 8918 761a c33f

fc_out.bias f8 [1]
0.08628017332625296
00000000: 6abe ba1a 7516 b63f

fc_hidden_list.0.weight f8 [50, 50]
-0.01513456702906004 0.036634924154791026 0.061938341096700704 -0.18879940697810907 0.1302476913580026 -0.026829959473335965 0.22995559886294462 0.2268956239131477
0.08141127400853619 0.09771882905613692 -0.050397437773553565 0.032829042726912845 0.016723793093793723 0.13504586415991582 -0.03911182347468307 -0.024553033497371788
-0.12794097417132555 0.13681954006592525 0.028923328430090055 -0.06193191672450031 0.11517046153456625 -0.0637786029685738 0.04232007484770621 0.09256269773760817
0.10098224990720113 0.15151151852850295 -0.11652307588626047 0.017370519386786538 0.10738550788496566 0.043620979946439285 0.01344867421778356 0.1507854275461147
-0.054379041228976965 0.10084044075227071 -0.009369767022591166 0.12041024889244464 -0.144975453927913 0.043033755567384584 -0.14424324534521926 0.03908647251994782
-0.003922831189090072 -0.06901687763419506 0.024613710108535723 -0.16787371334719292 0.23307114863251066 -0.04918414215240583 0.1403628316983403 0.05254615321456866
0.025341572712554463 0.1144830461868605 0.017168230108915196 0.10912187557270765 0.2752532749080893 0.12486015277056164 0.05645859981628715 -0.10451032591878678
0.1500386248180406 0.16756869344372094 -0.17792479596918007 0.16754414078618174 0.007870336649335404 -0.1939526888375783 0.0007136864080501794 0.028619984284561834
-0.034612393846199206 -0.07567973669554368 -0.11951597056120475 0.16816553193737788 -0.07271780176607048 -0.16322838601340306 -0.10728815937705231 -0.21453025373430132
-0.03966289098700425 -0.14239033802861634 -0.12577854835096022 -0.1920759820253993 -0.05270786141953297 -0.1248058339437686 -0.1113738737776342 0.026420557542104362
-0.038758900508635445 -0.009407702315962163 -0.033966525377352993 0.09459524519960233 -0.2672561832885098 -0.04173885741415081 -0.13865155328602485 0.00622984209610594
0.11561949820061576 0.24359513492024032 -0.010712810998678681 -0.11349121924534455 0.07516602098937081 -0.14647764271827007 0.07699589966335148 -0.12765969907629215
0.002751516043450103 0.18516493345651827 0.11847908125759588 -0.07827921193639571 -0.05126089305680655 0.046645280583036415 0.019026695570570722 0.029183739818811415
0.05185927465239054 0.03240146056920342 -0.07854799121601494 0.06961900327434116 0.05120256082286057 0.05712478427946618 -0.030212129041347537 -0.04285415685062218
0.05460147760643646 0.06988573362182367 0.11455473306115538 0.12542378671072635 -0.12150863080060145 0.12002331032398612 0.11154581084473313 -0.1326608128674249
-0.1492909891825549 -0.06594554336043844 0.07016133075747678 0.037212256972760455 -0.04054056771605937 0.16747111911920945 0.028239553146826073 0.09011165322994563
-0.03500083781899028 0.010866014763704331 0.0570108768708146 0.13178507267455275 -0.05984283509192903 0.010834420191124024 -0.013354581497085835 0.07928819843445513
0.05727134481329629 -0.091039097611421 -0.015012481362087809 0.039729559783473055 0.01483724783187336 0.01367197873148232 -0.04470093675906642 0.13026144233553574
-0.06362688957006626 -0.10407565399661285 -0.06516584234140642 0.1246096255595099 -0.023718108296810023 -0.043079401985336635 -0.06232089049654385 0.1064469559616638
0.13554616672687786 -0.02393900763642816 0.13292995343257105 -0.14989711786356547 -0.016532926105198284 -0.13163214365638992 0.1265059184298708 0.05703058461879509
0.07938670350021947 0.008019127996881979 -0.10953258032378543 -0.2161191250425469 0.03929040901472564 0.06553339464304189 -0.004024583629988521 0.07549599205378879
-0.0468298577098881 0.12428075382661581 -0.04905153831241852 0.17124918615743512 0.04159135180242871 0.0911533189143093 -0.07846936663705531 -0.09167621013298058
0.1851663904646445 0.08869275024305388 -0.0812399165618695 0.044227673357991694 -0.062140181134876946 -0.11372176683095946 -0.01732893149008681 -0.1475498594944146
0.10677905098992356 0.04364796091276518 0.05799292950303437 0.0007462802304390788 0.008184221257299432 0.0765956782313386 -0.0016421501939024657 -0.01406246509134158
0.08152118449985103 0.08768695151808965 0.07091025188844773 0.019368319955384468 -0.024262197127655323 0.022969554151322534 -0.16737714718502916 0.12497229948512487
0.06136705922731182 0.06509251774415357 0.012119048081945971 -0.028213060025269354 -0.041493391469114876 -0.19259844638320345 -0.10737088850707552 -0.0630482080188367
-0.08431641098818572 0.15408721271485565 -0.13944304302095792 -0.09299715572029742 0.07410359154009141 0.04754355746166049 0.11418317141268666 0.02092830318425515
0.01006001239706758 -0.109313019188829 0.1737415704045332 -0.17768990646553123 -0.1734841691918589 0.061118973048467265 -0.07214245027130245 0.079161231846942
0.016765740800507516 0.1691875249002002 -0.1748541126761631 0.04334089691964326 0.06210486419957723 0.08640740430334834 0.19550459559126804 0.019051420378258292
0.052601291405527224 0.06519041362087899 -0.08046454699273618 0.22754357745275564 0.028146128231160666 -0.16183429948049652 0.10007059946852093 0.14403591313389855
-0.12821898348036595 0.021715136377847534 0.10931205011888032 0.11590791300716687 -0.0875926546023322 -0.1279760264522819 -0.012643390347005026 0.03283690823692275
0.09390874783944672 0.1585089592164057 0.039352234051762705 -0.042943928123354264 -0.1392472243149978 -0.18277887890472444 -0.040674963514515224 -0.0302407879235517
00000000: 4c74 6e33 dffe 8ebf e8c4 4512 d0c1 a23f
00000010: fff4 c1da 61b6 af3f 75d2 3c37 942a c8bf
00000020: 3f8d 61d3 f4ab c03f 57c4 f619 5079 9bbf
00000030: 2500 5360 2f6f cd3f 81ff 2772 ea0a cd3f
00000040: 8f71 6487 5ed7 b43f b7e0 ffe6 1904 b93f
00000050: 7347 1466 b1cd a9bf d9fd bde1 f7ce a03f
00000060: ac95 9cc1 0a20 913f 5c71 03d1 2e49 c13f
00000070: 69df 6b05 7706 a4bf b922 8e2f 6e24 99bf
00000080: 402e f1ad 5e60 c0bf 7db9 047d 4d83 c13f
00000090: 0379 cbb6 139e 9d3f 0616 d249 8ab5 afbf
000000a0: 8a95 c1b5 cf7b bd3f 7c41 ef65 cb53 b0bf
000000b0: a6ce de12 faaa a53f c0d0 9c5f 30b2 b73f
000000c0: 15f3 d304 f9d9 b93f 3f0b 86bc ba64 c33f
000000d0: 2b2b 29d0 74d4 bdbf f51e b9d2 93c9 913f
000000e0: ad26 6edc 9d7d bb3f fb2f 9434 7d55 a63f
000000f0: 9efe 847f fa8a 8b3f 7910 03d8 ef4c c33f
00000100: 3024 55d7 91d7 abbf af2d 25db add0 b93f
00000110: f820 77d7 7430 83bf 26a5 18c1 34d3 be3f
00000120: 0cec ab40 8e8e c2bf 476b 9239 8508 a63f
00000130: 849b b60a 9076 c2bf 04dc 6062 2403 a43f
00000140: 684f a3fa 6211 70bf 4097 4f10 17ab b1bf
00000150: b92b cc1f 5634 993f 3c96 57c6 e27c c5bf
00000160: e446 8280 46d5 cd3f 0d84 0df4 a92e a9bf
00000170: 08f2 dbc5 68f7 c13f 8da2 2c53 54e7 aa3f
00000180: a756 1e28 24f3 993f 84ab 51cb c24e bd3f
00000190: 5a58 646b 8c94 913f fdea dc46 69ef bb3f
000001a0: 8f37 76e9 bf9d d13f ca1e b9c0 d5f6 bf3f
000001b0: 58eb 933f 24e8 ac3f 945d ea4f 30c1 babf
000001c0: 6a7a 5d35 7734 c33f 344d 1615 e472 c53f
000001d0: 97e4 ea5d 3dc6 c6bf b012 a81e 1672 c53f
000001e0: a4a5 23b4 521e 803f 3bab c313 71d3 c8bf
000001f0: 6851 1ee4 d562 473f 8891 0ea2 8e4e 9d3f
00000200: f31d 3637 b7b8 a1bf bcc6 134a bf5f b3bf
00000210: 8efa e840 9998 bebf 4224 feb9 7286 c53f
00000220: ca1a 6c44 a29d b2bf 4c6c daf1 aae4 c4bf
00000230: f3c0 c59f 3c77 bbbf cb4c e533 ba75 cbbf
00000240: 9ed8 4ec7 b14e a4bf 9cb5 8cba d839 c2bf
00000250: 5355 daef 8219 c0bf d3b5 921e f295 c8bf
00000260: 0ef7 135a 86fc aabf 4474 236f 46f3 bfbf
00000270: 21f7 8089 ff82 bcbf 7d79 579a fd0d 9b3f
00000280: 971d 3ae4 34d8 a3bf e071 386e 5844 83bf
00000290: ae18 4f77 0f64 a1bf dc48 7ddc 6437 b83f
000002a0: 0730 b8ad b91a d1bf fbe2 21a7 cb5e a5bf
000002b0: 1098 7387 55bf c1bf be07 fe80 7684 793f
000002c0: 0e34 8d4b 3d99 bd3f e03b f918 202e cf3f
000002d0: eeb5 1927 99f0 85bf 50bb 0ab3 c20d bdbf
000002e0: d477 eb91 143e b33f 6efa 8886 c7bf c2bf
000002f0: dded fad6 00b6 b33f 5862 462c 2757 c0bf
00000300: a723 79ed 588a 663f d3e7 c70a 7cb3 c73f
00000310: b8f1 4223 a554 be3f 7d35 393f 1b0a b4bf
00000320: 1a48 7c26 de3e aabf 61d8 3be5 e3e1 a73f
00000330: 8bfc e7ec bb7b 933f 2617 63a0 57e2 9d3f
00000340: 48aa 4081 4c8d aa3f 8b87 f99a ec96 a03f
00000350: 9e74 709d b81b b4bf 4350 3e0e 8dd2 b13f
00000360: 4149 69d8 3837 aa3f fbef 8ab0 753f ad3f
00000370: 8752 b3a8 edef 9ebf 5b97 57e4 faf0 a5bf
00000380: 370e 4491 b9f4 ab3f edd9 5c0c 08e4 b13f
00000390: 2084 1980 7553 bd3f fe11 08fb e20d c03f
000003a0: fe66 788b 301b bfbf d563 9900 d9b9 be3f
000003b0: 7f7c 9529 448e bc3f 8ff9 5c8e 07fb c0bf
000003c0: 3833 1096 f71b c3bf f7ce 0ca0 cee1 b0bf
000003d0: 6915 0ccd 17f6 b13f 64ad 6a25 7c0d a33f
000003e0: 2be5 00b9 bbc1 a4bf 7d1d d291 b16f c53f
000003f0: ce88 e054 d4ea 9c3f a871 9cab 8e11 b73f
00000400: 79c3 873b a1eb a1bf 913a 62d0 eb40 863f
00000410: 3c55 5a97 8730 ad3f ec7c 9e50 55de c03f
00000420: b450 3d57 b8a3 aebf c4d0 2243 5b30 863f
00000430: 5806 4196 a559 8bbf 2118 3c3b 3b4c b43f
00000440: 0c2d f171 ab52 ad3f ddfd e59a 564e b7bf
00000450: 9616 db23 ddbe 8ebf 63b3 e8cf 6e57 a43f
00000460: 48b6 9ab1 fd62 8e3f 90c4 2fec 0d00 8c3f
00000470: 7425 f68a 0ae3 a6bf b165 612d 68ac c03f
00000480: e281 d911 da49 b0bf e5aa 39ba b3a4 babf
00000490: a731 ac69 b5ae b0bf 9d7e 8b9a 6ae6 bf3f
000004a0: acc5 d44d 8f49 98bf 3c07 51dd 800e a6bf
000004b0: 0c9c 1415 86e8 afbf 8b35 9d92 1b40 bb3f
000004c0: 5255 98a8 9359 c13f 54af 969b 7783 98bf
000004d0: c36a 5345 d903 c13f c68c 7e29 d42f c3bf
000004e0: bc4e b7e3 01ee 90bf 0aa4 0d74 52d9 c0bf
000004f0: 0410 348f 5831 c03f e374 9edf 1c33 ad3f
00000500: 074c 45df af52 b43f ff90 e923 556c 803f
00000510: 904f 56c2 530a bcbf 1f87 0c9f caa9 cbbf
00000520: 1988 875b df1d a43f 72a8 c9ea cbc6 b03f
00000530: b411 22f1 147c 70bf 12a0 d990 b453 b33f
00000540: 2d3c ae46 15fa a7bf 7521 350d ddd0 bf3f
00000550: b59b bd81 481d a9bf 6ca3 014b 7eeb c53f
00000560: a562 932f 764b a53f 36a8 a8eb d255 b73f
00000570: 12a9 7183 9116 b4bf eaa5 5794 1778 b7bf
00000580: 0698 ae43 88b3 c73f 9fab af6d 91b4 b63f
00000590: db53 c3a0 23cc b4bf 6d2e 4d75 02a5 a63f
000005a0: dece 7b7b d6d0 afbf f7de 61a5 de1c bdbf
000005b0: f422 19e8 acbe 91bf 7569 87ee e9e2 c2bf
000005c0: af4e e633 df55 bb3f 6898 5089 0659 a63f
000005d0: a1c2 3acf 3fb1 ad3f 3a3b 7997 4074 483f
000005e0: b589 2595 e3c2 803f efbe 043d c69b b33f
000005f0: 2106 3058 ade7 5abf 46fe 581d c8cc 8cbf
00000600: a9a8 5b85 92de b43f b55e 0eed a672 b63f
00000610: 93df cf9c 2c27 b23f 82b9 25f3 49d5 933f
00000620: 8200 c57c 30d8 98bf a6d6 88af 5485 973f
00000630: 10f5 a046 9d6c c5bf a6cc 3143 2ffe bf3f
00000640: 15b2 ddd0 806b af3f 97e9 ec3a e7a9 b03f
00000650: 8068 5d19 dfd1 883f 20b4 8368 e2e3 9cbf
00000660: 7c4e b82e 9f3e a5bf 5cf6 3cde 10a7 c8bf
00000670: 862b ae96 a87c bbbf a826 8367 ed23 b0bf
00000680: add9 b5a3 c295 b5bf f2c9 ab39 21b9 c33f
00000690: 9101 b706 45d9 c1bf f78f 705e a9ce b7bf
000006a0: 324b 2ef6 73f8 b23f 3edd dd10 a157 a83f
000006b0: d296 f8ba 1b3b bd3f 11d7 f2a6 3a6e 953f
000006c0: 102c f101 589a 843f 236b 7122 f0fb bbbf
000006d0: 64ec 6bed 293d c63f 06a4 8cf8 8abe c6bf
000006e0: ffc0 86b0 ba34 c6bf 1209 d16c fc4a af3f
000006f0: 848c 9178 ed77 b2bf d7c8 e415 e943 b43f
00000700: febe b9d1 092b 913f b134 2bd3 efa7 c53f
00000710: b7f2 c19b 9e61 c6bf 0fc7 b22d c730 a63f
00000720: e9c4 5171 35cc af3f 3679 9daf cb1e b63f
00000730: 321f 246a 4b06 c93f ae2c de2d 3782 933f
00000740: 69d2 a074 8eee aa3f f2ae 83a6 51b0 b03f
00000750: e73d d215 5399 b4bf df86 c9df 2520 cd3f
00000760: 5824 0cb1 56d2 9c3f 0be5 d17f fcb6 c4bf
00000770: 5027 0210 3a9e b93f 1507 2ed0 c46f c23f
00000780: ff23 63ca 7a69 c0bf 6abd 4822 7e3c 963f
00000790: e6bd 51e0 dffb bb3f 09a1 b617 24ac bd3f
000007a0: fe07 e3e2 786c b6bf 2c6d 24b8 8461 c0bf
000007b0: c857 6820 c7e4 89bf 8f6b f5cd ffcf a03f
000007c0: 225b c758 670a b83f 0f8e fa85 054a c43f
000007d0: 62c0 8ddc f925 a43f 7402 b41d bffc a5bf
000007e0: c0ef 3e61 dad2 c1bf 90cd a55d 4c65 c7bf
000007f0: e925 1f4c 59d3 a4bf 6836 8cec 70f7 9ebf

fc_hidden_list.0.bias f8 [50]
0.06191757725622257 0.02839813036372888 -0.011387102374427263 0.11086522888952922 -0.06596555289178363 0.06195951718615128 -0.11770292975082357 -0.027366269438841025
0.05540170086471689 -0.11531153566500967 -0.06654253356005711 -0.06949366644675763 -0.06437873252824881 0.0769772261035743 -0.13695036584057355 -0.0006980165251864122
0.11935821903251817 -0.1070255137334745 0.08675440210811397 0.05034920640317404 -0.011251919692269916 0.10536455498528746 -0.05183918649505671 0.07179043512471349
0.03521402264558698 0.15031636857501007 -0.004664361174154081 -0.016192087101025838 -0.13761491646089333 0.025768833024525054 0.005740012127586006 -0.054051691070528096
0.07158396191756128 0.008423993925453009 -0.09903801702165319 0.13396406750728035 -0.005252299977440374 -0.08152320693297081 -0.08805678900812976 0.010863363362448199
-0.10519597211737707 -0.0988440187292488 -0.0498575158304646 0.16957932181855778 -0.014660143768082268 0.04367905421148303 0.02855306504850073 -0.0412846665164919
-0.11296691246426976 -0.006167874507858938
00000000: fcde b922 a9b3 af3f 0a13 b844 6614 9d3f
00000010: 28de 5a02 1f52 87bf c915 58e4 a961 bc3f
00000020: 5830 5554 1ee3 b0bf d81e fb67 28b9 af3f
00000030: 0b55 ec79 c721 bebf 426d 0341 e705 9cbf
00000040: d5a5 b69a 9c5d ac3f 9362 888a 0e85 bdbf
00000050: 1ff5 6e75 ee08 b1bf 33ff aa40 56ca b1bf
00000060: 634a c4e6 1f7b b0bf 7ad2 a68c c7b4 b33f
00000070: a1f1 3aef 9687 c1bf cc3f e912 63df 46bf
00000080: 6ee3 409f 428e be3f bba7 5229 0666 bbbf
00000090: 44a0 d657 8935 b63f da2a c305 5fc7 a93f
000000a0: c59e c318 3f0b 87bf 6cc4 d1e5 2bf9 ba3f
000000b0: e286 4b75 aa8a aabf 97b8 06a3 db60 b23f
000000c0: 372e 3f87 9207 a23f aca4 8a17 913d c33f
000000d0: ba11 32eb ef1a 73bf a528 3692 a894 90bf
000000e0: 6916 d296 5d9d c1bf e4bb 621c 2563 9a3f
000000f0: 77b2 ddc5 d682 773f f000 e2ca a9ac abbf
00000100: 0ca2 5a97 5353 b23f bfcc 4a53 9940 813f
00000110: 622f 2b34 8e5a b9bf 3e36 640c bc25 c13f
00000120: 8836 1c8a 6f83 75bf f363 a473 b4de b4bf
00000130: 790e fbc4 e38a b6bf 0124 eef2 873f 863f
00000140: 8741 ea8b 1fee babf f4ea d873 d74d b9bf
00000150: 5f3e e79f ec86 a9bf b2ef a474 c6b4 c53f
00000160: 9afe 4e30 2306 8ebf 5591 b7da 195d a63f
00000170: 5be2 55c2 033d 9d3f 8479 0789 4323 a5bf
00000180: 0c6b 904a 66eb bcbf 7fdd c034 7c43 79bf

fc_hidden_list.1.weight f8 [50, 50]
0.08810187135405569 0.06885296871344299 0.10975466069447717 0.05006532781825627 0.09591676917352303 0.05952870790937475 -0.10978102272498586 0.09623632460854781
-0.10963888541115775 0.14976493256605175 -0.06543683090727723 -0.051641789843608114 -0.04681107287478219 -0.03389876132453908 -0.015520728335005986 -0.12480798974273632
-0.12137489877509482 0.21571373297176497 -0.06916256041581335 -0.011517995855888027 -0.01949291368076641 -0.06899798097790598 0.08760513063979344 -0.17879663313012845
-0.0932571994449731 0.07896193339483716 0.07120368074985645 -0.13456048118274866 0.027810650223246327 -0.06295325406084241 0.047490792278680964 0.08378097114918101
-0.031239510598463055 0.09034431943758123 -0.09002506724625862 0.05586819109787878 5.654619796189182e-05 0.03843848096281805 -0.006997394574928669 0.10796334683002878
-0.0025760939605560525 0.155982637083727 0.1862168253925174 -0.025539826307395395 0.015930403882223023 -0.03634612979199874 -0.02146366668750587 -0.07038142473356664
-0.07605828297138725 -0.07316649803520758 -0.02820063382200533 -0.12503289117486596 -0.12755928529796806 -0.0050638643431411045 -0.05276960794589209 0.006263350793514896
-0.004012316497317254 0.004305320441916949 -0.03169643031009592 0.019114070820049775 0.1408195008492225 -0.12128507013679421 0.06969756075555497 0.16347973363483964
-0.09653172404833257 -0.04950117733776727 0.09498169506120219 0.005723310187965611 -0.06824266389297859 0.11123813614773453 -0.10740969223938333 -0.0278042058603967
-0.08331893230204257 -0.06022917364476684 -0.018730097739477067 -0.027271571861749985 0.18139802388409487 0.08633501911295596 -0.05241382203991698 0.02408091354185976
0.10237632598794948 0.019848902033122395 -0.14466578244302952 0.0636714865372325 -0.05008239933942896 0.04625368184194919 0.07012230213433157 -0.09697559230646453
0.049472708354190514 -0.1267587800221528 -0.07364139849004989 -0.1209628227717447 -0.054003111230352153 0.10508768889035972 -0.08276249835368178 -0.012666853811349396
0.03896562017200554 -0.13213929697838173 -0.049844390209539326 0.029648584066203337 0.03475469175750274 0.19052249250865014 -0.03508896050034958 -0.010691955834274111
0.08358577034652173 -0.07659664973969216 0.017565032693498028 0.10663269314003525 -0.072378279054818 0.026531852909863287 0.11011696133172716 -0.1546182486194371
-0.1743174105337778 -0.002359004996689661 -0.15093357792276102 -0.13723311086493883 0.10955538908425558 0.11273269858081134 0.053205250329502615 0.03834132063707309
0.09211788633345055 0.04261831102402535 -0.18091022583500316 0.12873812328434833 -0.004110063121990667 -0.019006984018887396 0.14775768762768945 -0.03164734120490483
-0.05772057128105353 0.04309351153410534 0.16288769978405437 -0.11409878776470599 -0.09271561003288291 -0.0067302776124343305 -0.03345661604839291 0.009092385032609854
-0.0829825839716372 -0.1405852402549866 -0.06448475286257331 0.045750505375439794 -0.031355595337447605 0.1549156395669587 -0.09541470150810237 -0.08886061174887187
-0.07920661144106347 0.015911404780580462 0.0994800265695669 0.10073140300379098 0.055304968885282205 0.11461438101105458 0.12029111309158966 -0.07106931042702817
-0.02078366321760157 -0.061039619513269416 0.04815742442338284 0.04045369214058427 0.12048571927155811 -0.13863616053477712 0.1851320396491195 -0.15883227121233778
-0.021882369543237228 0.114016465416722 -0.04166570163121529 0.06884293792185456 -0.10295673794471356 -0.09013470190455354 -0.06871011435826548 -0.10237484978009474
0.06335023885116393 -0.38977086416870177 0.1059142397921951 0.053721150992064384 0.05482455477310629 -0.07443958024113353 -0.003713400908938122 -0.13702527383491228
0.10198888215704391 0.05984867406565406 0.0832407705061493 -0.0025216521300920197 0.08002422862076818 0.08625332177987577 -0.05238292233405901 -0.053812265286504644
0.1405496052141644 -0.08817808756945293 0.1405892193171139 -0.009501726148057653 -0.09154337964260009 0.03352871137861322 0.10008179576805783 -0.004879066971467246
-0.10059393994313234 0.1345942235462122 -0.14868405797236756 0.031340635549622346 0.04156181533072217 0.0019202024419995981 -0.124989638724651 0.03697553160729042
-0.029022208019721177 0.14794130663688934 0.09965809304531004 -0.0830488248950531 0.09105989506780558 0.06485280205740294 -0.07952435776931885 0.11581562278971962
-0.2614468532106848 0.08269278545536438 -0.07732152582575111 0.07208686176425763 -0.037773829231522435 -0.006551349070545456 -0.06059733555493756 -0.14527882971058767
-0.12009615975606797 0.07322361967955862 -0.08293185618174194 -0.029774219531926546 -0.13532778040147886 -0.04542746078834903 -0.06066385733529591 0.19207174224871246
-0.19577791091051558 -0.09529701425176086 0.2159618508790687 0.08370993235114274 0.06422789457700046 0.013828752019553395 0.03241624621449892 0.09900502188234345
-0.050572767297662795 0.11528948310688104 -0.002461382735115379 0.09067178192335973 -0.16336811408738844 -0.060300655816459874 0.10746527996304323 0.09679598189414045
0.13006873207416111 0.09271784428175757 -0.05452935111782456 -0.023558089831305896 -0.0850669345021971 -0.09475094203739974 0.10026251286137407 0.02400414826582733
0.06730280306715344 0.11327710926649436 -0.07161672306494242 -0.11191288899610251 0.013621440377114269 0.003051144811443368 -0.05961674470490042 0.0748150756390304
00000000: 099c 2e20 d88d b63f e453 db20 59a0 b13f
00000010: ea2f 44a6 e118 bc3f 152e 49a3 29a2 a93f
00000020: c3fe bc5a 008e b83f 67ad 49fb 8b7a ae3f
00000030: 6443 53ee 9b1a bcbf 2086 e19a f1a2 b83f
00000040: e9f7 3543 4b11 bcbf 31bb ba4f 7f2b c33f
00000050: fe5c b3d8 77c0 b0bf 5f6c f8ec ca70 aabf
00000060: 47fc 2cf6 9ef7 a7bf 7311 87ae 2d5b a1bf
00000070: d421 dfe4 54c9 8fbf 807c 399a 6af3 bfbf
00000080: 0b5a cbe4 6c12 bfbf 1bb6 34f2 819c cb3f
00000090: 67f2 1737 a3b4 b1bf 1ecc 213c bf96 87bf
000000a0: 36f2 0c4b f3f5 93bf 5f46 ca07 daa9 b1bf
000000b0: d649 0f33 4a6d b63f 4ee3 f6dd cee2 c6bf
000000c0: ce92 bb2d b4df b7bf 294c 8f69 d936 b43f
000000d0: d4ea 2c88 673a b23f 6cc8 0121 4739 c1bf
000000e0: d7e1 c124 657a 9c3f a13b 5e57 b41d b0bf
000000f0: a768 658f b650 a83f dee3 1c73 ab72 b53f
00000100: b82a 7411 40fd 9fbf 3e21 5d29 ce20 b73f
00000110: e393 a4ff e10b b7bf d1db 4d6b c19a ac3f
00000120: 7832 5391 80a5 0d3f 6954 4965 35ae a33f
00000130: 1555 b4cd 4ca9 7cbf d43a cd63 7ca3 bb3f
00000140: 3fff fbe9 751a 65bf 625c 8232 3df7 c33f
00000150: 914d 83f3 f3d5 c73f 4671 f1ba 1c27 9abf
00000160: 47b0 be4e 0f50 903f a7ea 95bd f59b a2bf
00000170: fe7b e649 92fa 95bf 75ff 795d 8404 b2bf
00000180: b6b7 f33d 8e78 b3bf 505c 3924 0abb b2bf
00000190: c1ca f77f a0e0 9cbf b19b 42e9 1301 c0bf
000001a0: bef4 53d7 dc53 c0bf 0539 ecbb d8bd 74bf
000001b0: d960 b338 9e04 abbf 63f4 246d 99a7 793f
000001c0: 7be2 3102 386f 70bf c007 f3a7 74a2 713f
000001d0: 5ce2 29b7 833a a0bf 5c1d 4394 a392 933f
000001e0: 8eaa 6497 5f06 c23f 6e08 bbd1 890c bfbf
000001f0: 5e5b 0e08 b3d7 b13f 5e9d c266 e7ec c43f
00000200: e267 d095 4db6 b8bf 31f4 8ee3 3758 a9bf
00000210: 84aa 016a b850 b83f b097 5061 5371 773f
00000220: 46bd 9ce9 5978 b1bf 5c90 d23c 1a7a bc3f
00000230: 270b 719b 337f bbbf c955 72ab b478 9cbf
00000240: 28fa 5fb9 6354 b5bf 9b85 23b6 5bd6 aebf
00000250: 79be f794 fb2d 93bf 3ce4 0635 14ed 9bbf
00000260: 5013 12ea 0c38 c73f 52f5 9643 0d1a b63f
00000270: 3324 0a07 fcd5 aabf 30f9 7ac0 aaa8 983f
00000280: 9bbc 00bc 5535 ba3f e004 6044 4553 943f
00000290: 48b6 388a 6884 c2bf 5d78 5d48 c64c b03f
000002a0: 143f 8976 66a4 a9bf 7b59 a905 90ae a73f
000002b0: 901e 6302 89f3 b13f 2d6c 7775 64d3 b8bf
000002c0: b401 daa0 7c54 a93f 5087 56b7 a139 c0bf
000002d0: ee7e 25a6 29da b2bf 0c24 d667 6bf7 bebf
000002e0: adb4 3bb9 4ba6 abbf aa0e ffda 06e7 ba3f
000002f0: 49aa c34f ec2f b5bf d856 e756 14f1 89bf
00000300: 0e3f 9d40 4df3 a33f 3af0 84c3 f0e9 c0bf
00000310: dd95 ad33 3485 a9bf 0b8a bfcb 325c 9e3f
00000320: 394a f6f0 5dcb a13f 3710 3d81 0a63 c83f
00000330: 0d6a 9923 2ef7 a1bf 589d 1b05 aae5 85bf
00000340: 729d 0c86 e065 b53f 207a 9d89 d69b b3bf
00000350: 1311 e363 91fc 913f f389 b8b9 474c bb3f
00000360: 4230 7b05 6287 b2bf 4759 3382 2a2b 9b3f
00000370: 1c98 a70b a030 bc3f 3db7 97e0 87ca c3bf
00000380: 7cd8 ae6c 0850 c6bf 64f1 fa29 3153 63bf
00000390: 92f4 859e ca51 c3bf c4ef 8bc5 da90 c1bf
000003a0: b2a9 376d d20b bc3f 462b 98d5 0cdc bc3f
000003b0: be0a 48f4 b73d ab3f e27f 713c 79a1 a33f
000003c0: dac6 2dad 0995 b73f 0f2e 1e38 11d2 a53f
000003d0: 8495 bcf7 1028 c7bf c199 a0a6 7d7a c03f
000003e0: 635a 18ab b6d5 70bf 90e0 061b 9176 93bf
000003f0: 23f8 0b52 b9e9 c23f 8bf9 f58e 1434 a0bf
00000400: 9bc8 eafb 8c8d adbf 5fe5 6a4d 5a10 a63f
00000410: 8420 bf0f 81d9 c43f b370 f601 9435 bdbf
00000420: fb7f ebd0 35bc b7bf 3e83 d023 3591 7bbf
00000430: 827d 86bf 3921 a1bf 6891 dc42 079f 823f
00000440: a3b6 4bbc 583e b5bf 2a05 9978 b2fe c1bf
00000450: 3ba9 a2a0 1282 b0bf 51d9 b938 9c6c a73f
00000460: a3b9 0a31 d70d a0bf 0a1d ca92 46d4 c33f
00000470: 4fef 880e 196d b8bf 5b2c 5dad 91bf b6bf
00000480: 522f c46d e246 b4bf d3fe a94c 144b 903f
00000490: 49b4 b8e4 8577 b93f c5db 9481 88c9 b93f
000004a0: ba50 56d1 ee50 ac3f d700 183a 5e57 bd3f
000004b0: 1652 bafc 65cb be3f 238a 082c 9931 b2bf
000004c0: 1422 3e07 5048 95bf a0b9 23c3 9540 afbf
000004d0: b981 ea05 17a8 a83f 0316 7ea9 58b6 a43f
000004e0: 7508 e8ef 26d8 be3f 941a c567 d4be c1bf
000004f0: 140c de1b 68b2 c73f b004 34a9 9d54 c4bf
00000500: ab52 30f6 5468 96bf 249b 2bde 2e30 bd3f
00000510: eeee bdf3 3455 a5bf 2657 efd6 b09f b13f
00000520: 5d19 606e 5f5b babf 212e ea5c 1113 b7bf
00000530: 49bb 126e fc96 b1bf 1309 bdf7 3c35 babf
00000540: dd3d 0fa4 b837 b03f 6672 a27e 01f2 d8bf
00000550: f392 1614 321d bb3f ea91 3ab5 5681 ab3f
00000560: 5b58 89cb f611 ac3f 12e4 a9ea 780e b3bf
00000570: fa15 bfee 906b 6ebf 9956 ec4e 0b8a c1bf
00000580: c68b 6b81 f11b ba3f 3d53 a443 7ca4 ae3f
00000590: 6f8b 0463 444f b53f e0c0 c7ad 49a8 64bf
000005a0: ef56 d0c4 777c b43f 4047 379c b214 b63f
000005b0: b95e 9634 efd1 aabf 13f5 0eff 478d abbf
000005c0: 6926 ee8a 87fd c13f f3a9 55d2 d692 b6bf
000005d0: f98e 91d9 d3fe c13f 79dc 7d18 a475 83bf
000005e0: 9af3 ba0d 636f b7bf ed42 b2dd ac2a a13f
000005f0: b5ae bfe7 f59e b93f 9537 3d91 12fc 73bf
00000600: 4e46 3b42 86c0 b9bf 7445 2e2e 623a c13f
00000610: fec4 3647 1408 c3bf 3766 7139 e10b a03f
00000620: 3737 371b 9747 a53f 3a65 2aac e975 5f3f
00000630: 7346 a92a 52ff bfbf 64d4 02f6 74ee a23f
00000640: 54ab 3569 ffb7 9dbf 39d1 dda0 bdef c23f
00000650: 084d 695a 3183 b93f 6b3e e512 b042 b5bf
00000660: 5b1d 4b87 b34f b73f 47f8 e377 319a b03f
00000670: e6c8 da53 b55b b4bf 736a 3fb8 17a6 bd3f
00000680: f3a5 0b95 8bbb d0bf f65b 25b9 5a2b b53f
00000690: aecb b2f0 57cb b3bf b2ae bfd9 4874 b23f
000006a0: 265e 6362 1757 a3bf 90f2 0a60 96d5 7abf
000006b0: b7cb dd2c 9d06 afbf 833d 3427 7f98 c2bf
000006c0: 740a 8736 9fbe bebf b285 d17b c8be b23f
000006d0: 49df 18aa 053b b5bf ef3b 9d0c 227d 9ebf
000006e0: 8445 88b3 6b52 c1bf 9041 daa4 4442 a7bf
000006f0: f3cd 9b46 550f afbf bbd3 b88d ce95 c83f
00000700: 21e7 5126 400f c9bf 7125 9e97 6265 b8bf
00000710: 03c8 5a4f a3a4 cb3f 7e6c cc9d 036e b53f
00000720: acfb b242 3d71 b03f d509 59ad 3f52 8c3f
00000730: f361 b3ba dc98 a03f 9cda 1fa3 6458 b93f
00000740: 1f2e 397b ace4 a9bf e94c 848f 9c83 bd3f
00000750: 9653 35cb e429 64bf 5ce7 0712 4436 b73f
00000760: ba75 9b11 3fe9 c4bf a76e 5141 badf aebf
00000770: b891 e536 d882 bb3f 439a 9e18 9fc7 b83f
00000780: 87cf 3e9b 17a6 c03f f11d f24c 5bbc b73f
00000790: b441 7267 45eb abbf 7ad9 86a5 9c1f 98bf
000007a0: d46c a855 f2c6 b5bf cfd9 5005 9941 b8bf
000007b0: 1d1f c1d5 cdaa b93f 868b 141f 8b94 983f
000007c0: e240 1aaa c13a b13f ef5c af87 baff bc3f
000007d0: 2b1e 693b 7955 b2bf 2f38 3db6 52a6 bcbf
000007e0: a08e 8dc7 8ee5 8b3f 8cbb c6e5 b6fe 683f
000007f0: f161 9a01 1686 aebf 0d0e 1eaf 1427 b33f

fc_hidden_list.1.bias f8 [50]
0.12270806689619088 0.10762899988592801 0.09554037918751546 0.065696626658364 -0.06387107611888107 -0.019902809153421006 -0.07432981164617722 0.033738985489865175
-0.06236772144180424 0.09619167354242625 0.09695257865943795 0.060501978170682466 -0.03269349279311361 -0.05393480706402115 -0.0021020689650692983 -0.09213463065061779
0.04842150024904608 -0.10530034044616744 0.11712710070879985 0.20763522258472297 0.0943261403450028 -0.043081042001075966 -0.1424082818654633 -0.046088779518581015
-0.034093189686284824 -0.029545365310701316 -0.057094974127779814 -0.1277292443910489 -0.11792072460687571 -0.08290421767768162 -0.009215907572853371 0.1153074436277242
0.03136987398960833 -0.026516179490299198 0.03109992659794707 -0.048353056284528725 -0.019290826259104468 0.1924740344025277 -0.06694016276563036 -0.08571722475636898
0.08877215869494216 0.004342129183045204 0.02162946391738565 -0.1885994835544303 0.14012838124633975 -0.056357970259571795 0.1342602573816602 -0.1426984407468287
-0.028251326671873935 -0.06500642360060366
00000000: f246 46be cb69 bf3f c97a 9cfa 928d bb3f
00000010: 28cd 0e94 5575 b83f ab87 f47e 7ed1 b03f
00000020: 9646 17d7 da59 b0bf 3c5f a6e9 6661 94bf
00000030: 2e5f 234e 4707 b3bf ecf1 8e7e 3c46 a13f
00000040: 0f51 d677 a9ee afbf 7421 037c 04a0 b83f
00000050: 57eb 9a5a e2d1 b83f ee3a 2c83 1dfa ae3f
00000060: 4e47 ad94 33bd a0bf 287e e9d0 579d abbf
00000070: 5a62 afae 5b38 61bf 8933 7999 2296 b7bf
00000080: 8a5e fcef b3ca a83f 2155 798e f6f4 babf
00000090: 1904 05ab 0afc bd3f 63e1 3f7d ca93 ca3f
000000a0: bc8f f007 c225 b83f 4dc7 f1e4 b70e a6bf
000000b0: e956 a540 6f3a c2bf 4d5e 7dd1 f298 a7bf
000000c0: ff15 709d a974 a1bf e805 08e7 2341 9ebf
000000d0: a920 4a6d 8d3b adbf 1780 b38f 6e59 c0bf
000000e0: 0508 b577 0d30 bebf 9748 a0f7 3539 b5bf
000000f0: b0e3 062d cadf 82bf f3ce 5de3 c984 bd3f
00000100: 70e2 ba4d b60f a03f 2a1e e7ae 0e27 9bbf
00000110: 0db1 95be a8d8 9f3f 86b1 ce56 bbc1 a8bf
00000120: f72a 956f f9c0 93bf be44 8b39 fda2 c83f
00000130: 5407 de91 fd22 b1bf 0651 0865 90f1 b5bf
00000140: 81dd 63ae c5b9 b63f f004 616d 0dc9 713f
00000150: 67e8 9ec0 0826 963f 8252 f422 0724 c8bf
00000160: b4e3 580f baef c13f a181 44ae f3da acbf
00000170: beaa 4dab 702f c13f 4452 1948 f143 c2bf
00000180: 674b 7f70 eaed 9cbf f4fe 64cf 42a4 b0bf

fc_hidden_list.2.weight f8 [50, 50]
0.11202076877311701 -0.10414684192279357 0.01749797487022057 -0.05432320963442247 0.11346857605069027 -0.13456205143957836 0.1244293280004254 -0.07620166555580957
-0.07853040634850568 -0.04310020078407493 -0.019945165944931963 0.12867975669652354 -0.04636486774927631 0.07850481696484259 0.12346113775910943 -0.013726729185442918
-0.04173076411956795 0.046349657534672975 0.1373700415788159 -0.09161433425003151 -0.10702630309851353 -0.05649184169447551 -0.09050648521644841 0.09447530227023246
0.09036143235061213 -0.05965701315652406 0.062397010587696825 -0.13673237557498935 -0.09563152987395451 -0.14200834509373353 -0.044454833436622244 -0.04598312113210591
-0.0019715746076213775 0.1343986778582484 0.0030793191894052697 -0.12299784328587439 0.14858628768537954 -0.09117543759306374 0.05341774934291568 -0.1107394244246502
0.12016196749627789 0.0162894074006776 0.08333247064036234 0.082560143674566 -0.029749409604946833 -0.10832375123696145 0.1599688704577913 -0.0698761783084271
0.07409163766471019 0.02087413901564406 -0.019064222781311257 -0.13663053224120483 0.1430277487037863 -0.011706718352176619 -0.0014805106009098477 -0.03346445521546404
-0.06942685706799487 -0.002068540375615573 0.011389908037919024 0.03109639977955801 -0.10110355628090249 0.03379778484584794 -0.01218946876454559 -0.07600328236104616
0.023938007101916094 0.12976881686324349 0.015691595493724446 0.11440295796711904 0.06920482524774287 0.2487914603158585 -0.07024528698744646 0.15338525307595216
0.0728170268724405 0.020403170042522283 -0.10351076165933769 0.0653529322481008 0.1207518066638824 -0.15608508296992296 0.0988428914279829 -0.13715079738440447
0.07250655150736296 0.02842447487539636 -0.008233863299970503 0.047463414797237355 0.00396877595675638 -0.1284117611335031 -0.024308561157632386 0.14437909414711955
0.053245609945199716 0.04773671924281563 -0.0771541256236083 -0.05648530486224491 0.10098440330555744 -0.0986235062952276 0.07548433201456575 -0.1481333490228176
-0.2177009024365463 -0.10651464059991692 -0.0938154059220752 0.013115825971468015 -0.0032829825563959955 0.1251400560184993 0.1339207473515771 0.11417062540809135
-0.03866686547871493 -0.037194523060968473 0.0816573650646124 0.03722889548317313 -0.07589784050750897 -0.15360596399147355 -0.034524956310391576 0.09940055741769073
-0.02232289123966577 0.0678838510437842 0.07261480462881534 -0.061563077428730836 -0.0314945383515062 -0.10476482577776446 -0.16515946317515065 -0.321902616740635
-0.015249242456171484 0.08807184009456756 0.09121529545319035 0.057676189347951656 0.02282136496602504 0.05103514921821854 0.09533991408356743 -0.11446016381920408
-0.05236343744750461 0.012339665006717815 -0.020709983598205924 0.06920256617996715 -0.19608017452665988 0.04229579364806728 -0.06966822619438978 0.0352752960486454
0.09427547457064477 -0.036207621756271895 -0.03335653816269792 0.04039192521941432 0.025172708777314205 -0.12211946977683304 0.009406611176041437 0.10388324888868539
-0.14235755185743712 -0.11626069981653962 -0.08648423573046587 -0.07890830848657783 -8.470779880019515e-05 0.08502672116036701 -0.10443026609746517 0.05185025846775191
-0.1162893131607582 0.10392168791251423 -0.024028097431893488 0.1242999751150828 0.006447907286088029 -0.15739465360935292 -0.1287049690457264 -0.036062866582295836
-0.040175316995640795 -0.04232342784296618 -0.036188442783793254 -0.036939451679992144 0.004687757152811594 0.05786445452693785 0.015053576084535664 -0.07114617449972317
0.17475619153208477 0.04454490440463314 -0.16879249507209992 0.11086450920824735 -0.0953944110653202 0.17486443571473947 0.1469461678554912 -0.11779651513226382
-0.18190731261740378 0.02989923966123769 0.10004152013165066 -0.08021891714452191 0.07315385532122147 -0.074329905466159 0.052567595442789015 0.03447278694450231
0.1167651189648679 -0.060262297327615025 0.11868300120117685 -0.14681741880065885 0.061531244418201014 -0.08417936243188522 -0.036871826010401045 -0.020522981091870143
-0.21148803578444847 0.1323960764346087 -0.20688235594305876 0.03056285456842142 -0.017923579512489955 -0.04892987416125369 0.09363397501650374 -0.03956134028162534
-0.052861850183237746 -0.08717920793535557 -0.11783745128835263 0.03890804566669193 0.11727566415656836 0.13322929124884647 0.13153599686909734 -0.017117686854379942
-0.06887808847752547 -0.051261961411850784 -0.012285813192854584 0.057440368069191415 -0.237971777156768 -0.03110193363992549 -0.13335341050920063 0.1087469071010028
0.14572264132974827 -0.15521600472974575 0.03677500186250996 -0.12480361349918374 0.020775543928250623 -0.1060220685816707 0.04921988496245651 -0.034704151138404235
0.07491821003027777 0.08777368008741335 0.03301153565357645 0.005006413631508567 0.0416206301086625 0.11173623931079073 -0.02463637486357376 -0.09173863138580371
-0.1285863251167171 0.0015374672760926436 -0.06448275690330786 0.022507825113201124 -0.01064267334026898 -0.10085715189984332 -0.07001037769979547 0.13316058012904422
-0.011429978267572095 0.011690849055686306 -0.035402558278270366 0.12121258358143708 -0.1444528456939345 -0.10350532644138365 0.20886906255198742 -0.06808208578027067
-0.06483107140306806 0.03597332013227458 -0.10139686851751586 -0.09370288367620391 0.07358249286687558 0.04874617555192456 0.05332473479430454 -0.07326037482868217
00000000: e472 5aa2 64ad bc3f b142 0a10 5ea9 babf
00000010: ea5b 4137 fdea 913f 4c52 9671 40d0 abbf
00000020: 58eb 42cf 460c bd3f b59a 1b4d 5439 c1bf
00000030: 51d2 6cb6 99da bf3f b282 76cd f381 b3bf
00000040: fd27 0297 911a b4bf 2d24 a3c1 3a11 a6bf
00000050: 937f c96d 816c 94bf 6c9b 5509 9478 c03f
00000060: 6440 55cd 22bd a7bf 6145 7145 e418 b43f
00000070: 6b98 002d 269b bf3f 38d0 7567 c21c 8cbf
00000080: 89e2 4216 bc5d a5bf ea9d 956e 24bb a73f
00000090: 87fd 036e 5795 c13f e0dd 7279 0974 b7bf
000000a0: b5b1 9e67 1366 bbbf 1f1d 23a9 7fec acbf
000000b0: 269f 14da 6e2b b7bf dec5 878d 882f b83f
000000c0: 11fe c344 ed21 b73f d1f7 f730 5d8b aebf
000000d0: 0a45 af3f 80f2 af3f 6611 b34c 7280 c1bf
000000e0: c06b 46d5 4e7b b8bf b9e4 f756 542d c2bf
000000f0: add2 84af c8c2 a6bf 925d dc82 198b a7bf
00000100: 8971 c30e b126 60bf b76e 03d3 f933 c13f
00000110: c850 cce6 cc39 693f 6930 6462 c97c bfbf
00000120: 8512 1f1f e004 c33f 7c23 a902 4657 b7bf
00000130: b451 e83c 9259 ab3f de1f 483e 6b59 bcbf
00000140: 6c99 9e48 efc2 be3f 7680 3aa0 2bae 903f
00000150: 6a61 18dc 4655 b53f e10a 095d a922 b53f
00000160: b470 5015 a176 9ebf 9e5a f1f8 1abb bbbf
00000170: 6044 7f25 dc79 c43f 2aaa 9abc 67e3 b1bf
00000180: aa50 ad68 abf7 b23f a10d 9ec1 0760 953f
00000190: 6041 7a55 9285 93bf d536 cef9 1b7d c1bf
000001a0: e737 8db7 bb4e c23f fc88 ba23 b1f9 87bf
000001b0: a3be 2f27 b641 58bf 102f 75c9 4022 a1bf
000001c0: e633 9260 f5c5 b1bf 3e6e 7028 0bf2 60bf
000001d0: 2bee 3794 9753 873f 5b61 4e10 bcd7 9f3f
000001e0: 875b bc33 ece1 b9bf 9f29 2e79 f14d a13f
000001f0: e93d 98cd caf6 88bf e11c 217c f374 b3bf
00000200: 675d 8976 3483 983f 6cef 3bbc 439c c03f
00000210: 7ed4 de25 7511 903f fdd0 0823 8349 bd3f
00000220: 7119 2a4d 68b7 b13f 2f54 ca08 66d8 cf3f
00000230: d728 4f5a 98fb b1bf db2f d3c2 20a2 c33f
00000240: 6753 02fd 22a4 b23f 0efa 4490 91e4 943f
00000250: 5764 1c68 ae7f babf 410b b442 f8ba b03f
00000260: efe5 8d24 97e9 be3f f0e7 5f93 98fa c3bf
00000270: 6311 208a c44d b93f 9373 b146 288e c1bf
00000280: f848 7813 ca8f b23f 45b3 fb37 4e1b 9d3f
00000290: 61af be6c eadc 80bf 2e09 9fec 1f4d a83f
000002a0: 04dd 072f 9041 703f 8ebd 3eed cb6f c0bf
000002b0: 8848 bdec 57e4 98bf 0b43 cb9f 037b c23f
000002c0: 878b bd32 0243 ab3f 4fb5 ee7f f270 a83f
000002d0: 2c0c 4e6e 5fc0 b3bf 6105 2d52 a4eb acbf
000002e0: 467b 9a25 1dda b93f 6da4 27de 633f b9bf
000002f0: 52eb 5cf1 f052 b33f 88fe bf98 08f6 c2bf
00000300: d527 2388 9fdd cbbf 82fd eb21 8b44 bbbf
00000310: dbd8 4b54 4904 b8bf d01f dc5c 78dc 8a3f
00000320: b061 d1d6 e9e4 6abf a470 02e0 9604 c03f
00000330: 68c1 10a7 5024 c13f 8ba7 4a3e 493a bd3f
00000340: b5fe 56b5 24cc a3bf 1e3c 4618 290b a3bf
00000350: 4f17 6e40 7fe7 b43f 3503 2271 aa0f a33f
00000360: 2c18 d176 0a6e b3bf f12e e837 5ca9 c3bf
00000370: c577 7f4c 41ad a1bf b92a 509f 5072 b93f
00000380: b85d 4edf cfdb 96bf ccda 2808 d660 b13f
00000390: a210 1643 e296 b23f a620 6518 3285 afbf
000003a0: 24d6 7158 0d20 a0bf 2f94 7c1c ded1 babf
000003b0: fd28 7bfe f123 c5bf 5d76 d96e 0d9a d4bf
000003c0: 1fb0 1aad fe3a 8fbf 069b e748 e08b b63f
000003d0: 5cce ddb6 e259 b73f 28c4 03c6 bb87 ad3f
000003e0: 1e75 b7e0 7b5e 973f d66d ad71 4721 aa3f
000003f0: 160c fe54 3268 b83f 575c 4ce4 424d bdbf
00000400: 81b4 af66 61cf aabf 8df9 2dcd 8945 893f
00000410: 521c 0579 ff34 95bf e2cf 8a66 42b7 b13f
00000420: 7a34 7eb8 2719 c9bf e620 f454 cba7 a53f
00000430: 9442 13e1 c6d5 b1bf eb73 c585 9a0f a23f
00000440: 4786 1800 7022 b83f bf45 9e2e ce89 a2bf
00000450: 037b 08b1 1b14 a1bf 6902 ae1b 40ae a43f
00000460: 911a cde3 dfc6 993f bd77 e5b8 3843 bfbf
00000470: ae33 f0fa c543 833f 0042 94b4 1798 ba3f
00000480: 0f7d c8b2 c538 c2bf 0fa9 85df 42c3 bdbf
00000490: c4f7 14b4 d423 b6bf c120 55bc 5533 b4bf
000004a0: c4fb f9e6 a434 16bf bf7d abaa 4fc4 b53f
000004b0: 9ee7 9921 f1bb babf edf7 d0f8 1d8c aa3f
000004c0: 9956 e6ec 22c5 bdbf 01eb ed9a 9c9a ba3f
000004d0: 5fce 9e52 d29a 98bf 0d4d 0388 1fd2 bf3f
000004e0: 8e01 beee 1e69 7a3f 31a1 e80c 8225 c4bf
000004f0: c529 7188 6779 c0bf 6e56 2401 d576 a2bf
00000500: 6e96 34f1 db91 a4bf 125c e194 6aab a5bf
00000510: 3ac6 7fa4 4a87 a2bf 62a4 cb51 bae9 a2bf
00000520: ac4d 9b3a 7833 733f 4a91 96e7 68a0 ad3f
00000530: 1d76 c4c7 68d4 8e3f d939 b6bc a236 b2bf
00000540: 40b0 b32f 695e c63f 0621 3ef7 96ce a63f
00000550: 6c8c 1213 fe9a c5bf bb25 56d1 9d61 bc3f
00000560: c029 bfa3 c46b b8bf 266c 5034 f561 c63f
00000570: 441e 9bcc 21cf c23f 656a 1394 e927 bebf
00000580: e028 4c23 bd48 c7bf cec4 1402 e89d 9e3f
00000590: fe22 3531 529c b93f 5900 a819 3a89 b4bf
000005a0: 8353 2e08 36ba b23f 5e88 17e1 4807 b3bf
000005b0: 7324 83ce 23ea aa3f 63a6 0ec9 6aa6 a13f
000005c0: 2b85 449f 51e4 bd3f 226a 6828 b3da aebf
000005d0: 030c c058 0262 be3f 0ab1 1dc6 e9ca c2bf
000005e0: a0ad eaf4 0581 af3f c3a0 a458 c78c b5bf
000005f0: fd89 b72d dde0 a2bf 878d 6cf2 f903 95bf
00000600: 0241 983a 0a12 cbbf dce2 33c9 5af2 c03f
00000610: 0e8b 72fc 1e7b cabf 5806 6073 de4b 9f3f
00000620: ce66 550f 8f5a 92bf 6cd4 a322 560d a9bf
00000630: 8988 7d6c 65f8 b73f a919 644d 6241 a4bf
00000640: 1072 7c5b b510 abbf a539 f966 6051 b6bf
00000650: 1e08 875f 982a bebf 8122 615f c1eb a33f
00000660: cb4c 2b26 c705 be3f 223b 644c a80d c13f
00000670: 0c57 66ea 2bd6 c03f 9613 e484 4c87 91bf
00000680: fc05 6c91 fea1 b1bf 7ede 95ff 013f aabf
00000690: b7d1 f1ee 4d29 89bf 539e a7ec d268 ad3f
000006a0: 5931 21f4 db75 cebf 95a9 4d6f 2fd9 9fbf
000006b0: e639 797c b911 c1bf a23a 8a59 d6d6 bb3f
000006c0: 1625 661d 0aa7 c23f 21a5 1038 1ede c3bf
000006d0: a5a0 9e4c 2cd4 a23f 75d0 662e 21f3 bfbf
000006e0: 38ee e926 2f46 953f 5569 3625 4324 bbbf
000006f0: 3a09 7448 5933 a93f d68a 5914 bec4 a1bf
00000700: 7874 f4fd d62d b33f 3ecd 6cfd 5578 b63f
00000710: d8b2 0b54 e3e6 a03f 8ecc 14ed 9a81 743f
00000720: 36ad 4f9a 4c4f a53f 1b2d 9e05 bf9a bc3f
00000730: a9fd 5221 473a 99bf 8ef2 94d5 2e7c b7bf
00000740: 6568 8b46 8475 c0bf a5e4 d8ea 9a30 593f
00000750: 793d 0e24 f181 b0bf 38a7 0f93 4a0c 973f
00000760: a5fa 816f d3cb 85bf 7e3f fa38 c6d1 b9bf
00000770: 29ea 993a 33ec b1bf 15a4 62e8 670b c13f
00000780: 4761 d3b6 9968 87bf c868 da32 5ff1 873f
00000790: 96f3 ffbb 4820 a2bf 728f 58b2 c907 bf3f
000007a0: 19e8 084c 6e7d c2bf 4f0d 0738 537f babf
000007b0: 9b4a 67b0 38bc ca3f 92a6 dedb d36d b1bf
000007c0: 75d9 70e3 c498 b0bf ec49 fe52 186b a23f
000007d0: 3a15 332a 25f5 b9bf ce20 ee84 e9fc b7bf
000007e0: d1df 6b60 4dd6 b23f 07e7 993b 42f5 a83f
000007f0: 8ed1 0430 614d ab3f 3e5d fb21 31c1 b2bf
