savedModel/poisson2d_inverse_tanh/noise_0.01/ParticleWNN_0/trained_model_final.pth (torch, 131953 bytes, 20 tensors)

fc_in.weight f8 [50, 2]
0	0xbfdf66a452729979	-0.49063976336983434
1	0x3fda9c70b91b6020	0.4157983596501271
2	0x3fe9459da77b2012	0.7897480269539321
3	0x3fcd187a606189e0	0.2273095102892304
4	0x3fe3a1970276e789	0.6134753273138226
5	0xbfe23e439b74bab4	-0.5701005970239152
6	0x3fe483c9f44c325c	0.6410875102461193
7	0xbfe4bebd6cbe76cb	-0.6482836841493848
8	0x3fe300f3ba51816c	0.5938662184744721
9	0x3fe4a4429c410d0e	0.645051293548393
10	0x3fd721f814efcd62	0.3614483074627143
11	0xbfd01b61b5ed5b41	-0.25167124525380663
12	0xbfd4a5f35506c302	-0.3226288156829896
13	0xbfe087345911a758	-0.5165044536235923
14	0xbfc0fe57192a623c	-0.13276184777056865
15	0xbfe82ca773217cab	-0.755450940003262
16	0x3fe2f5da81acc240	0.5925114186011982
17	0x3fbb21c46215dc03	0.10598399538672258
18	0xbfd25b46d2ab15d7	-0.2868210847194325
19	0xbfe028ddaac11916	-0.5049885115666111
20	0xbfe964134fef0bfb	-0.793466240044267
21	0x3fe956b0bbd39e35	0.7918323200692102
22	0xbfd4c85ec58c1f33	-0.32472962657674315
23	0xbfe1e3a0032e39e5	-0.5590362608070875
24	0x3fdfab48e0fdff70	0.49482938739674065
25	0xbfe21c87e5c1ac30	-0.5659827697212503
26	0x3fe7571f645fd695	0.729385086101234
27	0xbfe166c7288e5a92	-0.5437961380110485
28	0xbfe883a88b8a812c	-0.7660715794955073
29	0xbfb442428152f571	-0.07913604409528376
30	0xbfe22554c548dd33	-0.5670570233550393
31	0x3fe11f65b5097a74	0.5350826774482145
32	0x3fe2680bc8ff364c	0.5752009320946825
33	0xbfdedcc3cc87846e	-0.4822244164807391
34	0x3fd141aae07e3504	0.2696330253900927
35	0xbfd90ef23b06efde	-0.39153724445691107
36	0x3fe56080bb96b9d1	0.6680301345675678
37	0xbf91fe6d249a1d4c	-0.01757212196255624
38	0xbfdacc2e0368baad	-0.418712142304609
39	0xbfdd34125980af34	-0.45630320301528404
40	0x3fc2682d9483cccc	0.1438042617006431
41	0xbfca38392442022a	-0.20484079618837941
42	0xbfd86eff2dfc19b5	-0.38177470675182273
43	0xbfdbe3597c06f082	-0.435751315231535
44	0x3fea9bd4416c1c11	0.8315221097735749
45	0x3fe78f004a9e302a	0.7362061936742113
46	0x3fd6de90dc15fb69	0.35733434193382735
47	0xbf9a30d36de1374f	-0.025576881009605142
48	0xbfe030f2d08706ab	-0.50597515800492
49	0xbfc885ca9d5c61b4	-0.1915829914439776
50	0x3fdf20af9c3ea32c	0.4863699937655379
51	0x3fe59b882be741a1	0.6752358300673685
52	0x3fc1618fa4dea8f0	0.1357898287799979
53	0x3f9ba6754b8b5f3d	0.027002175079217528
54	0xbfebcc1d43724deb	-0.8686662976564866
55	0xbfe39fdedf3533b8	-0.6132654532935851
56	0x3fe658bdc8e96a98	0.6983326839502579
57	0xbfb40714c5fdc1ad	-0.07823304971476004
58	0xbfe14b05ae66dd30	-0.5404079824719812
59	0xbfd50ebb5bcd34fb	-0.32902416195868484
60	0xbfded3efb0ec77a3	-0.48168556478219154
61	0x3fdbec45fd6992c3	0.43629598376564277
62	0x3fe8fedd98b58cc8	0.7811115248299751
63	0x3fccde475541b0c3	0.2255334059040078
64	0xbfb6837c63742028	-0.087943815498989
65	0x3fe2c160d1d9fe33	0.5861057375586313
66	0xbfd3514969f0bbe2	-0.30183635087717964
67	0xbfe2a1ae0c3cc1cf	-0.582236312771835
68	0x3fe84d367f64fac8	0.7594254005597003
69	0x3fca651a82762f03	0.20621043558309546
70	0xbf992a45c0d582a5	-0.02457531918969615
71	0xbfe64962e0714c77	-0.6964582809108738
72	0xbfe4f71ec9b9b273	-0.6551660480450451
73	0x3fa40bc984baacbd	0.03915242905835601
74	0x3fd719125540bb01	0.3609052498385808
75	0x3fe34a1744454d2d	0.6027942975437434
76	0x3fe031a633c1cff1	0.5060606966858342
77	0xbfd86c6f6bbe7f25	-0.38161836168181856
78	0xbfd5484e8eb469cf	-0.33253826080331533
79	0x3fd37d36f17471ed	0.3045174940068865
80	0x3fe5a1bcb78026aa	0.675993307494726
81	0xbfdff3c1a5e9c8f2	-0.4992527122732461
82	0xbfbffc0d783ce9fb	-0.12493976769921027
83	0x3fd31e9e9ad19585	0.2987438690091369
84	0xbfc345d1923c12bc	-0.15056819572796154
85	0x3fe5ce55708812a8	0.6814372251397645
86	0xbfe2c315a27adc04	-0.5863140271602565
87	0xbfc219d17c32ad36	-0.14141291202882095
88	0x3fe42f15ad2fbc38	0.6307476408527526
89	0x3fe6a9e84ac46607	0.7082406482979317
90	0x3fc7be2bf22511fa	0.18549107860066255
91	0xbfe09e6a2d0fc966	-0.5193377380476647
92	0x3fbdaca59b58099c	0.11591563265395738
93	0x3fe5e5750ca0bbf4	0.6842599150312467
94	0xbfd7b488c9f3985f	-0.3703939411337895
95	0xbfdc3db6a997bbd8	-0.4412666946581658
96	0xbfe98fdbd22242e6	-0.7988108734299117
97	0x3fcce64e97c013e9	0.22577841195757678
98	0xbfd818babe8aae1b	-0.37650936706151733
99	0x3fe396017c03423c	0.6120612547038671

fc_in.bias f8 [50]
0	0xbfe7070c2adbe997	-0.7196102940645684
1	0x3fcd9c81a1a8bd55	0.2313386954642548
2	0x3fd3cb844afa9fba	0.3092966778008265
3	0x3fd5e65c3d5b5e17	0.34218507758984756
4	0x3fc4d9d889682a40	0.16289812764473943
5	0xbfab822172428aa5	-0.05372719306730759
6	0x3fe5275b78235283	0.661054358143318
7	0xbfdc90502c158c88	-0.44630817704291603
8	0xbfdb747326126b41	-0.4289825317188623
9	0x3fe4ca2cac7c016e	0.649679505237186
10	0x3fd57ed296b18611	0.33586563793332497
11	0xbfe6432cb0601192	-0.6957000202969985
12	0x3fe041d897eb9a01	0.5080378501123165
13	0x3fe01c3a23352bf3	0.5034456908846309
14	0x3f97a784f1456e41	0.023099972940469952
15	0x3fde77127f617070	0.4760175937606226
16	0x3fe6b7cb6532bea8	0.709935853626992
17	0xbfc2e8940491b362	-0.14772272322752672
18	0x3fc1a324b3a8b3b5	0.13779124042903637
19	0x3fd8f6f0fcbed8d9	0.39007210428407074
20	0x3fd430349ffe9510	0.31544223427256757
21	0x3fe6529cb7463d23	0.6975844935967966
22	0xbfd34101c5bf41d4	-0.3008427077411657
23	0x3fdb27c5cee8040d	0.424302532250352
24	0x3fcb8c555e62b649	0.215220137678829
25	0xbfcaa10bababa696	-0.20803972132062104
26	0xbfe17c57fa047b61	-0.5464286692766614
27	0x3fe32ff61b161db5	0.5996046570807524
28	0xbfd89f94772abad5	-0.38473998677629356
29	0xbfd6107d1d485cb6	-0.34475639209399433
30	0x3fd4873584a6ce41	0.32075250581985776
31	0xbfdab1b553d1161f	-0.417096454479493
32	0x3f721a6287009600	0.004419693825217674
33	0xbfe549e60f16aed1	-0.6652708334636036
34	0xbfe3230be4a18187	-0.5980281320044448
35	0x3fda19a049a8f311	0.4078140944800888
36	0x3fe1b8e414839e28	0.5538196945826188
37	0xbf931cc96e677f50	-0.01866450058321273
38	0xbfd10dc41ea667a6	-0.26646521561780856
39	0xbfe1983090378c95	-0.5498278443086685
40	0x3fe2ff40a0b6626c	0.5936587466158705
41	0x3fe4ae4e61c4dae3	0.6462776097822281
42	0x3fe3ed1914ab8d6d	0.6226926234925664
43	0xbfb750b85250465b	-0.09107543954476098
44	0xbfddb720a9245b96	-0.4643022205140651
45	0xbfcbd65ef9c93fa6	-0.21747958370769743
46	0xbfd803e35b479e65	-0.37523731149710776
47	0x3fc38b26f1b36749	0.15268408586308116
48	0xbfe665ec6c149ab1	-0.6999418364474278
49	0xbfb45bb86f14a514	-0.07952454292230399

fc_out.weight f8 [1, 50]
0	0x3facf1a63db0454f	0.05653113844904089
1	0xbfc112679d737b7b	-0.133374168281957
2	0x3fc4ef853e4daa1b	0.16355958501965592
3	0x3fc334e73d981d81	0.15005198009042078
4	0xbfc69e5a7c34ecc6	-0.17670756401807902
5	0xbfbe4d854700cb24	-0.11837037070726503
6	0x3fd003530322668d	0.25020289712993177
7	0xbfbb19ed7e660006	-0.10586437545680391
8	0xbfb9bfb0470f6904	-0.10058118567340918
9	0xbfb3334c43b8e8a9	-0.07500149396301715
10	0xbfa9e2e8237c9ae3	-0.050559286434056515
11	0xbfb6510c0cec1118	-0.08717418017846901
12	0xbfaf4d869240e1ba	-0.06113834891624799
13	0xbfabb4505d51d93c	-0.05411006106526137
14	0x3fa92f33d80748b6	0.04918825161043243
15	0xbfc09f06bdfe6bdf	-0.12985309865038538
16	0x3fbd7338efb9d110	0.11503940441781801
17	0x3fc1f2a5f2fff13b	0.14021753659461375
18	0x3fa3bd235bb5c82f	0.038552384324148974
19	0x3fba96e7bbe29c13	0.10386513077774877
20	0xbfca0f225cf0c22f	-0.20358686006649537
21	0x3fb86c8cb62492cb	0.09540633627745902
22	0xbfb7cb17ab96afc1	-0.09294269503760601
23	0x3ef17c772707ff28	1.6676133272496664e-05
24	0xbfaca6fae0214288	-0.05596145616494136
25	0x3fbd9d01a3ac3510	0.1156769775954738
26	0xbfbcae07763b486f	-0.1120304740573219
27	0x3fbd2de404165248	0.11398148631844507
28	0x3fc3d77e2e58e234	0.15501382124945595
29	0x3fb322b5a8b9df12	0.0747483765534265
30	0xbfc35876848ec55f	-0.15113717529815582
31	0xbfb6350c03bbf725	-0.08674693194549528
32	0xbf99166a5a474242	-0.02449957061782216
33	0xbfaaef111fac3d02	-0.05260518561964923
34	0x3fa71e22d8b7658c	0.045151795344007345
35	0x3fbd859b1ac12ad0	0.115319913894534
36	0x3fb835c592c39732	0.09457049210649585
37	0xbfc9678db8560745	-0.19847270489486327
38	0xbfa477fd73fb3e4f	-0.039977951438797114
39	0xbfb58010c2c22198	-0.0839853740200226
40	0x3fc3743e61c5ecb4	0.1519849755676198
41	0x3fba49bce6d8c1ea	0.10268765102296809
42	0x3f98c0e73815ad7c	0.024173367307793722
43	0xbfb5254529b50715	-0.0825999476265021
44	0xbf96aea0a0c26582	-0.022150525867436162
45	0xbf94575c94ec0818	-0.0198645082373404
46	0x3fc0a0e4c693f623	0.12991008468809281
47	0xbf68aae3e16e6b1e	-0.0030111742775721503
48	0x3fc265367923a198	0.14371376910208933
49	0xbfb5e08e8a36550c	-0.08545771478960179

fc_out.bias f8 [1]
0	0xbfb77f0fb6b4b2bd	-0.09178255282013033

fc_hidden_list.0.weight f8 [50, 50]
0	0xbfb874255b99cbd9	-0.09552224623057216
1	0x3faf44a674c67f3b	0.06107063460808467
2	0xbfb45b67fc134d7d	-0.07951974777397726
3	0xbfad527d523d9681	-0.05726997021592429
4	0xbfb36dd887e7dd28	-0.07589486425409986
5	0xbfa9b395489c710a	-0.05019823562017407
6	0x3f9c0490b770610b	0.027361165233828404
7	0x3fb655fc884356d8	0.08724954916700811
8	0x3fb355ba938ae920	0.07552686788668383
9	0x3fac314f8c4a7f9c	0.05506371104752292
10	0x3fba1280236a733f	0.10184479584354465
11	0x3f9a9573c26175f1	0.025960739840561634
12	0x3fa6bcad2eaef7f4	0.04440823740831937
13	0x3f8dd5793078c3ff	0.014567324439754612
14	0xbfbd2276c301a691	-0.11380712757968527
15	0x3faba39d8d90579a	0.053982661753408226
16	0x3fb6bd6efef72cc5	0.08882802700752553
17	0xbfac9048ad57ee6c	-0.05578829875954913
18	0x3fb1e0b06b3c74cc	0.06983473413534397
19	0xbfb328beca596e93	-0.07484047355813521
20	0xbfc0d02ff7d5b33d	-0.13135337449366516
21	0x3fb625bae12f732e	0.086513214089291
22	0x3fbc6aa9ed94ad66	0.11100256014167584
23	0x3fc0e47e53b1415f	0.13197306715529586
24	0x3fa350abce5b2bf3	0.03772484678264467
25	0x3fbc8c486f113329	0.11151554786301844
26	0x3fb455f8f28ecb2f	0.07943683549710266
27	0xbf9843be4276c7ae	-0.02369591980613677
28	0x3fa584eec05c9e01	0.04202982042471249
29	0x3fb320db923008cc	0.07472011870416678
30	0xbfa4076048bc16db	-0.03911877525210424
31	0x3fbac6b1ec04c828	0.10459434520888122
32	0xbfaa92e1063ffbd5	-0.05190184785168809
33	0xbfb6c237f6b3bdbb	-0.0889010407733996
34	0xbfb29bec89b1c64e	-0.07269171106033775
35	0xbfa3592db85b9cf6	-0.03778975367986874
36	0xbfaeebdd452d2550	-0.06039325208127855
37	0xbfb2082be44c88fb	-0.07043718646722034
38	0x3f9d42abc2d131b6	0.028574641957946866
39	0xbfa29b6896f70bc7	-0.03634192316851386
40	0xbfa1a3851fd50b1e	-0.034450683723227224
41	0xbfc0a18e12e799e2	-0.12993026660042434
42	0x3f93440aedefc5df	0.018814249775408128
43	0xbfc36697a7123f12	-0.1515683713700971
44	0xbfbba489e0169eb5	-0.10797940941722113
45	0xbfb900fd70a6759b	-0.0976713562035542
46	0x3faa484794fa489b	0.05133269971442297
47	0x3fbf4663301bf1f3	0.12216777729549459
48	0xbf8f418717b3344c	-0.015261702929274666
49	0xbfba1627663d491b	-0.10190054174498579
50	0xbfc0895ee35cdaf9	-0.1291922197503579
51	0x3fd333618c77ac6c	0.30001105039145304
52	0x3fb16190494b6365	0.06789495267311237
53	0xbfb239b03d81aa18	-0.07119275571464134
54	0xbfa60384743b2038	-0.04299558562121358
55	0xbf9aed742e8f1644	-0.026296439496738225
56	0x3fbebfaf214a9fa7	0.12011236727505424
57	0x3f80f035f21c63fc	0.008270665599001241
58	0x3fbdf5583701969a	0.11702491133618267
59	0x3fc36905c6cfdda8	0.1516425343286134
60	0xbfb62980e9f0c7c1	-0.08657079421462212
61	0xbfb1178d17bfdb97	-0.06676561193294926
62	0x3fc7f5019a00347d	0.18716449756212575
63	0x3fb4b7791ff15776	0.08092457799770422
64	0xbfd208a63ccaa6be	-0.2817779153507266
65	0x3fa118be492ef5ad	0.03339190142967694
66	0x3fc2355cbec44895	0.1422534877279459
67	0xbfa80ae26b73de62	-0.04695804177930253
68	0x3fa200f97cc7e393	0.03516368530467342
69	0xbfc276457458f77e	-0.14423435383826794
70	0x3fcb4d5f787ca342	0.2132987345042015
71	0x3fa7fa02044490c9	0.04682928373429857
72	0x3fc16c0dec736404	0.1361100582642224
73	0x3fa588bf226dfad2	0.04205891890796
74	0xbfc6af5ab68a2450	-0.1772263900095674
75	0x3fbeb15beff5f7a4	0.11989378555696689
76	0x3f80d5a08a863c3b	0.008219961383273957
77	0xbf833191b1e0841c	-0.009371889344096877
78	0x3fab34db37777a85	0.05313763668140318
79	0xbfb546a6af33745a	-0.08310930039756795
80	0x3f83a6e8ff66d367	0.009595699590912067
81	0x3fbba079aabe11b2	0.1079174081660941
82	0xbfb0711526e955c5	-0.06422550392138422
83	0xbfc2cb1a5af0658a	-0.1468232101476981
84	0x3f981ccb7d7fd1f4	0.023547343764180398
85	0x3fbabf9b046a75e4	0.10448616845902553
86	0x3fba6c46c7c557c7	0.10321466805666467
87	0x3fc147f396c18395	0.13500828610542884
88	0x3fb0f822ed46ce43	0.06628626149068233
89	0xbfcc4e4f688f9164	-0.22113983731754694
90	0x3fccef0550aab644	0.226044334781749
91	0xbf94c80b18292b3b	-0.02029435477224271
92	0x3fb8a980229de90d	0.09633637280595427
93	0xbfb1d812832fa4e5	-0.06970325186525235
94	0x3fb1c6d9c82f4814	0.06944047105142231
95	0xbfbae72728041b36	-0.10508961417154414
96	0xbfb08ae63c28af2e	-0.06461943596576411
97	0x3fa2c9a5a8078a89	0.036694695245178606
98	0xbfb14fd20d442268	-0.06762421440010657
99	0x3f945069650c1692	0.019837996284897637
100	0x3f796345d5c8cf09	0.006198189538327411
101	0x3fbf1c455177fdc9	0.12152512778265313
102	0xbfc31accdafb4695	-0.14925537769754685
103	0x3f8c8d6493ede8fd	0.01394156052059658
104	0xbfb7c32a32a03079	-0.09282172904949161
105	0x3fb52b61502b4fe6	0.08269317824607433
106	0xbfc5b6fa06745499	-0.1696465045467093
107	0x3fb6c6dbfd9ef8d5	0.08897185270231785
108	0x3fa50154f0312995	0.04102578575164554
109	0xbfc69dc3504585a8	-0.17668954295645034
110	0x3f9db505741e8b9e	0.029010853969917975
111	0xbfae989e8fa84ad9	-0.05975814345960879
112	0xbfa5d1a7e1b3e8bc	-0.0426151717201306
113	0x3fad9f212d5f1af1	0.05785468748904588
114	0x3f3223670c6eb777	0.00027676835855571603
115	0xbfbd47f3684ccd15	-0.11437913223635505
116	0xbfc12544533d2a8d	-0.133949795383462
117	0x3fbf54262039faa2	0.12237776076106369
118	0x3fb2448b634df4b7	0.071358405823008
119	0x3fb15cd0283b655e	0.06782246572710934
120	0xbfafc2e013753c16	-0.06203365552448063
121	0xbfb5835556b33bdf	-0.08403523794844102
122	0xbfb4b4158d5a1975	-0.080872866639856
123	0x3f5dba601c236edd	0.0018144548962969944
124	0xbfaf1856e8d614c4	-0.060732570574182826
125	0x3f99f18b4eb22dd5	0.025335480383132342
126	0xbfb65cbab3e27170	-0.08735243694031225
127	0x3fad115ce1163593	0.05677309272423794
128	0x3fc104d1ebee984e	0.1329595949184203
129	0x3fba3b1174465d76	0.10246380890600001
130	0x3f907f9f2c8139f2	0.016111838427883947
131	0x3f91d6bf5f4804a9	0.017420759382734605
132	0x3fb5532b9abc9565	0.08330032851934772
133	0x3fa309e82faa50c3	0.03718495923854583
134	0x3fac46913b650cc4	0.05522588586838986
135	0xbfa743cf8ebed699	-0.0454392301320869
136	0xbfa9a1e30dd50b49	-0.05006322425699367
137	0x3fb3449250223ee8	0.07526506859198501
138	0xbf831be50c22d9a3	-0.009330548699250601
139	0xbfb50a02f944db8e	-0.08218401513737048
140	0x3f91efc143654cec	0.01751615499354113
141	0xbfc741ac1671eb47	-0.1816916570276936
142	0x3fbc18f167748893	0.10975559974443376
143	0x3f92ff9add19748f	0.018553180451239156
144	0x3fba8f06e635d656	0.10374491806381889
145	0xbfb66c8b437794d6	-0.08759374997278555
146	0x3fbde14911d13c6d	0.11671883282655111
147	0xbfb55d6265189cba	-0.08345618217628017
148	0xbf9c3b02f87b82eb	-0.02756886140457741
149	0x3fc1d55a7e15d5bd	0.13932353168972425
150	0x3fa07061ac0b2dad	0.03210740304129032
151	0x3f8c85ea74971431	0.013927299197243755
152	0xbfc081ea63804391	-0.12896470888565806
153	0x3fc0eb6258607f46	0.13218335452347157
154	0x3fb71f5e2d669f66	0.09032238586826011
155	0xbf6049d8dfeca459	-0.0019883380731653797
156	0x3fc1b9fb8935ed45	0.13848823737849095
157	0x3fa0c923d2dd2f49	0.03278457592986556
158	0xbfb61ce9e5de2d2b	-0.08637868749626836
159	0x3fbc24a71f5ff106	0.10993427768693573
160	0xbfbd117dc22f695c	-0.11354814520692486
161	0x3fc0f723012ac543	0.13254201466546975
162	0xbfaee9675c625286	-0.06037447931990862
163	0x3f5f686b16ecbfa5	0.0019169851108919802
164	0x3fb23fae0f459674	0.07128417847487772
165	0x3fb787b5f319adc7	0.091914531565343
166	0x3fb5778f713ea9a2	0.08385559572949444
167	0x3fa6868b23ca8716	0.04399523555663458
168	0xbfaaa8b2e55bcb46	-0.0520683197954868
169	0x3fa66cdd55b31128	0.04379932089935529
170	0x3fa0dedea06579f3	0.03295036037410517
171	0x3fb21d38dfe234a3	0.07075839486988626
172	0xbf728006037c482b	-0.004516623964962145
173	0xbfbd152acc01fbad	-0.113604235464648
174	0x3fc1328a42b25c55	0.13435486084628914
175	0xbfc038d1ea37ab9f	-0.1267340081825212
176	0xbf610631831f3b2e	-0.0020781485590996218
177	0x3fa7bf385509cfd8	0.04638076818528675
178	0x3f60602b39bee6f8	0.0019989818810842684
179	0x3fb1a9ca91a8c258	0.06899705940373602
180	0xbfc10d66f9db345d	-0.13322150421155046
181	0xbf8ce5e421b87c3c	-0.014110357550690115
182	0xbfbbf0bb5f38858c	-0.1091420276138903
183	0x3fc23fae9a7923fa	0.14256842177044843
184	0xbfbd52d2e349f259	-0.11454504059833805
185	0xbfa05b5f6a2c29ac	-0.0319471184830776
186	0xbfc1b8d87216a82d	-0.13845353670814245
187	0x3fbb2f71f9119b53	0.10619270640164062
188	0xbfb63a31db9ddcb8	-0.08682548152670477
189	0xbfac6f1d0d758372	-0.05553522862715611
190	0xbfbb99e7f5862adc	-0.10781717056503787
191	0xbfaab27a5017d851	-0.05214292743396299
192	0xbf9f1a9aec258499	-0.030374928153268674
193	0x3fbb053270d0cf0f	0.10554805044449388
194	0x3fbeb2627dc976d8	0.1199094349953741
195	0x3fc0223f4f925f9a	0.12604514489498514
196	0x3fa0e121b1c86873	0.03296761794281702
197	0xbfb285536fe66ee7	-0.07234689218460809
198	0xbf6c6e6c19e8b37b	-0.003470622191591164
199	0x3fb8b70efa05246a	0.09654325107580211
200	0x3fadbf11206ae365	0.05809834976884679
201	0x3fbcfe0d2420a290	0.11325151569384162
202	0x3fa3f1d2b4b41672	0.03895433860638499
203	0x3fc2635f28769668	0.14365758395904327
204	0x3fadeae5d157cf16	0.05843275242287242
205	0x3fa7e5aad375092f	0.04667409735931682
206	0xbfb6c226ded6be77	-0.08890002193833789
207	0x3fb71775948b1f85	0.09020171047734322
208	0xbfa50a6cb3f426a1	-0.04109515854549995
209	0x3f8b7235833578e7	0.013401430193593146
210	0xbfaaa935d4324429	-0.05207222190177447
211	0x3fb98de442d3c456	0.09982134467624468
212	0x3fb3a124e9fa06f8	0.07667761528321282
213	0x3fb50ffaeef43b2b	0.08227508863295145
214	0xbfb01284702313b2	-0.06278255212516973
215	0xbfbbaaec0d842d47	-0.10807681398380452
216	0x3fb427c63e6f1669	0.07873190902963646
217	0x3fab74d19c88a29c	0.053625631673928725
218	0x3fab21551cf77a77	0.05298868158910335
219	0x3fb1c9740ad52d67	0.06948018326254655
220	0x3f59234ca3a4f998	0.0015342949323692064
221	0xbfb8c40fdb9d6b3b	-0.09674166785900422
222	0xbfa83cc123d968f4	-0.0473385196934987
223	0xbfaef3473812fd26	-0.06044981536387643
224	0xbfb5db42c99d1ef0	-0.08537690565310263
225	0x3fc03f2b3caf5b8e	0.1269277616799766
226	0x3fb284222a1407b0	0.0723286965112766
227	0xbf59c7f3ffe39498	-0.001573551445795551
228	0x3fbf3a3b96e9e0e4	0.12198231157697453
229	0xbfb300a32d25f36d	-0.07422847606899348
230	0x3fba387465cdaeb2	0.10242393002925601
231	0x3f93508b282d2ad6	0.018861936881232243
232	0xbfc1f5cf2b4c2475	-0.1403140031254996
233	0xbfa4fbbbe6493ea9	-0.04098307787046213
234	0x3fb4e4901f7576fc	0.08161259429968121
235	0xbfb917f499c2c519	-0.09802178148199338
236	0xbfb8a9eca3df9b23	-0.09634284020249288
237	0x3fa1c2696480238f	0.034686368482716216
238	0xbf88df9df3830c6e	-0.012145265573400201
239	0xbfb473302ae04c49	-0.07988263174802158
240	0x3fb8d77b1f812745	0.09703797835495916
241	0x3fb0467d472c204c	0.06357558238608013
242	0xbfabe3d00f8e9e4b	-0.05447244825273553
243	0xbfa8d6ceda32463f	-0.04851385510950167
244	0x3fc1939ed8cdd04a	0.1373175200093349
245	0xbfb7724eed97753f	-0.09158795643403027
246	0xbfb5f2a209b4a3f8	-0.08573353516534599
247	0x3fb006910d3b0d49	0.06260019848837318
248	0x3fa4653666fe3039	0.0398346901630195
249	0x3fa2cfa93f303874	0.0367405786165457
250	0x3fb620e454088bbd	0.08643939067455526
251	0xbfba8468d0aebbef	-0.10358290762700027
252	0xbfa2137dd7bef905	-0.03530495890253075
253	0xbfb5db5d4f758afb	-0.0853784865371771
254	0x3fa4f2b5bd0e46a2	0.04091422970590243
255	0x3fb3baa9fdee6980	0.07706701707357944

fc_hidden_list.0.bias f8 [50]
0	0x3f875b58caebfa14	0.011404699032479683
1	0xbf7867057b87bd1c	-0.005957623878642761
2	0xbfac492426d02965	-0.05524552320283042
3	0x3fb9693dda8c0855	0.09926210961933297
4	0x3fc2e56e018e1831	0.14762663913660526
5	0x3fb56eb37688d712	0.08372041362676111
6	0xbfd1c9a15d8914ab	-0.2779315389091816
7	0xbfc2a86f003ed1bf	-0.14576518547040782
8	0x3fb77c42867fd872	0.09173980506588622
9	0xbf4b9a84532a1ff8	-0.0008423944585311807
10	0x3f90cb7929b35d23	0.016401189012723038
11	0x3fb85882747f3400	0.09510054916536603
12	0x3fc52157600b287e	0.1650799960100961
13	0x3fc9cd3500ab8bba	0.2015749219200112
14	0x3fb85ed390b0b375	0.09519693644024392
15	0xbfb81e5c247620a3	-0.09421325578853383
16	0x3fc0f5c49bf0f3fd	0.13250024427716758
17	0x3fac5fa21638c154	0.05541712304364191
18	0xbfa8674826a306c4	-0.04766297790184873
19	0x3fbee7651fce7b39	0.12071830774810345
20	0xbfb32ff7357db1c2	-0.0749506478875395
21	0xbfb569185b0c95ad	-0.08363487456207137
22	0xbfb93ef1d3a343ee	-0.09861670891702065
23	0x3fbddc239fd4f868	0.11664030697008487
24	0x3f8b8d49022df380	0.013453073863041842
25	0xbf646a00b086a667	-0.0024919522731650548
26	0x3fbad5ef670c8398	0.10482689157335157
27	0x3fb397bc05ea582b	0.07653403419894349
28	0x3fb453938c995c40	0.07940027411074002
29	0xbfa9cb92a7956617	-0.0503812627382098
30	0xbfb89c76572b6539	-0.09613742473756738
31	0x3f9f052276556396	0.030293024513727916
32	0x3fb2938fbe3063a6	0.07256410973822244
33	0xbfbea28198017b5d	-0.11966714821890663
34	0xbf8c2351e31ec210	-0.013739242309243088
35	0xbf6394b96a83a83f	-0.0023902532012601003
36	0x3fb7fff6c5afb4d8	0.0937494499809931
37	0xbfb202e715427cc7	-0.07035679120098158
38	0x3f83a936da5eb16b	0.009600094355697938
39	0xbfa526d32b9570b6	-0.04131183535602771
40	0xbfc0fb2b4104b02a	-0.13266506838533704
41	0x3fb9e26283da7839	0.10111060828282427
42	0x3fb1bf2c99965ff4	0.0693233370751612
43	0x3f73a34c7c0a25ab	0.004794405715651188
44	0x3fb79f1170f7d27c	0.09227093704232375
45	0xbf943804881d1d45	-0.019744940574381493
46	0x3fc7e8d99c9a1aad	0.18679351946430725
47	0x3faad0d08652bd63	0.05237437858283547
48	0xbfbf29a4919bce82	-0.12172916941545434
49	0xbfa236c755802a21	-0.035574177920427504

fc_hidden_list.1.weight f8 [50, 50]
0	0xbfb90ce5c8079ef1	-0.09785305150546343
1	0x3fc28f4ecc0dde4f	0.14499840701658903
2	0x3fa2418e4bd64a6e	0.035656401402907587
3	0xbfb972f3493531cc	-0.09941025292682254
4	0x3fba8161652fca48	0.10353668899896562
5	0x3fbae6f508e42078	0.10508662669247026
6	0x3fc5f715bdc641fc	0.17160293356256762
7	0xbfbf1a216e9d73cb	-0.12149247122347544
8	0xbfb98435dc31d091	-0.09967362047047092
9	0xbfa632c2973bfdff	-0.04335601898310059
10	0x3fb6811b9f63dbed	0.08790753022536509
11	0xbfc2111d6fb0a6ec	-0.14114730790725305
12	0xbfb52f01511bcd0a	-0.08274849157514921
13	0x3fbc270f72409b13	0.1099710134445611
14	0xbfc2c2af72fb6419	-0.14656632532458572
15	0x3fc0f9f6ebfeabf4	0.13262831233200212
16	0x3faf79e282c8d414	0.0614767822884589
17	0x3fb0fb1b96ebf201	0.06633160051928401
18	0xbfb62291a8f51f87	-0.08646498084010378
19	0x3f7dec357656020b	0.007305344426072678
20	0x3fbe5a141d5da81d	0.11856198994578944
21	0xbfa2c7cdc143b4ca	-0.03668063148675456
22	0xbfaecfcabc45d072	-0.06017907665491941
23	0xbfa50a16e77a22bf	-0.04109260154388527
24	0xbfb42bd2d94414e4	-0.07879369549125986
25	0x3f90fd2b6d12127f	0.016590765506878654
26	0x3fc1c76712392d29	0.13889778508960518
27	0x3f9273b761d9e892	0.01801954779373511
28	0xbfb64c6e33e34ef2	-0.08710373656077389
29	0x3fb4f87a24a93f8a	0.08191645998999611
30	0xbf9e0c84e09735ea	-0.029344631393362443
31	0x3faba74767c93fa5	0.0540106119339037
32	0xbfbc426022e71e1a	-0.11038781025046554
33	0xbfb5425f15931c1f	-0.0830439975426178
34	0x3faa2e4fe416d4dc	0.05113458308498206
35	0xbf9d6e2684491e97	-0.028740503143380804
36	0x3fa4f66e87823e0e	0.04094262508544598
37	0xbfa269aa85e1a106	-0.03596241840642915
38	0xbfb26af3f2811b6e	-0.07194447203174345
39	0x3fb35caed5053f3a	0.07563297939964012
40	0x3fc0c493773e0c41	0.13099902460462157
41	0xbfc02016289e4d35	-0.12597920401877052
42	0xbfb007234a04eb2b	-0.06260891491994573
43	0xbf90fbada3900c45	-0.016585076435159846
44	0xbf561e634cd71749	-0.0013500184753509495
45	0xbfb0bbabcfa01608	-0.06536363429048475
46	0xbfa2b66077bf7537	-0.036547674768124976
47	0xbfb35dafd1b3a3af	-0.07564829702063379
48	0x3fbb4f41786f7c90	0.10667809667892159
49	0xbfa0bbddcc8aeacb	-0.032683306902489294
50	0xbfc2147a1f610d85	-0.14124990970786314
51	0x3fc287895755ae00	0.1447612453879259
52	0x3f8944a8a7bf81ff	0.012337987536683135
53	0xbf9aace8931b1edc	-0.026050218561777125
54	0x3f8e4a3e6fb1c9cc	0.014790046485562501
55	0x3fb9dafce5a9944a	0.10099773985855723
56	0xbfa2d0b6538e351e	-0.03674859781231475
57	0xbfaecb4249bce776	-0.06014449262734349
58	0xbf94d38647924884	-0.02033815204465174
59	0xbfa3bc70376967f2	-0.03854704548275824
60	0xbf9282568ab1e3c8	-0.018075325217498578
61	0x3fa35366f0ec9b2b	0.03774568263025054
62	0x3fc236b66b7582e5	0.1422946953489578
63	0x3fd0e89af54b4c83	0.26419710115914813
64	0xbfc5399a0d0ec1dd	-0.1658203662641559
65	0xbf9ebc4401d6a972	-0.030015051471914807
66	0x3fc4e974d109fdca	0.16337452132209612
67	0xbfb3de6ef3bc3b6a	-0.07761281443184279
68	0x3f9f58f8674c149b	0.03061283236003885
69	0xbfacd03568c14633	-0.056276005780670955
70	0xbfb6cbe16a16da83	-0.08904846992559538
71	0xbf90744805875a80	-0.016068578088232588
72	0xbfbbe54c28b52ad2	-0.10896755212631185
73	0x3fa3fcde796597d6	0.03903861266989821
74	0xbf965d8e5942f5ea	-0.02184126300629955
75	0xbfb051260e74e2a4	-0.06373823025649955
76	0xbf96c7516b7c4dae	-0.022244713006399124
77	0x3fb749d181d840c2	0.09097012920415451
78	0x3f8e813441bcddd2	0.014894874817044466
79	0x3fbb002f5c93a617	0.10547157297300945
80	0xbfa661f36dbb9ebb	-0.043716056008461256
81	0x3f88106994458de4	0.011750054204361988
82	0x3f326d5cdf1fc4f4	0.00028117673275491963
83	0xbf9a6e6f4a9c53f4	-0.025811900071023033
84	0xbfb389b38ab6aa47	-0.0763199056297391
85	0x3fcc2c620eb32310	0.22010446279298224
86	0xbfca89256f2ef9e3	-0.20731037072069033
87	0x3fbf5c5f5e641408	0.1225032430121048
88	0x3fc597dd55b8aa5a	0.16869703946697961
89	0xbfb71d42569f4f81	-0.09029020895769514
90	0x3fb2bee08ddb44aa	0.07322505439084873
91	0x3fbd2af4c7b64de3	0.11393670917305303
92	0xbfb3df398b51df5e	-0.0776248898636118
93	0xbfc8fb64f284eeb9	-0.19517194597016443
94	0xbfa0b12b3584f384	-0.0326016905623652
95	0xbfad9b4fbb669138	-0.05782555735211975
96	0xbfac1b0c5f77cc12	-0.05489386239414541
97	0xbfc25e686233cba6	-0.1435060958388849
98	0xbfcc62f235a431c9	-0.22176959628303752
99	0xbfc73618fde11b3c	-0.18133842846347104
100	0x3fc08c1000491ec7	0.12927436841913773
101	0x3f904cf66a49ab70	0.01591858886460379
102	0x3f6420e844b6bf97	0.002457097672696261
103	0x3fa0bff39c115961	0.03271447448848864
104	0xbfb7329a449d5bfa	-0.09061588454402161
105	0xbf9756f7c18cda08	-0.022792693317763152
106	0x3fd257dc72ce5926	0.28661261760261636
107	0xbfb74276d0d7e425	-0.09085791205133427
108	0x3faf21c72ac3678e	0.0608045806599896
109	0x3fbded41001432fa	0.1169014573280939
110	0x3fa22d128c5f4943	0.03550012553718542
111	0x3fb67b044c0e1f5a	0.08781458718123983
112	0x3faf7dfba22e1f6a	0.06150804857958188
113	0xbfbd22c66a2556c1	-0.11381187526179827
114	0x3fab32e34cce95cc	0.05312261879525301
115	0xbfa1c32de404bf1e	-0.034692224582953055
116	0x3f74a77c5c29f65d	0.005042539387998338
117	0x3fbb7dc9fc111751	0.1073881378552788
118	0xbfbf0ef549e9934a	-0.1213219933939175
119	0x3fbe96ac4b9013f2	0.11948658795161274
120	0x3fada50a9a13c296	0.05789979105782554
121	0x3fb7bd49c4178d5c	0.09273205792810785
122	0x3f7f602e25d2652d	0.007660084023109176
123	0xbfc13963a32c7fb3	-0.13456387965652325
124	0x3fb64b3fc8f65ee3	0.08708571106250988
125	0xbfc9c0219341c017	-0.2011758774783636
126	0x3fb777d0dacb32e2	0.0916719946064393
127	0x3f8fc0eba887282d	0.015504685478749359
128	0x3fc3b0d4f168877d	0.1538339785338926
129	0xbfbbab88e3da35b1	-0.10808616221239366
130	0xbfb56669249006db	-0.08359391348497118
131	0x3fca64a3f80abe25	0.20619630443023698
132	0xbfb520e3ccb4a0a9	-0.08253310916609514
133	0xbfb837a9eb78b46c	-0.09459936140838615
134	0x3f9cdf6944a5486a	0.028195996107861644
135	0x3fb9bbbf6bd9e8b0	0.10052105315290549
136	0xbfa00628c221c6f4	-0.03129699106001552
137	0x3fb49a70e20dba34	0.08048158186805027
138	0x3fc29262fd2729ff	0.14509236680017065
139	0xbfb11cebf37c809c	-0.06684755987635288
140	0xbf9c328b192b7f2d	-0.02753655758976874
141	0x3f8675cb66c911dc	0.01096686274934993
142	0x3fb0331f61fa596c	0.06328006879843934
143	0xbfa420abc49101fa	-0.03931175970547325
144	0x3fba10074e94f674	0.10180707615378443
145	0x3fc7e332224879b8	0.1866209666631684
146	0xbfc50e39dcd8f6ab	-0.164496643863392
147	0x3f9425ddcb1967f0	0.019675698777383788
148	0x3faa27b6cd5bc646	0.0510842443162685
149	0x3fae8052245e0a4b	0.05957276052415191
150	0x3fb8b2327529826c	0.09646907196430171
151	0xbfa87bf5b1057b5d	-0.04782073770433357
152	0x3f94d70cf27a643f	0.020351602840126267
153	0xbfbc0ad50983bd68	-0.10954028589525466
154	0xbf92c7d20941378c	-0.018340379538407656
155	0xbfac4a2cb8fcf3b8	-0.05525340803294604
156	0x3f99f6738d620846	0.0253541998904512
157	0x3fb6d8a056d15f87	0.08924295539452319
158	0x3fc2853581745f0b	0.14469021626495535
159	0x3f9cb0227a747fa4	0.028015650486053936
160	0xbfa47c58b9ac85a3	-0.040011189141533586
161	0x3fc0952a421ef1a0	0.12955215672071763
162	0xbfc1b84156a90c15	-0.13843552333318657
163	0xbfd12fc55e984252	-0.26854070890207027
164	0xbfa294d2b30ba6bb	-0.03629167972196742
165	0x3f9567706ef71328	0.0209024017074341
166	0xbfca52860c37ff4e	-0.20564342114084372
167	0x3faf7748d45aac76	0.061456943437712505
168	0xbfb923c85a2eff82	-0.09820224954364501
169	0xbf9c3dff78aeb886	-0.027580253353953775
170	0xbfafe8ad218e5ba1	-0.06232205423946558
171	0x3fb82ebf9030cb65	0.09446332235601813
172	0x3fbe61f0947ed087	0.11868194222808102
173	0xbfbd10ce1a484de2	-0.11353767530118078
174	0x3fac44bb5081aa74	0.05521188123460244
175	0xbfa79b7e42236d76	-0.04610819394448644
176	0xbfb8bc4b59a7ef78	-0.09662314356677182
177	0x3fba55dca0b97393	0.10287264751373319
178	0xbf9c4fe1d9d059a3	-0.027648476523688747
179	0xbf92edbb1438fbf0	-0.018484995946206284
180	0xbfba4259966f0aa1	-0.10257491991709823
181	0xbfb0187d907bf7e4	-0.06287369515845814
182	0xbf9e5f30e0e3d0ac	-0.029659999586286886
183	0xbfc405f8c8182e90	-0.15643224497067765
184	0x3f9a7ed8b2ce3abe	0.025874505914141414
185	0x3faa88d526f48f30	0.051825200085913514
186	0x3fc2bef6f6b33af9	0.1464527802076743
187	0xbfb40e0fd838a021	-0.07833956745946626
188	0x3fa5c653b2284202	0.04252873945018011
189	0x3f913af93f3ecd9b	0.016826529011905938
190	0xbfbe41806dfc28e3	-0.11818697629147183
191	0xbfa6453549815d1e	-0.04349676630288911
192	0xbfc352181d4c0a1e	-0.15094281607169163
193	0xbf9e175e459780f3	-0.029386017797038155
194	0xbfa845c4a805a376	-0.04740728903818241
195	0xbfb594707ea362fa	-0.08429625598672522
196	0xbfba5e65070bdd32	-0.1030028478816021
197	0xbfbafcfca9372204	-0.10542277461275523
198	0x3fad1d1d1eef6f45	0.05686274531009742
199	0x3fb296b1ebc7afd5	0.07261192327831563
200	0xbfb3015e7c071b46	-0.07423964050313456
201	0xbfa0845662b1bdf8	-0.032259654567379614
202	0x3f974041e47848ef	0.022706059999173907
203	0xbfb67e3b48739bbb	-0.08786364096486825
204	0xbfb31fef68c3af42	-0.07470604236339987
205	0x3f9379ce3e9d3107	0.019019339152962746
206	0x3fafe79864bd38b3	0.06231380681730183
207	0x3f9b3abe4e63d912	0.026591275724933423
208	0xbfbd91a4aea3e642	-0.11550359023740334
209	0x3fb1f278f013b0f3	0.07010608540776157
210	0xbf934b739cc7e555	-0.01884251255430532
211	0x3fc41a2c1c7c53b9	0.15704871550465585
212	0x3fc37457a21de597	0.1519879857622015
213	0xbfb8ca49649cd889	-0.09683664995540843
214	0x3fc1226bd9f97206	0.13386295455246983
215	0xbfa9140358e5f9e3	-0.048980812646721515
216	0x3f958f015a15964b	0.021053334353743385
217	0xbf8d7e405010a21f	-0.01440096134509
218	0xbfab8e2b2bbabd27	-0.05381903561407802
219	0xbfb7087b35f8102b	-0.08997316424944361
220	0x3fc2a31813504f06	0.14560223525096933
221	0xbfc27df1b8ab156f	-0.14446851269728309
222	0xbfa70d408f81db9b	-0.04502298118398259
223	0x3fa6147a650b152e	0.04312498553694365
224	0x3fa6190142ee7df9	0.04315952245746852
225	0xbfb6aec93b7c85b4	-0.08860452368073518
226	0xbfbc48b569c2120e	-0.11048444587692804
227	0xbfb05f789e33ed34	-0.06395677435277919
228	0x3fb2b99a1b198ab6	0.07314456140151546
229	0xbfb87ef1597ad05a	-0.09568699297489172
230	0xbfb5c9d7ede3921e	-0.08511113698802616
231	0x3fc26400a8551da9	0.14367683619842112
232	0xbfb43ce10b742fd2	-0.07905394105563282
233	0xbf84a6c964b7beb8	-0.01008374537101929
234	0x3f90d2bea1aacbcd	0.016428927056676024
235	0x3fa68ec4490d9e76	0.04405797378313718
236	0x3f58313065384e36	0.001476571332095567
237	0x3fba3866866ec8c9	0.10242310316133109
238	0xbf4faa936c1b7afb	-0.0009663791499539826
239	0x3f6a32b08778057b	0.0031979987941219124
240	0x3fb79a40a00e88b4	0.0921974554790122
241	0x3f8ccc5a8d12af8a	0.014061648779111886
242	0x3fb26d68c5ada7ce	0.07198195291644469
243	0x3fa44a4409b575da	0.03962910288349138
244	0x3fbedc3aa226dbd4	0.12054792841705303
245	0x3fb8de2921299282	0.09713990268353181
246	0xbfb4a175708f73c1	-0.08058866499000229
247	0xbfba5bc78a188bd3	-0.10296294328195126
248	0xbfa6584d18c31101	-0.043642434380247515
249	0xbfb9b3170b7e35fc	-0.10038894682494254
250	0xbfa62923b063b088	-0.04328261879149503
251	0x3f68dd0fde6741bd	0.003035098069837454
252	0x3fc08b28dc870154	0.12924681442201325
253	0xbfa9d825d3bc9f76	-0.05047720155408701
254	0x3fae57432e44d0a9	0.059259509466217004
255	0xbf6b7977fd7e3513	-0.003353819232819641

fc_hidden_list.1.bias f8 [50]
0	0xbfa943df86a546c4	-0.04934595602629835
1	0xbfb2536e7ed31760	-0.07158556553176032
2	0x3fc012c940a1d9a8	0.12557330757017593
3	0xbfb5f72a8c9ba696	-0.08580270703137169
4	0x3fb338a1dc7e4f47	0.07508288987292842
5	0xbf9c800cda374ed1	-0.02783222276577996
6	0x3fb6724cbdb400f4	0.08768157607483201
7	0x3fbfa7d8c938319e	0.12365488922677634
8	0x3fa53fe8335b940b	0.041503196973089095
9	0xbf93362794b92ad6	-0.0187612709544663
10	0xbfbf496fe8297192	-0.12221431177153466
11	0x3fbb276a12e433c4	0.10607016526428398
12	0x3fbb27280083188b	0.10606622707845952
13	0xbfaf72808c567f2e	-0.06142045701130737
14	0x3fae42581fc429d3	0.05909991634151237
15	0xbfb21088c0ed8e6a	-0.07056479177622924
16	0xbfbb32b40a0803f4	-0.10624242062478101
17	0xbf8248bb1deeb5cc	-0.00892778573128341
18	0xbfb293f7d720c1a4	-0.07257031442782719
19	0x3fab0997fda850dd	0.05280756923107941
20	0xbfb19e6e02a08b7a	-0.06882369579447625
21	0x3f73e7eeb1593019	0.004859859841939617
22	0xbfbc11f0c62392e4	-0.10964875066163021
23	0xbf96d7993a0dea93	-0.022306818168980568
24	0x3fbaf2563e18c03e	0.10526026741058644
25	0x3fb70da80830d084	0.09005212974517646
26	0x3fb321200c74ae8d	0.07472420028778455
27	0xbfada2f5e6133775	-0.05788391526731022
28	0x3fac8daf906c33b6	0.05576847684833501
29	0xbfadc099fa017103	-0.05811005760981127
30	0x3fa56416a1f0a91e	0.04177923895652412
31	0xbfb62be1e91affde	-0.08660709324885782
32	0xbfbabf03c9150693	-0.10447715434295395
33	0x3fa2a53de94fd8f0	0.036416945200402284
34	0x3fa17aeb4839d6a4	0.03414092308677866
35	0x3fa0b3e6ed26abc8	0.03262254376325974
36	0x3fb8829423a1a598	0.09574247236164124
37	0x3fa10e9ff29fa23c	0.03331470333779804
38	0xbfb512851e780a91	-0.08231384271497634
39	0x3f8df1453cf7bc0c	0.014620343134962986
40	0xbfb4ad5c1bd850d1	-0.08077026061829719
41	0x3fc6392d91e92ce2	0.1736199343161849
42	0x3fc2635a6666f2e5	0.14365701675514866
43	0xbf9771c83cbfbc83	-0.022894982059309853
44	0xbfb9f4c4fe29f872	-0.1013911362187814
45	0x3f9f97f7104605a3	0.030853138321167994
46	0x3fb3d4093c2d1c52	0.07745416373391947
47	0xbfc1ce7be87d4978	-0.1391138920976791
48	0x3fc0f6ac7631c331	0.13252788325510204
49	0xbf9a5e8e55795d1b	-0.025751327483104363

fc_hidden_list.2.weight f8 [50, 50]
0	0xbfb669093b5ac18e	-0.08754022311291562
1	0x3fb0772205d4b8a0	0.06431782381398188
2	0xbf776a2c68374515	-0.005716489281853106
3	0xbfbdc3288a86982d	-0.11625913030602027
4	0x3f94ec3ab115aff7	0.02043239312972386
5	0x3fb07dfab3ddd209	0.06442229167243609
6	0x3f96caf2573ccf76	0.022258555006558343
7	0x3fbef114d330adee	0.12086610942849749
8	0x3fa7817ceebfe3b6	0.04590979017661516
9	0xbfa9f0eec5d40d7e	-0.05066629567047708
10	0x3fa227387321d879	0.035455478719925666
11	0x3f758a6e276f581f	0.0052589705364507735
12	0xbfb92cc0a5c05346	-0.09833911940252191
13	0x3f9cc1f263b21db1	0.028083598456331852
14	0x3fc0f5fec7238264	0.13250717853135818
15	0x3fc05cc40c3b37d1	0.12783098790390438
16	0xbfb35cd82e7c8b96	-0.07563544402050434
17	0xbfbef02ff63e5e3f	-0.12085246812636628
18	0xbfbc4ab9dd3fa8d0	-0.1105152287633786
19	0xbfaa56f931be2d6b	-0.05144480449879548
20	0xbfae0d9a1c5c382f	-0.058697524988119525
21	0x3fac9563325e17b4	0.05582723607862708
22	0xbf89e25aef0c209c	-0.01263876955046355
23	0xbfb3d267a431d86f	-0.07742927321109659
24	0x3f5187959bd546cb	0.0010699234984098856
25	0xbfb03c29209281a9	-0.06341797871801326
26	0x3fabeda4a18c889e	0.054547447891551956
27	0xbfb6d6ab5fe9b469	-0.08921309558509595
28	0x3fc128ba1d71cf60	0.13405538976405307
29	0xbfc09287b857cafd	-0.12947174550171062
30	0x3f9976e840f96637	0.02486765762873785
31	0x3fa806b5e078f97f	0.04692619671958464
32	0xbfa9924fdae1924d	-0.04994439646614932
33	0xbfb5d032c97d21e3	-0.08520810527000537
34	0x3fa0fe14d1b1cf50	0.03318848666904606
35	0x3fc203dd04aa74da	0.14074290016006935
36	0x3fba8497a2dded4f	0.10358569837801677
37	0x3fbdb573741adb71	0.11604997238724281
38	0x3f8d2931eade922e	0.014238729457994283
39	0x3fbd04570e4570f5	0.11334747408313091
40	0xbf95deeed10f59cf	-0.021358233938224388
41	0x3fb63e165bb5d19b	0.08688487757701184
42	0x3fb0ea1c96c3ece0	0.06607226067346827
43	0xbfb944335c0fe231	-0.09869690892799877
44	0xbfb23f82c4574b37	-0.07128159802895771
45	0xbfa751ae67728ea0	-0.04554505360399941
46	0x3f89ad623c479088	0.012537734474740839
47	0xbfba78b9c7889ab7	-0.10340462800432247
48	0xbf960f7bb0bb01a5	-0.021543438588879877
49	0x3fb522d47c5d8daa	0.0825627139689035
50	0xbfbc940786888d7f	-0.11163374933726365
51	0xbfa1f9319cd33291	-0.03510432280890997
52	0xbfa5c0b8336545fe	-0.04248595836055456
53	0x3f80f6c5be4ca929	0.008283181066492578
54	0x3f9b6a00fbf62530	0.026771560076246093
55	0xbf50a32e588cacee	-0.0010154678913732412
56	0xbfbb5ee6ae0ce739	-0.10691682576444074
57	0x3fa98e323a900a1d	0.049912995957147134
58	0xbfc042cc0f880fe7	-0.12703848608373322
59	0x3fbe39c8e5eaf26a	0.11806922543741796
60	0xbfa8f3ee18dd3ee5	-0.04873603871840063
61	0x3fa85ab6d03ee124	0.047567093773468266
62	0x3f455237c92e270e	0.0006506702796837697
63	0x3fcaccde4d23efb4	0.20937708632106722
64	0x3fc428ac6948c13e	0.1574912561495782
65	0xbfb46ccb2bdcdbb3	-0.07978505917422644
66	0xbf9f52f7edd862d5	-0.03058993710701226
67	0x3fb58cfe5a9aface	0.0841826411442341
68	0xbf9302545fd0cbe3	-0.018563574169274132
69	0x3fc2f9b4b4ad7560	0.14824541875979502
70	0x3fbf39d32820c28b	0.12197608689963084
71	0xbfb1ae78c0626bbd	-0.06906847664724487
72	0xbfc95d523e36168f	-0.1981604388967537
73	0xbfd082c0aa76a88e	-0.257980505436202
74	0x3f7d7daa1b305c34	0.007199921109552188
75	0xbfba780d801248e9	-0.1033943593668344
76	0xbfc76406caf0da77	-0.18274006756992708
77	0x3fbf4c82e849d33c	0.1222612206564237
78	0xbf8482abdb084e80	-0.010014860746230925
79	0xbfc06d03d462810b	-0.12832687254286443
80	0xbf8756174f9b94ed	-0.011394674412665807
81	0xbf8e74727deabb0b	-0.01487054297225889
82	0x3fc7156cce25e4ad	0.18034133973904912
83	0x3fb4305b4b0c78e6	0.07886286337131629
84	0x3fa69b33ed802e84	0.044152853719507085
85	0x3fab1cc8fada6f3a	0.052953987714515496
86	0xbfa582cf6ce671fb	-0.04201362804744587
87	0xbfb89cfe35c477e5	-0.09614552319223398
88	0xbf9d67aa0f490e7b	-0.028715760405488382
89	0xbfb0bec73f4ccca9	-0.06541104598436455
90	0xbfb03f85f9b832c4	-0.06346928927105028
91	0x3f8c349196a6e12a	0.01377214184763938
92	0xbfb9670eeeb89f8e	-0.09922879532007142
93	0x3fc56641a245cbf8	0.1671831171366589
94	0xbfd0cc3f72713d19	-0.26246629882821676
95	0x3fb884fa26318f9c	0.09577907021008375
96	0xbfa0f1094b472936	-0.033088961066442144
97	0xbf96430276830feb	-0.02173999641742334
98	0x3f99b818b7752ee5	0.02511633510338997
99	0x3fb429d1b78d3497	0.07876311045875393
100	0x3fa7cd033bf67266	0.04648599726644846
101	0xbfbaf3609db0bbfa	-0.10527614450323589
102	0xbfb429d857858ce0	-0.07876350533256327
103	0xbfc3ae924444117a	-0.1537649949388074
104	0xbfbbbef056c0dd85	-0.10838224523546643
105	0xbf96a96a105a5a20	-0.022130639312843425
106	0xbfbf92b133a6e122	-0.12333209525138902
107	0xbfa3cf0915a8f183	-0.038688930410418564
108	0xbf9b6c72edeed692	-0.026780887386584747
109	0x3fbee91b0649f53c	0.12074440864121966
110	0x3fcb0077f39bf2d4	0.21095179934481811
111	0x3fa0ed92a7c01663	0.03306253717168486
112	0x3fadae2d6324aa34	0.05796949229473505
113	0xbfc41a6d846e2f40	-0.15705651251152553
114	0x3fc6e7b53ae70ecb	0.17894616485693002
115	0x3fc315fdbfbe2c02	0.1491086183781079
116	0xbfbf423c7b56bdb5	-0.12210443507387121
117	0xbfc816e009e483a6	-0.18819809420622596
118	0x3fbd13d61e44dc9f	0.11358392943371819
119	0x3f87890619b8d548	0.01149182096478775
120	0xbfb6939037eedbcf	-0.08818913808396121
121	0x3fb9a8f66c707117	0.10023441455308944
122	0xbfb99fe0fb6ef9df	-0.10009580744279088
123	0x3fc47727717c5786	0.15988629380506952
124	0xbfaf998bc79d3dde	-0.061718338124247415
125	0x3fc88953a712c210	0.1916908803737134
126	0xbfb75c5d2a668276	-0.0912531116978331
127	0x3f8605150c5db022	0.010751881065253658
128	0x3fbb8723cd903852	0.10753082054745391
129	0xbf94fb35b7ee39af	-0.020489539481383264
130	0x3fc514c6c206a5c9	0.1646965453522127
131	0x3fc1f1131539db4c	0.1401695111887541
132	0x3fc450ea48b111a5	0.15871933507345407
133	0xbfc7b9a878e4ca09	-0.18535333540928914
134	0xbfa1a92de22b97d3	-0.03449386010997526
135	0x3fb55309aa8943df	0.0832983056400418
136	0x3fc0bd0bdff28f52	0.13076923785149092
137	0x3fcdfec9e9773ab9	0.23433803462690664
138	0xbfab1a378be877ae	-0.052934394672987536
139	0xbfc4283068f4dbdd	-0.15747647404506795
140	0x3fa95318ec39e671	0.04946210750217695
141	0xbfb9fe63598df2c7	-0.10153790413273632
142	0x3fa0073bc6e9c2a4	0.03130518725527523
143	0xbf69ff524bdbcde4	-0.0031735045766880677
144	0xbfa5baf6c36a4048	-0.042442046503425035
145	0xbfca27f30663865d	-0.20434415637923822
146	0xbfb394c92a647dac	-0.07648904118513283
147	0x3f9255a52ada1661	0.017904835453484206
148	0x3fbaa727c23b187d	0.1041130875774758
149	0x3fbe695630de0bb2	0.11879481022883345
150	0x3f951cba7b7cb1ea	0.020617402827314203
151	0x3fd22a2507186920	0.2838223046579902
152	0x3fc5d6668ea61de7	0.1706054874923517
153	0xbf8d92948d155139	-0.014439735942382558
154	0xbfa5815c5cc3365e	-0.042002569507172835
155	0x3fc1f7130a103f0d	0.14035261145954117
156	0x3fc525322b7d3b60	0.16519763110633345
157	0xbfad3d0a3f2f562d	-0.057106323445321606
158	0xbfc3da9999a7fa82	-0.15510864260427942
159	0x3f9e5f60e259202a	0.029660714926905175
160	0xbfb1edd02d7bc6b0	-0.07003499136387847
161	0x3fc073d129745acf	0.1285344555296519
162	0x3fc4c714fc41779d	0.16232549969839463
163	0x3fc9fa0c95e592d7	0.20294339484384835
164	0xbfcb6b764962fbac	-0.21421698172886516
165	0x3fb700a7741138b4	0.08985373099969501
166	0x3fcccc02197d894e	0.22497583622596057
167	0x3faa3d764f22e0da	0.05125016895311925
168	0xbfc39d4cbf7cdfd0	-0.1532379088400817
169	0x3fc38a8ea728d291	0.15266593134005693
170	0xbf98d9cab056fe78	-0.024268309605530253
171	0x3f60e1563407f025	0.0020605739266539463
172	0xbf98f71fa977781a	-0.024380202024865218
173	0xbfb390bdb60d9319	-0.07642732329038572
174	0xbfccadeed443ab6d	-0.22405801166982134
175	0xbfc776b5bf952521	-0.1833102403127578
176	0xbfbb4b3aa6361d78	-0.10661665494818873
177	0x3f710bb556390126	0.00416155657472953
178	0x3f8e68eff520c2c1	0.014848589580738094
179	0x3f7f55327cb8f5c2	0.007649609771360701
180	0xbfcb6dd604daae9f	-0.21428942906401446
181	0x3fa450df6cd5c3c6	0.03967951015045616
182	0xbfc1e51d4f0ac6fb	-0.1398045192668674
183	0x3fcc38ec7f79b3fd	0.22048717712769408
184	0x3fc3108914a4dabb	0.14894212253576264
185	0xbfa20dc7c1f875a7	-0.03526138537220485
186	0xbfb4801b56972320	-0.08007975448630278
187	0xbf9d0093033e6617	-0.02832250315950632
188	0x3f9101f966f1db32	0.016609093578576047
189	0x3fc3209739526ec5	0.14943208979535974
190	0x3fbbc6f0d346903e	0.10850434454056399
191	0xbfb5c10fd0fb013b	-0.08497713901579555
192	0x3fb39f87aa6ec44b	0.07665298376993339
193	0xbfc235f305ff9b6d	-0.14227140229123894
194	0xbf64181b6fba95de	-0.002452901446150276
195	0x3fb297605b2677d3	0.07262232041691101
196	0xbf5a054fd3bc2c67	-0.0015881805001665362
197	0xbfc9053f10e18b0d	-0.19547260593670793
198	0xbfc858eb8dcb73a3	-0.19021362708636244
199	0xbfb14cbde8cf8856	-0.06757723745207164
200	0xbfb06966088d30ea	-0.06410825451638727
201	0xbfd3eae3470f0030	-0.3112114137584312
202	0x3fb5e16f500df9d1	0.08547111229379502
203	0x3fb1a91ab8093f04	0.06898657792157442
204	0xbfb6d436e13ebbb1	-0.08917563437601818
205	0x3f8666643fad21c3	0.010937483971830702
206	0xbfad05fbbbe7ea29	-0.05668627423070333
207	0x3f7f8d7f40f1adfb	0.007703301510541656
208	0xbfa19fc5900c7534	-0.03442208655745063
209	0x3fbcff802502419f	0.11327362922225469
210	0xbfc2cb3b9f9e7a3b	-0.146827176035872
211	0xbf8ee29e42af72dd	-0.015080677423548955
212	0xbfc89946fda9a7df	-0.19217765222430125
213	0xbfcd38bd0cefdfc3	-0.22829402095498894
214	0xbf3a5ed67e986395	-0.00040238129312935553
215	0xbfc144df7c3bb0ab	-0.13491433683464513
216	0xbfc0f0e4c9927d4c	-0.13235149233239907
217	0xbfca36f0456b832d	-0.20480159177443494
218	0x3f8c16544961461f	0.013714464654330403
219	0xbfc490b4cfe8cf00	-0.16066608573748198
220	0xbfb9355f85cfa97d	-0.09847065941690931
221	0x3f72526fc0e5ba9b	0.004473148858194743
222	0xbfa9a3a06ae54143	-0.050076497124452966
223	0x3fc139f28c987b90	0.13458091607114087
224	0x3fbf06184ba477c2	0.12118675085773048
225	0x3fb55ff558f6a57a	0.0834954588123277
226	0x3fb489ca5ff859a9	0.0802275165845915
227	0x3fb133b606b58830	0.06719529784962286
228	0xbfa7a39de6edd037	-0.046170172156877624
229	0x3fb38d224d3c3e33	0.07637228379848508
230	0xbfc04619a39caea4	-0.12713928688878184
231	0xbfab2dde4d86659a	-0.053084322894572725
232	0xbfb20784c46da980	-0.07042722507109112
233	0xbfb9bf586b12686f	-0.10057594884929853
234	0x3fb220bfe607710f	0.07081221929496827
235	0xbfc309cf5298cf05	-0.14873687298824492
236	0xbf7f6731716eae2b	-0.007666772019472338
237	0x3fc249a7107b7312	0.1428726988296139
238	0xbfb5a5bf874a248e	-0.08456036618203397
239	0xbfb9efac8491ff38	-0.10131338345126728
240	0xbfc5eb1457a769c1	-0.17123655586222067
241	0x3f9d5e2506441499	0.028679445750658592
242	0xbfa1f77402efd512	-0.03509104286050947
243	0x3fb4faad3d34e67c	0.08195002311995297
244	0xbfb3ed58e2420f67	-0.07784038089635957
245	0xbfbf3350b562feb1	-0.12187675884615136
246	0xbfab89b243a20dec	-0.05378491473768662
247	0x3fb54a9e6806472d	0.08316984214459629
248	0x3fbd92f99144df00	0.1155239085827553
249	0x3f95f2cce695c08e	0.021434022496976506
250	0xbf6f374da1661722	-0.003810550329208421
251	0xbfd3be8ec4f15fab	-0.30850571854306946
252	0xbfbedafdd02e5a7d	-0.12052904446168529
253	0xbf9679582527415c	-0.02194726683393476
254	0xbf80115c303e0601	-0.007845611784207842
255	0xbfc9df0f92fded56	-0.2021197765096569

fc_hidden_list.2.bias f8 [50]
0	0x3f9f823eed70c67f	0.030770285837383057
1	0xbfc19b2dce530f47	-0.13754818510471464
2	0x3fb5acbb6e7f1721	0.0846669335142818
3	0x3fb1aca6cbb51177	0.06904070351908397
4	0xbfc1b745760d7ee6	-0.13840549721043444
5	0x3fbff86cba1ef39b	0.12488441032378576
6	0xbf775eebb239742f	-0.0057057577974691095
7	0x3fb8e0a17462552c	0.09717759219559657
8	0x3f92d902a30ec48b	0.01840595360016954
9	0xbf968b8e090e5e3f	-0.02201673441194729
10	0x3fbaa328b5473151	0.10405210901007435
11	0xbfc0187542676211	-0.12574640028357512
12	0x3fa95ced492f17d9	0.049537100967014865
13	0x3fb6b71c677a1d75	0.08873155142111051
14	0x3fab5f546aed134b	0.05346168332338282
15	0x3fb2b90e35229e3e	0.07313622281309848
16	0x3f924cbecf7a821d	0.017870885289655292
17	0x3fb2750d2602d5a8	0.07209856203083709
18	0xbfc2e72ce136b67e	-0.147679910628927
19	0xbfa529b851c0d831	-0.04133392332043718
20	0x3fa64abe212a05a6	0.043538991497381205
21	0x3fbe8ddc2982b278	0.11935211194458784
22	0x3fb18c2ee9db0f8b	0.0685452767311842
23	0x3fbc78b95db81af4	0.11121710336747609
24	0xbfbdf2d1d2b0025e	-0.1169863833783977
25	0xbfb1e2d8928dfddd	-0.06986764505381111
26	0x3fc060c112a95f12	0.1279527035828712
27	0x3f990a471c247e30	0.024453269093213048
28	0xbfb89f62d7504ff4	-0.0961820388477575
29	0xbf8720676a871abe	-0.01129227441641711
30	0x3fa1814068c74b20	0.034189236440985704
31	0x3fb4f5d4f89707fa	0.08187609738436655
32	0x3fbe0b684a59f2df	0.11736156287401965
33	0xbfbb75d6acab8a56	-0.1072668239171802
34	0xbfae3811674406c2	-0.05902151475494356
35	0x3f65fb35a5cb5841	0.002683262615714305
36	0xbfb54a78d0f32174	-0.08316760159789799
37	0x3faaa0051d396ae7	0.05200210553876677
38	0x3f9efe51433d6a3a	0.030267019013402875
39	0xbfb19f5769d03562	-0.0688376077016151
40	0xbfacf00802673fc6	-0.05651879338586201
41	0xbfb5df008c5e0e89	-0.08543399264277175
42	0xbfbbe5a54ddf092d	-0.10897286559250992
43	0xbf958ee29073cf5a	-0.02105287558238387
44	0xbfc473cb5d1c42ae	-0.15978376432805902
45	0x3fc0ccb59de557a1	0.131247236344902
46	0xbfc184fa3c55307a	-0.13687065072952348
47	0xbfab02696d2bd935	-0.05275277574212326
48	0xbfac3a6bbe50434e	-0.055133215886718476
49	0xbfc1b03052c8de55	-0.13818935434550164
