savedModel/poisson2d_inverse_tanh/noise_0.01/ParticleWNN_0/trained_model_best_loss.pth (torch, 132191 bytes, 20 tensors)

fc_in.weight f8 [50, 2]
0	0xbfdf62d8bd608312	-0.4904081200966611
1	0x3fda97713c6b6b5f	0.4154933061633325
2	0x3fe94562bf90afab	0.7897199384219581
3	0x3fcd23bf1cff7910	0.22765339771189774
4	0x3fe3a167980ed314	0.6134527177697202
5	0xbfe2437568cf350b	-0.5707346961077361
6	0x3fe4852ad0ecc8e9	0.6412557678761718
7	0xbfe4bea86b15f5b2	-0.6482736674803873
8	0x3fe2ff88a842d9bc	0.5936930929518023
9	0x3fe4a6e34dcc6524	0.6453720588207585
10	0x3fd72149e55f5bd6	0.36140677833230705
11	0xbfd01d4d4175cea4	-0.25178843872638823
12	0xbfd4a839eeffeac1	-0.3227677186948022
13	0xbfe08717b759d3be	-0.5164908009597793
14	0xbfc0fee6711ac3b9	-0.13277893564875656
15	0xbfe82d0d055b66d7	-0.7554993729238174
16	0x3fe2f56e594e960e	0.5924598449971101
17	0x3fbb11cb8e452d99	0.10574028228182043
18	0xbfd25758c3f88bbb	-0.2865812219408174
19	0xbfe026bae34deda4	-0.5047277869738775
20	0xbfe96472961bcbd9	-0.7935116702850521
21	0x3fe9572a3698dc94	0.7918902460431974
22	0xbfd4c9ced0249458	-0.32481737448171577
23	0xbfe1e129a8d5c937	-0.5587356851158692
24	0x3fdfaa926ee85ee2	0.4947858889658915
25	0xbfe21bd456427d34	-0.5658971485862936
26	0x3fe756ed169e4541	0.729361099411257
27	0xbfe1666480cb2a32	-0.5437490954876181
28	0xbfe8872e33319f18	-0.7665015220527236
29	0xbfb45a5436a94490	-0.07950331053258908
30	0xbfe2285e4f5648da	-0.5674277829696408
31	0x3fe121d4980892e0	0.5353796929744838
32	0x3fe2666e8fd0b226	0.5750038918391212
33	0xbfded7baba6dc50c	-0.48191707807480166
34	0x3fd1428ca016910d	0.269686848007283
35	0xbfd90f6821e5ab0e	-0.3915653544451495
36	0x3fe55fc8213bacd5	0.6679421090206242
37	0xbf91dd275b8126b6	-0.017445197067252415
38	0xbfdad4b3da2fcff5	-0.4192323332529207
39	0xbfdd32ed1c68f3cd	-0.4562332894745936
40	0x3fc26b301003a44d	0.14389611036247843
41	0xbfca3416e48c8e0d	-0.20471464309331147
42	0xbfd86be1109892ad	-0.3815844213552662
43	0xbfdbe3383fc0f440	-0.4357433912844648
44	0x3fea99ae4fdf8a72	0.8312598762534675
45	0x3fe78dc2437793ba	0.736054546138454
46	0x3fd6d0216424ec50	0.35645327357969325
47	0xbf9a3591979769db	-0.025594973447235474
48	0xbfe02f1aa47c9871	-0.5057500088339691
49	0xbfc883ad73b0ce61	-0.19151847981412387
50	0x3fdf1f9d1c27b571	0.48630454778216065
51	0x3fe5a01e456bd41e	0.6757956844218176
52	0x3fc157e1ffafd16f	0.13549447045046345
53	0x3f9bea56869dadfd	0.027261115995697683
54	0xbfebc94a9120a46e	-0.8683216890832577
55	0xbfe3a090306d2299	-0.6133500047518111
56	0x3fe6585311a11758	0.698281797821191
57	0xbfb414a8818c3a94	-0.07844021952426267
58	0xbfe149e5bfb689ae	-0.5402706856150894
59	0xbfd5105b3b259421	-0.3291233136754404
60	0xbfded48c9d371ab6	-0.48172297814418685
61	0x3fdbec3387b3a32e	0.4362915826045989
62	0x3fe8ff1fda87a26e	0.7811431186829176
63	0x3fcce0bbd16df955	0.2256083271603965
64	0xbfb683b8a90a3198	-0.08794740797947609
65	0x3fe2c3dcd4cc821f	0.5864090114810699
66	0xbfd350f97b6c724d	-0.301817293673399
67	0xbfe29d0832702748	-0.5816689477080468
68	0x3fe849c567d70b63	0.7590052631497709
69	0x3fca6361c0f3ae48	0.20615789338568136
70	0xbf993cc39f1d54aa	-0.02464585932405742
71	0xbfe649bca073b1e8	-0.6965010770632576
72	0xbfe4f2d4199e85c0	-0.6546421528220705
73	0x3fa402d4cf89013e	0.0390841010416829
74	0x3fd716d251189f17	0.36076791686581217
75	0x3fe34c8f8ca20e38	0.6030957934130532
76	0x3fe0314b73e2f2f9	0.5060174239548295
77	0xbfd8739fcf53eef2	-0.38205714461194795
78	0xbfd548cf9d3e26ca	-0.33256903033962415
79	0x3fd37b0c4ab84968	0.304385254830001
80	0x3fe5a27847b4851b	0.6760827446452454
81	0xbfdffa864a2ebefa	-0.4996658062400311
82	0xbfbfdb0a08b0e293	-0.12443602287465642
83	0x3fd30cb4e38d7b9e	0.29765054914417444
84	0xbfc346624caa2669	-0.15058544867888493
85	0x3fe5cd11926ac242	0.6812827930171539
86	0xbfe2c326f72dd005	-0.5863222911561939
87	0xbfc21ef5a903f8a1	-0.14156981232367108
88	0x3fe42cf93209fa5a	0.6304899194072491
89	0x3fe6ad08e8ec417c	0.7086224126124274
90	0x3fc7bc8bd34c8d83	0.18544147317252788
91	0xbfe0a0499be70f06	-0.5195663495037202
92	0x3fbdac642515aa50	0.11591173081766581
93	0x3fe5e71d10ad8d70	0.6844621015301708
94	0xbfd7b448d7d38962	-0.3703786952666147
95	0xbfdc403f87c3f2ef	-0.44142139681188913
96	0xbfe98d56b5538e49	-0.798503259804826
97	0x3fcce821272aec99	0.22583403027042406
98	0xbfd81b43a95af6d4	-0.37666408098799065
99	0x3fe398f3a9d2a64a	0.6124208752491509

fc_in.bias f8 [50]
0	0xbfe707497f3c0c90	-0.7196395382928973
1	0x3fcd969b52ace83c	0.23115865265737223
2	0x3fd3c626eaf8a461	0.30896923967754303
3	0x3fd5e4010329657b	0.3420412569881461
4	0x3fc4d2b5a8e15c55	0.16268034692868363
5	0xbfab75ca587a6380	-0.05363304452948281
6	0x3fe5276c0c3aef57	0.6610622633811357
7	0xbfdc88685f91d912	-0.44582566578846283
8	0xbfdb7265c3ecd3f4	-0.42885727055846634
9	0x3fe4c87c1028e1b0	0.6494732204073923
10	0x3fd57fcb7d6f2b6d	0.3359249806350622
11	0xbfe642cb80a17c77	-0.695653678161661
12	0x3fe0413447294ec9	0.5079594983930856
13	0x3fe01b8f1227ce5e	0.5033641199683634
14	0x3f978d0af95ecee5	0.022998973341329516
15	0x3fde70f29982a2d1	0.4756437777637475
16	0x3fe6b514e1a422bf	0.7096046835950672
17	0xbfc2e98b4bafed97	-0.14775220103898043
18	0x3fc19c6df2255607	0.13758634875800643
19	0x3fd8f6d9beee1c52	0.39006656308669563
20	0x3fd4310afaa2187f	0.31549334026238535
21	0x3fe652e1b092378a	0.6976173828750103
22	0xbfd341464022b1a5	-0.30085903418764764
23	0x3fdb28b399b141f1	0.42435922631287243
24	0x3fcb85362b2e1223	0.21500279529949848
25	0xbfcaa234ede52be3	-0.20807515731789214
26	0xbfe17c47a9fe25c8	-0.5464208908244297
27	0x3fe33037e29bd08a	0.5996360231352054
28	0xbfd89ea0e22fe7bf	-0.3846819123133364
29	0xbfd60fe6489247d0	-0.34472043120433415
30	0x3fd48876fa7b0198	0.3208291479204717
31	0xbfdaa4cc72e0b869	-0.4163085100034381
32	0x3f71f163c927a52d	0.004380597866181985
33	0xbfe548c3efb3c718	-0.6651324922260953
34	0xbfe3213e9e405e1c	-0.5978081789825782
35	0x3fda1996d28bf9d1	0.40781183778008506
36	0x3fe1b60ad36f5868	0.5534719590748525
37	0xbf933e985aab68b8	-0.018793468984633604
38	0xbfd108465dcc1785	-0.26613005790601846
39	0xbfe1980ae1f04915	-0.5498098767150476
40	0x3fe2fcb36f16cd9d	0.5933472795208449
41	0x3fe4ae5bcb09d180	0.6462840047447997
42	0x3fe3eaca86e95f8a	0.6224110255234205
43	0xbfb74f1c2c092e55	-0.09105087351888959
44	0xbfddb74fae03866a	-0.4643134307244511
45	0xbfcbd0df5204f2a9	-0.21731177811479555
46	0xbfd8021358fe5228	-0.3751266831471036
47	0x3fc3864d63234314	0.1525360807486541
48	0xbfe66551241d491e	-0.6998677926406207
49	0xbfb4575d9ab7167d	-0.07945809390283816

fc_out.weight f8 [1, 50]
0	0x3fad11d118713ddf	0.05677655623787436
1	0xbfc11019a02d7122	-0.13330383607070312
2	0x3fc4e51971a8ea31	0.16324155854984349
3	0x3fc334d82da56e4c	0.15005018452471786
4	0xbfc6a612afe081ad	-0.17694314563506222
5	0xbfbe51c347a8228e	-0.11843510150368727
6	0x3fd0030c13cf6be5	0.250185984941423
7	0xbfbb20924fd9464b	-0.10596575211936814
8	0xbfb9bcc5887d928a	-0.10053667623794574
9	0xbfb3361190795bbd	-0.07504377152632365
10	0xbfa9e1a201b74d44	-0.050549566945529395
11	0xbfb6586ee6d8fdf2	-0.08728688369682638
12	0xbfaf44178c56b87c	-0.061066375619120955
13	0xbfabb0a99f952d6d	-0.05408220360785774
14	0x3fa921686df76007	0.049083007262822824
15	0xbfc0a18d000da343	-0.12993013861275857
16	0x3fbd717a5c9d4009	0.11501278649416248
17	0x3fc1f81eba931c69	0.14038452253427927
18	0x3fa3a0d023a77939	0.03833628115875105
19	0x3fbaa165224c454c	0.10402519309379449
20	0xbfca10dfc66970fa	-0.20363995731430135
21	0x3fb873e1c34d5538	0.09551821725957133
22	0xbfb7c7c125c28b1b	-0.09289176151154914
23	0x3f060ccf1b67b838	4.2057104497548006e-05
24	0xbfacab8128694af1	-0.05599597566892623
25	0x3fbda069eee58c64	0.11572897036016766
26	0xbfbca2f9ce46836d	-0.11186181341191821
27	0x3fbd2c490a2b74b5	0.11395699022564794
28	0x3fc3dbd93e7bc6be	0.15514674712135518
29	0x3fb31970ee64d178	0.07460695095216419
30	0xbfc358273a28f17e	-0.15112772312012263
31	0xbfb63474965d4acc	-0.08673790617948923
32	0xbf9922e04a3f07f5	-0.02454710438883719
33	0xbfaaee564e4b583b	-0.052599618012820724
34	0x3fa722a180a6d73f	0.04518608756499853
35	0x3fbd7f943d388748	0.11522795195244584
36	0x3fb83248168276de	0.0945172362284796
37	0xbfc9687122a1e53c	-0.1984998149016891
38	0xbfa46c5fa2be0272	-0.03988932477569031
39	0xbfb586bdbdd3f0b2	-0.0840872372099877
40	0x3fc36f15552a02e0	0.15182749422458297
41	0x3fba4503ead85f1a	0.10261558993840617
42	0x3f98ee503ca1da08	0.024346593571374725
43	0xbfb52a9b8ff46bb1	-0.08268139137764653
44	0xbf96aa449f2111f3	-0.02213389607665479
45	0xbf944633060e257e	-0.019799039120277133
46	0x3fc09d2765c36df6	0.12979595631519175
47	0xbf6703fff4324c92	-0.0028095244502509076
48	0x3fc266955620d2b4	0.14375559525946857
49	0xbfb5e37473206bc0	-0.0855019360609921

fc_out.bias f8 [1]
0	0xbfb7806c53014810	-0.09180333162774468

fc_hidden_list.0.weight f8 [50, 50]
0	0xbfb86f0ab9d3cddf	-0.09544436489868911
1	0x3faf3eb5051967ba	0.06102529227491922
2	0xbfb45dc8278608b1	-0.07955599751406585
3	0xbfad569397e0a887	-0.05730115155195486
4	0xbfb36e1df18356b4	-0.07589900156321044
5	0xbfa9b7749900bf20	-0.05022777908049947
6	0x3f9c0ca0ded26d8d	0.02739192352292501
7	0x3fb6516626ddf1a5	0.08717955063725087
8	0x3fb3561acb94a8bf	0.07553260297996454
9	0x3fac341a58dd12f7	0.055085013721088254
10	0x3fba1456b035116b	0.10187284280715907
11	0x3f9a85818f209008	0.025899910317221525
12	0x3fa6b638a5d14559	0.044358988038434695
13	0x3f8dbb8e96d8a841	0.014517892816986346
14	0xbfbd1e2e9aa92db9	-0.11374179149532083
15	0x3faba32389eeffb3	0.05397902544746049
16	0x3fb6b8d5960607fd	0.08875784790691905
17	0xbfac8f42911eea26	-0.055780487265526355
18	0x3fb1dd2166a00b44	0.06978043323037492
19	0xbfb326fe96f35bd4	-0.07481375871007795
20	0xbfc0d2a4f57c88a5	-0.13142835604327732
21	0x3fb62760fa034ceb	0.0865383730299986
22	0x3fbc69cb5ea2ef42	0.11098929462872056
23	0x3fc0e29c0e8d00a6	0.13191557608116006
24	0x3fa35111c61716f0	0.0377278856572455
25	0x3fbc8b5547877e91	0.11150105472870055
26	0x3fb459ed50888ada	0.07949717727801034
27	0xbf9841bfd94ee66c	-0.02368831409305587
28	0x3fa5834fd7b4c1ca	0.04201745517855533
29	0x3fb31fd91e56cf4c	0.07470471373272608
30	0xbfa409a48152a2e3	-0.039136067186807975
31	0x3fbac596c7a2b59f	0.10457746862331029
32	0xbfaa8e87a71a63f8	-0.051868666790319595
33	0xbfb6c652855ad7bb	-0.08896365886434314
34	0xbfb29c1a3a43528d	-0.07269443437992092
35	0xbfa355f21de2cdaa	-0.03776508917635664
36	0xbfaeedfc4756c7a1	-0.06040943499409868
37	0xbfb2087b798338ca	-0.07044192997566082
38	0x3f9d4511a7478d58	0.028583789668016862
39	0xbfa29108388ac0e4	-0.03626275720796615
40	0xbfa1aaa8cabbe81d	-0.03450515246181871
41	0xbfc0a35e0ace159d	-0.12998557593907104
42	0x3f934dfe426f8d4d	0.01885220795146596
43	0xbfc365b0fec8d718	-0.15154087486887913
44	0xbfbba5abfe920aac	-0.10799670186137672
45	0xbfb902a206f5a2c3	-0.09769642515096692
46	0x3faa45e6adf66025	0.05131455300869473
47	0x3fbf467ecb484a88	0.12216942274998577
48	0xbf8f2a6dc787b5d1	-0.015217645312953916
49	0xbfba1453844d7a42	-0.10187265377087676
50	0xbfc07c7a3421c77e	-0.12879874749665626
51	0x3fd32fc0be88edfd	0.2997896061603738
52	0x3fb1522abb8a95e8	0.06766001776357877
53	0xbfb247d81b3d5271	-0.07140875496890843
54	0xbfa60dac709c9bf2	-0.04307307123809058
55	0xbf9afdcca301b862	-0.026358792733326537
56	0x3fbeb432208c10d3	0.1199370698414584
57	0x3f819a9b668577ec	0.00859567076320996
58	0x3fbdfb413d63836b	0.11711509464977403
59	0x3fc3633031ef2bf0	0.15146448553272718
60	0xbfb6316fa6a719bd	-0.08669183558149647
61	0xbfb0fb54e375afd4	-0.06633501580444029
62	0x3fc7e97ed570f75b	0.18681321546494697
63	0x3fb49d82249121a5	0.08052838700053273
64	0xbfd207a03421bb70	-0.2817154416178971
65	0x3fa1065e1d2eb542	0.03325170618277663
66	0x3fc227943d50831b	0.14183285707351775
67	0xbfa7ff8bca722393	-0.04687153669608004
68	0x3fa1e0c9b61b07f9	0.03491812084168084
69	0xbfc27a0a493441ba	-0.14434937071247395
70	0x3fcb445aaaa5584d	0.21302350361173908
71	0x3fa7e465664db876	0.0466643988973922
72	0x3fc16f3bcdb5fc9b	0.13620708031155435
73	0x3fa54b00c41b0595	0.04158785241953492
74	0xbfc6afd0e2bf7140	-0.17724047729178416
75	0x3fbeb7d279e515a0	0.11999240375469933
76	0x3f81240a8d8d7eb7	0.00836952442631343
77	0xbf83801753eaadae	-0.009521658180651506
78	0x3fab3fa45b65b72e	0.05321992507638949
79	0xbfb52d0b4451f8b6	-0.08271856706594147
80	0x3f837168db620e4d	0.009493655390776424
81	0x3fbba72b64e259ac	0.10801955426209159
82	0xbfb075a5b25f7e70	-0.0642951546174062
83	0xbfc2bd4d9b418125	-0.14640207367757188
84	0x3f98403027f2228f	0.023682358205891204
85	0x3fbab1608f226a91	0.1042690610360444
86	0x3fba649abbebd60e	0.1030976017753675
87	0x3fc14783d3b868ae	0.13499496305377562
88	0x3fb0fcb24ae5558d	0.06635584190856587
89	0xbfcc42d4e12a3ce6	-0.22078953737625467
90	0x3fcce0757c951352	0.22559994300004377
91	0xbf94fd7d688d6609	-0.020498237139099405
92	0x3fb895e05629c99d	0.0960369310721831
93	0xbfb1ca0671dc9778	-0.06948890952898334
94	0x3fb1d0a3dd1e1c1f	0.06958984516505538
95	0xbfbadb8378fd0668	-0.10491201118295523
96	0xbfb07e37844c6fe3	-0.06442591648050171
97	0x3fa2c6c8b67b5689	0.03667285182534125
98	0xbfb1295b372faacf	-0.06703729722327555
99	0x3f9453ff2a6fa2eb	0.019851672139256243
100	0x3f79fd2f6da79842	0.006344971911380228
101	0x3fbf1aae6d134ac7	0.12150087511990214
102	0xbfc31910c35b4873	-0.14920243777175166
103	0x3f8cbfdeaec86b87	0.014037837704611323
104	0xbfb7b4a8be2c2ea9	-0.0926003898895781
105	0x3fb526ed0f88447e	0.08262521390158103
106	0xbfc5ac64415302cd	-0.16932347478543477
107	0x3fb6c07d16922986	0.08887464333580483
108	0x3fa4e9fb80e4f38b	0.04084764431397677
109	0xbfc6939b2eded9c5	-0.17637958325003758
110	0x3f9d903a849b796e	0.028870500892361255
111	0xbfaead355d0b2132	-0.059915225608678915
112	0xbfa5d515afc815c2	-0.04264133234759583
113	0x3fad9783cc7e20d3	0.057796591484533665
114	0x3f38be00e78d3950	0.00037753603060232833
115	0xbfbd4bc515b236c0	-0.11443740634623634
116	0xbfc12a59e9df05c5	-0.1341049568127756
117	0x3fbf57108e36169a	0.12242225143389832
118	0x3fb23b4770e93837	0.07121702677361062
119	0x3fb16cf8aeb54486	0.06806902184804828
120	0xbfafc0c593b6fb1f	-0.06201760700377278
121	0xbfb56e5a8332b568	-0.08371511176183832
122	0xbfb4ab1cfd07f4ea	-0.08073598077313063
123	0x3f5cd392122544e2	0.0017594267342995675
124	0xbfaefe5a8fa97294	-0.06053431514439925
125	0x3f9a00f9d6bd7b27	0.02539434788865971
126	0xbfb6650fa2811a26	-0.08747956960096612
127	0x3fad18d614b41162	0.056830110575932805
128	0x3fc1013cd7fcb9e2	0.13285027071238092
129	0x3fba34b0f4403c5e	0.10236650431782965
130	0x3f90738a0c586f3f	0.016065747264391247
131	0x3f91b71dd1ce2c4c	0.017300096445563448
132	0x3fb54c871e212798	0.08319897161086798
133	0x3fa2f5bbe089a011	0.03703105083405956
134	0x3fac301d94379ca8	0.055054592459606255
135	0xbfa72334a872ab30	-0.045190473139277265
136	0xbfa99177098ed6a0	-0.04993793479608866
137	0x3fb349ef51d40a4f	0.07534690616379545
138	0xbf8310a06f0c920f	-0.009309056652974794
139	0xbfb504789598a56b	-0.08209947254421983
140	0x3f91d287b00b00c3	0.017404670829592527
141	0xbfc74016116d041f	-0.18164325571891113
142	0x3fbc1ac67af8922d	0.10978355886670306
143	0x3f931bff1a2c5e27	0.018661485645763556
144	0x3fba8beafe23d1bb	0.10369747833812586
145	0xbfb6693219b3c627	-0.08754265906807089
146	0x3fbdd3c87c39c4a4	0.1165128043446822
147	0xbfb555989a1dfe9e	-0.08333734285951741
148	0xbf9c101122a11b8a	-0.027405040491682388
149	0x3fc1cfe21991edc2	0.1391565918782885
150	0x3fa07104bc40f123	0.03211226270693348
151	0x3f8cb0b02c4bf124	0.0140088809507622
152	0xbfc07711b0cf9852	-0.12863370068879704
153	0x3fc0f72a16cccad3	0.13254285920409944
154	0x3fb71fefc7178614	0.09033106432573162
155	0xbf5e101dd8d3a064	-0.001834897181931105
156	0x3fc1bc62718ecd42	0.13856154007735638
157	0x3fa0d72737b36d2f	0.032891488599228295
158	0xbfb6195a78816ae4	-0.08632436220197409
159	0x3fbc292a9ecfafff	0.11000315072277543
160	0xbfbd1b855b6765cf	-0.11370118600407085
161	0x3fc0f54a062ae4be	0.13248563100004235
162	0xbfaec8f7bf419a46	-0.06012701234503885
163	0x3f62b99f9d048115	0.002285777802299669
164	0x3fb238d7649d24bf	0.07117983061211229
165	0x3fb77f14a27b07d3	0.09178284613429293
166	0x3fb57c864fdef1ef	0.0839313454625381
167	0x3fa69b9071882da1	0.04415561090362564
168	0xbfaa9534be3425ef	-0.0519196016485458
169	0x3fa673285f15654a	0.04384733353317445
170	0x3fa0eaafb3cca377	0.033040514658131785
171	0x3fb221dbcaa75784	0.07082914064025486
172	0xbf7252a1a648d796	-0.004473334735441889
173	0xbfbd0e07bdd612dc	-0.11349533447907895
174	0x3fc1310149edf9e0	0.13430801496356448
175	0xbfc039adbf699ef2	-0.12676021429364642
176	0xbf61277fa00cef62	-0.00209402968212473
177	0x3fa7bb398205ae9a	0.04635028564629558
178	0x3f612dbc666f240f	0.0020970039072136857
179	0x3fb1a1627cb63c14	0.06886878533099178
180	0xbfc1125355c3b84e	-0.13337175071450463
181	0xbf8cc178a18f6b10	-0.01404089205782591
182	0xbfbbfd0c21493eab	-0.1093299466385768
183	0x3fc23e6c545a4fde	0.14253000372684616
184	0xbfbd4f6204840585	-0.11449253664252097
185	0xbfa04968db18dac9	-0.03181007074856763
186	0xbfc1bb6c70095014	-0.13853221388365056
187	0x3fbb2b7b3743c638	0.10613222216832063
188	0xbfb6302b281921b4	-0.08667249421080819
189	0xbfac725e2a741410	-0.05556005733709679
190	0xbfbb868553639078	-0.10752137456762678
191	0xbfaab7fcb67f5288	-0.05218496062994854
192	0xbf9f347e5d157334	-0.030473684722312558
193	0x3fbafd3f9f36a581	0.10542676579520639
194	0x3fbeb207e60be088	0.1199040352474886
195	0x3fc0273e89b44c6d	0.12619764064638464
196	0x3fa0d35828d762e6	0.0328624296050231
197	0xbfb283e25e83e782	-0.07232489402295353
198	0xbf6d9dafdf064649	-0.0036152300819558875
199	0x3fb8a6b2f33bda45	0.09629362524342706
200	0x3fadbb637934d88d	0.05807028631754561
201	0x3fbcf5cf6938af63	0.11312576598055339
202	0x3fa3ef28d05b5ba4	0.03893401664179599
203	0x3fc262c787ee9e8b	0.14363950860319039
204	0x3faddbdba6b6d42d	0.058318008519030996
205	0x3fa7dccc7743edf7	0.04660643535495617
206	0xbfb6c156bdf14756	-0.0888876165129465
207	0x3fb71e611ee47a06	0.09030730251513583
208	0xbfa5172c39989d4e	-0.04119241908147818
209	0x3f8b7af3eff52cd4	0.01341810775797684
210	0xbfaaaf6e2d296819	-0.052119677555950435
211	0x3fb995ffafec7051	0.09994504971513264
212	0x3fb3a17ecc30223e	0.0766829727655329
213	0x3fb50e46498a54b5	0.08224906249445747
214	0xbfb00b0bc0d9ba82	-0.06266854723228657
215	0xbfbba9349d927393	-0.1080506214806987
216	0x3fb428c0d914041d	0.07874684619675106
217	0x3fab6fe4943c3f0f	0.05358804997933763
218	0x3fab123f03c4cdc7	0.052873582086614905
219	0x3fb1cc503eb5962e	0.06952382594098402
220	0x3f59bb94e45772c4	0.0015706018469849184
221	0xbfb8c2f45c31cb56	-0.09672477007715705
222	0xbfa8450f5b5987aa	-0.047401885891999854
223	0xbfaef6a015a1f6b8	-0.060475351944643874
224	0xbfb5d35576d3dc38	-0.08525594855369512
225	0x3fc03d5f7a8403cd	0.12687295419894298
226	0x3fb280a200fbdc35	0.07227528118151912
227	0xbf58b7c40faf45ba	-0.0015086569462606629
228	0x3fbf33d6c802809a	0.12188475020457404
229	0xbfb2f5d9122085e1	-0.07406384174875981
230	0x3fba3c1192308623	0.10247907466011745
231	0x3f9336386266be1e	0.018761521345082348
232	0xbfc1f7a8fcb6bc62	-0.14037048663655854
233	0xbfa4eb8141400c59	-0.040859259810553446
234	0x3fb4deeda822bffb	0.08152661661983977
235	0xbfb91760e79976b8	-0.09801297811778908
236	0xbfb8a3f1acdf154a	-0.09625158758634203
237	0x3fa1b85a8f238d90	0.03460963246632354
238	0xbf8902c7c25cde82	-0.012212334269505524
239	0xbfb475492db8bc92	-0.07991464010477703
240	0x3fb8d678ffbd29c0	0.097022592960605
241	0x3fb04917a620da03	0.06361530118815754
242	0xbfabe941d1eeb63f	-0.054513985516092316
243	0xbfa8c17df8d9984b	-0.04835122740478023
244	0x3fc192289e9d4a52	0.13727290863842484
245	0xbfb77063e0cf709e	-0.09155868757756244
246	0xbfb5f41821d8ef99	-0.08575583292343793
247	0x3fb00c661dc2e44c	0.0626891920718588
248	0x3fa469d88844c43f	0.039870039591172184
249	0x3fa2cd0c82bf2d74	0.036720648727704225
250	0x3fb620c426c93b59	0.08643747279095972
251	0xbfba88b53f9e53cf	-0.1036484985655328
252	0xbfa2138b2c7d0668	-0.0353053561980346
253	0xbfb5dabcfab9076b	-0.08536893006478656
254	0x3fa4e6b9f0e36c6f	0.04082280221492673
255	0x3fb3b7d7eba7dcc7	0.07702397826493544

fc_hidden_list.0.bias f8 [50]
0	0x3f87379dbc2cf7c3	0.01133654814259078
1	0xbf7936f2692f7de9	-0.006155917088988863
2	0xbfac3d9d50627132	-0.05515758138901318
3	0x3fb96b348d225be9	0.09929207273158593
4	0x3fc2e6c1f0c45953	0.14766716247749886
5	0x3fb56a85c5738620	0.08365665503108533
6	0xbfd1c85b20387e90	-0.277853757348546
7	0xbfc2a837447c6fde	-0.14575854152724238
8	0x3fb77a93285ebdf8	0.09171409354780014
9	0xbf4bf86b34449bf6	-0.0008535884340162825
10	0x3f90d574c66afa86	0.01643927060171759
11	0x3fb85f1d403a7b2d	0.09520132844998548
12	0x3fc520be8b4e1708	0.1650617771339784
13	0x3fc9cd535ba96584	0.20157854056996538
14	0x3fb860e5dcfe7d0c	0.09522854466785108
15	0xbfb814e57ff869e4	-0.0940688550403262
16	0x3fc0f85e95fff117	0.13257963489730493
17	0x3fac5be28df6cb4e	0.05538852675399274
18	0xbfa867a4a2b02988	-0.047665734156981776
19	0x3fbedf499cac868c	0.12059459757849761
20	0xbfb32e4570f4ea68	-0.07492479331714608
21	0xbfb562b1b564e7bd	-0.08353720358436952
22	0xbfb92bea8ee025f7	-0.09832635868237803
23	0x3fbddf50fd786e35	0.11668878734820327
24	0x3f8bcc46216208e0	0.013573215383307191
25	0xbf64b031a2a0d06c	-0.002525422042731809
26	0x3fbad8eb3800ac06	0.10487241856814941
27	0x3fb39bc532bd1f74	0.07659561623324668
28	0x3fb450cae2d14f6c	0.07935779607333665
29	0xbfa9cdcd48a4e89e	-0.050398268811890676
30	0xbfb89e4f8e683464	-0.09616563059553723
31	0x3f9f05b46af74b08	0.030295199421583013
32	0x3fb29b689cdbd5ed	0.07268384770926391
33	0xbfbeb43104611ecc	-0.11993700367849697
34	0xbf8aad0d45018cf4	-0.013025382679364907
35	0xbf637f246dbdc2c3	-0.002379962110289875
36	0x3fb7fcb801279096	0.09369993236720328
37	0xbfb200aa4e946341	-0.07032265108535986
38	0x3f83786c660ef0fe	0.009507033218931312
39	0xbfa5815f93ed4893	-0.04200266533611443
40	0xbfc0fd2c21bc3009	-0.13272620818349903
41	0x3fb9e18412949a06	0.10109734967827685
42	0x3fb1ca4c3b272549	0.06949306911623866
43	0x3f747d84a6616e06	0.005002515949026348
44	0x3fb7a94cd74b4b9d	0.09242706543163455
45	0xbf941165e907c413	-0.01959761843494696
46	0x3fc7ea3be7c65b1c	0.18683575455789814
47	0x3faab60b69c47be0	0.05217013994319308
48	0xbfbf2733e47c98e6	-0.12169193580902835
49	0xbfa24545d4574733	-0.03568475930263872

fc_hidden_list.1.weight f8 [50, 50]
0	0xbfb9081b858b33dd	-0.09777996073098856
1	0x3fc28eeb5720a523	0.14498655084870746
2	0x3fa231f7458a8f3d	0.035537459601327794
3	0xbfb96db7d280c068	-0.09933041466934045
4	0x3fba7af86e4113c9	0.10343887988808755
5	0x3fbadc7b26e4b163	0.10492677402061683
6	0x3fc5f15b1879c378	0.17142809577083162
7	0xbfbf1b6a70cc1875	-0.12151208165968959
8	0xbfb98944055a372d	-0.09975075846361099
9	0xbfa6233a09bf72d5	-0.04323750847809086
10	0x3fb687a8ba3c7b60	0.08800749346526748
11	0xbfc21266eea2e374	-0.141186586877463
12	0xbfb52ce05c262903	-0.0827160096143054
13	0x3fbc3320615af27d	0.11015512825810876
14	0xbfc2bdb5ae31ceef	-0.14641448026269852
15	0x3fc0fad01c80315d	0.132654203335174
16	0x3faf719ae5276bfc	0.06141361281671462
17	0x3fb0fca16dc56e51	0.06635483674966138
18	0xbfb6239752640d3c	-0.08648057710165785
19	0x3f7e85564fc81f0e	0.007451378970024581
20	0x3fbe58c854918f49	0.11854221405661493
21	0xbfa2b66f3bfbd8b7	-0.03654811484550307
22	0xbfaece348ce2f163	-0.060166971395548406
23	0xbfa50b17b3cd830c	-0.04110025472505727
24	0xbfb422ee30a7c645	-0.07865799606204245
25	0x3f91067097c985b0	0.016626128448825106
26	0x3fc1c547cbac9e4e	0.13883302159341543
27	0x3f927af154ac8aad	0.018047114174928925
28	0xbfb64d5225a93ef4	-0.08711732310734616
29	0x3fb4f41dde3d2ecb	0.0818499248099968
30	0xbf9e07cc7825fcdd	-0.029326624711299643
31	0x3fab99d6c8fc056f	0.05390807345794257
32	0xbfbc4240d21e4090	-0.11038594369734
33	0xbfb539b5648d3631	-0.08291181282876249
34	0x3faa1a5ac2c682cd	0.05098231914167215
35	0xbf9d9a2081bca5c5	-0.028908260267746195
36	0x3fa4ff72978b9099	0.04101141071240128
37	0xbfa2719cdd9fcf6b	-0.03602304654478313
38	0xbfb26c96ed264c77	-0.07196944513116131
39	0x3fb35525d06f5db9	0.07551800097222995
40	0x3fc0c2dbb566d32c	0.130946601462392
41	0xbfc01fd510175585	-0.12597144399357432
42	0xbfb0063da96a7b50	-0.06259522806292961
43	0xbf90cb06a9a73bd7	-0.016399482827008285
44	0xbf55da1912724908	-0.001333736881666216
45	0xbfb0c039b5815370	-0.06543312722471994
46	0xbfa2bbec52e2f0f7	-0.03658998977468458
47	0xbfb35a620dbcc162	-0.0755978854692834
48	0x3fbb54c3e30ec77c	0.10676216405297895
49	0xbfa0bff456f1536b	-0.032714496243591316
50	0xbfc2162670993563	-0.14130096910450182
51	0x3fc27da96c23b70f	0.14445989399194345
52	0x3f88fc655b386357	0.01220015701896819
53	0xbf9ae711030f1ee1	-0.026272073566160684
54	0x3f8e88ceb8829418	0.014909377103615326
55	0x3fb9cc5e7f38706b	0.10077467542618172
56	0xbfa305d96f47515b	-0.03715400203114668
57	0xbfaeb40b4e84c5a6	-0.05996737798194411
58	0xbf94dc62ceecee58	-0.020371955756884524
59	0xbfa3b0686bdf3648	-0.03845526043697284
60	0xbf92646215a93f57	-0.017961056301202784
61	0x3fa363de81ce4d75	0.03787131628555588
62	0x3fc22f0b76dfc571	0.1420606928291295
63	0x3fd0e41f22a7c5e3	0.2639234388762743
64	0xbfc536bc87cd2233	-0.16573292380259516
65	0xbf9e93d0bd382a8b	-0.02986074595359382
66	0x3fc4e4bf6dea362e	0.163230827969913
67	0xbfb3cbd75fa94f34	-0.07732912145121135
68	0x3f9ef60ae46e1ce1	0.03023545283533913
69	0xbfacda3f0809f92a	-0.05635258648998083
70	0xbfb6c3401d4d05b2	-0.08891678538659312
71	0xbf906d2ef9cfca95	-0.01604150199632189
72	0xbfbbd6e8f2fd2e70	-0.1087480157122458
73	0x3fa41917f05d964f	0.03925394829893191
74	0xbf964dad458d5e22	-0.02178068863881156
75	0xbfb03ec40d4e5f8a	-0.06345773053032935
76	0xbf96e3e5aed4016b	-0.022353733821547744
77	0x3fb740056cc7c107	0.09082063585060861
78	0x3f8e1a9edafcbcd5	0.01469921212955542
79	0x3fbafc2d211a8096	0.10541040476027982
80	0xbfa65fd094b885a0	-0.0436997586769039
81	0x3f87efc5ee717ffc	0.01168779977723488
82	0x3f4090385ea82a23	0.000505473636907287
83	0xbf9ad5b368f785b2	-0.026205828935308602
84	0xbfb38d871b06f304	-0.07637829217760489
85	0x3fcc28807b7a29c4	0.2199860194126143
86	0xbfca804f11818488	-0.20704067568570772
87	0x3fbf701595dec919	0.12280402096692845
88	0x3fc5831814c73d32	0.16806317343296368
89	0xbfb71540142fca4b	-0.09016800396765594
90	0x3fb2a398240abda9	0.07280875091486529
91	0x3fbd23ddd343a70a	0.11382852943247826
92	0xbfb3e48fed586a1f	-0.07770633263172798
93	0xbfc8f4be197767a0	-0.19496895068624287
94	0xbfa0971d2dc15833	-0.03240290816818039
95	0xbfada548ded2c8b0	-0.057901646804923046
96	0xbfac141a9f4d5720	-0.05484088129621356
97	0xbfc25c6204419ab4	-0.14344430167985467
98	0xbfcc5d9dc0a7a6aa	-0.22160694033600709
99	0xbfc733f746cf0175	-0.1812733741517253
100	0x3fc08f2a97597605	0.12936909093961915
101	0x3f9034c2bbd9d9bd	0.015826266017450175
102	0x3f642af3bf8972ac	0.002461887427030204
103	0x3fa0c6bece197149	0.03276630655156738
104	0xbfb73df8fe8d2e08	-0.09078937735210257
105	0xbf9787d789b24792	-0.02297913339550168
106	0x3fd25239eadababc	0.2862686913967243
107	0xbfb73ec205744ea0	-0.09080135949289536
108	0x3faf10445c759cb8	0.0606709826341158
109	0x3fbdec4716e988a6	0.11688656148320095
110	0x3fa23f133f30d93c	0.03563747545597315
111	0x3fb67b180a29be38	0.08781576393243362
112	0x3faf7e5c32ec1fad	0.0615109264527399
113	0xbfbd1e61665ae095	-0.11374481915379626
114	0x3fab45abc861b804	0.05326592274728628
115	0xbfa1c1d17ca692f4	-0.034681841341159286
116	0x3f743d0dd03bcf1f	0.004941038092272781
117	0x3fbb82398d5824f8	0.10745582295216483
118	0xbfbf1684dc73710e	-0.1214373625002205
119	0x3fbe99542a36ca53	0.11952711134544218
120	0x3fad96df1bff9cd8	0.05779168335703283
121	0x3fb7bfd0447f7864	0.09277059242546809
122	0x3f7f10c21b6b0ea9	0.007584341269367614
123	0xbfc13a34959530d8	-0.13458878806921493
124	0x3fb650a08779db55	0.08716777141112904
125	0xbfc9bfb6039ac919	-0.20116305519111036
126	0x3fb776d050ce45b7	0.09165670368954336
127	0x3f8fef97683445e4	0.015593703143653444
128	0x3fc3b1ee9e0b4113	0.15386755673399274
129	0xbfbbaff9d60d3468	-0.10815392948025393
130	0xbfb562392212f26d	-0.08353001672635126
131	0x3fca619bca336eb8	0.20610377667514057
132	0xbfb5197ce5cb31f2	-0.08242016420553691
133	0xbfb834bd61e2acce	-0.09455474509984471
134	0x3f9cc7b862282765	0.02810562228299975
135	0x3fb9b2a0328c9bbb	0.10038186296570377
136	0xbf9ff9fe7ffb723d	-0.031227089463629055
137	0x3fb48cafd0b0f346	0.08027170987129492
138	0x3fc294b7f838db65	0.14516353244990934
139	0xbfb120bc68c84a17	-0.06690576131976687
140	0xbf9c3bed2888f084	-0.027572351073317694
141	0x3f8663bedba99663	0.010932437017980584
142	0x3fb031bbee5458f9	0.06325888222304234
143	0xbfa40eb882a4733b	-0.03917481035953193
144	0x3fba0d9b3d0d0bf6	0.10177011719228787
145	0x3fc7df06f14f0162	0.18649374754569253
146	0xbfc5107055b933f1	-0.16456417260852121
147	0x3f946ba69fdffc34	0.01994190550612647
148	0x3faa3a200948a5ea	0.051224709637903335
149	0x3fae871b9e4cc130	0.059624541352948035
150	0x3fb8bb243e53cf93	0.09660555383362483
151	0xbfa81f59e7de631a	-0.04711419063023055
152	0x3f950125bff3a10a	0.020512189713287866
153	0xbfbc0becff24508d	-0.10955697278069661
154	0xbf929302d9330c60	-0.01813892794303873
155	0xbfac36e3b43a4c9f	-0.05510627341313889
156	0x3f99e11ffb97843b	0.025272845965336393
157	0x3fb6c3fd5c933a22	0.08892806539663714
158	0x3fc28ba8c26d591c	0.14488706105721227
159	0x3f9c8e600d93557b	0.027886868313392803
160	0xbfa48b0e3c33fc76	-0.04012341008091706
161	0x3fc08dd419d4ac5c	0.1293282629133924
162	0xbfc1b347eadebd1b	-0.13828371971383366
163	0xbfd1299e3c138f0d	-0.268165167492257
164	0xbfa2a6dccb9607e1	-0.03642930970364922
165	0x3f9569a8068b76f1	0.02091085948892774
166	0xbfca481474d18ef8	-0.20532470420868498
167	0x3faf79814d10e4d5	0.06147388520953149
168	0xbfb8f9b7a322df6f	-0.09756038410966793
169	0xbf9c4edaa58c0b42	-0.027644554475965373
170	0xbfb0035099b9a7e0	-0.06255058053071094
171	0x3fb82b9cbb237515	0.0944154698258511
172	0x3fbe6930987d548b	0.11879256937875675
173	0xbfbd0a210ebc7f45	-0.11343580827496876
174	0x3fac396ad1ffe8c8	0.055125558981630685
175	0xbfa77f3872fcc814	-0.04589249042182089
176	0xbfb8b9d0af8a114d	-0.09658531461361015
177	0x3fba4e2f1672a096	0.10275549219170652
178	0xbf9c40ae121bd7d2	-0.027590484481116402
179	0xbf9313986b9308ed	-0.018629437986199916
180	0xbfba2e0ad0625abf	-0.10226504886154951
181	0xbfb014d10a5c1eb2	-0.06281763556409706
182	0xbf9e64a1a7258981	-0.029680753542729036
183	0xbfc4085cb621a8b8	-0.15650519269121843
184	0x3f9a8f6df3cf0475	0.025937765127086416
185	0x3faa7f81ae29d31e	0.05175404788034242
186	0x3fc2bb004d938465	0.14633182323362628
187	0xbfb40a6a2eb83eb1	-0.07828391686075055
188	0x3fa5cc2a24ee94d8	0.04257327748136114
189	0x3f914ebae73187af	0.016901893959932298
190	0xbfbe26ad32eee172	-0.11777765744671401
191	0xbfa63948f3af00bb	-0.04340579962399845
192	0xbfc347dd16145b13	-0.15063060358144095
193	0xbf9e39b37667752e	-0.029516986944021877
194	0xbfa8365f277b395a	-0.04728982312154768
195	0xbfb597cc1b6f5083	-0.084347492883639
196	0xbfba4fa34415ecca	-0.10277767574546029
197	0xbfbb1019b29ab6dd	-0.1057144223256858
198	0x3facd39e2f08b16e	0.05630201648850429
199	0x3fb29e374eb9ca4d	0.07272668525710309
200	0xbfb30397c4d86a38	-0.07427357250018296
201	0xbfa083e881f1b2aa	-0.032256379949875694
202	0x3f973d311088297a	0.022694365152383857
203	0xbfb68aaa8e73eb16	-0.0880533788476153
204	0xbfb31951034403ec	-0.07460504846314081
205	0x3f9375bab24872e3	0.019003789073496768
206	0x3faffadf075db45d	0.0624608704082241
207	0x3f9b2e167e5a587a	0.026542998754472504
208	0xbfbd8c3e78b59b74	-0.11542120406157413
209	0x3fb1ed04ca57414e	0.07002286853753967
210	0xbf9351c6fc593f78	-0.018866643097055186
211	0x3fc419fdea55584c	0.15704320852336406
212	0x3fc371075132a160	0.15188685860381224
213	0xbfb8d6b23fe11c88	-0.09702600535921324
214	0x3fc121077ee29b77	0.1338204736286703
215	0xbfa90b9807f5592a	-0.04891657921932542
216	0x3f9585d44d86c71d	0.02101833079513603
217	0xbf8de813b6e9e36a	-0.01460280801733101
218	0xbfab8cc2c0eec1b0	-0.05380829434523393
219	0xbfb713878d1f2f41	-0.09014174647671515
220	0x3fc2a2d0fbc8eeb0	0.14559376043495353
221	0xbfc27f7e50d533d3	-0.14451579043307436
222	0xbfa70415757214c9	-0.044953032099365915
223	0x3fa6172cceb388a1	0.04314556143960258
224	0x3fa615ec9e6a8854	0.04313601907530598
225	0xbfb6a976c40df12c	-0.0885233143471324
226	0xbfbc43f69505d93a	-0.11041203630688737
227	0xbfb064d4488fb3ab	-0.06403853198544478
228	0x3fb2b7f96c346097	0.07311972514833297
229	0xbfb87ee7a5497197	-0.09568641457867098
230	0xbfb5c9772ce2758b	-0.08510537000480249
231	0x3fc2631d8c38df3e	0.14364976259980183
232	0xbfb4345421d547e3	-0.07892347169880014
233	0xbf8523ff4ad0eac5	-0.010322565527635228
234	0x3f90e605411e32fb	0.01650245866726417
235	0x3fa6994c7b197731	0.04413832667044771
236	0x3f59a8e27c32e432	0.0015661441582735078
237	0x3fba49fb133f8df0	0.10269135684898578
238	0xbf531f4839ac40f3	-0.0011671262097401852
239	0x3f6ad490eed24892	0.00327518756109508
240	0x3fb7937f9867a7ec	0.09209439726660634
241	0x3f8cd9565407e07d	0.014086412848868907
242	0x3fb2707a9aa376f2	0.07202879214625194
243	0x3fa4477a3943e6e8	0.03960782956160164
244	0x3fbee0678d2f5ae4	0.12061164090060178
245	0x3fb8daab9aa00284	0.0970866444113288
246	0xbfb49776a128e6aa	-0.0804361480194539
247	0xbfba67bb76b24c55	-0.10314532897818769
248	0xbfa65ebb9cd5e598	-0.04369150437828323
249	0xbfb9a7d87754cfb4	-0.10021737016069104
250	0xbfa62496dd15303c	-0.043247904288904654
251	0x3f6681638fac4520	0.0027472443156361243
252	0x3fc086ebd2149764	0.12911746747812025
253	0xbfa9fe7ccf84c8e4	-0.050769710857268696
254	0x3fae51c89c38ac85	0.0592177096080713
255	0xbf6d75d408f015a1	-0.003596223955812675

fc_hidden_list.1.bias f8 [50]
0	0xbfa94617f976a8a5	-0.04936289711197731
1	0xbfb2463b3e259e08	-0.0713841463781294
2	0x3fc012ede06b8e85	0.12557767351164642
3	0xbfb5fb89ea7124b2	-0.08586942647629561
4	0x3fb336d259fd8c89	0.07505526253730656
5	0xbf9c7e80a9bf1e1c	-0.02782631908465137
6	0x3fb66bde351971cc	0.0875834350239934
7	0x3fbfaa6404f6e148	0.12369370576096117
8	0x3fa53755b5e6916d	0.041437796072645174
9	0xbf935edf86262ce7	-0.01891659981042162
10	0xbfbf457ef86618dc	-0.1221541744654106
11	0x3fbb2c1e2c5175cf	0.1061419351767292
12	0x3fbb1d138966f654	0.105912419362505
13	0xbfaf97b8dbcea678	-0.06170442279046723
14	0x3fae395ea3139f20	0.059031445891206014
15	0xbfb2139364e0ef81	-0.07061120236261155
16	0xbfbb3479ae812393	-0.10626945982325102
17	0xbf825035d62a6f71	-0.008942051504440692
18	0xbfb2945ac60e8044	-0.07257621131293585
19	0x3fab0b01a8261237	0.05281834771725296
20	0xbfb1a198e9b153e2	-0.0688720293558869
21	0x3f733239e85b94f2	0.004686571313617481
22	0xbfbc0c7320fdf29c	-0.10956496768444385
23	0xbf96a64efb61984c	-0.022118791668980273
24	0x3fbb0a4789f3dfd2	0.10562560194000462
25	0x3fb713f1d2a4276d	0.09014808075531074
26	0x3fb32c86b43020be	0.07489816569443783
27	0xbfadaef1bcf4430a	-0.05797534400529088
28	0x3fac8dd14965fd37	0.055769481858983054
29	0xbfadae25949c61ca	-0.05796925963494777
30	0x3fa56d62bb98401c	0.041850171470400904
31	0xbfb625cd3838c3d9	-0.086514307237635
32	0xbfbac1c7db8f98ce	-0.10451935873388438
33	0x3fa28616c341cdac	0.03617926724919171
34	0x3fa16ec60ca75779	0.034048260731352316
35	0x3fa0b2704704ec08	0.03261137835439604
36	0x3fb8834919b25ef3	0.09575325848924958
37	0x3fa121f3218eb885	0.03346214089047898
38	0xbfb5155af406be43	-0.08235710580515225
39	0x3f8dc0f496660041	0.014528189506336388
40	0xbfb4a99aa51e5fa0	-0.08071295291153868
41	0x3fc630da10aa3f10	0.17336583913537895
42	0x3fc263b47c2e5303	0.1436677557327571
43	0xbf9764ee69b0d6f0	-0.0228459598549397
44	0xbfb9f47a28bc5fce	-0.10138667578246371
45	0x3f9f913a286c2073	0.030827435223756482
46	0x3fb3df4a17de0c1c	0.07762587626170653
47	0xbfc1cd9309a95130	-0.13908613178012663
48	0x3fc0f4b0653a03fb	0.13246731703478062
49	0xbf9a633f16dfceee	-0.025769220133908748

fc_hidden_list.2.weight f8 [50, 50]
0	0xbfb66b25cdcde7fd	-0.08757244371909674
1	0x3fb07bd440f3d787	0.064389482362314
2	0xbf782f312b58015c	-0.005904380862830596
3	0xbfbdc9aa7176d4da	-0.11635842580911362
4	0x3f94c3a1f927e135	0.02027752955652425
5	0x3fb07bc0fc049ee5	0.06438833382400906
6	0x3f96435108ef724b	0.021741167230958685
7	0x3fbeecda0fab27f7	0.12080157167943627
8	0x3fa781770d117928	0.04590961489224049
9	0xbfa9e3cb3bd2abff	-0.05056605439434491
10	0x3fa233e58638e674	0.035552189478448876
11	0x3f750b33ca13bf4f	0.0051376364728950704
12	0xbfb9263d790c13e9	-0.09823974805119885
13	0x3f9cdeb35c89fcfb	0.028193285487302138
14	0x3fc0fa63a5fd0a65	0.1326412735453061
15	0x3fc05e7e8d392393	0.12788373847641007
16	0xbfb359bdd00ab958	-0.07558809594295235
17	0xbfbeec58acacd9aa	-0.12079385963156733
18	0xbfbc4385792fb555	-0.11040529450084098
19	0xbfaa460bfab83a2c	-0.05131566463034107
20	0xbfae0b5639ba7f04	-0.05868024306005107
21	0x3facac83548545af	0.0560036698031
22	0xbf89c726b67d6489	-0.012586882061145015
23	0xbfb3cc7087c2e88f	-0.07733825029836992
24	0x3f50237096afdd9b	0.0009850120065929338
25	0xbfb02e0f12a1eeca	-0.06320280270477521
26	0x3fabed1819dd0019	0.05454325977052594
27	0xbfb6d77c8f26f5ce	-0.08922556395460576
28	0x3fc12abb03deec45	0.1341165322208743
29	0xbfc09b947646075c	-0.12974792265964197
30	0x3f99b15648cb0498	0.025090549652990818
31	0x3fa7fddf451f02f4	0.046858765781058326
32	0xbfa99abdd21331e9	-0.050008708852690216
33	0xbfb5d587aff08f1f	-0.08528945966150701
34	0x3fa0f5e59ab55036	0.03312604440239435
35	0x3fc204f33b52b498	0.14077606579431712
36	0x3fba7dd20b33064a	0.10348236821575899
37	0x3fbdaf277f9b8f12	0.11595389237805545
38	0x3f8d560e5a9e1ba5	0.01432429517786977
39	0x3fbcea997ca048af	0.11295470516805282
40	0xbf95c740bba8417d	-0.021267901853265315
41	0x3fb63bccc74b3749	0.08684997430392828
42	0x3fb0f0988f86667f	0.06617120269802433
43	0xbfb9410d23b3da15	-0.09864885446209144
44	0xbfb23e61c16122a3	-0.07126437159707648
45	0xbfa75ba24b3b14a9	-0.04562098663658649
46	0x3f8902cfd27faf4f	0.012212394343769665
47	0xbfba69f90d830094	-0.1031795175540558
48	0xbf960f842d5cd9ea	-0.02154356505271863
49	0x3fb5252db1bfd028	0.08259854878980433
50	0xbfbc89a1750cdf43	-0.11147507770226377
51	0xbfa1e6df8eded88a	-0.03496454829239422
52	0xbfa595c4cb77fc94	-0.04215826972721817
53	0x3f80fc1f5541054a	0.008293385304684837
54	0x3f9bc2f3ec80ed10	0.027110873518023715
55	0xbf4c6667580c4c99	-0.000866699658305231
56	0xbfbb44f9ee68f27d	-0.1065212447219412
57	0x3fa98cbc00688b8d	0.0499018431185255
58	0xbfc0382fd33cce47	-0.12671468557674556
59	0x3fbe465bf300479e	0.1182610958351504
60	0xbfa916867e18d9fa	-0.04899997987051914
61	0x3fa8581b31e8b8ef	0.04754719719163513
62	0x3f4888372bfe1b29	0.0007486600297717849
63	0x3fcacc8045c13bb4	0.2093658772086805
64	0x3fc42a29451b513a	0.15753665804244027
65	0xbfb461e5cc0027b0	-0.07961879950030837
66	0xbf9f241de8f42eda	-0.030411212294935243
67	0x3fb5a6cf90c1201a	0.08457658084910272
68	0xbf92cb98798b927d	-0.01835478059628536
69	0x3fc2f6ecf3a40d8b	0.1481605710651873
70	0x3fbef5695bef13d3	0.12093218321304215
71	0xbfb1c822c840fedf	-0.06946008099566424
72	0xbfc951f458b7f352	-0.19781355220757263
73	0xbfd07cb2111edd5f	-0.2576108138268491
74	0x3f7c9f8db006d58b	0.006988099543766234
75	0xbfba5e6ce69cc43e	-0.10300331716713715
76	0xbfc7666bf51e5f50	-0.18281316250499424
77	0x3fbf25b9715e16d7	0.12166937845003233
78	0xbf8557211a749c8e	-0.010420092220171175
79	0xbfc052d5bd305503	-0.12752792108282315
80	0xbf87634894f1b65f	-0.01141983704129784
81	0xbf8e1eef603598df	-0.014707441447808054
82	0x3fc70f88ab4e1718	0.1801615559053793
83	0x3fb42a65b0045cfb	0.07877193019190891
84	0x3fa6ad96e4056f34	0.044293132147429054
85	0x3fab0df67ec370d2	0.052840903257420316
86	0xbfa59fd694d911b4	-0.04223509375563897
87	0xbfb8a8f3eb57c3b0	-0.09632801528620294
88	0xbf9d9bc05033cd83	-0.028914456267512555
89	0xbfb0ba96e04a6b0e	-0.06534712768408843
90	0xbfb046287bd5e19a	-0.06357052825285905
91	0x3f8c347fe0786c47	0.013772009885590587
92	0xbfb96085cc355f59	-0.0991290687137484
93	0x3fc55a2d928e03f5	0.16681451469415234
94	0xbfd0c11c0a6e7364	-0.26178647059150806
95	0x3fb88d0d7153f3f3	0.09590229050441205
96	0xbfa11b5c4e30e8c0	-0.03341186956863984
97	0xbf967e2358bd1ecb	-0.02196555356138567
98	0x3f998ec7d72f999c	0.024958727368266417
99	0x3fb42c98583b4043	0.07880546716774099
100	0x3fa7c32d8d6592cc	0.04641096449885182
101	0xbfbae1827f137edb	-0.10500350573010613
102	0xbfb450075faa435c	-0.07934614263127798
103	0xbfc3afcbde0b496d	-0.1538023790549902
104	0xbfbbd51a8ff8dd99	-0.10872045531220066
105	0xbf96ac81e40a78e7	-0.022142438453209314
106	0xbfbf8f1af06aa193	-0.1232773625330366
107	0xbfa3cbfef93c035f	-0.03866574089443619
108	0xbf9b8f0a35dde2bb	-0.0269128413560533
109	0x3fbef326c1dd622d	0.12089769585635031
110	0x3fcaff1937d4f1cf	0.21090998865282848
111	0x3fa0dbae5b6916fe	0.03292603364802281
112	0x3fadca1f03f9606b	0.05818268702995585
113	0xbfc413ce495083e0	-0.15685442523775261
114	0x3fc70057158a6e95	0.17969788123888422
115	0x3fc31d4873a7a76e	0.1493311466904816
116	0xbfbf3d67844e3808	-0.12203070621600898
117	0xbfc810407e84dac5	-0.1879959695595145
118	0x3fbd1677aa3e77bb	0.11362407595012673
119	0x3f882ca7db47d952	0.011803923968710581
120	0xbfb6760cd5c2580f	-0.08773880213479422
121	0x3fb9d3c22553e171	0.10088742648429673
122	0xbfb9ba5b1559923f	-0.10049981375920768
123	0x3fc46f06c23d2dd6	0.15963825687718608
124	0xbfaf78122aafd03c	-0.06146294375494718
125	0x3fc891cfa7b32767	0.19194980324237607
126	0xbfb74cbb2e4008da	-0.09101457480577171
127	0x3f86a2156d74d43c	0.011051337626307604
128	0x3fbb842e8d9bb45f	0.10748568494064291
129	0xbf9556e5cfa6cd22	-0.020839300917669175
130	0x3fc51bac9f85fa25	0.1649070528910254
131	0x3fc1b701e745d89c	0.1383974437009713
132	0x3fc45140c7e74053	0.15872964630989603
133	0xbfc7b90d923b0f45	-0.18533486976786598
134	0xbfa211e8c060cd4b	-0.035292886241587405
135	0x3fb54c8df14efb4e	0.08319937840768185
136	0x3fc0c34e3f7677f2	0.13096025561111407
137	0x3fce0baa2883c040	0.23473097780470376
138	0xbfab0f8c4d54035c	-0.05285299724528755
139	0xbfc43f6ce47f7129	-0.1581855884277357
140	0x3fa9542437048ad0	0.04947007342913923
141	0xbfb9f0a8a34ee811	-0.10132841097848223
142	0x3fa004fa726b6865	0.03128798147891202
143	0xbf692110fbf8ce99	-0.003067525074379973
144	0xbfa5cc06a4bc01cb	-0.04257221947591779
145	0xbfca1732050ccc72	-0.20383286711293952
146	0xbfb37e1c2c0035cb	-0.07614303659666814
147	0x3f9206b216b49995	0.017603666911918465
148	0x3fbaab654dbeb375	0.10417779110021093
149	0x3fbe74bf4bab6d32	0.11896892163661191
150	0x3f955d80133c35b2	0.020864487813971606
151	0x3fd2295e163bf5f3	0.2837748734599181
152	0x3fc5d92d84f81a5c	0.17069024078974138
153	0xbf8d49d56c66d5b3	-0.014300982828767106
154	0xbfa5a415f953932d	-0.04226750057731574
155	0x3fc203124b8ee25a	0.14071873368608828
156	0x3fc5359dab0a45e2	0.16569872714585104
157	0xbfad336354355b36	-0.0570326843541608
158	0xbfc3e3aa1bb76a49	-0.15538526872008365
159	0x3f9e7524600e3779	0.029743736613049052
160	0xbfb1eae87fea607b	-0.06999066470086916
161	0x3fc0738e9c803496	0.12852652207985632
162	0x3fc4c0fe08a3fa04	0.16213965818310794
163	0x3fc9e7616e0417bf	0.2023736750781477
164	0xbfcb6ba5d5586e11	-0.2142226497388582
165	0x3fb6f8ac00d881e7	0.08973193188331373
166	0x3fccc5b7b664072f	0.22478386312291707
167	0x3faa5b65ea7331e9	0.05147856223047482
168	0xbfc397aa332f2de0	-0.15306594371064275
169	0x3fc39510704f9881	0.15298657878810576
170	0xbf98afa9699de54b	-0.02410759646543185
171	0x3f62760994d74034	0.0022535502564338342
172	0xbf992645b6b61a77	-0.024560059811415926
173	0xbfb3a100d5472e3e	-0.07667546469672801
174	0xbfcc95f904656cb3	-0.22332680430085858
175	0xbfc77e1fd31dbd7b	-0.18353650864035473
176	0xbfbb2ec2b80006b9	-0.10618226043882374
177	0x3f711a8fcd333773	0.004175721859793191
178	0x3f8dafc079704969	0.014495376306545809
179	0x3f7cc9c881ba0b8b	0.007028372983429852
180	0xbfcb6d20fb81e53f	-0.21426784783015226
181	0x3fa450108ce12670	0.03967334480018969
182	0xbfc1f6e37e2cb538	-0.1403469434821234
183	0x3fcc3bcfe31f9b6f	0.22057531919491732
184	0x3fc3082eb0c82187	0.148687206572742
185	0xbfa22596af60e9d8	-0.03544302836276686
186	0xbfb455801930d85e	-0.07942963233003428
187	0xbf9d869850b323ad	-0.028833751607439662
188	0x3f9162b3dc8e969e	0.016978082977991187
189	0x3fc328b47f71e25c	0.1496797201432568
190	0x3fbbe2b8f36eb058	0.108928260261281
191	0xbfb5ce47427b7512	-0.0851788079557603
192	0x3fb39079c274e028	0.07642327306246044
193	0xbfc2398da32331f6	-0.14238138642976111
194	0xbf63ddc6c4c378a6	-0.0024250871848457587
195	0x3fb2e59947f54370	0.07381589896000462
196	0xbf5657f0365b0b4e	-0.0013637395690444146
197	0xbfc8ffd30ab68e69	-0.19530714057065104
198	0xbfc8531c3113d210	-0.19003631969793888
199	0xbfb1596d29bb40ec	-0.06777078884920557
200	0xbfb08210e6c11c1e	-0.06448464997912182
201	0xbfd3e474afab7bfc	-0.31081883578548264
202	0x3fb5e71bbbe48cd3	0.0855576833460419
203	0x3fb1987f449e312e	0.06873317170374513
204	0xbfb6c40ee67366d7	-0.08892911077728215
205	0x3f8672b4876e0386	0.0109609702901723
206	0xbfad28175f04ba3f	-0.05694649729627032
207	0x3f8047a3df20cbb7	0.007949142691449624
208	0xbfa1ad86113bc1c6	-0.03452700577134098
209	0x3fbd06d0690f4d74	0.11338522496162345
210	0xbfc2c4d3b68656b0	-0.14663168346731004
211	0xbf8e8cb82ab6e10d	-0.01491683845857541
212	0xbfc88083b99b6653	-0.19142195284693972
213	0xbfcd405078452803	-0.2285252177483131
214	0xbf35241ce0b09b1c	-0.00032258706113667975
215	0xbfc1416524bf58df	-0.13480819982823442
216	0xbfc0ec57bdc390ad	-0.13221260801140514
217	0xbfca35f90ee57f24	-0.20477212169043313
218	0x3f8ba191247f0954	0.013491758276249634
219	0xbfc48a5cb87cf0c8	-0.16047247894483108
220	0xbfb9555a344d2245	-0.0989586236656886
221	0x3f724db8cb94bcd0	0.00446865258827174
222	0xbfa97bf97d523051	-0.049773975894908624
223	0x3fc1553266c823fb	0.13541250246660738
224	0x3fbf0904955b07cf	0.12123135229469927
225	0x3fb561f6a1c20017	0.08352605294385317
226	0x3fb48ec53032db7e	0.08030350138402118
227	0x3fb13355dcaf3dd4	0.06718956601911624
228	0xbfa7d50403ef6052	-0.04654705570254748
229	0x3fb37535fa1bd4b6	0.07600724559945857
230	0xbfc0409640702939	-0.12697103639977472
231	0xbfab208c53ddb7e1	-0.05298269771343179
232	0xbfb2110253f4d394	-0.07057203817096386
233	0xbfb9b7ade9d1740d	-0.1004589744420203
234	0x3fb21a05932184ad	0.07070956079543818
235	0xbfc3039ef0251a79	-0.14854799962832368
236	0xbf802e542dc162aa	-0.007900865217537262
237	0x3fc24b87252433ca	0.1429299289087836
238	0xbfb5991776e8b0e9	-0.08436724331903957
239	0xbfb9f70bad5b8aa8	-0.101425866912488
240	0xbfc5e07009a5f9a4	-0.17091179343328833
241	0x3f9d7418853c6fb7	0.028763182766041697
242	0xbfa1f050cf41788d	-0.03503658800103535
243	0x3fb504d6aac7991c	0.08210508031297475
244	0xbfb3db049ea011e1	-0.07756070015609097
245	0xbfbf40add928ad0c	-0.12208067466479039
246	0xbfab8a6ebdd029a6	-0.0537905317979324
247	0x3fb561846d06666b	0.08351924573653384
248	0x3fbd7fdd4674d4c1	0.11523230524183516
249	0x3f95ec8ef5365d9a	0.021410211292815264
250	0xbf6f9921920c92ee	-0.0038571983026421874
251	0xbfd3c46dfd5d67b1	-0.308864114214539
252	0xbfbed8d1fa691edc	-0.12049591411152555
253	0xbf966f22bf9de2ec	-0.021908324189527414
254	0xbf80296d3e7534fb	-0.007891515224992754
255	0xbfc9e0084fd1c735	-0.20214942834314234

fc_hidden_list.2.bias f8 [50]
0	0x3f9f9eb6369641f3	0.030878874856684346
1	0xbfc19c499387e586	-0.13758201316504087
2	0x3fb5b51f89552dfc	0.08479497053956914
3	0x3fb199d3a61f4328	0.06875345998492988
4	0xbfc1b015403ca8b4	-0.13818612705774103
5	0x3fbff5b2d71c369a	0.12484281303133074
6	0xbf7776be6b8c3330	-0.005728477314517019
7	0x3fb8df5496ea4174	0.09715775188874948
8	0x3f927e435a7d8aa3	0.018059780500503064
9	0xbf967f1dc580264f	-0.021969285182456052
10	0x3fbaa7b718b3d09d	0.10412163117490754
11	0xbfc0065eb27243ff	-0.12519439423752485
12	0x3fa96307e160ab32	0.049583669912257725
13	0x3fb6b63c4c3f7aed	0.08871819364092533
14	0x3fab58daed2180cc	0.05341228623069724
15	0x3fb2ad5d321fd4e2	0.07295782541025944
16	0x3f9240f3616d221b	0.017825892278127236
17	0x3fb275c16763b4df	0.072109306088993
18	0xbfc2d9b0fbebe3b7	-0.14726841259814957
19	0xbfa523604348caf2	-0.041285522664471844
20	0x3fa6551d101ae344	0.04361811467737778
21	0x3fbe8f25551de071	0.11937173202557162
22	0x3fb18d5bcda8732c	0.06856321116397329
23	0x3fbc4e8a4e4b3fcd	0.11057342921708298
24	0xbfbdf4c0ebff396f	-0.11701589357037333
25	0xbfb1e0f1c1e7dbbc	-0.06983862861657902
26	0x3fc057aad0b8ce93	0.12767539206980824
27	0x3f993607a9abc32c	0.024620170336621047
28	0xbfb8a0071ad8de30	-0.09619182973335039
29	0xbf872295876fd08a	-0.011296432681753527
30	0x3fa17512a5bf4f74	0.03409631989748521
31	0x3fb4ee5bef70f2e4	0.08176207156879972
32	0x3fbe0e89777681c4	0.11740931669783722
33	0xbfbb7e270895b8ba	-0.10739368400183738
34	0xbfae41f1c39dcbac	-0.05909686577697157
35	0x3f63e81a2b3b57c2	0.0024300109015298063
36	0xbfb54e248bd3ed77	-0.08322361387029341
37	0x3faa906ab2dcf4f4	0.05188306268107992
38	0x3f9ef03f38038948	0.030213344377338275
39	0xbfb1a06198e30e03	-0.06885347349730613
40	0xbfacf25cf0e54dcd	-0.05653658333417475
41	0xbfb5e1a36388311d	-0.08547421627026038
42	0xbfbbf051e17a7a1a	-0.10913573984951377
43	0xbf95b584b85a4375	-0.021200250389088866
44	0xbfc4734e312cf206	-0.15976884270811825
45	0x3fc0cd8f78512862	0.13127320647101032
46	0xbfc1833af9bb021d	-0.13681733316299552
47	0xbfab1f7f1824e228	-0.05297467393615235
48	0xbfac31204f6574dd	-0.055062303249295154
49	0xbfc1b65f2e5acd84	-0.13837804568684586
