savedModel/allen_cahn_tanh_sin/ParticleWNN_0/trained_model_final.pth (torch, 249111 bytes, 10 tensors)

fc_in.weight f8 [100, 2]
0	0x3fe48d639ae7593a	0.6422594094717973
1	0xbfb2190e53754781	-0.07069482362319769
2	0x3fdd6d03ad9c66f5	0.4597787089747805
3	0x3fd7fb50a5a56545	0.37471405197500857
4	0xbfdb7e3d5b0d1275	-0.4295800580187355
5	0x3fd059f9803bd2b4	0.25549161455937086
6	0x3faa9114e958fc6b	0.05188813541871514
7	0x3fcf013364786bfe	0.24222414403706688
8	0xbfcc75051e4b9ee4	-0.22232116679446456
9	0x3fe3a3681376c03c	0.6136970882562376
10	0xbfd1a8841098ae3e	-0.2759103929590515
11	0x3fe3e7e932c63dbe	0.6220594398200132
12	0xbfc3045ac1a86d81	-0.1485703893275563
13	0xbfe11ba46a14a1e3	-0.5346242973219514
14	0x3fb7fba553f1ae27	0.0936835603658258
15	0xbfd84130436faeb7	-0.37897879205295787
16	0x3fe2152e8cf82b3c	0.5650856736477645
17	0x3fda1d52ef36e973	0.40803979264060003
18	0xbfd5cc06c9af6c81	-0.34057779022050033
19	0xbfd07c1c425e68e6	-0.2575750969059655
20	0xbfd69b48afb20db0	-0.3532277789856506
21	0xbfcb6c821a486417	-0.2142489078840135
22	0xbfd13bf0d795acd5	-0.26928349545660285
23	0xbfe21d165c7b785f	-0.5660507017416981
24	0x3fd6c725122675d6	0.35590483448490084
25	0x3fe3956a0b80b7f6	0.6119890427269172
26	0xbfe283dd8c86d4d5	-0.5785968537008112
27	0xbfe263584b265e88	-0.5746270625849812
28	0xbfca43ada12832fa	-0.20519037598605633
29	0x3fd96fa851cdf0f2	0.3974400328513773
30	0xbfe546300824d7ee	-0.6648178252278265
31	0x3fdb71ee542b2898	0.4288287946661824
32	0x3fac57855158777d	0.0553552305029674
33	0xbfdeee9bcffda96c	-0.48331351577384996
34	0xbfb375d31807ca67	-0.0760166104953811
35	0x3fe23f336e79561e	0.5702149541563732
36	0xbfcec5b96b19e607	-0.24040906648205881
37	0x3fe53960b11727f1	0.6632541140363611
38	0xbfd8e09e3d0d2f49	-0.3887096019941408
39	0xbfd7993f1b1a8b55	-0.3687284245190104
40	0x3fb48a80a591ea43	0.08023838083492145
41	0xbfe5e1b674f5f4e2	-0.6838028225316999
42	0x3fe14a68f3733477	0.5403332476504507
43	0xbfe0a436dabfad2b	-0.5200456879078151
44	0x3fd6513a47dac713	0.3487077428536491
45	0x3fc93863dc8b72ab	0.19703338879380303
46	0xbfd07e398c16206a	-0.2577041500121654
47	0xbfe32f7a12bacb31	-0.5995455137075166
48	0xbfde99a941ddfa32	-0.4781287329896343
49	0xbfea94c495f9a9c4	-0.8306601456836735
50	0xbfd561812898c91f	-0.33407620396168797
51	0xbfcc021e2b7fb510	-0.21881463169067006
52	0xbfa2d16d523776e5	-0.0367540514814502
53	0x3f8bc4461cb746cc	0.013557956458416419
54	0xbfd86524d941c107	-0.38117333618630805
55	0x3f93b099e8587640	0.0192283676207039
56	0xbfe22c4e4e28cdf2	-0.5679084326315531
57	0x3fe60a8a61a0c858	0.6887866884992588
58	0x3fe582bfe7750849	0.6722106476447688
59	0xbfd31cd1199ad11e	-0.29863383770431706
60	0x3fe0ec73e2181418	0.5288638511561912
61	0x3fd6ae0f4d26be61	0.3543737653189734
62	0x3fe4131fa9d2c58b	0.6273344342100001
63	0xbfa93e1131870f5e	-0.04930165986618705
64	0x3fb1407a154324a3	0.06739008921717242
65	0xbf94fbd88dfbae38	-0.020491965928995465
66	0x3fe4e620460d983f	0.6530915611481375
67	0xbfd7b682e916fc9a	-0.3705146099345683
68	0xbfe1be00a5545e9c	-0.554443667325319
69	0xbfdf161abf8e7da7	-0.485724150721547
70	0x3fd56da60a66341b	0.3348174192004209
71	0xbfdb2df46c8872f9	-0.4246798572437878
72	0x3fe6ab58722f4e9c	0.7084161977931731
73	0xbfd8c23c46a4ab87	-0.3868551912188924
74	0xbfc3fac76612082d	-0.1560906647101218
75	0x3fe27b1b5d3c80ca	0.5775276967069882
76	0xbfbd3931c6286b1e	-0.11415396774138428
77	0xbfc99eb29ed573d9	-0.20015557056004132
78	0x3fda033b3e9ef45f	0.40644723048519
79	0x3f5e04fb1901c4b6	0.0018322422147572354
80	0xbfdadc3f85087121	-0.4196928786420973
81	0xbfe50d4a95abec80	-0.6578724787972448
82	0x3f7dd45089f8ca5e	0.007282557111056491
83	0x3fb1183869179eaa	0.06677582326630707
84	0xbfe47b122b4e6e90	-0.6400233121707561
85	0x3fc95960dd0e416d	0.1980401114819971
86	0x3fde1f5dccf9c2a5	0.47066445367003445
87	0x3fd9cba33cba28a6	0.40305405550373974
88	0xbfda254f06352f44	-0.40852714163041903
89	0x3fe24032820b5018	0.5703365840840915
90	0xbfe63949ad842755	-0.6944931401242039
91	0xbfd92094700b666f	-0.3926135152993088
92	0x3fd03e55c6a6e0e2	0.25380463027569367
93	0xbfc88b78bbbeda6e	-0.19175633589994184
94	0xbfc9241b24a83fd3	-0.19641436853316793
95	0x3fe5ab1811ce15db	0.6771355006937329
96	0x3fe206cfb949a994	0.5633314722920653
97	0x3fd5454ba009b8ae	0.3323544562216608
98	0xbfe49e4e7a787679	-0.6443245307925302
99	0xbfdfa3c5a607aabb	-0.49437085355627247
100	0x3fd33247c6722391	0.299943870348721
101	0xbf9ac02f8c7ae7fd	-0.026123755406594274
102	0xbfc354c082a71aef	-0.1510239255860237
103	0xbfe67369f5c977af	-0.701588611653042
104	0x3fe5a7ab95ee6755	0.6767175606102948
105	0x3fd04a3bdda602a7	0.25453087468489816
106	0xbfddd212b223a243	-0.46594684025197725
107	0x3fe4b1093c7bc1d5	0.6466108495060846
108	0xbfe70afacc7cbb71	-0.7200902933017074
109	0xbfdd84ac10c20868	-0.461222664227654
110	0x3fe19643e4423e6d	0.5495929201296811
111	0xbfa4f27e4b702c62	-0.04091257735134303
112	0x3fd0452adbd9314d	0.2542216441113581
113	0xbfdbed4269ddb5c2	-0.4363561662529173
114	0xbfdaec38a1ef2a14	-0.4206677991284391
115	0xbfa3c8b104a3aec7	-0.038640529457408195
116	0xbfc47068122d112d	-0.15968037497999302
117	0x3fcdcb8004af8503	0.2327728293303509
118	0x3fc8c6db8e96e7a4	0.19356865370155873
119	0xbfdd2822aaf46af0	-0.45557467169571364
120	0xbf4e7d66f517ba0e	-0.0009304764482161458
121	0xbfd46ba26296ccca	-0.3190694773467838
122	0x3fcc1d7e88eb8ce7	0.21965009389450715
123	0xbfe85dd1516d5065	-0.7614523496981859
124	0x3fe42c04ac6082b9	0.6303733221758058
125	0xbfaade1cc96d038d	-0.05247583350001781
126	0xbfe01bddbf9bc4e3	-0.5034016363480557
127	0xbfd6e3683a630fc2	-0.3576298303780697
128	0x3fe64b53590f835a	0.6966950168099217
129	0xbfe05ea345da2c13	-0.5115524639417138
130	0x3fe1c928fccfcfde	0.5558056771974369
131	0x3fd6c7901cb2931f	0.35593035509582366
132	0xbfb872db44fda747	-0.09550257143351103
133	0x3fe55a18c8210c2b	0.6672481449862792
134	0x3fe3b425abc14b42	0.6157406191435728
135	0xbfdb3c63fa51ed08	-0.4255609459430194
136	0x3fe50226e67eb094	0.6565126897671854
137	0xbfe564a35224279f	-0.6685349087067499
138	0x3fbe434c5d8ca93e	0.11821439060137082
139	0x3fd1fbfd1a83c1e9	0.2810051688129805
140	0x3fdfe9f511b6c25e	0.4986546204554879
141	0xbfb17567e6d4e0e5	-0.06819772134338427
142	0x3f7dccdc65e3cdb5	0.007275448732105107
143	0xbfbd82234fd64ee4	-0.11526699732922513
144	0xbfe35db27fb7dad0	-0.6051876539703134
145	0xbfe629210f1fac35	-0.692520646608847
146	0x3fadd42e33ed90d5	0.05825943359266864
147	0xbf55bc157c914e33	-0.0013265809850694476
148	0x3fd59e231036c16f	0.33777691443812946
149	0x3fe3b95d02ff2ce4	0.6163773592501482
150	0x3fdebfb419dfcc4e	0.48045065428522526
151	0xbfd5b2448c3ecf86	-0.3390056008895431
152	0x3f9e9f422d067e74	0.029904397962694465
153	0x3fda9dd186f1e633	0.41588247469153145
154	0xbfe5b81a94f88bea	-0.6787236127460095
155	0x3f87e9fd1481f29c	0.011676766575186286
156	0xbfe1a0c4ed92a63e	-0.5508751525969229
157	0xbfd3e5ceb0415552	-0.31090132915899915
158	0x3fc7affd05236efb	0.18505823851489098
159	0x3fb33c8c354b2f4f	0.07514263440242284
160	0x3fd1e7b32acd8ee6	0.2797668378827737
161	0xbfd085d097cb2b50	-0.2581674082145371
162	0x3fd05e1e74010dda	0.2557445652821265
163	0xbfd0e36a3b58eed9	-0.26388030810970303
164	0x3fcbaae21e89bca7	0.2161524438010691
165	0xbfd055cde8767655	-0.25523708058776623
166	0x3fc9bc159ce0d793	0.20105238113472676
167	0x3fd39bb29d0ee2d6	0.30637803399762953
168	0xbfdfcb15b51a9bfe	-0.49677031217510137
169	0x3fe28bb1d7776b1f	0.5795525749520926
170	0xbf971adb2e6d1c7a	-0.022563385685569128
171	0x3fe427253bac4c7d	0.629778496312056
172	0xbfd530b0b183957c	-0.3310968144927171
173	0xbfe80c39ae39e192	-0.7514923479894142
174	0xbf989d424245f688	-0.024037394804955287
175	0x3fe436dc4dbc292f	0.6316968458425317
176	0x3fd25fda92ea6318	0.2871004519197853
177	0x3fd1759e075f65c0	0.27280379028306
178	0x3fdd21c03edb46d4	0.455184995063161
179	0x3fc14e8e8d55ad26	0.13520986462695211
180	0xbfe5922af45b9da8	-0.674092747937654
181	0xbfdc7a6d8cc4d1c5	-0.44497240778880737
182	0x3fd680d327e70c67	0.3516128434823202
183	0xbfe4d0a855ed99ba	-0.6504708936961869
184	0x3fe4952c5eba0749	0.6432096338396401
185	0xbfd1136b8c48cad4	-0.26681030940669115
186	0xbfd54d3bd502d1d2	-0.33283897210938307
187	0xbfe2f0d71c7c3d2b	-0.5918994480470351
188	0xbfd80ef37a2ad601	-0.37591254167941207
189	0xbfe486216a070d1b	-0.6413733549929107
190	0x3fbb7f90c75601ce	0.1074152456913062
191	0xbfe6addcc367369c	-0.7087234322040845
192	0x3f9f0824addc3698	0.030304501639924014
193	0x3fd348b128217cec	0.3013117687132325
194	0x3fe0914e133f5c52	0.5177374244621069
195	0x3fc497559c0cbcd5	0.16086835975281724
196	0xbfd9c5249d7a9b87	-0.40265765551378546
197	0x3fa9334d8501e61f	0.04921953438401893
198	0xbfc200bf96bceece	-0.1406478391671641
199	0xbfd16160e820ef47	-0.2715685145264967

fc_in.bias f8 [100]
0	0xbfe797667e8e5bd8	-0.7372314903067219
1	0x3fe27112c5974016	0.5763028964229331
2	0xbfdd76ae3c4a3a48	-0.4603686894196568
3	0xbfe4878ddd104116	-0.6415471379896498
4	0xbfccf3e4152ace11	-0.22619296105914136
5	0xbfe1ee717378d105	-0.5603568320571247
6	0xbfdb8e44ca429a48	-0.43055839302033805
7	0xbfa9f7b4ba86530c	-0.05071797158158206
8	0xbfda05b5b49c2451	-0.4065984977501716
9	0x3fe66d8d7f6a43e4	0.7008731354309217
10	0xbfddcec28a4f9b12	-0.465744624203965
11	0xbfdf89622c4b4d59	-0.4927602226791428
12	0x3fdb63f5c230194e	0.42797607387219194
13	0xbfc38f27f08a0924	-0.15280627484396192
14	0xbfd650c33c70d66d	-0.3486793604127801
15	0x3fde2087b2d3ea18	0.4707354780545372
16	0x3f81a721848bc9d5	0.008619558198437108
17	0x3fd1faeedc730525	0.28094073799373326
18	0x3fe31fdde89ab53a	0.5976399939587858
19	0x3fd1c8edda9e6d06	0.2778887400579183
20	0x3fe6a59018d69056	0.707710312377922
21	0xbfd5e3fc005b808b	-0.34204006228356637
22	0x3fd5cc2a1fe1e89a	0.3405862151481728
23	0x3fe212ad5ce3443a	0.5647799314703044
24	0x3fc2046add3d5f18	0.1407598095199709
25	0xbfd19dad607945f3	-0.2752488557935912
26	0x3fe0b480b1910cef	0.5220340221498229
27	0x3fdf7ab1a65b6b00	0.491863644083125
28	0x3fbda4c1cddbe4a9	0.1157952430329653
29	0x3fd897ab84e94a58	0.38425720195406177
30	0x3fd68cc93dfa2911	0.35234290173015476
31	0x3fd382e652f01866	0.3048644838276061
32	0x3fe53fc2f9337bc8	0.6640334002694255
33	0xbfe52243029f4ce0	-0.6604323435989521
34	0x3fce350bb76a58e8	0.23599382835227023
35	0xbf992667b8d17e11	-0.024560566573539392
36	0xbfe3a519ac3ec207	-0.6139038433230447
37	0xbfcf9a45e57084d5	-0.24689553931333444
38	0x3fd03fc2035cf9c3	0.2538914711803068
39	0x3fcbaf3c6f8e8073	0.21628528067686012
40	0xbfdc6b3b32dbe2cc	-0.44404487578098606
41	0xbfe2259414bfec82	-0.5670872121112469
42	0x3fe6877dd8997fb6	0.7040395002804789
43	0x3fe4a6fd838d74a0	0.6453845567117646
44	0x3fbca86f6a6aad2e	0.11194511745513999
45	0xbfe34f9ecd18e172	-0.6034692769817822
46	0x3f97ed0ce44952e3	0.023365212853906036
47	0x3fe12859c326ad97	0.5361756145043043
48	0xbfd2a709d783f529	-0.2914452175753746
49	0x3fe5608008b6eda4	0.6680298013883896
50	0xbfe14e2170368dac	-0.5407874290144057
51	0x3fc978d1ff5d4dbd	0.19899964302986275
52	0x3fe00aba1c4f4c50	0.5013094475674595
53	0xbfcb720fab7bee8e	-0.21441837189910412
54	0x3fdbaec83f7482db	0.4325428600005076
55	0xbfe5ce2fb223f554	-0.6814192275339033
56	0x3fe1b21e0ca8aacb	0.552992844318703
57	0xbfc4c3b4c3e71add	-0.1622224766308226
58	0xbfe4039d62b85b69	-0.6254412582519367
59	0x3fe04be9e83f3c4c	0.509266809089135
60	0x3fbcdd8c52a3d42c	0.11275555627419526
61	0x3fcc6d7e28b59149	0.22209145534282929
62	0x3fc05ae1ccac4e63	0.12777349942972469
63	0x3fa10101e9e89488	0.03321081142738885
64	0x3fcca679a4af101c	0.22383041897967437
65	0xbfe14f7879d46599	-0.540951002071938
66	0x3fb331c0311f1389	0.07497788619282465
67	0xbfd9847831623479	-0.39871029684656595
68	0xbf8c3d42a6ceead7	-0.013788719859680594
69	0xbfe436df656708fc	-0.6316983204381184
70	0xbfdb2c5e2d56dd2b	-0.42458300044696057
71	0x3fc8c01efac1dcb8	0.1933630680466416
72	0xbfab0863e2af5f5b	-0.052798386975779286
73	0xbfe5d688394cdc93	-0.682438003458531
74	0x3fc6802a95425185	0.17578632629432547
75	0x3fd50a55a854fc37	0.3287557739130906
76	0x3f881eb983abdc86	0.011777352648534977
77	0x3fcadb6f4a91a102	0.2098216165643479
78	0xbfe2947897a10890	-0.5806239091400744
79	0xbfd130ff5cfb0e80	-0.2686155708326865
80	0x3fe5a03f6f8d55b4	0.6758114985229242
81	0xbfd7af5cd5dd6d08	-0.3700782860302785
82	0x3fe4d88903a7d4e0	0.6514325209997445
83	0x3fe6123413abd57e	0.689722097797741
84	0x3fdcd71c76ace3f0	0.4506293448390002
85	0xbfd954ab8039cdab	-0.3957928421216034
86	0x3fc5f4316780b8df	0.1715146785149448
87	0x3fd4360c4010a695	0.31579881912566893
88	0x3fe426bc255f2e85	0.6297283868711508
89	0xbfe649c73ef62917	-0.6965061406820351
90	0xbfe084fccd946d38	-0.5162338271360687
91	0xbfe37327d1c1728d	-0.6078070732870217
92	0x3fcbf5a081f76cd0	0.21843344064732273
93	0xbfc0c1551e619217	-0.13090003951505544
94	0x3fe80e1d90bfa5b4	0.7517230822679069
95	0xbfe1c12f4074ed22	-0.5548321017189759
96	0x3fccdbeb38f1b84e	0.22546139030913753
97	0xbfd5f4040cc9ba7c	-0.34301854370907114
98	0x3fe60b92137f62e7	0.6889124279797131
99	0x3fbf5437378b570f	0.1223787794691271

fc_out.weight f8 [1, 100]
0	0xbf68a1f8b4209909	-0.003006921529066568
1	0x3facd73e235fd346	0.056329671686319346
2	0x3f81057ddf81a2f7	0.008311255820630843
3	0xbf1a3d827406f760	-0.00010009869311652713
4	0x3f80bf143e4a5876	0.008176954413368725
5	0x3f4f52997a69567b	0.0009558915524602996
6	0xbfa1604bd41dd2f5	-0.03393780674278971
7	0xbf82c5acf1707b07	-0.009166098707337434
8	0xbfa7e4d28510455f	-0.046667650931463404
9	0xbf95b3cb01bb7e0c	-0.021193668347107716
10	0x3f9914d1258d013e	0.02449347297374626
11	0x3fb47c21a2bf8f99	0.08001909468981551
12	0x3f7e34565e5d057b	0.007374131562586479
13	0xbfa3fc04c74a7e70	-0.039032124831689496
14	0x3f92086a893a5129	0.01761023008892085
15	0xbf7bb72bc2971340	-0.0067664822940443625
16	0x3f013fd2e669959e	3.29004513346762e-05
17	0xbf5438507b3114a7	-0.0012341295194045283
18	0xbf05df31358f974b	-4.17172329390385e-05
19	0xbf73050686635066	-0.004643464553925813
20	0x3f98b0c6b483d5a1	0.02411184765602104
21	0xbf58235616db283a	-0.0014732685771599156
22	0xbf6084fa6e9b8b0f	-0.0020165339709462614
23	0xbf872efa18d2f217	-0.011320070154732282
24	0xbf10c8f1a03ea761	-6.402945297048552e-05
25	0xbefa6c88c539fefb	-2.5199853850298663e-05
26	0x3f6004091eb82898	0.0019550493359519854
27	0x3f74c07eeef52455	0.0050663908326181355
28	0xbfb103bbe29567b3	-0.06646322519136909
29	0xbf7dfa7c924f3afd	-0.007318960769181923
30	0xbf67fb72440d35de	-0.002927516150896577
31	0xbfa65ca1172a0735	-0.04367545516744401
32	0x3f8ec6cdb94ff8f3	0.015027625291619695
33	0x3fb3ca45a32b6972	0.0773051761019923
34	0x3f9aaae6f79c8b9b	0.02604256521511737
35	0xbeb06112c95efa15	-9.762759751588257e-07
36	0xbf92081c228fa1c5	-0.017609061822357015
37	0x3fa035bdd15ecc25	0.03166001492299867
38	0x3f2227a3d4c112a3	0.00013851046458248248
39	0xbfaf56d826622262	-0.06120944469973179
40	0xbf964403d0150678	-0.021743831229520144
41	0x3f77f7324a8264b8	0.005850979279921002
42	0x3fa0a6213692a150	0.032517469321933334
43	0xbf881ba7b2a79b3e	-0.011771497859582088
44	0x3f34c8ceb01901b5	0.00031714483347757987
45	0x3fa34c3c05087fe5	0.037690997709660036
46	0xbef32a41620b570a	-1.8277225651917028e-05
47	0xbfb773692e8ad9f8	-0.09160478006638317
48	0x3f958dc45eeaefac	0.021048610966985556
49	0xbf506cbe964ec750	-0.0010024892046484775
50	0x3f24cf4086beec5a	0.0001587644832151427
51	0x3f95a91e1b3a3bbb	0.02115294495757401
52	0xbfad0038ff6ea1e4	-0.05664232366627056
53	0x3f3e6ca9d51a915a	0.0004642405157062789
54	0xbf642576baf61b19	-0.00245927037730399
55	0x3f94a98391170620	0.020177894335352886
56	0xbfa4cf8c3b8e39f1	-0.040645963926284064
57	0xbf9044366cc3f43c	-0.015885210407749137
58	0x3fb1e633d048fca8	0.06991885981641366
59	0xbfa0cb203bcb4778	-0.03279972772510481
60	0x3f6e04f6217f9dff	0.0036644751780732228
61	0x3f4b5c1d7299d6bc	0.0008349555766488863
62	0xbfa877c0e6e69cfc	-0.04778864687551196
63	0xbf62a9b9e5c3b726	-0.0022781973658457964
64	0xbf7c3569f8c05edb	-0.006886877014060845
65	0xbf7596587c768484	-0.005270333909181638
66	0x3f52445462406dfb	0.0011149238644126969
67	0x3f3235e775de717d	0.00027787114037793726
68	0xbfaaeb98ca7211c7	-0.052578711235614466
69	0x3f472d97f3c0a42c	0.0007073394731423924
70	0xbf9db7f082bb19f4	-0.029021985987833746
71	0x3f8c30839b4e9c3f	0.013764408280463878
72	0xbf792f0eba04eb05	-0.006148393178871063
73	0xbf81f931f58dee14	-0.008776083284593596
74	0x3f9e475a219f4a9e	0.02956906156743832
75	0xbfac0b7b0737b16c	-0.05477508986573096
76	0xbfb0a4afb9a67283	-0.06501291544413772
77	0xbf23eaf63b926a13	-0.00015196090479181797
78	0x3ee35d2adbac90ca	9.233443838470643e-06
79	0x3f05b73ce5715b2b	4.1419549852753035e-05
80	0x3f81e8b70ef1c2ab	0.008744650024000341
81	0x3f2c5e14ebdc7f1d	0.0002164269007431879
82	0xbfa67d60ff39997f	-0.0439253150514558
83	0x3fa56b717e1fe0ab	0.04183535256010037
84	0x3f07a27fffdcb532	4.5079737886014734e-05
85	0x3f218735d4759a4e	0.00013372928718098854
86	0x3f450c2c43ff062b	0.0006423202648805961
87	0x3fa3c456db568c60	0.03860732486216345
88	0xbfafbb683e96b4f2	-0.06197667850515555
89	0xbf97f8a69619d980	-0.023409464751659836
90	0x3f66e6a16ff942bf	0.002795520121971456
91	0x3f9b922c5cb473ad	0.026924794348008586
92	0xbfacedf7a6ff9937	-0.05650304711871217
93	0x3fa003e05c288a50	0.03127957463245379
94	0xbf64337a1385c345	-0.002465952329821527
95	0xbee0ab6777b492c1	-7.948659677633836e-06
96	0xbf3e9a0a03ed4f31	-0.00046694511904842294
97	0x3f3c058bca6ed8de	0.00042757666454508274
98	0xbf5409416f45d6a8	-0.0012229098329873764
99	0x3fa58bc7cf265c98	0.0420820656174154

fc_out.bias f8 [1]
0	0x3fb498dbe3cfab7a	0.08045744239613653

fc_hidden_list.0.weight f8 [100, 100]
0	0xbfa8e0ff58ce256f	-0.04859159430550163
1	0x3f8411fd422a7967	0.009799936849330405
2	0xbf7085cb41bfcc02	-0.004033845874789501
3	0xbfaefb87add84640	-0.06051277157906698
4	0xbfac2e7ef1c23a29	-0.05504223538547521
5	0xbfbc37f78b41ecde	-0.11022898816911517
6	0xbfb18b82b3b39272	-0.06853501212351334
7	0x3f8d78b0099b613d	0.014390349667721675
8	0xbf97fd684c5783af	-0.023427610072647983
9	0xbfb7c7ba7d062a3f	-0.09289136459680324
10	0x3faa31d5204d1d64	0.05116144198705788
11	0xbfbdaa408433ce31	-0.11587908961865236
12	0xbfa778fbbc42f924	-0.0458449046432057
13	0xbfa84c1328aef80f	-0.04745540496467992
14	0x3fa3de12b90f37d4	0.0388036585714954
15	0x3fb9bc9dda3d8926	0.10053431108602648
16	0x3fb64b169e3ed8ed	0.0870832573262736
17	0xbf8c361e60869c56	-0.01377509815286097
18	0xbfacf0b37e5e87b9	-0.05652390401452529
19	0xbfb29c921d60f473	-0.07270158021215582
20	0x3fb540b35f930eeb	0.08301850398407466
21	0x3f5eda6106bae0de	0.0018831203005174528
22	0xbfa8e27feabed41b	-0.048603055386969816
23	0x3fb77acf6a9fcd5d	0.09171768525248099
24	0xbf8ac7488a1973da	-0.013075415338954888
25	0xbfb3882fd793c3d5	-0.07629679692378429
26	0x3fb7a1cded277659	0.09231268920799475
27	0xbf774ef429be1abe	-0.005690530549947224
28	0xbfa2307ab68bd87b	-0.0355261180720143
29	0x3fa51c9a4ddc0e66	0.04123384666857248
30	0xbfb3452e0920c762	-0.07527435038426014
31	0x3fb7d9fa976b9491	0.09316984364302729
32	0x3fa732997dcea291	0.045307919127769776
33	0xbf8683da62b51564	-0.010993677270230769
34	0xbfb61f9aebead0ee	-0.0864197565049982
35	0x3fb91a941b53691a	0.09806180636534059
36	0xbfa68b8e3924596d	-0.044033474421825904
37	0xbfa56cda8acda57b	-0.04184611267448709
38	0x3fba46619079caa3	0.10263643052329967
39	0xbf9e8be52877bddc	-0.0298305326413678
40	0xbfae4cd3d464f7b7	-0.059179897000361796
41	0x3faf3018621f631b	0.06091381261621206
42	0x3fabe718b144b7c1	0.05449750102921725
43	0x3fa49e8a8b98ac33	0.04027207330758422
44	0xbf9a7bd58056c165	-0.025863014181312666
45	0x3f8e7b3ff860e36a	0.014883517997178426
46	0x3fab5c98340e1832	0.05344081530988411
47	0x3fc059743b82e95a	0.12772992044285553
48	0x3f8b840e743dc003	0.013435471460724107
49	0xbfab474beb40c2d2	-0.05327832457294836
50	0xbfb7d24c3ad89971	-0.09305263935730125
51	0x3fb02d5f883ada93	0.06319233966756092
52	0x3fae487b440d4988	0.059146740014187904
53	0xbfb055b62a4e3ad1	-0.0638078549656982
54	0x3f8b791f74a8b7f7	0.013414617297794236
55	0x3fb91dc92b478e0e	0.09811074549320883
56	0xbfb5776d83180d5f	-0.08385357332740771
57	0xbfad2c75363795ce	-0.05697981154279895
58	0xbfac1db8827c1413	-0.054914251259141754
59	0x3fbb4659a14add83	0.10654220760158321
60	0x3fb19ecc209c1cf0	0.06882930561197376
61	0xbf8cd56e026c48bc	-0.014078959893172864
62	0xbfada6e9f5fbe239	-0.05791407706960112
63	0x3f64132b052d15c4	0.0024505462874084578
64	0xbfb70a950b6de68d	-0.09000522164378762
65	0xbfa297b0ff5ebb06	-0.03631356351194452
66	0x3fb6058d622948c7	0.08602222105517675
67	0xbf9f06d5f6268324	-0.0302995139587693
68	0x3fac8daee4d65549	0.055768456873162515
69	0x3fac32a4d087e0ab	0.055073881583611005
70	0x3fa37a91d4f49678	0.03804450726083258
71	0xbfa5c582dc131e84	-0.04252251564463186
72	0xbfc11ba337ce338f	-0.13365593171002074
73	0x3fa6c26bf1cf60cf	0.04445206953795521
74	0x3f8e453662d1a95f	0.014780449763027446
75	0x3facc95b934c5ce9	0.05622373745989668
76	0x3f4b921f78f42ed7	0.0008413938211630734
77	0xbfafb3969d38a696	-0.0619170252724192
78	0xbfa60a08b3df6cd9	-0.04304530330383622
79	0x3f82154ae4861fa4	0.008829674815174667
80	0xbf98b149419f4fb6	-0.024113793020503947
81	0x3fb3467556a055ce	0.07529385914707307
82	0xbfa5d2f741b43dfc	-0.04262516667415281
83	0x3fb49265b4c6fcf8	0.08035884536274185
84	0x3fa1c4db4674f650	0.034705021238988665
85	0xbfb0bb92fde128c2	-0.06536215494375866
86	0xbf871120dbfc63da	-0.01126313849776921
87	0x3fb26bbcda601557	0.0719564469473729
88	0x3f72df2bfbf236a4	0.00460736447634039
89	0x3fb6fafb75440681	0.08976718533451768
90	0x3fb1b2c7d23b84dd	0.06913422472600268
91	0xbfb921544c70e0b7	-0.0981648146270143
92	0x3fa6995b6495e38f	0.044138771084312294
93	0xbfc1ed20a33e69ac	-0.14004905672920864
94	0x3f52a1293cdd4b04	0.0011370566093844023
95	0xbf89052d63713f1f	-0.012216906163444783
96	0xbfb95ab90a8a4a0b	-0.0990405703289882
97	0xbfa0e7ec25eae1cb	-0.03301942789898112
98	0xbf9e5d0b41f038e3	-0.029651809596594424
99	0x3fb6216877473898	0.08644726669374092
100	0x3f5433a32cf2a462	0.0012330144416330614
101	0x3fb8bbd2f170ce7b	0.09661596674487243
102	0x3faa767a08a2897c	0.051685155443254666
103	0x3fba695db3d55681	0.10317025795424152
104	0xbf9cec6906e8f716	-0.02824558357882897
105	0x3fb80d07eadee50b	0.09394883617541809
106	0x3fb5cda57552f9a9	0.08516916384085128
107	0x3fb37437aa82dcbd	0.0759920874869406
108	0x3f984e5585a64fb5	0.023736320764853953
109	0xbfb830d0652f32f7	-0.0944948431999356
110	0x3f90c0f2d51f29e5	0.01636104036132648
111	0xbfa20470aa8094c7	-0.035190125287309075
112	0x3f9190b91b7f01c2	0.017153637221555725
113	0xbfb434d32d90777b	-0.07893104422006829
114	0xbfb1ec59487a79e0	-0.0700126459073327
115	0xbfb9e2a635443dbe	-0.10111464310124682
116	0x3fa7398dcba15072	0.04536097632140547
117	0x3f8b8a39da514f16	0.013447238898300944
118	0xbf95708328f44f7e	-0.02093701302972261
119	0x3fa07ba99596884b	0.03219346953416443
120	0xbf543a947cd452eb	-0.0012346696924556099
121	0x3fb212673b63ba75	0.07059331130924724
122	0xbfb7426443e97e2f	-0.09085680635461622
123	0x3f9a4a7bd8d5001e	0.025674758061768548
124	0x3fc0ae78938a9a97	0.1303244324128243
125	0x3fb8da216a84a73c	0.09707840776959825
126	0xbfbb6f37633a95dd	-0.10716577694491698
127	0xbfa5be95b1665e55	-0.04246967115903703
128	0xbfb85606361e2028	-0.09506262608749749
129	0x3fac01893f26b143	0.05469921966445892
130	0xbf946ede24b45d5d	-0.019954176893489762
131	0xbfb644c9847656c1	-0.0869871090311234
132	0xbfb314cbff18031c	-0.07453608491779246
133	0xbf523241aa5e70aa	-0.0011106148972208998
134	0x3fc1e6c6098535e7	0.13985515084134123
135	0xbfb39c7f53db36be	-0.07660671040795372
136	0xbfadb53d419d02db	-0.058023370990218225
137	0x3faf89f5dcfd7ff6	0.06159942934641542
138	0xbfa3a34df9175bba	-0.038355290085454866
139	0x3fac037b9d3933d5	0.054714072172465635
140	0xbf9a57b138a6d21e	-0.02572514446520035
141	0x3fbcd7bd77d1ce7e	0.11266693282396464
142	0x3f978a9cbb25fec6	0.02298970119727419
143	0xbf88fc6620b50dc0	-0.012200162766595635
144	0xbfbbe6eb3ac7824a	-0.10899229226152687
145	0x3fb5ef8f3b1325f9	0.08568663780456366
146	0x3fb90c37068d373c	0.0978426352496315
147	0xbf880f56a5934796	-0.011748005798299304
148	0x3fb216cec3741b55	0.07066051742377273
149	0x3fb0e0a4234b9fab	0.06592775212959505
150	0x3f892b0267c083be	0.012289065161953047
151	0x3facd5e99e93a9d9	0.056319523437043
152	0x3fb34613d70440a3	0.07528804778508173
153	0x3f8564cf6d503871	0.010446186564902345
154	0xbf936f1e2fd15217	-0.018978568714674262
155	0x3fb078713bdf0cef	0.06433780395223086
156	0xbfa586085052db0e	-0.04203821163667075
157	0x3fbd54d293af1a21	0.11457553964201185
158	0x3fbe97a3377db65c	0.119501305625556
159	0xbf99654a60f34f2e	-0.024800455253014046
160	0xbfa28e2df149b198	-0.03624099321754953
161	0x3f9d03f653f00371	0.028335427163259156
162	0xbfb34fb94c5b491c	-0.07543523897337362
163	0x3fb90f8b66f67290	0.09789344085442964
164	0x3f86bc6cbe26adb1	0.011101579239798239
165	0xbfa762c82a12cad9	-0.04567552102652934
166	0xbfb0723e3e4d7795	-0.06424321194705691
167	0xbfa2344983c13db1	-0.035555169423442286
168	0x3fb6cfcad66ba6f0	0.08910815939784889
169	0x3fb6094e049e474c	0.08607947933913102
170	0x3fc109f0740a11aa	0.13311582246764192
171	0xbfb495f75c638110	-0.08041330342848974
172	0xbfb2d3625365f8a2	-0.0735379651650612
173	0x3faa7864d33ac2fb	0.051699782166343376
174	0x3fa705b298c512d0	0.04496534457078882
175	0x3f62623d18c01d4c	0.002244109467941213
176	0x3f96f7c1abbb5fd0	0.02242949114483378
177	0xbfc0617878c05aec	-0.12797456642211757
178	0x3f8370b88be8b913	0.009492341775594803
179	0xbfa32481b6959ff8	-0.0373878989583431
180	0xbfa32ef2f50d1b76	-0.037467567838169666
181	0x3fa1ae7e6d8d7cca	0.034534407494669475
182	0xbface1f46b561f26	-0.056411398031796886
183	0xbfa3be577e318051	-0.038561567453826336
184	0x3f8635e9bcde08cc	0.010845018459580656
185	0x3f9beea0ade5deae	0.027277479757201455
186	0x3faa34db3e95f216	0.051184512510165245
187	0xbfbe84bce7fe9d65	-0.11921291984491729
188	0x3fa5d04eaa118ed9	0.042604883442235404
189	0x3fb013c6a83204c2	0.0628017578728928
190	0x3f977c21e0cd8840	0.02293446478450556
191	0x3fb29ce078d29e18	0.07270625066541248
192	0xbfc06b7c6e89aec9	-0.12828021428446437
193	0x3fbcae42bd3a7ef0	0.11203400726162349
194	0xbfa8c64ffba87284	-0.04838800379750288
195	0x3fa8918a1e813df6	0.04798537847875288
196	0xbf7f78545e017019	-0.007683114585315586
197	0xbf86a02b2a365826	-0.011047684884754782
198	0xbfaba39615427d6b	-0.053982439131909775
199	0xbfae50c81e290635	-0.05921006553809286
200	0xbfb67a95bc0ff7f8	-0.08780799714438092
201	0x3fb9cae2bcd1e99e	0.10075204000341961
202	0xbfb472d8c765bb00	-0.0798774229822179
203	0x3fb87620c81f6ecd	0.09555249105272452
204	0x3fbf00061277c138	0.12109411192773656
205	0x3f97c2341398bbc4	0.023201764770586455
206	0x3fc1380b8bacc169	0.13452286071834443
207	0x3f8a4e78ba2cb8f3	0.012844985181427826
208	0xbf97b31202da8adb	-0.023144036697554476
209	0xbf830b8f763e56fa	-0.0092993934593255
210	0x3fa9d86115fddcba	0.050478967604186534
211	0xbfa3f96733a016ce	-0.03901216988746868
212	0xbfb76b807cf24f0f	-0.09148409891559715
213	0xbfab8e50f0d96dcb	-0.05382016124778096
214	0x3fbcad29959fbaec	0.11201724913528793
215	0xbfb99feea7daa353	-0.10009662244796162
216	0x3fa079ec0f9a1f5a	0.03218019190268136
217	0xbfbbbf3c415b3d38	-0.10838677020659737
218	0xbfcc4183b578c3d3	-0.2207493434994193
219	0xbf8f65e1d2f9a5b0	-0.015331043482734369
220	0xbfbdd5bc94c2aa28	-0.11654261237951202
221	0x3fa6d43651820488	0.04458780045480021
222	0xbfb4ffde16d83cee	-0.08202922876101912
223	0xbfbeac98a0669a67	-0.11982110897097585
224	0x3fbafaa08f9d0561	0.10538676744638088
225	0x3fb3044183a57699	0.07428369010946269
226	0xbf6365911c30f3f7	-0.002367766779143295
227	0xbfb32146c54cf006	-0.07472650830180791
228	0x3fb257978d109a6a	0.07164904779401984
229	0xbfb8cdd68ca70cad	-0.0968908399000152
230	0xbfad18bc2ae8744e	-0.05682933830051039
231	0x3f8813e1a6a6addd	0.011756670854842827
232	0x3f8c26b7ec03b6d2	0.013745724573222349
233	0x3f650fbea3e5fbf8	0.0025709842149690375
234	0x3fb458bcf33d79ff	0.07947903574447678
235	0x3fb66ba39a4d7bd4	0.08757994191317603
236	0x3fbeb638d7a6b4da	0.11996798767968944
237	0xbfa13422b77182d3	-0.03360088815020892
238	0x3fb25b27775e5037	0.07170340217845782
239	0xbf84e74246d47551	-0.010206716333920925
240	0xbfb3289e50eea6d5	-0.07483853793987845
241	0xbf37c85d5bae5df7	-0.000362894814025932
242	0xbfb0c9737ea74474	-0.06557390062450158
243	0x3fbb42262e923fbf	0.10647810589784877
244	0x3fb55ff3177e12cd	0.08349532435938585
245	0xbfbd0adf12bec845	-0.11344713409087699
246	0xbfaa7995c5462c61	-0.051708870250046564
247	0xbfcbc3f62b9f6fb3	-0.21691777353305283
248	0xbf7636091b8e4e33	-0.005422626091689464
249	0x3fbf771df57cd46e	0.12291133159017573
250	0xbfa134622461b989	-0.03360277837861065
251	0xbfa9f27b4bc0ad65	-0.050678112980984825
252	0xbfb13aee42a534e0	-0.0673054611881585
253	0x3fc03c92923df97f	0.1268485273430535
254	0xbfac2e32cf31a581	-0.05503996638510512
255	0x3fa848c39be82dc5	0.04743014600907317

fc_hidden_list.0.bias f8 [100]
0	0xbf91e75bb1817bac	-0.017484123906225044
1	0xbfad3c386f26785e	-0.05710007054152365
2	0x3fb4df67c4c8dee3	0.08153389505684631
3	0xbf39d789403f93c9	-0.00039431668142092237
4	0xbfa035d56e68a4f2	-0.031660718658096956
5	0xbf9939d58c49895a	-0.024634682357267713
6	0xbfa133840381419d	-0.03359615843567385
7	0x3fb47204841bdc27	0.07986477113068756
8	0x3fbb9e3a8463aac8	0.10788312656556365
9	0xbfa19fe30f6be8cf	-0.0344229656529521
10	0x3fa834ae684e84f3	0.04727692626262039
11	0xbfab867ad2dc89e8	-0.05376037429802577
12	0xbfb0af2a630ad3a1	-0.06517281454109859
13	0xbfb981f43a8b4180	-0.0996391909532175
14	0xbfb42e742e0d4bca	-0.07883382915797124
15	0xbf64822eea8fc21e	-0.0025034824689032084
16	0xbfaf3e714a75ed5c	-0.0610232737917282
17	0xbfb037671c72a8b2	-0.06334537930038911
18	0xbfb4eba142115525	-0.08172042716008272
19	0xbfab0ae75e306714	-0.052817564246835286
20	0xbfa140514981542d	-0.03369382879524383
21	0x3fb4c60172c6b476	0.08114632656243423
22	0x3fb782982f28c3a6	0.09183646346424598
23	0x3fbdf287ef0c83c1	0.11698197923807553
24	0x3fb5af4cdda1b1e8	0.08470611964157337
25	0x3fa9679df2d8d752	0.049618659872449414
26	0x3fa75f5f6626da30	0.045649510593126386
27	0xbfb5a1f17843addf	-0.08450230775968447
28	0xbfab2c047c8175c0	-0.05307020206303603
29	0xbfb3ce2c52c0e98c	-0.0773647024188106
30	0xbf936fa388e33154	-0.018980555753658493
31	0xbfb330ff17ef5343	-0.07496637663218757
32	0xbfb7de7701ac875e	-0.09323829451434792
33	0xbfa26adb8c4bf1b1	-0.03597150886159584
34	0xbf7f90094c2d776a	-0.007705723112705213
35	0xbfaa8997601cdf44	-0.05183098839046221
36	0x3fb87dac0026b6d2	0.09566760066692417
37	0x3fb4db9fac28012b	0.08147619202646143
38	0xbfad32513459ee73	-0.05702451480916872
39	0xbf9683758f5a345f	-0.02198585212186221
40	0x3fb196d8c6fe033b	0.06870798929413706
41	0x3fb58a1e11720b00	0.08413875509181068
42	0xbf9103e6e6b9cab0	-0.016616447288877623
43	0x3fbd1ed7dfef2437	0.11375188080923314
44	0x3fb8ef879628ba02	0.09740493217461935
45	0x3fb40a1e93a31602	0.0782794104043987
46	0xbf9d2d39a156df4c	-0.028492832634327045
47	0x3fb168f4dd1223af	0.06800775906789512
48	0xbfa2493332c9cdb7	-0.035714721631758754
49	0xbfb9959dc176a911	-0.09993921254377748
50	0x3fb6714017c56ea1	0.08766556339599642
51	0xbfbd696732d7e35a	-0.11488957396785562
52	0xbfb7068226452ca4	-0.08994306024867399
53	0xbfb6a9f56eef1f8f	-0.08853086431838463
54	0x3f94d199f3d29f52	0.020330815798529862
55	0xbfa53b7d865db9d3	-0.04146950020991693
56	0xbfa3385602069380	-0.03753918432929648
57	0xbfa4e983b5d68ac8	-0.04084407419874975
58	0xbf54abcc9fda43d5	-0.0012616632733719508
59	0x3f97974347c47355	0.023037959342320963
60	0x3fb2e739c82461ca	0.07384072433740765
61	0x3fa1cdd7d4761454	0.03477358311196413
62	0xbf705cf5e24d28a7	-0.00399490402635131
63	0xbfb088c7dcb37e90	-0.0645871080228011
64	0x3f87074f5edda2a2	0.011244411547253922
65	0x3fbb74b387aa8b26	0.10724947034991014
66	0xbfaab98b2a6eda24	-0.05219683545094636
67	0x3fb47774ea52a808	0.07994776459477759
68	0xbfb286c419c75bb8	-0.07236886624683236
69	0x3f8fbada46d96528	0.015493111884256353
70	0xbf836b78174631d7	-0.00948232480075088
71	0x3fb7d4943acbe5a4	0.09308744845829736
72	0xbfb28dd61722b4d5	-0.0724767500384645
73	0x3fa7ff7d8d66535a	0.04687111235685988
74	0xbfba57c8c331f056	-0.10290198102478718
75	0x3fb64edf5eb1b6c4	0.08714099943037029
76	0xbfbe39873ce845c4	-0.11806531178469643
77	0x3fb61b04ea11e8d9	0.08634978022192587
78	0xbf8a0e943155bd03	-0.012723119502622731
79	0xbfc3965e35334fb2	-0.15302636716535073
80	0x3faab43cba05d50e	0.05215635081087032
81	0xbf70cd5e3acab7e9	-0.004102104267685627
82	0xbf798123061e2b76	-0.006226670086003297
83	0xbfbbd474ed4c7e73	-0.10871058267047733
84	0xbfa4390a22eef966	-0.03949767757829896
85	0x3fb630406edea336	0.08667376238612409
86	0x3f981a1dc8748aab	0.023537125930611563
87	0xbfa130bdbafaf4ba	-0.033574990343802694
88	0xbfba031eeb2869e9	-0.10161011925848808
89	0x3f9cc321620188cb	0.02808811340981591
90	0x3f816683959f0e7f	0.008496311191158455
91	0x3f97e8fd8a9bea4b	0.023349725327515263
92	0x3f968b9e4ac692e6	0.02201697665590787
93	0x3fb942ea889ff2eb	0.09867730937544265
94	0xbfb5c91fe4dacb9b	-0.08510016762993049
95	0x3fa7df13c44e47f7	0.04662381907759532
96	0x3fa580c5df5e1893	0.04199808456091705
97	0x3faef10e0fd79c4b	0.06043285315882282
98	0x3f7bb35e4ad5773b	0.006762855843900624
99	0x3fa2db1ba3876bd9	0.036827911102328144

fc_hidden_list.1.weight f8 [100, 100]
0	0xbf80151ffce474fd	-0.007852792649425394
1	0xbfab50a42770d965	-0.05334961873488701
2	0xbfc55ca2abaa23a2	-0.16688950902996874
3	0x3fc2c9b80a3855c3	0.146780972471488
4	0xbfa22e67c1cb76d0	-0.03551029434832531
5	0xbfb3b93b48df48b7	-0.07704515961748624
6	0x3fa535b2b8b78a11	0.041425309227424496
7	0xbfa2144a53423ab1	-0.03531105295507098
8	0xbf845db322cbff6b	-0.009944343089500504
9	0xbfc4d717409540a1	-0.1628140511843457
10	0xbfc36d6b05e3b1c0	-0.15177667415208695
11	0xbfaeaa19bd29f550	-0.05989151414994842
12	0xbfa556321e79ba06	-0.04167324659362141
13	0xbfc5d77e01ef32de	-0.1706388005681196
14	0xbfa6be5f1d63d5ed	-0.04442116960300866
15	0xbfa0a861bd3e0125	-0.0325346511372138
16	0xbfa21b21c1fc6700	-0.035363249711918954
17	0xbfc02b8d0645a75b	-0.12632906728986878
18	0xbf85e346cf449eb8	-0.010687401962584317
19	0x3fafc61136cb3814	0.062058008135508796
20	0x3fb530585ec596b8	0.08276893914952665
21	0xbf85d3e9515cd1f4	-0.010658095164765215
22	0x3f77391ef8334bd8	0.005669709181534942
23	0xbfb8677dd6810433	-0.0953291557971319
24	0xbfc089672e6631c1	-0.1291932083662584
25	0x3fbbabf30670fc75	0.1080924883581121
26	0x3fb3e820bca31d78	0.07776074033164615
27	0xbf93ce6c2cb55748	-0.019342127064496922
28	0x3fc1b95b9b134eac	0.13846917221109345
29	0x3fb97d17e6f81189	0.09956502331630736
30	0x3fa3fb82727f0566	0.03902824065836334
31	0x3faf29b572117a57	0.060865087675428135
32	0xbfad5cd6b04aaa44	-0.057348927516916365
33	0xbfaba309d10381a6	-0.053978258861892045
34	0x3fa6f58661e89246	0.04484195656940364
35	0xbf90e2527561f275	-0.016488350309816064
36	0x3f944e58330ef8d7	0.01983011066089876
37	0xbfa771105410430c	-0.04578448320547154
38	0x3f9223b8efcedbd0	0.01771439517662171
39	0xbfaefb10e44bffeb	-0.06050923144175598
40	0x3f72bf7730a03e0b	0.004577127061579765
41	0x3fb9bbd29bd8c32e	0.10052219681598437
42	0x3fc46c6a94646232	0.15955860372265956
43	0xbfa840e46ad046c3	-0.047370088614241655
44	0xbf4745cb98435cd5	-0.000710224544060357
45	0x3faa259e4e82772b	0.05106825550431745
46	0x3fb2a5286a6b8344	0.07283260915893403
47	0xbfb6875b023c6f60	-0.08800286106673871
48	0xbfb4a2d7ffaec9fb	-0.0806097983575355
49	0xbfbb8fd2fed751a8	-0.10766333314615528
50	0xbfa1387b46cbbfde	-0.03363404502113075
51	0xbfba18b5aa4d3551	-0.10193953902963428
52	0x3fb8122d502fd26d	0.09402735908208522
53	0x3fbb4ef29a95937e	0.10667339586286848
54	0x3fc1e1a825a796a2	0.1396989997730787
55	0x3fc23e1488a960a3	0.14251953766757194
56	0x3f816f1ab4390bb0	0.00851269590851253
57	0xbfb0733331d01de2	-0.06425781217705365
58	0xbfbebed00632102f	-0.12009906913050437
59	0xbfa8e1c35d310757	-0.04859743607131744
60	0xbfaa256172c5ea4b	-0.05106644178427596
61	0x3fb870bec2c9d9be	0.0954703546102342
62	0xbf78c7d62fa58cf4	-0.006049954094439192
63	0x3fabeb8760ba6d18	0.05453131728901378
64	0x3fb5320f0e5c5e96	0.08279508686643519
65	0x3fb76a2a18fcf766	0.09146369085371261
66	0xbfa8105306a10f3c	-0.046999544676991495
67	0xbfb98e277136bc2e	-0.09982534898766524
68	0x3f92c5d3015b6d57	0.018332764585335806
69	0xbfaddacc61a6e5d4	-0.058309924049762124
70	0xbf6109bc5f9c4d36	-0.0020798377198702157
71	0xbf99c166289ca672	-0.02515182135463196
72	0xbfa68aab76b1868f	-0.04402671646017808
73	0xbfbd84ba45a8e61b	-0.11530651283910524
74	0xbfada50eb72fddc5	-0.05789991365594064
75	0x3f9a6dc351eb2cf5	0.025809337496679203
76	0xbfac90f121d55d67	-0.055793319110928156
77	0x3fb39e519e28d446	0.07663450347247744
78	0xbf88cdfd4ccc01db	-0.012111643701701638
79	0x3fb7a16eac4d5327	0.09230701166718501
80	0x3fa8c23bd9b7e5b5	0.04835688622183502
81	0xbfb2b2e818efce7d	-0.07304239853675117
82	0xbf86b6b4bf749dbc	-0.01109067162776866
83	0xbfb971fd6a4e2c9a	-0.09939559789033794
84	0x3f69e13f309a2116	0.0031591638733666867
85	0x3fb12dc957aef89f	0.06710489645681371
86	0x3fbb690afb9a74fd	0.10707157747897962
87	0x3fc334492f6a636d	0.15003313842023705
88	0xbfad8cb9e0fdf921	-0.057714279856542434
89	0xbfa0fda034a0d73a	-0.03318501131472691
90	0x3fc40fa7deb2f419	0.1567277753255503
91	0xbf7c2efa136bfba4	-0.006880738123753814
92	0xbfc382c564574b2e	-0.1524283161112065
93	0x3fc09de9e19ba85a	0.12981914058701954
94	0xbfa2467093a7820a	-0.035693662666521034
95	0xbf8c82daeec11460	-0.013921461497498011
96	0xbfb26e28b99e3ef8	-0.07199339420025896
97	0xbfbd1e940bf3b5a1	-0.11374783794209133
98	0xbf6ed04257073248	-0.003761415071698946
99	0xbf740502d06364bf	-0.004887591354610864
100	0x3fb41fc4dbe65e7b	0.07860975617074388
101	0x3f884cd6f3e0f2af	0.011865310018145918
102	0xbfa02d1003077bab	-0.03159379994371333
103	0xbfa98b8afa52342e	-0.04989275270154568
104	0x3fb44b0e5bfdd5db	0.07927026506316485
105	0xbfaf6a9ff6e94ebb	-0.0613603581338373
106	0x3f4a6002c0758316	0.0008049024044503885
107	0x3faf959800606f5d	0.061688184782012746
108	0xbfb10df037d17856	-0.0666189323687559
109	0xbfb21dfefc869873	-0.07077020325832155
110	0xbfba836c854593a4	-0.10356786969857851
111	0xbfb352ca53828514	-0.07548203028502015
112	0x3fb4ccfdf1e4df19	0.08125292926422069
113	0xbfbb568c1f9d8132	-0.10678935787064317
114	0x3fa7e6b901d109e0	0.04668214938330428
115	0x3fa19bbc33cfa99b	0.03439129002056803
116	0xbfb8faf91ea49434	-0.09757954595677704
117	0x3fb432a023ef8d9a	0.0788974845632339
118	0xbf2b9323094fbca1	-0.00021037867250537238
119	0xbfa1e7a3b029bc67	-0.0349703934233439
120	0x3f5b6797411cc663	0.001672647198983767
121	0xbf3495ef319f5e80	-0.0003141125649767998
122	0x3fba7155aafcc7cf	0.10329184936998036
123	0x3fb2fe5522868c59	0.0741933068552937
124	0x3fa5707b0712bdb0	0.041873783696583344
125	0x3fb7a4d9d21bde89	0.09235917453394839
126	0xbfb48c5b73489242	-0.08026668133295181
127	0x3fa938bdf4548ee5	0.04926103217647241
128	0xbf932a03be30e34d	-0.018714960559211225
129	0x3faa260a6a53df84	0.051071477393576564
130	0xbfa3bad3a9bea10c	-0.038534750433713766
131	0x3fa38bafebd24afc	0.03817510369949237
132	0x3f957e6f2c1ad62d	0.02099012095160029
133	0x3fb2af350d57592d	0.07298595023835182
134	0xbfc9de7d92a0df7b	-0.20210237178411802
135	0xbfb47931024f213e	-0.07997423464178596
136	0x3f934f6e2aa07275	0.018857690192918903
137	0xbfa223a810fef4ee	-0.03542828757734094
138	0x3f93cec25fd51129	0.019343411540163977
139	0xbfb094ad8fb0e6c6	-0.06476864584046912
140	0x3fb56baf8fcc4193	0.08367440472307512
141	0xbf92ca5c980d520b	-0.01835007360507927
142	0xbfb5eb3076239580	-0.08561995395901612
143	0x3f51e1c7d33dbec2	0.0010914279382311797
144	0xbfbaf2984fe37bf1	-0.10526420545964733
145	0x3fbd0af3f4414c4c	0.11344837868937069
146	0xbf873dad63ee3e47	-0.01134810887540917
147	0xbf9efc89ec52796c	-0.03026023392578152
148	0x3f90b3d22346e73f	0.01631096210778726
149	0x3f96b66c213f85be	0.022180261163048824
150	0x3fbc9b44aa6c3fce	0.11174420510019376
151	0x3fae52f774893b46	0.05922673509177527
152	0xbfb5d5cc3b8ee539	-0.08529354528481727
153	0x3fb5700e2e853738	0.08374107967139544
154	0xbfab4fc7776147e2	-0.05334304172778538
155	0x3fa2dfab40e87b7b	0.036862708733898374
156	0x3fb6f9ad8a8df74b	0.08974728233985478
157	0xbfa04e06d1133f5b	-0.03184529592692683
158	0xbfa5f5e67805950c	-0.042891695166682536
159	0x3f68e98645de1be3	0.003041040660665116
160	0x3fbdc48ac3355c9d	0.11628024354773676
161	0x3fb7aa8251e2db34	0.0924455118100525
162	0xbf96b63a3eb846f3	-0.02217951782046774
163	0xbf60f0f592bb0d55	-0.002068023333636463
164	0xbfb9676fe446ca0c	-0.09923457453877677
165	0x3fbb780222ca7a5f	0.10729993199718411
166	0x3f9a14569170b5f2	0.025468208910913455
167	0xbfa780c586c8a5e0	-0.045904324248407624
168	0x3fbf4c12149f6bb5	0.12225449565396114
169	0x3fb91bd48cac8cf1	0.09808090624260381
170	0x3fac3f24c7f19447	0.055169248015581256
171	0xbf7689dcdae670cc	-0.00550256988062987
172	0xbf97a769af7b75f1	-0.023099566779697104
173	0xbf8a1ec59a6cf9b8	-0.012754005217740935
174	0x3f7b10fd35cd1374	0.006607998945416738
175	0xbf9ab2d4dee357b2	-0.026072813133246782
176	0xbfbcaaa12e156bbd	-0.1119786012181256
177	0x3fa97e11c7e2dc97	0.04978995862023188
178	0x3fa949a5013d64ad	0.049389988328308966
179	0x3fb4ba898efa581f	0.08097133389159737
180	0x3fc8351ce04488f5	0.1891208739335252
181	0xbf6769e390fe317c	-0.002858108964522708
182	0xbfa72bb24780e260	-0.04525525210232639
183	0x3f965f355c3be0ec	0.02184756637049727
184	0x3f92370834a32cce	0.017788055622798997
185	0x3fa0b1523738ee51	0.03260285305119893
186	0x3fb9fac1da57be24	0.10148250179894852
187	0x3fb7c35151c6f6d7	0.09282406088365334
188	0x3f9d99abb23695c2	0.028906519653579606
189	0xbfb3c139f94e7332	-0.07716715179999481
190	0xbf35c1a2c0ebc4fb	-0.0003319761607790264
191	0xbfb11a9df6ec40a1	-0.06681239393606343
192	0x3fa8f3f3bb96a6f7	0.04873620667360783
193	0x3fa799b456159869	0.04609454680284914
194	0x3fbab851948a5c84	0.10437497974850102
195	0x3fa9f919d5b31520	0.05072861417424179
196	0xbf9ba9891c381ead	-0.02701391443954886
197	0xbfb12d3e256bc858	-0.06709659970855009
198	0xbfbc6e4c99f7afa1	-0.11105803259823556
199	0xbf7fa5aeb4e5a0bd	-0.007726366470116539
200	0x3f95c536b23180cc	0.02126012289625194
201	0x3fbad0adab112627	0.10474667955818316
202	0x3fb5de17b3236b1d	0.0854201137876029
203	0x3fab78f46d57da52	0.05365718683963351
204	0xbfa5d3b90c3cc79c	-0.042630942100358754
205	0x3fc640f08cb34335	0.17385680074814905
206	0xbfaf1caedf833e53	-0.06076570967126984
207	0xbfa550866600f122	-0.041629981948491115
208	0xbf9926158aa9977a	-0.024559341991696716
209	0xbf943e80dd3ad085	-0.0197696814563675
210	0xbf85b3d79918f267	-0.010596927985823968
211	0x3fad1e4bdc0a4b02	0.05687176762616809
212	0x3fc415cf7e7d7a3c	0.15691560436512642
213	0x3fb677aa05a3ee54	0.08776343000129688
214	0xbf88c0eb1a4437b1	-0.012086712588395306
215	0x3fbe222db61e129d	0.117709023439668
216	0x3fadd81436ac4dbe	0.058289176629979775
217	0x3fa97cf05ec9c65f	0.049781333514044894
218	0x3fb105c04063f591	0.06649400302918297
219	0xbfac55e7a1f7ab2a	-0.055342901727121266
220	0xbf79bfb2d20458bd	-0.0062863335772559955
221	0x3fbdb369fb320a72	0.11601889021589232
222	0xbfb3c9dcff0cd3c8	-0.07729893900689355
223	0xbf6419b531582061	-0.0024536646767537172
224	0xbfc22834b0147e83	-0.14185198400172191
225	0x3fb6177534c4dc56	0.08629543817811344
226	0x3f6a57152fb1e8ad	0.0032153524203382884
227	0x3face6b58b97ddab	0.05644767121333002
228	0x3fad2776188de839	0.05694169091926011
229	0x3f9b2873dc9895b2	0.026521501864541448
230	0x3fb387430751e67a	0.07628268173893984
231	0xbfb7e7be7d8ae1fb	-0.0933798843860884
232	0xbfac7ad2ebc25155	-0.055624572066480006
233	0x3fb62650c882dd15	0.08652214904110551
234	0xbf9168c759715a4d	-0.017001261552957826
235	0xbfb2ca66ee73bd6c	-0.07340091058335013
236	0xbf7255bde4b7c47e	-0.004476300975043588
237	0x3fb4528dfa3ab310	0.0793846832190861
238	0xbfb464f338263ebb	-0.07966537590823013
239	0xbf8791f14286a6c7	-0.011508831827842582
240	0xbfb0db04658649ba	-0.06584193686129583
241	0xbfa8c7d8f0987160	-0.04839971482235472
242	0xbfad17547d0cc4e4	-0.05681861902702126
243	0xbf9e4153eec993b6	-0.029546081017901314
244	0x3fb65314572a2f0d	0.08720519187971494
245	0x3fb107a596659fc9	0.06652293130684862
246	0xbf838bf0192c1648	-0.009544254081912076
247	0x3fbd4ece9ec79b82	0.11448375107248235
248	0x3fc00925257079f6	0.1252790863808994
249	0x3fb9b398a2e251c6	0.10039667107259395
250	0xbfab12396a06bb95	-0.05287341517702441
251	0xbf49239c4455dc1f	-0.0007671845457214477
252	0x3fb8a1bd85195af2	0.09621796130646112
253	0xbf9d5ae37bc73592	-0.028667025022334487
254	0x3fa2a742bd11aea5	0.0364323478505331
255	0xbfb80c6d6b66ac09	-0.09393962738128904

fc_hidden_list.1.bias f8 [100]
0	0x3fb2b72adad397d7	0.07310741274304121
1	0x3f9a7b9baaa321d6	0.025862152376051238
2	0xbfa939adf2084650	-0.04926818446632508
3	0x3f72ea84473da360	0.004618183815048166
4	0xbfa1c64e9ceb3d0a	-0.034716087966098
5	0xbfaadc2d761ed7cd	-0.05246107165241618
6	0xbfaf98cfd5312466	-0.06171273686829508
7	0x3f978a76a7347f6a	0.022989133792293094
8	0xbfa23ebbdc6f7640	-0.03563487115728181
9	0x3fa6581f8870583f	0.04364107647431625
10	0xbf719db5919bc6a8	-0.0043007938891023514
11	0x3f905b7e73fe3938	0.01597402174916704
12	0x3f9d79836c8f104b	0.028783849240213304
13	0xbfb5120f99e927f5	-0.08230683810793933
14	0x3fac4092f46d5486	0.055180160844124734
15	0x3fb095ebae4e3f99	0.06478760724553324
16	0x3f90818774c11e8c	0.01611911440002571
17	0xbf8fb963bb794763	-0.015490321310753513
18	0x3fa121599e3c798e	0.03345756584734537
19	0xbfb5eab4f0a0f4ad	-0.08561259150242746
20	0xbf812f3b9987ab86	-0.00839087068830736
21	0x3fa830e68abc2381	0.04724808162251915
22	0x3faa44900ad56a83	0.051304341623752435
23	0x3f9f7b3683ba4e6f	0.03074345759394109
24	0xbfaac95b6f453469	-0.05231748326568992
25	0xbf6907675e6e953a	-0.003055288212140764
26	0x3f9064355ad8fe85	0.01600726477613403
27	0xbf90e8dde031d986	-0.016513315972099395
28	0xbf94c45cb3cd4546	-0.020280312036736768
29	0xbfabe65cbfd3493f	-0.05449189988725544
30	0x3fa9e5c59a34a3a5	0.05058114535706374
31	0xbf91d75a1a72ee62	-0.01742306505614833
32	0x3fa6589416d90676	0.04364455012229211
33	0xbfae1679d9458e71	-0.05876522805445184
34	0xbfac984e28853c0f	-0.055849497267097196
35	0x3f992b3584ad5179	0.024578891966784398
36	0xbf7ce33469d9fb47	-0.007052616825261654
37	0x3fc2459f30075bfa	0.14274968953279182
38	0x3f9a39a92014e33f	0.025610582907776843
39	0x3fb3de9de3193ca0	0.0776156119766136
40	0x3fad02a905219b74	0.05666092097890543
41	0xbf89e992a3cba402	-0.01265253603328809
42	0x3fae2942aad40c31	0.05890854201609164
43	0x3fa2a048bc4f7f72	0.03637912081444385
44	0x3faf81356659c5c6	0.061532658332804455
45	0xbfa831b0b6d3f4c4	-0.04725410682474654
46	0x3fb2a42187df5d8c	0.07281693999481414
47	0x3f873bab3799adad	0.0113442779867999
48	0xbfb98c4e4ca9407d	-0.09979714748010511
49	0xbfa0f71662653dbd	-0.03313512755505197
50	0xbfb7e825c83b6084	-0.0933860410544885
51	0xbfb35ceadbc4c946	-0.07563655724951443
52	0xbfb0d7a18d470139	-0.06579026888994556
53	0x3fb52c1fa9d7cb3a	0.08270452400738018
54	0x3f929a0015afb7af	0.018165589641220666
55	0xbfa2c7bd5cfc54a6	-0.03668014297560633
56	0xbfb2f50d217b0a1a	-0.07405168597600956
57	0x3fb0089d6f7b0014	0.06263145419779931
58	0x3fc4ee9d58f82831	0.1635319408817977
59	0x3fae56152e5d2a66	0.059250509175929264
60	0xbfab3483216ae2b3	-0.053135011510169326
61	0x3fa8d1560df471fa	0.04847210808131659
62	0x3f99c3d8a29a2c10	0.025161156582310495
63	0xbf96a670cf543326	-0.022119295744278088
64	0x3fb11f431d338abd	0.06688327277110324
65	0xbf87dffd2b2f2f9b	-0.011657693748837341
66	0x3f97bfa6d5f4d3ee	0.023192030724391736
67	0xbf7a2b9629346b65	-0.0063892236387584666
68	0x3fb7c36ff773bef0	0.09282588759719679
69	0xbfb3ffc8ab987ea8	-0.07812170209262581
70	0xbfa4e5c578b2cf83	-0.04081551645631889
71	0x3fb3caaeea632097	0.07731145117134229
72	0x3f7874cfcc0c2ddb	0.005970775325077916
73	0x3fac1068dea0ed6a	0.054812695671411074
74	0x3faa9963de7f2f10	0.05195152369523559
75	0xbf94ae1073f30c1b	-0.02019525249194141
76	0xbfa5fea24f86c1e0	-0.04295832844525527
77	0x3f9d4879132cc229	0.028596774859751904
78	0xbfb44ae4ec02ea8a	-0.07926779520031793
79	0x3faed9dd818e2f1c	0.06025593000876325
80	0x3fbf870f68443158	0.12315460486951701
81	0x3f79989c08a56cd5	0.0062490553921989616
82	0x3f91cd9c87d21383	0.01738590792639939
83	0xbf7b0945ab4b25db	-0.006600639481527416
84	0x3f9335c66821a6df	0.018759822946242784
85	0x3fb61dc2af0fa51c	0.08639160894349057
86	0xbf9402c685be68b6	-0.019541837609360534
87	0xbfb8a21b91b77673	-0.09622356708083561
88	0xbfb1372745319103	-0.06724782408997858
89	0x3fb22c8dec41c990	0.07099234598152848
90	0xbfb076d3d31eb924	-0.06431316284463101
91	0x3f8d9a6343eb1964	0.014454627523616544
92	0xbfb4fc8df48d4768	-0.08197867603783282
93	0xbfa1a0e56ddfa102	-0.03443066564779153
94	0x3f6bb3a72c891219	0.0033815636745961994
95	0xbfb8bcf42e9d5c31	-0.096633206730403
96	0x3fb4277b3f7655f2	0.07872743892070114
97	0xbfaedbf58b9d3030	-0.0602719052245394
98	0xbfb4ccac4530f296	-0.08124806107748336
99	0x3fa00ff8bbf97a52	0.031371853777035455
