savedModel/allen_cahn_tanh_sin/ParticleWNN_0/trained_model_best_loss.pth (torch, 249235 bytes, 10 tensors)

fc_in.weight f8 [100, 2]
0	0x3fe48f122e6a6ec8	0.6424647242124246
1	0xbfb20716bed861c5	-0.07042066726024306
2	0x3fdd6fbd27687add	0.4599450001568764
3	0x3fd7fbcc5e7e623c	0.37474354961299006
4	0xbfdb7d83ad8ed777	-0.42953578900357264
5	0x3fd05a02a0c3d42c	0.25549379062369115
6	0x3faa8a87eda9587c	0.051838157426275594
7	0x3fcf013e837ed4de	0.24222546978641096
8	0xbfcc730ec8b8ee91	-0.22226128388307534
9	0x3fe3a3c888594154	0.6137430823382979
10	0xbfd1a9786d0fbaae	-0.2759686532071254
11	0x3fe3e808a37a4472	0.6220744316980371
12	0xbfc3068cb63cc50e	-0.14863737963018092
13	0xbfe11bc0b41bc442	-0.5346377866500307
14	0x3fb7fe356d1d972b	0.09372266687350066
15	0xbfd8420d6e624f44	-0.3790315225571599
16	0x3fe215bad64b3599	0.5651525674272079
17	0x3fda1dad8763c735	0.40806139203697295
18	0xbfd5cc436456c8ce	-0.34059223936777705
19	0xbfd07a8711ef350b	-0.2574784922733932
20	0xbfd69bcf9edbb2e5	-0.3532599498128504
21	0xbfcb6a7f6069d2db	-0.21418754775699864
22	0xbfd13d123c6c4c91	-0.2693524923390181
23	0xbfe21d45bf2154c3	-0.5660732968341552
24	0x3fd6c61688d1bc5a	0.3558403335691246
25	0x3fe395cc1c4f9525	0.6120358040758772
26	0xbfe28453807d1a96	-0.5786530980629603
27	0xbfe263be4f591aff	-0.5746757077948529
28	0xbfca44ac6ea00e74	-0.20522075082418534
29	0x3fd9700bcc50cb0f	0.3974637503880993
30	0xbfe546339512fef2	-0.6648195182424088
31	0x3fdb71f918444de6	0.42883136148267764
32	0x3fac4951cdc45ad8	0.05524688374332748
33	0xbfdeef586d6eb215	-0.48335848509557994
34	0xbfb36fae27489ad0	-0.07592285594055714
35	0x3fe23f6100560497	0.5702366835177085
36	0xbfcec4e4bce2c41f	-0.24038371298732472
37	0x3fe53998942b5a02	0.6632807630474533
38	0xbfd8e05432b75c80	-0.3886919493938379
39	0xbfd797bd12a55af7	-0.36863638707056573
40	0x3fb48b0f7535ad5f	0.0802468930393636
41	0xbfe5e1e050787e71	-0.683822781724258
42	0x3fe14a1ddaec2fd9	0.5402974391777163
43	0xbfe0a47d39ad7ac7	-0.5200792433277791
44	0x3fd651830b120b4d	0.34872509080030484
45	0x3fc9365f207e7cc6	0.19697178923249775
46	0xbfd07e94d804d8cd	-0.257725916820516
47	0xbfe32fc0e027bcbf	-0.5995792749435153
48	0xbfde99600b129c61	-0.47811127740209797
49	0xbfea948220b66008	-0.8306284560121648
50	0xbfd560b05c972476	-0.3340264229014517
51	0xbfcc01e80a84e39f	-0.2188081790316376
52	0xbfa2f5f9c0ced729	-0.03703289488423273
53	0x3f8b58addd0fc97a	0.013352735813872075
54	0xbfd865a092bc849e	-0.38120283441282676
55	0x3f939d531aa96e15	0.019154833319005322
56	0xbfe22ca1261f904c	-0.5679479355426422
57	0x3fe60a995d792dcf	0.6887938333178968
58	0x3fe582b135ffcf66	0.6722036413834587
59	0xbfd31cb1430ca0b8	-0.2986262469080532
60	0x3fe0ed3d800b04d1	0.5289599896279019
61	0x3fd6ae5806c482f0	0.35439110432530097
62	0x3fe412cb66f9e4e3	0.6272942553761393
63	0xbfa9413ee313b70a	-0.049325909823762684
64	0x3fb1427f9871eeaf	0.06742093536189019
65	0xbf94ef5701a72cf6	-0.020444259143727238
66	0x3fe4e5bd90c2065a	0.6530444934180182
67	0xbfd7b5ebc79d338c	-0.3704785775524264
68	0xbfe1be07bc766694	-0.5544470482738739
69	0xbfdf1696bf0ac780	-0.48575371414619184
70	0x3fd56fb2b00492a7	0.3349425047802392
71	0xbfdb29d01eb0570a	-0.42442706105190153
72	0x3fe6ab5574db5a40	0.7084147722587844
73	0xbfd8c241387b5e72	-0.3868563701230193
74	0xbfc3faef453edd8d	-0.15609541779643302
75	0x3fe27b30a4f9fc88	0.577537843913789
76	0xbfbd4110424ed786	-0.11427404040190767
77	0xbfc9a28a7c20d486	-0.20027285633992536
78	0x3fda02b0568dfed9	0.4064141125927399
79	0x3f5eca708752ed45	0.0018793200409124727
80	0xbfdade16f13e5b40	-0.41980527457183214
81	0xbfe50d9d6d7d8db7	-0.6579119814381816
82	0x3f7e710f84dc8eed	0.007432041760498481
83	0x3fb114962ae7dd82	0.06672037646773357
84	0xbfe47b1da3d5bde4	-0.6400287818814232
85	0x3fc95a032f77b445	0.1980594617629398
86	0x3fde2085db4dfc9c	0.4707350389143785
87	0x3fd9cc13bd7b628a	0.40308087829684125
88	0xbfda2579518e9857	-0.4085372253852077
89	0x3fe23ecd3e33cb62	0.5701662268532852
90	0xbfe638dd5c625284	-0.6944414905907057
91	0xbfd920c66de6761f	-0.39262543423123647
92	0x3fd03e6a7de76a08	0.2538095693140865
93	0xbfc88c61262b9e39	-0.19178404201305613
94	0xbfc923deb86680e8	-0.196407165564785
95	0x3fe5ab367be8c6c9	0.6771500034430683
96	0x3fe206d9d90eebac	0.5633362998408891
97	0x3fd544f30bcbeec7	0.33233333732617293
98	0xbfe49f1d438cf9af	-0.6444231337880434
99	0xbfdfa466a5999f12	-0.49440923854716445
100	0x3fd32fc59265df75	0.2997907571475403
101	0xbf9ac2d14291c2c8	-0.026133794487068568
102	0xbfc353516287652f	-0.1509801608179173
103	0xbfe673c6514dd3ea	-0.701632651135353
104	0x3fe5a87a11e84a7e	0.6768160199884077
105	0x3fd04a5ee04a097a	0.25453922179453736
106	0xbfddd3cb850f3a28	-0.4660519408616062
107	0x3fe4b02edcfb844e	0.6465067211212359
108	0xbfe70b3ece091a05	-0.7201227211124325
109	0xbfdd850239389dab	-0.46124320590976237
110	0x3fe195fbfc322e8d	0.5495586324409075
111	0xbfa4eee4d9999d4b	-0.040885116159922484
112	0x3fd043ffea5023bc	0.2541503704274495
113	0xbfdbed480586736a	-0.4363575033146875
114	0xbfdaeee5a54ef6e0	-0.4208311189976097
115	0xbfa3c7c3f52d3d4d	-0.03863346450691072
116	0xbfc46f839bf0e641	-0.1596531402044992
117	0x3fcdcb35f78d7832	0.2327640017273907
118	0x3fc8c6930dcd1b19	0.19356001066099607
119	0xbfdd286fd2608d2f	-0.45559306664127325
120	0xbf4f6ed27ad72abb	-0.0009592559560414807
121	0xbfd46d7695f9418d	-0.31918110509743586
122	0x3fcc1d2382315db7	0.219639242716523
123	0xbfe85db6c6344be2	-0.761439692609539
124	0x3fe42bb3369a0580	0.6303344789923102
125	0xbfaad59bf2af021c	-0.05241095864721876
126	0xbfe01b820d291460	-0.5033579117813467
127	0xbfd6e7b09992e9e8	-0.3578912257904947
128	0x3fe64b8de87f166e	0.6967229405351654
129	0xbfe05e2bf150dce0	-0.511495562858638
130	0x3fe1c92eba2b8945	0.5558084140905427
131	0x3fd6c80e950f8fe2	0.3559605079337854
132	0xbfb875bbdb671a4b	-0.09554647547256782
133	0x3fe5599ecdd0d25a	0.6671899814451294
134	0x3fe3b4f52c57d183	0.6158395639491093
135	0xbfdb3c9aa4a913eb	-0.42557397918818535
136	0x3fe50296dfb13174	0.6565660828578488
137	0xbfe5648f410b5661	-0.6685253401180483
138	0x3fbe4127938de981	0.11818168022538168
139	0x3fd1fbbd5e97e225	0.2809899734270707
140	0x3fdfeb64d1d71f1b	0.49874229900568573
141	0xbfb17592f412aef8	-0.06820028742611928
142	0x3f7dab9e94b1d4af	0.00724374719276459
143	0xbfbd812ca5e404d8	-0.11525229501787082
144	0xbfe35ee74462b606	-0.6053348861366323
145	0xbfe6287a5bcd58ec	-0.692441157628108
146	0x3fadea094d7658f0	0.05842618055901194
147	0xbf564ecbc2ed1d2d	-0.0013615598542900495
148	0x3fd59fa796ceec68	0.3378695461976293
149	0x3fe3b98fbb6eed1f	0.6164015446478607
150	0x3fdebfa42ab4670b	0.4804468552625713
151	0xbfd5b20c66da45da	-0.33899221462442386
152	0x3f9eb3568777b8fd	0.02998099519566554
153	0x3fda9f4177851f08	0.41597019836307014
154	0xbfe5b99c5ce9a362	-0.6789075674724752
155	0x3f87f921aedf9bd4	0.011705649518217877
156	0xbfe1a141a8b87b3d	-0.5509346289944471
157	0xbfd3e61c884fd36b	-0.31091988860798975
158	0x3fc7ad7c15f89369	0.18498183319857311
159	0x3fb331a5d93eea08	0.07497631601192023
160	0x3fd1e640dc635604	0.2796785499789112
161	0xbfd083da04f14710	-0.2580475853220472
162	0x3fd05d2e371f0d88	0.2556872881215999
163	0xbfd0e3210193ee09	-0.2638628497513485
164	0x3fcbaa329bb0b2ce	0.2161315212446397
165	0xbfd055d280f6bd4e	-0.25523817628978385
166	0x3fc9ba94cc311f05	0.20100650759035701
167	0x3fd39bcb3997ad15	0.3063839018274888
168	0xbfdfca13133d5f02	-0.4967086494338987
169	0x3fe28bed2533d93a	0.5795808531391125
170	0xbf97159773ef8c4e	-0.022543302966266325
171	0x3fe4275ddeb92bd1	0.6298055028977335
172	0xbfd5300d4ea321f0	-0.33105786017816197
173	0xbfe80c07923e06d1	-0.7514684540076023
174	0xbf988b27a3c7550c	-0.023968333598380062
175	0x3fe4371c34eb8524	0.6317273171991116
176	0x3fd25fb71c9097a4	0.28709199704678157
177	0x3fd17527f74f879e	0.27277564193183845
178	0x3fdd1fade9f96935	0.45505855416344626
179	0x3fc14d89a02c4a75	0.135178759774664
180	0xbfe592259e38ef39	-0.6740902033120398
181	0xbfdc7aae75d3e94a	-0.44498788363093367
182	0x3fd6807d64bf5522	0.3515923961507089
183	0xbfe4d0dfe5810fdb	-0.6504973871710676
184	0x3fe495d2bd55a46e	0.6432889650287856
185	0xbfd113683a4b7b9a	-0.2668095177922908
186	0xbfd54db0c844d6f9	-0.3328668552161243
187	0xbfe2efd4b9abc83d	-0.5917762400042715
188	0xbfd811199d27efbb	-0.3760437044836597
189	0xbfe486113aa0b518	-0.6413656373094083
190	0x3fbb7d10e3e4cd8e	0.10737710536778008
191	0xbfe6ae1476a732b7	-0.708749992126818
192	0x3f9f0de48f4675dc	0.03032643436892167
193	0x3fd34882bf938fc5	0.3013007040847209
194	0x3fe091d44fa363a0	0.5178014331278185
195	0x3fc498b9e7253e4f	0.1609108332290696
196	0xbfd9c6aaa89a2caa	-0.40275064911902325
197	0x3fa92c6c23395641	0.04916704111080295
198	0xbfc202b9ff6fa541	-0.14070820782152718
199	0xbfd1622729e0f6d2	-0.2716157826397253

fc_in.bias f8 [100]
0	0xbfe795f7ae597d9d	-0.7370565800919625
1	0x3fe27246e036691b	0.5764498118544766
2	0xbfdd767f769f3ddf	-0.4603575380724276
3	0xbfe487c36f2787e9	-0.6415726824745863
4	0xbfccf1b097c13a34	-0.22612578782941883
5	0xbfe1ee90c7383f4c	-0.5603717700014186
6	0xbfdb8e8af072c3da	-0.4305751178863467
7	0xbfa9f162baf5f1e1	-0.05066975147471787
8	0xbfda04bcf12c50c3	-0.40653918792783034
9	0x3fe66d86a9c8008e	0.7008698764839367
10	0xbfddcf33ab3bab18	-0.4657715961645166
11	0xbfdf899e91e695a4	-0.492774622422383
12	0x3fdb638c9725ed6b	0.4279509998375121
13	0xbfc38f39c543ede7	-0.15280840046021568
14	0xbfd64e678736b6ea	-0.34853542522874525
15	0x3fde20c85fbe7c70	0.47075089788444924
16	0x3f818bc8be630b8a	0.00856739836706823
17	0x3fd1fa5189fedfc1	0.2809032294858263
18	0x3fe3207c5a9b8d68	0.5977155465774731
19	0x3fd1c97f8fdc38c1	0.2779234795460859
20	0x3fe6a53dcf60da6d	0.7076710749013962
21	0xbfd5e2e42094c5eb	-0.341973335092091
22	0x3fd5cdd04a098f53	0.3406868670483522
23	0x3fe2129ae5359fd6	0.564771125483271
24	0x3fc204dbb18ea263	0.1407732598284098
25	0xbfd19da9b1154e44	-0.27524797719272365
26	0x3fe0b3a8364c5ffd	0.5219307957186171
27	0x3fdf7b17dff9d6fc	0.4918880164399153
28	0x3fbda82cc34fbdeb	0.11584739464137044
29	0x3fd89812328a203b	0.38428168235305166
30	0x3fd68cd7fb82e415	0.35234641610765155
31	0x3fd3830479e8e757	0.30487167268039655
32	0x3fe5407e0df69b3e	0.6641226074906184
33	0xbfe5228a6ee5d670	-0.6604664007160874
34	0x3fce356980916564	0.2360050084851465
35	0xbf98f7dcc79e0f92	-0.024383020099335413
36	0xbfe3a5b2d6464a61	-0.6139768776941531
37	0xbfcf95e20b6ee574	-0.24676156576405683
38	0x3fd03d2aaee392b8	0.25373332098960644
39	0x3fcbaea58689b125	0.21626729077559861
40	0xbfdc6bf68a09db71	-0.44408954124758454
41	0xbfe225334c26c323	-0.5670410621006322
42	0x3fe6878d7014f4bb	0.7040469349955382
43	0x3fe4a94a367d7d23	0.6456652702580964
44	0x3fbcab43e64922c1	0.11198830005845208
45	0xbfe350dae7eb8c3f	-0.6036200074853538
46	0x3f97dda8431404c0	0.023306492895248665
47	0x3fe1283d393a5f30	0.5361620061621348
48	0xbfd2a57ee3a61bf2	-0.29135105353674284
49	0x3fe560cd2de4caa7	0.6680665871011414
50	0xbfe14f99971b5ee6	-0.5409667922312706
51	0x3fc978c8f7835c07	0.19899856649018963
52	0x3fe00ae872a47fba	0.5013315428841374
53	0xbfcb72594772ca70	-0.21442714680377462
54	0x3fdbad59c187a289	0.43245548152348384
55	0xbfe5ce21ee2da6d9	-0.6814126636429264
56	0x3fe1b1feeb185fe6	0.5529779998496422
57	0xbfc4c874df2c183d	-0.16236744782526272
58	0xbfe403b7b8ba16f3	-0.625453816218139
59	0x3fe04b59077e8c2c	0.5091977259038507
60	0x3fbcde2e1850b7e0	0.11276519864688295
61	0x3fcc6c598556c2dd	0.2220565701550389
62	0x3fc05cfe7ccfc9d1	0.12783795446701032
63	0x3fa0fa20da5bd775	0.0331583277274338
64	0x3fcca61073e6fb37	0.2238178792885834
65	0xbfe14e5a1294c88c	-0.5408144343293926
66	0x3fb33408b0923d03	0.07501272497960447
67	0xbfd9839ccb02baf1	-0.39865798783550505
68	0xbf8c3cf5a8de0212	-0.01378814622489791
69	0xbfe4370cb46ab89d	-0.6317199252860238
70	0xbfdb2ae7e2b4eacc	-0.4244937623913472
71	0x3fc8c39bff2194fe	0.19346952397896894
72	0xbfab242adfb332a0	-0.053010310942771754
73	0xbfe5d5422c7c2d96	-0.6822825306748423
74	0x3fc6803af9aadcad	0.17578828039925068
75	0x3fd50ac692f1793c	0.32878269529273374
76	0x3f884743e340844f	0.01185467755573391
77	0x3fcade084a177d18	0.20990089051972727
78	0xbfe29541a1d7476f	-0.5807197724300134
79	0xbfd131e3374742b6	-0.2686698951556922
80	0x3fe59f3286ca6e1b	0.675683272612733
81	0xbfd7af0050aafb75	-0.3700562274715858
82	0x3fe4d8b54fd8e39e	0.6514536437526777
83	0x3fe611cbbbd67ecc	0.6896723431309169
84	0x3fdcd6a3cbe8b502	0.45060057557095956
85	0xbfd9547e642fdcd3	-0.39578208717234736
86	0x3fc5f45cc04fbaa3	0.17151984586913213
87	0x3fd436ae7db472fa	0.3158375003420556
88	0x3fe426b925bd7ec2	0.6297269570458968
89	0xbfe6499d6c44b213	-0.6964861979118403
90	0xbfe0856f93b6993e	-0.5162885556244772
91	0xbfe37319d7611c8e	-0.6078004080417416
92	0x3fcbf75a3fa6adca	0.21848610027278276
93	0xbfc0c05d60a7d687	-0.13087050647270734
94	0x3fe80da6655ed8c5	0.7516662578480228
95	0xbfe1c12351020026	-0.5548264105018503
96	0x3fccdb2fc81e4f84	0.22543904563337602
97	0xbfd5f3dcd3629e15	-0.343009191923984
98	0x3fe60b04b61a5028	0.688845019979003
99	0x3fbf4f1648c83db8	0.12230052258404711

fc_out.weight f8 [1, 100]
0	0xbf68ab2125f05800	-0.003011288397384071
1	0x3facd91e8d7bd8c3	0.05634398915383223
2	0x3f8109fa32f20b11	0.008319811515553195
3	0xbf049d6296a55aff	-3.931958311181003e-05
4	0x3f80d9b9fb8a3004	0.008227780331502295
5	0x3f4fbd2ebd2103a0	0.0009685972420428908
6	0xbfa15f73a93ee10b	-0.033931364450326816
7	0xbf82cb9e8780d3ca	-0.009177435407858332
8	0xbfa7e4812db248bc	-0.046665226772476726
9	0xbf95c0c929930ccf	-0.021243231928349367
10	0x3f990ed37b9b0d33	0.024470619601527587
11	0x3fb47cf59e6954a9	0.08003172986475938
12	0x3f7e36170bbdbc59	0.007375803015619097
13	0xbfa3ffbb83384549	-0.039060458915751335
14	0x3f92062a2b2c0b01	0.017601641545307526
15	0xbf7b918853a98a30	-0.006730587507805683
16	0x3efec77974429390	2.9353329651943575e-05
17	0xbf5317836df0cdf4	-0.0011652739992883384
18	0x3f11d387ab7471dc	6.80018955460724e-05
19	0xbf730e6c4df473e0	-0.004652426781174918
20	0x3f98b586088c57a1	0.024129957458249533
21	0xbf581cfbef0fe068	-0.001471754101883627
22	0xbf600f8b6195b6ac	-0.001960537175071794
23	0xbf8745cae98915fd	-0.011363587619721999
24	0xbe7be6ee551399db	-1.039433261854775e-07
25	0xbf1280e29edcd92a	-7.058509046662236e-05
26	0x3f6027772653a922	0.001971943582806849
27	0x3f74b9f45fb1dbf8	0.005060152611910056
28	0xbfb1044d7e7f35d8	-0.06647190416625592
29	0xbf7e139e3500ccee	-0.007342927929175886
30	0xbf67d631d0f688cf	-0.002909753129373894
31	0xbfa6652b0e670a03	-0.04374060202419019
32	0x3f8ecc7afcee14bb	0.015038452953158523
33	0x3fb3cbc6a7359eb8	0.07732812483083762
34	0x3f9aaa828bedce03	0.026041068831046853
35	0xbf143396a0f77939	-7.706267228211197e-05
36	0xbf9202541dbc90f1	-0.017587007822968685
37	0x3fa03b9f30944d22	0.031704878501978465
38	0x3f256b758a13fe5a	0.00016341981703503727
39	0xbfaf5b1832dc1bcd	-0.06124187107894095
40	0xbf9641686d215123	-0.02173388639524022
41	0x3f78339f9c6a5875	0.005908606987437994
42	0x3fa0a5797ae747e6	0.03251247048650878
43	0xbf882be6b39f43ea	-0.011802484852440249
44	0x3f32cacda478ebfd	0.0002867462212383097
45	0x3fa34db6d1e2e943	0.03770228683557033
46	0x3f213f133d996eab	0.00013157949324492843
47	0xbfb7739ac3d94332	-0.0916077354570575
48	0x3f958ed6c1b5713a	0.02105269963554799
49	0xbf5107ccb756b2b2	-0.0010394572430911073
50	0x3f1c771f885a5697	0.00010858659706011253
51	0x3f95af4a29587894	0.021176489614042796
52	0xbfad04edee243f22	-0.05667823345186053
53	0x3f3eb4fcdabdeba6	0.00046855138020134924
54	0xbf647742346bc57c	-0.002498273187818865
55	0x3f94b51fd96b85a5	0.020222184796585236
56	0xbfa4d17d48bc0372	-0.040660777214731506
57	0xbf9049a9075af9bd	-0.015905991624771455
58	0x3fb1e699c0bd6904	0.0699249358707768
59	0xbfa0cffd3892c7fa	-0.0328368312415392
60	0x3f6e139a3d7a984f	0.0036714565756766136
61	0x3f49a5551e6222db	0.0007826486223772815
62	0xbfa8745976e1f135	-0.047762676012072104
63	0xbf625ff4ab7f18a4	-0.002243020888246754
64	0xbf7c3f15106f4486	-0.00689609745218534
65	0xbf75b4327887ba0b	-0.005298802520413047
66	0x3f5276b09154d7ae	0.0011269306463197282
67	0x3f37914ea64b0d28	0.00035961313396289324
68	0xbfaaef0c1db1d973	-0.052605036377758284
69	0x3f446a9284f7dffc	0.0006230559756081884
70	0xbf9dc2ec05221b1c	-0.029063880742366086
71	0x3f8c23f6473267ee	0.013740467117077739
72	0xbf792b82da122a45	-0.006145011081694356
73	0xbf82031bcd607430	-0.008794991688825332
74	0x3f9e4fa128045311	0.029600637500226294
75	0xbfac0e77b3844f6d	-0.05479787889831198
76	0xbfb0a4fc6d123eb9	-0.0650174871718673
77	0xbf348ac9749f8097	-0.00031344812725642976
78	0x3ed7c2c5498ec2d1	5.665021625953559e-06
79	0xbf212e6f0f8fc224	-0.0001310835430383832
80	0x3f81f482f6d40768	0.008767150075531041
81	0x3f212ab6297fad67	0.00013097261103154763
82	0xbfa680800f979d5c	-0.04394912901244183
83	0x3fa56b7ba87882ca	0.041835655513073514
84	0xbf0ed863c3dc2499	-5.883268793922223e-05
85	0xbf1ac32a82c32960	-0.0001020903297927248
86	0x3f45183b06e1805e	0.0006437576501063904
87	0x3fa3c6c7b4357a21	0.038625946758419134
88	0xbfafbcecf81cf724	-0.061988263404130245
89	0xbf9806c8066adfff	-0.023463368789379043
90	0x3f67070131b7d7a8	0.0028109572719996097
91	0x3f9b9bcf18c8fc0a	0.026961551559221454
92	0xbfacea8d38de95ff	-0.056476987068247546
93	0x3fa004b693a743da	0.031285958789915205
94	0xbf64556efc05f66c	-0.0024821441331244667
95	0xbed43bb9555f9ecd	-4.82399385324352e-06
96	0xbf411875606dfb72	-0.0005217145088492871
97	0x3f4190dd16506732	0.0005360679175538728
98	0xbf540aa761cc23dc	-0.0012232431974459257
99	0x3fa58ce38e9cf845	0.04209052196391431

fc_out.bias f8 [1]
0	0x3fb4985027fd4bc7	0.08044911361984851

fc_hidden_list.0.weight f8 [100, 100]
0	0xbfa8cd0212c3d8f8	-0.048439087668087966
1	0x3f83e40aaa2e7194	0.00971229869701843
2	0xbf6f8c538038cdbf	-0.0038510924221328564
3	0xbfaedf2a03f6ff88	-0.06029635713957676
4	0xbfac4008829119c8	-0.0551760348685551
5	0xbfbc4143d081f02b	-0.1103708633472144
6	0xbfb189ae7428e515	-0.06850710235530173
7	0x3f8daeee2d78f668	0.01449380947371566
8	0xbf97ed1c89e6e489	-0.023365446011415023
9	0xbfb7d4fd625a42ac	-0.09309371615587264
10	0x3faa4994107389ba	0.051342608459680375
11	0xbfbdae1aab076cfb	-0.11593786883843286
12	0xbfa76b5c8732b39c	-0.04574097776762828
13	0xbfa83eeb72562ef9	-0.04735503931723701
14	0x3fa3e5aaa002fa99	0.038861591370268296
15	0x3fb9bc17b0f143e0	0.10052631444820248
16	0x3fb64fd6a10e93f5	0.08715573722891164
17	0xbf8c3e144a17febb	-0.013790281783257688
18	0xbfacced819b83fba	-0.056265595569243
19	0xbfb29f51663c1c29	-0.07274349924055969
20	0x3fb5451d8a4a1222	0.08308586717800684
21	0x3f5e6c36ed663bb0	0.0018568550491157958
22	0xbfa8fc0b02e64937	-0.048797935584973855
23	0x3fb7825eab6618da	0.0918330353216307
24	0xbf8a92d399bde60c	-0.01297536194737161
25	0xbfb37b0f78299435	-0.07609650310185219
26	0x3fb794dfb987da6a	0.09211538581426174
27	0xbf782efe0ca62930	-0.0059041904263586326
28	0xbfa22f339da1d4fd	-0.035516369812208716
29	0x3fa50e6f93e72b73	0.04112576179939866
30	0xbfb34fe72fe5ccf5	-0.07543797416092331
31	0x3fb7cec0190cb765	0.09299851047100345
32	0x3fa7175df8186dcc	0.045100151572309594
33	0xbf8676bcbdf0dd2c	-0.010968660875831114
34	0xbfb61d1de55fe2fb	-0.08638178682293678
35	0x3fb91eca430af392	0.09812606941973304
36	0xbfa68aa2c682ffc6	-0.04402645753134453
37	0xbfa57b4c6586733d	-0.04195631732293357
38	0x3fba3e05ce737338	0.1025088910132127
39	0xbf9eb45a9d441fee	-0.02998487076641248
40	0xbfae6321e414ca03	-0.05935007008737971
41	0x3faf4a75b050ad01	0.06111495759281561
42	0x3fabd68b59d43cbc	0.05437121840997736
43	0x3fa4986674665d98	0.04022522135636136
44	0xbf9a83bbf3fab692	-0.0258931510604073
45	0x3f8ea0412144476e	0.014954098537177631
46	0x3fab5d9bc6ddbb3a	0.05344855120244181
47	0x3fc061aa7d3d3941	0.1279805289763747
48	0x3f8ba6952099a6c1	0.013501324708346531
49	0xbfab54e577c0d17c	-0.05338208281355869
50	0xbfb7c5203af487c4	-0.09285165252052169
51	0x3fb0365d456bca8e	0.06332953400468908
52	0x3fae33d570b09126	0.05898921013457174
53	0xbfb060bbebcc54df	-0.0639760447196127
54	0x3f8b630b0ecbd256	0.013372503651660466
55	0x3fb929604091ad28	0.09828759743111404
56	0xbfb57fcfc72cd400	-0.08398150074647504
57	0xbfad195b27cce400	-0.05683407650798955
58	0xbfabfe3097aa842f	-0.05467368937866756
59	0x3fbb40b6dc464d20	0.10645621183202936
60	0x3fb19f03c8a807d1	0.06883262299382344
61	0xbf8c69703fd041bb	-0.01387298292868954
62	0xbfadb3dde7e1ab3a	-0.058012899928903086
63	0x3f64f8088c0bd913	0.0025596777853663737
64	0xbfb701a2843ce500	-0.08986869553054433
65	0xbfa286a7f4811d0f	-0.0361835943190788
66	0x3fb603c33f4b84f5	0.08599491400993371
67	0xbf9efa1ef7e3e6a9	-0.030251010780353003
68	0x3fac957ba73eec26	0.0558279649407825
69	0x3fac4de62732d566	0.05528182247636941
70	0x3fa39955ac32ba20	0.03827922560718755
71	0xbfa5d83906dd1d67	-0.04266527375016942
72	0xbfc119fb682cf6d0	-0.13360540949536537
73	0x3fa6db735111977f	0.04464302410705922
74	0x3f8e303e221c019c	0.014740453163086191
75	0x3facbf87eec256f6	0.05614876546421314
76	0x3f48a5f831cdb127	0.0007522069823671416
77	0xbfafc738295d084d	-0.062066798257106905
78	0xbfa5fa8f9f7aca84	-0.04292725393078903
79	0x3f827a3f6eb1b7a0	0.009022231641406198
80	0xbf98fb5544c435ab	-0.0243962596151072
81	0x3fb3574f303709b3	0.07555098464130232
82	0xbfa5f57da1d9b7b8	-0.04288857079232805
83	0x3fb48c4b82e28a0b	0.08026573129112806
84	0x3fa1d67c4844eea9	0.03483951933091351
85	0xbfb0cb1e976f307d	-0.06559935757758413
86	0xbf86d108204dc785	-0.011140883909067653
87	0x3fb26f0eb74c9dde	0.0720071027286546
88	0x3f7257207a258fa1	0.004477621902285651
89	0x3fb70746f2b6fe1b	0.08995479036001834
90	0x3fb1b722afa224e9	0.06920067584919178
91	0xbfb930dc954ad213	-0.09840181965666543
92	0x3fa692014fbf626d	0.044082680687726895
93	0xbfc1eaf8adb82037	-0.13998325807938425
94	0x3f52bbedeceb2e4c	0.0011434386721472954
95	0xbf89a1618c9fcb87	-0.01251484117890357
96	0xbfb96cc6af9a35cf	-0.09931604182403152
97	0xbfa0d1d9bc289aba	-0.03285103246553463
98	0xbf9e8a1a42e47965	-0.02982369454650193
99	0x3fb6203a2d5a397f	0.08642924887883473
100	0x3f551ce210d1dfce	0.00128862454155686
101	0x3fb8ba21668429fd	0.09659012558783071
102	0x3faa745cfa69c187	0.05166903073120737
103	0x3fba67e1b24afd0a	0.10314760783056812
104	0xbf9cff16968c178d	-0.02831683439128301
105	0x3fb805fab245d0b4	0.09384123661385751
106	0x3fb5c752de442ee6	0.08507268835472423
107	0x3fb36ea189557e0d	0.07590684512023689
108	0x3f98569fb65eda88	0.023767943864835078
109	0xbfb83031659a131a	-0.09448536615861905
110	0x3f90c98da2754bfa	0.016393864670430226
111	0xbfa20cd4c14295bc	-0.03525414332515761
112	0x3f91a6d9953adabc	0.01723804448439624
113	0xbfb43df7410c78c7	-0.07907052362540688
114	0xbfb1ee7732995de4	-0.07004494653062171
115	0xbfb9e064126e7592	-0.10108018350589124
116	0x3fa731aaab625759	0.04530080167857759
117	0x3f8bcfa531a21235	0.013579645707303726
118	0xbf95545a300ea55f	-0.02082959097211778
119	0x3fa074aeb6b09452	0.032140216637608035
120	0xbf520918e81fc1ad	-0.0011008017759160757
121	0x3fb20ef31d1bd057	0.07054061375294061
122	0xbfb743a866a764bf	-0.09087612634847896
123	0x3f9a63556912c6c6	0.02576955274407202
124	0x3fc0aea48f8ecbc8	0.13032967576654486
125	0x3fb8d9fd0f07ab4a	0.09707624070112533
126	0xbfbb7200f8590367	-0.10720830977608174
127	0xbfa5c4990df63278	-0.042515547708807
128	0xbfb85a3fa9670942	-0.09512708555033547
129	0x3fac017e4db39c71	0.05469889353280955
130	0xbf946bb379b2d57a	-0.019942096999064664
131	0xbfb6487c1a3cfc34	-0.08704352989751457
132	0xbfb3175fdcedb744	-0.0745754160286341
133	0xbf527e1e31509dc1	-0.0011287016725506224
134	0x3fc1e4e69fe83f51	0.1397980004116968
135	0xbfb39f47a339b7ec	-0.07664916739460609
136	0xbfadb76b0a11fd23	-0.05803999422004782
137	0x3faf82527dd2d456	0.06154115472728765
138	0xbfa3aab09bca132f	-0.03841163541532066
139	0x3fabfde989b01e01	0.054671571786510505
140	0xbf9a6ca0f0e26b65	-0.02580501051179897
141	0x3fbcda45011c8f7f	0.1127055289949208
142	0x3f9780f4a92fcb70	0.022952864481293245
143	0xbf890f40cb0a896a	-0.012236124225925866
144	0xbfbbe586a2f51d47	-0.10897103765920689
145	0x3fb5f2d2fd6d0f59	0.08573645293387012
146	0x3fb9082cc47bbde7	0.09778098866421879
147	0xbf87d23dd462561e	-0.011631472629498648
148	0x3fb21b77dc00aa47	0.07073163148076232
149	0x3fb0e3b21ad5a7c8	0.0659743609918727
150	0x3f89424404ebe378	0.012333423042478961
151	0x3facd95df8abfe8f	0.0563458791784771
152	0x3fb342999d88d86b	0.07523498626764684
153	0x3f8536771370a8d8	0.010357790261043595
154	0xbf9376253788cbd1	-0.019005376352833118
155	0x3fb07be2d2fb5076	0.06439035082741093
156	0xbfa579f2b90fe3a7	-0.04194601544435921
157	0x3fbd572314324a2b	0.11461085551335574
158	0x3fbe9505bab9754a	0.11946140106870931
159	0xbf994cf088558700	-0.024707563706562574
160	0xbfa29677df21d73f	-0.03630423163205742
161	0x3f9d1d9f2f3d7159	0.028433310755063477
162	0xbfb352d4ffdd983e	-0.07548266646117072
163	0x3fb90851c4654669	0.09778319401564207
164	0x3f86d19e6729b489	0.011142003558427998
165	0xbfa76116f02b279f	-0.045662609879925535
166	0xbfb06fb945da3a7c	-0.06420476870901298
167	0xbfa239d3fad27924	-0.03559744297784764
168	0x3fb6d51b7e706a81	0.08918926083462432
169	0x3fb607791e271d8b	0.08605153070594988
170	0x3fc10afe4a5dc40e	0.13314798957029023
171	0xbfb499b3947d3f21	-0.08047029853082367
172	0xbfb2da880fd77238	-0.07364702593572126
173	0x3faa7de3f77ed323	0.05174171825584597
174	0x3fa71c37b3f68204	0.04513715812504773
175	0x3f628d7c56aac745	0.002264731262891314
176	0x3f970f8302df4459	0.022520110178281125
177	0xbfc061f2a3955b43	-0.127989129900664
178	0x3f8388e6331403be	0.009538458284170544
179	0xbfa31d4926cd36c9	-0.037332807528043306
180	0xbfa3263323aa81c5	-0.0374008160627031
181	0x3fa1a64a6bff9ff0	0.034471822436728305
182	0xbfacd949aba3fea2	-0.05634527416441172
183	0xbfa3c3edf6f2ab12	-0.038604198832521544
184	0x3f865b7612effaec	0.010916635945247909
185	0x3f9bd6eabba2ba90	0.027187030508395937
186	0x3faa35e017e62ad6	0.05119228641259148
187	0xbfbe7b31e4fc50b5	-0.11906730499714764
188	0x3fa5ca94c6292422	0.04256119650796843
189	0x3fb015d4711c33ba	0.06283309709051724
190	0x3f977fa1bab9438c	0.022947814008435638
191	0x3fb2966230a9367f	0.0726071709443321
192	0xbfc06c56db01cc20	-0.12830625241949267
193	0x3fbca3cf40051501	0.1118745356844393
194	0xbfa8affc546a4ada	-0.048217664055433665
195	0x3fa881ccccdac644	0.047865295416511106
196	0xbf7ef753470b0b6d	-0.007560086539060912
197	0xbf867c7d9fd16802	-0.010979634704359146
198	0xbfaba9a32b9c693a	-0.05402860553131679
199	0xbfae5af792f665c2	-0.059287773790127854
200	0xbfb67ca16d80446a	-0.08783921168675737
201	0x3fb9ca035b14314f	0.10073872541051297
202	0xbfb475a4fb87c819	-0.0799201120460399
203	0x3fb8746901c0906c	0.09552627842691813
204	0x3fbf021a1aebac4b	0.12112582356682926
205	0x3f97c17bbf2633ab	0.023199018041441793
206	0x3fc138d52f009840	0.13454689784083662
207	0x3f8a40c5968d2243	0.012818854958497222
208	0xbf97a6ca557439f1	-0.023097192254732894
209	0xbf8302a273126539	-0.009282368790354144
210	0x3fa9d57126e15053	0.05045655822382913
211	0xbfa3f1802ee06c0c	-0.038951879236457015
212	0xbfb76fb3007a2714	-0.09154814492844948
213	0xbfab91865ec27f9a	-0.053844641749719105
214	0x3fbcaaa9e47e76e3	0.1119791205259975
215	0xbfb99c2123b49187	-0.10003859636032618
216	0x3fa0759d28c7c320	0.032147322872225326
217	0xbfbbbb0624606775	-0.10832250965213837
218	0xbfcc4263fea8edfc	-0.2207760804611637
219	0xbf8f6eb84f2be891	-0.01534790031063363
220	0xbfbdd3e4ecd2c148	-0.11651449949090875
221	0x3fa6cd81777ba212	0.04453663428813938
222	0xbfb4fe86eef7bdf0	-0.08200877508328808
223	0xbfbeb00c587b0ba8	-0.1198737827317432
224	0x3fbaf24247a25602	0.10525907753829958
225	0x3fb303245e1cf301	0.07426669404680909
226	0xbf63265bde285c8a	-0.0023376268666300314
227	0xbfb31f24b2676f19	-0.07469395976607664
228	0x3fb25a012195ade7	0.07168585843981355
229	0xbfb8ca9dc99d3862	-0.09684168026180509
230	0xbfad1864c40ba2f4	-0.05682673352368353
231	0x3f882348da186b9c	0.011786049991362728
232	0x3f8c366c8cccfb54	0.013775680586716334
233	0x3f64877b5ac66ca0	0.002506009032186521
234	0x3fb453f8307a8673	0.0794062727313987
235	0x3fb66a1d56cfa1c8	0.087556680387599
236	0x3fbeb21a977f5987	0.11990514944714024
237	0xbfa1302615c46680	-0.03357047095978505
238	0x3fb25d10c6710b9c	0.0717325672604105
239	0xbf84dbb1f8b2430c	-0.010184660341367578
240	0xbfb3246fc4950b29	-0.07477472829218058
241	0xbf39bef1f20fb852	-0.0003928509414085113
242	0xbfb0c6dcee26767b	-0.0655344087049005
243	0x3fbb3f6577c518b1	0.10643610166616459
244	0x3fb56224cec53701	0.08352880523781538
245	0xbfbd07cd022c9594	-0.11340028098182692
246	0xbfaa7ba93d0ba1be	-0.051724709226451435
247	0xbfcbc4c003bba3a8	-0.21694183523439148
248	0xbf762e7cdc9396f8	-0.005415427914362551
249	0x3fbf74570f37f0ce	0.12286895867868283
250	0xbfa138738d0e9aa1	-0.0336338147820261
251	0xbfa9fb3b3cc7594e	-0.05074486843993729
252	0xbfb13a1aea3cff05	-0.06729286402423547
253	0x3fc03d872e3b11b0	0.12687768704757962
254	0xbfac3d2f92c542da	-0.05515431086189944
255	0x3fa844d3a394fb7e	0.04740010616159561

fc_hidden_list.0.bias f8 [100]
0	0xbf91b388c929d6af	-0.01728643157772208
1	0xbfad36a421fb9fb2	-0.05705750384168996
2	0x3fb4dd71a450ccea	0.08150396596538526
3	0xbf4627a4dc1ae5a4	-0.0006761126498623826
4	0xbfa02f46c31efc7f	-0.03161069042061459
5	0xbf9927b7d25af6e5	-0.024565574850149558
6	0xbfa1321a6f9a33e6	-0.033585382579168585
7	0x3fb4718f758aec7c	0.07985779399580112
8	0x3fbb9d578c0dc474	0.10786959809571944
9	0xbfa19b336815466e	-0.034387213187653795
10	0x3fa82fd1f7f0a1c8	0.047239839092359015
11	0xbfab8251158958a5	-0.05372861278435551
12	0xbfb0add02ecc9199	-0.06515217917018958
13	0xbfb98b5f4fa9fef9	-0.09978290266917246
14	0xbfb431db5f278502	-0.07888575623612229
15	0xbf6415b0cd2d37a3	-0.002451749148724995
16	0xbfaf3a9eb4f02896	-0.060994109713719144
17	0xbfb03fd5cbcbc841	-0.06347404695023419
18	0xbfb4e71242e2cb31	-0.08165086873013362
19	0xbfaaef304dae92ff	-0.0526061148478103
20	0xbfa12e88701852d0	-0.03355814331385931
21	0x3fb4c67ac51088ff	0.08115355788371302
22	0x3fb78965c672e619	0.09194027037565213
23	0x3fbdee0c51949183	0.11691357604701662
24	0x3fb5af0247b8f1cf	0.08470167399440885
25	0x3fa9614c9c34b214	0.04957045943078611
26	0x3fa758e3f7011e04	0.045600055601024564
27	0xbfb59c55a5425098	-0.08441672596592509
28	0xbfab29dc0c180817	-0.05305373809461871
29	0xbfb3c71a796b3e6e	-0.07725682701424727
30	0xbf936771effee9f6	-0.01894929911916595
31	0xbfb32ea03385063b	-0.07493020303538682
32	0xbfb7d737065b25ce	-0.09312766938378234
33	0xbfa26a05e518765f	-0.03596514150215734
34	0xbf7f72fea6b4df90	-0.007678026896705506
35	0xbfaa971a9d7618f3	-0.05193408176551086
36	0x3fb87c111776f786	0.09564310858601574
37	0x3fb4ddc322a825d7	0.08150882335771513
38	0xbfad3a835d38ccaf	-0.05708704483949966
39	0xbf968d44e3249ec5	-0.022023273814879802
40	0x3fb19561134db340	0.06868559571530586
41	0x3fb58b8f9068d7e2	0.08416077876685749
42	0xbf91007f3ceea3ac	-0.016603458494191578
43	0x3fbd238e49345520	0.11382378852097874
44	0x3fb8e8d8f3a56de3	0.09730297039407491
45	0x3fb409b5082343c8	0.07827311943698512
46	0xbf9d21b1652faafc	-0.028448840905109116
47	0x3fb160df7614203d	0.06788441307810529
48	0xbfa2420810dc1893	-0.03566003042037482
49	0xbfb99987b169171a	-0.09999893266021012
50	0x3fb663f501b5d7a6	0.08746272365337279
51	0xbfbd7005669fa830	-0.11499055629215671
52	0xbfb706710cb35290	-0.08994204101629522
53	0xbfb6ab4a05533e66	-0.08855116491326384
54	0x3f94b63a11e3bc58	0.020226390211004336
55	0xbfa54d60a4a5a8fc	-0.04160596856930174
56	0xbfa337a0ceae688c	-0.03753378413166883
57	0xbfa4f9e3ea306d81	-0.040969011628670955
58	0xbf5594b005bcf923	-0.0013171881646055282
59	0x3f9792859b8d3945	0.023019874209518027
60	0x3fb2e95b185f1c46	0.07387322754867495
61	0x3fa1c099f8adc218	0.0346725574553412
62	0xbf70055c1a412ef2	-0.003911361480344532
63	0xbfb0a3333bead185	-0.06499023640464514
64	0x3f870e67358e3a5c	0.01125794059933332
65	0x3fbb73e488e0690b	0.10723713247026383
66	0xbfaab9a39532fe0e	-0.052197563135902056
67	0x3fb4785123b0460d	0.07996089097311927
68	0xbfb28324c2d1363e	-0.07231359249382138
69	0x3f8fc6fe98a1b35c	0.015516270668933956
70	0xbf835f147f0afdf9	-0.009458694579165249
71	0x3fb7da497fd540c5	0.09317454691813783
72	0xbfb28dfefa8a8e35	-0.07247918717126185
73	0x3fa8140190d9b1ec	0.04702763455574996
74	0xbfba5801f8d59be1	-0.10290539097842057
75	0x3fb655b83d264d31	0.08724547856245547
76	0xbfbe3878f37010dc	-0.11804920142464276
77	0x3fb6176c0a80b552	0.08629489189543918
78	0xbf89e9acb78b9c59	-0.01265273032318086
79	0xbfc3925d229c94da	-0.152904168987482
80	0x3faac1f7be5f668e	0.05226110648045533
81	0xbf70af4c1dccfa4e	-0.004073426561090955
82	0xbf796d355d9ec171	-0.006207664928226429
83	0xbfbbd1fc3c61e07c	-0.10867287134340303
84	0xbfa448ef2a057792	-0.03961894405323031
85	0x3fb63055cce4de81	0.0866750359754125
86	0x3f9809f4d274d39b	0.023475480408894005
87	0xbfa12b107cd02a80	-0.033531680332164804
88	0xbfb9fd51faabe6c3	-0.10152160997304364
89	0x3f9cc64f4b44652e	0.028100241631453908
90	0x3f818df1c5936b82	0.00857151874736473
91	0x3f97ffc89497de5c	0.02343667418423788
92	0x3f969350814d2059	0.022046335117267144
93	0x3fb9429514574d6d	0.09867221590621052
94	0xbfb5cdbbcc0ef61d	-0.0851704953374441
95	0x3fa7debb0930910c	0.04662117469004742
96	0x3fa586c6e386fd5d	0.04204389121468453
97	0x3faef168273ea992	0.060435538092252675
98	0x3f7c103b310ce456	0.006851416794966777
99	0x3fa2d69b5a0cd79c	0.036793570272876525

fc_hidden_list.1.weight f8 [100, 100]
0	0xbf7e95b5dbe5c44e	-0.007466993700618719
1	0xbfab4b54d64fd46e	-0.05330910793410558
2	0xbfc556e403ebeb6d	-0.16671419326288675
3	0x3fc2ccf8de563491	0.14688025337492097
4	0xbfa240a598e205c9	-0.035649466431106065
5	0xbfb3b945d14db2f2	-0.07704578742932336
6	0x3fa52c2d106e82fa	0.041352661376782465
7	0xbfa23e502811a65a	-0.03563166131136759
8	0xbf84f71831dca257	-0.010236920377409904
9	0xbfc4d095c7ee5284	-0.16261551153424503
10	0xbfc376749101382b	-0.15205247001944264
11	0xbfaeb58d1665cbbf	-0.0599788751450414
12	0xbfa52507a0f8e1d0	-0.04129813995354292
13	0xbfc5d76120f80a81	-0.17063535795030663
14	0xbfa6aba4743e4708	-0.04427827757821318
15	0xbfa08f275e297f7b	-0.032342176670453214
16	0xbfa229d3d8c120e6	-0.035475368699339246
17	0xbfc01b3661b2c38f	-0.12583045740532525
18	0xbf8655b030926262	-0.010905624849599952
19	0x3fafd7fd688cb404	0.06219474698296071
20	0x3fb533a875a39529	0.08281948921247263
21	0xbf85c91d79696c3b	-0.01063750292558129
22	0x3f7802f49f1c09a6	0.005862193634813917
23	0xbfb88c3c8da07362	-0.09588983972248635
24	0xbfc08e1be0ba961d	-0.12933681939209488
25	0x3fbbcf8891232249	0.1086354593600244
26	0x3fb3ea4f843abdd5	0.07779404619463233
27	0xbf93a4fc556182f8	-0.019184057914006097
28	0x3fc1bb5ccd36115e	0.1385303499229264
29	0x3fb9712da3ecc963	0.09938321353982853
30	0x3fa409b38cddd253	0.03913651556550648
31	0x3faf30e18b976723	0.06091980771061702
32	0xbfad7740c7d2044e	-0.057550453560005196
33	0xbfab6b483ec93d3f	-0.05355287329131863
34	0x3fa6d637a3d7511b	0.044603098631031034
35	0xbf915cb7d8de6273	-0.016955254184355128
36	0x3f94e4673c8671aa	0.020402539319194148
37	0xbfa723699b7e0df8	-0.04519205115414232
38	0x3f92cd9a4a912323	0.018362437058644276
39	0xbfaf2b79805a9641	-0.06087855998820802
40	0x3f72028266f0251d	0.004396924384317627
41	0x3fb9a2f087105bdf	0.1001425103898863
42	0x3fc4652d17cc91fc	0.1593376508909755
43	0xbfa83be9afae5cc5	-0.047332098670432234
44	0xbf2ff12654eee22e	-0.00024369805256953383
45	0x3faa3a1061670116	0.051224243059097826
46	0x3fb2ac1bbffe0148	0.07293866574582808
47	0xbfb688201e1fe065	-0.08801460967504367
48	0xbfb49b0d277dd248	-0.08049089635989859
49	0xbfbb8b2bdc325a97	-0.10759233594795102
50	0xbfa1457360abc91a	-0.033732991743720755
51	0xbfba17aee245531a	-0.10192387603940425
52	0x3fb7fabd2dfaf98a	0.09366972324912673
53	0x3fbb55d4bbbc5377	0.10677842696561678
54	0x3fc1e8af37978a38	0.1399134656376917
55	0x3fc2312da51d06c7	0.14212580263306604
56	0x3f829719eb59c35e	0.009077265257674657
57	0xbfb07c6d8be3e3aa	-0.06439861932075411
58	0xbfbed13f7db0dfe6	-0.12038037127138032
59	0xbfa91c3752a59d32	-0.04904339679597526
60	0xbfaa3258547694f7	-0.05116535216374445
61	0x3fb87e8339163ae7	0.09568042892190541
62	0xbf78e395f43443eb	-0.006076417691716944
63	0x3fac3504d9cf4cf4	0.055092002475840035
64	0x3fb5228609637270	0.08255803803644723
65	0x3fb749be374af720	0.0909689793579358
66	0xbfa81207cb5284f2	-0.047012561387654986
67	0xbfb9797676c16862	-0.09950962447456527
68	0x3f930cd351e124ae	0.01860361277821159
69	0xbfada6aaef7f2dc5	-0.05791219876808954
70	0xbf614d1f8c2b316e	-0.002111970535542954
71	0xbf996a215be6e5a4	-0.024818917497872697
72	0xbfa64cd85fda06d5	-0.043555032444613374
73	0xbfbd9f606c8e91a8	-0.11571314478221117
74	0xbfad9281379e631f	-0.05775836757601937
75	0x3f9a494a2331ce66	0.02567020263491173
76	0xbface0c79e4c128c	-0.056402433465369745
77	0x3fb3897a23d4ce19	0.07631648421084271
78	0xbf8936f80d756c31	-0.012311876211859115
79	0x3fb77d0f871f1060	0.09175202416287354
80	0x3fa8f69e1cfa01ae	0.04875654319494359
81	0xbfb2c2a1c8e7be40	-0.07328234820283175
82	0xbf86f505025e2c39	-0.01120952523685591
83	0xbfb978d1bed26a78	-0.09949980648745249
84	0x3f6c0e19262af891	0.003424691314051272
85	0x3fb127a1de8027a8	0.06701099092620544
86	0x3fbb61305dba8558	0.10695173538490133
87	0x3fc347905185d19f	0.15062145214654962
88	0xbfad88cd528be966	-0.05768434174202035
89	0xbfa14153e6f00437	-0.0337015361219603
90	0x3fc4100aed50b496	0.1567395838514229
91	0xbf7ba769efb6e375	-0.00675145512962493
92	0xbfc377dd66e51fea	-0.15209548496409236
93	0x3fc0ae672b642bd4	0.13032235735621944
94	0xbfa21a2fe39c2e83	-0.035356041464265985
95	0xbf8b56795f1f4c7e	-0.013348530021096257
96	0xbfb27a2672d25138	-0.07217636397610228
97	0xbfbd15447ecf4c10	-0.11360576721135396
98	0xbf6ecf4a4a35f7a7	-0.003760953042443799
99	0xbf740a444fdd9ebb	-0.004892603725103302
100	0x3fb41cc74918248e	0.07856412443665503
101	0x3f885528f1b0c2da	0.011881179691131494
102	0xbfa02d8143852850	-0.03159717511387383
103	0xbfa9856126e023bc	-0.04984572982363697
104	0x3fb44e54c6f3f214	0.07932023865937082
105	0xbfaf6d2d6af76736	-0.061379832560943745
106	0x3f4af21d1cf59a7a	0.0008223192361754416
107	0x3faf9301e3efaef9	0.06166845233368962
108	0xbfb10d34253e9e8a	-0.06660772237102655
109	0xbfb21fadc1f96f5b	-0.07079587922765766
110	0xbfba82fde84ec262	-0.10356127664159367
111	0xbfb35525611fc9f4	-0.07551797505565344
112	0x3fb4cc98492ed8ab	0.08124686991399936
113	0xbfbb5867d0eff360	-0.10681771136291962
114	0x3fa7ee465a5cc36b	0.04673976758056749
115	0x3fa19f54918a67ff	0.03441871906871085
116	0xbfb8f763f99a8601	-0.0975248798736388
117	0x3fb43525a05921e0	0.07893595852613755
118	0xbf30749a0196eed6	-0.0002510906211587843
119	0xbfa1ec2e7f54bb3d	-0.035005047839482085
120	0x3f5b548a42d8a00f	0.0016681051450948591
121	0xbf2fa1278805a34b	-0.00024131400642637477
122	0x3fba724bca86b996	0.1033065194558048
123	0x3fb2fe1e69d76c83	0.07419004520436272
124	0x3fa574a354744284	0.041905502375930076
125	0x3fb7a72e2048e122	0.09239471710396122
126	0xbfb48ac26733c52b	-0.08024230022035243
127	0x3fa93228dbb604fc	0.04921081239718636
128	0xbf93227427b07d98	-0.01868611805195783
129	0x3faa2d1ebc8ae884	0.05112548877282655
130	0xbfa3bb427120ee07	-0.03853805190052744
131	0x3fa38c7cdd8b0c1e	0.038181211513368604
132	0x3f95667a9c5028ed	0.020898738661380745
133	0x3fb2ae5761c9f93d	0.0729727376692368
134	0xbfc9dd392e8ef2f0	-0.20206370137557128
135	0xbfb47a28ac64d11e	-0.07998899658997913
136	0x3f935fb91a5ac352	0.01891984198909153
137	0xbfa21e60cc13b2d0	-0.035388016616570206
138	0x3f93dd9038fc8ebc	0.01939988467996899
139	0xbfb092f2178a6709	-0.06474221300814177
140	0x3fb56bdf160addaa	0.08367723739762903
141	0xbf92cd02af3171ec	-0.018360177939358666
142	0xbfb5e95a1f97649f	-0.08559191962503342
143	0x3f51ce81dca75b4d	0.0010868328268906658
144	0xbfbaf505f7053426	-0.1053012588574381
145	0x3fbd09dbc80befe4	0.11343167909575375
146	0xbf871a443c444f62	-0.011280568207929501
147	0xbf9efdf0aa3c6bcb	-0.030265579595930164
148	0x3f90a5c110c110d8	0.016257301948159192
149	0x3f96af08020aada0	0.022152066349617194
150	0x3fbc98f304a4c54c	0.11170882094736106
151	0x3fae52cdd2195df6	0.05922549428640515
152	0xbfb5dbaf9a39a08c	-0.08538339152585389
153	0x3fb5733547d1c0f8	0.08378918651010625
154	0xbfab5887211d6261	-0.05340978888734039
155	0x3fa2db5edc93550f	0.03682991449901795
156	0x3fb6f95b10acf3ab	0.08974236638182613
157	0xbfa04fb316a021b6	-0.031858059417632686
158	0xbfa5f3415c08ba7d	-0.04287151573622781
159	0x3f68f928d2bcfecb	0.0030484959915212154
160	0x3fbdc0f489c6443c	0.11622551311144574
161	0x3fb7aa1a5a05d310	0.09243931482144441
162	0xbf96b4d975335505	-0.022174260881759462
163	0xbf6054d6b61cf1a9	-0.0019935792523979212
164	0xbfb96ce99694dc94	-0.09931812216096808
165	0x3fbb760aa212b9ef	0.1072699208914185
166	0x3f9a2cc770336283	0.02556144354170665
167	0xbfa78ab298a6583d	-0.04598005402947123
168	0x3fbf4a864128f9a7	0.12223090258428347
169	0x3fb92055cdbd92c3	0.09814964554750376
170	0x3fac3ed3b8581952	0.055166832211443265
171	0xbf76589cc95f884c	-0.00545560116549566
172	0xbf97b8a103a4d55a	-0.02316524109592897
173	0xbf89c7d196801ff5	-0.01258815517941512
174	0x3f7b1287cd6611f9	0.006609468915830246
175	0xbf9abec04157aebd	-0.026118282306852637
176	0xbfbcac6468d770f8	-0.11200549659355719
177	0x3fa97f3774a6b865	0.049798710813193016
178	0x3fa94de73229848e	0.049422478555024005
179	0x3fb4a84ae6a7fbbd	0.08069294101004139
180	0x3fc8351599bb97e1	0.1891200066231127
181	0xbf67ea83d3d4253a	-0.0029194426302906725
182	0xbfa71fa471f5889b	-0.04516328707792746
183	0x3f96672fed5e9133	0.02187800298965321
184	0x3f9241968ac88906	0.017828323574698345
185	0x3fa0a9a48781752c	0.032544271031591826
186	0x3fb9f8fd9500d5c9	0.1014555443551536
187	0x3fb7bf8fdcdb1f3f	0.09276675359717233
188	0x3f9d9ff7b6b1d740	0.028930540586279863
189	0xbfb3c1a11378857b	-0.07717329717026715
190	0xbf3783dcbf2067b6	-0.0003588117534732942
191	0xbfb11cbfd0d538c9	-0.06684492920360009
192	0x3fa9007f7775b2db	0.048831923801889686
193	0x3fa7a905c143a661	0.04621141418631392
194	0x3fbab55cead56fa8	0.1043298791241215
195	0x3fa9f8d4891590ea	0.050726548894802395
196	0xbf9ba7b4bdd6c2b1	-0.027006935202453067
197	0xbfb12ff05acb7a91	-0.06713773934050439
198	0xbfbc6bc52dfa4713	-0.1110194432497134
199	0xbf7f70d4b587c33a	-0.007675963301594641
200	0x3f95c15229c599ac	0.02124527339892672
201	0x3fbacf7a5026dbeb	0.1047283597643937
202	0x3fb5dc4c9817c428	0.08539274895862603
203	0x3fab7565da02455d	0.053630049574290274
204	0xbfa5d27d9c1481f5	-0.042621541311976964
205	0x3fc63e0c4900bd18	0.17376855434984217
206	0xbfaf1d13768e263b	-0.06076870748718163
207	0xbfa54c4d3d601338	-0.04159776090822337
208	0xbf9924cf63907e8d	-0.024554481937342266
209	0xbf94356f22b39d8a	-0.019735085003870924
210	0xbf859cff211498f6	-0.010553353497539036
211	0x3fad1a74b10599de	0.056842466935268496
212	0x3fc40e115dad4e32	0.15667931627341286
213	0x3fb67a0971b8c402	0.0877996351853341
214	0xbf88dd86feed3cf1	-0.01214127984499533
215	0x3fbe17b349c099eb	0.11754913855165909
216	0x3faddbbc3b844cbd	0.05831707216761959
217	0x3fa97ecf72a510ad	0.049795611138081376
218	0x3fb102fab29dc0b4	0.0664517103266487
219	0xbfac513705f713d4	-0.055307120779197
220	0xbf79d814c9d9963b	-0.00630958672045306
221	0x3fbdb07b0bbb1622	0.1159741309775986
222	0xbfb3c9312e884cf0	-0.07728869806333072
223	0xbf630367f3ddc23f	-0.002320960075785444
224	0xbfc226dcb7ad5d72	-0.14181097954381588
225	0x3fb6155737b08ceb	0.08626313314066507
226	0x3f69f3401c25567b	0.003167748656020928
227	0x3face300e46b1887	0.05641939914998866
228	0x3fad223e18ce929e	0.05690187504595666
229	0x3f9b28c236140816	0.02652266936366495
230	0x3fb38709ca5e4a06	0.07627927008278598
231	0xbfb7e6844dff399b	-0.09336115745757072
232	0xbfac80b55476f499	-0.055669466553333886
233	0x3fb621922b1e87ad	0.08644975235668424
234	0xbf915b49dd5bdadf	-0.01694980062071749
235	0xbfb2c7991241e604	-0.07335812278497406
236	0xbf72aabdc0bff906	-0.004557362768535583
237	0x3fb4501f7767e021	0.07934757867030885
238	0xbfb46529c9238cb8	-0.07966862831703991
239	0xbf8736829d4bcc69	-0.011334438729568146
240	0xbfb0d7f056638cc4	-0.06579496487715902
241	0xbfa8c2b8c9c93cb3	-0.048360609657373564
242	0xbfad185f6f91fd0c	-0.05682657467786542
243	0xbf9e4d563745dd95	-0.029591891406622734
244	0x3fb650b7352777f1	0.08716912315091442
245	0x3fb105fcaa5c537b	0.06649760398097541
246	0xbf8392d6c2c3233f	-0.009557416742966061
247	0x3fbd4fd263957aba	0.11449923449752478
248	0x3fc007facd5b149e	0.12524352099550112
249	0x3fb9b81510ebf9dc	0.10046512282494952
250	0xbfab0f12d68f10b8	-0.05284937733770917
251	0xbf494d64e0ed7e6c	-0.0007721655436902625
252	0x3fb89cb0bc5d0a18	0.09614090536801034
253	0xbf9d6f2cf9e101c4	-0.028744414092445117
254	0x3fa2ab23b6973f0b	0.03646194080249473
255	0xbfb80305216b9725	-0.09379608217167552

fc_hidden_list.1.bias f8 [100]
0	0x3fb2d6378a0b8cfc	0.07358119125597179
1	0x3f9a8334b663d81b	0.025891135818675175
2	0xbfa93ea90a3cb806	-0.04930618524518597
3	0x3f72aa5ab247e040	0.004556993754242511
4	0xbfa1b2535c4bd5c8	-0.03456364156401609
5	0xbfaadb1467ab00b2	-0.052452695517332684
6	0xbfaf956c1ef9f7a5	-0.06168687704210577
7	0x3f9777636907f18c	0.022916367803178114
8	0xbfa24132a9d30230	-0.0356536705307956
9	0x3fa65ab2242335ee	0.04366070452816105
10	0xbf7170245d26556f	-0.004257337614395381
11	0x3f9064ca5e9327e0	0.01600948526610313
12	0x3f9d6f006a8bc97f	0.028743750098280337
13	0xbfb514c96797ed7a	-0.08234843043458354
14	0x3fac398c06cb3e20	0.05512654860433153
15	0x3fb0963a37b338b0	0.06479228839745832
16	0x3f9077f925961900	0.016082661551558353
17	0xbf8f9a2144647183	-0.015430698299092388
18	0x3fa126bc7bac6f28	0.03349865922629497
19	0xbfb5e847bb1aaa39	-0.08557556455586103
20	0xbf8111f6fff0f322	-0.008335046468454236
21	0x3fa83a5dc72b3aed	0.04732029968510241
22	0x3faa362d7849bd19	0.05119459241256603
23	0x3f9f7be189d1baaa	0.030746006047076925
24	0xbfaad01576499099	-0.05236880368173153
25	0xbf692339cf6fff55	-0.003068554793116999
26	0x3f905fd2f2942a1a	0.01599053960402772
27	0xbf90d78422a25a97	-0.01644712888136243
28	0xbf94c97f63be78ed	-0.020299902403729076
29	0xbfabe4070fd0a999	-0.054474087410500256
30	0x3fa9e39ab5d69828	0.05056460828500092
31	0xbf91db88352e2a9d	-0.017439010854597304
32	0x3fa664ef3eaa0eed	0.043738819503259176
33	0xbfae18c936bdfd52	-0.05878285210837454
34	0xbfac966786927dcc	-0.05583499448516313
35	0x3f9921db3dc891c1	0.024543214460338584
36	0xbf7cccd8d9452bde	-0.007031294884948884
37	0x3fc245619fc26bc2	0.14274235058550572
38	0x3f9a2770ed8241be	0.02554108094824569
39	0x3fb3dfe55c35d596	0.07763513089397231
40	0x3facf643b41de4c8	0.056566348778639475
41	0xbf89dafdec77fea0	-0.012624725130989944
42	0x3fae21bac3d6d618	0.05885108605017936
43	0x3fa29689b5be2a09	0.03630476325550453
44	0x3faf87bfead998e8	0.0615825628454319
45	0xbfa82782cebbebb9	-0.04717644475564193
46	0x3fb2a3c18a5d07ce	0.07281121852886871
47	0x3f87511294621f9d	0.011385102418230814
48	0xbfb98c6785a8236a	-0.0997986508665584
49	0xbfa0faea489c0422	-0.03316433082910232
50	0xbfb7ea293cea371c	-0.09341676461391696
51	0xbfb35bedcb73bfd7	-0.07562147347539337
52	0xbfb0d6a65035e9d2	-0.06577529390589312
53	0x3fb52d3fcc7cbf67	0.082721698211342
54	0x3f92c1198d4f4e6c	0.018314742326607833
55	0xbfa2c706b55f2d5a	-0.036674699440107886
56	0xbfb2fa8095e84378	-0.07413486156316462
57	0x3fb003a0448f2473	0.06255532907302257
58	0x3fc4ed30b9f001bf	0.16348847464543145
59	0x3fae4c3a0a7766d5	0.059175313737524306
60	0xbfab39730c1897c9	-0.05317267916352326
61	0x3fa8c4804a57c81e	0.04837418468004294
62	0x3f99d1672df4a437	0.02521287172308836
63	0xbf96b98b4d707d63	-0.022192169763113678
64	0x3fb1297bdda49839	0.06703924332814006
65	0xbf87d705131741d3	-0.01164058651457448
66	0x3f97b4802a8b38b5	0.023149492832822378
67	0xbf7a602d5c0d1fd5	-0.006439377961960664
68	0x3fb7c849428bc801	0.0928998744455214
69	0xbfb3fbd19bf59b2f	-0.07806119973757285
70	0xbfa4d808a4bce378	-0.04071070681533845
71	0x3fb3cde2bdd0ead7	0.0773603166025326
72	0x3f788776fbac13ad	0.0059885642792822215
73	0x3fac11b9157c8a1f	0.054822715638028756
74	0x3faa9573171c1165	0.05192145974254706
75	0xbf94a5340d1a6bda	-0.020161450671917304
76	0xbfa605c8c52ee736	-0.04301288039228128
77	0x3f9d5105f4c25ec4	0.02862939173118552
78	0xbfb453578c3c98f9	-0.07939669774768622
79	0x3faed7bfac80aac9	0.06023978214974119
80	0x3fbf8711228d83ca	0.12315470784734753
81	0x3f7995b46487d036	0.006246285113309871
82	0x3f91f6c1362c2a85	0.01754285710471006
83	0xbf7ab172f3ee0879	-0.006516884836743946
84	0x3f9342e29dc2f846	0.018809834364894827
85	0x3fb621faa83a9fa3	0.08645598036912232
86	0xbf940b10318d290c	-0.019573452972772507
87	0xbfb8a690ed1ded07	-0.09629159726130264
88	0xbfb135eb520a495b	-0.06722899201330305
89	0x3fb22cd60f37df9f	0.07099664565600826
90	0xbfb074abbfd6e287	-0.06428025659159618
91	0x3f8d90e647e10d54	0.014436530178619712
92	0xbfb4f5b89d7c2b85	-0.08187440724229418
93	0xbfa199d6f64e02ed	-0.03437682873391688
94	0x3f6b86ba79e38282	0.0033601419555540643
95	0xbfb8c742b243f409	-0.09679047443565038
96	0x3fb4255212c4b6e0	0.07869446714604633
97	0xbfaecde9439b3262	-0.06016472769042448
98	0xbfb4cebc32a89794	-0.08127952801495858
99	0x3fa00a5a674df22c	0.03132898818055127
