savedModel/poisson1d_sin/ParticleWNN_4/trained_model_final.pth (torch, 65815 bytes, 10 tensors)

fc_in.weight f8 [50, 1]
000000 4e 8b 00 03 bc ba de 3f 5c 93 09 4a 69 13 ee bf
       0.48014736455131846 -0.9398695417445242
000010 52 88 88 48 1f e0 dd bf 93 58 db fe 57 a4 ed 3f
       -0.46680433352787987 0.9263114907905837
000020 60 82 27 03 ab 81 e2 3f 59 22 9c 74 67 76 ce bf
       0.578328615341956 -0.23798840707628946
000030 5c 1d 80 ff 42 e7 cc bf 5a c9 82 e4 b2 79 cd 3f
       -0.22580754733665287 0.23027645261533786
000040 ef a6 9f 79 fd 75 e9 3f 17 d9 bd f9 78 99 e0 bf
       0.7956530929052102 -0.5187344434514526
000050 c2 f1 b4 e2 ae 2b d3 3f 88 c8 ae 88 71 b5 ea 3f
       0.2995412076886873 0.8346488637528333
000060 70 67 c8 42 3e d9 e4 bf 98 65 2a c5 4a 8e ed 3f
       -0.6515189461090198 0.9236196375742791
000070 0d 23 51 b2 03 be ee bf e0 b0 70 01 30 68 dd bf
       -0.9606951220276599 -0.4594841016830866
000080 d9 14 f0 cc bd dd b3 3f 31 63 91 45 3b 86 ed bf
       0.07760225537647915 -0.9226356848476823
000090 4b c3 d6 75 5d df cc bf 7d 64 43 1e d6 4f e4 bf
       -0.2255665612588252 -0.6347456542090552
0000a0 cc c0 cf 0d 0c be c6 3f a6 28 07 ed 27 7c eb bf
       0.17767477678672206 -0.8589057568981573
0000b0 b9 30 54 64 34 79 e6 bf 63 33 62 7a 38 cb e0 3f
       -0.7022954902218067 0.5248072042755719
0000c0 a6 44 a8 37 d7 9a cc bf 1d 18 92 0e 4c 57 e2 3f
       -0.22347536294595222 0.5731563839515307
0000d0 4c 85 39 8a 4d a0 e8 3f b9 18 12 34 a5 69 e3 bf
       0.7695682239247303 -0.6066461579328212
0000e0 f0 42 de 9c f8 21 c4 bf 65 4c f4 4c f2 27 c6 3f
       -0.15728671702938568 0.17309407002958035
0000f0 0c f6 28 53 a5 b9 d5 bf e9 e5 bf 59 11 c5 e2 3f
       -0.33945592042059114 0.5865561249658501
000100 2d db 57 e7 b0 b6 dc 3f 7a 57 58 51 f3 5f e6 3f
       0.44865057556255544 0.699212702633971
000110 8f 1d a2 df 1f 64 b0 3f c3 1d 80 54 0a d3 ef 3f
       0.06402777871891473 0.994511761703443
000120 44 ac 76 3d f4 07 f0 bf 05 93 7b 0b e3 98 ed 3f
       -1.0019419098778295 0.9249129509231301
000130 f6 05 66 51 33 e1 eb 3f d8 61 bc 4b 89 3a d0 3f
       0.8712402906241425 0.25357277294236047
000140 a0 a0 8e 90 27 98 eb 3f f9 a1 ea 52 07 45 e0 bf
       0.8623235534078226 -0.5084263438666873
000150 00 7e a9 56 df 49 ee 3f 6c b0 e4 47 ef 4a eb bf
       0.9465176289194801 -0.8528973011175487
000160 81 c3 32 64 a7 21 da bf 9e fd 28 de b1 5e d8 bf
       -0.40830406937589464 -0.3807797116787358
000170 ee ac 97 80 fd 3d e9 3f f2 bd a8 a0 61 0c e6 bf
       0.788817168385689 -0.689011396205329
000180 ad 52 25 30 1e f1 ee 3f cf a6 91 23 c2 48 d1 3f
       0.9669333401057735 0.27006581758051323

fc_in.bias f8 [50]
000000 c2 e8 c6 0e 7e 46 e5 bf 3c 0e f9 32 95 3b ea bf
       -0.6648550308812207 -0.8197732921184477
000010 23 b8 86 e7 93 33 d3 3f 04 7f 23 2e 4e 04 ef 3f
       0.30002305612549857 0.9692755604882852
000020 07 98 69 3b 27 e1 d3 bf fa 72 34 ed a5 24 9e bf
       -0.3106172638130151 -0.029436676600300672
000030 c0 62 db fb 1d a8 e8 3f 5b b4 77 13 02 a1 e3 bf
       0.7705221098977617 -0.6134043102480392
000040 77 48 5e 36 33 fe 3e bf 60 b2 3f 60 1e 7b df 3f
       -0.0004729151754584502 0.49188956641481774
000050 be c4 26 4c 18 23 ef 3f 52 21 9a 0d 4f b5 bc bf
       0.9730340468724064 -0.11214155275422868
000060 2e 33 57 59 1f a0 eb 3f 0b 30 46 c6 d8 cc ee 3f
       0.8632961983617855 0.9625057098905939
000070 43 8f 30 4c 4a 9f dc bf 62 9d f4 3e 5b 21 d0 bf
       -0.44722230377577804 -0.25203591487885124
000080 2c 25 5b 3e 34 b5 6e bf 59 b4 eb 99 01 ff ee bf
       -0.0037485142118824 -0.9686286932243419
000090 db 3e f3 d3 74 d4 d9 3f ee 49 d9 03 b0 81 e5 bf
       0.4035923070741611 -0.6720810008212632
0000a0 39 eb 98 ce ac 50 ed bf 5f 48 0c 38 7c c7 d2 bf
       -0.9160980258087427 -0.293425612196307
0000b0 a1 16 3f 1f 44 77 e8 bf d7 7e 66 10 2d cd dd bf
       -0.7645588503152859 -0.4656479511413471
0000c0 41 3a 5c 7f 32 09 c0 3f a1 3e cb 3c a0 07 d1 bf
       0.12528067797434697 -0.26609044968516044
0000d0 2d 24 0d 8b ff 94 a0 bf cf c9 22 19 56 f1 ed bf
       -0.03238676617053957 -0.9357100001273525
0000e0 80 3e 7c 6b e8 6c c4 bf 65 b9 d9 ee 51 9a e6 bf
       -0.1595736050444323 -0.706337896828512
0000f0 26 4b 52 39 78 34 ef 3f 3c cd 06 b1 37 0a c1 bf
       0.9751549834785223 -0.13312431472659536
000100 7a 11 ca 63 e6 35 df bf 6e a0 0a 04 23 60 de bf
       -0.4876647924904983 -0.4746177234142185
000110 ce 4f fe af 74 89 c5 bf 3a a0 4e dd d0 ef e5 bf
       -0.16825731843402852 -0.6855243990330628
000120 fa 42 05 5f 13 a3 b7 bf 9b 50 4c 85 2b 2f e3 bf
       -0.0923320872291348 -0.5995080569723713
000130 33 a5 3b 3c 76 20 de bf cd 3f 4a 35 55 92 e6 bf
       -0.47073131448867683 -0.7053628960438744
000140 f2 ad e8 b6 29 08 e0 bf dd f5 69 25 a6 cd d2 bf
       -0.5009964535178695 -0.2938018193597978
000150 78 1e 3b a2 ef 09 c5 bf 03 98 e9 65 e2 df c8 3f
       -0.16436572476799305 0.19433240867800813
000160 2b 02 9e dc 5b a8 de bf 59 19 3b 56 cf 06 ef 3f
       -0.4790258078064961 0.9695812877842328
000170 e4 f7 66 df b6 83 d8 3f 2f 66 dc e4 d4 29 e7 bf
       0.3830392057096772 -0.723856398576748
000180 45 e8 c0 35 6f a2 e3 3f 9f c9 45 51 79 9c d9 3f
       0.6135784196733388 0.4001754087140856

fc_out.weight f8 [1, 50]
000000 5a 57 ba 9a e7 c9 a1 bf eb e7 ad af 1d 93 c3 bf
       -0.034743535649950544 -0.1529271228608303
000010 07 4e d0 8e b6 78 b4 3f c8 57 a9 50 fc 1f bb 3f
       0.07996693598425263 0.10595681161188886
000020 a9 e2 87 01 d5 a5 b5 3f 80 c4 29 0d 9f 2a a2 bf
       0.08456164634106735 -0.03548142467196502
000030 4c a8 af 97 34 c5 c3 3f 2b 33 5f 50 7f 1c b8 bf
       0.154455732408055 -0.09418483459667175
000040 60 b9 25 d6 16 ad bf 3f 93 62 55 a2 bf 76 aa bf
       0.12373488167006519 -0.051687229696374314
000050 cf b6 ec 34 0d 4a a8 3f 3d 38 cd 31 a7 0d a9 bf
       0.04743996878674538 -0.04893228991441887
000060 0c e1 77 29 69 85 c5 bf 41 29 89 ae a2 92 af bf
       -0.1681338741761994 -0.06166561489642897
000070 3d b7 c2 1e 17 a0 c2 bf ac f3 cf 3c 9c bc 9e 3f
       -0.14551056863768422 0.03001636620682617
000080 44 05 98 56 4c 24 c2 3f 07 8f 29 59 bf b0 c1 3f
       0.14173273304190037 0.1382064042437536
000090 7c ed d7 db 23 58 b1 3f 7d e1 2b cb 33 8c b3 3f
       0.06775116078636317 0.07635806761016357
0000a0 8c ce d4 d7 fc 81 c0 3f ad c1 3c d1 42 07 be 3f
       0.12896690882336193 0.11729829414685496
0000b0 fc 2d 85 5d d9 f9 a0 3f 85 d0 21 ad 96 7e 9d bf
       0.03315619722942739 -0.0288032096072617
0000c0 14 90 b5 f2 d3 94 c4 bf ac 12 d9 dc d3 49 bd bf
       -0.16079186774288756 -0.1144077696017784
0000d0 c1 29 4d 64 9f 32 bd 3f 9b 01 9e 8d de 3d a4 bf
       0.11405368994488808 -0.03953452566838963
0000e0 22 e7 9b 4a 7c 17 b9 bf 75 3e 08 08 03 e9 ba bf
       -0.0980146104956501 -0.10511797853563982
0000f0 d3 fb 7b 90 1d d6 ad 3f 58 35 ef 42 0d d4 a8 3f
       0.05827419651722434 0.048492826863006655
000100 79 51 16 0f e8 2c af 3f 4d 6a 04 15 7e 40 b1 bf
       0.06088948425454794 -0.06739032757870085
000110 16 98 b2 4c 49 67 c0 bf 89 59 54 43 2f 98 b9 3f
       -0.1281520485401308 0.09997840303217322
000120 cb 03 75 7d 80 05 c3 3f 4e 71 ce 9a 1b d0 bc 3f
       0.14860540510019712 0.1125504734940865
000130 2a 65 98 47 c0 ba b8 bf 42 4a bf 07 84 dd b1 3f
       -0.09659959552700018 0.06978631199971466
000140 fe b1 12 50 17 73 be bf 80 c3 c7 fc 1e 1f b9 bf
       -0.11894365029247209 -0.09813111945528696
000150 9e 22 d6 c8 ac ef c1 bf b0 49 3a 36 17 00 b3 3f
       -0.1401267986914449 0.07422013353269707
000160 56 4b 7c 96 b5 54 b6 bf 1c 71 88 bf 75 2c c2 bf
       -0.08723006175959588 -0.14198181011386957
000170 c2 69 9c ea f7 0d a7 bf 07 91 43 14 45 24 bd bf
       -0.04502844561484977 -0.11383468384480376
000180 63 32 9b 16 dc 94 c2 3f 00 31 99 32 0b c9 ba bf
       0.14516783813305087 -0.10463018403351398

fc_out.bias f8 [1]
000000 7d 28 ee b8 dc 55 c8 bf
       -0.1901203062992102

fc_hidden_list.0.weight f8 [50, 50]
000000 83 ff 04 26 5f 6b 9c bf c3 bb 87 c8 89 b0 aa bf
       -0.02775334043076284 -0.052128129700455904
000010 a5 e5 7d 81 6a cb 8f bf 4c e7 05 10 e9 2f bc bf
       -0.015524704052711178 -0.11010605469882967
000020 e3 de b0 8e 64 66 8e 3f bb 7c f4 09 42 01 b0 bf
       0.014843736271458357 -0.06251919501345331
000030 c1 c6 2d 7b ef 8d a4 bf c4 89 1e b8 8a 73 a7 bf
       -0.04014538172385818 -0.04580338952588961
000040 a3 a0 1c 6d 51 14 94 3f 52 65 40 41 42 77 b0 3f
       0.019608757290513378 0.06431974499755214
000050 3e a5 52 a4 b3 f2 b3 3f 5e f3 85 e8 78 2e c2 bf
       0.07792208444393098 -0.14204322198556957
000060 7e ca d3 71 7c aa 7b 3f 9d f7 48 70 17 a9 b7 3f
       0.006754385101191416 0.09242388240178774
000070 f4 71 ec 52 15 b7 b7 bf 05 52 6f 96 e7 60 c0 3f
       -0.09263737940313616 0.12795729489756993
000080 0d c3 79 4b ec ed a1 3f cf bb f6 48 bb 71 c3 bf
       0.03501833363850979 -0.15190831244168954
000090 db 3a 77 9f 26 11 b8 3f 3a a6 d9 93 99 c4 b1 bf
       0.09401170151907527 -0.06940612659095616
0000a0 81 02 b8 d2 fc 60 ae 3f 9b b7 54 2e 98 fa ad 3f
       0.05933370659113724 0.05855250897944516
0000b0 b0 d2 2d 9b c1 b4 b5 3f 81 3e 21 36 cc 58 a7 3f
       0.08478937185811719 0.04559934769406216
0000c0 88 a0 cf 88 16 4b b6 3f 59 d0 9d e2 6f 27 a3 3f
       0.08708325233567582 0.03741025582613195
0000d0 b1 6f 33 a5 74 23 b7 3f d5 aa f1 a8 32 78 bd 3f
       0.09038476021981869 0.11511532425508204
0000e0 9d b0 4a c6 71 94 b5 bf 97 ce 4e 5f a5 6a c2 3f
       -0.08429633227450713 0.14387957719519726
0000f0 38 cb 87 da 9b 21 b1 3f d5 ac 85 e0 3a fc b3 bf
       0.06691907963958676 -0.07806747418878797
000100 12 bc 42 e5 19 66 b7 3f 28 e1 30 39 6d aa b0 bf
       0.09140168997940659 -0.06510050436270787
000110 8d 1d bf 54 18 56 77 3f 7e a8 d2 98 26 c8 ba 3f
       0.005697341006402634 0.10461655837085179
000120 06 df 48 3b ca aa a5 3f 5a 6d ee 9b 97 d9 c3 3f
       0.04231864904107678 0.15507788766704317
000130 d3 1a a6 bd cf bf b8 bf 97 77 51 73 21 98 b4 3f
       -0.09667681102846908 0.08044632974039555
000140 b9 c2 2f a5 1e 37 c1 3f 6b db fa 4f 5f 69 b9 bf
       0.13449461999655002 -0.09926410391459022
000150 01 76 46 36 b8 20 a3 3f e6 80 c0 cb 76 62 c0 bf
       0.037359005570788646 -0.12800488423182016
000160 1d 37 7f d9 72 37 c3 3f 40 40 b2 fb 63 4f be 3f
       0.1501296579357864 0.11839890379838014
000170 f1 e3 27 d7 56 65 b8 3f e0 37 b8 7e 25 d0 9f bf
       0.09529631378963167 -0.03106745325026583
000180 b3 ac 63 b1 83 a6 b6 bf f9 8e 0f 45 13 d1 ac bf
       -0.08847830849451803 -0.056282617740889
000190 75 99 99 9f a7 9a bf 3f e1 8f d8 26 95 47 b4 bf
       0.12345359465107271 -0.07921726416003551
0001a0 cf 1a 52 c7 06 82 65 3f 6c 44 3f 06 23 11 b4 bf
       0.0026254780191864234 -0.07838648703115475
0001b0 a2 df d9 e6 94 42 aa bf 9a 84 93 61 22 fc a7 bf
       -0.051289227657377326 -0.04684550706020581
0001c0 47 30 f8 76 e2 3c b7 bf 69 aa cc 1f 74 89 b9 3f
       -0.09077277569321139 0.09975362564424874
0001d0 79 33 40 af 45 23 bc 3f 46 76 38 cf 16 99 88 3f
       0.10991321114143017 0.012010744284505336
0001e0 5e 48 38 83 66 a6 c2 3f 86 24 8e be 30 10 b8 bf
       0.14570313842029042 -0.09399704601504952
0001f0 ff 3a df 6c 5b c2 b6 3f b3 16 0c f5 4d 13 a7 3f
       0.08890315444953599 0.04506915680216874
000200 84 ef 26 25 40 9e b3 3f 37 43 c5 a1 18 e0 bc bf
       0.07663346201928617 -0.11279443692661749
000210 fa 45 04 15 05 d9 b3 3f 98 ec f2 d1 a3 78 bd 3f
       0.07753021014311648 0.11512206912714118
000220 45 30 d7 31 5d 2b b8 bf 5b d3 32 5a f5 9f 84 bf
       -0.094411682766066 -0.010070721449986378
000230 7b e9 42 a7 de ea be 3f a8 ae 87 9d e2 b9 82 3f
       0.12077132781533877 0.009143610413011885
000240 3b d4 33 5c 66 0a c0 3f 43 ff 46 d2 8a 23 b3 3f
       0.12531737806389906 0.07476108201717317
000250 0b a5 14 b9 9b 16 b6 bf 69 a8 6b 1c c2 b0 c0 bf
       -0.0862824751717605 -0.1303942335865174
000260 1e 6d 72 6e 31 3d ab 3f e8 62 c1 a2 78 27 b6 bf
       0.05320124123792368 -0.08653978322525868
000270 8f 65 55 76 08 cd b2 3f 86 17 6c e9 c7 65 b9 bf
       0.07344105614665451 -0.09920930336747177
000280 ea 1f 3e 69 76 1e b6 3f 64 71 40 e4 f9 dd b1 3f
       0.08640232152367813 0.06979333708335883
000290 d5 79 aa 61 0c af 98 3f 1b 39 2a b4 68 ac 9f 3f
       0.024105256520323543 0.03093112563743104
0002a0 c2 68 cc 78 00 7d a0 bf a1 3e ae b9 98 a0 ba bf
       -0.032203688379199416 -0.10401300938814952
0002b0 4b fa 46 00 72 f4 bf 3f 69 0c c1 41 f0 60 b9 3f
       0.12482368952530824 0.0991354141743145
0002c0 f3 69 c7 6d 77 6c bb bf 79 68 0d f1 d6 22 ad 3f
       -0.10712381773138428 0.05690643017324332
0002d0 c9 47 03 21 22 5b b2 3f ee 6e b7 16 3f 6e 9c 3f
       0.07170308404900462 0.02776430679465041
0002e0 0d 7c 32 dc 20 2f c1 3f 37 c5 d0 3d 60 6c 87 bf
       0.13425074340645474 -0.011437179457149156
0002f0 3c 3c bf 54 84 1a b9 bf 9d 96 9f 4f f1 89 79 3f
       -0.0980608660604369 0.006235067959982435
000300 21 c0 ce d9 c5 da bf 3f 39 0e 1a a2 81 f9 c2 3f
       0.12443195884293391 0.14823933043600038
000310 e7 d9 dd 9a 49 3c b5 bf 04 1d 20 4c 95 98 bf bf
       -0.0829511645405102 -0.12342198475390737
000320 36 02 25 29 11 64 b3 3f d8 99 30 2e d8 c4 c3 bf
       0.07574565176492673 -0.1544447160278668
000330 ea 74 53 79 b0 e2 bd 3f 29 d1 01 9c db c0 a9 bf
       0.11674025499401677 -0.0502995136202194
000340 71 b1 19 b7 01 85 a0 3f cd 6b 5c 3b 58 da b4 3f
       0.032264760590666415 0.08145667504542971
000350 3d e5 05 ce f6 fd 91 3f 08 d1 88 4d 80 df c1 bf
       0.017570358585975433 -0.13963321481572444
000360 46 76 34 3a c2 de 9b bf 19 e7 3a de 39 15 bc 3f
       -0.02721694450621317 0.1096988837770393
000370 1f 1d f9 be 53 3f a0 bf 63 b2 53 e7 86 87 ba bf
       -0.031733147680421896 -0.1036304774058379
000380 f1 b4 95 77 d7 d4 bf 3f 93 02 eb c1 ee d8 91 bf
       0.12434145612288085 -0.017429094873252792
000390 fb ba aa d8 04 b4 bd 3f fd e7 35 1f eb 19 c4 bf
       0.11602812089652652 -0.15704096816972415
0003a0 96 e8 b1 67 20 e6 a1 3f 9e 42 7b 19 6d bd c3 bf
       0.03495885148818549 -0.15421832794392726
0003b0 df 99 05 62 18 a9 b0 bf 20 42 7e 56 a5 54 bb bf
       -0.06508018868553432 -0.10676034318590455
0003c0 fd 56 02 1a 40 da ba bf 90 9d 6f b2 a2 ec b9 3f
       -0.1048927367686154 0.10126702171657187
0003d0 71 e1 5d 94 16 74 ac bf 64 99 7f 93 60 55 b3 bf
       -0.05557318268887713 -0.07552150345836633
0003e0 d3 3d a3 ad f9 c4 94 3f c4 bc ec 26 aa 4c b0 3f
       0.020282651160241926 0.06366980982123766
0003f0 e8 f2 88 e3 c9 13 b4 bf e0 46 37 ce 8f 8a b4 bf
       -0.07842695050289772 -0.08023928436821448
000400 d9 d9 fd 74 05 6a b3 3f e0 45 cf 9f c1 c1 a8 3f
       0.07583650690307965 0.04835324359704507
000410 8d 89 14 3a 2f 73 b6 bf c6 f5 e8 19 00 f6 a5 3f
       -0.08769507568334785 0.04289245907100851
000420 29 f3 fc 09 68 65 c0 bf 85 cc c2 ae df af bb bf
       -0.12809467780780295 -0.10815237061142298
000430 2b 86 26 10 8a 3c 99 3f b0 cb c9 0f 66 4d a5 3f
       0.02464500163626419 0.04160613005378566
000440 ac 54 a5 43 77 da b7 3f 5b 2d 4b b5 99 76 ba 3f
       0.09317727471837384 0.10337219883074537
000450 a1 f8 fe 78 c6 f5 b2 3f a1 69 d2 d5 c3 67 a1 bf
       0.07406273321155023 -0.03399478898173248
000460 3d 29 5d 5f dc fe bb 3f c3 72 1c 84 60 26 7c bf
       0.10935761764736625 -0.006872536674361998
000470 34 51 d0 d3 d7 78 b8 3f 20 93 5b 44 c6 dd b3 3f
       0.09559391900285591 0.0776027600182485
000480 14 c4 52 5b f2 7e af bf 9c 38 cc ae e1 28 9e 3f
       -0.061515401504387196 0.029452825826461124
000490 34 ca 68 8a 1a 78 b2 bf 9b 64 43 59 f4 55 ae bf
       -0.0721451366341988 -0.059249530693429274
0004a0 f2 3a c9 68 26 82 c0 3f 84 7a 94 10 86 5d b9 3f
       0.1289718639040625 0.09908330826554318
0004b0 cd 4b cf 43 ac 82 a9 bf d4 4c 2a ae a8 c6 77 3f
       -0.0498250801826071 0.005804690272856312
0004c0 0e 04 49 ab 50 78 9f 3f bc fe 0b f1 20 ab b1 bf
       0.030732403234882404 -0.06901746640141487
0004d0 e7 ee ae f3 d6 5d c0 3f 5b e9 0e cd a0 2b b8 3f
       0.12786375902748334 0.09441571241669548
0004e0 74 45 68 32 37 ce a5 bf e8 3c ae dc c1 77 b5 3f
       -0.04258892526935201 0.08385860097608921
0004f0 61 b1 d9 ae 21 5d b8 3f 2f 75 b2 f3 29 73 ad bf
       0.09517107504661261 -0.05751925563638804
000500 fd 76 8d 4b 2d f9 bb 3f b2 07 5c 51 b8 20 a7 bf
       0.10927088827653715 -0.04517150872381083
000510 23 d6 27 89 94 3c b1 bf 32 78 aa 17 7c 80 a9 3f
       -0.067330630765206 0.049808385743049036
000520 93 20 2a cc f8 b1 82 3f 99 ff c8 16 55 a3 c3 bf
       0.009128516893966576 -0.15342200863414915
000530 0d 86 78 c8 cf 1e a7 3f ef 12 21 99 f4 50 ba 3f
       0.04515694925454392 0.10279778231149427
000540 0d e9 64 e7 4f 85 bb bf 1e d1 dc 62 69 ec a7 3f
       -0.10750293158790587 0.04672555286234313
000550 a3 6b 50 37 f3 b6 a4 bf d5 2d f0 d4 32 07 b5 bf
       -0.0404582982084414 -0.08214109133421428
000560 ab 63 a4 21 b6 38 59 3f 7e 59 92 11 2c 79 92 3f
       0.001539399969777681 0.01804036004303943
000570 62 04 27 7c b2 b5 45 bf c6 82 23 c0 98 8d c1 3f
       -0.0006625291355747515 0.1371336877991977
000580 9d 74 c6 dc 38 97 c1 3f 4c 1f 10 03 9d 17 99 3f
       0.13742743282356154 0.024504140197705568
000590 f9 59 f0 0a a4 ed bb bf 5f b3 83 ce 81 88 ad 3f
       -0.10909486071646048 0.05768209119728484
0005a0 f0 78 3f 33 28 21 85 bf 76 c8 bc dd 21 0d ae 3f
       -0.01031714826961802 0.05869394141917976
0005b0 f0 29 77 0a df db 77 bf 3f 2f 01 3c 34 22 ac bf
       -0.005824919942322357 -0.05494845612028464
0005c0 2a 41 a9 c5 de 4f 66 bf 81 6e 2d bb 6e 3e c1 bf
       -0.0027236319558953297 -0.134717790026901
0005d0 b2 ad d5 87 7a 54 c0 bf f3 e2 dd ae 39 22 a7 bf
       -0.1275780833487779 -0.045182993503606904
0005e0 b6 7e 5e 08 17 54 b6 bf e1 d6 67 2e b3 d5 bd bf
       -0.08722061113666765 -0.11654205210637826
0005f0 fa 7c be c0 01 68 b3 3f 55 c9 47 0a c3 7a b0 bf
       0.07580576854387636 -0.06437319756495204
000600 ba 3b b4 8e 22 f8 96 3f 22 4c b7 b6 70 18 c3 bf
       0.02243093486782375 -0.1491833583992
000610 9b bb 7b 3c 97 ce 8d bf b6 9d 10 86 a2 72 92 3f
       -0.014554196866326133 0.01801542227999927
000620 f9 5d 2b 3a 0e bd c2 3f 03 08 9a ce eb 6c 8c bf
       0.14639451828291764 -0.013879625551684432
000630 8c 4a a6 77 39 0b ac 3f be f2 7f 69 e7 f3 b5 bf
       0.05477313600126363 -0.08575292897871642
000640 0e 8e 60 9b 32 77 b7 3f eb 34 95 b4 0c 3a a4 3f
       0.0916625623072422 0.03950538353329044
000650 85 69 89 01 7a 92 b3 3f 68 cb 86 e7 47 1b 80 3f
       0.0764538053275939 0.007864534142617521
000660 b9 ac 7f dd dc a9 b1 bf ff f9 a9 82 74 b2 b3 bf
       -0.0689981499451048 -0.07694175901449539
000670 0c 39 85 ac 7f ad 92 bf 63 c6 95 e0 d5 18 a7 bf
       -0.018239970116433787 -0.04511135450856043
000680 e1 2f b3 93 99 b3 ba bf a6 b3 f9 b3 47 b4 b5 bf
       -0.1043029771419124 -0.08478210586481669
000690 df 8a 51 4f 0f c6 ac 3f 61 3f 3b c2 6b 6b b1 3f
       0.05619857638591496 0.06804536334970869
0006a0 10 57 71 80 d3 2d bc 3f a0 dc 85 2c a9 88 73 bf
       0.1100742519932647 -0.004769001803985123
0006b0 79 ee 66 a9 16 bf a9 bf 38 b6 7d b6 47 50 ba bf
       -0.05028601472755851 -0.1027874775442904
0006c0 a2 a1 f7 3c 28 68 b7 bf cd 77 55 fd 08 8b b6 bf
       -0.09143306244334906 -0.08805900750073122
0006d0 84 8d 36 7b 52 5c c2 3f af e6 da 6d 75 ff ae 3f
       0.14344244972481246 0.06054274526600289
0006e0 25 88 64 54 57 af b6 3f 25 62 b2 95 d0 49 b0 bf
       0.08861299333924018 -0.06362632422168042
0006f0 46 6e 9a ed 2b 65 b1 bf 31 80 6b 0e d6 62 a6 bf
       -0.06795000601635434 -0.04372281003975365
000700 62 60 f6 5f 7a bf a2 bf 04 e5 bc 27 48 26 9c bf
       -0.03661711141029468 -0.02748978369274814
000710 fb f4 83 ed 5b 85 90 bf b8 22 a5 cb 1f e7 b2 bf
       -0.01613372456721594 -0.07383917543223617
000720 e9 3e a6 62 6d e6 7d bf 2c 17 1e e5 df ac a8 3f
       -0.007299830709953639 0.048193928450059736
000730 3a d6 52 b5 83 3a 9e bf 15 f7 21 0b ad a4 a2 bf
       -0.029520090047944182 -0.03641262780091218
000740 43 98 99 80 e2 21 b5 bf d9 31 fc ba a9 a0 c2 bf
       -0.08254829063079776 -0.14552804594167304
000750 0e f5 87 1a a4 11 b8 3f 03 ec 33 08 f0 95 aa bf
       0.09401918075305479 -0.05192518329746323
000760 df 56 36 4a d1 7c a8 3f 65 59 f8 13 15 78 94 3f
       0.047827282246698515 0.019989327758673698
000770 03 b0 c1 eb 3b 06 a3 bf c7 81 2b 04 1c 31 b0 bf
       -0.0371569371498879 -0.06324935056500812
000780 ac 00 19 9a 34 87 b5 bf 7d 46 f4 b7 f7 23 a2 3f
       -0.0840943218436247 0.03543066139731097
000790 47 85 0e e9 43 07 88 bf aa 8c 66 a3 ea dc ba 3f
       -0.01173260741217298 0.10493341912529056
0007a0 00 d4 1e 3d d6 17 bc bf 56 ec f7 e9 be a1 b3 bf
       -0.10973872177312671 -0.07668679439659462
0007b0 46 24 49 a4 65 7e 25 3f 29 94 11 11 5b ab 9b bf
       0.00016398421043309542 -0.027020857731617696
0007c0 5c d1 3b 11 14 2b bc 3f 83 7d 27 ac 7d ca 91 3f
       0.11003232403510793 0.017374004013502208
0007d0 73 ee 88 2c 19 1e b6 3f d2 48 ac d9 b2 b0 c4 3f
       0.08639676415708113 0.16164241436542298
0007e0 85 2e 69 90 ae 5a b5 3f 87 d7 6e f9 37 ad c2 bf
       0.08341494584709082 -0.14591121367783108
0007f0 b8 5a 24 2f f2 e0 c2 3f 9a b0 df 83 42 74 c2 bf
       0.14748980810028 -0.14417296828412846

fc_hidden_list.0.bias f8 [50]
000000 b1 8e 27 6d 32 2c b5 3f 7d 65 29 82 1f 4f a3 bf
       0.08270564236550616 -0.03771303619277953
000010 4f e4 51 83 0a 64 9d 3f da c1 0f 29 06 77 b3 3f
       0.028701938881998065 0.07603491308669366
000020 a2 08 39 ee ef 3c aa 3f be ca 6d 08 da 3f a8 3f
       0.05124616415970819 0.047362149742999446
000030 41 f0 bd b5 a8 9f ab 3f 5f 93 33 99 ca 1f b2 bf
       0.05395247667817716 -0.0707975982691784
000040 5e 4e 76 71 08 00 a0 3f df 84 75 22 ba 46 b9 3f
       0.031250251627309864 0.09873545972142804
000050 12 e9 3d d6 2f 90 b5 3f ca 6f 60 ad ea 10 b3 3f
       0.0842313669253694 0.07447687847928744
000060 5e 82 fc 23 49 98 b0 3f 0c b1 de 51 6f 92 b8 bf
       0.06482369545529695 -0.09598441838051402
000070 19 bf e7 44 7c 58 bb bf 2a c3 69 35 6b b2 80 bf
       -0.10681893045670811 -0.008152806823291298
000080 1b 26 31 82 b6 3d bf 3f de 91 7a e6 36 cf bf bf
       0.12203541449084591 -0.12425559164927999
000090 45 99 d4 ca a8 fd b9 bf ef 15 f9 f3 d2 eb c0 bf
       -0.10152678443828218 -0.1321967784189577
0000a0 3f 8d 9a b8 6c e4 c0 bf 1f a9 99 77 98 2d 9c 3f
       -0.13197096837857633 0.02751768331510462
0000b0 dc c9 b1 d9 59 91 c3 bf 28 7d 04 10 12 8d bf 3f
       -0.1528732598267898 0.12324631587079138
0000c0 49 14 0a 8e 92 86 a6 3f 67 04 4c db 86 6a b5 3f
       0.04399545654181531 0.0836567197220731
0000d0 9b ee 79 d0 fa 75 a4 3f 71 76 04 51 0e 2d b1 bf
       0.03996261401058839 -0.06709374883618026
0000e0 14 b0 99 10 74 89 c0 bf db 27 4f dc e2 37 ba 3f
       -0.12919474421084998 0.10241525534289002
0000f0 e7 e8 23 e2 e1 b9 a9 bf b4 26 ac bf d0 02 be 3f
       -0.05024629483701109 0.11723045997146181
000100 48 8c 8e 90 be 04 a1 bf f6 24 1c 67 3b af c0 3f
       -0.03323932184800832 0.13034765753426542
000110 68 0a c0 97 dc 52 c0 bf 0e 01 be 51 4b 41 b5 bf
       -0.12752873811412546 -0.08302756066951053
000120 5b cb 86 a9 d4 70 b8 bf f9 44 43 f6 dc 61 b4 3f
       -0.09547166003066591 0.07961827289843261
000130 50 40 58 8d 5c a2 a5 3f 72 37 5c c5 aa 79 bf bf
       0.042254345182414554 -0.12295024221768161
000140 4e 49 c0 37 ca 67 c2 3f e2 e1 7f 5d b5 4b c0 bf
       0.1437924167845019 -0.12731043877990006
000150 d2 fe 3b 28 c3 f1 9d 3f af e6 ca aa 25 4a b7 bf
       0.029242562609396235 -0.0909751455282286
000160 08 a8 83 95 14 9d c1 3f 74 c8 a0 60 b6 e3 bc 3f
       0.13760621357442937 0.11284961566050972
000170 a6 06 db 80 14 a7 ba 3f 73 70 a5 b0 25 b1 c1 bf
       0.10411193986785836 -0.1382186043291572
000180 cf b0 bf 23 4f ed b5 bf 5b 5f 45 d4 20 0e b3 3f
       -0.08565230009816392 0.07443432981869817

fc_hidden_list.1.weight f8 [50, 50]
000000 ee a7 af f9 3c 1c bc bf 63 d1 39 f7 cb 31 b0 bf
       -0.10980588050702497 -0.06325983796870598
000010 cf a9 be 43 b4 51 ba 3f e7 3b 7e 51 30 ba bb bf
       0.10280920652318247 -0.1083097647626655
000020 e2 c4 3a e3 d1 2e 84 bf 56 05 19 bf 51 62 bf bf
       -0.009854926821704916 -0.12259398379776107
000030 65 67 34 ba 44 4b a7 bf 94 48 27 28 a9 08 c0 bf
       -0.0454961278248465 -0.12526430569284186
000040 73 9f 41 8e 9d 7c b6 3f 5d 68 f7 47 26 da bc bf
       0.08783898089461477 -0.11270369774811813
000050 ad 39 b9 0c 23 50 b5 bf 21 36 a3 e7 ae f9 aa bf
       -0.08325404224999629 -0.05268618180853602
000060 c8 1d dd e3 26 f2 5f 3f 6f 4f ad d2 84 a8 9a bf
       0.0019498233591138548 -0.026033473356917577
000070 e7 b1 35 c4 d6 1d 95 3f f3 63 cd 1b 0e eb 86 3f
       0.02062163899010896 0.011190519545992905
000080 4c 74 07 6d 09 da 88 3f 7b d5 06 b5 eb 60 c1 3f
       0.012134622230343471 0.13577028598016824
000090 e4 79 ec 81 4e e8 c0 bf f5 44 5e c7 89 f5 ac 3f
       -0.1320894369500386 0.05656080778784115
0000a0 d4 57 7c 94 56 78 b8 3f da 4c 8e c3 cc 3d c5 bf
       0.09558621525897532 -0.16594848202348694
0000b0 4a 07 94 b8 3e 25 6b bf bb 45 9a a7 99 ac c0 3f
       -0.003313658239336191 0.13026734050485608
0000c0 85 fb 9c e7 a6 a0 b0 3f 8b c0 bb 3b 27 96 84 bf
       0.06495135454768615 -0.010052019606036097
0000d0 ec 80 a1 9a 49 41 b3 3f b5 a8 77 6d 32 8e bd bf
       0.0752149584309369 -0.11545100376648317
0000e0 55 e5 51 d1 c9 b0 c2 3f 95 0d ff ba fc 21 c2 3f
       0.1460201522893764 0.14166220789603004
0000f0 b2 4f e4 24 40 43 b7 bf 11 4b 82 5f 36 d2 a3 bf
       -0.09086991215400422 -0.03871316829567751
000100 52 48 7e a4 44 f9 83 bf 1f 6f 94 24 db f3 9b bf
       -0.009752784986435756 -0.02729742441907412
000110 02 91 73 9b c0 ac 82 bf 52 56 45 cb 92 8c bc 3f
       -0.009118561500550463 0.11151998007456967
000120 0f dc 01 1c 84 82 ba bf 1a fa 80 6c f1 e1 73 3f
       -0.10355401691218467 0.0048541479700916716
000130 ad 40 6b c4 47 dc b2 bf 93 4a b8 1c 9e f6 bc bf
       -0.07367371125588092 -0.1131380863301195
000140 78 de 65 ae ce 1a a2 3f ab 6d 1f 4c fd 86 a3 3f
       0.03536077383881503 0.03813926271660802
000150 d2 fc 01 6b 3b 6a 97 3f 3d 96 83 bb 7a 0a c1 bf
       0.022866180807338328 -0.13313230663259104
000160 bb 90 6f dd 1b c2 b1 bf e1 ef 28 ad ae b0 97 3f
       -0.06936811596057428 0.02313492710003107
000170 ea dc ff ab 7b 69 9f 3f ba f6 a3 10 dc 7e c0 bf
       0.030675823567403983 -0.12887144863628014
000180 25 d6 bb 91 4d 09 37 bf 6e bd cd 47 39 3a bd bf
       -0.00035150665074410093 -0.1141696739484723
000190 21 cd 57 31 2d bf a9 bf 11 b8 f2 60 73 7b c1 bf
       -0.05028668620425437 -0.13657991632266023
0001a0 eb 67 1b a2 59 a4 ad bf 26 49 bb 13 e7 10 9a bf
       -0.057894516981562415 -0.025455103473015182
0001b0 f9 44 e7 f7 50 fd aa bf 8a 81 02 a6 2d 1a b8 bf
       -0.052713899861950915 -0.09414944937680594
0001c0 f2 3e c5 97 28 91 9a bf 15 be c6 57 79 ad bf bf
       -0.025944360984168698 -0.12374075310685158
0001d0 55 74 f4 ed 63 2c a0 bf ef 7d 84 1a 03 e4 ad 3f
       -0.031588671490887656 0.058380219447140884
0001e0 4d ca 3a f0 bd 7c bc 3f cf 1e 77 80 d3 8a ac bf
       0.11127841105443644 -0.05574665969066716
0001f0 45 7b 91 79 a8 91 bf 3f 71 28 66 8e 91 28 b3 3f
       0.12331631629920732 0.07483777739085597
000200 4b fb df 07 90 70 bc 3f 1a 22 4e 23 13 57 b5 3f
       0.11109256927737225 0.0833599053568225
000210 4a 6a 72 b8 23 ac bd bf e6 87 6b 6e 4d 48 b0 bf
       -0.11590789082621558 -0.06360324807931725
000220 c5 40 a5 15 e5 83 a0 3f 37 6e 87 6b d5 73 c2 bf
       0.03225627793529066 -0.14415996313515375
000230 31 15 84 6c 07 f7 ac 3f af 5f 88 bc ca 6f 61 bf
       0.056572181698394515 -0.0021285018631366985
000240 52 d2 88 02 10 da a2 bf ef b7 97 88 4d 56 94 3f
       -0.03681993514002059 0.01986046930499435
000250 b4 f6 3d f0 4c ab c3 3f 14 8d e8 dc ee 4a a1 3f
       0.1536651776368011 0.033774818865163564
000260 ff d9 e1 6a 64 0c a6 bf 03 d4 4c 16 e7 c9 a9 bf
       -0.043063295409343276 -0.050368520233327295
000270 43 46 18 80 d4 dc b5 3f 0a 3d 94 9a a5 68 a5 bf
       0.08540084960284226 -0.041814017409814566
000280 a3 7f 6c 7f a1 dc b0 bf 7f c7 2b fc 3d 23 96 bf
       -0.06586655960972947 -0.021618813053414506
000290 40 b4 51 16 b5 25 9e bf 19 53 c4 99 74 ca a6 3f
       -0.029440717208150113 0.044513362665531804
0002a0 4b 47 7a 2e 6c 86 ba bf 5f f6 ab 34 b1 d0 a0 3f
       -0.10361362585743199 0.0328421952053588
0002b0 2c ae a8 14 4e 25 b8 bf 7f 2b b8 f0 7d ca a5 3f
       -0.09431922916763175 0.04256051600903898
0002c0 6b e1 6f 58 01 82 c2 bf 6c 0a c9 b9 66 d6 c2 3f
       -0.14459244554724235 0.14716800757931325
0002d0 50 0f db c8 88 b3 b8 bf cc 4b 10 5e 68 92 b6 3f
       -0.09648947623923942 0.08817150398708334
0002e0 8d 5d 2b 74 ea 97 69 3f 3e 8a db cf 99 57 b8 bf
       0.003124196927597195 -0.09508668255470185
0002f0 d0 b6 00 77 f7 5a b7 3f 2c 73 c8 95 7a b5 be bf
       0.0912317910703806 -0.11995664746104912
000300 a3 55 52 d0 97 a4 c1 bf 0c 41 0f fa 11 0d b9 3f
       -0.13783548042253554 0.09785568575830811
000310 56 96 8b 38 59 ed ba bf bb aa cd bc 93 d8 a1 bf
       -0.10518415098666742 -0.03485547713974798
000320 e2 be 16 b7 09 16 a6 bf 47 0d 33 c0 16 8d bd 3f
       -0.0431368862149364 0.11543409530991254
000330 92 2e 3f 1a b2 8e a0 bf 36 25 eb 7d 37 1d a5 bf
       -0.032338681892352686 -0.04123853122798453
000340 5f 58 9e 19 67 cf 7f bf aa e2 54 76 db 51 90 3f
       -0.0077661540361955985 0.015937260720621772
000350 30 5b 28 56 a0 02 a6 3f 0a 7a 85 9c 8b e8 9a bf
       0.042988787190714084 -0.02627771513777514
000360 b5 de 61 ac 0d 5d b5 bf a6 69 d9 4f 31 c5 b9 3f
       -0.08345113237907749 0.10066517066426303
000370 dc b5 9f cd d6 76 9e 3f 14 0b 24 57 60 39 b8 bf
       0.02975021009472366 -0.0946254933115081
000380 73 fb 85 ea c6 c6 77 3f ab cb e3 6e 60 e7 c0 3f
       0.005804802909891704 0.13206105627577122
000390 6f d8 bd 92 b4 4e b2 3f 18 10 4a c6 3a 6e bb 3f
       0.07151344854887197 0.1071507200340992
0003a0 e5 67 69 fe b9 43 b3 bf 39 02 b2 11 21 9c ba 3f
       -0.07525217496132049 0.10394484216704648
0003b0 b1 65 92 de e4 57 72 3f 28 90 fa a5 b7 29 c0 3f
       0.004478353520562293 0.12627311329299684
0003c0 59 72 3e 60 2c b9 b6 bf 1d a7 fc 31 bc d6 be 3f
       -0.08876302098946932 0.12046409817108068
0003d0 68 4b d9 d0 38 60 af 3f c8 7b c7 ee 7f ee a5 3f
       0.061280990118254774 0.042835233590941935
0003e0 02 67 6d b5 72 88 be 3f 06 eb f3 cf 36 03 b0 3f
       0.11926953248385178 0.06254904343579079
0003f0 cf cc 85 65 0a 60 ab bf 13 f6 86 b8 15 69 99 bf
       -0.05346710671701659 -0.024814929378171934
000400 d1 bd ca c1 1f 55 b9 3f f0 b0 d9 84 fe 8b b0 3f
       0.09895513993500706 0.06463614219109437
000410 5a 0d 47 14 46 eb a5 3f 1f 15 85 fa ab 4c c2 3f
       0.042810621238028104 0.14296483738341068
000420 76 a4 c8 98 07 92 c1 3f 8c 15 03 bf 27 d0 c0 bf
       0.13726897201675897 -0.13135239435920842
000430 31 90 27 34 30 79 a5 3f cf 05 a4 bf d3 3d ae bf
       0.041940218321343876 -0.059065453666345406
000440 9d 0e 5b 5c 15 09 8a bf fc 8b a6 64 5b 52 b4 bf
       -0.012712637787792242 -0.07938166816033737
000450 92 9b 84 d5 89 8a bf bf 34 73 37 2d 35 dd 68 3f
       -0.12320767844049232 0.0030351675611498766
000460 99 7d b3 cc 2d 88 c1 bf 51 57 ad 95 a3 fe a1 3f
       -0.13696835036442392 0.03514586641419604
000470 25 0f 88 56 82 d2 be bf 7b ae 1c 56 7d 12 a6 bf
       -0.12039961445412624 -0.043109814416621504
000480 c6 74 29 44 cd 2f a9 3f f4 92 b3 bd 3f 74 8b bf
       0.049192823954152184 -0.013405321099023017
000490 ec d1 24 c1 51 87 bc bf 33 c4 ea 37 f3 c5 c0 3f
       -0.11143980946946613 0.13104095678639424
0004a0 49 da e9 d9 66 b7 ad bf 2a 47 ef 6b 68 32 b3 bf
       -0.058039869404571016 -0.07498791346668257
0004b0 ba bf 86 8a d6 a6 b0 bf c0 bc 4c 91 08 03 c1 bf
       -0.0650457466315392 -0.1329050740691624
0004c0 c9 39 f9 d8 94 18 bc bf fa bd 3d 2c 08 84 91 3f
       -0.10975008294301526 0.017105224323527658
0004d0 e8 14 be c8 79 6f 8c bf a2 bd 75 19 b3 7e 73 3f
       -0.01388449806087029 0.00475950203632128
0004e0 f6 1f cc ea c4 28 91 3f 1f c0 30 d9 5b a3 b4 bf
       0.016757084685224265 -0.08061765720845003
0004f0 55 0b d3 db 7d e0 aa 3f e9 37 e5 2c da ef b3 3f
       0.05249398525622576 0.07787860485151978
000500 60 4f 0d cd 11 9d b4 bf 1a 28 9a 5d 79 bd bf 3f
       -0.08052169090416106 0.12398489508828484
000510 d3 3b 41 5d 62 b6 b4 bf 9b 00 43 c5 df f0 b9 3f
       -0.08090796257714254 0.10133169713936001
000520 1c 22 02 77 3a 48 b8 3f 1b 0f fe 15 d1 b7 b5 bf
       0.09485211759068374 -0.08483607088970439
000530 34 44 f6 63 65 45 c1 bf 32 ed ae 08 49 1b c2 bf
       -0.13493029957729308 -0.14145768093099204
000540 2a 81 05 5c e5 c6 9b 3f 96 58 ae 51 3a 39 b8 bf
       0.027125915280863534 -0.09462322706380841
000550 da b3 d4 19 aa cb 94 3f 38 28 a5 fa 8e 55 85 bf
       0.02030816824587931 -0.010417096160967629
000560 ca cb 90 f3 b7 1f b7 bf 34 84 52 c1 0e 69 bc 3f
       -0.09032773682046905 0.11097805232795183
000570 e4 5d 0b 65 7f 52 a8 bf 03 b8 34 4e 30 55 b5 bf
       -0.047504407009622246 -0.08333112630199939
000580 c0 35 49 ce a6 43 a0 bf 73 61 42 80 6c 52 8f 3f
       -0.03176614063395844 0.015293929733431999
000590 5d b1 f9 83 de f1 a6 3f 9c 82 e8 de a9 c0 78 3f
       0.04481406556155563 0.006043113286552295
0005a0 8c 1e 41 87 31 0a b3 bf cc 28 11 4a 29 46 9e bf
       -0.07437429000958157 -0.029564519067471193
0005b0 e6 40 2d 57 c7 5a 71 3f f0 89 61 9e 68 cd a9 bf
       0.0042369639148349455 -0.05039526875841094
0005c0 31 2a 31 a4 5a 22 a7 bf 3d 09 95 15 45 54 c0 3f
       -0.04518397573754774 0.1275717120534611
0005d0 03 4e f0 99 d1 a4 b7 bf 55 17 91 ef ff 60 b6 3f
       -0.09235868461865242 0.08741759871290118
0005e0 07 ba ad f0 ca 8d a1 bf 38 05 ff 90 48 96 a8 bf
       -0.034284917716707546 -0.0480215718266756
0005f0 43 e5 f0 e5 84 75 c2 bf 08 fd a8 3e 7a 42 64 3f
       -0.14421139934146696 0.002473105201061924
000600 5e 74 23 11 fd ca be bf b8 68 6b c9 8f 6f b5 bf
       -0.12028485935611985 -0.08373354594678772
000610 9f 1f 7d ca 6f 36 bb bf d7 1b e8 32 21 7e b3 3f
       -0.10629938787053426 0.07614333622778645
000620 fb ae 6e ad 9f 07 bc 3f 38 49 e4 e2 54 89 c0 3f
       0.10949132904232421 0.12919102743814803
000630 c1 e4 2f 5d 47 c4 b6 bf 99 72 11 16 08 95 a9 3f
       -0.08893247628283786 0.0499651457728067
000640 45 dc a6 34 43 c1 b3 3f 05 9b 33 c7 12 b2 97 3f
       0.0771677020592146 0.023140233429241003
000650 ff 13 23 1b fe a5 be bf 6d fe b3 c3 24 2b bf 3f
       -0.11972034609341618 0.12175206926257838
000660 b9 6a 2e 46 94 52 97 3f 1f f6 9b 10 c9 7b b8 bf
       0.02277595213272818 -0.09563881545542373
000670 df 6b 6b c8 52 5e a4 3f 9f 59 d4 4a d1 1d 9d 3f
       0.03978213020828724 0.028434057419042365
000680 4e 99 89 66 c9 60 a3 3f ca 6e 69 3b ba f3 80 3f
       0.037847799078735464 0.00827737325487678
000690 3a c6 82 fd e7 77 b9 3f dd a8 78 70 a7 ea a9 3f
       0.09948587359647201 0.05061839340153693
0006a0 b5 0e 83 87 a4 79 a8 bf cc 28 e1 6b de 8b b6 bf
       -0.04780306009481931 -0.08807172902848776
0006b0 3b e0 0e a4 46 c5 b0 3f af e1 05 df f8 ad b8 3f
       0.06551019196820189 0.0964046043862996
0006c0 cf 56 25 f9 e6 9e ba bf 5c 60 e6 2b 68 de af 3f
       -0.10398715574896332 0.06224370513808772
0006d0 e3 c2 c4 0b ef 53 8d bf e9 02 30 82 8c 0f b2 bf
       -0.014320247217797405 -0.07054975679785581
0006e0 44 f7 dc be 88 70 bb 3f ef 6b db 8a f0 4d a5 bf
       0.10718588504547905 -0.04161025710137511
0006f0 9e 56 41 f0 95 a0 be bf 5c 23 13 46 30 d3 b9 bf
       -0.11963784328085089 -0.1008787318306878
000700 ae ee b0 b0 e0 75 a4 bf 06 d9 b8 8c b1 cc ab 3f
       -0.03996183544992725 0.0542960628776417
000710 59 08 d2 52 df 14 b7 3f 93 7e 7f 94 7d e6 b1 bf
       0.09016223690017124 -0.0699232566398627
000720 7f f9 35 ea a2 05 b7 3f ae b8 56 4a c1 f6 ba bf
       0.08992975442922634 -0.10532768311415694
000730 d9 22 05 af c3 8c b7 bf 35 39 e7 94 48 e0 9d 3f
       -0.09199164412451512 0.0291758862384139
000740 da 83 66 a0 16 60 be 3f 53 32 7a 92 d2 f3 b1 3f
       0.11865369239832493 0.07012668682200145
000750 4b 33 53 51 c2 87 a6 3f 91 af d5 a3 51 b7 b2 3f
       0.044004509379738176 0.07310972452040533
000760 33 aa c7 f8 0e f2 5e bf 9f 7c 8f 90 a5 d3 74 bf
       -0.001888765927214775 -0.005084654557293038
000770 34 c5 72 32 e5 71 91 3f fc 5a a3 61 a3 16 b5 3f
       0.017036038593407812 0.0823766816496167
000780 64 c9 ad 85 12 3e a7 bf ac 47 1f 87 6f 33 b2 bf
       -0.045395449465007315 -0.07109734581834343
000790 fb ff 45 4c 8b b6 a5 bf 8c ec bf a3 e1 a3 bf bf
       -0.04240832620689613 -0.12359438178821075
0007a0 8a 88 38 5b 5b de b5 3f 59 43 f2 bc fd 0c bd bf
       0.08542414643355492 -0.11347947943637617
0007b0 dd 47 da 6a 52 b4 ab 3f 41 60 af 93 9c 3c be bf
       0.05411012224534748 -0.11811236005394311
0007c0 63 49 e9 b5 ff 4d c2 bf 43 b9 53 3f 34 88 bd bf
       -0.14300533659349943 -0.11535955949850511
0007d0 b8 37 b6 4f 74 52 b0 bf 41 65 26 34 17 dc ae 3f
       -0.06375815340126578 0.060272908321346914
0007e0 b5 ee f8 10 dc 4d b3 3f 8f aa 66 f7 af 26 af bf
       0.07540679373135613 -0.06084203619987704
0007f0 e6 0c fe d7 43 34 b2 bf d6 ec 9e 5f 95 e9 6c 3f
       -0.07111000083209582 0.003529350037721461

fc_hidden_list.1.bias f8 [50]
000000 cb 24 10 8f a3 7c bd bf e3 89 88 c9 9f e4 a3 bf
       -0.11518308871031306 -0.038853638983954907
000010 6e 23 48 9c dd bf b7 bf 99 f1 d2 1a 2c 27 c1 3f
       -0.09277138772462276 0.13400794324651313
000020 aa 86 89 99 e3 e6 87 3f ae 5e cf 77 ef 1d be bf
       0.011670854685863336 -0.11764427828836219
000030 b2 d0 12 12 43 f5 b8 bf 3f 1a ff 69 a5 86 94 bf
       -0.09749240103957638 -0.02004488429499873
000040 ff 8d f8 67 1b 31 a9 bf c3 d9 d9 12 3e 8a ac 3f
       -0.049202782098543445 0.05574220638384333
000050 f0 e3 b0 02 4b 4e be 3f 98 39 cd 51 14 24 bd 3f
       0.1183821565217753 0.11383177754507867
000060 5c 60 f5 9f 65 39 82 3f 74 b1 8e 86 97 8c ae 3f
       0.008898538536115712 0.05966638104959801
000070 6f 03 86 51 49 4c be bf 1d ad 9b e3 5c e0 b3 3f
       -0.11835153808898523 0.07764225537146215
000080 6d 8f ef 04 16 e9 a8 3f ad b2 ae 0d f8 8a b7 bf
       0.04865330515147446 -0.09196424802821453
000090 4f 34 6f c0 67 b1 a9 3f 3b 22 02 b3 87 35 c0 bf
       0.05018161987354885 -0.12663360825196598
0000a0 07 99 4d 61 d4 17 a5 3f c6 6d 6c 8c 3a 90 a4 bf
       0.041197430494138536 -0.04016287769465125
0000b0 83 0e 15 a0 58 b2 ad 3f e7 66 d8 1b 05 16 b8 bf
       0.05800129846695958 -0.0940859978658427
0000c0 ef 7c df 33 d5 46 87 bf 39 ae 17 11 69 1f a9 bf
       -0.01136557163766702 -0.0490677674641486
0000d0 5c 93 e8 75 a7 12 b6 bf 4f 0c 67 93 91 20 b9 bf
       -0.0862221396315141 -0.09815320824331873
0000e0 8e 33 c9 6e 29 c1 90 bf 17 48 d1 7a 9a 5c aa 3f
       -0.016361853968465172 0.05148775815236222
0000f0 2f 28 2e d2 a0 9d 50 3f 04 58 73 f5 0a 8c bf bf
       0.0010141439931623632 -0.12323063366361003
000100 1e 73 e5 a0 77 14 bf bf 5a 4b 98 56 b9 ec a8 bf
       -0.12140605619556452 -0.04868106061998985
000110 90 6e aa 61 3b 80 76 3f 3c 7b 08 4c ab 21 9d 3f
       0.005493385275851317 0.028448750034040446
000120 46 23 6e 65 1d df b8 3f 7d fc 0f fd 22 9a ad 3f
       0.09715446211170073 0.05781659449711982
000130 6d d4 50 0c 90 1b 87 bf 56 77 43 64 20 c9 b2 bf
       -0.011283040405127143 -0.07338144729461979
000140 76 d2 15 8d 89 35 bd 3f dc f2 d4 c6 33 32 ba 3f
       0.11409816450561458 0.10232852558415167
000150 43 97 31 40 89 78 8d bf db b1 57 84 bc 73 a8 bf
       -0.014390060683762257 -0.04775799861440407
000160 c7 e2 ad 83 cc bd 9d bf cb 37 66 01 ca 06 8b bf
       -0.029044337784827314 -0.013196542899802119
000170 56 8d 28 23 99 73 b7 3f c6 7f c5 d1 c6 83 ba 3f
       0.09160763843879258 0.10357325192808195
000180 e5 30 8d 2a 99 2b c1 bf a4 93 3b 60 42 10 ba 3f
       -0.13414301469527526 0.10181059693748168
