savedModel/allen_cahn_tanh_sin/ParticleWNN_4/trained_model_best_loss.pth (torch, 249235 bytes, 10 tensors)

fc_in.weight f8 [100, 2]
000000 60 f8 94 8d 4e 1f e2 bf 1b b8 74 7d 8e 1a df 3f
       -0.5663216367027069 0.4859958863406761
000010 91 19 35 37 00 28 e3 3f 75 60 c2 1d 72 b1 e5 bf
       0.5986329153318356 -0.6779108601795217
000020 e6 84 a6 34 cb 10 d5 3f 8b 71 86 d2 e3 22 d8 3f
       0.3291500105061246 0.3771295123967994
000030 6c 1f 77 72 cb 57 9a 3f 72 73 df ed b8 31 e5 3f
       0.025725535260590446 0.6623196264223294
000040 16 5f 2a a7 0f dc e2 bf bd 35 2b 45 40 a2 aa 3f
       -0.5893629326774057 0.05201912731500211
000050 15 8b 21 46 5e 1b e3 bf 64 a6 b9 37 38 f9 b4 3f
       -0.5970908517595911 0.08192778931120298
000060 7e f9 79 da 04 a9 d9 3f e9 f2 dd d1 63 81 68 bf
       0.4009410985526286 -0.0029913854222612846
000070 cd 32 3c 1b 2b 9f c7 3f 4a 0f 52 83 a5 95 de 3f
       0.18454493360368077 0.47788369964859057
000080 e8 64 e9 67 d8 79 cc bf d2 dd 18 e5 ce ec dd 3f
       -0.22246842454732207 0.46757862446562826
000090 c1 ff e1 97 dd a1 e1 3f ca 10 52 2c 3d 06 d3 bf
       0.5510089842282399 -0.2972557957475713
0000a0 c9 3a 51 21 9f e5 de bf eb 6a d4 17 9d a6 de 3f
       -0.4827649903644838 0.47891928984760906
0000b0 08 61 ec 3c be 8b e0 bf b0 dc 2e fe 65 03 e0 bf
       -0.5170584859761513 -0.5004148449433128
0000c0 f6 4a b4 e9 96 2f e4 bf c5 1f ec 19 f1 a3 cd bf
       -0.6308092655693531 -0.23156560674419616
0000d0 d1 e6 45 3c 3b a3 e1 3f 8f 33 c6 13 7c 16 e0 3f
       0.5511757065971442 0.50274471151498
0000e0 65 74 bb df 3a fe dc bf d5 e8 d7 ce 3d e4 dc 3f
       -0.45301696633197813 0.45143075179624975
0000f0 57 a6 5f 52 63 46 b7 3f 15 68 83 28 34 b8 c8 bf
       0.0909177852733135 -0.1931214521235353
000100 7e dc cb 29 b4 bf e3 3f b7 32 ad 9d c3 e8 da 3f
       0.6171513382277138 0.42045679472066005
000110 bd 7c 77 1a b3 d9 cd bf 26 52 7f b5 d9 62 e1 bf
       -0.23320616524049412 -0.5433167023534835
000120 64 23 2f b6 c3 33 c1 bf 36 f4 db 52 e9 4c c3 bf
       -0.13439222713193566 -0.1507846502862848
000130 a6 fd 04 65 7d 49 b3 3f 15 82 24 cc 06 fe e3 bf
       0.07534011570259355 -0.6247591006431913
000140 16 5a 27 8f bc 60 c7 bf a1 1d ad 80 57 af e3 3f
       -0.18263966550758032 0.6151540291984255
000150 7a b6 f4 ab 7a 83 e5 bf 9f 8f 27 a0 38 e9 c7 3f
       -0.6722997053636413 0.1868048460011069
000160 1a c2 e7 fc 26 1b d8 bf f8 be cd 16 e9 d6 e1 3f
       -0.3766572446611761 0.5574841924080536
000170 ed 39 38 21 61 95 b7 3f 4f 81 e4 04 c4 ee d1 3f
       0.09212309895540445 0.28019810178559096
000180 73 f0 e0 36 ec 5c e1 3f dc 99 59 0d b8 6c d0 bf
       0.5425931045388225 -0.25663567832671474
000190 db ad f1 95 ac 64 e3 3f 6e 63 b6 7a 49 f8 d9 bf
       0.6060393265337852 -0.40577923759115364
0001a0 eb 48 4d b4 29 ba af 3f ce 0e 51 ed b4 e4 e3 bf
       0.0619671852679334 -0.6216683039751503
0001b0 34 f2 99 e5 f7 3e c4 3f 7e a6 ec 7f 5c 18 d5 3f
       0.15817164145473017 0.3296118973981733
0001c0 ec c5 f7 a4 b0 1d db bf fe 28 db 0a 71 d2 d3 bf
       -0.4236871348394675 -0.3097193342224641
0001d0 ca 8d 38 9a c1 c3 c1 3f 3d d3 6c a3 ee 29 c0 3f
       0.13878650694196742 0.1262796686147797
0001e0 03 03 0b 24 02 7e e4 3f 68 8b 34 d3 dc bf dd 3f
       0.6403818801846629 0.46483536363137157
0001f0 87 d0 f1 74 29 59 d6 bf ae 68 a2 00 de a7 d0 3f
       -0.34919201298112806 0.2602458006091507
000200 83 ee 1f 73 fa 74 dd 3f 87 01 b6 8f 8e bf bd 3f
       0.46026478998803827 0.11620417603081111
000210 d4 0b 31 06 aa 83 d1 bf 30 d9 b4 2a f7 08 b5 bf
       -0.27366114239356176 -0.0821680526031272
000220 1e 10 0e 2a 8d e4 d8 bf 55 20 76 b6 8d bf e0 3f
       -0.3889496718113622 0.5233830035877057
000230 90 63 a0 2f 4e b5 b3 3f 2a d0 3e 3c 8a ba d4 bf
       0.0769852510715181 -0.32388549693428337
000240 e6 a8 55 4f 35 d4 d5 3f 69 53 1f ed 17 7a d0 bf
       0.34107716319580417 -0.2574519935272322
000250 a2 52 c5 b7 87 e0 d8 bf 97 dc d2 36 cd d0 a1 bf
       -0.388704232658066 -0.034796154920905646
000260 9a 74 ef da c4 9f e3 bf 3f 9c 05 77 f3 ef cc bf
       -0.6132530475694182 -0.22607272445313417
000270 48 ca 88 73 38 7d de 3f 1c 03 e2 97 ea 91 b3 3f
       0.4763928535714155 0.07644525726392398
000280 af 34 cb d9 30 ea df bf 8b 0c a5 85 3f 6a a0 3f
       -0.49866887349055394 0.03206060892491632
000290 2c 22 7b af 1f 73 c9 bf 98 d4 06 0c e5 7a e2 3f
       -0.19882579868705486 0.5775017962356683
0002a0 2e 18 f0 38 e9 d4 a5 bf 13 a7 7e d0 67 74 e0 bf
       -0.04264000721018167 -0.5142096588290052
0002b0 fb d1 2a 5d 74 4f c2 3f 79 34 57 e5 9f 32 c1 3f
       0.14304976033385217 0.1343574399783483
0002c0 e8 6e 67 75 63 37 e1 bf 45 c0 dc 14 2d d1 c8 bf
       -0.5380112927482203 -0.19388354796092436
0002d0 3c 76 9e b8 c7 1d e4 bf 77 27 0a eb 1b b9 d2 3f
       -0.6286352735366516 0.2925481601056314
0002e0 f1 b5 f4 21 85 aa d5 bf 36 d0 15 18 5c 8b de 3f
       -0.33853271785741784 0.47725584365912554
0002f0 84 41 0e 88 7e 81 e5 3f f1 bc 8a bd 37 1d ce 3f
       0.6720574052178994 0.23526665453889664
000300 98 db 6b 1f e3 bb b1 bf a4 b0 6b c8 f7 cb e0 3f
       -0.06927318112489755 0.5248984255281539
000310 1f 4d 44 f5 94 d8 df 3f 5a 3f f4 7e 14 07 b0 bf
       0.4975941081222163 -0.06260803317513589
000320 6d 4d 8c 58 ac 6b cb 3f 7d fc a8 a4 72 f3 e1 bf
       0.21422342609057968 -0.5609677520768767
000330 fd 6a f2 00 08 7d dc bf 0d aa f2 0b 77 53 e2 3f
       -0.4451313027617941 0.5726886018140377
000340 d3 7d 2b 4c 33 27 d3 bf 63 11 cd af 87 0d df 3f
       -0.299267601380021 0.485200807266912
000350 f1 96 a2 87 59 12 e2 3f 43 6e 34 a9 80 72 e0 bf
       0.5647399567721704 -0.5139773659497638
000360 f9 42 66 7c 56 ad d9 3f 7c 23 7b d0 12 22 e2 3f
       0.40120470188507756 0.56665936201999
000370 0c 2e a3 27 02 e0 e0 3f 30 47 a8 bd 1b e9 d6 3f
       0.527344777504767 0.3579778053400444
000380 ef 7d d1 18 cc 94 da bf ae d5 db 27 e4 64 a6 bf
       -0.4153318636290057 -0.04373848902279619
000390 28 e6 23 cc 49 ba d7 3f 39 1f 23 a6 49 5e c9 3f
       0.3707451337391796 0.19818993198554738
0003a0 0c 88 f9 fa a4 62 de 3f da 70 26 23 db 21 e0 3f
       0.4747707796979064 0.5041328131224205
0003b0 b4 71 db 73 da 45 78 3f 9c 3a 9e f0 09 07 e3 3f
       0.005925992327061303 0.5946092319080267
0003c0 c7 22 6e 84 e6 95 df 3f 7b 39 29 4a 86 5f 91 bf
       0.4935241978896951 -0.016965959812574632
0003d0 79 da 32 96 1b 70 d7 bf 08 19 94 55 fc a6 79 bf
       -0.36621751468502556 -0.006262765580009828
0003e0 bb db a0 23 88 52 ce bf ac 63 2f 03 d8 e9 c4 bf
       -0.23689367046037355 -0.16338634639285254
0003f0 78 a2 ce c0 d6 16 ca 3f 08 89 4b 8a 97 37 e3 3f
       0.20382198728954726 0.6005361271930107
000400 09 4f 90 a3 e7 b3 c7 3f c0 a0 40 da d5 e8 e4 3f
       0.18517775999554711 0.6534222853415699
000410 78 32 01 e2 a1 1e b1 bf 84 f2 41 45 80 e5 b3 3f
       -0.0668736626404981 0.0777206582151369
000420 00 24 47 76 46 3c c9 bf aa 1a 81 9c ca 86 d1 3f
       -0.1971519544152045 0.27385201724647834
000430 78 67 a8 1c a7 d2 84 bf 96 f0 a8 7d a9 59 c5 3f
       -0.010167413293902902 0.16679876933801968
000440 21 94 9b 95 d1 a1 d7 3f b6 20 fb 5f 39 b9 ae bf
       0.3692516289723376 -0.060006897894312614
000450 fc f9 b6 66 02 0d d8 bf 28 f7 28 d0 2b 69 d9 3f
       -0.37579402952897545 0.39704413726927834
000460 bf 92 f4 70 33 23 e4 bf a2 93 6d 95 13 d0 d7 bf
       -0.6292969900283295 -0.3720749816187042
000470 fa 23 65 0b 54 ee a7 3f 4e ac 5f a1 b6 a6 e2 3f
       0.046740175620079996 0.5828507568197752
000480 63 d2 8c 16 5b cb ae bf c0 e4 33 f8 c6 94 de 3f
       -0.06014523172635646 0.47783064116044827
000490 3c ba d3 89 f7 12 c3 bf 35 2b e4 3e 8a e6 cc bf
       -0.14901632528149544 -0.2257855231367444
0004a0 01 d0 6b 21 f4 a5 d5 3f e0 2e 78 31 dc 24 a1 3f
       0.3382540060404154 0.03348434547305401
0004b0 f7 32 4a e3 5c 8f de bf 14 74 f6 7b 98 06 e4 bf
       -0.47750017353318647 -0.6258051320215849
0004c0 ce c0 4b a6 56 98 d7 bf 17 4a 9d c2 b6 c9 dd 3f
       -0.36867300262293845 0.4654366398364415
0004d0 89 95 80 9a 71 19 cb 3f 6f ae 4e 37 32 b2 d4 bf
       0.21171398204857564 -0.3233762302504379
0004e0 f3 4f b0 c0 fb e4 df bf 11 01 ed 0c 88 cf b1 3f
       -0.49835103814370924 0.06957292857714871
0004f0 34 d5 84 b1 85 c7 e0 bf 19 12 94 56 ae c4 ca 3f
       -0.5243557421842184 0.20912722804509157
000500 6e 4a ff 05 94 f2 b4 3f ee 61 96 84 18 1c c2 3f
       0.08182644983689055 0.1414824149512834
000510 09 e6 8f 99 0c cb 9c bf d2 71 6b 71 05 7f c3 3f
       -0.02811832129734707 0.15231388128348883
000520 79 a6 cd 8d 05 3b d2 3f c6 7e 0d 2e 68 8c d9 bf
       0.2848523983762799 -0.3991947602971603
000530 fa 3d 65 13 d2 8d bd bf 57 35 83 ac 2b c1 bb bf
       -0.11544526074907671 -0.10841629945499186
000540 39 9f 0c 45 46 1c b5 bf f9 d1 59 62 87 55 e0 bf
       -0.0824626844956783 -0.5104405327716101
000550 b8 c6 a0 a7 5e a6 d3 bf aa ac 50 fe aa ca d7 bf
       -0.3070294033997061 -0.3717448695703732
000560 7a 7d 50 c4 a7 01 e1 3f d1 19 36 fe 57 d3 9b 3f
       0.531452067782012 0.02717339982111772
000570 fe cc 73 47 06 9f d5 bf dd 05 47 fc 99 67 d9 3f
       -0.3378310869004081 0.39694833408802116
000580 8c fc ad 86 3c e5 89 bf 65 80 9c cf 7f 9e d3 bf
       -0.012644265041443135 -0.30654902720016813
000590 16 cd 35 b4 86 5a df bf 81 63 81 ba 07 1f be bf
       -0.48990027998589036 -0.11766098311762897
0005a0 2f dc 36 43 ec 63 ca 3f eb 87 2b 78 19 d8 d5 bf
       0.20617440492580516 -0.3413146661315511
0005b0 dc 19 fc 85 95 12 de bf 17 1b 9a ed 06 fb d3 3f
       -0.4698842819638267 0.3121964760143085
0005c0 a9 34 e1 1a 1a bd e4 3f 8b 0d f5 97 0a 94 ca 3f
       0.6480837368959743 0.20764286441599852
0005d0 36 ea ba 7b 34 e5 d0 bf 65 10 05 8e 4b 02 c3 3f
       -0.26398956378003235 0.14850754198608054
0005e0 c1 0e 28 03 60 98 b9 3f 30 16 94 bb f6 31 e0 bf
       0.09998130871832257 -0.5060990966455332
0005f0 de 84 0a 06 ee 08 98 3f 01 b2 c6 21 78 73 ae 3f
       0.023471564406126848 0.05947471058184207
000600 c4 91 06 5d 00 5e e0 bf 51 55 f5 48 ec c6 bf 3f
       -0.5114747826487975 0.12412907391747764
000610 28 39 eb ef ef 2e c9 bf 22 45 82 ed d5 01 d9 3f
       -0.19674491133486893 0.3907370395109685
000620 f0 7a 2c d4 44 f4 d9 3f 0d 4b b6 24 a2 59 a3 3f
       0.40553398819058284 0.03779322336335698
000630 b2 8f 68 b0 6c cf e0 3f 4d 41 ab 05 60 cc 90 3f
       0.5253203816869159 0.01640462908363931

fc_in.bias f8 [100]
000000 e1 bf 8c 35 3c 74 e2 3f 9c 8a 71 6a 65 5a e0 bf
       0.5766888662237727 -0.5110346869444871
000010 53 f4 d3 6a 6e 72 d6 bf f8 fa df ec 11 83 ca bf
       -0.35073433334747967 -0.20712493959577905
000020 6d 77 02 ff 93 b4 78 bf 25 96 71 f8 74 a8 d7 3f
       -0.006031587705505587 0.3696567941863996
000030 c1 dc 4d a4 1d b4 96 3f cc 4d 55 83 8b 09 cf bf
       0.022171462205247353 -0.24247878945116808
000040 f5 9c f0 82 3f f8 e0 3f f1 89 11 c1 3f 5f d7 bf
       0.530303722135527 -0.3651885400232962
000050 f6 1f 77 83 73 ef cc bf 2c 7c 6b 62 8c f7 c1 3f
       -0.2260574714584888 0.14036707692773243
000060 f0 23 75 0e ac 0c db 3f 79 78 a1 be 5c 46 c7 3f
       0.42264844333527574 0.18183478649274656
000070 5b 41 b0 dc 6e 1a d4 3f e7 85 21 b5 6d 50 d4 bf
       0.3141133456383806 -0.31740896881646424
000080 7f 86 79 a9 d0 1a be 3f ba cc 6f 40 5f 3f ae 3f
       0.11759666574064374 0.0590772405775168
000090 b3 46 8e ec 39 7e c3 bf 6e 1a f6 7d 8c c1 bb bf
       -0.15228961992811704 -0.1084220702669911
0000a0 f1 f4 e4 b2 00 68 d3 bf b4 9e ed 21 07 8d d0 bf
       -0.3032228228583583 -0.25860765755940496
0000b0 69 4c f1 84 0e 62 e2 bf 42 31 06 65 bb eb c7 3f
       -0.574469813970052 0.18688147003957495
0000c0 57 98 b4 d9 4c 9a de bf b4 d4 af 98 8b 73 ba bf
       -0.4781677366285115 -0.10332558133798636
0000d0 16 ee fc 24 be 64 b5 bf c2 f7 a0 63 fd 91 c8 bf
       -0.08356846240069901 -0.19195525517164752
0000e0 84 6c 61 78 39 e1 bc bf 41 d7 10 ef 2c 26 db bf
       -0.11281165303209845 -0.4242050490023424
0000f0 4a f0 da c7 a1 dd d5 bf a3 b2 ab 2d 65 a1 ce 3f
       -0.3416523410521718 0.23930039148344404
000100 76 34 99 ae f8 29 e3 bf 40 c2 9f 7e a1 56 c1 bf
       -0.5988734636427029 -0.13545626337828942
000110 92 01 dd 8c 7d 3a a2 bf 84 e3 3b 10 5a b7 96 3f
       -0.03560249657175797 0.022183806649056517
000120 86 9d 92 b0 9e eb d4 bf e0 4f bd d3 91 a6 b2 bf
       -0.3268810963004046 -0.07285415095731151
000130 c9 58 78 83 a3 2b a2 bf 65 26 fe 8e bd 15 e5 bf
       -0.0354891870485275 -0.658903865130196
000140 74 88 35 63 67 0a e1 bf 6f 3a 23 b4 9c 95 e1 3f
       -0.5325200021436687 0.5495131986916258
000150 e2 ea 6b 94 f2 65 d6 bf f0 68 d4 9e 2c f7 d8 3f
       -0.34997238630573524 0.39008632193294
000160 67 c9 04 f7 a0 32 af bf c4 a5 88 1e 19 42 c3 bf
       -0.060933141854905774 -0.15045465460688778
000170 58 fe f0 3b 92 61 db bf 0e f1 42 43 89 ba dd bf
       -0.4278302750935601 -0.4645102650499816
000180 44 dc b6 67 9a d6 da bf 1e b7 59 93 11 fa e1 bf
       -0.41934833649014913 -0.5617759588182911
000190 2b cd c4 5c 90 e5 b0 bf 62 ff cb 98 d2 a7 dc 3f
       -0.06600286736356924 0.4477430812985316
0001a0 6c e2 38 7f 84 fc dd bf c9 a5 95 d7 f9 63 a3 3f
       -0.46853744911235284 0.03787213093421433
0001b0 ef 20 1e 40 e6 bd dd 3f 3e 30 db c1 18 5f d2 3f
       0.4647155405186955 0.28705424243230826
0001c0 0d 35 30 71 cf a0 d8 3f 5b 7f 8b 99 f3 8f d8 bf
       0.38481508306070183 -0.3837861060583145
0001d0 cf 83 ff 35 32 37 e1 bf a2 02 0b dc 2a 02 e2 3f
       -0.5379878096247185 0.5627645776476877
0001e0 53 c1 2b 80 a6 20 d0 bf 9c 26 c6 59 eb b8 cd bf
       -0.2519928218526008 -0.23220579036233324
0001f0 c0 c7 71 48 93 33 d3 bf 6d 7e fa ad bc 93 dd 3f
       -0.3000229079690335 0.4621421526917178
000200 8b 7f e1 a3 9b 34 ac 3f be b0 48 95 ab b3 d3 3f
       0.055088866953837266 0.3078412015772861
000210 cf 15 5c f3 80 d1 aa 3f 6c 55 a5 d6 1b 4a b4 bf
       0.052379636485095575 -0.07925580969216178
000220 73 0e 8f b8 31 a1 e1 bf 53 f7 85 7e 66 08 e4 3f
       -0.550927029100832 0.6260254355581573
000230 d8 61 c2 54 c6 a7 b8 bf a8 2a b3 b0 ad 83 b5 3f
       -0.09631003922766668 0.08404050411187802
000240 b0 cf 59 89 fb f9 c8 3f d3 ac 0c af be 1e e2 bf
       0.19512886244376437 -0.5662530344901832
000250 a5 08 7d ec 86 d0 dd 3f a5 a4 72 d4 04 1c e3 3f
       0.4658524808365974 0.5971702718135431
000260 64 01 4c 9b a9 ba d7 bf 8c b4 d2 01 0d cd e2 3f
       -0.3707679764338734 0.5875306163412843
000270 b9 af 6b 2e 89 1a a8 bf 84 2b fd 99 8b ed d3 3f
       -0.04707745258005453 0.31137361562712607
000280 93 da 4a 32 a9 c9 df 3f 01 47 03 be 95 ae 81 3f
       0.49668340598456345 0.008633775578718696
000290 b9 6d a1 62 7d d4 d6 bf e8 09 b0 be 19 09 bb 3f
       -0.35671934730427385 0.10560761361561044
0002a0 f3 c2 f8 bf be 38 e2 3f 1e ab 4d d3 61 33 e0 bf
       0.5694268941352604 -0.5062722327250844
0002b0 5e 85 d1 fc cd 43 bb bf 9d cb 34 dc 52 bd df bf
       -0.10650336668324686 -0.49593039993777116
0002c0 ec 7c 38 ac 90 e8 d8 bf f9 38 6e bf b5 d5 ab 3f
       -0.3891946489183755 0.054364852540958304
0002d0 3f 7a 09 e4 96 28 e3 bf ee 1c d9 ac c7 db c8 3f
       -0.5987047628257826 0.19420715274666328
0002e0 ee f6 52 19 e4 9f c0 bf 1c 74 42 70 da 52 d1 3f
       -0.12987948643233643 0.2706819626126291
0002f0 c3 6c a5 5f 4f fd 9c bf 24 0a 3d 71 78 9b be bf
       -0.028310051167278482 -0.11955979122743848
000300 af e6 55 16 f3 36 b2 bf 26 84 c5 d0 b8 7d c4 bf
       -0.07115096373845618 -0.16008672899173
000310 ed 99 f0 fe 82 c6 d1 3f b1 8f 28 f8 96 cc c7 3f
       0.2777411927840195 0.18593108288871243

fc_out.weight f8 [1, 100]
000000 02 ba 32 7a cf 23 7f 3f f9 e7 fa b5 81 8b 65 3f
       0.007602510889383131 0.002629998532793995
000010 99 fd d1 42 14 e7 90 3f 70 d6 03 b7 d2 cc 80 3f
       0.01650649698103521 0.008203169069456367
000020 c6 0e fd db b3 74 8e 3f 19 7d eb b6 65 a5 99 3f
       0.0148710299978413 0.025045003213446913
000030 1d 0e f2 9c 0b 61 80 bf 1c 4d 23 bf d4 1a 7c bf
       -0.007997599341485412 -0.006861525575192286
000040 b0 6b eb 04 41 15 89 bf 28 52 94 76 59 05 8b bf
       -0.012247570002207414 -0.01319379704595132
000050 aa 05 7c d3 18 de 89 bf 45 1a b3 bb 75 a7 95 bf
       -0.01263064761542661 -0.021146621304774866
000060 73 98 53 f8 a5 a7 96 3f 90 3f b5 e0 90 c3 73 bf
       0.022123902589463684 -0.004825178078433981
000070 6c 77 92 21 a9 01 5a 3f 34 cc 00 4c f6 f6 90 3f
       0.0015873099967289262 0.016567085636961035
000080 5c 1b 08 9f db e8 8b bf a9 e8 00 22 fa 66 99 bf
       -0.013627734938393914 -0.024806888890659327
000090 16 85 c6 5c 00 7a 86 3f 0d 78 ee 90 be e1 9b 3f
       0.010974886733324623 0.02722833404151719
0000a0 2d 12 68 cc 8a 0d 96 3f 5e 6e 76 0d d1 92 90 3f
       0.021536034322723708 0.016185060927098475
0000b0 75 cf 04 d5 2e 0b 96 3f 19 c1 7a fe 9e 60 14 3f
       0.02152703452266232 7.773371145947497e-05
0000c0 c0 48 81 97 21 2c 9a 3f 14 a0 7a aa b5 47 81 bf
       0.025558972236759514 -0.008437556519609792
0000d0 4b f4 ad ae 43 c0 61 bf 0b 07 f5 e1 13 70 84 3f
       -0.002166874115060701 0.009979396184124597
0000e0 7e 3a 43 77 37 c1 91 3f aa 4f 09 d3 a7 47 24 3f
       0.017338625578128923 0.0001547233928415025
0000f0 94 9e 67 5f 9f f2 85 bf b2 a5 86 c1 06 db 84 bf
       -0.010716672038099596 -0.010183384686416417
000100 b5 72 3a 8f a7 7e 8c 3f 10 b2 34 32 bb 2a 6d 3f
       0.013913449343186593 0.003560414903083016
000110 04 b4 50 98 73 f7 90 3f fa e4 6c 2a 5f 0d 80 3f
       0.016568952724060906 0.007838004572124014
000120 34 2c bb 32 e4 d7 01 3f 88 55 fb dd 19 c8 75 3f
       3.403344302695851e-05 0.005317784350798667
000130 35 f9 d6 ad 4d 6a 7c bf f4 fb d7 d3 e1 e6 a0 bf
       -0.006937316354593205 -0.033011490926575876
000140 98 61 0e cd 1b 88 85 3f b0 21 45 07 6f e9 aa bf
       0.010513512797658817 -0.052562207829910945
000150 8d 23 39 05 63 86 46 bf c6 a9 31 b1 86 4a 63 3f
       -0.0006874068735181913 0.0023548727709130383
000160 13 9f 04 3f 70 f3 a0 3f 0a e4 be 0c ed af 7e 3f
       0.03310728806746801 0.007491994834645696
000170 28 27 94 fa 90 ba 70 bf 28 76 7c 35 25 08 99 bf
       -0.0040841735110548685 -0.02444513453439448
000180 14 d6 b9 84 f1 2f 9b bf 7c 84 7c 6b 79 f2 74 bf
       -0.026550077176997602 -0.005114054008829357
000190 fa 8d 12 a1 89 db 73 3f 8f a9 4f 30 2e 9b 67 bf
       0.0048480392589769165 -0.0028816129802084543
0001a0 7f 53 c8 0c d4 83 9a 3f c4 40 46 40 c6 a9 a8 3f
       0.025893510132010796 0.04817027601814197
0001b0 a2 e5 90 30 8a 8a 82 bf 02 7e 9e 11 e8 79 9a bf
       -0.009053306204907244 -0.02585566146410479
0001c0 8c 15 ef 01 d0 80 7a bf 05 c2 3d 9e 26 20 78 3f
       -0.006470501451024357 0.005890036441869477
0001d0 2e e9 0c 25 ae d4 95 bf a9 d2 48 52 c2 d5 98 bf
       -0.021319123278979273 -0.024252926132435935
0001e0 b5 60 68 a7 f8 5c 92 3f f2 da 79 61 ed bc 89 3f
       0.017932782380825702 0.012567381417495114
0001f0 30 a0 3c 91 5d 13 5b 3f fd 74 12 e5 ec 59 e9 3e
       0.0016525663131208394 1.2088428009977224e-05
000200 74 d5 77 e4 a0 ab a0 bf 98 6e 39 b1 07 e9 8f 3f
       -0.03255942143361326 0.015581188293416745
000210 c5 a0 4e 79 19 1a 7d 3f d8 30 53 05 d5 a2 78 3f
       0.007104968554735251 0.00601466380357981
000220 15 0a ea 54 2c c6 8b 3f ae 08 74 e0 e7 28 7c 3f
       0.013561579076172095 0.00687494828093997
000230 c0 a7 d8 9f 0a f4 93 3f 4e 6e 0e 8b c3 0d 78 bf
       0.01948563194870423 -0.0058725012212579985
000240 9a 34 80 11 87 1c a0 3f ea 1d 33 53 c0 ac 84 3f
       0.03146764839775891 0.0100951218977476
000250 12 c1 d6 69 62 0e 83 bf 2c 47 a3 f4 97 ea a6 3f
       -0.009304779868074795 0.04475855695058181
000260 d6 f5 d6 73 1e b0 6b 3f 6c 67 fc ab 9f 31 9a 3f
       0.0033798784995428916 0.025579924461545486
000270 63 37 ae 99 c9 55 61 bf a1 44 07 d0 91 7b 90 3f
       -0.0021161019807953026 0.016096380540891023
000280 a5 29 ad bb 47 11 95 bf f1 79 95 25 1d e9 1c 3f
       -0.020573731260165613 0.00011028519056342064
000290 ee 30 40 6f 6c 15 83 bf 05 64 cf 0b 68 46 84 bf
       -0.009318205971816398 -0.009899914608398683
0002a0 c1 e2 41 b3 67 15 6e 3f 8b 7e bc a8 ac cf 90 bf
       0.003672316112041635 -0.016417215155455394
0002b0 70 5c 0d c8 45 cc 8f bf 82 1a 82 ee ac 32 9d bf
       -0.015526337783440008 -0.02851362424601201
0002c0 87 69 d5 1d e5 d2 78 3f e8 2b f6 1a 78 64 5e bf
       0.006060500132060282 -0.0018550084022048666
0002d0 3a 3d 44 37 fb 62 83 bf 7c 91 9a 45 42 10 99 bf
       -0.009466135620214023 -0.02447608518436216
0002e0 76 30 0f e9 27 66 8a 3f 81 38 b9 f7 e5 c1 77 bf
       0.012890159416109475 -0.005800150214396394
0002f0 e7 41 2a 28 42 ad 8b bf ca 5b 3a 11 d7 c2 9d bf
       -0.013514057970753291 -0.02906356852198736
000300 92 12 05 0e ca b6 8b 3f db bf 50 1e 32 c0 97 3f
       0.013532236626482761 0.023194106197649816
000310 e7 49 78 b5 75 0d 9f 3f 25 ee 50 d5 9e 5c 96 bf
       0.03032478256324991 -0.02183769394853931

fc_out.bias f8 [1]
000000 0b 96 76 db 0e 78 71 3f
       0.004264886890643203

fc_hidden_list.0.weight f8 [100, 100]
000000 9f 52 f2 f8 af 6e a5 3f a0 44 82 93 15 b9 4e 3f
       0.04186010278605078 0.0009375911095209806
000010 7b 09 d1 03 44 db a9 bf 3c 58 f9 0b 4d 5d a8 bf
       -0.050500989404571116 -0.04758682986418747
000020 12 bf aa 17 b7 e3 b4 3f a1 78 08 a8 2c 1d ae bf
       0.08159965827757912 -0.058816333305217634
000030 39 75 44 d5 b5 37 66 3f bd 08 86 59 61 65 b2 3f
       0.002712111609197845 0.07185944018968633
000040 89 cc dd 83 21 d6 9a bf 63 cd 14 e7 71 5b 87 bf
       -0.026207469628797973 -0.011404886116543172
000050 da 48 f5 92 f4 c2 b2 bf f5 79 94 8f d5 84 a0 bf
       -0.07328728282780919 -0.03226344468770385
000060 5b 77 32 0f 2c 88 a5 bf ec c1 f4 bc df 82 87 bf
       -0.04205453572761427 -0.011480091051084572
000070 95 c0 05 d6 95 62 b3 3f 3a 54 60 60 a6 83 ac 3f
       0.07572304225118594 0.055691909088786365
000080 e8 ee 1b 89 6e b5 aa bf 3b 2b 43 9c cb c7 b1 bf
       -0.05216546462722055 -0.06945488514899704
000090 3d b7 17 cc 04 d9 b4 3f 6a 25 22 6e 90 e6 a1 3f
       0.08143644316416228 0.0349621900978246
0000a0 f2 ab 33 38 d8 4f 68 bf a5 ad d7 02 db 2d b5 3f
       -0.002967760375772504 0.08273094958683787
0000b0 c3 02 f6 6a be 3a b4 3f 2f d8 7e 51 cc 8b b7 3f
       0.07902135955192606 0.09197690000186819
0000c0 87 eb 63 12 52 09 b8 bf 81 0a c3 1b 5c 80 a3 bf
       -0.0938922209642624 -0.03808868254556775
0000d0 01 9d 88 26 a1 83 8a bf 4c 4a 1b 21 5d b5 a8 3f
       -0.012946375835851233 0.04825869588025408
0000e0 5a 23 d5 de ec a2 6d 3f 85 6c fe 7f 19 52 9d bf
       0.003617727887704464 -0.02863349765503333
0000f0 1e 4f ea 22 9e cd ad 3f 0c 5c 06 eb 97 c2 a4 bf
       0.05820936371051587 -0.040547130050235664
000100 7c 89 45 e1 11 22 ae bf 26 5c 50 26 5a 07 a9 3f
       -0.05885368227861229 0.04888421743105935
000110 b3 83 23 da b6 5b 68 bf 8e 44 44 d7 24 93 bc bf
       -0.0029734202699817857 -0.111620237880077
000120 94 43 81 cb 32 0c b7 bf 47 06 9d 90 91 e4 a9 bf
       -0.09002988308317433 -0.050571965125084044
000130 33 fa b4 a1 9f 0d aa 3f cc c1 0a ae 08 a1 82 3f
       0.050885189523331674 0.009096210299817019
000140 98 ec 33 35 1e 45 ad 3f 77 55 0a 1c ce bc a9 3f
       0.05716795348595233 0.050268593714615166
000150 ff 17 0e a1 35 c9 bb bf cc df 48 c5 ca c0 af bf
       -0.1085389631462874 -0.06201776178608007
000160 3a 73 bd f8 67 82 b2 3f 8b 76 57 08 1e 7b b0 3f
       0.07230233977084036 0.0643786211362231
000170 b5 15 13 05 3e 32 b8 bf 4f 54 e1 35 37 7c b6 3f
       -0.09451663612261181 0.08783288064417259
000180 5b 36 0c 62 f2 22 87 bf 7f dd b2 23 ff 51 b9 3f
       -0.011297124497583846 0.09890741941022972
000190 d3 6f 11 8b 59 15 bf bf ae a5 20 7c 5e 4f be 3f
       -0.12141952176301567 0.11839857607323864
0001a0 e8 c2 9b 94 a7 3d b0 bf 19 23 7d 83 23 d7 b7 bf
       -0.06344077470908938 -0.09312650642563049
0001b0 57 8e 88 90 07 13 97 3f e4 32 5a 12 78 fd b7 3f
       0.022533529469127647 0.09371138046317246
0001c0 80 60 dc da d0 25 af 3f 98 1f 21 42 dd f0 bc 3f
       0.060835386959468885 0.11305029739844341
0001d0 48 ae e5 0f ba a5 9b bf 22 81 ea 95 77 a9 ba 3f
       -0.02699938509014846 0.10414836320933721
0001e0 ed 14 d5 5d c1 32 a1 bf ee 61 f1 66 6c b6 a0 bf
       -0.03359035749830661 -0.03264178043963627
0001f0 2e 49 03 1d ef f9 b6 bf 07 17 04 6f 01 61 b1 bf
       -0.08975119074174095 -0.06788643799162851
000200 85 87 6d 80 23 e2 a1 bf 05 91 90 2d 7c f3 ad bf
       -0.034928426196315455 -0.05849826866350053
000210 57 af 6a ee d6 fe 7a 3f 16 ec 6c dc ff f6 b3 3f
       0.006590690207911218 0.0779876626155985
000220 13 50 68 fd f1 61 a7 bf c0 9b f8 0d 9c 17 b0 bf
       -0.04566913812973907 -0.06286025372592885
000230 57 3b 1b 71 42 90 a5 3f 6d 9b 48 a2 8b 5e aa bf
       0.04211623793309254 -0.051502574501049427
000240 22 34 b7 d0 81 44 a7 bf db 65 40 c1 77 b1 a5 bf
       -0.045444542625411324 -0.04236959680583726
000250 01 21 fc b8 ae 9d b3 bf 17 6c 84 aa ca a7 bc bf
       -0.07662479416115177 -0.11193529761332886
000260 d4 ca df 6c a2 4d b1 3f df d0 a7 d6 6e b9 87 bf
       0.06759085805951354 -0.011584154058234151
000270 7d aa 63 81 19 d1 b2 bf 25 09 27 25 5b f0 50 bf
       -0.07350310715598059 -0.0010338678444986118
000280 37 2b 7d 97 ec 06 89 3f b3 a9 97 1a cd 1c ab bf
       0.012220238087726194 -0.05295411061873114
000290 37 9c ed 65 0e 27 a5 bf 4b c1 62 31 fa 56 b2 bf
       -0.0413136004852323 -0.07163966851908758
0002a0 61 f8 b7 3a a2 da a2 bf 52 08 19 06 e9 59 ab 3f
       -0.03682429281978795 0.05342033576427298
0002b0 13 90 84 8f 2a de 9e 3f 74 c5 78 73 76 0d 41 bf
       0.03014437199557569 -0.0005204037069629756
0002c0 30 91 77 b4 f8 0f b5 3f db 6a a7 ea a9 38 86 3f
       0.08227495580610333 0.010850265000887862
0002d0 64 de 51 d9 b9 99 b8 3f 62 dd 9e a4 8c b6 c0 3f
       0.09609567218455478 0.13057096517671157
0002e0 b1 e3 80 dd 71 4f 86 3f 21 fd df 67 ab 32 9e 3f
       0.010893716404199201 0.029490164008163625
0002f0 b1 cd 3a e2 00 04 b6 bf ed f7 d9 7d e1 cd b0 3f
       -0.08599858782945692 0.06564149210495858
000300 20 f2 3c e1 2c 00 65 3f 63 50 03 27 56 9e b6 bf
       0.002563560157709213 -0.08835352375473486
000310 e8 1e 39 f5 36 59 a4 bf bb b3 da 91 71 9c 9c bf
       -0.03974315398641953 -0.02794053509449033
000320 7a 2b c6 0c b9 f9 37 3f af cd 14 ab dd 69 a5 bf
       0.0003658367902736253 -0.04182331765550928
000330 67 84 80 07 63 a0 a9 3f e7 f8 7f a7 31 ea b5 bf
       0.05005177942826649 -0.08560476626732659
000340 05 ec db c1 bc 68 af bf bf 7a 3b cc 77 64 b0 3f
       -0.061345957436024924 0.06403301941052585
000350 49 56 83 da ae bb af bf 25 49 1d 48 c1 a2 b4 bf
       -0.06197878281970454 -0.0806084443150082
000360 a0 1c 47 1a ed a8 a2 bf 89 a9 fd 79 30 55 9e 3f
       -0.03644505449079216 0.029621846624118518
000370 e1 a2 10 f9 1c 07 ac bf ff de 90 20 34 ae b4 3f
       -0.05474176922172603 0.0807831363207434
000380 87 dd 46 19 17 7a 79 bf 6c eb a4 db 6f 08 b9 bf
       -0.006219949941104536 -0.09778498756797455
000390 5f eb 22 f5 cd f1 a9 3f ce 96 cc 2d 7d 14 af 3f
       0.05067294709575409 0.06070319351264929
0003a0 ef 2f 55 98 c8 5e a0 bf 10 13 4e a7 46 8d b8 3f
       -0.03197314128428263 0.09590570053667258
0003b0 39 e1 e8 91 2a e1 a7 bf f0 c5 b0 fe 09 64 a3 bf
       -0.04663975745319466 -0.037872612323905375
0003c0 43 38 46 98 8d 0e 83 bf b6 17 51 b9 66 28 b5 3f
       -0.009305101594488835 0.08264772438368947
0003d0 6d e8 e1 9b 7f a6 a1 3f 53 1f 76 81 b1 8c b0 3f
       0.034473407534236646 0.06464681063345994
0003e0 59 99 52 61 d7 ff b6 3f 17 5f 68 7f 07 08 9f 3f
       0.08984132886926001 0.030304066802357612
0003f0 82 8d c0 bb e8 30 b6 3f eb f0 f9 46 e0 3c 84 3f
       0.08668379386704397 0.009881736913705605
000400 f8 61 78 b1 54 43 ac bf 19 e7 eb df fa e3 7e 3f
       -0.05520119348892999 0.007541637400885448
000410 8d 78 48 3b 86 6d ad 3f d4 54 fb 96 6c 22 ba bf
       0.05747622941656614 -0.10208777128294183
000420 5f 41 e6 a0 19 74 b6 bf 52 01 8d 60 7f d2 a2 3f
       -0.0877090471096884 0.036762218986498355
000430 8f 5d 3c f3 15 ab 97 bf cd 3d ed 10 3b 7a b2 bf
       -0.023113577814994065 -0.07217759288072685
000440 b4 cc ae 40 70 d0 b5 3f 23 db 16 03 b2 02 ac bf
       0.08521176890535537 -0.05470806396208718
000450 50 aa cb 3f bb ef 9c bf de 94 e0 1e 70 a1 9d 3f
       -0.028258252877018386 0.028936149487113087
000460 fd 47 97 52 bf e7 95 3f da 14 7a 0f 76 54 96 3f
       0.021391858497572958 0.021806568808206396
000470 c1 99 3b c4 de af b5 3f a9 04 54 00 d5 b7 b5 3f
       0.08471481600609022 0.08483630426418877
000480 c4 03 fe b7 b2 e0 a6 3f 6a d9 a1 cd f4 fe 8f bf
       0.04468306060790142 -0.0156230092290854
000490 c3 af 8e 3a 54 cd a5 3f a6 73 fc 70 aa 71 af bf
       0.04258216109096182 -0.06141407613015497
0004a0 c8 1a 97 3c fd a7 ac 3f 5a 69 58 47 31 83 ab 3f
       0.05596915592791657 0.053735294303083506
0004b0 88 cd 19 51 25 17 b3 3f ad db 65 78 0d e0 7b 3f
       0.07457192640304389 0.0068054701026686705
0004c0 fa 6d 11 fe b1 0b af 3f 9a f8 c6 05 43 9a 95 bf
       0.06063610292832418 -0.021096274592985333
0004d0 4b c1 26 83 c9 05 a4 3f 2a 25 e4 1d 8c 83 a9 bf
       0.03910665250748709 -0.04983175148852077
0004e0 ed 23 33 7d dd 12 bb bf e5 ec 63 9f 28 93 92 bf
       -0.10575660997996268 -0.018139490822233113
0004f0 bc 1a 5d a7 47 29 b4 bf 76 3a f0 00 2b f5 ba bf
       -0.07875488124873703 -0.10530346653852427
000500 1c 17 08 b6 1f c0 73 3f 70 f9 01 a3 ed 44 a7 3f
       0.0048218954766577025 0.04544775595512618
000510 49 7a d0 03 9b d9 b0 3f 75 3a f6 ae 23 42 73 bf
       0.06582039683460396 -0.0047017473110729695
000520 a2 b1 21 1e 53 17 92 3f fa 1c f2 b0 04 dd aa 3f
       0.017667101587379393 0.052467485999892774
000530 46 cf 48 2c 7e 21 b0 3f 13 43 30 4a bf 1c b4 bf
       0.06301106053507252 -0.07856364785426377
000540 9b 0a b1 a2 1d cf b1 bf 74 7f 8f d8 58 99 a1 3f
       -0.0695665857502185 0.034373070178616155
000550 04 5f d4 48 a4 86 b5 3f 2a 7c 07 d8 4c f8 ab 3f
       0.08408571985307495 0.05462875496936477
000560 a2 16 d2 b7 72 1c 9b 3f 13 74 85 12 90 61 a0 bf
       0.02647570845558412 -0.03199434496011846
000570 81 31 53 d7 16 6e aa 3f d4 88 86 5a e1 38 92 3f
       0.05162116411665619 0.017795106077422698
000580 30 f7 fc 2a 34 2f 99 3f 4b 82 fb 9a c8 55 87 3f
       0.024594130634105926 0.011394088010491596
000590 3d ed ab f3 a4 c5 b5 3f ca 2e f4 95 e7 83 89 bf
       0.0850470633412685 -0.012458619369247432
0005a0 22 cb 38 e7 38 e4 a5 3f fd 8d 0d e4 16 57 b4 bf
       0.04275682280094474 -0.07945387904833719
0005b0 4a c1 0e 89 f4 bd a4 bf 30 c5 ac 20 09 05 5e 3f
       -0.04051174328867775 0.0018322552811692143
0005c0 0a 3a 22 14 85 da 61 bf 86 2a cc 93 e6 f4 b0 3f
       -0.002179393691285063 0.06623688801134095
0005d0 34 aa c6 6d b9 88 79 3f 9d 3b 35 10 9e 99 7e bf
       0.006233906108188015 -0.007470719752133895
0005e0 e8 22 e8 11 e0 b8 9a 3f ab c8 1d 89 b7 f7 9c bf
       0.026095868199294353 -0.02828871511832946
0005f0 ab 6f c4 e1 1d 21 b3 bf e6 ad 68 15 7b 4f b0 3f
       -0.0747240711393135 0.06371278069189365
000600 77 b6 93 4a eb 24 a9 bf 6c f2 8f 53 42 e3 b2 3f
       -0.04910979543079191 0.0737801984796051
000610 79 46 0b 71 aa dd b6 3f ef 56 4f b8 f4 5b b0 bf
       0.08931985149254186 -0.06390313625101006
000620 69 6b 42 de 6b 26 b8 3f 43 ff cd bb e7 db 94 bf
       0.0943362634301771 -0.020370121801078566
000630 d6 87 de 57 59 f7 b8 bf 80 81 46 f1 3a d5 73 3f
       -0.09752424617047892 0.004842024082251206
000640 2d f9 d9 b9 71 b5 b0 bf c8 a3 22 46 76 1a 97 3f
       -0.0652686194170868 0.02256188204833956
000650 17 c6 10 aa 3f 67 a6 bf 08 14 bb ab db 51 b6 bf
       -0.04375647498126172 -0.08718655531545505
000660 ec 7b 9f 58 16 17 94 3f 21 7c b9 2a e1 d2 aa 3f
       0.01961932102119228 0.052390133347892005
000670 e9 ff 0a 6d ed d9 b0 bf 44 cb 89 43 c2 d3 b5 bf
       -0.06582530891591855 -0.08526243351824997
000680 ad 92 2e 94 ff 2f c1 bf 87 38 59 02 f8 f0 a6 3f
       -0.13427729354329668 0.04480719593685572
000690 e7 ed 64 66 f5 1c a6 bf 1f 74 aa 2e bf d2 a2 bf
       -0.043189686536120146 -0.036764120527756676
0006a0 ba 8a d8 91 ff 05 ad bf 99 59 de b8 54 2a 88 bf
       -0.05668638854355863 -0.011799489871731338
0006b0 54 71 44 22 eb bc 70 bf 09 05 d8 c6 24 83 c1 3f
       -0.004086416713360148 0.1368146868626712
0006c0 7f c2 df 26 76 94 c5 bf 8b eb c6 98 0b 4a ad 3f
       -0.16859318636081252 0.057205545806446066
0006d0 59 06 cd e0 f4 56 c4 3f f2 76 98 13 99 45 bb 3f
       0.15890370346646668 0.10653073051841114
0006e0 0a 64 58 48 35 0a b7 3f e7 dd c2 46 f7 1f b9 3f
       0.08999951378099538 0.0981440112835724
0006f0 de ac 10 81 b9 48 94 3f bb ce 06 f6 c3 c8 b4 bf
       0.019808672430525635 -0.08118843800076096
000700 eb 8c 10 66 2f bf 5a bf 4a c9 e0 cc 72 fd 8b 3f
       -0.0016324961545784399 0.013667008283026267
000710 5b af 5f 81 b1 cf 8c bf 40 3a 62 8f c9 b6 9b bf
       -0.014068018685030095 -0.02706446588177358
000720 fe 6b fc 23 28 ac 8b 3f 5c 39 fe 5c 8f b9 a4 3f
       0.013511956785398734 0.040478210546200016
000730 5a c9 97 0a bb 53 c1 bf 37 a5 fb f9 ce 92 74 3f
       -0.13536775605423196 0.005022819997728071
000740 81 f8 19 ff 79 78 bd 3f 30 97 89 9f 83 42 b4 3f
       0.11511957624495218 0.07913992543180082
000750 7d e5 88 c5 9e 72 8e 3f 27 01 f1 8e 46 40 93 bf
       0.014867058184892862 -0.0187998795265695
000760 60 69 7d 1f fb bb b0 3f 79 f9 dc 6b 65 dd c2 3f
       0.06536836165233728 0.14738147513157765
000770 9b 15 74 13 68 c8 99 3f 34 50 17 4f cd 46 b0 bf
       0.025178552806229253 -0.06358035260137812
000780 93 c8 65 7f 1d 55 b9 3f ef d6 22 8e 7c 92 ae bf
       0.09895500526707428 -0.05971135363635748
000790 b3 20 97 57 94 a4 b2 3f 85 e1 9b 63 8a 90 3a bf
       0.07282378328739263 -0.0004053438056952563
0007a0 a4 6a 21 0b 91 82 b3 3f 50 3a d4 75 81 43 c1 3f
       0.0762110378431467 0.13487261060113775
0007b0 42 41 a4 13 fa 16 89 3f 2c 16 d4 27 03 78 a2 bf
       0.012250856136717506 -0.03607187138736054
0007c0 ad 64 50 33 0a d2 a6 bf 96 8c 6e 0d 31 59 6f 3f
       -0.044571226848526414 0.0038267095619218356
0007d0 08 6f 3d 1d 9f b7 c1 3f f7 a7 0e 53 3b 4e be bf
       0.13841618468983818 -0.11838122155918983
0007e0 6c 3f fb 45 ee 1b b0 3f fd 7c 9b 81 d1 e9 98 bf
       0.06292618950396694 -0.02432944634972233
0007f0 dd c8 5e b3 c7 32 c7 bf 7c c8 a0 d0 4b e7 b4 bf
       -0.18123718508065326 -0.08165429919680095

fc_hidden_list.0.bias f8 [100]
000000 fe d9 e0 85 74 58 b3 3f 33 05 16 81 2f cc af bf
       0.07556846874727083 -0.062104687221117415
000010 86 27 ba da 96 97 8e bf 6e 8f e7 ca b5 4c b5 bf
       -0.01493757109644257 -0.0832017536518472
000020 6d fa eb 62 e0 6c b6 bf 57 41 20 57 0b fd 75 3f
       -0.08759882369120371 0.005368274973094187
000030 46 70 1a e5 81 2d 9a bf f2 00 41 64 35 66 96 3f
       -0.025564221962312915 0.021874269718183244
000040 35 da 05 e5 ec fe b3 3f a5 c7 bf c7 1a f5 81 3f
       0.07810860244158209 0.00876828119359969
000050 f9 23 42 35 86 2a af bf c3 e5 3f 22 9f 91 aa bf
       -0.06087130928160173 -0.05189225476346906
000060 da dc 3a 92 06 16 ab bf 27 3b b0 ef d4 8a 8c 3f
       -0.05290241751702647 0.013936675610265304
000070 ed 7f 79 06 89 40 b4 bf 99 19 e2 8f 0d 74 b0 bf
       -0.07910972984382143 -0.06427082789205087
000080 a8 0f ec 15 31 74 a3 3f 85 3a a8 fa 35 41 b2 3f
       0.03799584763149194 0.07130753869589952
000090 89 75 42 32 9f 7e 7b bf 23 55 0d d4 44 5d ab bf
       -0.006712552891398168 -0.05344595993543979
0000a0 f8 69 4c 8b c5 67 ba 3f 84 9e 64 20 d4 05 85 3f
       0.1031459298214158 0.010265023459012264
0000b0 9e 2e a5 45 91 76 8d bf 0b d4 88 ed 91 97 9a 3f
       -0.014386305749801761 0.02596881878180927
0000c0 e5 2a ab 20 39 4e b1 bf 0c be 8e 01 e4 a8 ab bf
       -0.06759984061788378 -0.05402290839208143
0000d0 97 52 72 66 6f ab b9 3f f2 f3 4c ef ad 02 b1 3f
       0.10027214289795904 0.06644713489818324
0000e0 8e 1d 2b 77 3c b7 b3 bf c6 88 41 7a 3b 57 b0 3f
       -0.07701471242318389 0.06383105978742085
0000f0 a3 37 18 4e bf ff b0 3f e3 82 f4 f4 46 00 80 bf
       0.06640239388090534 -0.00781302866977413
000100 9e 42 ee 43 92 3e 7d 3f 8a ef fd 38 5a 74 91 bf
       0.007139750813522609 -0.01704541180468725
000110 b4 9f 3a b4 7b fa ac bf d4 6d 96 77 31 02 ae bf
       -0.05659853529988315 -0.05861048302468999
000120 71 eb b6 24 7f 28 ad bf 7f 2d f9 6a db db ae 3f
       -0.05694958995032707 0.06027112656428368
000130 fe 6b 4c 99 ee 0e c0 bf 1c 6d ea ea ab f7 a4 3f
       -0.12545568928985057 0.04095208399413705
000140 ba cf 16 2c c5 eb 98 3f 5b 0a 5d d2 2f 7c a0 bf
       0.024336891952500862 -0.032197470120554704
000150 61 32 64 52 9b b5 b3 bf 7e af 3e 14 52 f6 a3 bf
       -0.07698984872349392 -0.0389886522019358
000160 17 7c 03 78 e7 71 9d bf 81 ff 0a e6 5a 21 b6 3f
       -0.02875482244496305 0.086446458018143
000170 cf f3 f8 49 e6 e6 b7 bf b8 2c 48 6f 90 e5 aa 3f
       -0.0933669977757312 0.05253268583700205
000180 34 da d1 11 84 dc 85 bf 3e db 3b 07 ff b2 a0 bf
       -0.010674506944480112 -0.03261563266089816
000190 2a 0a 16 99 44 b4 b2 3f fc 1c b7 fd 3f ea 9e 3f
       0.0730631707902282 0.0301904677014848
0001a0 46 0a 53 b7 c1 a6 8f bf 69 df 88 fe 49 3e af bf
       -0.015454781920543625 -0.06102210266220604
0001b0 7a 55 52 46 50 bd b8 bf 14 ea 32 4e 55 bc b7 bf
       -0.09663869587742183 -0.09271748694565246
0001c0 d2 cf a4 5e 98 53 ad 3f a4 4a f6 87 a5 d3 a1 3f
       0.05727840571708466 0.0348178604573566
0001d0 67 ac c2 e0 94 71 bd bf 91 e6 6d 15 45 b1 89 3f
       -0.1150143669826079 0.012545146671743697
0001e0 28 8e f5 71 b3 53 b2 3f bb 81 08 ba c2 75 bb bf
       0.07158967525679627 -0.1072656349356355
0001f0 91 2a 9b 10 2f cf b9 bf 12 b6 42 01 fc 79 b0 bf
       -0.10081762462065515 -0.06436133414055004
000200 be dc 29 9b fc 0b a2 bf bd 4e a6 2d 90 cc 9c 3f
       -0.03524770158849709 0.02812409666655812
000210 db 2f 43 be 5e 3a a1 bf 3b 24 15 4d 35 59 9d bf
       -0.03364845345058117 -0.028660614804980816
000220 94 8c 55 d2 d9 d1 ae 3f bf ab 33 0b f9 0f b6 bf
       0.060194785047110205 -0.08618122600061805
000230 91 c9 18 81 22 ff 92 bf a1 93 be 59 08 1a a4 3f
       -0.01855138695663922 0.03926111312401948
000240 84 b9 ed d5 f2 58 b5 bf fc 0c 3f 1c 91 8e b5 bf
       -0.08338849757067207 -0.08420664729696975
000250 ee f4 db d4 ce 6d 99 3f 26 61 01 6d 05 a8 b7 bf
       0.024832946531195547 -0.09240754996551867
000260 f3 cf ca 80 10 db b3 3f d3 06 16 68 97 83 b3 bf
       0.07756140846578301 -0.07622667590296865
000270 61 7c 78 e6 54 1d bb bf 24 71 3e 23 06 f6 b5 bf
       -0.10591631533360292 -0.08578527794310681
000280 85 74 31 4f d5 8b b1 3f a8 8c 64 2f 4e 8c 8f bf
       0.06853993590762471 -0.01540433008319149
000290 91 07 4d 38 87 23 b4 3f 9c 20 56 5f 3c ea b0 3f
       0.0786671173528062 0.06607415511655507
0002a0 e2 b2 95 bc 02 af a9 bf 61 f3 81 94 d3 fd a3 3f
       -0.050163350601769144 0.03904591739499242
0002b0 58 7f d3 07 75 06 77 bf d4 de f0 60 cc 7d b7 bf
       -0.0056213923937490015 -0.09176328055115884
0002c0 65 ef f4 21 1a e7 96 3f 46 ce d6 66 82 1b a5 bf
       0.022365959475095027 -0.041225504926299325
0002d0 e3 d6 7a 06 5a 27 91 3f e6 3f 94 b3 4c 30 bb 3f
       0.016751677175043233 0.10620574363952037
0002e0 ed 0e 1b 29 c3 b2 b7 3f f1 f5 c2 1e 74 e0 a9 3f
       0.09257144692952197 0.05054057002551449
0002f0 1d ce 83 70 c5 eb 84 3f 32 3f f0 e2 ef 68 90 bf
       0.010215322967702051 -0.016025303102707507
000300 a1 ec c3 0a 99 88 b3 3f 2f 4f 7c 5c 11 e5 a8 bf
       0.07630306732964921 -0.04862264875387578
000310 0b 0f 11 88 a3 47 a7 bf f2 ff bb 76 c2 96 98 3f
       -0.04546843563050914 0.024012602326365547
