savedModel/allen_cahn_tanh_sin/ParticleWNN_4/trained_model_final.pth (torch, 249111 bytes, 10 tensors)

fc_in.weight f8 [100, 2]
0	0xbfe21fc1ff8269b6	-0.5663766851824252
1	0x3fdf1ad7b5115750	0.48601334268947927
2	0x3fe327fd269804eb	0.5986314538751264
3	0xbfe5b1cfbcea67ec	-0.6779555024870638
4	0x3fd510402d284c57	0.32911686334518236
5	0x3fd8235e3736b492	0.37715869323694406
6	0x3f9a4d00827088f6	0.02568436428203654
7	0x3fe53203477dce26	0.662355079299634
8	0xbfe2db79b4f125c2	-0.5892914327643484
9	0x3faa8beee4ad8ffc	0.05184885541419246
10	0xbfe31b1951aa861b	-0.5970579714814365
11	0x3fb4fc2118a02c2b	0.0819721875306391
12	0x3fd9a5aac175922c	0.4007365121126749
13	0xbf686c79a781cc71	-0.002981412511923014
14	0x3fc79f8bee2c842a	0.18455647592148355
15	0x3fde9652ed7e8723	0.47792504494474225
16	0xbfcc7a31e9d02b5f	-0.2224790946641759
17	0x3fdded780fc8db72	0.4676189569612951
18	0x3fe1a116c2f87c62	0.5509141738911121
19	0xbfd306c7bb424d4b	-0.29728883063326766
20	0xbfdee54cc4b625f0	-0.4827453537951376
21	0x3fdea7201ff3067c	0.47895053024340206
22	0xbfe08b96410a6f0e	-0.5170394201590811
23	0xbfe003ccc0d06fb2	-0.5004638448622158
24	0xbfe42f4ccef9ee80	-0.6307739298349162
25	0xbfcda5021d4f037d	-0.23159815245710638
26	0x3fe1a1a909ec922b	0.550983924277323
27	0x3fe016c9a215aa26	0.502781693049944
28	0xbfdcfe748fe2a27a	-0.4530307202462961
29	0x3fdce4d73692fb87	0.4514673264456452
30	0x3fb742f1cf625539	0.09086524308289236
31	0xbfc8b99e48c0a1af	-0.1931646208988815
32	0x3fe3bf2a0cf6a317	0.6170854809944072
33	0x3fdae9482e540a9b	0.4204884006905247
34	0xbfcdd8c2415c6c7a	-0.23317745391327432
35	0xbfe16331a171d0a8	-0.5433586266722346
36	0xbfc1314b50f7b95b	-0.1343168397283517
37	0xbfc34d6195fe269b	-0.15079898666254085
38	0x3fb34ad504394417	0.07536059716336783
39	0xbfe3fe5b35fc5e7d	-0.6247993521128162
40	0xbfc75cae599f086a	-0.1825159013370155
41	0x3fe3afba396f1443	0.6152011033779065
42	0xbfe5820f996aa054	-0.6721265789428892
43	0x3fc7ea428061aa84	0.18683654087665869
44	0xbfd81a87180ab6c8	-0.37661912296139777
45	0x3fe1d6b8b54900d6	0.55746112258205
46	0x3fb794282b993c11	0.09210444511812478
47	0x3fd1ef2e52670a3e	0.28022344634169716
48	0x3fe15ced95b3d7ec	0.5425937579991547
49	0xbfd06d3f92226ce9	-0.2566679885000683
50	0x3fe3645b2cd4fbf6	0.6060005069374472
51	0xbfd9f90b65dd478e	-0.4058254713792103
52	0x3fafb917ffa76352	0.06195902820372247
53	0xbfe3e50e5ff85eab	-0.6217109560411321
54	0x3fc43f44ef57db7c	0.15818082510642373
55	0x3fd51901cc409f80	0.3296513075497316
56	0xbfdb1a181e083be7	-0.42346766407803077
57	0xbfd3d2cf555ee0f7	-0.3097418149659598
58	0x3fc1c26ea2aba38d	0.13874609892743842
59	0x3fc02b91089a4edc	0.12632954521233486
60	0x3fe47de5456dc6ae	0.64036811409297
61	0x3fddc08ab648c817	0.4648768215294025
62	0xbfd659a12ada582d	-0.3492205542073659
63	0x3fd0a87286a3d67a	0.260281211361281
64	0x3fdd741774b7eac9	0.4602106704548246
65	0x3fbdc24a8df3dc99	0.11624589887275007
66	0xbfd1814c58cf2e50	-0.27351673767836804
67	0xbfb4ff972b694eed	-0.0820250016197936
68	0xbfd8e3617c0b8518	-0.38887822259683125
69	0x3fe0bfef9fc39ee2	0.5234296913522167
70	0x3fb3b46be9bfd470	0.07697176415224916
71	0xbfd4bac7906caf27	-0.32390011886558273
72	0x3fd5d2e5d48bdca5	0.3409971786163147
73	0xbfd07aa5891d54f9	-0.2574857558259534
74	0xbfd8de20524e26c0	-0.3885575107347954
75	0xbfa1d22873ecc288	-0.03480650343988595
76	0xbfe39e336d00d658	-0.6130616311044816
77	0xbfccefb43fdc7076	-0.226065188581632
78	0x3fde7dd573b7ab62	0.47643028545888033
79	0x3fb3946eb7116449	0.07648364991600078
80	0xbfdfe762904b56d3	-0.49849762049903495
81	0x3fa070c4c593d266	0.03211035644372799
82	0xbfc973d07d638746	-0.1988468754053036
83	0x3fe27b4137ca7108	0.5775457467712224
84	0xbfa5c3a775ac4886	-0.04250834762037052
85	0xbfe074cd5e33fb74	-0.5142580833342962
86	0x3fc24fd76db42bdc	0.14306156975393847
87	0x3fc136cf32325cb1	0.13448514891635946
88	0xbfe135215e9e41ee	-0.5377356384288399
89	0xbfc8d14e41cc4768	-0.19388750279227485
90	0xbfe41dc6b3900c8b	-0.6286347872814003
91	0x3fd2b9b0331e8d38	0.2925835131847694
92	0xbfd5a9e689e30067	-0.338494906096463
93	0x3fde8bc611fbc469	0.4772811103458197
94	0x3fe5817525a77e2b	0.6720529303965511
95	0x3fce1db58b3a4bb4	0.23528165147999192
96	0xbfb1bec42db48f2d	-0.06931711307384765
97	0x3fe0cc475b39f176	0.5249363691105333
98	0x3fdfda8348b11c63	0.4977119645959133
99	0xbfb00122fe9d9485	-0.06251734462928667
100	0x3fcb6a0599da50aa	0.21417303097098755
101	0xbfe1f3b23f798f14	-0.560998081182762
102	0xbfdc7cfd7a19705f	-0.44512879298941316
103	0x3fe253cad6dbd82d	0.5727285572490978
104	0xbfd3277dd542ac48	-0.29928537203040095
105	0x3fdf0e3e70f4f7d0	0.4852443793387211
106	0x3fe2120cd8bcae22	0.5647033913750799
107	0xbfe072bd7a999bd1	-0.5140063662082587
108	0x3fd9ab6ab0b66fdd	0.4010874486646097
109	0x3fe2226d5268ea12	0.5667025193754986
110	0x3fe0dfca2d89c438	0.5273180856148718
111	0x3fd6e8e144c8402d	0.3579638644887407
112	0xbfda9484347da3ee	-0.4153147232632922
113	0xbfa66aefb66f83f5	-0.04378460981366309
114	0x3fd7b75dc9f46554	0.37056679460655073
115	0x3fc95a3ac98329e1	0.19806609000654787
116	0x3fde636ce17d6567	0.4748184396790606
117	0x3fe0222b2b98afaa	0.5041709758274824
118	0x3f7835a62b507612	0.005910538767265121
119	0x3fe3074f09a33044	0.5946421802741573
120	0x3fdf95e5231ab046	0.4935238688292468
121	0xbf918673016846c1	-0.017114445649048408
122	0xbfd76bc884b2bc2f	-0.36595356901938464
123	0xbf798ca9d021916f	-0.006237662632063808
124	0xbfce4f5e37554b8f	-0.23679712011161455
125	0xbfc4eb41e3e5216e	-0.16342948558509413
126	0x3fca11d7130e75bf	0.20366943769924536
127	0x3fe337d29b5f6a56	0.600564292394959
128	0x3fc7b19e911289f5	0.18510801395048274
129	0x3fe4e92d41f3706f	0.6534639633278071
130	0xbfb11d5df3a31196	-0.06685435484093313
131	0x3fb3e91293337b66	0.0777751550080957
132	0xbfc93ba114bca123	-0.19713223946133338
133	0x3fd1878dd2a0f0ef	0.27389855927664447
134	0xbf84b9bbc777c35e	-0.010119883560919692
135	0x3fc55aff8ab16dc3	0.16683954498408413
136	0x3fd7a2254249dadf	0.3692715785358995
137	0xbfaeb1809209a297	-0.059947984530315405
138	0xbfd80df68ea188e2	-0.3758522408371744
139	0x3fd96996688a9cd7	0.3970695515549329
140	0xbfe422ae0bb653a6	-0.6292333821062257
141	0xbfd7d0abe0718e66	-0.3721112911063983
142	0x3fa7e95018586f33	0.046701910945755286
143	0x3fe2a711d2ec9d6d	0.5828942412962711
144	0xbfaecb35da8396fb	-0.060144122051310554
145	0x3fde955319c44a52	0.4778640510204798
146	0xbfc30cfae577278a	-0.14883362011306317
147	0xbfcce1b294886b3b	-0.22563774349768004
148	0x3fd5a4871e871cc3	0.3381669805643918
149	0x3fa11c31923e583b	0.03341822538566005
150	0xbfde8fd5f12d3b81	-0.47752903511439376
151	0xbfe407011d23833f	-0.6258550232997563
152	0xbfd7976948854be1	-0.3686164100847105
153	0x3fddca715828d215	0.46548112496682964
154	0x3fcb155176720dd6	0.21158808024857362
155	0xbfd4b2417d41abd9	-0.32337987167437415
156	0xbfdfe39b53a0921c	-0.4982670132324374
157	0x3fb1d10745231d8b	0.06959577024382761
158	0xbfe0c6de083ff32c	-0.524275795090579
159	0x3fcac60890cfd3bf	0.20916850157632713
160	0x3fb4e81da5bf4ce0	0.08166680618824129
161	0x3fc21d21a26d5d07	0.14151401930823956
162	0xbf9cd2a72d4e3f8d	-0.028147327556836955
163	0x3fc37fb8a4c5ba50	0.1523352436592682
164	0x3fd23bb5328318a4	0.2848942750246215
165	0xbfd98d38566d5356	-0.39924438896314507
166	0xbfbd8d76d8a2f3d7	-0.11543982304551946
167	0xbfbbc417b5c78e1f	-0.1084608858869207
168	0xbfb51b388681a52a	-0.08244660648201277
169	0xbfe055d1080ab371	-0.5104756505075853
170	0xbfd3a46909e03e97	-0.30690980877350554
171	0xbfd7caf2e296f57d	-0.37176200988672986
172	0x3fe100b00834dfaa	0.5313339386257117
173	0x3f9bd94f81cee86d	0.02719616155420861
174	0xbfd59df3d4dcdea7	-0.3377656534898769
175	0x3fd9657fd0fc9815	0.3968200245748233
176	0xbf899227b305732f	-0.012485799933239143
177	0xbfd39bbb4d55c41a	-0.3063801055168952
178	0xbfdf55be391abc3a	-0.48960834099392836
179	0xbfbe21ab0697b788	-0.11770123396828869
180	0x3fca6692d4a2f03b	0.20625529654160055
181	0xbfd5d891675ad80f	-0.3413432607006834
182	0xbfde1227547f804c	-0.46985800983202775
183	0x3fd3fba6ea1ae42a	0.3122346197301932
184	0x3fe4bcb97d4aa0b5	0.6480376669978997
185	0x3fca955a205eb992	0.20768286305014932
186	0xbfd0e3e09625ef56	-0.2639085260668613
187	0x3fc30325a1699a8b	0.14853353864164762
188	0x3fb9970a411236c8	0.09996093834544262
189	0xbfe0326a47940116	-0.5061541936884477
190	0x3f98289837da7d33	0.023592356118226476
191	0x3fae719aa9ebb863	0.05946048092106151
192	0xbfe05d1ef639b42d	-0.5113673028078033
193	0x3fbfca4821680099	0.12418032470304964
194	0xbfc92f3d6498fbaa	-0.1967541447829409
195	0x3fd9026012ba9162	0.39076997593863017
196	0x3fd9f084da51d3b5	0.4053051120784475
197	0x3fa35efe3ac184e1	0.03783411471591492
198	0x3fe0ce920a84f523	0.5252161221939428
199	0x3f90d02a488bfd54	0.01641908710280167

fc_in.bias f8 [100]
0	0x3fe27393c752f3d5	0.5766085522696992
1	0xbfe059f74b093782	-0.5109821763560236
2	0xbfd67256e4071555	-0.35072872417761874
3	0xbfca84ec13fc551f	-0.2071814630113886
4	0xbf788e51f4897f78	-0.005995102059927031
5	0x3fd7a787d0dd8261	0.36960025212287034
6	0x3f969c12c234fe55	0.02207974729867453
7	0xbfcf06c030b8e487	-0.24239351634040338
8	0x3fe0f7b9891f6716	0.5302398374726376
9	0xbfd75e35c331435e	-0.36512512265931274
10	0xbfccf01a09aac459	-0.22607732269310324
11	0x3fc1f5ff8a542458	0.14031976942377145
12	0x3fdb0c5818afabcb	0.42262842570079034
13	0x3fc742b3900d5fb2	0.18172306569863178
14	0x3fd419e712211b56	0.31408097048227057
15	0xbfd44fdf38338834	-0.3173749970284263
16	0x3fbe14e36f0139f5	0.11750623188093086
17	0x3fae43c2f0f06b16	0.05911072913314379
18	0xbfc37e4592034cee	-0.15229100827728054
19	0xbfbbc582f0e8580d	-0.10848253613980337
20	0xbfd36698ebb173bb	-0.30313704506789535
21	0xbfd08d3fd7688ce9	-0.2586211780164392
22	0xbfe26208fdfd4071	-0.5744671784141372
23	0x3fc7e9c912fa88be	0.18682206560794684
24	0xbfde995f4d2d6db5	-0.47811110054837097
25	0xbfba6efbf4f6b738	-0.1032559845977773
26	0xbfb5637d1e8a6620	-0.08354932780857682
27	0xbfc891fe8926b618	-0.1919553918536827
28	0xbfbcdadf2bb85e07	-0.11271471803080867
29	0xbfdb27380dfe7bc5	-0.42426873556717865
30	0xbfd5ddf427e5fe07	-0.3416719808228383
31	0x3fce9fe209c0fb3e	0.2392542407632962
32	0xbfe32940218c9fff	-0.5987854628810964
33	0xbfc1562802a415d7	-0.13544178132012405
34	0xbfa23d2d679bad6e	-0.03562299623248576
35	0x3f96c72d5755da06	0.022244175391700004
36	0xbfd4eb4db9c12d10	-0.3268617929467874
37	0xbfb2a2469ed97f5e	-0.07278863313831382
38	0xbfa22256b73ce838	-0.03541823374548908
39	0xbfe5144990770a45	-0.6587264844495812
40	0xbfe10acfcc1bb946	-0.5325697885980751
41	0x3fe1953f21d30eb8	0.5494685803064021
42	0xbfd665d5d7c7d064	-0.34996553489987137
43	0x3fd8f877784e89ec	0.3901652026053444
44	0xbfaf28d407c903ec	-0.06085836977991463
45	0xbfc340388e0046c6	-0.15039736684462052
46	0xbfdb62e473534579	-0.42791091215357074
47	0xbfddb8e56706ec1e	-0.46441016255602274
48	0xbfdad706836d73d3	-0.41937411150666754
49	0xbfe1f8adb2dc633b	-0.5616062634827367
50	0xbfb0e67a00025828	-0.06601679325316978
51	0x3fdca6b9fdb56c11	0.44767617965925505
52	0xbfddfda9924c56fe	-0.4686073235219367
53	0x3fa3663b7f935b28	0.03788934643096403
54	0x3fddbd7ccf39bcd5	0.4646904014288798
55	0x3fd25db97c34c069	0.28697049264429225
56	0x3fd89edd2412926f	0.3846962787886587
57	0xbfd890914ea2693d	-0.38382370642797864
58	0xbfe1364d6e481ad8	-0.53787871875178
59	0x3fe201d216c38730	0.5627222485165699
60	0xbfd01e6f13cd837d	-0.2518575375925634
61	0xbfcdb85309232b83	-0.2321876330009581
62	0xbfd333f65657f566	-0.3000465243529419
63	0x3fdd92bce7c61336	0.46208117136147864
64	0x3fac2dcaff143315	0.05503687251812132
65	0x3fd3b2cd7514e18f	0.307788242661922
66	0x3faad37948ad58c5	0.05239466678783481
67	0xbfb445b721723977	-0.07918877188260419
68	0xbfe1a084397f9b65	-0.5508442996041195
69	0x3fe407cf66795f7f	0.6259533883521583
70	0xbfb8a5035f28101d	-0.09626790116459501
71	0x3fb5800d53526e54	0.08398516926029603
72	0x3fc8f86d1158c30d	0.1950813612652599
73	0xbfe21e56fa1eae29	-0.5662035832551214
74	0x3fddcfd043a97f3a	0.46580893142344204
75	0x3fe31c24946f8b9a	0.5971854113707764
76	0xbfd7b9c2256a52e3	-0.3707127919563346
77	0x3fe2ccedb8bb829a	0.5875156982475176
78	0xbfa8162322b947ea	-0.047043893803348016
79	0x3fd3ec7db7604f9c	0.31130926997979613
80	0x3fdfc806bff42166	0.4965836405322278
81	0x3f818a4a93917156	0.008564550999090297
82	0xbfd6d30043d2a694	-0.35662848113370527
83	0x3fbb077c6fdff1e1	0.10558297854726774
84	0x3fe23922d20647cd	0.5694746114770567
85	0xbfe032b632d5b1e8	-0.5061903946748858
86	0xbfbb47c18d1591a7	-0.10656366056861676
87	0xbfdfbca0d5c751db	-0.49588795544448566
88	0xbfd8e7773d62ed26	-0.38912755007523214
89	0x3fabd9429b456cb4	0.054391938642504384
90	0xbfe328025400190a	-0.5986339226372206
91	0x3fc8d9548f1dbd45	0.19413239467710688
92	0xbfc09d765e0e688d	-0.12980537026016173
93	0x3fd151532a4875c9	0.27058867577747187
94	0xbf9cfc9d971a295f	-0.028307401988550192
95	0xbfbe95724d7d0ab5	-0.11946787254150133
96	0xbfb234eecb59be60	-0.07112019028294858
97	0xbfc47e0d7184a586	-0.16009681742552234
98	0x3fd1c544e45f0753	0.277665350931888
99	0x3fc7c947527fb2bb	0.18583003547919028

fc_out.weight f8 [1, 100]
0	0x3f7f0134f246a035	0.007569510289990024
1	0x3f6539236d056dbf	0.002590722266331474
2	0x3f90df2f76f4f950	0.016476384769015084
3	0x3f809f241cd959a7	0.008116037493135787
4	0x3f8e3a9d7808970e	0.014760236955293073
5	0x3f99a65a180b5155	0.025048644750158406
6	0xbf805fe212f38887	-0.007995382502887572
7	0xbf7c22774aa91efe	-0.006868806822758476
8	0xbf8900c02c2cbf72	-0.012208463047130389
9	0xbf8b00de1bde015e	-0.013185248589935025
10	0xbf89a1dc0cf1b202	-0.01251575388433768
11	0xbf95a21c81bfe587	-0.02112621824196517
12	0x3f96a032535266b1	0.022095476470531398
13	0xbf73be7bba1ab46e	-0.004820330913998123
14	0x3f58978d9ef2b88b	0.0015009768501772793
15	0x3f90ee9a5d211ad6	0.016535198148882234
16	0xbf8bf56e1a0a7619	-0.01365171448679363
17	0xbf996317ab2765bb	-0.024792070218472278
18	0x3f866e15c8f5f87a	0.010952158160531623
19	0x3f9be9368b12bb6e	0.027256824720719157
20	0x3f960dd970cb200d	0.021537206181875535
21	0x3f9090df455744a9	0.016177643401367323
22	0x3f96129bfe189d90	0.02155536402110908
23	0x3f04989036afdeae	3.928365807575933e-05
24	0x3f9a26a84e3988fd	0.025538091444453837
25	0xbf812d02a59d9952	-0.008386631659686703
26	0xbf61c7aca6af2a2c	-0.0021704074947355347
27	0x3f844c8abf13d745	0.009911617237303392
28	0x3f91b92ea22dc74a	0.01730797638760543
29	0x3f24aa67441b0cb9	0.00015766630717992615
30	0xbf85b51d81f7ac3e	-0.010599356201927642
31	0xbf84dda759dbfe26	-0.010188395910062441
32	0x3f8c645bd07e6ea2	0.013863293934085977
33	0x3f6d3178d15a8d07	0.0035636291239186132
34	0x3f90f37e971c9d2f	0.016553857777720168
35	0x3f7fedc35197dd04	0.007795107806934046
36	0x3eed88bc056d6dfa	1.4082965362475174e-05
37	0x3f75d23da0e55078	0.005327454315494966
38	0xbf7c1d25a7cca866	-0.006863734332720117
39	0xbfa0e8495d2c81f9	-0.03302220594764899
40	0x3f857cf4f39280d8	0.010492242511020697
41	0xbfaaec50ed782de7	-0.05258419894024851
42	0xbf434073d216eef5	-0.0005875173121050169
43	0x3f633be7148897c0	0.002347899750264809
44	0x3fa0f5dc2fe5f8f3	0.033125763747181035
45	0x3f7ea16d883fc00a	0.007478168354268186
46	0xbf70b76936aa4097	-0.004081164350864828
47	0xbf990c59ad818ee8	-0.02446117516991722
48	0xbf9b2dc5505928df	-0.026541789082593744
49	0xbf74af339a6a3572	-0.00504989774220853
50	0x3f73b590a2784c35	0.004811825732320908
51	0xbf676121f870d4dc	-0.0028539336667799797
52	0x3f9a85dd401173d6	0.0259012766222105
53	0x3fa8a672af2bbe31	0.048144897349513
54	0xbf8279a4ac414411	-0.009021078593066919
55	0xbf9a7a1c0ae66e68	-0.025856435933390293
56	0xbf7a8bc56c7370fa	-0.006480952440338189
57	0x3f77f01ceabbd7d0	0.00584422393489166
58	0xbf95d5016b8f7c9a	-0.02132036417958414
59	0xbf98cfcdca1401e6	-0.024230208834525778
60	0x3f9257fe126ba6cf	0.017913789629267648
61	0x3f89a10ee1ee6fdb	0.012514225263480163
62	0x3f5afab2ffc7c326	0.001646685413217061
63	0x3f006b3a7e49b942	3.1316492628318776e-05
64	0xbfa0ac22f45cfe1f	-0.03256329758596287
65	0x3f8fefbdcdc1e60a	0.015593989221303967
66	0x3f7d006628edf0e4	0.007080458700212431
67	0x3f78892dfd88404e	0.005990199708790623
68	0x3f8bb42394a286be	0.013527181600071155
69	0x3f7c06e227290761	0.006842502031362802
70	0x3f93eae2d308b935	0.019450706606386
71	0xbf77fd1d8c78f33e	-0.0058566240546127895
72	0x3fa01e1469e1868a	0.03147949020855119
73	0x3f849366dbda1e7d	0.010046771606780464
74	0xbf830cf69aa6966d	-0.009302069277349301
75	0x3fa6ee6ed3fe0ab8	0.04478784883305792
76	0x3f6ba008763e5fb9	0.0033722081443094657
77	0x3f9a3de0995179ed	0.025626668317608226
78	0xbf610f8cde663b48	-0.0020826102583621255
79	0x3f9077edd0292b7f	0.01608249266636674
80	0xbf950d2e08270859	-0.020558089492404317
81	0x3f03f527ce8c2224	3.8066174800791935e-05
82	0xbf8309b9ada48d0f	-0.009295893298775696
83	0xbf8424954384d4cb	-0.009835401652347994
84	0x3f6e339493883b5d	0.003686704814988158
85	0xbf90c26126eccf7d	-0.016366498947902642
86	0xbf8fbe45d648ecbf	-0.01549963531680587
87	0xbf9d2894a1ccd17b	-0.028475115180485382
88	0x3f78b9843aba6dc2	0.0060362973414628835
89	0xbf5d55197649e7aa	-0.0017903088238697498
90	0xbf835dffbe081c7d	-0.009456632601553711
91	0xbf99112935040189	-0.02447952638704146
92	0x3f8a67d06e7b9d24	0.012893322345418463
93	0xbf77bb8fd054cac1	-0.005794107220298884
94	0xbf8ba5d1a6e08c6b	-0.013499868302522885
95	0xbf9dbb1005420f76	-0.029033899613309676
96	0x3f8baa11b6ac0bda	0.013507974993904815
97	0x3f97bec772839889	0.0231887019771411
98	0x3f9f0248fd139f09	0.03028215450913677
99	0xbf965f6a0b526bdd	-0.021848351422345636

fc_out.bias f8 [1]
0	0x3f716cdcb7b62729	0.004254209688392221

fc_hidden_list.0.weight f8 [100, 100]
0	0x3fa570f967548fac	0.041877549995006674
1	0x3f4e0d3b224cd842	0.0009171046009217659
2	0xbfa9d44959e92536	-0.05044774267714518
3	0xbfa8580830f0ceb9	-0.04754663083477113
4	0x3fb4dc2c29d35239	0.081484565936372
5	0xbfae246824be55f7	-0.05887151192215961
6	0x3f6725c06fe1ead7	0.0028256186042744202
7	0x3fb268f97684c212	0.0719142832138078
8	0xbf9ac9f64222ff3e	-0.026161048685707337
9	0xbf87531130a3ccf2	-0.011388906761999416
10	0xbfb2c643f29f8b32	-0.0733377902356949
11	0xbfa093323d6c24d5	-0.03237301826272591
12	0xbfa59273a220fd7e	-0.04213296274292143
13	0xbf874e158417956d	-0.011379402249938686
14	0x3fb36331b130d95f	0.07573233200023342
15	0x3fac7d85e74bafef	0.05564516495164173
16	0xbfaaa75fc35f63ff	-0.052058212851711964
17	0xbfb1cd78128024ee	-0.06954145862268366
18	0x3fb4d3bee11982d1	0.08135598178479177
19	0x3fa1df208d43470b	0.034905450099939804
20	0xbf685ccf0c2676fc	-0.0029739421745053046
21	0x3fb528171642ee95	0.08264297765247826
22	0x3fb437fd42fee73c	0.07897932897222132
23	0x3fb790bb5f486d1d	0.09205218387835541
24	0xbfb8091292692071	-0.09388843607405463
25	0xbfa379298583c019	-0.038033769176650085
26	0xbf8aa1d26ba742c8	-0.013003963384933384
27	0x3fa8bc81a398624e	0.04831318971645669
28	0x3f6cc95f75fc2fc1	0.0035139908285426185
29	0xbf9d5730c70088fb	-0.028652918001292865
30	0x3faddad360206454	0.05831013248843733
31	0xbfa4c2f9dce01016	-0.04055004903059982
32	0xbfae20de4f92ba41	-0.05884451600410446
33	0x3fa8fadb104f840f	0.04878887724022018
34	0xbf6881d29b28eb48	-0.0029915917778259617
35	0xbfbc953db912f375	-0.11165223854454871
36	0xbfb70cf7a53919ee	-0.09004161628499904
37	0xbfa9f2d06ae7139a	-0.05068064980472471
38	0x3fa9fe3d12cb9317	0.05076781134065394
39	0x3f82a1bc32112eec	0.00909754779618007
40	0x3fad3b67e68b1b8a	0.057093855755332504
41	0x3fa9c370e7cd5641	0.05031922177901694
42	0xbfbbcdb1069600c7	-0.10860735331334857
43	0xbfafb824bbca7f4b	-0.06195177833910622
44	0x3fb27aee02e5f184	0.07218825884587515
45	0x3fb075b018a41485	0.06429577447495845
46	0xbfb834f4ad243cd7	-0.0945580408772345
47	0x3fb681149c9c924a	0.08790711234593931
48	0xbf87284a2a41daa6	-0.011307315268124295
49	0x3fb95229186c59d8	0.09890992018004086
50	0xbfbf176967669bd4	-0.12145098471101728
51	0x3fbe5126dfd06196	0.11842577900131909
52	0xbfb04030c26c5536	-0.06347946879062225
53	0xbfb7d420b8b7e13d	-0.09308056363795898
54	0x3f9728d871dfe0e0	0.022616750669812613
55	0x3fb803ae9e6d25d1	0.09380618446188939
56	0x3faf21cfe6b3d90c	0.06080484095757485
57	0x3fbcf369b3019187	0.11308918590800064
58	0xbf9b997994b5cf33	-0.02695264787821756
59	0x3fbaad9b3337f5bb	0.10421152115301073
60	0xbfa127c1f579a873	-0.03350645181201708
61	0xbfa0c1c49191bd3c	-0.03272833134621542
62	0xbfb6ff0467686fee	-0.089828753706058
63	0xbfb15c12d1f8faae	-0.06781118036540576
64	0xbfa1d76d5f898650	-0.034846704399353556
65	0xbfadee1b3cde3299	-0.05845723264710507
66	0x3f7b001eea2bb765	0.006591912041342106
67	0x3fb3f7e9db059e42	0.07800160977569084
68	0xbfa7636babbe48c1	-0.0456803939006405
69	0xbfb0157ae0f9d425	-0.06282775871825715
70	0x3fa581cedf2e1fe1	0.04200598215453489
71	0xbfaa554cf5b02785	-0.0514320421135173
72	0xbfa73ca4d56a0cda	-0.04538455109743618
73	0xbfa5b9d112c9ea63	-0.04243329386095664
74	0xbfb398f7acea5371	-0.07655284854474843
75	0xbfbcaa9f63059f15	-0.11197849433449066
76	0x3fb14ab294a5bb5b	0.06754604462706253
77	0xbf87a2609cd991af	-0.011540179049185221
78	0xbfb2d8371d59734f	-0.073611683526406
79	0xbf518483179a4dc1	-0.0010691909978149813
80	0x3f8925658a4ca8d6	0.012278359683098133
81	0xbfab170f2f190647	-0.052910303591954526
82	0xbfa52b60b2dad3b5	-0.041346570809231244
83	0xbfb25ac7cf5f8bc3	-0.07169770062277707
84	0xbfa2d9f0ead54757	-0.036819008508827515
85	0x3fab4fe85dd8278a	0.05334402223168329
86	0x3f9eff3c09122c24	0.030270517400406885
87	0xbf429e9a2e62b453	-0.0005682232702121183
88	0x3fb50bf060b03f39	0.08221342430647106
89	0x3f85f5cd03e10611	0.010722734146955156
90	0x3fb896e507b11e6c	0.09605246961393171
91	0x3fc0b58122443205	0.1305390755955075
92	0x3f8692cb78f10915	0.011022176388114016
93	0x3f9e34bd1ae7d923	0.029498057143393496
94	0xbfb6070029acd73e	-0.08604432122669167
95	0x3fb0ccca6015b2a4	0.06562485547847047
96	0x3f6430b466914022	0.0024646304559965563
97	0xbfb69f7d1407aeb6	-0.08837110270513446
98	0xbfa44e0fd800aed1	-0.039658064954293366
99	0xbf9c8308fe4637b0	-0.027843609351797916
100	0x3f3816a478b887c6	0.0003675605337055656
101	0xbfa56a5f3cd97960	-0.04182717912475442
102	0x3fa9a095ad06ed37	0.050053288814036305
103	0xbfb5ea08b727a923	-0.08560232612186218
104	0xbfaf687082aab654	-0.06134368510298019
105	0x3fb06481368509a0	0.06403358059927777
106	0xbfafbbe9202e24a3	-0.06198051946473384
107	0xbfb4a2a41708dbea	-0.08060670435303022
108	0xbfa2a8ba8ba81db8	-0.03644354777139419
109	0x3f9e54d95c0eee2d	0.029620548480791143
110	0xbfac06cc7381791d	-0.05473936948759415
111	0x3fb4adff295ce4b2	0.08077997932277262
112	0xbf797b102e66b777	-0.006220877845789611
113	0xbfb90840754c458c	-0.09778216232031961
114	0x3fa9f26b840a362e	0.05067764269652418
115	0x3faf1466c3d3ff3c	0.06070252552490138
116	0xbfa05e8f494c541d	-0.03197143335106765
117	0x3fb88d0b16ae4acd	0.09590215018969701
118	0xbfa7e114ca528fd7	-0.04663910836941881
119	0xbfa364a0e68e8e5f	-0.03787710966505808
120	0xbf830d640badfc72	-0.009302884680208321
121	0x3fb52889346c1d75	0.08264977960435778
122	0x3fa1a6b34c35afa1	0.034474947979872946
123	0x3fb08cf316f52c94	0.06465071974268916
124	0x3fb6ffc8eed00719	0.08984046774278588
125	0x3f9f06fbbe0a2f92	0.030300076936824967
126	0x3fb6309aca0d18cf	0.086679148033997
127	0x3f843deed80054ce	0.00988375279124867
128	0xbfac439aad97157a	-0.05520327919979713
129	0x3f7ee50790ad50e5	0.007542638350816787
130	0x3fad6dbf7c7bd22e	0.057477935739289485
131	0xbfba2234fe0f21d6	-0.10208445742239944
132	0xbfb6741286fc7fbc	-0.08770862384380868
133	0x3fa2d2916f603e3e	0.03676275715417575
134	0xbf97aa42e94ab397	-0.023110433091165197
135	0xbfb27a70dbcc04a2	-0.07218079916130418
136	0x3fb5d057e506fa61	0.08521031705365935
137	0xbfac025f8f2f6030	-0.05470560667862434
138	0xbf9cefe75f342f03	-0.028258910356313127
139	0x3f9da1887eeea0c1	0.028936512706110976
140	0x3f95e8281d6f68af	0.021393420025426376
141	0x3f9654d550b325e5	0.021807988214993208
142	0x3fb5afa8a9bc33d6	0.0847115911858077
143	0x3fb5b7c26fff3b65	0.08483519777585753
144	0x3fa6e09f644d97c9	0.044682484621077
145	0xbf8ffd958e69c3b2	-0.015620392235378453
146	0x3fa5cd8ee7242c56	0.042583909717074306
147	0xbfaf717e338c9416	-0.061412757675761195
148	0x3faca833da51a344	0.055970783615356484
149	0x3fab8325ca204e16	0.05373495190010773
150	0x3fb316df2ba0712b	0.0745677453527988
151	0x3f7be40b3b2c432e	0.006809276458412934
152	0x3faf0bed4c599adb	0.060637870378561685
153	0xbf959afa7ef282d3	-0.02109900855851061
154	0x3fa405dc81149364	0.039107218510514824
155	0xbfa9839c951e988e	-0.049832242205682595
156	0xbfbb12e80c4630e4	-0.10575723933851894
157	0xbf9292f948b280ac	-0.0181387854214569
158	0xbfb4293593d054a9	-0.07875380381331588
159	0xbfbaf5157460e84c	-0.10530218211434422
160	0x3f73bfc036d9182e	0.004821539723314712
161	0x3fa74521a6d1226c	0.04544930611934181
162	0x3fb0d99a082191f8	0.06582033823503497
163	0xbf733fcde68a6a8c	-0.004699520396253331
164	0x3f921886ff67c636	0.017671689356524044
165	0x3faadcf20faefbd9	0.05246693078469606
166	0x3fb021d0b814feb0	0.06301598066510894
167	0xbfb41c7624d6e297	-0.07855928801917354
168	0xbfb1cf1c95b2222e	-0.0695665231197686
169	0x3fa199778f50a826	0.03437398552371489
170	0x3fb5868b249bfcda	0.08408422130377194
171	0x3fabf8eeccbd723b	0.05463358163135409
172	0x3f9b1e305a8e2e41	0.02648234894472368
173	0xbfa0617a567395fa	-0.03199369721714258
174	0x3faa6df544c6a700	0.05162016357946975
175	0x3f92388b7aee38cd	0.01779382646378096
176	0x3f992fa7b28f5ab6	0.024595852158962393
177	0x3f87552a905c08ff	0.011392910509588903
178	0x3fb5c5d924584205	0.08505017411540201
179	0xbf898394aae1075b	-0.012458001580060765
180	0x3fa5e42ab45127d9	0.04275639964232853
181	0xbfb456a0becc0068	-0.07944683702589972
182	0xbfa4be5bd9585b05	-0.04051482227457907
183	0x3f5dfe75d1863e08	0.0018306875773282955
184	0xbf61dd238e1874e6	-0.0021806425509241943
185	0x3fb0f4deea080774	0.06623643125206319
186	0x3f7986c70444d1a0	0.006232049378287391
187	0xbf7e985bf364c9eb	-0.007469519789355487
188	0x3f9ab886d6a2a307	0.026094538545893744
189	0xbf9cf828a24eb6e5	-0.02829040041586141
190	0xbfb3211e5bd89380	-0.07472409956296922
191	0x3fb04fd25a1d353f	0.06371798229266278
192	0xbfa92499a88f0ed2	-0.04910736258127958
193	0x3fb2e3413ec2f2c9	0.07378013403190233
194	0x3fb6dd6b80fe1198	0.08931610011320001
195	0xbfb05becfc791133	-0.06390267528428666
196	0x3fb8268d2a578cf5	0.09433824809780218
197	0xbf94db46c2aeb8bd	-0.02036772311446876
198	0xbfb8f760a9c927b6	-0.09752468247566423
199	0x3f73d383efc0820e	0.004840388657641371
200	0xbfb0b123b67db4e5	-0.06520293431613629
201	0x3f970a7103c9408c	0.022500768524253575
202	0xbfa66a018b8b9135	-0.04377751186783244
203	0xbfb652a31770924d	-0.08719844171771136
204	0x3f9417578b8ceafa	0.019620292561039122
205	0x3faad8e11fccb648	0.052435908443254464
206	0xbfb0d9b9f497082b	-0.06582224103388572
207	0xbfb5d4c6796e803d	-0.08527794327392342
208	0xbfc12e74cd810c39	-0.13423023256663827
209	0x3fa6e824570e7abd	0.044739852549573446
210	0xbfa61e116d654971	-0.04319815121074811
211	0xbfa2d126bcaeeb84	-0.036751947910906885
212	0xbfad026cf19a9f3d	-0.05665913056628689
213	0xbf8825499e6081eb	-0.011789870401174482
214	0xbf7082ee463b2d03	-0.004031115302221669
215	0x3fc181ca6ee9b628	0.1367733995024747
216	0xbfc5943a8310393a	-0.16858607673243303
217	0x3fad4afec9cae492	0.05721279347694365
218	0x3fc4561bbf3863b7	0.15887781941344567
219	0x3fbb453689bd688f	0.10652485716619452
220	0x3fb7094ec78e276b	0.08998577472644136
221	0x3fb91f75f7810f19	0.09813630383092366
222	0x3f9444cd7eea1e80	0.019793711539505043
223	0xbfb4c6ea11d89e1c	-0.08116019187638596
224	0xbf5bb380c715bc05	-0.0016907460779653782
225	0x3f8bf7c92ddb38e7	0.013656207763599727
226	0xbf8cd1320aab1683	-0.01407088370377641
227	0xbf9bbae9b3da5428	-0.027080203630777927
228	0x3f8ba737aa1779dd	0.013502535703932611
229	0x3fa4b6716b833b56	0.04045442998323405
230	0xbfc15461dc65b85c	-0.13538764249409752
231	0x3f74df573342af10	0.005095806718752774
232	0x3fbd767d75534298	0.11508926500688188
233	0x3fb441d13d58dd52	0.07912929294331164
234	0x3f8e715d1d9e54f1	0.014864661661514652
235	0xbf933f44e77ddeb3	-0.018796040181284734
236	0x3fb0b77569399f3d	0.06529935664150073
237	0x3fc2dd1ff86d9d37	0.14737319593698725
238	0x3f99c80d7455738f	0.025177202439738585
239	0xbfb048d5dbbbbfa5	-0.06361137976250449
240	0x3fb9540e166e03d9	0.0989388279686091
241	0xbfae8c7d9e7dec9c	-0.05966560897555803
242	0x3fb2a295b51f26a3	0.07279334709087464
243	0xbf390439579cf037	-0.00038172149617188587
244	0x3fb3824f56b19821	0.07620712153001864
245	0x3fc1435348593448	0.13486710579528194
246	0x3f890f81675c82b4	0.01223660561260096
247	0xbfa27ba535c831ac	-0.03609958917158748
248	0xbfa6d4226d924e14	-0.04458720767538807
249	0x3f6f0c829cc02e5c	0.0037901450177793405
250	0x3fc1b7839dc107aa	0.13841290667374767
251	0xbfbe4a1f95777be9	-0.11831853293504903
252	0x3fb01af0c6375f91	0.06291107978120027
253	0xbf98e968d6e022e6	-0.02432788669105692
254	0xbfc73211b83353d2	-0.18121549123921327
255	0xbfb4e6648b6d42f4	-0.0816405144116848

fc_hidden_list.0.bias f8 [100]
0	0x3fb35b73819fa07d	0.07561418451916953
1	0xbfafcc434f2bdaea	-0.062105277456728405
2	0xbf8e8a78252be189	-0.014912546762830175
3	0xbfb549a125107f5f	-0.08315474657910958
4	0xbfb66bb320facf25	-0.08758086733979249
5	0x3f7597b39301a676	0.005271626912966112
6	0xbf9a1fb3062227e1	-0.025511548280100164
7	0x3f9666f5ab937f16	0.021877134892633064
8	0x3fb400b7737be686	0.07813593453820475
9	0x3f823265cd3422b3	0.008885188412493283
10	0xbfaf1c1da1887777	-0.06076138111914891
11	0xbfaa7d44ae5fe118	-0.051736971174195456
12	0xbfab13ddfc789066	-0.052885949200828716
13	0x3f8c9067ab429e86	0.013947305597255221
14	0xbfb4404c34d9a6c3	-0.0791061047581492
15	0xbfb06db74dc68f5c	-0.06417413376635522
16	0x3fa36eca1deab8a2	0.037954631950343
17	0x3fb243764c185c55	0.07134188993255582
18	0xbf7b9b931c529fb0	-0.006740164423867087
19	0xbfab614d47607c57	-0.05347672935771957
20	0x3fba67dceb901955	0.10314732314154658
21	0x3f850e3d697aeac2	0.010281066686152033
22	0xbf8da93fd85d4dc5	-0.01448297385255771
23	0x3f9a9a86f09fb931	0.025980099140661742
24	0xbfb14efdaf0c7740	-0.06761155627870341
25	0xbfabab5e80c6571b	-0.05404181787450409
26	0x3fb9ac9ddbba20a6	0.1002901708071727
27	0x3fb101ca40284267	0.06643356386508402
28	0xbfb3b6c132c39929	-0.07700736512524443
29	0x3fb05bc025ef9e98	0.06390000272915086
30	0x3fb102c1efd50df8	0.06644832711486248
31	0xbf800546cf91fadc	-0.007822564324894747
32	0x3f7cfa2da459fb38	0.007074526108793937
33	0xbf91811854043749	-0.017094020965536392
34	0xbfacfdaea3a943d3	-0.05662294147317195
35	0xbfae0100d5acc524	-0.058601404269561536
36	0xbfad33e4757e6a89	-0.05703653272867821
37	0x3faedb45aa4d55b9	0.06026666358836103
38	0xbfc00e35db8517e4	-0.12543366640801346
39	0x3fa4f80317605090	0.04095468197206842
40	0x3f98ea42d2b110d4	0.024331134900663923
41	0xbfa078d1cb992c4a	-0.03217177973109438
42	0xbfb3b6b37d038c2c	-0.07700654794784673
43	0xbfa3ea969a541981	-0.0388991416348743
44	0xbf9d6c3254624108	-0.02873304977453109
45	0x3fb6228944c817ab	0.08646448067892602
46	0xbfb7eb3df986b4d8	-0.09343325941036384
47	0x3faaef05f3f177d7	0.05260485270331088
48	0xbf85e65a2a01946b	-0.010693268210341075
49	0xbfa0b424fcb1f829	-0.03262439331682316
50	0x3fb2b91bb293f869	0.07313702688040426
51	0x3f9ee27c1ef40eff	0.03016084612774161
52	0xbf8f8a6676496f2a	-0.015400696263149511
53	0xbfaf3c7419f7ce18	-0.06100809876434371
54	0xbfb8c03c5f4db0a0	-0.09668328596825626
55	0xbfb7bc6e26d468aa	-0.09271896789542447
56	0x3fad50d326eab100	0.05725726938303133
57	0x3fa1e6e9ee7cde24	0.0349648574469337
58	0xbfbd7715cba6ff3b	-0.11509834501248133
59	0x3f89debcdcb5a0f3	0.01263186977912809
60	0x3fb259954d71cfde	0.07167943135010499
61	0xbfbb833bd142a482	-0.10747121676344487
62	0xbfb9c9b88a4e4774	-0.10073426605802444
63	0xbfb07a3331887812	-0.06436462363532794
64	0xbfa214bfda2ee8ee	-0.03531455553407335
65	0x3f9ccce9e576ae85	0.028125433569285114
66	0xbfa12ffcd843e855	-0.03356924190480074
67	0xbf9d68f07403b0f1	-0.028720624047239466
68	0x3faec9c30c14e1c9	0.060133071160126735
69	0xbfb60ff53ae9e2ef	-0.0861809986908033
70	0xbf9300e8d1426381	-0.018558156749893143
71	0x3fa40ed451eccc8e	0.039175639153108496
72	0xbfb55e5b6825fb6d	-0.08347102444348105
73	0xbfb58f2b1e53cef1	-0.08421582689680542
74	0x3f997964ab0f1471	0.024877140942198787
75	0xbfb7a80802d9b8f3	-0.09240770406333691
76	0x3fb3db958197d09a	0.07756933606998687
77	0xbfb3850447dfbf17	-0.07624842409836351
78	0xbfbb1bb8f0fa3e0e	-0.10589176066627479
79	0xbfb5f63abf1bf34a	-0.0857884136748456
80	0x3fb18e9baf29e47c	0.06858227755027885
81	0xbf8faf9ecbb6970c	-0.015471687881312167
82	0x3fb41ef9febc3473	0.0785976645385789
83	0x3fb0f57358dc84a6	0.06624527854411841
84	0xbfa9ad0a6a1c97b9	-0.05014832063015668
85	0x3fa3f8d50e1158ca	0.03900781437612151
86	0xbf76cb9b6cfb9fa7	-0.005565268642136723
87	0xbfb772ce91b402e0	-0.09159556443411132
88	0x3f96eb62e1c674d2	0.022382302313066323
89	0xbfa51f37879d3f75	-0.041253791145776576
90	0x3f912e25687d725a	0.01677759599930293
91	0x3fbb301d73e74593	0.10620292739556296
92	0x3fb7b77d2798a530	0.09264356819825958
93	0x3fa9decfd34cc281	0.050528044265210965
94	0x3f84eb78bc1d46d1	0.010214751473231061
95	0xbf9053847ea8d161	-0.01594359419887448
96	0x3fb3837457daba57	0.0762245859611793
97	0xbfa8e1b36b7b64d0	-0.048596960897791086
98	0xbfa7442d57513d51	-0.0454420250977089
99	0x3f9895c9747c2be0	0.02400889180630006

fc_hidden_list.1.weight f8 [100, 100]
0	0x3fa5f55dcdaa04e9	0.04288762221859505
1	0xbf9ebcdbb4e82a72	-0.03001731197040631
2	0x3fae28c79896b6ef	0.05890487420707113
3	0x3f8ffaadc12b8398	0.015614850480632644
4	0xbfa8e61eb07b2790	-0.048630675356959974
5	0xbfb44363ad210aee	-0.07915328003677377
6	0x3fa3fbbde8c51f95	0.03903001276427102
7	0xbf88d0b432b6e0c1	-0.012116821096114784
8	0x3fa4647d558d2db2	0.039829174702926365
9	0xbf8f0b14233ed14b	-0.01515784962234847
10	0xbfa069a4cde1075d	-0.03205599797412504
11	0xbf8b0a963d820409	-0.013203786613532402
12	0x3f9ef54bb483f8fc	0.030232603924553722
13	0x3fba6f9a2c85a1a9	0.10326541506731836
14	0xbfb49c5ff0203af6	-0.08051108944367144
15	0xbf813ab60f1d40fa	-0.008412763916254996
16	0x3f79b1268907b133	0.006272459534084884
17	0x3fba4478e12426c9	0.10260730263339747
18	0x3f857eae37452cf0	0.010495530187333263
19	0x3f9eab52816da135	0.02995041766135494
20	0xbfa6482c347fd914	-0.043519383820170315
21	0xbfba19550f86dc98	-0.10194903973648406
22	0xbfa8f36f9774e653	-0.04873226856075221
23	0x3fc009a42a54a236	0.12529422823833308
24	0xbfb7968bb2cab07e	-0.0921408950331983
25	0x3f7e1168addf5103	0.007340821173745351
26	0x3f8010179b13bd25	0.007843193454816497
27	0x3f82f3935f502bec	0.009253646227099531
28	0xbf77f65e3dbf075a	-0.005850189332649547
29	0xbfc0001b7fa284a0	-0.12500327808542
30	0x3fa4f746984d3516	0.04094906434202465
31	0xbf8104c61fdd0603	-0.008309886786835646
32	0x3f9e3d065b142226	0.029529666241645235
33	0xbfb824ba2b691162	-0.0943104129774546
34	0xbf8d121e8905e256	-0.014194716030702253
35	0x3fb2e76901416899	0.07384353905345832
36	0x3fb2ef828341fd96	0.0739671297505907
37	0xbfc2512a219e9947	-0.14310194627359804
38	0x3fa9b63fac404dca	0.05021857240367529
39	0xbfa790458616f5af	-0.04602257978283874
40	0x3f8b018b07b36d3a	0.013186536953461048
41	0xbfb1b1f5401c4673	-0.0691216737289098
42	0x3f931c8d63d2bd78	0.018663605897641017
43	0xbfb0b15e1ca74c3c	-0.06520641517208586
44	0xbfbef795fe484b33	-0.1209653611952433
45	0xbfc4c651aa358160	-0.16230221568094816
46	0xbf87b9565740fbda	-0.0115839715364227
47	0x3fa43c6a3f8c9a5a	0.03952343011615218
48	0xbfa63ba0618a7a7c	-0.04342366400418471
49	0xbfb32de434f9ca7d	-0.07491899770119832
50	0xbfa0fa2816ca70b6	-0.03315854337890427
51	0x3f9c3482d648d168	0.02754406388176403
52	0xbfa0aa3ad1768e65	-0.03254874998972638
53	0xbfb3ca646d91dbcc	-0.0773070113663003
54	0x3fa7be2c129827e9	0.046372773427790843
55	0xbfa95edb1056b36f	-0.049551816696612565
56	0xbfa14f21c429c37e	-0.03380685348100253
57	0x3fb146e8233a518b	0.06748820171407581
58	0x3fafa8dfd18c5d26	0.06183528359377481
59	0xbfade42929e7096a	-0.05838135372643445
60	0xbfac7e396d14b05d	-0.05565051514199191
61	0xbf8c7d443e47f4b9	-0.013910802031200086
62	0x3fbb7cb252e36773	0.10737146876945562
63	0xbfabefffd3088994	-0.054565424452692884
64	0x3fa2ff8aa2705728	0.03710587723632691
65	0xbfbf4971cbd33462	-0.12221442438313226
66	0xbf908ca545c87833	-0.01616152037069458
67	0xbf685c1b2b29b8d2	-0.0029736071240257034
68	0xbfb8d40a78d83055	-0.09698548746399756
69	0x3fb81d2c5c9ab477	0.09419514904830516
70	0xbfc0332d3d797fed	-0.12656178952875
71	0x3f9395eec7935101	0.01912663548576266
72	0x3fadc02cc3d13a43	0.058106802848318505
73	0xbfc050703263f3d9	-0.12745478115530665
74	0x3f9d8090679baad3	0.02881074554799563
75	0x3fb8c69d186e572b	0.09678060385189428
76	0xbfbabfb29340068a	-0.10448757262204303
77	0x3f910b6ffadf0973	0.016645192801442343
78	0xbf92b87ebf98b8bd	-0.01828191799557354
79	0xbfca4ba61b581296	-0.20543361983449832
80	0x3fabca15bb082c14	0.0542761603174641
81	0x3fb4d8c00286009f	0.08143234311683266
82	0xbfadd674952c974c	-0.058276789865245066
83	0x3fba5e50df532527	0.10300164654031062
84	0x3f92074de9c3a314	0.017605988877139003
85	0xbfb8e88b133211b4	-0.09729832857744364
86	0x3fb15b6a597f9b18	0.06780113873501781
87	0xbfa29f9b51aa8872	-0.036373952597629336
88	0xbfb9e46a8a4ab9a5	-0.10114160419718717
89	0xbfb8198791402bdc	-0.09413955017241399
90	0xbfa802b6e3463ef8	-0.046895709269959285
91	0xbfb3599ecbed942c	-0.07558624724113433
92	0xbfbc4fe2cddfd56c	-0.11059396291951423
93	0xbfb2a28e3f89f626	-0.07279290248148892
94	0xbf9f952339e8591a	-0.030842352303886413
95	0x3f6028004104f33c	0.001972198959406061
96	0xbfae3924acc72f13	-0.059029718485900905
97	0xbfb8747c4111e1f4	-0.09552742565745814
98	0xbf9e5a394e7b6581	-0.029641051688348966
99	0x3fa3250d7a3abd07	0.03739206425722768
100	0xbfb9170ed3167c24	-0.09800808576118009
101	0xbf8bf58a68c87d39	-0.013651925394752783
102	0x3fb51aeb24cf6074	0.08244199417765846
103	0x3fc28eedf40c3ca7	0.14498686233898647
104	0x3fb117a2b88cc877	0.066766901069771
105	0x3fc104928c27ec5f	0.13295204013397474
106	0xbfb1577d1446b927	-0.06774121994996972
107	0x3f9a92ba7f0466ea	0.025950349810137142
108	0xbfc155c783803954	-0.13543027802411223
109	0x3fa1a4a3811b4b03	0.034459218511662136
110	0xbfb2f4572c1c6d12	-0.07404084040574713
111	0xbfb7c5d0503ea5be	-0.09286214789485478
112	0x3fb599639175e353	0.08437177945405709
113	0xbf443893b23061f1	-0.0006170960590479708
114	0xbfa82c86d265c4c3	-0.047214711364071536
115	0x3fa3fcb096653ebc	0.03903724513895443
116	0xbfb3a57370402fe7	-0.0767433308648716
117	0x3faf5163a1a534f4	0.06116782520494182
118	0xbfb3626d897e6946	-0.07572064024717404
119	0x3f97c1ee5b8d03fc	0.02320072587759013
120	0x3fb2c244bb5c8f54	0.0732768018174828
121	0xbfa4a15d627160fd	-0.04029361559577358
122	0x3fb484cbfe9c515b	0.0801513191802931
123	0xbfa54aeee5c92a03	-0.041587319898628315
124	0x3fbb15aa177f360e	0.10579932283072699
125	0x3f987440f19bb098	0.023880972620574953
126	0xbfb815ce1d4bb5a8	-0.09408271994808237
127	0x3fa18df540d127eb	0.03428617874358494
128	0xbf60c04aa223cf47	-0.002044816749838949
129	0x3fb072234bd12c82	0.06424160576823293
130	0x3fc040d2d71ec7a1	0.12697825912397057
131	0x3fbe3b0f823ec000	0.1180886929494136
132	0xbfa26b786858cbe0	-0.035976183641103665
133	0xbfa4c2c115b14a5e	-0.04054835691262747
134	0xbfaf009aa856641d	-0.06055148415470788
135	0xbf8a48495801e935	-0.012833188055300407
136	0xbfa24d6d07ea4f8e	-0.03574696275350596
137	0x3fb74d3473bcba3e	0.09102180314651151
138	0xbfa03809ddae0d03	-0.031677540121586766
139	0xbfbd2545fdbb9746	-0.11384999699256779
140	0x3fb96de3122cf9e4	0.09933299249403366
141	0xbfb3b7a53deeb0a6	-0.07702095758458202
142	0x3fb10e9a4f78b7b7	0.06662907066558331
143	0x3fa4aaa14c95b34c	0.04036430415985723
144	0xbfa4d2a836cc5909	-0.04066968602107763
145	0x3f955cfbb6eb7647	0.020862515487229307
146	0x3f43932e073afb9c	0.0005973791835102052
147	0xbf8df0259d3f6719	-0.014618200169866523
148	0x3fc07cb22dd497d0	0.12880542028250241
149	0x3f8e70c97dd79d3f	0.01486356177606629
150	0x3f9582102e7d7779	0.021003964269190576
151	0x3f9d0992448ceecf	0.028356824335090288
152	0xbfa2e25eed534100	-0.03688332221065771
153	0xbfa91601e88ee7cc	-0.04899602855535043
154	0xbfa863bb1e2d07a6	-0.04763588660581712
155	0xbf7ccd7d7191a5d2	-0.007031908048796125
156	0x3fb4ac126a4f077e	0.08075060935428088
157	0xbfaecffa2b577243	-0.0601804902941905
158	0xbfb06e6d3f11b27e	-0.06418497838758161
159	0x3fbb3660cc359721	0.10629849420146488
160	0x3fa350213e8164de	0.03772071731573033
161	0xbfa23a615d55bb51	-0.0356016565736953
162	0xbf7df10e9cec6c7a	-0.007309968072855994
163	0xbf94e9a9a7766471	-0.02042260250673106
164	0xbfb52b250760431d	-0.08268958501890862
165	0x3fb08f80214d948b	0.06468964398443881
166	0x3fb48ecf156a290c	0.08030409119433929
167	0xbf8b5de5ae19e073	-0.013362688422816604
168	0xbfa00a2f998fa754	-0.03132771253133507
169	0xbf546d14d7ad65b1	-0.001246710161203129
170	0x3fb3d66df1283dd1	0.07749068391444004
171	0xbf885b491920fb4b	-0.01189286334931485
172	0xbf96f7c5563f1c48	-0.022429545773573062
173	0x3f99d7998d00f75a	0.025236510497271915
174	0x3fb003275f231184	0.06254812309913943
175	0xbfa9f66eeb1ebf4d	-0.050708261681733015
176	0x3fbd3aa27b766e27	0.1141759444639595
177	0xbfbda7251556b538	-0.11583167811359807
178	0x3fa9f9091599fd38	0.05072811497393065
179	0x3fc5cc720c2f5d1b	0.1703016814705983
180	0xbfaccc35a01ac5fb	-0.056245494646088155
181	0x3fa7c05133b14df1	0.04638913875592355
182	0x3f820702f7e142b7	0.00880243605584617
183	0x3f7a18e586c752b2	0.006371399486358941
184	0xbfabdd1aca369aba	-0.054421269592514546
185	0x3f998c563a9a7717	0.024949405028215823
186	0xbfbbf976600bc952	-0.10927524418710746
187	0x3fba2b95e0efcb16	0.10222756139391395
188	0x3f965d6a2bb06090	0.021840723911822624
189	0x3fa5bc1aa18f39b1	0.042450744840255246
190	0x3f73441013d3c521	0.0047035816216845225
191	0xbf68bc9cba170f20	-0.0030196248123689623
192	0xbf9f17c57beadadc	-0.03036411827880668
193	0x3f9a25f8fcfd2084	0.02553547901268917
194	0xbf97f54faa393981	-0.023396725430126167
195	0xbf92c0f609198d45	-0.01831421309033245
196	0xbfa6c79bbce68c29	-0.04449164086261021
197	0x3f7acc2ab74b3bf8	0.006542364940016469
198	0x3fa2aab334970683	0.03645858780829505
199	0xbfb57dadac88bbe5	-0.08394895040758817
200	0x3f9b7b72fbd6ac58	0.0268381086549819
201	0x3fb271a13e58d911	0.07204635402817795
202	0xbfa0f1ca7a466a59	-0.03309471838584405
203	0x3fc5c6ac24cbe5da	0.17012550160124712
204	0x3f774c2761fcaabf	0.005687860335266747
205	0xbfb24b789667a0ea	-0.07146409675590673
206	0x3fb6b0bbc2ba815f	0.0886342382823435
207	0xbfa6379ae0ee7503	-0.04339298244233627
208	0x3f87411933787ec8	0.011354634173641812
209	0xbfc04689083b60de	-0.1271525659747174
210	0xbfab258ab74dde6c	-0.05302079665756029
211	0xbf81a54067e2c582	-0.008615973635047739
212	0xbfbd8a29a1c85f59	-0.1153894443490321
213	0x3fc5ff315d0b2a6f	0.1718503670038731
214	0x3fa2ec814449b808	0.03696063955872836
215	0x3fae53fab2a8a509	0.059234461125308675
216	0x3fafa2f0cd07a559	0.06179001334005347
217	0xbfc2d6bb815608da	-0.14717811408269804
218	0x3fa1c59111099c99	0.034710439042833836
219	0x3f812e06ed3e5043	0.008388570895285002
220	0x3fb281ed3fa16daf	0.07229502490502314
221	0xbfa106a256633805	-0.03325373940025148
222	0xbf8571c82fe8d731	-0.01047092815597814
223	0x3fb49b0decb4b7db	0.08049094227746371
224	0xbfa196f39192a97c	-0.03435479309094355
225	0x3fac7b497d4ca8d5	0.055628105683653985
226	0x3f91f2e2b4d487a8	0.01752809742641373
227	0xbfb31b8ef77eb3ac	-0.07463925878864924
228	0xbfc1b0a588bb1a6f	-0.1382033269530498
229	0x3fb097114e806f92	0.06480510870500059
230	0x3fa785a8949af439	0.04594160856274993
231	0x3f788e94c752ceea	0.005995350996432095
232	0x3fba4b10a391b0d8	0.10270790093790383
233	0x3fada81e23ca9072	0.057923261517573446
234	0x3fb4f0697611f59e	0.08179339535305138
235	0xbfbfc3f5a4a79b0e	-0.12408385534181951
236	0x3fa05565e7eeb736	0.03190153557021207
237	0xbfc302e42677fc92	-0.14852573278765085
238	0xbfb6961069bc5615	-0.08822729665219982
239	0x3fb5aa6f0b264ea4	0.08463186285217233
240	0xbfbcc26bf44b2425	-0.11234163965413353
241	0x3fbd350bc12b4812	0.11409066644708357
242	0xbf8f6b8455da11db	-0.01534179102896698
243	0xbfba90c9516b9051	-0.10377176511571064
244	0xbfb197c19f913539	-0.06872186799701731
245	0x3f57a0fc55091d99	0.0014421905690527924
246	0x3f978d8301289927	0.023000761934008154
247	0x3fbb385b7c2c0868	0.106328695121222
248	0x3fb69d9d047baa04	0.08834248885583668
249	0x3fb23464e1072f52	0.07111196988915694
250	0x3fb8a3afbcfddd37	0.09624765743307227
251	0x3fc16e82c43632f1	0.1361850221695913
252	0xbfaac88b1c60e044	-0.05231127473274502
253	0xbfb704dece6df498	-0.08991806545050662
254	0x3fb791f1f6ae816c	0.09207069656850358
255	0x3fb7ada6d4bcc0c7	0.09249346441061156

fc_hidden_list.1.bias f8 [100]
0	0x3fbf0773e8177528	0.1212074700956306
1	0xbfbe660c52d45e23	-0.1187446310253724
2	0xbf7dbeb4f5bbe07d	-0.007261950373269707
3	0xbfb6a7e4b97b9642	-0.08849935081851704
4	0x3f82cd6fb842e7fd	0.00918090134688398
5	0xbf864ef30f52d66b	-0.010892771630419426
6	0xbfa0a0b82ac88d8c	-0.03247619173296376
7	0x3f95fe21479ac494	0.021477241511722214
8	0xbfb24245e1dcc6f0	-0.07132374538630493
9	0xbfa7efd805d3cf14	-0.04675173827300064
10	0x3f93e0fb31f4bc43	0.019412922786781427
11	0xbfba2e6dd2cab124	-0.10227095028193794
12	0x3fa62a816f1f39d2	0.04329304200620111
13	0x3fba27ae9700cf57	0.10216799913979223
14	0x3f9abdd63e650f11	0.026114795263551708
15	0x3facf6849525c4c2	0.05656828232430079
16	0x3f9515972f495d96	0.020590173970359858
17	0xbfc474f947a1ff54	-0.15981975553222105
18	0x3fb650395cd57df1	0.08716162220434122
19	0xbfb01b1bfcc26859	-0.06291365548023133
20	0x3f7a271d78a756d8	0.006384959337500461
21	0x3faa69d029a42993	0.0515885401565185
22	0xbfbe942c203ec889	-0.11944843089330183
23	0x3fb3cbc8c1da5b84	0.07732825024355178
24	0xbf98966ebfe732f5	-0.024011354887806886
25	0xbfb92e17253038f5	-0.09835953386229675
26	0xbfb8c88c19340688	-0.09681010833085157
27	0x3fbe0e351f9c9dca	0.1174042894532398
28	0x3fb69d3229e80d57	0.08833611987215782
29	0x3fbe52b266da6a0c	0.11844935427726727
30	0x3fa3dca9662eda75	0.03879289028502778
31	0x3fc1238d1ff7caa2	0.13389743863043174
32	0xbf932ab870467020	-0.018717653134089685
33	0x3fb8063f8d4cbb1b	0.09384534072590293
34	0xbf9e2929d74a6c48	-0.029453901067068494
35	0xbfabb15168848de7	-0.05408720398761684
36	0xbf998da1fa530c4d	-0.024954348472203503
37	0xbf8b8e9b99476091	-0.013455596556852608
38	0xbfaa79718995422e	-0.051707790417485064
39	0xbfa6e794b8319635	-0.04473557232340079
40	0xbfb4a2ab3acd1ec8	-0.0806071299131147
41	0x3fa4af6b2cfba065	0.0404008381281649
42	0xbfa7ca4ed0dd5b3b	-0.0464653615915069
43	0xbfc4cf79e9f36b40	-0.16258167193776707
44	0xbfb27e72763d7da8	-0.07224192988132094
45	0x3f9588173791d3a6	0.021026957289410973
46	0x3f93b647d2b9c211	0.0192500326506338
47	0xbfc0a6ead49cbc07	-0.13009391194779615
48	0x3f543e6fe7e1304b	0.0012355892972833067
49	0xbf96980ad9fc9738	-0.022064370684481832
50	0x3f887318cc8d8a38	0.011938279859980402
51	0x3f9a27d3a6bf38bd	0.025542552044321754
52	0xbf92b98127d1e75e	-0.01828576856176
53	0x3fb1d9f955275eec	0.0697322686095238
54	0xbf67b2a6a2e939f3	-0.002892804586088754
55	0xbf9e4472e92140bb	-0.029557986716384415
56	0x3fac984485a9d262	0.055849210087136184
57	0x3fa42c6b4c6849a5	0.039401391102859486
58	0x3facdb3bc777b82b	0.05636011896045575
59	0x3f71c264f7ba2f52	0.004335779576319103
60	0x3fb81301b708fae0	0.09404001921300731
61	0xbfaaf076f1450305	-0.05261584944901724
62	0x3fae4c3c25bd7b01	0.05917537651725092
63	0xbfa476b7ff06847e	-0.03996825206855535
64	0xbfaa8396ee6bf957	-0.05178519878789938
65	0x3fa5f8337c908683	0.04290924926341424
66	0xbf9c6bd35d7f4a5e	-0.02775507219468875
67	0x3fbff9c80644469e	0.12490511086459796
68	0xbf9349c7837a2953	-0.018836133384448072
69	0xbf8ae952cc438830	-0.013140341623913171
70	0xbfa8f325385c62dc	-0.04873005211829248
71	0x3fabf3763a19ca0d	0.05459184130895176
72	0xbfab78cd28890c6f	-0.053656016538774824
73	0xbfa2d87df6bd8145	-0.03680795323339451
74	0xbf9f6ae0822871c5	-0.030681140846455585
75	0xbfb1261e49bc7ad5	-0.06698788929177664
76	0x3fab0063f42ac804	0.052737353854709595
77	0x3fb733637c5b1507	0.0906278780558588
78	0x3f7adbd9485eb248	0.006557320366408499
79	0xbfa40340f1ff3d73	-0.03908732370438885
80	0xbfbc33faa158d6b8	-0.11016813696991334
81	0x3fbfb6f10008eb5f	0.12388521433687803
82	0xbfb3a9f235c047a6	-0.07681192219049979
83	0xbf9985094cb61ece	-0.024921555811970468
84	0xbf914350a6744ee8	-0.016858348998609524
85	0xbfb0c1308f161bda	-0.0654478406269016
86	0xbf9b3359990c6e83	-0.026563072172491885
87	0x3fa5c50770b56365	0.04251883745991484
88	0xbfa85101009cd814	-0.047493010830678056
89	0x3fb68e6e11e5af0c	0.08811080872481741
90	0xbfa59763b18880e8	-0.04217063467172172
91	0x3fb00b930136222a	0.06267660884453422
92	0x3fb58775498657e5	0.08409817738569776
93	0xbf9d36247ced4924	-0.028526849865849205
94	0xbfb9936fbf50b637	-0.09990595265181744
95	0xbfadbebcc8c90fe1	-0.058095836172043176
96	0xbfa9e5d40727e02c	-0.05058157527304305
97	0x3fa2b78e669d9c27	0.036556673075033345
98	0x3fbb2683ca9d425d	0.10605643936765703
99	0x3f9d235a5b2ab361	0.02845517331541048
