savedModel/poisson2d_inverse_tanh/noise_0.1/ParticleWNN_4/trained_model_final.pth (torch, 131953 bytes, 20 tensors)

fc_in.weight f8 [50, 2]
000000 47 1d 1a ab e1 3c d0 3f 54 79 69 93 02 24 e0 3f
       0.2537159129064616 0.5043957595005772
000010 b6 46 9c 3e 13 21 cf bf 45 c2 ba 95 a2 3e e7 3f
       -0.24319687420989106 0.7263958858876057
000020 23 7a 79 66 75 cb e4 bf 50 a2 ac 8c 7d dc da bf
       -0.6498362542586772 -0.4197076677105871
000030 a0 59 22 e8 08 1e c6 3f d7 37 25 5f f0 37 dc bf
       0.17279158911396753 -0.4409142426637777
000040 6e fa c9 48 66 22 e3 bf 64 06 38 37 a4 4c e8 bf
       -0.5979491635951726 -0.7593556478970638
000050 2c 99 16 8d b5 d1 dd 3f ac fd 6d 25 b7 07 e2 3f
       0.46592463281776264 0.5634418231056109
000060 c4 00 1d 9e f7 be e3 3f d9 27 5e 45 3b 34 e0 bf
       0.6170614326620343 -0.5063759188499218
000070 a4 d2 40 f0 1a a2 dc bf ea 52 4b 5c ea 01 d2 bf
       -0.4473941179487986 -0.2813669110594633
000080 7f 80 27 02 ea ac cb 3f 66 c8 12 33 61 98 d0 3f
       0.21621441941443106 0.2593005179179556
000090 22 ef 1e ea be c2 e4 3f f1 d3 42 02 8f 3f d7 bf
       0.6487726757690988 -0.36325431080632514
0000a0 12 e3 67 8b 3e d6 de 3f 3a 5a 38 62 f1 4d e0 3f
       0.48182643522118085 0.5095145147668696
0000b0 b5 6b 12 4f 64 16 c5 bf 36 9a 95 78 88 41 e4 bf
       -0.1647458444684539 -0.6329996447719342
0000c0 b0 1a 8e 1b ed fd c7 bf e7 da 6b 0f 10 df cd 3f
       -0.1874367126985894 0.23336983445161438
0000d0 4f a7 da f0 f3 5b c3 bf e8 fa 4c 65 38 ec d4 bf
       -0.15124367962317328 -0.3269177426590617
0000e0 41 68 0a 31 e5 7e db 3f d5 57 82 8f cd 10 e2 bf
       0.42962007321478174 -0.5645511439240588
0000f0 0a 62 21 8d bb 15 e7 3f 88 ab 4a 27 0c 74 80 bf
       0.7214029079869431 -0.008033842991911802
000100 27 82 a5 62 06 ae e5 bf 51 cc f3 a4 18 23 97 3f
       -0.677493279141406 0.02259481913365519
000110 37 bf 72 30 08 3f ea bf d5 f7 0c 88 0c 75 b8 3f
       -0.8201943346266266 0.09553602525281175
000120 09 a6 06 9c 41 e9 e7 bf 8f ee 0c d4 7c ac e0 3f
       -0.7472236678488012 0.5210556165324806
000130 a4 5d e8 6b 0f 62 e6 3f 74 fb 64 e7 64 50 9d 3f
       0.6994702441760876 0.02862699186629976
000140 7d 65 e2 f8 1e e6 e8 bf 27 7d a4 33 fd fd a4 bf
       -0.778090940572994 -0.04100028281595263
000150 1c f9 44 bb 6d a4 e6 bf 02 8b 68 87 da 37 d0 3f
       -0.7075718553167323 0.25340903495286693
000160 9b df ec 21 e1 b9 d9 3f 30 87 d0 5a 46 2c b0 3f
       0.40197017968193344 0.06317558018829739
000170 55 c7 22 94 c1 fe d5 3f 83 5b 03 98 5d 64 e1 3f
       0.3436740824355316 0.5435016602522044
000180 43 6b b4 89 c2 a0 b0 3f 74 dd 84 02 7e 59 df 3f
       0.06495300161297472 0.4898371719932222
000190 cf 4c e6 4c 73 6a db 3f 5c 7a 04 8e 9b 5c e8 3f
       0.428372216317439 0.7613046430377142
0001a0 37 dd 7d 22 61 52 d7 bf b5 86 02 38 d3 c0 c0 bf
       -0.3644030415375314 -0.13088455424172243
0001b0 00 33 ba 96 78 47 c1 bf f3 b5 91 69 5b 32 c4 3f
       -0.1349936233495086 0.15778677611108058
0001c0 b4 84 9b f8 b2 a0 b9 3f c8 f9 30 44 ed ca d7 bf
       0.10010832376021278 -0.37176067027385473
0001d0 52 19 51 97 38 86 d7 bf 3d eb 6a c6 e0 d7 e3 3f
       -0.36756720330267456 0.6201022982926144
0001e0 16 bb 78 83 3a 25 d5 3f d4 df 08 74 0e 47 e0 3f
       0.3303972515013113 0.5086738840391214
0001f0 bb 78 5c e4 ba 22 df bf 88 37 9f 67 a3 53 e3 3f
       -0.48649475384616964 0.603959753405193
000200 02 17 4f fc ab 11 a9 3f cd a6 90 85 cc d6 e1 bf
       0.04896295027678656 -0.557470570439557
000210 5b 7e f2 a0 b7 62 d8 bf 60 f2 a9 54 c9 eb d3 bf
       -0.381025225806274 -0.31126626270250846
000220 d0 eb b3 b7 9f 32 e2 bf 4d 4c 98 49 e4 ec dc bf
       -0.5686796749063152 -0.4519587248516402
000230 b5 b3 67 12 9d 5c e7 bf 82 4d cd 6a ac cc b1 3f
       -0.7300553664659818 0.06952931983442137
000240 0b a5 5a 7e 37 c3 da bf 64 b8 10 51 2e 7a c2 bf
       -0.4181650861670085 -0.1443536659075476
000250 c2 7e 2f 3b 34 30 e0 3f e8 aa 76 18 ab 0e df bf
       0.505884280773863 -0.4852702845479784
000260 02 ea 84 34 4e bd d5 3f 1d 0b e9 4b f9 ef b8 bf
       0.33967929009273246 -0.0974117098167366
000270 2b 1a d8 46 fc 3c e0 3f 54 39 45 ee ac dc e1 bf
       0.5074445136713782 -0.5581879285544269
000280 2d be 93 79 b9 d8 e1 3f 29 48 b9 d5 2c 1d 62 bf
       0.5577056288293015 -0.0022111774140194562
000290 26 09 4e 81 65 86 e6 bf 29 84 11 3e db af d5 3f
       -0.7039058232769875 0.3388584238182966
0002a0 8d 9b e1 24 57 3a b2 bf ef ee e2 fb 30 24 e8 3f
       -0.07120270395681257 0.7544178886086835
0002b0 12 5f f3 f8 ff 2f c1 bf 45 36 cb 61 ee a1 e9 bf
       -0.13427734046739964 -0.8010169897112936
0002c0 c7 46 0f 64 4d 19 bb bf e6 80 61 c6 0b f9 ca bf
       -0.10585483258116844 -0.2107252806336028
0002d0 d3 8d 0b b2 05 b8 b1 bf 01 7b 50 d2 c8 44 e5 bf
       -0.06921420666508675 -0.6646465404226946
0002e0 35 45 c9 8c 7e 8c c5 3f bf 25 79 23 5a b7 e9 3f
       0.16835004686667224 0.8036318486057822
0002f0 d5 e2 ac 07 a8 80 e7 bf a9 d2 ef 89 ac 83 e9 bf
       -0.7344551229390058 -0.7973234838560376
000300 cb fd fe e8 40 f3 ca bf 50 d6 3f 24 95 61 d6 3f
       -0.21054850937615152 0.34970596828438705
000310 1b c5 b4 01 40 7b db bf 6c 37 e7 42 72 8d c7 bf
       -0.4293975845967723 -0.1840040995288591

fc_in.bias f8 [50]
000000 2f 94 c4 21 0b ef e3 bf 34 46 03 80 0b 9b e2 3f
       -0.6229301127938295 0.5814263820886425
000010 70 cd 87 cb cd 20 da 3f 18 ba df e5 84 9d b4 bf
       0.40825219036124505 -0.0805285512176187
000020 fb e1 69 70 e9 6a d6 bf bb 42 3f 78 7a b9 d0 3f
       -0.35027538278475817 0.2613207029617503
000030 76 32 45 75 e8 2f ac bf 19 f9 ac 02 96 b6 df 3f
       -0.05505300933382255 0.49551916371628263
000040 0e 40 c3 82 c8 df b6 bf de 8f c6 81 dd 77 be bf
       -0.08935216133545529 -0.11901649874067696
000050 a8 da a5 d4 48 78 a8 bf 92 df 31 b8 0c 23 da 3f
       -0.047792697866431866 0.40838926303649103
000060 fb 25 98 68 ce e2 da 3f 81 7e ab 4c 6c 31 d7 bf
       0.4200931569508552 -0.36239154326720074
000070 05 bd 9b 84 0d 81 d5 3f c6 43 71 74 58 0a db 3f
       0.336001758098931 0.4225064408429343
000080 b4 e7 3b 24 59 3b d4 3f 79 ae 12 38 eb 05 cc bf
       0.3161223272178362 -0.21893062818468303
000090 a2 cc 0d fa 90 f0 d0 bf 67 9f c1 53 00 42 e4 bf
       -0.264683002656236 -0.6330567966333377
0000a0 88 9b 52 dd 6c ae e2 3f 24 af 13 8b ec 5a b8 bf
       0.5837921450337129 -0.09513739009315408
0000b0 32 15 db 62 0b bc e2 3f 68 d5 92 7a 2a 4b e3 3f
       0.585454648092002 0.6029255289092079
0000c0 53 22 15 d9 cc ca c0 bf a0 5a b0 32 9e d7 e3 3f
       -0.13118897056326037 0.6200705518738978
0000d0 f8 ea a0 1c 7a db c9 bf 5e bb 9c e5 77 09 d6 bf
       -0.2020104064739241 -0.34432790206022
0000e0 7f 8a 0d de 23 32 da 3f 28 3b 78 85 cb 16 e2 3f
       0.409310309265642 0.5652825934247163
0000f0 ec 13 2b 6f 34 4e cc 3f 0e ca 86 ff 2f 02 b5 bf
       0.22113662174356763 -0.08206462849083371
000100 8e 1f 58 b7 ca f6 e2 bf 2e 68 47 6a 94 7f e1 bf
       -0.5926259594862004 -0.5468236995468538
000110 6d 81 32 db bb ba d0 3f 99 ca f2 fe 00 5d e5 3f
       0.261397327480174 0.6676030139409078
000120 74 99 9f 6a 55 69 e1 3f 32 ae 16 c6 56 17 e5 3f
       0.5441081125725717 0.659098994151867
000130 65 bc ff 90 df 03 b9 bf 5a ed a9 ab 63 05 dd 3f
       -0.09771535196317556 0.4534539390949327
000140 94 55 2d b6 30 6b d5 bf 28 45 5e d1 76 ef cf 3f
       -0.33466737547618064 0.24949536536272743
000150 3b 55 e2 4f 32 cd bd bf 54 1b 06 da 4a ea e3 3f
       -0.11641230058952072 0.622350145175782
000160 06 4f 5f db 3f 5f db bf 0f d3 60 9a 5c 78 4b 3f
       -0.4276885645206082 0.0008383228457718733
000170 f0 27 49 9d d9 d3 cf 3f 30 be 8f df b3 04 9d 3f
       0.24865265064209963 0.02833825160990794
000180 e1 a9 29 bd 38 5b d5 3f 7e a3 5b 3b 02 35 bb bf
       0.33369272683071755 -0.10627759884995489

fc_out.weight f8 [1, 50]
000000 4f 75 6c bb d9 46 98 3f 14 94 7b 9f 14 18 a4 3f
       0.023707773270065954 0.03924622008143089
000010 e0 81 42 52 c8 da c5 3f 4a 45 1f 47 82 3a 31 3f
       0.17073921219436183 0.0002628868161283672
000020 bf 60 66 20 de 33 bc 3f 4b 65 b6 04 53 29 c5 3f
       0.1101664380170204 0.16532361726857867
000030 4b 71 22 95 a2 28 b3 3f 64 82 b4 d2 71 2f 9f 3f
       0.07483879223804484 0.030454424367351143
000040 25 e6 b3 43 a2 71 91 bf 2a 43 4a c4 3a 9f b2 3f
       -0.017035041219946607 0.07274215023268185
000050 55 da 3d d1 e9 bf c0 bf 60 d5 3b c7 5e b4 a6 bf
       -0.13085673062205908 -0.04434486562778761
000060 6d df 1d e7 80 fe b7 bf 74 3f 9f d8 6d e4 b2 3f
       -0.09372716562745405 0.07379805124878464
000070 9a f4 d2 17 2a 15 c1 3f a9 f3 b1 e2 f6 08 bd bf
       0.13345838702472151 -0.11341803583668643
000080 d5 93 82 31 0c c3 9b 3f 03 2e fe a9 83 ec bc 3f
       0.027111235162596465 0.11298392200676947
000090 23 f7 d5 0f 74 db a4 bf 51 33 b6 ab bb 1c c9 bf
       -0.04073679631527074 -0.19618936428414682
0000a0 c7 cb 23 10 fb 43 b4 bf 1f 9e da f7 a5 22 9e 3f
       -0.0791623033908727 0.02942904782562838
0000b0 33 b7 c6 55 61 a6 b0 bf d9 a6 42 7e 9c b6 be bf
       -0.06503876060625373 -0.11997392733124047
0000c0 91 88 7b db 9c 47 a9 bf f8 83 ba 3f 96 e1 b3 bf
       -0.049374486725143225 -0.07766093307374422
0000d0 76 3a 2d 69 90 17 b1 3f 6e 2f 41 a3 5f c5 c5 3f
       0.0667658097056377 0.17008586379449347
0000e0 9e 4f 0d 07 04 20 03 3f 8a 2a 19 cd 8b a0 aa bf
       3.647815981958003e-05 -0.05200611952439711
0000f0 3e 1d 6b 1d e5 a8 a3 bf 62 9a 22 83 26 b6 bd 3f
       -0.038397941437831026 0.11606064511816208
000100 e2 a5 af 5a fa c3 c0 bf c0 cf 87 c0 07 59 c2 bf
       -0.13098077228578037 -0.14334198857215874
000110 98 d5 8e 9d 33 89 b0 bf 17 5e 8b 3c c4 3d bd bf
       -0.06459353062276418 -0.11422373273978113
000120 25 a3 92 20 7c a3 a2 bf 71 94 31 a0 79 e0 b2 3f
       -0.03640354058854304 0.07373771821001342
000130 61 ed ea c1 96 11 85 bf 2f 45 1b 36 6b 57 97 bf
       -0.010287454407594767 -0.022794413735771343
000140 57 5e a1 74 70 3d b7 3f bb 87 76 08 7e 6d bd bf
       0.09078123900814582 -0.11495197016350193
000150 2a f8 3f 06 81 3c b1 bf 1a 3f 70 03 db 54 96 bf
       -0.06732946779808971 -0.021808073124758832
000160 3c c3 a0 64 7f eb c6 bf e3 85 6a c2 31 7d b9 3f
       -0.1790618172977022 0.09956656452643346
000170 6a 97 74 c2 ae ce c0 bf e2 ca d8 6b 71 6f b3 bf
       -0.1313074540605002 -0.07591923602084763
000180 2b 8e b0 a6 f5 c6 bc 3f 32 f8 0f e4 42 36 24 bf
       0.11241088218280797 -0.00015420500315593968

fc_out.bias f8 [1]
000000 a3 27 54 3c 69 54 bf bf
       -0.12238176081532841

fc_hidden_list.0.weight f8 [50, 50]
000000 0e 3c a4 df e8 fc c8 3f 5f 0e 4c 7a 1a 7e a3 3f
       0.19521819038388383 0.03807146780857517
000010 e4 85 bc ba 6d 1a a5 bf 9d 94 45 26 22 d1 d2 bf
       -0.04121725944993296 -0.29401448953132975
000020 e9 cc c5 b4 3d 3d 95 bf 74 09 44 af 80 af b3 3f
       -0.020741428526389525 0.07689670828771061
000030 ce 17 5d 4d a4 b4 de bf d7 a3 59 e0 f2 ff a2 bf
       -0.4797755008224812 -0.037108983885282214
000040 5d 94 dc ec e0 72 c9 3f 88 c2 73 ef 35 5a cb bf
       0.19881831708440503 -0.21369051162720987
000050 87 a4 e6 28 e9 da b1 3f 08 d1 79 5f 16 ff d7 bf
       0.06974656342085171 -0.37494429897130077
000060 60 22 86 b7 bc 6a bc 3f df 6b 0f 74 3d 79 a7 bf
       0.11100368004384498 -0.04584686319113706
000070 08 30 35 9e 2a 71 e0 bf a0 b5 0f 52 32 de d3 bf
       -0.513814267158069 -0.3104368020420569
000080 d7 cb f8 b5 96 0d 91 bf 2f 7f 7c 82 e3 37 d5 3f
       -0.016653399330788545 0.3315361761360575
000090 64 c8 c9 7f 82 e0 dc 3f 0f 97 04 c6 30 f6 c0 3f
       0.45120298842733164 0.13251313847393262
0000a0 0b be 7a bb be e5 c5 bf 3f 2b 6e 37 35 90 db 3f
       -0.17107376245756742 0.4306767503082262
0000b0 cc 09 fb 90 90 88 af bf 84 73 00 c7 63 49 b7 bf
       -0.06158878106863916 -0.09096358879510374
0000c0 61 aa a5 ee 42 8b d4 3f 1c 26 44 fd 9d 0f 85 bf
       0.3209998446024312 -0.010283693591662639
0000d0 10 46 23 18 1a 9c c6 3f 6f ab 77 d5 2b d4 cf 3f
       0.17663885286906167 0.24866245196548273
0000e0 db 0a 74 d6 7f 56 cf bf 26 4b 42 ed 99 c0 9c bf
       -0.24482725116111834 -0.028078465562951703
0000f0 bd 30 c7 bb 71 22 8b 3f d0 2d 40 43 de bb d7 3f
       0.013249290984184698 0.3708415657754047
000100 50 39 5f a2 be 71 b1 bf 2e a3 bf c7 d9 0f b3 bf
       -0.06814185585173971 -0.07446061255144507
000110 70 80 38 eb fe 8c b2 bf 55 dc c8 4d 06 03 c0 bf
       -0.07246392481511221 -0.12509230421139486
000120 26 e7 74 c0 12 12 b3 3f e3 a2 25 c5 36 77 d0 bf
       0.07449452589653713 -0.25727624180448866
000130 6c fe 40 5d 6f f1 c1 bf 8e 1a 30 38 38 a8 d8 bf
       -0.14018051198398795 -0.3852673100194942
000140 69 79 b5 e0 ab 41 a6 bf f0 2e 5a ef 2d 47 d4 3f
       -0.04346978300121657 0.31684444784399
000150 f3 36 0d 80 54 90 d1 3f 99 c0 c7 f9 88 d3 d3 bf
       0.2744342089180087 -0.30978607552152365
000160 69 87 a8 32 97 58 86 bf 1e 66 94 a5 dc 58 bc bf
       -0.010911160691708681 -0.1107309250113748
000170 7f e3 de 76 b9 c0 b2 3f 93 72 2a a3 f4 58 a5 3f
       0.07325324203601545 0.04169430248041297
000180 02 46 7c 1e 78 5a b2 3f 29 c6 7d 39 da 13 b1 3f
       0.07169295067094342 0.06670917419048607
000190 07 8f 66 79 30 37 c0 bf b6 e5 88 e9 6f ec d4 3f
       -0.1266842453743424 0.32693097883346967
0001a0 ab 08 d0 fa 73 6e bb 3f 9a f7 96 53 d1 ee d2 bf
       0.10715412972789078 -0.29582627451952137
0001b0 1b 80 a5 91 e6 7b c9 bf 57 ae cf 6c 41 69 9a 3f
       -0.19909364806790183 0.0257921431220168
0001c0 32 f2 52 9e 1d b5 b7 bf b1 41 85 d8 cc 34 d1 3f
       -0.0926073562176917 0.26884766716559755
0001d0 2e 50 60 12 e1 a5 a7 bf c4 82 2b 6d cb d5 d1 bf
       -0.04618743275946745 -0.27867398892525963
0001e0 58 ae 96 40 16 a3 b5 bf 87 ea 65 c8 bb af c8 3f
       -0.08451975895757735 0.1928629616266628
0001f0 05 62 20 71 c5 ce d5 3f 37 d4 43 ba 22 fa b0 bf
       0.3407453160048422 -0.06631676719173717
000200 d3 f2 c1 95 d4 a2 b2 3f 31 0f f7 89 9d ea c6 bf
       0.07279709488097845 -0.17903489338470416
000210 99 f6 fc ed 51 a6 c3 3f d1 a4 94 aa 2e 3e cf 3f
       0.15351318474306622 0.2440851529038697
000220 b1 b0 0f 8f 79 bf c7 3f b5 81 87 4b 1f 0d c8 bf
       0.18553084836401504 -0.18790045917468282
000230 98 b8 67 88 99 4b d6 3f f5 17 35 fd a0 9f a0 3f
       0.34836424179855774 0.03246787157927137
000240 4d cc 46 fc 7f 4b 92 bf af 7b 2c 73 50 05 89 3f
       -0.017866134426821657 0.012217167391609466
000250 f1 d7 46 a9 b1 41 b2 bf e0 d2 c9 aa da f9 cc 3f
       -0.07131491072399833 0.22637494410778114
000260 57 6f c1 f6 09 d5 be 3f 3d 73 24 d1 6b 62 b0 bf
       0.12043821596438185 -0.06400178771987171
000270 d9 2c 68 5e 03 2c a0 bf 19 0d fb c8 60 ca d4 3f
       -0.031585793756755805 0.3248521769239275
000280 ac 72 34 b7 56 0f c2 3f ed e8 6a 71 56 80 98 bf
       0.1410931009821942 -0.023927069351636843
000290 35 bc 10 69 21 00 bb bf e2 61 c3 14 fb 3e a6 bf
       -0.10547074141571573 -0.043449255261012856
0002a0 f2 98 7b a0 ab 84 b5 3f 4c 44 95 4f 11 5d d6 3f
       0.0840556399158208 0.3494303967646075
0002b0 06 48 4e 11 57 5e cb 3f e2 4d 8b 84 ca d9 92 bf
       0.21381653161057573 -0.018408932056287138
0002c0 9b 13 73 84 ae 93 c1 bf 72 de 90 06 18 3e 98 bf
       -0.13731938807736985 -0.023674369240522748
0002d0 de 9d 0c 66 ec 3f d2 bf e2 1e 4a df a8 ea d2 3f
       -0.28515157666921975 0.2955724888383725
0002e0 ab ba 6a e9 89 8c 91 3f f4 6d e1 c6 82 40 b4 3f
       0.017137675162923454 0.07910935740931518
0002f0 f3 33 de d7 48 e8 c5 bf 3f a7 84 37 78 e1 b2 3f
       -0.1711512617152092 0.07375289302276843
000300 9a c9 68 a5 89 1e c2 3f b3 41 36 0c 35 ea c1 3f
       0.14155693604113823 0.1399599370602239
000310 6b f7 2f ee 88 04 d2 3f 01 59 c1 31 c0 30 a5 3f
       0.2815267873810316 0.04138756377567355
000320 06 80 b2 82 04 ff c2 bf 94 a8 2c 7e e7 36 c0 3f
       -0.14840752011969033 0.12667554531919178
000330 01 3c e3 38 75 0d a7 3f 24 42 a4 04 94 73 b7 3f
       0.04502455062321787 0.09160733331032894
000340 3c eb 53 87 34 30 a5 3f c1 b8 95 70 a8 b2 af 3f
       0.0413834014124945 0.06190992712332522
000350 2b 67 29 2f f7 cd b5 bf df ef 61 36 9a 36 c0 3f
       -0.08517403508576808 0.1266663327731967
000360 2c 2e f0 20 2d 43 bf 3f 56 79 eb 4b aa 64 b5 bf
       0.12211877874522575 -0.08356727937232242
000370 85 ea 88 aa 31 4a ab bf 8d ad 92 cb d9 f7 b5 bf
       -0.05330043036197644 -0.08581315250437722
000380 46 61 4e 39 75 45 b3 bf 5e 30 a5 4f 39 ad 94 3f
       -0.07527859353138408 0.020192046629106
000390 4c 75 8a d8 6f 45 86 3f 22 77 1e 45 97 22 74 bf
       0.010874627872278574 -0.004915800951406786
0003a0 cc ca 39 85 78 83 bb bf 4f 50 9d bf b8 38 99 3f
       -0.10747483494359783 0.024630438513966898
0003b0 cb 7d 9b 1f 99 97 a2 bf 24 a9 3e a6 76 c1 80 bf
       -0.03631285200912834 -0.008181502293002803
0003c0 b0 45 af e3 29 ce c0 3f 35 e3 f2 ce 0a aa c2 bf
       0.1312916146985521 -0.14581427674218053
0003d0 f4 33 f6 31 1e 7d a6 3f 73 62 7b ff 60 84 b0 bf
       0.043923324202388786 -0.06451994168618018
0003e0 4a 59 86 7e 18 da c0 bf 38 d6 96 ff 58 47 c4 3f
       -0.13165575197190044 0.15842735748235426
0003f0 ff a9 5e fb a0 89 a2 3f cb 72 9c 58 28 cc b1 3f
       0.036206274685657285 0.06952144778592666
000400 60 9a c2 7d dd 3e a0 bf ec 19 69 a9 39 1e c2 bf
       -0.03172962341459562 -0.14154740116119002
000410 51 0a ea 9a 02 fc a4 bf 68 ec 28 70 a4 af b0 bf
       -0.04098518506090854 -0.06518008936193243
000420 3e 3f c9 b6 2a b2 bc 3f 4f 85 73 36 48 11 94 bf
       0.11209361040641583 -0.019597175906601646
000430 fd 5d d6 6a 7b 4f b7 bf e0 53 c6 e3 70 cf ac bf
       -0.09105655058225888 -0.056270149044543194
000440 60 3c 97 73 e6 3d 72 bf 7f a7 14 e4 73 dc bf bf
       -0.004453563882136441 -0.12445759123207088
000450 0e d5 39 ed 09 f6 ab 3f cb de a2 ea be bb 9c 3f
       0.05461150189231932 0.028059943266923775
000460 d2 72 de d0 be bf c0 bf 2e 43 5f 0e 86 c2 9e bf
       -0.1308516044490689 -0.030038923861698645
000470 6f 48 f0 84 e6 ae 87 bf 70 f7 5c 4a ce 75 b9 3f
       -0.011564064914669296 0.09945382419115645
000480 50 c9 fd 1b 3f 85 bc bf 78 2a 1a b6 4f 06 af bf
       -0.1114081805551781 -0.06059502695014357
000490 68 51 66 25 9e 28 c2 3f 0b ad 16 41 9e 60 99 bf
       0.141864555608332 -0.0247826316096225
0004a0 75 d0 4f 15 b0 25 87 bf 63 1b a1 af 57 97 9b bf
       -0.011302352571853394 -0.026944513411105386
0004b0 f9 77 17 a4 d2 91 a2 3f c6 27 ad 67 fc 2c b8 bf
       0.03626878979751775 -0.09443643122827358
0004c0 d6 2a e4 38 fe eb b6 3f e4 0d 1c 6a b5 7e 81 3f
       0.08953846825549347 0.008542458821017847
0004d0 66 dd 70 4d 40 56 0b bf cc bb d7 d2 eb 5e b9 bf
       -5.214103446643074e-05 -0.09910463235404093
0004e0 ed ef a2 2d ac 86 88 3f e8 d5 97 31 58 42 a4 3f
       0.011975617544855733 0.03956866841683021
0004f0 93 9d c6 d2 ab 74 b0 bf 28 b6 93 4e ff 62 af 3f
       -0.06428026100058153 0.0613021644038379
000500 e9 49 d8 5b ad 47 ae 3f 51 f7 c3 b9 72 7b 9d 3f
       0.059140603505642826 0.02879122980902277
000510 d2 89 4f 4f 1b f6 a1 bf 15 43 79 ce 28 81 c2 3f
       -0.03508076995037225 0.14456663209650658
000520 6f dd 58 a0 49 11 6e 3f 42 21 29 b3 36 c0 af bf
       0.0036703527464642598 -0.06201334893245526
000530 3f bd 37 ac 01 b5 ad 3f 3c 29 95 05 48 e0 a8 bf
       0.058021595261261265 -0.048586130792119125
000540 8b 13 6d bd fc 57 b7 3f 43 cb d2 dc 6b bf b7 3f
       0.0911863291231169 0.09276460782238609
000550 a4 bc 94 5e 5d de b8 3f 42 64 b7 eb 67 13 b7 3f
       0.09714301642519502 0.09013986115259434
000560 2f e2 bf 1f 24 8c b6 bf e3 fe f5 74 b2 c4 c7 bf
       -0.08807588362822892 -0.18569021903021285
000570 32 92 b3 0c bb 93 c4 bf 69 c8 d3 72 44 a9 6d bf
       -0.16075838203609433 -0.0036207520375848745
000580 44 3b 57 ac 1d 7c b0 bf f7 ea 66 05 6f b1 b8 3f
       -0.06439385850465579 0.09645742303738901
000590 f6 39 60 81 a6 8c c1 bf 5b f4 07 89 e8 1b bd bf
       -0.1371048099249063 -0.11370709748730816
0005a0 30 a0 dd a9 eb 6b ad bf 67 17 07 ec be 04 a5 bf
       -0.05746399353557796 -0.041051832496619416
0005b0 d6 84 f6 a5 b9 a3 b9 3f be 1d 57 9c 74 66 c6 3f
       0.10015449811773477 0.17500169404796212
0005c0 cc b6 55 de 06 bf 97 bf 51 ac 2b ef 6d be a4 3f
       -0.02318964702629138 0.04051536125719991
0005d0 e2 61 83 6f 56 9e 99 bf 57 6b 0b 07 f8 c6 bc bf
       -0.02501807265875467 -0.11241102382647959
0005e0 70 a2 8f 93 9c d0 96 bf e7 61 ca 5c ca f1 b8 3f
       -0.022280165201581104 0.0974394299067921
0005f0 fa f8 dc 03 6b 33 b0 bf ee 25 9e e1 84 5d aa bf
       -0.06328457683864377 -0.051494743863326295
000600 87 07 9a ad 7a 4e c4 bf 9f 6c 67 8b f2 a9 b8 3f
       -0.15864499546665575 0.09634319213312147
000610 0b 0d 1e 91 7d 1d ad 3f 44 7b 0b 2f 09 56 b8 bf
       0.056865619625591966 -0.0950628032546606
000620 de e4 f8 cf 5e 07 c6 bf 72 0d 9f e4 01 d9 a8 3f
       -0.17209992556471482 0.04853063503062573
000630 db ec 0b 00 c3 5b 9e 3f b1 29 64 94 76 54 77 3f
       0.029646918180316156 0.0056957847612103965
000640 35 30 73 0e 31 37 b6 3f 2d 0f 87 99 41 ae c7 bf
       0.08677965739042366 -0.18500537868941916
000650 03 2e 82 2d fe e0 97 bf f7 2c a3 e9 53 47 b3 3f
       -0.023319217231387423 0.07530712560690121
000660 44 bb fd 43 e4 18 c4 3f 2b d3 07 44 70 58 c3 bf
       0.15700963325385875 -0.1511364299946306
000670 dd cc 57 5c a8 84 93 bf f9 f5 30 3a 01 16 c3 3f
       -0.019060736309211335 0.14910903302545345
000680 78 78 89 86 cd ff cd bf 85 a5 5d 23 b0 62 96 3f
       -0.23436898297490294 0.021860839994962262
000690 60 09 c4 bb 65 31 8d bf c3 c2 33 6b c5 a3 af bf
       -0.01425437430635118 -0.06179634984608164
0006a0 01 1a e2 96 2b 39 bd 3f 99 31 04 e1 0d 77 c5 3f
       0.11415359910652258 0.16769574629905717
0006b0 95 76 ae d6 81 84 c4 bf c6 0a 1d f6 75 62 c2 bf
       -0.16029379827971427 -0.14362978474863136
0006c0 e5 00 57 a5 fa 66 c1 bf 3c 98 d0 0e 36 99 c6 3f
       -0.13595517228350854 0.17655063365345025
0006d0 0d 88 4e a1 aa 9f bc 3f 06 55 25 d6 6f 22 aa bf
       0.11181131780770688 -0.05104398240170309
0006e0 7b 45 43 cd a0 4e ab 3f bd b7 6a fe ed c7 b4 3f
       0.053334260040752 0.08117568456029196
0006f0 2c 88 80 62 f0 f5 a4 3f e6 e7 d4 ae 83 36 b1 3f
       0.04093886568468039 0.06723807352400932
000700 cc 58 c5 b9 7d 35 c0 bf 9a e9 51 10 33 eb b2 bf
       -0.12663241930812885 -0.07390135906636033
000710 38 9a 80 82 38 d0 a6 bf dc 11 cf 01 2a 85 ae 3f
       -0.04455734818502716 0.05960971138077628
000720 fe 88 fc 03 9a 08 87 bf ab a0 d2 75 aa f9 c2 bf
       -0.011246875044495837 -0.14824419739784864
000730 bd 69 f5 04 01 f7 c5 bf 6a c1 58 b6 dc 73 88 bf
       -0.17160046331521342 -0.011939739527492239
000740 a5 da 1c a7 6a 26 b8 3f b4 d0 aa 1a 46 17 b2 bf
       0.09433619098568131 -0.07066763068252407
000750 ed c4 86 82 d4 f7 76 bf 2e 42 e7 e6 71 ca b5 3f
       -0.005607442967105342 0.08512031447686105
000760 46 33 e5 d6 ca f9 9e 3f 01 d9 6c 39 35 48 ad bf
       0.03024975716225533 -0.05719152761450808
000770 2a 82 00 c6 35 a8 55 3f 1d c9 dc d3 bb 7a c8 bf
       0.0013218426829625465 -0.19124553532453428
000780 9a f2 da 22 60 f1 a2 3f b1 17 7b ea e0 de a4 bf
       0.03699779916266728 -0.04076292860331366
000790 26 c4 a9 77 9b 69 be 3f b9 47 c3 e9 b3 8b ad 3f
       0.11879893943275074 0.05770647266912427
0007a0 d1 ad d7 79 e3 07 ba 3f 9b 4b f0 f0 08 ad ab 3f
       0.10168287014646828 0.05405452672143626
0007b0 a0 53 92 56 b1 3e b7 bf d4 16 8f b9 a5 1d 97 3f
       -0.09080036510051892 0.02257403321325209
0007c0 73 31 1a 87 82 68 a0 bf 5c 49 91 83 55 56 c4 3f
       -0.03204734706114012 0.15888470577426517
0007d0 cb 60 90 92 8c c3 bb 3f c4 cf 27 2d b0 85 bd 3f
       0.10845259264204114 0.11532116987638036
0007e0 50 57 2a e7 09 a5 b3 bf 50 18 4e 77 d8 d6 b5 3f
       -0.07673704045950314 0.08530953324052004
0007f0 b9 1b 08 d1 73 f9 c1 bf 6e 93 92 5e 3b 76 65 bf
       -0.14042518335938128 -0.0026198539313377267

fc_hidden_list.0.bias f8 [50]
000000 8d 97 2e 8b 1d ab 9e 3f 49 07 06 3c 1b 7e c9 3f
       0.029949628467555157 0.1991609614452108
000010 b7 0e 47 8d 1f 67 c0 bf 18 07 f1 9a 96 98 b8 bf
       -0.1281470718223454 -0.09607831270934886
000020 36 ba 7e 48 bb da c0 bf f5 f3 f4 a3 e0 ac 52 bf
       -0.13167515792652446 -0.001139850020833719
000030 c2 36 54 a9 a4 27 9f 3f 79 73 0a de 04 45 77 3f
       0.030424664340037884 0.00568105603511248
000040 4f c1 91 9d 6a 5f c1 3f b8 1a 07 59 e0 ab c8 3f
       0.1357243794805165 0.19274525019701172
000050 e7 5d 00 12 52 13 b6 bf 81 2d 00 01 b1 84 a2 3f
       -0.08623230876434428 0.036168605205683775
000060 68 92 88 b1 f6 76 bb 3f dc fe 56 18 3e ae bc bf
       0.10728399118722509 -0.11203373045190851
000070 6d be 34 77 90 5a ae bf cb 96 d6 d5 24 0e a3 3f
       -0.05928470091964475 0.0372172843010908
000080 08 d1 7d af e2 6c c1 3f 9f 8f 65 3b 3c de bd bf
       0.1361354214565227 -0.11667229127993871
000090 57 05 02 e3 27 2e b7 bf 16 a3 3c 50 a8 f2 44 3f
       -0.09054803173241531 0.0006392785876175612
0000a0 87 bb 7e 1f 45 29 b6 bf c7 2a de de 41 ae 87 bf
       -0.08656723040506452 -0.011562838186156011
0000b0 f9 0c 7d 78 23 69 7e 3f f6 68 7f 3c a6 b0 bc bf
       0.007424486691721238 -0.11207045533175006
0000c0 9d cb 23 98 75 b3 c5 3f 57 66 06 5d 12 8f ac bf
       0.1695391648168795 -0.055779050689306935
0000d0 07 4f 1a 77 c1 36 75 3f af 0f 6a 08 51 97 91 3f
       0.005179172252286929 0.017178789270942903
0000e0 e4 22 48 20 de f5 c0 3f e8 70 b6 5c 60 68 ab bf
       0.13250328613528162 -0.053530703847373406
0000f0 1f 85 79 3e 0e b9 a0 3f ef ae 17 65 97 9d 89 3f
       0.03266186249380553 0.012507612965201058
000100 0a 69 2d dc 07 b3 81 bf 82 0b 41 01 05 57 bf bf
       -0.00864225521734287 -0.12242156296365006
000110 eb 8e f3 76 39 9f c1 3f 20 dc 40 d7 1e 36 bb bf
       0.13767164524244122 -0.10629456286629635
000120 ff 77 a7 ad e8 f4 b8 3f 2a 74 62 d7 62 fa bf 3f
       0.09748701324085117 0.12491433866894455
000130 21 49 e6 48 06 97 b4 bf 62 11 db 5d d6 97 98 bf
       -0.08042945174955608 -0.024016713598727597
000140 5d 3e f8 49 64 dd 77 bf a6 70 90 10 d3 71 ba 3f
       -0.005826370004356454 0.10329932360076785
000150 cf f9 a0 66 d0 a9 a1 3f 35 e2 b0 89 63 28 a0 bf
       0.03449870350640404 -0.03155814224050283
000160 0f ba 27 c3 a8 50 bf 3f b0 28 3b 71 a9 e5 8e bf
       0.12232451214342908 -0.015086482780493377
000170 3f ef ce 19 2c 24 c2 3f 47 45 e7 ce 5a 31 a8 bf
       0.14172889003918418 -0.04725154662777214
000180 2a 17 8b ae 33 fb ab 3f 24 ff e9 a3 da 39 b0 3f
       0.05465089326530255 0.06338278295333716

fc_hidden_list.1.weight f8 [50, 50]
000000 21 70 93 ef e2 3a b6 3f da 1e 6e 75 82 7c bb 3f
       0.08683603619596215 0.10736861578891013
000010 ce 39 cd 99 8d fb c2 3f 53 1a 54 e7 0f 99 bc 3f
       0.14830179223868217 0.11171054265660389
000020 ef a3 09 c0 b5 99 c0 3f b3 41 6b c1 2b 99 c3 bf
       0.12969085575903658 -0.15311190552030282
000030 cd d6 72 fa a7 5c 81 3f ff e2 dc 1b 36 ad 89 bf
       0.00847750886019174 -0.01253740570574413
000040 cd ae 24 60 fe 39 b9 bf ec 67 4b 2d d7 37 c7 bf
       -0.09854116294144007 -0.18139161788604896
000050 3f 12 10 b7 17 c7 b3 bf 5c 9f 13 c2 33 0a 99 3f
       -0.07725666255289186 0.024452980728624993
000060 84 73 27 7e 0e e4 90 3f b4 86 17 f4 9c c9 a7 3f
       0.01649496693595466 0.046460060879110726
000070 e5 92 bd 98 50 6b a8 bf 53 0f 93 52 6e 37 c7 bf
       -0.04769374718197187 -0.18137911827045147
000080 66 5d ff 51 e5 9d aa 3f e3 37 99 9b b0 a2 94 bf
       0.051985899219000584 -0.02015186261842662
000090 2d 6b 84 86 e6 89 81 3f bc 7d 41 38 15 a6 9c bf
       0.008563805561200144 -0.027977305944998795
0000a0 6d 4d 6a 13 b3 35 c6 3f a8 f8 f4 6e 1f 54 90 bf
       0.17351377914438207 -0.015945902964852238
0000b0 84 01 fa b6 d4 ed a9 bf de 0a 71 cb 1c 6f b4 3f
       -0.050642630897530544 0.07982044188342338
0000c0 d4 ae 2d 38 6e e1 a5 3f 01 77 e7 85 ad 0e b6 bf
       0.04273552356502611 -0.08616146582741281
0000d0 42 d5 dc 68 fb 8c be bf e5 ba 52 50 b2 54 a3 3f
       -0.11933871564982204 0.03775555830485703
0000e0 a2 d0 a6 51 48 b0 a0 3f db 5c bb 8d 5c 9c ba bf
       0.03259492871021165 -0.10394838772059549
0000f0 76 63 34 41 d4 cc a3 bf 3f 56 cc ad b4 d3 ba 3f
       -0.03867209716754065 0.10479287379379175
000100 58 61 7c 17 0c 27 a7 bf 80 6e 28 ef a0 48 ac bf
       -0.04521978174870139 -0.05524161261948013
000110 2e cf 42 be 95 be a0 bf bf 1c 9f 3e 1b d0 bf bf
       -0.032704047656265764 -0.12426920203062063
000120 8f fc ff ab ab d4 b1 bf 67 1b 67 11 88 6d aa bf
       -0.06965134572236507 -0.0516169091456991
000130 bb 03 0b d6 8b ba 51 bf 7f 59 5f 33 ee 4b 60 bf
       -0.0010820737444847534 -0.001989331470194588
000140 64 a1 80 88 29 db a5 bf f9 db f0 9b 8d db bc 3f
       -0.04268770018853976 0.11272511536741082
000150 94 00 13 a7 2b c2 6b bf f4 ec ba 44 d1 08 c6 3f
       -0.0033884861555578214 0.17214408737149933
000160 e4 1e b2 f0 cb 58 92 bf 26 a1 5f 56 3c aa c3 3f
       -0.01791685730543592 0.15363268105944278
000170 1c 5d a4 2d 6d 04 83 3f e3 c0 76 1b 0d cd a4 bf
       0.009285786586174676 -0.0406269165063138
000180 a9 dd e7 50 e3 d7 b5 3f b2 b4 d8 12 b6 a1 bd bf
       0.08532543874013378 -0.11574876747245602
000190 c5 db ba 7d 44 ad 92 3f 3f f1 3e b1 6c 15 bc 3f
       0.01823908822435862 0.10970191314021792
0001a0 66 c4 7f 61 10 81 c2 3f 39 f3 2d 19 65 76 b5 3f
       0.14456372032830983 0.08383781304105477
0001b0 b3 e5 9c d5 7e f4 b9 bf 0d c7 c9 55 05 bc 9e bf
       -0.10138695445211603 -0.030014117585273548
0001c0 ed fc e2 4b d6 24 b0 bf 89 02 5c 01 64 64 8c bf
       -0.06306208946897458 -0.013863354960905088
0001d0 58 e8 3a a5 77 c0 89 bf b0 af cc 5c b7 11 c9 bf
       -0.012574133615420077 -0.1958531573412734
0001e0 0a 7d df 56 ca 16 cf bf 02 f4 8e 18 dc 92 a4 bf
       -0.24288300744863306 -0.040182950971463086
0001f0 8e 2c 01 99 33 62 b9 bf 65 40 82 3f 24 6b c3 3f
       -0.09915468678916481 0.1517072019673861
000200 fd 0a 07 44 ec 31 bb bf a2 e1 35 f3 8e 2d c4 bf
       -0.10623051319911876 -0.15764033198844368
000210 99 11 ac 76 3e 87 9c 3f 34 ac db 7c f8 19 b5 bf
       0.027859664910481283 -0.08242753074925774
000220 77 bd 24 e4 da 70 b4 bf 30 ba 29 94 78 23 c7 bf
       -0.07984703130636271 -0.18076998934289312
000230 a7 e2 f9 32 53 78 cc 3f 92 33 e4 71 37 83 c7 3f
       0.2224220274836359 0.18369191228012177
000240 a0 a0 da c8 b3 77 c8 bf 8d f4 28 fc 1f 4a 79 3f
       -0.19115302378964305 0.00617420667782399
000250 91 b2 8f af 01 f6 9d bf 5e b0 b3 b2 5d ef b8 3f
       -0.029258753147518638 0.09740243542518232
000260 20 72 5e b6 c7 e1 bc 3f e1 1e b8 cc ca a4 85 bf
       0.1128201313244479 -0.010568222401175333
000270 2c 71 56 c0 a2 5f 97 bf c8 fc af 0e 21 d6 b9 3f
       -0.022825758923873327 0.10092360123234123
000280 53 27 00 fb da a1 c9 bf 49 d9 d0 78 c6 40 9c bf
       -0.2002519345845096 -0.027590848087322404
000290 50 db 16 94 ea 67 c7 bf 8c 92 df 93 cb 07 b1 bf
       -0.18285877448007648 -0.06652519569576948
0002a0 4f 28 0e 02 a9 ed c7 3f 51 24 c4 cf c1 fc d0 3f
       0.18694031334263392 0.2654270676580995
0002b0 c0 2b 3d fe 87 bd ad 3f aa a8 7e 01 93 50 a1 bf
       0.05808663347723764 -0.03381785767790409
0002c0 6f 8d d2 09 7d f6 cb bf 4c 4d 0e 7c d7 61 ab bf
       -0.21845972995388815 -0.05348084821084828
0002d0 ef 07 77 7f 8b 1e b9 bf 17 f0 6a aa fc 10 c4 3f
       -0.09812232839524858 0.15676840134790446
0002e0 67 4e ba b6 72 4d c2 bf 19 db 67 15 b1 1f b9 bf
       -0.1429885284638772 -0.0981398274669626
0002f0 3f 90 e7 fa e2 11 b5 3f 23 75 ec 92 e6 6c a7 bf
       0.08230417848204839 -0.04575272124768961
000300 bc c5 22 f7 13 72 b9 bf 0c 39 51 d4 8b f9 69 bf
       -0.09939694198217003 -0.0031707507173798274
000310 87 a4 4f c6 e0 13 b5 bf 39 aa 21 67 b9 3f c0 3f
       -0.08233456460551923 0.12694470916479064
000320 d4 d1 a0 79 16 6b c2 bf c7 e2 20 50 b5 04 b0 bf
       -0.1438930601012901 -0.06257184225331534
000330 b6 71 58 d3 f1 ea 95 3f c3 ed 0d ba 5b b9 c0 bf
       0.0214040551419303 -0.13065668663680982
000340 03 36 17 bf c9 6b a9 3f df 9a 99 53 77 fe a4 bf
       0.04965048272752528 -0.0410039224196248
000350 b1 04 85 f6 6d 5d 9f 3f f2 a8 f0 c6 d4 51 cc 3f
       0.030629842921602705 0.22124728883620254
000360 57 98 11 67 95 ab b0 bf d1 27 da 3e ed 46 c0 3f
       -0.06511815801931796 0.12716451233819595
000370 74 47 82 e3 79 3b c9 bf ca 62 6d d0 b1 92 c5 3f
       -0.1971275673754992 0.16853926350702003
000380 10 89 b9 51 de e6 ad 3f 91 92 16 a7 73 96 aa 3f
       0.05840201137177037 0.051929105898385626
000390 4d c6 57 f9 3f 4b c0 bf c0 50 e4 7a c7 fa bf 3f
       -0.12729644465393833 0.1249203372029255
0003a0 4d 99 12 0b 46 f1 c4 3f e3 13 13 52 2d 4e 9e 3f
       0.1636130861344988 0.02959509671633843
0003b0 b7 56 40 1e 34 bd a5 3f 8f 6e 57 b5 f2 cd c6 bf
       0.04245913380888793 -0.17816003660742694
0003c0 9b 1c f2 6b 2c 4c aa 3f 7a 00 33 4a 5a ee bd bf
       0.051362407853099167 -0.11691822349075834
0003d0 1b eb 0e 5a 89 39 b9 3f e4 62 a6 07 81 65 a1 bf
       0.09853418778122285 -0.03397753923781524
0003e0 db be 78 74 19 92 9b 3f 79 c1 cd ca 35 1c b7 bf
       0.026924512609354117 -0.09027420235884688
0003f0 da 2a f2 8c d6 e6 b8 bf 56 86 14 b1 09 a1 a5 bf
       -0.097272309694897 -0.04224424635527828
000400 6e fa d8 3b 39 15 ac 3f fc 35 4a 6e 95 44 c1 3f
       0.05484942298470662 0.13490550885437347
000410 cd 9e 2a 1e da fa b3 3f f0 25 82 a6 ab d5 b6 3f
       0.0780464481018683 0.08919785323282503
000420 82 6f a4 9d 92 98 ba 3f 50 95 8b f7 c2 0f bf bf
       0.10389057491960155 -0.12133425277314314
000430 56 90 3a a3 80 83 ce 3f ad 70 72 47 dc e0 c4 3f
       0.23838813753275429 0.16311219681381797
000440 50 02 af e8 b6 9b b8 3f 61 83 92 cd ba 6b ba 3f
       0.09612601452591574 0.10320632475715065
000450 60 fd c5 8d 98 35 af bf 0d ef 04 48 c6 98 af bf
       -0.06095577936775487 -0.061712452212729564
000460 38 49 7e 46 bb 98 c8 bf c7 e0 48 57 8b 87 c0 3f
       -0.19216099683814902 0.12913648378321893
000470 a9 e1 32 db 72 fb a7 bf 03 80 f8 9c fc 5e a7 3f
       -0.04684027601018965 0.04564656654497414
000480 24 ce cb 3f 13 a9 b5 3f 24 d7 7b 5c cb 40 69 bf
       0.08461113269350357 -0.00308265418049815
000490 15 11 1c 0d 8f 86 8e 3f 87 89 a9 98 8d 24 b9 3f
       0.014905088031362848 0.09821400620561437
0004a0 5d 1f bd a5 ef 78 ac bf e0 f3 88 53 46 00 61 bf
       -0.05561016939333172 -0.002075326305457356
0004b0 31 76 7a d2 47 9d 50 bf 29 a5 e0 e3 9d f6 c6 3f
       -0.0010140611065375777 0.17940114619094885
0004c0 a6 f2 6f 37 bf a8 bb bf 55 9b 5b 6e cc 2b b1 3f
       -0.10804362395715347 0.06707456297190835
0004d0 bc 7e 50 d6 1c 80 9b 3f fc d4 4b 13 a4 06 85 3f
       0.02685589845725532 0.010266572798608646
0004e0 58 82 0c 8c 7e 79 95 bf 59 c7 51 15 8e 06 83 bf
       -0.02097127656736783 -0.00928984644471924
0004f0 db 30 a6 69 8a 15 aa 3f 64 49 a4 c4 ef d7 9b 3f
       0.05094559230482939 0.02719092023569071
000500 11 b8 42 05 48 4f b7 bf e7 04 20 a9 df bc b6 bf
       -0.09105348709519513 -0.08881948355703494
000510 ba 87 f5 e7 b5 8f a1 bf d1 23 d4 3b e8 ae 94 3f
       -0.034299549641914465 0.020198467876102747
000520 34 54 eb bf 4f 51 ca 3f f0 72 50 7c 37 aa c7 3f
       0.2056064307313662 0.18488210268051075
000530 da c2 72 32 26 c7 a9 bf 10 2e 54 d8 bf 04 b8 bf
       -0.0503475128729229 -0.09382247001138233
000540 7d 72 40 2e af b4 ac bf 5a de 8b 10 4f a1 bd 3f
       -0.05606601180645485 0.11574262765849977
000550 32 51 f5 fc 71 25 b6 bf d3 a2 15 88 9f ae ad bf
       -0.08650886941660899 -0.05797289406001984
000560 55 74 2d 31 87 73 b0 3f a4 02 bb 39 c2 0e a3 3f
       0.06426281881927427 0.0372219748946965
000570 33 17 2f e9 5f 24 c4 bf 0f 46 1c d6 7d de 70 bf
       -0.1573600662797446 -0.004118434475246526
000580 17 67 9c 23 55 62 90 bf 17 e3 bb 42 b1 04 c7 bf
       -0.016000109003562715 -0.17983070143216004
000590 31 8f df 30 b3 82 c0 3f c8 37 2b c3 40 29 96 3f
       0.12898864637747345 0.02164174262252752
0005a0 f4 57 c5 a3 6f 46 bf bf 8a 2d e7 90 80 0e b7 bf
       -0.12216851948082291 -0.090065036179274
0005b0 83 5b 04 94 ee 49 b6 bf 73 42 9c a3 64 b0 7b 3f
       -0.0870656119699174 0.0067600184645618564
0005c0 0b eb 0e d8 a5 32 b9 3f 3c 7b 7f e7 a6 dd b4 3f
       0.09842907452449993 0.08150714065366754
0005d0 6c f6 be 0e b9 f6 b6 bf b8 ab c2 bb ff 28 a0 3f
       -0.08970219240196692 0.031562797231650064
0005e0 4f 9f ce f3 d1 20 a6 bf d3 4d 22 84 f1 09 c5 3f
       -0.043219147693263175 0.16436594917159528
0005f0 de e3 fd 64 f5 30 92 3f df c5 47 3c df 74 a5 bf
       0.01776488713173651 -0.04190728770107532
000600 a4 f9 7b 40 c5 bd bb 3f cf 8b e9 89 bc 2c ba 3f
       0.1083644182617492 0.10224512450217492
000610 3f 06 98 0c 44 9d bd 3f cb 1f b2 b9 d3 59 be bf
       0.11568093593089034 -0.11855815204228219
000620 a8 c8 d2 22 5a 2a a2 3f 68 bd f9 fa ac 66 b2 bf
       0.035479370833301715 -0.07187920691807437
000630 96 bc 1d 97 dc df a5 3f 13 8d e1 28 ec f6 a3 bf
       0.04272355408363031 -0.03899324416195262
000640 f6 ec e2 00 8f 11 b7 bf 49 1c 1c 97 bc 48 c9 bf
       -0.09011167308465304 -0.1975322473374226
000650 22 b4 c2 0e 8b ca 96 3f df 46 09 0e 95 03 ab 3f
       0.02225701596823993 0.05276170536366264
000660 90 1c 1b b0 0f 5b c2 3f 95 31 6c 1d 99 4b a8 bf
       0.1434039697544205 -0.04745176777041419
000670 f5 18 49 3d 99 54 bd 3f 56 87 05 01 c9 91 b6 bf
       0.11457212206105168 -0.08816200518552128
000680 8f d0 f9 b2 6a 6c bb bf 8c 22 b8 f4 7d 95 b2 3f
       -0.10712305898215589 0.07259356712905624
000690 50 98 98 b8 78 61 6d bf 2d b6 24 08 27 f6 b3 3f
       -0.0035865171273768218 0.07797473858655542
0006a0 57 ff 2b 82 55 1e c0 bf 9b 6f 82 c6 9f 14 a5 3f
       -0.12592572074936 0.04117297456943377
0006b0 62 8d 8e 93 a5 12 ae 3f 53 44 18 5b 03 11 b2 bf
       0.05873601366263405 -0.07057209943765601
0006c0 80 8e da 71 32 77 c9 bf 09 30 9f 0e be 4d a6 bf
       -0.19895010527863022 -0.043561877522364574
0006d0 0f 69 aa 8f cf 23 b6 3f 72 07 fd 0f 63 85 af bf
       0.08648392922842539 -0.061564536763866765
0006e0 c5 98 e0 00 06 97 79 bf b7 fe e7 ae 54 d5 86 3f
       -0.006247542811285982 0.01114908369800048
0006f0 f4 46 4d a8 d6 56 87 3f c9 e8 4e 8f 74 40 62 bf
       0.01139610005489853 -0.0022280003126669873
000700 6b 0f e5 5e 24 b1 73 bf b2 a8 e7 6d 6b 58 74 bf
       -0.004807607720355249 -0.004967136045232733
000710 12 32 6b f4 4f 60 b6 bf 29 f9 84 e3 07 61 b0 3f
       -0.08740710942510813 0.06398057274507053
000720 f1 58 2a 0b 42 f8 a1 3f 3e ea 04 9f c5 3f b8 bf
       0.03509718309685351 -0.09472308285050077
000730 2b 6d ed 5e f7 5d bc 3f c9 2a 62 4e ae 0b a8 3f
       0.11080881183209061 0.046964118068975554
000740 ee 14 88 a8 1e 7f a9 3f 36 68 5a c5 50 4f 84 bf
       0.049797971794797266 -0.009916907332172636
000750 8b d9 4c 11 80 cc be 3f d2 b0 e2 81 b3 ab bf bf
       0.12030792639129666 -0.12371370240242932
000760 65 f1 9b 05 f8 e8 8e 3f 59 86 55 59 18 5a c0 bf
       0.01509279029004835 -0.12774948465362249
000770 1f 84 0a f2 06 f4 b4 bf f4 0e 3f ac 00 f4 99 3f
       -0.08184855851369875 0.025344858658868
000780 5a ba 66 24 f2 07 bf 3f 20 a8 ec da 03 34 b9 bf
       0.12121499432280683 -0.09844993681750269
000790 87 dc 39 2b 15 e9 85 3f 71 63 9a 2c 82 fe b8 3f
       0.010698476201680641 0.09763349141065959
0007a0 28 07 c6 23 19 77 a3 3f a6 34 0a 4c f2 f3 c3 3f
       0.038018022171867394 0.1558821555412681
0007b0 16 cf 34 2d 56 a5 ab bf f6 8e cf 80 7e f2 b4 bf
       -0.053995793360085795 -0.08182516712946239
0007c0 6c 54 96 a4 62 10 bc bf f3 1d 42 27 9f 25 b0 3f
       -0.10962502020113768 0.06307406147435994
0007d0 42 48 ed a2 61 6f c7 bf 4e 8b e4 8c a9 5f b5 bf
       -0.18308659034170388 -0.08349094095005435
0007e0 b0 fc 7f aa 69 b6 a2 bf 76 91 32 73 a7 cb b9 bf
       -0.036547948897344695 -0.10076376497688053
0007f0 db 1d 54 a8 5b c3 a5 3f 88 7a 19 38 c5 f3 bb bf
       0.04250608854095691 -0.10918839091889698

fc_hidden_list.1.bias f8 [50]
000000 09 25 cf d1 5e 6c 62 3f e1 dc 2a a1 0f 29 89 3f
       0.002248940653292512 0.012285348993243907
000010 61 50 26 10 d1 1e ac bf b8 a2 8d 14 82 ca 97 3f
       -0.05492261240138486 0.02323344469496888
000020 b3 29 00 b0 88 ce b8 bf 63 36 4f 3c e0 19 b3 3f
       -0.09690145775690588 0.07461358520887411
000030 e6 9f 5f 5b 9d ca c0 3f 96 06 41 41 12 71 b8 3f
       0.13118330918882676 0.09547533124080085
000040 21 ff 31 2a 3d 92 bd bf 46 72 5e 66 9d 51 a2 bf
       -0.11551267891081497 -0.035778921838958186
000050 dd c7 ac 95 ff 77 b0 3f 1d c8 43 3b c1 bd ab 3f
       0.06433102993176427 0.05418208931395461
000060 3b 76 85 bd e4 72 92 3f 7f 24 5e 3d 87 a4 b6 3f
       0.01801640898462707 0.0884480023215861
000070 26 64 49 54 e2 8a b6 bf 4b ae e9 b4 06 22 b6 bf
       -0.08805670316486722 -0.08645669857804099
000080 8d ab e0 f3 ab 2e b3 bf c1 80 7c 51 c1 f6 84 3f
       -0.07493090347331428 0.010236273097291694
000090 f8 93 55 11 1b 4c b6 3f 12 d7 f7 e9 a9 6f aa 3f
       0.08709878133011262 0.051633176622926893
0000a0 1f 41 3f 62 55 19 77 bf d5 7a 37 6b 50 36 84 bf
       -0.005639394312268813 -0.009869220993036812
0000b0 5e 19 fe 07 d7 f0 b6 bf 38 4e 5e 22 0b 43 a4 3f
       -0.08961242623454299 0.03957400126014615
0000c0 06 94 8e 51 31 92 ad bf 67 55 3f 06 6b be b7 bf
       -0.05775598640983763 -0.0927492990734514
0000d0 6f 76 a4 b0 77 ba c4 bf d7 50 d2 a4 38 3e bf 3f
       -0.1619405376922489 0.12204317115748907
0000e0 4f ab 10 b5 2e 5c b0 bf ee 37 5f ad f1 e6 b0 bf
       -0.0639065925649167 -0.06602392657006792
0000f0 81 e7 d9 4a f5 dc c6 bf 63 32 1c 0e ca 76 b1 bf
       -0.17861810831874084 -0.0682188305328935
000100 38 6f ca 43 3c 24 bd bf 77 58 14 a4 f4 6f c2 3f
       -0.1138341584687027 0.14404161464398488
000110 b6 93 78 41 97 eb ba 3f b4 e2 f3 ce 1d 52 b5 bf
       0.10515733097470456 -0.0832842474227487
000120 36 34 06 f0 3a 51 a2 3f 6c b2 18 2a 42 3a 83 bf
       0.035775987434228204 -0.00938846293419112
000130 5e 27 c0 32 36 18 b0 bf 00 c9 cf 2e 33 cf bc 3f
       -0.0628694414046129 0.11253662007201015
000140 6b 17 4d 0b 61 07 b1 bf 93 f2 b5 23 54 1a 93 3f
       -0.06651884580523208 0.01865512340508475
000150 bd d1 54 3f 08 ad a1 bf 42 d3 d8 0d 43 be 8d bf
       -0.034523256045221974 -0.014523052082134339
000160 22 e7 c2 ab f4 ee c2 bf 09 86 82 13 22 4a 9f 3f
       -0.14791735064300676 0.030556232872760023
000170 bc d9 1e 22 72 6c a1 3f 5f 42 93 28 bc ff b2 bf
       0.034030501046277334 -0.07421470633131254
000180 9c 31 af 3e 20 ef 97 bf 8b 03 42 5d 0d d4 c1 3f
       -0.02337313063235201 0.13928381970984235
