savedModel/poisson2d_inverse_tanh/noise_0.1/ParticleWNN_4/trained_model_best_loss.pth (torch, 132191 bytes, 20 tensors)

fc_in.weight f8 [50, 2]
0.25374266298212 0.5042720099982521 -0.2430894476018059 0.7261452496643919 -0.6499724799916428 -0.4196080631018817 0.17270696443913675 -0.4405820723605495
-0.5978816089067546 -0.7590760190118968 0.465892134000121 0.5633368498933714 0.6174951982556842 -0.5060044629579811 -0.4474887551471999 -0.2813472067321326
0.2163702750805515 0.25898830156642055 0.6491345105555248 -0.36284085381689124 0.48192868515851234 0.509314313134013 -0.16492526400816548 -0.6328319875127981
-0.1874432942357963 0.23291939756443253 -0.15144023410331606 -0.3265682510407661 0.429861181312755 -0.5639525701396697 0.7214039283394837 -0.008272505962544337
-0.6776279513167267 0.02225453807531303 -0.8203720935445078 0.0955016608324687 -0.7476459066119594 0.520618342965695 0.6995252279004928 0.028939022715738817
-0.7779795933619272 -0.041147814454109255 -0.7079387459835241 0.2530610546629929 0.40191000076771133 0.06283107732527586 0.34369670866936874 0.5430347895212063
0.06494382219379052 0.48953003368801573 0.428458028641188 0.7609531843579092 -0.3643757855975423 -0.13079940284940725 -0.13504417787489362 0.15779127164356585
0.10014682549561602 -0.37124991626306164 -0.36757291480328197 0.6196495908741909 0.33040104535215503 0.5084697235508796 -0.48679227961093874 0.6037082466507537
0.04873348413017736 -0.5573763524759461 -0.3810874231915459 -0.31126696122003156 -0.5687608258347641 -0.45197250593262667 -0.7299917188093941 0.06932481478468143
-0.41809769258517776 -0.14450619611526697 0.5058199678977179 -0.4849362593080722 0.33985855319117025 -0.09723337801078803 0.5074256755625469 -0.5580237140658045
0.5577489143151028 -0.001942526450346048 -0.7042655922836919 0.3383957761259935 -0.07107247888208103 0.7541606840651592 -0.13455313951706627 -0.8007255365943132
-0.10587771725448636 -0.210693899841168 -0.06943887673642615 -0.6648266981055688 0.16860878409870023 0.8035076718802491 -0.7343494497127665 -0.7973018171021854
-0.2105100752207012 0.3495115196531362 -0.42936208334413073 -0.18430475533025786
00000000: 04ec c6dd 513d d03f b661 e70d ff22 e03f
00000010: 46ea b915 8e1d cfbf c689 6ef6 943c e73f
00000020: dfa6 1b16 93cc e4bf 6845 0ac7 dbda dabf
00000030: 0e5d 0706 431b c63f 8f84 ff25 7f32 dcbf
00000040: c94c a49c d821 e3bf e4af 9aca 594a e8bf
00000050: 79a0 bf3d 2dd1 dd3f e18e 5d00 db06 e23f
00000060: 143f 3e4a 85c2 e33f 371b 8145 3031 e0bf
00000070: a2d6 2be0 a7a3 dcbf c911 efb6 9701 d2bf
00000080: 3c14 a66b 05b2 cb3f 258f 51ab 4393 d03f
00000090: 6e4f b1bc b5c5 e43f 00f6 32d8 c838 d7bf
000000a0: 55a5 7069 ebd7 de3f 0273 c987 4d4c e03f
000000b0: 9680 9963 451c c5bf 605d 47de 2840 e4bf
000000c0: b472 4c51 24fe c7bf 5656 9285 4dd0 cd3f
000000d0: 97db 62c2 6462 c3bf d372 8885 7ee6 d4bf
000000e0: b3b9 e378 d882 db3f 44d7 a742 e60b e2bf
000000f0: 7e91 edb0 bd15 e73f 714f 85f4 2cf1 80bf
00000100: a658 38d0 20af e5bf 925c e2c4 e4c9 963f
00000110: 0e64 0afa 7c40 eabf 1838 fdfd cb72 b83f
00000120: 525f bc1b b7ec e7bf 2a88 97cc e7a8 e03f
00000130: f1e7 11bb 8262 e63f eab6 91f0 30a2 9d3f
00000140: 433c ce75 35e5 e8bf 98b9 c38a 5311 a5bf
00000150: 6f41 3228 6fa7 e6bf fecd 6afe 2632 d03f
00000160: d2e3 4eb9 e4b8 d93f 73d5 488e b215 b03f
00000170: ec93 de7a 20ff d53f b1ae b27e 8a60 e13f
00000180: 2c4a 6688 28a0 b03f 3863 46c7 7554 df3f
00000190: fe3d 2e39 db6b db3f 4056 137e ba59 e83f
000001a0: cd20 a6d0 ee51 d7bf 4f8a c9ea 08be c0bf
000001b0: af72 beab 2049 c1bf bfd4 a61f 8132 c43f
000001c0: a648 4dec 38a3 b93f 9186 3f02 8fc2 d7bf
000001d0: 6f6e fe8b 5086 d7bf 0d1a f960 2bd4 e33f
000001e0: 8f82 166d 4a25 d53f b107 354c 6245 e03f
000001f0: 08f4 37ce 9a27 dfbf 7c18 f6f4 9351 e33f
00000200: 9855 1e61 98f3 a83f aa55 aeee 06d6 e1bf
00000210: 1393 e180 bc63 d8bf 43fb b042 cceb d3bf
00000220: b699 46e7 4933 e2bf bbfe ea16 1eed dcbf
00000230: be63 d497 175c e7bf bf2c 4d64 45bf b13f
00000240: fbed 0bd3 1cc2 dabf 2135 31d5 2d7f c2bf
00000250: 5d1a 795b ad2f e03f 11db 9717 3209 dfbf
00000260: 7934 ce16 3ec0 d53f f9cc a262 49e4 b8bf
00000270: 9923 36c5 d43c e03f 43c3 498c 54db e1bf
00000280: a79c 4b40 14d9 e13f 2dbf dae4 8bd3 5fbf
00000290: 11cf d1fe 5789 e6bf 1834 e4c1 46a8 d53f
000002a0: 59b6 7154 ce31 b2bf a3a4 3f96 1522 e83f
000002b0: f063 e68a 0939 c1bf fbd3 1729 8b9f e9bf
000002c0: f8af fb54 cd1a bbbf 066b a488 04f8 cabf
000002d0: aa67 a708 bfc6 b1bf eadf bba3 4246 e5bf
000002e0: d6d8 c2fe f894 c53f d1f1 99b8 55b6 e93f
000002f0: 0043 cb6a ca7f e7bf 2bd9 af19 7f83 e9bf
00000300: a894 4680 fef1 cabf 2012 9f90 655e d63f
00000310: fcbf 861a ab7a dbbf be03 5258 4c97 c7bf

fc_in.bias f8 [50]
-0.6229841000247425 0.5814454691907693 0.40831578617749975 -0.08042468086953293 -0.3503572922538901 0.2614298817961805 -0.05499365815336206 0.49555695013520856
-0.08937666169387408 -0.11896678491963648 -0.0479879824229264 0.40842038004226605 0.4202354832650872 -0.362495863830814 0.33601999913020786 0.4225799729331921
0.3160059094228599 -0.2190799605680463 -0.2647412316181394 -0.6329711126082512 0.5838917578922993 -0.09522045687790842 0.5856351161860504 0.6032372778718671
-0.13111974010424637 0.6201776896819623 -0.20216446078957598 -0.3445471853719146 0.4094657963610049 0.5653707508368565 0.22110276662535572 -0.08225730868117423
-0.5926477097990248 -0.5468446250456521 0.26155871261868124 0.6675826624716662 0.5441267433477508 0.659146356748109 -0.09730147438407855 0.4535407228581881
-0.3345879713262564 0.2494575568592497 -0.11643480413848571 0.6223796440487721 -0.4276058916758482 0.0006954767061658622 0.2487953589425057 0.02848282393707968
0.333635949387277 -0.10609301786597425
00000000: ac18 f159 7cef e3bf 889d 5287 339b e23f
00000010: 3caa 0489 d821 da3f b939 203e b696 b4bf
00000020: 0e51 09fe 406c d6bf 5dc0 2066 44bb d03f
00000030: ba1e 83f6 2028 acbf e3b7 887f 34b7 df3f
00000040: 6337 008f 63e1 b6bf 4d44 8a72 9b74 bebf
00000050: 2809 377e e191 a8bf 874a d33b 8f23 da3f
00000060: ec81 4f5e 23e5 da3f e0ab 05da 2133 d7bf
00000070: 7a3c c406 5a81 d53f f953 ecde 8c0b db3f
00000080: 4a17 94d9 7039 d43f 22a3 ece8 cf0a ccbf
00000090: 8bf8 ec34 85f1 d0bf b1e2 7ea2 4c41 e4bf
000000a0: dea4 91c4 3daf e23f 4c67 332c 5e60 b8bf
000000b0: 5b10 edda 85bd e23f ea01 8643 b84d e33f
000000c0: 02cb cd19 88c8 c0bf 5992 dce1 7ed8 e33f
000000d0: 1d9a c069 86e0 c9bf 6f7a 46a3 0f0d d6bf
000000e0: 04df 0c07 b034 da3f 49b2 9e66 8417 e23f
000000f0: ce02 db6f 184d cc3f c282 a4a2 d00e b5bf
00000100: 045b 7454 f8f6 e2bf 0b10 924c c07f e1bf
00000110: 1e97 2bc1 60bd d03f 3f28 d650 d65c e53f
00000120: a8d7 f17c 7c69 e13f 7757 b019 ba17 e53f
00000130: 000b 55da bfe8 b8bf a520 05ab cf06 dd3f
00000140: eacc 9eaa e369 d5bf 3aab 39a8 39ee cf3f
00000150: 0f16 e4db abce bdbf d056 1cb7 88ea e33f
00000160: abc7 141a e55d dbbf 7f6b a3da 14ca 463f
00000170: 8cfe 06bd 86d8 cf3f dfdc 3af5 992a 9d3f
00000180: 59d9 d898 4a5a d53f 507c 117a e928 bbbf

fc_out.weight f8 [1, 50]
0.024013847797650534 0.03932793843076893 0.17062628105855138 0.0004787640749788041 0.11025874887033757 0.16522102442423003 0.07479909508596926 0.030353841377178926
-0.01710891376865965 0.07273408956042068 -0.13082899885520913 -0.0443409498469095 -0.09385694849045927 0.07371724952861047 0.13324401198115376 -0.11341521664652701
0.02715295463095291 0.11303798039247644 -0.040643765049747066 -0.1963616212840429 -0.07924631537515217 0.029489801888119796 -0.06501432626980361 -0.11988767117064976
-0.04948295794446663 -0.07771994080658139 0.06671129576254393 0.1700986124626952 -8.355374245129277e-05 -0.051912254632660866 -0.038163621376687606 0.11620384565553003
-0.13089491580098084 -0.14348003960603692 -0.06462575913133331 -0.11427421004089387 -0.036373166021461276 0.07372813019051161 -0.010169895953259726 -0.022727805646588384
0.09089591965089545 -0.1149367619733315 -0.06738608395107523 -0.021896827205598417 -0.1790362054127502 0.09951644669586823 -0.1313199231189096 -0.07595340201368105
0.11240225086823621 0.0001274881290430332
00000000: b0a3 c40b 1697 983f 982d c2a2 ca22 a43f
00000010: cc06 7efc 14d7 c53f c28e 660b 5460 3f3f
00000020: 56f8 7ed8 ea39 bc3f 70c0 4168 f625 c53f
00000030: 5725 2a93 0826 b33f 8a81 17d0 1315 9f3f
00000040: 6308 6dc4 ff84 91bf 2e62 f787 b39e b23f
00000050: 37cc b92f 01bf c0bf 6f9e ee62 dbb3 a6bf
00000060: 43d5 444c 0207 b8bf 405f e037 22df b23f
00000070: d066 ecc8 230e c13f 3297 5d96 c708 bdbf
00000080: e1d3 84f0 fbcd 9b3f e5d7 fd9c 0ef0 bc3f
00000090: dc95 5973 42cf a4bf 5060 cdaa 6022 c9bf
000000a0: 4262 dd8c 7c49 b4bf 8431 b31a 9332 9e3f
000000b0: f6ab 1965 c7a4 b0bf 6d1d df5a f5b0 bebf
000000c0: 3b62 298c d455 a9bf 0fe6 023c 74e5 b3bf
000000d0: bdeb 92d1 fd13 b13f 04a6 cf94 cac5 c53f
000000e0: 5c43 7a5d 32e7 15bf b95b d137 3e94 aabf
000000f0: e06a 6ba3 2e8a a3bf fb8a c204 89bf bd3f
00000100: 2ef8 4923 2ac1 c0bf 9f4c dece 8d5d c2bf
00000110: 82c0 f251 508b b0bf 37e1 e61a 1341 bdbf
00000120: 463f 07ed 809f a2bf 78a6 f6c3 d8df b23f
00000130: 9c0c 2f54 f4d3 84bf 2007 d937 f545 97bf
00000140: 758d 3d7a f444 b73f b299 c8e1 7e6c bdbf
00000150: 367f c6e2 3640 b1bf 4bd4 ef32 1f6c 96bf
00000160: 0b1b 868b a8ea c6bf c00e f9eb e879 b93f
00000170: 1cf2 8d5b 17cf c0bf f72f aba1 ae71 b3bf
00000180: 1ad2 79d7 64c6 bc3f b78b 92b0 cab5 203f

fc_out.bias f8 [1]
-0.12252615151489779
00000000: 2a46 a9b5 df5d bfbf

fc_hidden_list.0.weight f8 [50, 50]
0.19443723628001114 0.03819262895247751 -0.04037897836859961 -0.2939063809780441 -0.02054591150234565 0.07663859951935195 -0.48001079492563287 -0.03639174030230476
0.1981742679170531 -0.21407945220588342 0.06917304646803918 -0.37404370719118163 0.11117606955091609 -0.04579597354575686 -0.5131733163267095 -0.3106858763132934
-0.016038302708226728 0.33199192508163405 0.45149303413926 0.13200553153352396 -0.17049256385052616 0.4311868762265424 -0.061591869419190357 -0.09095202532673993
0.3203790507548532 -0.010260338233361102 0.1769349074153639 0.24841082843469212 -0.244230751050419 -0.02793760956679156 0.013000741467587255 0.3707881815899429
-0.06823574435517056 -0.07442270610385837 -0.07168399539787743 -0.12466100407949215 0.07503226240268471 -0.25708464251457624 -0.1407123897937037 -0.3849519221790067
-0.04405121078080952 0.31722729357339907 0.27398048134049247 -0.30879488253661236 -0.010938886842282915 -0.1103626702221633 0.07312229809862189 0.04225407443425239
0.0717996854555127 0.06714872838930665 -0.1265414972471814 0.32574170255404933 0.10704903259185937 -0.29549419104248986 -0.19855097833815155 0.025255879492665806
-0.09257442367439586 0.26860105484725205 -0.0464382665605822 -0.2786036196682082 -0.0848773509482119 0.19284408029881767 0.33949859256362314 -0.06569843484948738
0.07266492123624956 -0.17929229113795891 0.15320131558083866 0.24428762532199533 0.18571460997668848 -0.1866842277442753 0.3473090620126425 0.03258570366180856
-0.018166860724128413 0.01167794235681706 -0.07147475226566775 0.22574071064845377 0.12071587663314538 -0.06381892890972053 -0.03171606438859033 0.3236329116929426
0.14046946234499585 -0.023920524058129233 -0.1044012702711685 -0.04305256661324671 0.08414169730267178 0.3476348965450151 0.21338309051441123 -0.018661244701495532
-0.13714115097436894 -0.023868621922930662 -0.2845512250777126 0.2953897799963885 0.017006341858275962 0.07901880002966885 -0.17064657011050346 0.07406139048081
0.140915883136117 0.14028344050602234 0.2802460438488384 0.04166247268072652 -0.14833802050581366 0.12673466728393615 0.045041283987732536 0.09141238486404651
0.04130763257945383 0.06197403797122903 -0.08541790907491938 0.12665762450376958 0.12218181510160976 -0.0837549704060691 -0.05326018741198541 -0.08593840232125095
-0.07527906020641686 0.020167503697374172 0.010589607278307944 -0.005010399434480148 -0.10738832858564348 0.024757178964498854 -0.036059420086514284 -0.008225269411283003
0.13134619075268691 -0.1456332691534704 0.04385179764029802 -0.06447292548731597 -0.13149654036807093 0.15850317359343372 0.036246112338429184 0.06969193336214508
-0.03191748984587239 -0.14150328346962684 -0.040919990616047494 -0.06488534069551503 0.11205435179709995 -0.01960518898931348 -0.09106717951932654 -0.05623169723248831
-0.004460931470907415 -0.12466236613157027 0.05449810839178875 0.027794595965795154 -0.13091343505995992 -0.02988823082684922 -0.011389712719110516 0.09932943266152745
-0.11140082521658319 -0.06073139501446794 0.14196989361583745 -0.024834849319227175 -0.011232869485158484 -0.026922975242670236 0.03622542570454783 -0.09358791137062532
0.08969248310460394 0.008005160028899208 -0.00021751953608626482 -0.09897448305194594 0.011442535194231652 0.03971478000885809 -0.06429308405270404 0.060697589549141395
0.05912716699142362 0.028755921571487885 -0.03454477653692672 0.14419040801898134 0.0034241589133478276 -0.06232872757021433 0.05841822415239062 -0.048187642681211645
0.09154347701149129 0.09246103905947177 0.09746302353849144 0.090631472607908 -0.08814166793189111 -0.18536484401384637 -0.1605910435918705 -0.0032379785930967886
-0.06415544493258332 0.09655649983691085 -0.13720621017834286 -0.11288516877544663 -0.05727037033201248 -0.040669040789499344 0.09944428250040313 0.17491234737255218
-0.023079776626960744 0.04086651696944317 -0.024825538456400523 -0.1125668476929982 -0.02296514958316004 0.09721977386621308 -0.06366203769125048 -0.05091500545663235
-0.15844431167040765 0.09632763062860247 0.056617416428905776 -0.09528992748518102 -0.17178457462584362 0.04853966392029795 0.030463930324156778 0.005925168747363102
0.08720071783403623 -0.18484201828879618 -0.023745100882024858 0.07499765519907696 0.15613977054784992 -0.1502535530680367 -0.019202317002072998 0.14871526973745117
-0.23370738802329755 0.02180443625179475 -0.013526495303998845 -0.06229665677214413 0.11404256396168372 0.167577134857783 -0.1606061806292163 -0.14368621101233542
-0.13617087128737043 0.1765481139001067 0.11199862723751035 -0.050773435848306465 0.05306673701954731 0.08123600821042841 0.04074253709135446 0.06739432767153102
-0.1260552241993796 -0.07354118037008096 -0.04470900237638488 0.05998594292040503 -0.01167855150352761 -0.1481582713624459 -0.17078575086601158 -0.011693373198435365
0.09425617592223734 -0.07067940681481617 -0.0061231778037601735 0.08488203098710564 0.02990387273016865 -0.05751237680230303 0.001395254211217074 -0.19154645636785703
0.03724592965048247 -0.04077358503341679 0.1192438475318422 0.05726035280754182 0.10177419027489197 0.05351209055323178 -0.0902698565880453 0.02184035564806166
-0.032003561241763095 0.15847689275718096 0.10838013656006129 0.11532144661197553 -0.07663414802739993 0.08525847924443643 -0.14042939644525462 -0.0026125199838780574
00000000: 3a40 79c1 51e3 c83f ab2a 99f8 fb8d a33f
00000010: 51fb 13af 8dac a4bf 0abb 98b5 5ccf d2bf
00000020: c457 e0c7 fc09 95bf e2fe 8b56 969e b33f
00000030: ffae 7b32 7fb8 debf f3c6 e22c f0a1 a2bf
00000040: e965 ce3f c65d c93f 8424 fc9a f466 cbbf
00000050: 744c 5824 53b5 b13f 5249 6a04 55f0 d7bf
00000060: 61aa d1ee 0876 bc3f 76c3 55e1 9172 a7bf
00000070: d5b2 5972 ea6b e0bf 810f 8603 47e2 d3bf
00000080: 47f2 7546 586c 90bf b3bf 300f 5b3f d53f
00000090: e8fe ff09 43e5 dc3f 36ee 69a8 8ee5 c03f
000000a0: 717f f948 b3d2 c5bf a2df f6d6 9098 db3f
000000b0: beb8 b531 f888 afbf 1e87 48c6 a148 b7bf
000000c0: 1833 5422 1781 d43f 28f6 4349 5f03 85bf
000000d0: d154 6f94 cda5 c63f ddb4 0c10 edcb cf3f
000000e0: 5b33 3808 f442 cfbf 38d0 ab3d ad9b 9cbf
000000f0: 0f93 6afb 21a0 8a3f eb03 6b5a feba d73f
00000100: e975 6cd2 e577 b1bf 88bf cbd0 5d0d b3bf
00000110: 5268 e1df e159 b2bf 0ca2 9b97 c8e9 bfbf
00000120: 8217 2a79 5035 b33f 6bda f924 1374 d0bf
00000130: c029 2714 dd02 c2bf 8ba2 1263 0da3 d8bf
00000140: 1e39 4e5b e18d a6bf 3cf7 d2b4 734d d43f
00000150: 5c62 c66d e588 d13f aeae 6a9c 4bc3 d3bf
00000160: ae20 f089 2067 86bf 39ad 4d5b ba40 bcbf
00000170: 3e23 f196 24b8 b23f 08bf a277 53a2 a53f
00000180: ddfe e4d4 7661 b23f 416a 66b8 a830 b13f
00000190: f6ba 2104 8332 c0bf 9e6e dab9 f3d8 d43f
000001a0: dfeb 0cbe 9067 bb3f bede ab77 60e9 d2bf
000001b0: 968c 4653 1e6a c9bf f894 cf61 addc 993f
000001c0: faa8 201a f5b2 b7bf fa5c 8f7a c230 d13f
000001d0: 383e 52a8 c1c6 a7bf 576b c146 a4d4 d1bf
000001e0: 1f62 7ea6 85ba b5bf ca28 0e65 1daf c83f
000001f0: 9452 064e 58ba d53f 03b2 13d5 9cd1 b0bf
00000200: ffae 4614 2b9a b23f 9264 6ebf 0cf3 c6bf
00000210: 36db 0fc8 199c c33f 0ca9 c920 d144 cf3f
00000220: 7aa0 1e10 7fc5 c73f 589b 6bce 44e5 c7bf
00000230: 15b8 bcc9 4f3a d63f ced7 16c7 12af a03f
00000240: 1b77 b962 559a 92bf b98b 0ee4 9aea 873f
00000250: bd82 785b 2b4c b2bf 3b32 ce54 12e5 cc3f
00000260: 0551 3f56 3ce7 be3f 9972 88f4 6f56 b0bf
00000270: 4218 9d86 163d a0bf 3459 e8d0 66b6 d43f
00000280: 0ae2 6d41 e7fa c13f 73a2 2132 9f7e 98bf
00000290: 0ebc 79a9 0aba babf 2bbb 396b fc0a a6bf
000002a0: 9b18 256e 4f8a b53f dcfc e66f a63f d63f
000002b0: daaf a319 2350 cb3f 3b45 c8ee ee1b 93bf
000002c0: 8773 2f5b d78d c1bf 7201 3d1a 0471 98bf
000002d0: 72b6 6f57 1636 d2bf 500e 2a89 aae7 d23f
000002e0: b96e 6c48 1c6a 913f 0687 e579 933a b43f
000002f0: a54b e62e bfd7 c5bf cbe8 02f2 aff5 b23f
00000300: 073e c71a 8809 c23f ab65 92ca cef4 c13f
00000310: 5181 4a1a 8def d13f aeb7 449b c854 a53f
00000320: 5bb5 6981 bdfc c2bf 5581 a071 d738 c03f
00000330: 1ef2 64b3 a60f a73f 04c1 7053 cd66 b73f
00000340: 3404 0226 4626 a53f 0132 93a4 0fbb af3f
00000350: dd2f f8b5 f2dd b5bf c730 8429 5136 c03f
00000360: 49ff 06b4 4e47 bf3f fc81 c53a f770 b5bf
00000370: 8903 3a56 eb44 abbf 19b5 7023 0f00 b6bf
00000380: 4201 a90d 7d45 b3bf dbe9 4943 caa6 943f
00000390: c6a5 8007 01b0 853f 2336 60db c885 74bf
000003a0: 4658 3f2f cd7d bbbf 6e97 f927 f259 993f
000003b0: bdf6 f75b 6176 a2bf 095e faf8 68d8 80bf
000003c0: f754 deb4 f3cf c03f e4a2 1c68 1ca4 c2bf
000003d0: 92c6 7829 be73 a63f 1f0a 7232 4c81 b0bf
000003e0: 4d81 35ee e0d4 c0bf 69b0 72fd d449 c43f
000003f0: 5a8e 33b6 d98e a23f 60de 959e 54d7 b13f
00000400: 10eb 1d3e 7d57 a0bf 49ab 6393 c71c c2bf
00000410: 76a8 e50a 77f3 a4bf 13ed 4660 539c b0bf
00000420: 5dd0 5710 98af bc3f 16fc 29f6 6113 94bf
00000430: 9143 c6bd 2d50 b7bf 9d66 39a9 66ca acbf
00000440: f497 6f2c a045 72bf 03bb 9371 dfe9 bfbf
00000450: 1723 7912 2de7 ab3f 23e9 b6c2 2f76 9c3f
00000460: 1943 187d c5c1 c0bf 6118 bf37 059b 9ebf
00000470: 8f85 1d5d 7d53 87bf 1dbe cf58 a76d b93f
00000480: 9d79 0db5 c384 bcbf 07ee da76 2f18 afbf
00000490: 145e 0cc9 112c c23f 7b38 8286 4e6e 99bf
000004a0: 95c6 a138 4201 87bf b190 b648 b291 9bbf
000004b0: 6692 5e95 238c a23f b345 a39a 60f5 b7bf
000004c0: 4d9d a129 16f6 b63f d5db 2f64 0265 803f
000004d0: f9fc 6396 be82 2cbf b3bb d847 6456 b9bf
000004e0: ba59 8a13 2f6f 873f 519c 9ce2 7e55 a43f
000004f0: 1e87 5df5 8275 b0bf 1083 1e24 c113 af3f
00000500: 100c 1181 ea45 ae3f 0310 dd3a 3172 9d3f
00000510: 878c f25a daaf a1bf 6151 6bcf d474 c23f
00000520: 4785 9251 fb0c 6c3f cddd 070d 8de9 afbf
00000530: 1028 7354 fee8 ad3f ec36 c6fa 0cac a8bf
00000540: fc2d edaf 646f b73f df23 ead2 86ab b73f
00000550: ffc6 aa32 56f3 b83f 5ddb d6ca 9f33 b73f
00000560: 6daf 2ecd 7390 b6bf e50d 6f03 09ba c7bf
00000570: d9f8 2050 3f8e c4bf ae30 3385 8886 6abf
00000580: aa84 d8c1 7d6c b0bf f108 0441 edb7 b83f
00000590: 3715 c31c f98f c1bf 500f 18dc 0ae6 bcbf
000005a0: b72b 36bf 8a52 adbf 181a 4d90 92d2 a4bf
000005b0: de08 1d35 2e75 b93f a6db d01d 8763 c63f
000005c0: ac43 3f97 39a2 97bf 4a37 c5c3 74ec a43f
000005d0: 5473 1aaf dd6b 99bf a18a 7451 2ed1 bcbf
000005e0: d032 a119 2d84 97bf 92a7 4725 65e3 b83f
000005f0: a271 e1c1 274c b0bf 07b1 9f16 8811 aabf
00000600: f549 6e38 e747 c4bf 8e42 4077 eda8 b83f
00000610: 886f e43f f5fc ac3f 6de3 2fb2 eb64 b8bf
00000620: a4d5 fc74 09fd c5bf df69 31da 30da a83f
00000630: 4eac ccc1 ef31 9f3f c62b e45f fd44 783f
00000640: d5ef 4847 c952 b63f c70e bd3b e7a8 c7bf
00000650: 7f00 eabe a250 98bf ff51 5bdc 0b33 b33f
00000660: 9dd1 0d54 63fc c33f 797b 4428 823b c3bf
00000670: 8614 20ae c5a9 93bf ff15 f819 1a09 c33f
00000680: f662 32aa 1fea cdbf a5cb 6ff2 e653 963f
00000690: fb6e ae77 c7b3 8bbf 0016 f9ee 58e5 afbf
000006a0: 6c42 91ba e431 bd3f 77c2 e2e4 2a73 c53f
000006b0: 0942 ab4a be8e c4bf c291 974c 4f64 c2bf
000006c0: 2a6d 6c0f 0c6e c1bf 638b afeb 2099 c63f
000006d0: ab97 2e29 f1ab bc3f 19b4 f2cc f9fe a9bf
000006e0: 2c3f 0238 902b ab3f ff78 850e e2cb b43f
000006f0: 1214 bab0 34dc a43f 83fe 4831 c140 b13f
00000700: 7290 b6dc 9322 c0bf b146 9944 98d3 b2bf
00000710: 3233 162e 19e4 a6bf 7e2f 203e 7ab6 ae3f
00000720: 0cad 2da6 ecea 87bf c119 11a9 d9f6 c2bf
00000730: 41d1 4bb7 4edc c5bf d4d4 bcfb b1f2 87bf
00000740: 4033 0839 2c21 b83f 5d33 c5ac 0b18 b2bf
00000750: 9cc9 a206 9e14 79bf be90 1b2b d4ba b53f
00000760: 916a 99ed 1e9f 9e3f 6f55 f622 4372 adbf
00000770: 52f1 3bcd 1edc 563f 9fdf e122 9884 c8bf
00000780: 9210 8403 e611 a33f e3b5 847c 46e0 a4bf
00000790: 4c02 66c9 c386 be3f 8fe5 549d 3a51 ad3f
000007a0: 17bb ce92 df0d ba3f dcc2 bbcd ef65 ab3f
000007b0: 4f3a dce1 ec1b b7bf 663a f774 515d 963f
000007c0: a41e c751 c562 a0bf 522a c887 f848 c43f
000007d0: f8bc 0ff6 ccbe bb3f f9d0 b9d1 b485 bd3f
000007e0: 5cd5 88a7 4b9e b3bf b1c1 0fec 7fd3 b53f
000007f0: c38f 9028 97f9 c1bf 6346 82fc d966 65bf

fc_hidden_list.0.bias f8 [50]
0.030152765553308897 0.19880606443445215 -0.1282206965986916 -0.09596541342104908 -0.13197213425332616 -0.001099418215704569 0.03046127805407846 0.005935382476842915
0.13585823206275638 0.19291047497995747 -0.08633663711406309 0.03626862964940988 0.10711999816841916 -0.11191384195248015 -0.059207740772220185 0.03734489918920007
0.13613409595505327 -0.1167772682338375 -0.09061221673296538 0.000731811356090225 -0.08633405794179812 -0.01178247982715394 0.007426256948401129 -0.11180951507652657
0.16949260734628294 -0.05539315547752265 0.004846308485688103 0.01701614512556409 0.13258839243327117 -0.05387608866611214 0.032268585402007825 0.012099051025208262
-0.008603404136149136 -0.12239812208939849 0.13740608725543346 -0.1060478092275033 0.0977000323232846 0.12514376297805757 -0.0802594736365957 -0.0240293609470448
-0.005867575232993837 0.10348646090714164 0.034503070974970615 -0.031311729547442324 0.12245300272715329 -0.015119679709253916 0.1420697678679527 -0.04727040894095142
0.054796800022236226 0.06347375077841717
00000000: f8dd bdd7 5de0 9e3f 4c08 7f24 7a72 c93f
00000010: 67e6 4729 8969 c0bf 44c6 3078 3091 b8bf
00000020: 46f9 4c80 76e4 c0bf bb2d fd51 4b03 52bf
00000030: 3482 25c4 3d31 9f3f 2063 091a b34f 783f
00000040: a00b cd73 cd63 c13f 8f20 8c5a 4ab1 c83f
00000050: 44fd d968 281a b6bf 1b0e 6e44 cd91 a23f
00000060: 4c85 e158 376c bb3f 63d6 27b3 62a6 bcbf
00000070: 78ce 921c 7a50 aebf c64b 61e1 de1e a33f
00000080: 6aad ff90 d76c c13f 7005 fb73 1de5 bdbf
00000090: 5874 7cbb 5c32 b7bf 7a0b aeeb e0fa 473f
000000a0: 0d18 6423 fd19 b6bf 6fef 2fac 6921 88bf
000000b0: e2e8 99ab fe6a 7e3f 0fa3 a262 8c9f bcbf
000000c0: ada7 bb0a efb1 c53f df7a 65de 7d5c acbf
000000d0: 6adb 3c07 b9d9 733f 2eed 452b ae6c 913f
000000e0: 2941 aa0c a8f8 c03f 4ef6 b68d a595 abbf
000000f0: efc7 fa0d 8285 a03f 462c ba23 63c7 883f
00000100: 8437 315b a99e 81bf 783d 77bb 7b55 bfbf
00000110: c046 84cd 8596 c13f 95cf 7100 f325 bbbf
00000120: df8a a58b de02 b93f 4e02 a5f8 b504 c03f
00000130: 499e 7686 e28b b4bf 8735 a51d 279b 98bf
00000140: 656f b83b 9908 78bf e8c9 2cb5 167e ba3f
00000150: eeeb e5f2 62aa a13f 6061 c64c 1708 a0bf
00000160: 5e97 027a 1459 bf3f 9896 040f 11f7 8ebf
00000170: 2520 5f97 572f c23f f99a f0b8 d333 a8bf
00000180: d5ba 0a80 530e ac3f f56c bfd3 d03f b03f

fc_hidden_list.1.weight f8 [50, 50]
0.08666587447877927 0.10748074536292794 0.1481319157330703 0.11157923641808641 0.12934427415212466 -0.15279508282999377 0.008357877613582273 -0.012652782132516397
-0.09819151041754003 -0.18107794383750098 -0.07703376331772946 0.024179364438638083 0.01615271162497188 0.04645301686698524 -0.04740150131255535 -0.18105511658894008
0.051932442129811365 -0.020537270219336656 0.0084117446356167 -0.027912538350244584 0.17341835225464813 -0.01608146111041352 -0.05042820883559691 0.08000723221505111
0.04222761323438795 -0.08583687716618196 -0.11943555009996394 0.03775253401959356 0.03258420671782927 -0.10386762410665282 -0.03850172135410414 0.10461664643019573
-0.045172771551855104 -0.055409383376023746 -0.032807165348798795 -0.12445706152139564 -0.06971166073826306 -0.05144448096361678 -0.0006525914541911818 -0.001562653509396096
-0.042654816006109396 0.11270597189221107 -0.0032375888775822794 0.1720609678376228 -0.017906743242051413 0.15343065725656838 0.009458569266175875 -0.04104954325561505
0.0852889737510323 -0.11567757491307072 0.018554748764006382 0.10923325565362442 0.14432201097470945 0.08355755895005662 -0.10154299385536038 -0.029729173153367355
-0.06335177123986961 -0.013959842500800252 -0.012232995777574205 -0.19594242310250773 -0.24257402506847553 -0.04048817549017669 -0.0995230775403568 0.1513064761774974
-0.1063939654551341 -0.15742066682750877 0.027983154064060014 -0.08226247893253447 -0.07964298723285745 -0.18104068129023482 0.22174356292472452 0.18397303690141156
-0.19071276206560198 0.0060692081863220945 -0.03133279013459959 0.09776938153508456 0.11296065072571972 -0.010462364779577049 -0.02312012338185467 0.10094169662121005
-0.19988742815869381 -0.027287149023737405 -0.18282414509910047 -0.06656712054053827 0.18685263900436253 0.26540282249958425 0.05816979901141945 -0.03392048390420738
-0.21836494534958284 -0.05369268602126383 -0.09833097203446203 0.15670111111450843 -0.14258730913260886 -0.09835626879783213 0.08186252101579038 -0.04604948520068586
-0.09915193730748134 -0.0034917187917762374 -0.08236915070718252 0.1271780327877025 -0.1437561059460477 -0.06257212413328314 0.02163206244901399 -0.13059697274794646
0.049728014880798095 -0.041051716038838455 0.030685429714363003 0.22131839065693604 -0.06521813810132848 0.1271218341580985 -0.19725897170278783 0.168596453059352
0.05835996346220971 0.05205152915664571 -0.12733174986498041 0.12486963122027905 0.16366966501914987 0.029657350452222505 0.04251004315878424 -0.17820657966967918
0.05144501545732466 -0.1169071755172202 0.09844166949236248 -0.034071389227885454 0.026602941637005165 -0.09038703603225681 -0.0972893679507965 -0.042135939726393096
0.05486812938149433 0.1348550629088892 0.07791178379373466 0.08931319946453674 0.10385599837247626 -0.12127792100991001 0.23820045402752554 0.16311351916199623
0.09613665647419312 0.10315290929898689 -0.0610073709659689 -0.0617342548358777 -0.1921449113396844 0.12902236544958184 -0.04690673994672583 0.04574264980617106
0.08460459992268152 -0.0029851069430439875 0.01483282888241083 0.0982917365864969 -0.05552278733924588 -0.002082101259736665 -0.0006724029671545151 0.18034368370146828
-0.10714106086276734 0.06594746256094487 0.026822469461234868 0.010447212772656127 -0.022262397134082512 -0.008563346202675832 0.0510150441516873 0.026909847529951923
-0.09171503714652576 -0.08924372060224371 -0.03409985586237537 0.019746449726532347 0.20379426422257166 0.18510508506857654 -0.049309844336068255 -0.09198503226817294
-0.054646218983298134 0.11457754741464439 -0.08576190737002701 -0.05631192368130645 0.06429126757494075 0.03716065167271923 -0.15541859717026293 -0.0036277072229778987
-0.01451940050556575 -0.17990953782297753 0.1276681311943263 0.02253771832772048 -0.12244855872716749 -0.08988496198007041 -0.08819793895096129 0.006397035689340285
0.09913179218979676 0.08258875588874907 -0.08915416146398493 0.03162478636870063 -0.042992056950854576 0.1628876147481533 0.01669544230606868 -0.04126826481215588
0.1095743629539739 0.10103577743059594 0.11433260399739634 -0.11945490666372878 0.03651599909635631 -0.07184632868652886 0.04369660762043833 -0.03793188099473335
-0.09001330742276455 -0.19669456846506458 0.02222519674298306 0.05213524879401739 0.14309576453513492 -0.04702887491560975 0.11436109034916911 -0.08830832843813063
-0.10674156537859654 0.07275718830722003 -0.0034003838634575384 0.07762157475509267 -0.1261398067770219 0.040922336315737516 0.058761064894840696 -0.07018427329356475
-0.1990120750696694 -0.04358758174467192 0.08639849949372189 -0.061585184620313885 -0.006291070149135075 0.011160800715582897 0.011549982028048472 -0.0021862410913817843
-0.004489965454823569 -0.00450686237973183 -0.08739246779018583 0.06412554041429479 0.035032462435625036 -0.09444900586283857 0.11106964890158415 0.04699432337927989
0.04951109662241337 -0.01013237392509995 0.12024559719703333 -0.12392351264268185 0.015077496717205855 -0.1276730213181326 -0.08144293060868188 0.025266640609527605
0.12124922869499666 -0.09877337653153645 0.010756607052569275 0.09746310107014525 0.037669084621082295 0.15559954987361146 -0.05364631627964591 -0.08224655719674771
-0.10957020489807777 0.06304245585656408 -0.18266874238168432 -0.08357372812002951 -0.036677455786846 -0.10080245611681914 0.04248637831566965 -0.10906733255833118
00000000: 08cb 9018 bc2f b63f 1792 48ae db83 bb3f
00000010: 699f c892 fcf5 c23f a70d 54f3 7490 bc3f
00000020: ff40 b469 5a8e c03f a049 df0d ca8e c3bf
00000030: ab4c 1d58 ef1d 813f 7558 b3ab b3e9 89bf
00000040: 37f9 fc2d 1423 b9bf 088d 67e3 8f2d c7bf
00000050: 1630 2316 7cb8 b3bf 7910 02ae 79c2 983f
00000060: 9c13 af20 568a 903f c30c 7d98 b0c8 a73f
00000070: 4b63 d673 0245 a8bf 82f0 4266 d02c c7bf
00000080: 4a10 1999 e396 aa3f f0c0 c3df b807 95bf
00000090: 92f1 e540 2d3a 813f 8c59 73bd 1a95 9cbf
000000a0: b6de ba93 9232 c63f dd1b 2a96 a877 90bf
000000b0: 7a4f 7de7 b9d1 a9bf 8f9f ce9d 5a7b b43f
000000c0: e0df a893 db9e a53f 8232 38d4 67f9 b5bf
000000d0: bdbb a805 5493 bebf b11a e9d5 4c54 a33f
000000e0: 6438 708c e0ae a03f 46bb a690 1197 babf
000000f0: 4275 1c64 7fb6 a3bf 47ee 0813 28c8 ba3f
00000100: 6644 f8b0 e220 a7bf 30ac fb62 9e5e acbf
00000110: 90bf 7ecc 19cc a0bf 859b fd00 6bdc bfbf
00000120: bf4b 0597 9fd8 b1bf a3cb 9856 ee56 aabf
00000130: 9d04 097a 5562 45bf d305 f16d 3e9a 59bf
00000140: ebb9 861f dad6 a5bf f647 576f 4cda bc3f
00000150: d584 1b4b b785 6abf e8ed e302 1806 c63f
00000160: 79f0 6832 2556 92bf 9d74 8fa3 9da3 c33f
00000170: d947 52ad 035f 833f a0e2 981b 7204 a5bf
00000180: 9157 f888 7fd5 b53f bfd9 21a9 0b9d bdbf
00000190: 14f3 811c 0400 933f 11fd aaec b5f6 bb3f
000001a0: b15a 9dc6 2479 c23f 742a 0637 0764 b53f
000001b0: d927 bfbd b8fe b9bf 8b2c b909 5371 9ebf
000001c0: 1b71 9e59 d237 b0bf 6a69 fc57 fa96 8cbf
000001d0: 05d2 5fe6 9c0d 89bf efe7 8f2d a414 c9bf
000001e0: 9e9b 4368 aa0c cfbf e0c4 35bb ddba a4bf
000001f0: beac 3b2b 587a b9bf 417c 6db7 025e c33f
00000200: 361e 1f8a a23c bbbf 7c8c de43 5c26 c4bf
00000210: f71f 2dae 9da7 9c3f f8ff b360 270f b5bf
00000220: a057 8599 7b63 b4bf 128d b14e 572c c7bf
00000230: 5c1b 6ed3 1762 cc3f bd2e 6bb0 6d8c c73f
00000240: 1934 009a 4669 c8bf 2612 c4aa 06dc 783f
00000250: 9550 d7f9 d90a a0bf 2b4b 3e08 6a07 b93f
00000260: 8112 9a3c fdea bc3f b36e 89d4 4a6d 85bf
00000270: 25dc 3737 cdac 97bf 3475 caa5 50d7 b93f
00000280: a25c 6947 e995 c9bf bed2 a192 29f1 9bbf
00000290: 7355 0f16 c866 c7bf 71e3 b5f5 8a0a b1bf
000002a0: c7f6 d88a c9ea c73f 36b7 b91e 5cfc d03f
000002b0: a9e5 bc90 6ec8 ad3f e8ed 1092 065e a1bf
000002c0: c044 6fed 61f3 cbbf 9acf fd94 9b7d abbf
000002d0: 5e68 12f5 372c b9bf 17e9 bd31 c80e c43f
000002e0: 184c c60a 4d40 c2bf d2e0 d75d e02d b9bf
000002f0: 2feb 8732 f1f4 b43f 8081 de51 cc93 a7bf
00000300: bc17 1278 0562 b9bf 0b6c 8f40 aa9a 6cbf
00000310: b794 7c08 2516 b5bf cee0 cba9 5e47 c03f
00000320: 30bd d19e 9966 c2bf 2630 cb0a ba04 b0bf
00000330: adde 0d23 b726 963f 345b 74cf 66b7 c0bf
00000340: 994f 374b f375 a93f 09b9 a903 bb04 a5bf
00000350: 31fb 5854 006c 9f3f 78fc ef38 2954 cc3f
00000360: c84f 40ca 22b2 b0bf 5385 283c 8745 c03f
00000370: 142d 2730 c83f c9bf 2846 0e8e 9194 c53f
00000380: 6d90 ee6c 5be1 ad3f c481 de7e 7fa6 aa3f
00000390: 38ce b422 684c c0bf 40cc 5ac6 74f7 bf3f
000003a0: 0a61 4da9 20f3 c43f 5ffc 1c19 7f5e 9e3f
000003b0: 8daf 3c5a e0c3 a53f 4e80 ce23 79cf c6bf
000003c0: 98e3 dc45 0057 aa3f 21a2 83ef a0ed bdbf
000003d0: d388 0827 7933 b93f 8215 ed1c ce71 a1bf
000003e0: e1bb 3b31 cd3d 9b3f b6ac bdd3 9a23 b7bf
000003f0: e3e0 98bd f4e7 b8bf 34e0 3886 d792 a5bf
00000400: c18a 92ea ac17 ac3f d264 7242 ee42 c13f
00000410: 21fb 5dd3 06f2 b33f a722 cdd6 3add b63f
00000420: afd2 8084 4e96 ba3f 33e5 76e0 110c bfbf
00000430: b864 f83b 5a7d ce3f 040a 2b5f e7e0 c43f
00000440: d8e1 8073 699c b83f bf28 eda3 3a68 ba3f
00000450: e540 3aae 5b3c afbf c244 20db a19b afbf
00000460: 5dfc 2557 3498 c8bf 667d 070c ce83 c03f
00000470: e7fa 1004 2904 a8bf 6257 e6a1 946b a73f
00000480: 2653 c2a5 a5a8 b53f f703 4116 3974 68bf
00000490: df2d a897 ac60 8e3f 2626 1bb2 a529 b93f
000004a0: e111 9c97 7b6d acbf 5f33 299a 7b0e 61bf
000004b0: 1fff 7760 8608 46bf 59dc c477 8015 c73f
000004c0: 6ade 76b8 986d bbbf d114 f4d2 eee1 b03f
000004d0: 772d 8974 5977 9b3f 3615 8b29 5965 853f
000004e0: 005d 7c2e f4cb 96bf b71b 14df a889 81bf
000004f0: 8a92 78d4 a41e aa3f 1672 534c 418e 9b3f
00000500: 4a83 18fd a27a b7bf d728 5c2d add8 b6bf
00000510: ab55 744b 8975 a1bf 5477 26cf 6938 943f
00000520: d162 f931 ee15 ca3f caae 58ff 85b1 c73f
00000530: c5a9 96d1 233f a9bf eb34 50c1 548c b7bf
00000540: 8042 c4d6 96fa abbf 1d75 0043 f454 bd3f
00000550: ca97 650b 7ef4 b5bf f10f 2c9d ead4 acbf
00000560: 001b a77b 6475 b03f e4c6 438f b806 a33f
00000570: 4bab 04b0 c1e4 c3bf 0b99 3a7c dab7 6dbf
00000580: 74a6 a1f2 58bc 8dbf be15 9896 4607 c7bf
00000590: fc4b 1ce8 6d57 c03f ca79 93ac 2014 973f
000005a0: ddee 2ceb c958 bfbf 854a 1b6c b302 b7bf
000005b0: b075 5edf 2394 b6bf aca4 3b31 c733 7a3f
000005c0: a2f4 727d b360 b93f b33b 8f65 8924 b53f
000005d0: 3945 ca9f ced2 b6bf f6a2 64be 1f31 a03f
000005e0: faf1 2e0d 0e03 a6bf 6125 2259 80d9 c43f
000005f0: 218b c92a 9c18 913f 8635 762f 1d21 a5bf
00000600: c50a 5ec1 100d bc3f 0454 ca0f 7bdd b93f
00000610: ca0b 09cb e644 bd3f a5aa 77c5 9894 bebf
00000620: 759a cc9b 39b2 a23f d9da 0b60 8564 b2bf
00000630: 1b13 5ad9 665f a63f e43f b2b8 ce6b a3bf
00000640: c5e7 95b3 1c0b b7bf 4bdc 6da1 492d c9bf
00000650: 9e13 a2b4 33c2 963f 9a08 14a9 78b1 aa3f
00000660: 4ff0 6f46 f650 c23f 38df 752f 2b14 a8bf
00000670: 9a0d fcb6 c446 bd3f c82f 9be6 5f9b b6bf
00000680: 6dc7 6c4c 6a53 bbbf 9213 5410 37a0 b23f
00000690: 09c0 982f 1fdb 6bbf 2782 09ed 01df b33f
000006a0: 7260 6a64 5925 c0bf b3d3 4dc0 c5f3 a43f
000006b0: 43c1 0028 ee15 ae3f 7448 7db6 98f7 b1bf
000006c0: 4277 f748 3a79 c9bf b0ce 358c 1c51 a6bf
000006d0: febe bf49 361e b63f 9a88 b9e3 1788 afbf
000006e0: 600e c248 aac4 79bf c097 9050 79db 863f
000006f0: 838b a358 84a7 873f 2412 a33f e1e8 61bf
00000700: d341 9eec 1164 72bf 60d2 74a8 c975 72bf
00000710: 5059 134f 5a5f b6bf dbef ea0a 886a b03f
00000720: fa30 eb60 c6ef a13f 1913 525f cf2d b8bf
00000730: 234a 9c7d 0f6f bc3f b0f7 05d4 a30f a83f
00000740: af91 90b9 8459 a93f 55f9 1c35 48c0 84bf
00000750: e101 735b 6ac8 be3f 8f79 018a 73b9 bfbf
00000760: 1594 725a f3e0 8e3f 3b4a 92ed 9657 c0bf
00000770: 4e66 74a3 71d9 b4bf 310d 648c 7fdf 993f
00000780: 3005 e97f 300a bf3f 141f eb45 3649 b9bf
00000790: ebbc 0d5c 8f07 863f 72bb a97f 57f3 b83f
000007a0: bd1d 09bd 5c49 a33f ac5f fda0 afea c33f
000007b0: a3a3 f1ab 8777 abbf 335e 5e41 1c0e b5bf
000007c0: 3f3c a7fe ca0c bcbf efd8 29e6 8c23 b03f
000007d0: b5f0 4379 b061 c7bf 0190 147d 1665 b5bf
000007e0: 30c1 3532 63c7 a2bf 97d2 6094 30ce b9bf
000007f0: 7856 c84a c6c0 a53f a465 6632 d6eb bbbf

fc_hidden_list.1.bias f8 [50]
0.002197541679810799 0.0122747065618089 -0.05498565297997256 0.023786799444272973 -0.09699137551826863 0.07441740151140092 0.1311916450004093 0.09552625803826931
-0.11511694410497811 -0.03575776666370039 0.06424645330001688 0.05411910717414094 0.017317833500110902 0.08883055573773625 -0.08809012572979326 -0.08625170558242183
-0.07478317326800323 0.010054633036137774 0.08714329910702906 0.05171375316806149 -0.005415068639462059 -0.010129349961335835 -0.08926529019754538 0.03966568268224508
-0.05780477349500068 -0.09251297286543993 -0.16155655252013468 0.1219749893864846 -0.06344125735728712 -0.06640583590144633 -0.1784709213527683 -0.06848976866981746
-0.11336609807793331 0.1440524460531225 0.10526790113087187 -0.08327280643240227 0.03634003538719197 -0.009463979072944257 -0.06293763017269403 0.11285766165996887
-0.06634769304083409 0.018649040133050077 -0.03444697330034914 -0.014340587267251103 -0.14802253465774218 0.030439085078304756 0.034230911287015206 -0.0747225161065864
-0.023231373901417385 0.13918333611866457
00000000: 192e af34 9400 623f 5ffa 013a 7b23 893f
00000010: faab 985a 1427 acbf 1f37 c216 915b 983f
00000020: 2753 d841 6dd4 b8bf 1ca9 bed1 040d b33f
00000030: 6e81 6448 e3ca c03f f801 2faa 6874 b83f
00000040: 9a76 25d6 4d78 bdbf 4714 cc8c d74e a2bf
00000050: 80bc ce9f 7472 b03f a2a5 cde6 7fb5 ab3f
00000060: f00a 1522 c4bb 913f f171 c76b 99bd b63f
00000070: 5128 1c11 138d b6bf 8b62 b37e 9714 b6bf
00000080: 2928 7a73 fd24 b3bf 9408 8200 8697 843f
00000090: bcf0 baf3 054f b63f 7171 389d 397a aa3f
000000a0: fdb2 646b 1c2e 76bf b568 8256 b2be 84bf
000000b0: 0900 110e 17da b6bf 699a c973 0f4f a43f
000000c0: 206c 6d57 9698 adbf 41ad e920 eeae b7bf
000000d0: 64a5 c396 e2ad c4bf 444b 58be c039 bf3f
000000e0: 2011 91ad af3d b0bf 40d3 750d f9ff b0bf
000000f0: e3a1 3f99 22d8 c6bf 1627 8ca4 8b88 b1bf
00000100: 3948 b883 8f05 bdbf d87d 5a80 4f70 c23f
00000110: ccf7 ac50 d6f2 ba3f 65f7 45dc 5d51 b5bf
00000120: 8d04 0c3f 299b a23f f7d8 ddc4 d961 83bf
00000130: ef8a 4737 ae1c b0bf d5be ee5d 3de4 bc3f
00000140: 8782 c693 29fc b0bf 7099 e4e5 bb18 933f
00000150: bad8 8a9f 08a3 a1bf 13d5 8b0a 995e 8dbf
00000160: 2088 b604 67f2 c2bf 08d6 b96b 6c2b 9f3f
00000170: 46e2 fac8 b686 a13f 06df f3ca 0321 b3bf
00000180: 0048 971c f7c9 97bf 4290 6372 c2d0 c13f

fc_hidden_list.2.weight f8 [50, 50]
-0.1412055744392178 0.03324226021495235 -0.020687974450234414 0.15165388784526312 -0.055548386019670125 -0.047901402608717676 0.10742704946914007 0.2030702032300868
-0.19177701535793767 -0.03532657179239139 -0.06185763656534451 -0.0394543357439086 -0.007062564158996181 0.05453396712424861 -0.16280804818368796 -0.15492596677402395
0.13265708359714704 -0.11835144857717568 -0.1009097601924391 -0.17136104008970754 0.16616186384866888 -0.023083435530020523 -0.08907461445798967 -0.027098565243831467
-0.04588097262185712 0.043048404286351864 -0.048793372474482524 -0.18745518756598464 0.17026884968195832 0.042536207094946585 -0.1704636335303318 -0.2064556610790756
-0.015494772213626374 -0.058695042128697236 0.12871647895496244 0.023298065800174433 0.0379123722382536 0.13358480361315264 -0.07645261334541621 0.11492260479900672
-0.18742410287890468 0.19138179134348043 0.11786264000518497 -3.9843968721081546e-05 0.02939321933935932 -0.04495496859436575 -0.05150128854833499 -0.034670329172710825
0.02197470733407844 0.04454560171177455 0.1073643100521585 -0.1021110275856897 -0.10929439439283861 -0.03396309540506758 -0.07783901848725681 -0.0010276147182047687
-0.019907522183783315 0.11235244443581222 -0.0031999490178923223 -0.10042814723654 -0.1051189741646428 -0.09994118259266606 -0.034530777453066944 -0.20482593617189856
-0.173074838327214 -0.032831836388156586 0.17657936530816232 0.15697195081091458 -0.008503412769536912 -0.11480564394189968 0.1217162905476592 0.015543859520971473
-0.05975325663228397 0.12931811199459053 0.10767896752738526 -0.006885380040288901 0.09551934862293364 -0.011556698557053057 -0.16133312703231834 -0.019938458420786755
0.010438053123914383 -0.1287052477034216 -0.06191415016691113 0.11672680460662367 0.11687611194454395 -0.08808203670651425 -0.05570020490471396 -0.07080885811005976
0.10372048644139362 -0.03484333010853847 0.022075669484138485 0.013225307205170662 0.08775472234446757 0.043858298486285106 0.02981959828641411 -0.1192283466382612
-0.02009145982265926 0.05061449145997262 -0.07113676532112388 -0.056361781776918134 -0.03870201524503841 -0.23228599481090176 -0.1587192625846259 0.060272088062172026
0.04274217412648418 -0.030068706138952073 0.15662405600660978 -0.008987351422867577 0.13745786857335401 -0.09273344697510057 0.12071520833820495 0.09321869073574474
-0.025818337050393225 0.16703264656461234 -0.15182203651818094 -0.054506940618228854 -0.06411707376838462 -0.11070548617826895 -0.04017104372098617 0.136982914966496
0.07507121412833193 -0.12232613699503607 -0.030326200298926347 -0.043594981489346846 0.13700915994874566 -0.08583865986052547 -0.13437737318189538 0.1169315240158924
0.029936103263649164 -0.09518969778590018 -0.03272732637676604 0.14995060747742983 0.13689863472252337 -0.04117273502650247 -0.11829446708655952 -0.08674743425663539
-0.09074314879892001 -0.15331509844515673 0.1076657551222112 -0.2502077560475082 0.042790286210451486 -0.1394582115425597 -0.07875921433792774 -0.09661475924700066
0.020230271494713882 0.14729205993856798 -0.10255195624087875 -0.0215604547354112 -0.17341477640854908 -0.1499183178939257 -0.006459249877251534 0.02055829324817954
-0.14539628638506574 -0.19528626181520806 0.08986957947874345 0.0694066463209363 -0.04448008671752108 -0.20161188659428647 0.020051476026293577 -0.13694256309363145
0.13797627351495134 0.043708984771168434 0.04685468969351382 -0.042629469469829886 0.13107188278571924 -0.03253078437217768 0.12698997345122842 -0.0029160380275064747
-0.1206398643081241 -0.018781482103686364 0.06890819363525595 0.1795929722888351 0.03406565215607708 0.04309592519497994 -0.16908334812594572 -0.02209929478609525
0.12300334573362452 -0.11093550624765425 0.013082387268282212 0.21607143085759623 -0.10225705264173046 0.06769107224934857 0.06517785441730893 -0.04496433547581491
-0.08114015383769302 0.017143656828493076 -0.08981580263194772 -0.04864719148552908 -0.12963534297392246 0.019331359078816154 -0.040260545196413026 0.11951509502397628
-0.05208217758587664 -0.00804420441044443 -0.10819647451127971 -0.1317772236844673 -0.01569096329061766 0.027565965868861064 -0.06774425388347005 0.07882208332957168
0.018216062487279173 0.11624578300191339 0.012856182537509525 -0.009087468002473174 -0.01251430266861537 -0.0807865754624599 -0.11145396841832297 -0.08952156819624527
-0.1761378937573704 -0.19910419329689236 0.0370852724604991 -0.08354757293780232 0.015272875174551594 -0.09016145323449425 -0.2399536145582112 0.007287803952175095
-0.06563568331206034 -0.008388829485278632 -0.03803292732823632 -0.153510199110023 0.09379029130725777 0.18841298073420495 -0.07813323147839811 -0.07275998508412178
-0.13286641532728313 -0.0648984758223939 -0.12954447240944159 0.23401137217415144 -0.059490634828611486 0.21113334503748735 0.016931969835818253 0.008830057372977417
0.10621379133591102 -0.04593809038166237 0.14116042747339302 0.08672776126742142 0.10979816629345177 -0.08856712334097751 0.09276214757008347 0.09621324728175175
-0.09987990750523955 0.21623012082578094 0.1675925479172701 -0.0006702857299867586 -0.1191335884948368 0.15578953472067644 0.11397990255930496 0.07712553163990633
-0.03469766721157666 0.0581073750846405 -0.2042930324393037 0.08495088000683844 0.016266108983030134 0.1607931809224094 -0.09222006801619329 0.11998051845209252
00000000: d15a 1d36 0613 c2bf 8fca ef28 2105 a13f
00000010: 83a9 bc76 3a2f 95bf f0a6 4d04 6569 c33f
00000020: 5ba2 998a d670 acbf 2121 465b 8886 a8bf
00000030: b1fc 2cd0 5680 bb3f 6e28 d554 34fe c93f
00000040: 501d 8b34 268c c8bf 5e65 0e0d 5316 a2bf
00000050: 23ad 1cdc cdab afbf 2736 69d3 5b33 a4bf
00000060: 6caf 6ba1 a2ed 7cbf 1dbb a34a e0eb ab3f
00000070: 77bd 3ce5 e4d6 c4bf 213d 4c34 9dd4 c3bf
00000080: 41f5 d045 e8fa c03f edbc 12d1 474c bebf
00000090: adac dfd7 38d5 b9bf 1c36 7f97 28ef c5bf
000000a0: a245 89bd ca44 c53f d319 b922 2fa3 97bf
000000b0: 4e39 000c 98cd b6bf 9e8e f6ed b9bf 9bbf
000000c0: f5ce d6f9 b57d a7bf 9717 1cc1 700a a63f
000000d0: aa32 14e6 71fb a8bf 97dd 0716 88fe c7bf
000000e0: b4ad 74a2 5ecb c53f 76c3 bc44 4ec7 a53f
000000f0: f9c5 9599 c0d1 c5bf f24f 349c 236d cabf
00000100: 3afb 541f b9bb 8fbf 0e9c c2cc 460d aebf
00000110: d9ae c815 c879 c03f b8ed afba 72db 973f
00000120: 4e10 c11d 4069 a33f d96a 618d 4e19 c13f
00000130: d125 0302 6692 b3bf 57d0 2e5d 916b bd3f
00000140: a56b 2c54 83fd c7bf e460 6fd3 327f c83f
00000150: df13 3ef8 3e2c be3f be9c 3e57 c4e3 04bf
00000160: 7995 258f 4119 9e3f be9e cf6f 5604 a7bf
00000170: bbae 087c 605e aabf 1d6f e033 4fc0 a1bf
00000180: d82c 5ba5 8980 963f cdbf 105d aece a63f
00000190: f77e 6e38 3a7c bb3f 299f 0ac4 f223 babf
000001a0: 80a9 8da9 b7fa bbbf 5f46 1260 9c63 a1bf
000001b0: ef68 c106 42ed b3bf bc8d e2e6 20d6 50bf
000001c0: 1b1d e532 a362 94bf 843b 7a3a 21c3 bc3f
000001d0: e5d0 2e8c c736 6abf 6e93 fab7 a8b5 b9bf
000001e0: e2e8 39bc 13e9 babf 1952 c2ce be95 b9bf
000001f0: ba95 bb9f 04ae a1bf bb8d 9d7c bc37 cabf
00000200: 8e1c 30f9 5027 c6bf e308 1c9f 55cf a0bf
00000210: b4d0 9213 279a c63f 36a4 8f29 a817 c43f
00000220: fa13 ffbd 3c6a 81bf 146e 2016 e763 bdbf
00000230: d0e9 4a7f cc28 bf3f 3b99 5e82 75d5 8f3f
00000240: f75b 2196 fa97 aebf b00b e6f2 7e8d c03f
00000250: 4046 ff4b d990 bb3f 5845 7f21 d833 7cbf
00000260: 4781 78be f473 b83f a674 d1d2 09ab 87bf
00000270: 8ebf 2e5c 90a6 c4bf 5755 664b bf6a 94bf
00000280: 21b3 68c6 8b60 853f e7d9 dade 6979 c0bf
00000290: bdc6 4024 36b3 afbf b11e 5ad0 cee1 bd3f
000002a0: 8846 7cc6 97eb bd3f 3f01 055b 8b8c b6bf
000002b0: 427a e4bc bc84 acbf 378d d981 8720 b2bf
000002c0: 2ee5 3001 6d8d ba3f 218d 9926 fcd6 a1bf
000002d0: 1400 e319 019b 963f 77f5 67af de15 8b3f
000002e0: 18ff 89ee 1777 b63f 3348 504b 9874 a63f
000002f0: 1e16 ae5d 0789 9e3f 9846 91b9 bf85 bebf
00000300: 6208 780b db92 94bf fb6a 0c83 24ea a93f
00000310: bff2 98e0 0436 b2bf 37ca f392 73db acbf
00000320: 4891 8823 c0d0 a3bf 110d 8427 8cbb cdbf
00000330: 09ea 05ad e950 c4bf f564 2dae fbdb ae3f
00000340: e0fd 1060 4de2 a53f 60d4 ffb5 54ca 9ebf
00000350: 7c5a 28cf 410c c43f 0fd1 82e3 f567 82bf
00000360: 9eda 0c2d 3898 c13f 49df 0012 61bd b7bf
00000370: 3a42 f11f 31e7 be3f 9801 161c 2edd b73f
00000380: 33fd 1245 1f70 9abf bffe 2d65 5361 c53f
00000390: ac2f d48c e76e c3bf 277a b86e 55e8 abbf
000003a0: 794f f3fe f969 b0bf 1a9a 9fda 3157 bcbf
000003b0: a73e 0e8e 4c91 a4bf 1e28 f2f9 a788 c13f
000003c0: e65c 8df9 dd37 b33f 4bf6 d605 c450 bfbf
000003d0: eebb fbd9 d40d 9fbf c46e 88d7 1452 a6bf
000003e0: ddbb 9d22 8489 c13f 545b d5bc 85f9 b5bf
000003f0: 91be 911b 4733 c1bf d30a 856f 39ef bd3f
00000400: c4bd f2e1 91a7 9e3f a314 e81e 5a5e b8bf
00000410: 858c f2d8 a2c1 a0bf 24c1 90dd 9431 c33f
00000420: 6f09 80fb e485 c13f 96f5 d9bc 9714 a5bf
00000430: ce3c 6fd3 8b48 bebf 9ce7 2471 1435 b6bf
00000440: 9a6b 6d68 f13a b7bf 3609 e742 d49f c3bf
00000450: 9727 26a1 fb8f bb3f 787e 5b64 6703 d0bf
00000460: 4682 b8bf 9be8 a53f ddf1 dd44 c4d9 c1bf
00000470: c60d d759 9029 b4bf 26db 46af bebb b8bf
00000480: 5a03 d689 3eb7 943f 7cc4 325a 77da c23f
00000490: 8f05 3252 d840 babf 15e4 e69f f113 96bf
000004a0: fcaf a894 7432 c6bf bb7e 3600 8630 c3bf
000004b0: eefa abaf 0375 7abf b168 a6b4 3b0d 953f
000004c0: 20ea 7d73 589c c2bf 615d ede5 23ff c8bf
000004d0: c337 c458 b101 b73f 48ce 124c a2c4 b13f
000004e0: 69cc 8c0b 18c6 a6bf 1a23 b415 6bce c9bf
000004f0: 0ced 13c7 5f88 943f ba72 f57a 5587 c1bf
00000500: 0472 2fdf 34a9 c13f 1b5e 4428 0661 a63f
00000510: a2b5 cb7f 56fd a73f faff 6fa2 87d3 a5bf
00000520: 14b2 fea4 f6c6 c03f 2bc4 fbfd dfa7 a0bf
00000530: ac4b 721b 3541 c03f b6f8 c8fe 5fe3 67bf
00000540: ee19 cc0f 41e2 bebf e37a 9fed 733b 93bf
00000550: 0b01 17a6 f7a3 b13f ad36 490b e7fc c63f
00000560: 35c2 da9b 0d71 a13f 4e4a 9b4a ab10 a63f
00000570: 28e3 3fed 85a4 c5bf 54d8 7b91 32a1 96bf
00000580: bb78 39b3 257d bf3f 5083 4cf3 4466 bcbf
00000590: 255c c44b f0ca 8a3f 0210 9188 3aa8 cb3f
000005a0: 68af e1a8 842d babf b9c8 8abd 3354 b13f
000005b0: 8f52 25f1 7eaf b03f 40c2 b5bc 9005 a7bf
000005c0: b013 20e3 99c5 b4bf 451e a655 1b8e 913f
000005d0: 5cdc f71e 2bfe b6bf 3ef8 f1e0 48e8 a8bf
000005e0: 5d47 3d13 e497 c0bf 6c7c 1f8c 99cb 933f
000005f0: 571d e0b9 079d a4bf 909d 8190 8a98 be3f
00000600: c121 dfe2 83aa aabf d1ec ebd6 7a79 80bf
00000610: 8b85 919f c3b2 bbbf 2b8e 0a79 13de c0bf
00000620: 7529 b4b8 4a11 90bf a0c1 8ea7 403a 9c3f
00000630: 80e2 ebfa af57 b1bf 9364 1a1e af2d b43f
00000640: 0a3b 9442 3ba7 923f 8b87 4a9c 48c2 bd3f
00000650: 7d6b 669c 5754 8a3f bf17 fe4e 739c 82bf
00000660: e434 8d45 19a1 89bf 8e2d 91d3 6dae b4bf
00000670: a6b9 5d4d 3f88 bcbf 8a83 b0af e2ea b6bf
00000680: eb19 a3be af8b c6bf 5d72 5a07 3f7c c9bf
00000690: a21e c340 d7fc a23f be93 6dad 5f63 b5bf
000006a0: 54ed 1f9b 6247 8f3f 2b82 002d d214 b7bf
000006b0: 1dd1 8acf ccb6 cebf fce4 25fa d0d9 7d3f
000006c0: 2da2 4609 80cd b0bf bdf3 53a2 292e 81bf
000006d0: c882 1746 0d79 a3bf f2d6 63e2 38a6 c3bf
000006e0: 06d4 d8f9 a302 b83f cf98 32a3 ea1d c83f
000006f0: 6736 ee19 8a00 b4bf dbcc 64fc 65a0 b2bf
00000700: afa1 4846 c401 c1bf 65a9 37bf 2f9d b0bf
00000710: e524 30cc e994 c0bf f7a5 30ab 15f4 cd3f
00000720: 1eab 0376 8e75 aebf d3fa 03de 6a06 cb3f
00000730: e489 ce42 9d56 913f 9924 1c3d 7e15 823f
00000740: 0802 2cb8 d330 bb3f daec a887 3285 a7bf
00000750: c669 be7d 8b11 c23f c782 4c62 ca33 b63f
00000760: 1222 648d bb1b bc3f 7113 40c2 55ac b6bf
00000770: aec7 1e96 42bf b73f a95f 846e 6ea1 b83f
00000780: c733 43c8 ba91 b9bf 83ad adb8 6dad cb3f
00000790: 8dd2 2d30 ac73 c53f 04c1 06a5 c3f6 45bf
000007a0: 10c1 70f2 897f bebf 2b99 5756 e9f0 c33f
000007b0: 34bb e471 c92d bd3f 997b 14b4 7fbe b33f
000007c0: 44a9 d783 e4c3 a1bf 1335 4af7 3fc0 ad3f
000007d0: 2651 902a 4626 cabf 9552 6543 57bf b53f
000007e0: 990d 7618 10a8 903f bea3 bdf6 de94 c43f
000007f0: 1e19 2a00 bc9b b7bf 2dab e812 0bb7 be3f
