savedModel/poisson2d_inverse_tanh/noise_0.1/ParticleWNN_2/trained_model_final.pth (torch, 131953 bytes, 20 tensors)

fc_in.weight f8 [50, 2]
0	0x3fe610cb26afeffb	0.6895499950037441
1	0x3fe74e609a8b32bc	0.7283175486023405
2	0x3fab299197158158	0.05305151910102052
3	0x3fe4aad009d7bd8a	0.6458511535874305
4	0xbfd7d8f75e927625	-0.37261757121618394
5	0x3fe139d7feb0b063	0.5383110021989633
6	0xbfc302f0ecada3e0	-0.14852725559765556
7	0x3f8fb86622f63e5f	0.015488431875183282
8	0xbfe3e0f3d7a7fc1e	-0.621210023120401
9	0xbfdd713214511c75	-0.46003391250673725
10	0x3fe109e5845c72f8	0.5324580750635439
11	0x3fdccc841b58078a	0.4499826685934002
12	0xbfc38239cdb0ad7c	-0.1524116758676931
13	0xbfdff8c524aca223	-0.49955872136573215
14	0x3fc169045bff03c5	0.13601736537932943
15	0xbfbd4cb8ed34c5d1	-0.11445194045224773
16	0xbfd3c06e792bac59	-0.308620088892615
17	0x3fe475683ac05cf6	0.6393319270599978
18	0xbfe581f49cb08cbe	-0.6721137104363135
19	0xbfe0faba8912a5e3	-0.5306065251544932
20	0x3fb80f10b844e475	0.09397987841374962
21	0x3fa6973e45146e9d	0.04412264436015543
22	0x3fe5318f6b301544	0.6622998326790044
23	0xbfe1f95cee9d7758	-0.5616898212863175
24	0xbfe47290a3f06bef	-0.6389849855362381
25	0xbfc4883dad406e9d	-0.16040774306826658
26	0xbfe72ae56de9afb9	-0.7239863535628422
27	0x3fe2596aa7efef6c	0.5734151153587681
28	0xbfda5420800bc0d6	-0.41138470177157893
29	0x3fe33b609b26ae0a	0.6009982137961185
30	0x3fdbb69448896776	0.43301875194230577
31	0xbfdf1dd5ceaea8bc	-0.4861959951764552
32	0xbfe8365ef8677ea9	-0.7566370822568916
33	0xbfc9c91cb1603a55	-0.20144995366031773
34	0x3fdd0fe87346a1d2	0.45409594781315576
35	0x3fdec5f26f717eb7	0.4808317268670907
36	0xbf944d25c37fd529	-0.019825544411976957
37	0xbfe4d7c8439148a3	-0.6513406104734439
38	0x3fdd02ce4723b165	0.4532962507935479
39	0x3fdd10e484da0f86	0.454156045663915
40	0xbfd84653b5d815c6	-0.3792924190350643
41	0xbfd4f4a08b7a7a88	-0.3274308549970688
42	0xbfd9b18e5935965a	-0.40146216117714106
43	0x3fbf7c19b5e771a1	0.12298737231271285
44	0x3fdafab8e571cf52	0.4215528717679621
45	0xbfe2a714561c54fc	-0.5828954393242891
46	0xbfdceb9b8dc72bbf	-0.4518803486395732
47	0x3fd7b61d9c25709b	0.370490457998821
48	0x3fdcbd04f270976b	0.44903682399523487
49	0x3fe6edd7116cfd08	0.7165332165094762
50	0x3fcedf5a856cafa7	0.24119121088858472
51	0xbfe284cb392041c4	-0.5787101855985886
52	0xbfc6dee2e8041438	-0.17867695168402675
53	0xbfcbf61eaa4462dd	-0.2184484797842491
54	0xbfddac0016d758cd	-0.463623068147524
55	0xbfdcf7bc32e110e6	-0.4526205536715352
56	0xbfc67cb5f058a09a	-0.17568086848882986
57	0xbf987bf19fd31e53	-0.023910308246540456
58	0xbfda1aaa5748e3e4	-0.40787752651118425
59	0x3fc6938a0eae773c	0.1763775417029424
60	0x3fe366dc7fd2f3eb	0.6063063141406223
61	0xbfdb01f1f5667079	-0.42199372258051643
62	0xbfe546be686339cb	-0.6648857153721165
63	0x3fe56a7c827a8475	0.6692488239679181
64	0xbfe1443a3683c982	-0.5395785393468915
65	0xbfe5710c33efde04	-0.670049764098565
66	0xbfd2d16282e8fc7a	-0.29402983459653564
67	0x3f73554262cd9d85	0.004719981498829799
68	0xbfc96050db516c0e	-0.1982518263710919
69	0x3fdb9f8a2e48fe3f	0.431612534714052
70	0xbfcb610558a3d464	-0.21389834240077044
71	0x3fe46dc8e84e423f	0.6384014641972228
72	0x3fe3e7301dff8f8e	0.6219711862472523
73	0xbfe6df84ce379280	-0.714785006301625
74	0xbfe333c00907b90b	-0.6000671554918723
75	0xbfc6802667b839ea	-0.17578582825122108
76	0xbfeb98ba206da150	-0.8623934396137347
77	0x3fde4edf36502ee8	0.47356396011376356
78	0x3fc55c95b51ac28e	0.1668879637050122
79	0xbfb3892f2a5d1962	-0.07631201538342716
80	0x3fc5d97523fb3b28	0.17069877869513417
81	0xbfd5fe2523ea4656	-0.34363678462350344
82	0xbfb999fa4814c3ce	-0.10000576267044822
83	0xbfbb347734d4d857	-0.10626931228475321
84	0xbfe60f3c10196e54	-0.6893596949043492
85	0x3fc5a638ca4fe65d	0.16913518789788187
86	0xbfe36009cc010d95	-0.6054734215216963
87	0xbfa0d5ce652a1ac3	-0.03288121209066255
88	0x3fd036248dc22478	0.2533046135291168
89	0x3fde29ac81fdedb3	0.47129357046625414
90	0xbfe4ccc6f4bd71bc	-0.6499972133711291
91	0xbfdf02818ddf0f9d	-0.4845279584371783
92	0x3fdcb30483558103	0.44842636895738525
93	0x3fd5efcce95b9207	0.34276125706517785
94	0x3fe7c217fd7a2ba3	0.7424430800177685
95	0xbfe75c189598b4af	-0.729992191487005
96	0xbfd03f6d9dcbd139	-0.2538713494279992
97	0xbfc649e39923fc5e	-0.1741299150234878
98	0xbfa9a022453f5ca9	-0.05004984946543207
99	0xbfe514a4bbf7701a	-0.6587699576589359

fc_in.bias f8 [50]
0	0xbfe454e43ccef39d	-0.6353627383865504
1	0x3fac22c0c5fa19c6	0.05495264450751196
2	0xbfddc3cd51a6879e	-0.4650758073204261
3	0xbfdd2915e4266cf9	-0.45563266067774993
4	0xbfd31c4e0c267f02	-0.2986025923400889
5	0xbfdd58966c82cf78	-0.45853195759558885
6	0x3fb3f3129d171c1b	0.07792774520122274
7	0x3fdccc5a219c7079	0.44997266084988713
8	0x3fb934acb9a6ec32	0.0984600022556357
9	0x3fe497fec074909e	0.6435540923016736
10	0xbfceee3129e09551	-0.24164404434956535
11	0x3fbd90c6f668cbb8	0.11549037471631507
12	0x3fc823c933e77199	0.18859210047129407
13	0x3fe5125ae02d4c2b	0.6584905985313346
14	0xbfc2816572062a0b	-0.14457386081296905
15	0xbfde3e63377b1fd8	-0.4725578347974966
16	0xbfdc59ff4195e8cd	-0.4429929867252554
17	0x3fa2056f16ab54d1	0.035197707669490826
18	0xbfba5ba489085e3e	-0.10296085687183962
19	0xbfce0e85a28b9332	-0.2348181766202742
20	0x3fce5528eb39cc6e	0.2369738720477445
21	0x3f6decf72f79f245	0.0036530330506237296
22	0x3fc907db73d2c87a	0.1955522838157469
23	0xbfbbdf59c89b8b91	-0.10887681148191876
24	0x3fdfc1e763c26283	0.49620995275612517
25	0xbfdc9c9b19d55496	-0.44705846331391663
26	0xbfdd2c4584529267	-0.4558271209919326
27	0xbfe158036a326c49	-0.541993815818736
28	0xbfe1fac468cb0ffe	-0.5618612334005773
29	0x3fd7c074f9e90eac	0.3711216393023544
30	0x3fe51641ece42824	0.6589669825345976
31	0xbfcad355aaecd26d	-0.20957442136718232
32	0x3fd32a76f4475917	0.29946683745710473
33	0x3fd1c96bbbe359f8	0.27791875217863504
34	0xbfdacd7a45338a91	-0.4187913585466641
35	0x3fdc19453a0fdd7c	0.4390423838626345
36	0x3fe39f028f6b4a4a	0.6131604005007116
37	0xbfd754892fb4dd70	-0.3645346609004809
38	0x3fe42dab8d89701a	0.6305749668495111
39	0xbfd29c380b35b160	-0.29078484625531154
40	0x3fd8fcb9024d7d7a	0.39042496895668644
41	0x3fcc5d8e3c819a40	0.2216050906601641
42	0xbfe4c11e85d5ab06	-0.6485741247136907
43	0x3fe1cef94cd87532	0.5565153599633617
44	0x3fc83350f8b64788	0.18906604904310265
45	0xbfe3efbed66abddb	-0.623015803130268
46	0x3f90a389b33f4676	0.01624884754693886
47	0xbfe558614ef727fd	-0.6670385877889654
48	0xbf659b67137a0c76	-0.002637578316183882
49	0x3fe05117115590a4	0.5098986948546735

fc_out.weight f8 [1, 50]
0	0xbfbf62c38b7086fa	-0.12260076669965861
1	0x3fc071f929f70b7a	0.12847818898270785
2	0x3fb7e0d98c469674	0.09327468561840552
3	0xbfa0268837dd3809	-0.03154397661147363
4	0x3fc046bb90066fd6	0.12715858967282995
5	0x3fc3f0fc383e45f7	0.15579178568127336
6	0xbfc0820cf84c979b	-0.12896883129104428
7	0x3fa1cd43da10a9b3	0.03476917302062379
8	0xbfafb460f386d15e	-0.06192305538880548
9	0xbfbb686945ddfd9d	-0.10706193881741517
10	0xbf90aa0c623b16e1	-0.016273683066876713
11	0x3f773ddd5c1a1e5e	0.005674233137717614
12	0xbfa8a29894399c0e	-0.04811550912273087
13	0x3fbc9c78e19a859e	0.11176257617855476
14	0x3fb5d149018436e5	0.08522468840621007
15	0xbfa27827ecc0a54c	-0.03607296719594419
16	0xbfada4e5428fddd7	-0.05789867818378596
17	0xbf25ae45914b05b6	-0.0001654109879805473
18	0x3f8736241e250952	0.01133373467439883
19	0xbfa5736798c4a369	-0.041896092794849356
20	0x3fb6c3dbf9661a7e	0.08892607535208616
21	0xbfb6eb15eb51b952	-0.0895246219167565
22	0xbfc1b2ac66a71344	-0.13826518070541216
23	0x3fc60fb04873145b	0.17235377824377704
24	0xbf87302f857dd5f3	-0.011322375546778373
25	0xbef227391aa86f85	-1.7312254991449643e-05
26	0xbfb105a9f6f28919	-0.06649267462720267
27	0xbf2b8c9f4b5521fd	-0.00021018452177147532
28	0xbfc7bff4e2428f71	-0.18554554984904884
29	0xbfac6bbc86470c3f	-0.05550946368341458
30	0x3f42fcce3907b31b	0.0005794531771790874
31	0x3fa3afcddaa8c49f	0.03845065397434521
32	0x3fb7bc4e5b2542d2	0.09271707272751975
33	0x3fa7808804997c34	0.04590249115130299
34	0xbfb93894ba00f377	-0.09851960698229144
35	0xbfc435e78bd12feb	-0.15789503409393943
36	0x3fb9436e8a2e27f1	0.09868517755072027
37	0xbfae8a06ab32cb26	-0.05964680518936509
38	0xbfbcf94dbfafc90d	-0.11317907266473899
39	0x3fb0b859bc80ff1d	0.06531296589036768
40	0x3fa2ba7dedbf2e23	0.036579070350480934
41	0xbfc1150856dde098	-0.1334543632654046
42	0xbfc08c66fe956121	-0.12928473883472072
43	0x3fb662b4028302e0	0.08744359074899988
44	0xbf2d04f24f4ced8e	-0.0002213998592653751
45	0xbfc507821d673953	-0.16429163394645716
46	0x3fb015bcc9e9597d	0.06283168725471984
47	0x3f9542ba4ac8138c	0.02076235848837231
48	0x3fc052f7ebd8ef7a	0.12753199592577485
49	0x3fb2092cedeb658c	0.07045250710088719

fc_out.bias f8 [1]
0	0xbfb5d700eb1ba490	-0.08531194438877976

fc_hidden_list.0.weight f8 [50, 50]
0	0x3fa354f5274df848	0.03775755028526412
1	0x3fb7093b82397113	0.08998462609583084
2	0xbf96f4c568ebe1c3	-0.022418102768797753
3	0xbfae0c8bf69aa29f	-0.058689473965676024
4	0xbfacc50cbe3cb730	-0.0561908704970463
5	0x3fb6fbbfd45cfef8	0.0897788899865154
6	0xbf93eed1c38dbd6b	-0.019465711174630067
7	0x3f831627ad3321fa	0.009319601033340941
8	0xbf7083fe75fa75b2	-0.004032129275996098
9	0x3fbd171928c77f9f	0.11363370175922548
10	0x3faeee6da20656af	0.06041281321374236
11	0x3f7e7b1b71040923	0.0074416229183518505
12	0x3fa217e75de2809f	0.035338621340316616
13	0x3fc61e44a0b30c59	0.17279870840693226
14	0x3fb7515d08880b9e	0.09108525713240431
15	0xbfc2ff3ccdda5007	-0.14841423083692026
16	0xbfbd72e3db77c23e	-0.11503433330631993
17	0x3fa13ebfd68e8c53	0.03368186468221581
18	0xbfbf759def1658f1	-0.12288844191639094
19	0x3fb436e265ce337b	0.07896246896252805
20	0x3fb893820720b64b	0.09600079225557427
21	0xbfb16c5242e58bb1	-0.06805910237521463
22	0xbf9ee3304e81862b	-0.0301635311046821
23	0x3fbb7046615ed4fd	0.1071819293709559
24	0xbf9c6dd9279c1ae3	-0.02776278785952514
25	0x3fa228f254a04ce2	0.035468647795051
26	0x3fb4ae3e4ab99a57	0.08078374218312355
27	0xbf97f1d7262236d0	-0.023383485510342805
28	0x3fc0669fb9cf5fa4	0.1281318337703371
29	0xbfa5b2b10d4de4bb	-0.04237893378644616
30	0x3fb7218311a17cd7	0.09035510235252119
31	0xbfae3721178bb645	-0.0590143529169436
32	0xbfb1d3a604a2a7c2	-0.06963574994247693
33	0x3f8c7858162a1cfd	0.01390141313210202
34	0xbfb79d0292c845e8	-0.09223953326752332
35	0x3fc0312ff26c3760	0.12650107705160973
36	0xbfb8969c5c9238a3	-0.09604813823736662
37	0x3fb4fe8b24bc0225	0.08200902602039457
38	0xbf9b93979d10087b	-0.02693020721563542
39	0xbfc183318947bbd6	-0.13681620791564225
40	0x3fb59fd49c91e692	0.08447007009990617
41	0x3fbd84d65985f8b5	0.1153081863940056
42	0xbfbd411a2ba6d346	-0.11427463117327105
43	0x3fbcca77854b423f	0.11246439937827633
44	0xbfa45c65ffb11a36	-0.039767444097880064
45	0x3fa3e4e39a490900	0.03885566004147911
46	0x3fb096cc13718d57	0.06480098223396645
47	0xbfc3d9eb9b280de3	-0.1550879008865272
48	0xbfaa5f784a0aa35e	-0.05150962737872676
49	0xbfc18f352964d868	-0.13718285103977057
50	0xbfc3d17a86b38053	-0.1548302800865736
51	0x3fc16477f0953dc9	0.13587855574813393
52	0x3fc13d2617f7e06e	0.1346786133797226
53	0xbfb62e1faba1e606	-0.08664129200214896
54	0x3fb33e3b374bcbb9	0.07516832447053802
55	0xbf73e05c5b270519	-0.0048526389750247695
56	0xbfbcf3f5f875cff3	-0.11309754672930676
57	0xbfa77251c442e2ab	-0.04579406281249495
58	0x3fa83888e9a73be6	0.04730632641041392
59	0x3f8dd805270ef86f	0.014572181944341815
60	0xbfa62ed8434d7100	-0.04332614728511608
61	0xbfc5135fb55026a0	-0.16465374329736893
62	0x3fa69e7eb15a4e3d	0.044177970075136554
63	0xbfa63bb655d66596	-0.04342431829281705
64	0x3fc451e26a8313ed	0.15874891472608912
65	0xbf9170fa5ce31a0b	-0.01703253929079022
66	0x3fa9c2b1166aa006	0.05031350515974968
67	0x3fa79531e956e417	0.046060142263236674
68	0xbf8f07a956061d2f	-0.015151331842175068
69	0xbfbd6e7ac82d12da	-0.11496703517066056
70	0x3fc1f7626b9c327c	0.14036207441712978
71	0x3f90e1aa2bcbb7f2	0.01648584263141823
72	0xbfb46f9003907b18	-0.07982730948468164
73	0x3f82e5c2236dcd4f	0.009227291780666972
74	0x3fa33fed8ec326dc	0.037597106625595095
75	0xbfb86f048dcc875c	-0.09544399701965517
76	0xbf984dfab2034e02	-0.023734967341466635
77	0xbfb114b4b3675ce2	-0.06672219638800272
78	0x3fbe2396868b7546	0.11773052964004646
79	0x3f7773a367fa5b19	0.005725515656783719
80	0x3fb0e985e3d20822	0.06606327831289652
81	0xbfb88b6b8abc9a22	-0.09587738167883988
82	0xbf3d6941a5bcee61	-0.00044877865524359765
83	0x3fae8e77dfb83436	0.05968069654418466
84	0x3f9c35772fcfd532	0.027547704976275962
85	0xbfaadd184b8cc238	-0.05246807024230232
86	0xbfacee8192547510	-0.05650715743306922
87	0xbfa990f06fc2143c	-0.0499339233802307
88	0xbf9bf6e070e30c8d	-0.027308947458334166
89	0x3f6e7965ae7eabc2	0.0037199960679194797
90	0xbfc02fff23d156ea	-0.12646474121964185
91	0x3fa76a1d871d7a15	0.045731470817134724
92	0x3f814a78a45480c5	0.00844282390113483
93	0x3fb6d4220fc68b2d	0.08917439351220642
94	0x3fc184493328299f	0.13684954641241817
95	0xbfa85547afac3737	-0.04752563495104172
96	0xbfbf5ebb2665e8e7	-0.12253923118069886
97	0xbfb381256908e7e7	-0.07618936361623661
98	0x3fb71250ba9ee30d	0.09012322002571356
99	0x3faa8f2dab43a822	0.051873614460262965
100	0x3fc044a2b10589c8	0.12709458964952902
101	0xbf7aab25eba3c172	-0.006510875822855021
102	0x3fc293e6a79cd49a	0.14513858017167963
103	0x3fb2b20acf08bfff	0.07302920870347406
104	0xbfa60a5251bd0f35	-0.04304749725136362
105	0xbfb2241506784c6d	-0.07086306961018503
106	0xbf9dd8335e081757	-0.02914505254195573
107	0xbfa131c3366715e2	-0.03358278311820208
108	0x3f7e4813a6a8988a	0.0073929565064984135
109	0x3f9949d696163656	0.024695732985085726
110	0xbf9952b58120846e	-0.024729572302139173
111	0x3f87d110adb16396	0.011629228878676828
112	0x3fafc3967b1176c0	0.062039091608978136
113	0xbf80e9de9163ad07	-0.008258570491725082
114	0x3fbbb45a0e63fcfc	0.10822069979984755
115	0x3fa333f7ad1c976a	0.03750585544757608
116	0xbfbe6e764eb17031	-0.11887301846712785
117	0xbfc07d429d6909bb	-0.12882263837862049
118	0xbfc2bc61435abf10	-0.1463738993529593
119	0xbf9656e390c037b0	-0.02181582995404313
120	0xbfb847d7183d711a	-0.09484619466588065
121	0x3fb0549bfd188f2f	0.0637910359296796
122	0xbfc141086d478198	-0.1347971471395908
123	0xbfbc2eb118cc0a99	-0.11008746009251026
124	0xbfbab1983f6f2ce9	-0.10427238033951237
125	0x3faf5d597a9169d9	0.06125907536689441
126	0x3f9d60eed062249d	0.028690082043372745
127	0x3fbc8831525e7c26	0.11145313511814034
128	0xbfa7148b75d24a46	-0.04507861912965842
129	0x3fa132e7a77c4dbf	0.03359149856091958
130	0x3fbcfab0bcaf1d73	0.11320023161453267
131	0x3fbd70e074b3eebc	0.11500361298743206
132	0x3fc141adea5bf810	0.13481687491724914
133	0x3fc1dd8b2519378d	0.13957347213220964
134	0x3fa7f0a69403963d	0.04675789410411511
135	0x3fbd6dbed843d976	0.11495583324344757
136	0x3fbbcb253a410284	0.10856850311484761
137	0xbfbfb57610e5493e	-0.12386262810222079
138	0x3fb22927b3245bf9	0.07094047664246252
139	0xbfc45aeba848a17a	-0.1590246745775053
140	0x3fb23d79af64b8ea	0.07125053913179938
141	0x3fc125b7b4a7d79c	0.13396354981494774
142	0xbfb1d9667821988f	-0.06972351487056215
143	0x3fc0bad8e08ee5e9	0.13070212330585143
144	0x3f956496a5760f32	0.020891527031849218
145	0x3fad3e55b0cbd9f9	0.057116201240138005
146	0xbfa51d7492a7c87f	-0.04124035158373917
147	0x3fc10ea338632919	0.13325920346535083
148	0x3fa3f999e35e2c99	0.039013680462710094
149	0x3fbaf869be612e66	0.10535298250140954
150	0xbfb9f826953ac031	-0.10144272940920086
151	0x3fa25d16a9a52355	0.03586645909178424
152	0xbfc13ec8757b9a45	-0.13472848640886262
153	0x3fb8a6501879030c	0.09628773305395216
154	0x3f817ce45e779a43	0.008538993962202151
155	0xbfbe26982ac61168	-0.11777640384940968
156	0x3fa48f4991b89aee	0.04015569595167344
157	0x3f6ba93210ce511b	0.003376577171772988
158	0x3f915d7431eed406	0.016958060786880245
159	0x3fb90af1c0f45dd5	0.09782324753574952
160	0x3fb3dfe71cf303c9	0.0776352353741593
161	0xbfb3d40e21365eea	-0.07745445547913801
162	0x3fc20dbdffc0b616	0.14104437816551813
163	0xbfaef64602e736f2	-0.06047266755522952
164	0x3fbbac5b7f16c08b	0.10809871533160924
165	0x3f9d782b22aaf316	0.028778718939736235
166	0x3fbfae849e8fa04e	0.12375668402785431
167	0xbfb82442ed7b75e0	-0.09430330560595435
168	0x3fc34c25fad3f719	0.1507613634820977
169	0x3f98a6f40cd1ab99	0.024074376375590487
170	0x3fbf995849ad60e7	0.12343360708962657
171	0x3fc1cb1c28d298cf	0.13901092522900746
172	0x3fbfa8ecf855cc7a	0.12367135107870011
173	0xbfbb2ca82d37b6f4	-0.10615016082712342
174	0x3fa5ccbeb7f60047	0.0425777053415009
175	0xbfb39b5c9afb60eb	-0.07658938201655345
176	0x3fa8eb4e16bdc6bc	0.04867023494342734
177	0x3fcce35307aa355a	0.225687388174644
178	0x3fbfae6533fcb4a4	0.12375481147019457
179	0xbfaa4abdc296a47b	-0.05135148048732049
180	0x3fae64eed22e4ac3	0.05936380687412204
181	0xbfbca5015188aca4	-0.11189277878354403
182	0x3f9701463a867801	0.022465798685168185
183	0x3fab9b95d7c68cbb	0.05392139681796367
184	0x3fbce3027c856a5b	0.11283889331881751
185	0xbfbb2babb8efe0b9	-0.10613511338295013
186	0xbfc119db0248ef4d	-0.13360154735152677
187	0x3fc7da0f5f60d3ad	0.18634216458454259
188	0x3f8e6fd879995b39	0.014861766062649205
189	0x3fc1c8128158c78a	0.13891822162400685
190	0x3fb1e0a1609eeebc	0.06983383759409895
191	0x3fadd77c51980edf	0.058284649810983906
192	0x3fbdee9b8e7f65c8	0.11692211369463401
193	0x3f9d7dd5c4048e8f	0.028800335015275066
194	0xbfbef0aa08e56a5c	-0.12085974423590912
195	0x3f72a9bae7efe37e	0.0045563984885966784
196	0xbfc8c83fd500c17d	-0.1936111249974707
197	0xbfb8d1a4dce625e0	-0.09694891350786561
198	0x3fc6a7eef5c9401c	0.17699992181087587
199	0xbfb027e37c752339	-0.06310865200533734
200	0x3fb357c06f19e359	0.07555773460798089
201	0x3fa652db9740df2e	0.04360090466837928
202	0x3fca8789aad6d37b	0.2072612842727287
203	0x3f8f3b994b01cd6b	0.015250394441159462
204	0x3fca3cb083c61dc9	0.2049770968844611
205	0xbfc0e07f911d94cd	-0.1318511446544676
206	0xbfc3927581aed7de	-0.1529070742814715
207	0xbfc11d5d26689c7f	-0.133708614114969
208	0x3fa1977d2305f08e	0.034358892941754524
209	0xbfb360d61402b940	-0.07569635380307194
210	0xbfc10c71925038fa	-0.13319224971969118
211	0xbfb79f3176667c6b	-0.09227284565575793
212	0x3fca3c788f7df4f6	0.2049704266209244
213	0xbf94c6ee81fe873a	-0.020290114101619162
214	0x3fc6931a4fa2dea5	0.17636422050940329
215	0xbfbc445b63796079	-0.11041804483954988
216	0x3fd1d81c5846f36d	0.2788153516847192
217	0xbf934bcde2d3fae5	-0.018843857736096665
218	0x3fbc1fb75ed2ba3b	0.10985895218866741
219	0xbfc1e8a28f66d74c	-0.139911956806538
220	0xbfa6a1a285505ebe	-0.044201926015543944
221	0x3fc82c076e988b22	0.18884365940274345
222	0xbfbc52d816a2de2d	-0.11063910057679811
223	0x3fc0e5cf00e6943b	0.13201320213298282
224	0x3fbad3133c804372	0.10478325106693179
225	0x3faf0fb91ae776cd	0.06066683247966651
226	0x3fa0b9e7d1f83553	0.032668346768427135
227	0x3fc0aca2f7671cba	0.13026845054830521
228	0x3f841ab2513642bc	0.00981654463137837
229	0x3fa291164dea5947	0.03626317692867303
230	0xbfd604935988a734	-0.3440292715409783
231	0xbf62bf29edbe8087	-0.002288419620484264
232	0xbfa38f0d0f5f8b3f	-0.038200767637837967
233	0xbf75bc2c92f7bb93	-0.005306409947919105
234	0x3fc1bd855d8afb7d	0.13859622066044244
235	0xbfa690f7d356ad81	-0.04407476858917914
236	0xbfd1a4614006f662	-0.2756579518571468
237	0x3fcd38a72b002761	0.22829141235007014
238	0xbfaeee35285e9386	-0.060411130121145226
239	0xbfbfcc8f2bba6933	-0.12421507661421032
240	0xbfb67bbf9f7b734c	-0.0878257526741894
241	0xbfa38a4f7fcfcb2f	-0.03816460070802063
242	0x3fd47bb8e6ca029a	0.32005140817640554
243	0x3fa8fd17d5de29ed	0.0488059471673131
244	0x3fb6b8292dcabd4a	0.08874757163970518
245	0x3fcc3c41871dfdb6	0.220588866210148
246	0xbfc33e0e0b6e1684	-0.1503312640963267
247	0x3fb45dcf965b6fe8	0.07955644055203914
248	0xbf9fedea3ccf89e8	-0.031181011163320976
249	0xbfc05fba5c826d19	-0.12792138592781369
250	0x3fc139cd2dabe404	0.13457646112490818
251	0x3f5d1138b58bc15b	0.0017741254616191113
252	0xbfc4594280441aab	-0.1589739919947609
253	0x3fb171b45cd7ebdb	0.06814124361692057
254	0xbfb4851844a676fe	-0.08015586544066974
255	0x3fab9ee8da3bd590	0.05394675888048106

fc_hidden_list.0.bias f8 [50]
0	0x3fa8433c3b1368b6	0.0473879644502672
1	0xbfb271731d14b873	-0.07204360446914553
2	0xbfab0414ee6db40f	-0.05276551638130666
3	0xbfb79a6aa2ef9a59	-0.09219995954445305
4	0xbfc1fead1d477b17	-0.14058460168504247
5	0xbfab0ce24fcdf04f	-0.052832672349695124
6	0xbfc21c335933db59	-0.14148561339944868
7	0x3fa8b02f7c9eb192	0.04821918865431764
8	0x3fb63805e7440530	0.08679234405646663
9	0xbf8124ede2da7f30	-0.008371218190688617
10	0x3fb1db07490c2d1c	0.06974835904491211
11	0xbfa26db57aaf364b	-0.035993262506604916
12	0x3fbf831436aabdee	0.12309385618822663
13	0x3fc0fa86f7d13166	0.13264548397490755
14	0xbfc1fb1256db3e0d	-0.1404745983222572
15	0x3fbc22ea4991da58	0.10990776344429187
16	0xbfc47de1205ebb53	-0.16009153442925114
17	0x3faa77269efece85	0.05169029894696301
18	0x3f8e43c50275195d	0.014777697694296316
19	0xbfaaf4df9f87813d	-0.05264948675517409
20	0x3fb7b1edffd860af	0.09255874153348274
21	0x3fbd50979a7de434	0.11451098939677778
22	0xbfbbd75600c2ce9f	-0.10875451582506422
23	0xbfb5cb0772beca66	-0.08512922812841736
24	0x3fb2e3a6df89ef42	0.07378619153490454
25	0xbfa9735e2246030d	-0.04970831077935687
26	0x3f85b0fb2ec8f217	0.010591471066725906
27	0x3fa8c7aea431e0f0	0.04839845423060918
28	0x3f9913bd0141ec86	0.024489358140709537
29	0xbfc3d64a0fb9de92	-0.15497709052919056
30	0xbfa790ec4941ac25	-0.04602754968876636
31	0xbfa3e771022d3f5a	-0.03887513305255537
32	0x3fc0dc1dd3d0b9a8	0.13171742289109756
33	0xbfad839bfc50f8ff	-0.05764472441704704
34	0x3fc68478a5d4852c	0.1759177026479305
35	0xbf9ac98d9fee8a6c	-0.02615948952337492
36	0x3fc43ef28e718b56	0.15817100482225993
37	0x3fbb96996c93979e	0.10776671314996952
38	0x3fbcfc052b2a27c3	0.1132205229170316
39	0xbf9d18d8569ae5a1	-0.028415088926271207
40	0xbfb515954178ae47	-0.08236058090613439
41	0x3fa113cb3dd2fbc0	0.033354140564817225
42	0x3fbebdf0e2d9d7fd	0.12008576906541175
43	0xbf7e3d89fb11e37f	-0.007382906901619245
44	0xbfb1465f8fae5b98	-0.06748006112898819
45	0xbf98e15a7cde8811	-0.024297155257620832
46	0xbfa1d2261bf73bcb	-0.03480643359545573
47	0xbfc8f27c6f237cc6	-0.19490008761110839
48	0x3fba19008f06d45e	0.10194400302755599
49	0xbfc2dbc6d0d71a41	-0.14733205029752308

fc_hidden_list.1.weight f8 [50, 50]
0	0xbfb94dcae846d93d	-0.09884327097720287
1	0x3fb311a902cf1f0e	0.07448822325306656
2	0xbf6d16a63e4292b3	-0.003550839132076733
3	0xbfa9cef893929c9b	-0.05040718842911326
4	0xbf570636f8502a9a	-0.001405290300001616
5	0x3fc0b7b8c909798c	0.13060674492130564
6	0xbfb6986fa3da264f	-0.08826349020287093
7	0xbfa2a9c91312e8b6	-0.03645161016307112
8	0xbfc5c9e549d28d5c	-0.1702238665066983
9	0xbf9ec2ec4b33d9b8	-0.030040447320936997
10	0xbfc3455ffc12d2fb	-0.15055465515401764
11	0xbf98c29f6dd2728f	-0.02417992694664633
12	0xbfc1c15be5272210	-0.13871334733109153
13	0xbfb0ddbd8db1d85b	-0.06588349065154502
14	0x3fb27e8f454d7dd7	0.07224364702187046
15	0xbfa9f4d53bfcdb68	-0.05069605214378364
16	0x3fc0c6c885bd459b	0.13106638460389494
17	0xbfb3e5b81e2ec3b4	-0.07772398697740251
18	0xbfbbd748b2053d6b	-0.10875372263148157
19	0xbfb3a09864b6c4fb	-0.07666923960529808
20	0xbfc001272c4ab0d4	-0.12503518736537578
21	0xbfa16e03f1714980	-0.034042475913014236
22	0x3f89c4259b9a21e9	0.012581151782129889
23	0xbfa798043e4a9aaf	-0.04608166942971558
24	0xbfb9b14ff66b931e	-0.10036182180517669
25	0xbfc2ad2f1d5dea62	-0.14591015752724262
26	0xbfb0ccba5c9b0997	-0.06562390099410319
27	0xbfb3e47b8167b6cf	-0.07770511540703783
28	0xbfbf610a4904798e	-0.12257446558621707
29	0xbfb5fa2af287e05d	-0.08584850712930021
30	0xbfae21681f753095	-0.058848623123226286
31	0x3fa85251aff8a753	0.047503044825431794
32	0xbfc1f194d9bef3ce	-0.14018498069881818
33	0x3fb726c8941d8fee	0.09043553939915203
34	0xbfc04ad13f37d42b	-0.12728324496097917
35	0xbfbd5ec1ca5b367c	-0.11472712698306425
36	0x3fc14998fdb3dba1	0.13505852115460207
37	0x3fa6912dc88fd3b0	0.044076376660007965
38	0x3fa059f4d83c4547	0.031936313053061265
39	0xbf89fd30954a0180	-0.012689952426854445
40	0x3fb67e2788830bbe	0.0878624637871743
41	0x3fa5d1372a629119	0.042611812519029076
42	0xbfaad761fd39564f	-0.05242449012864069
43	0xbfb01f72754a7d19	-0.06297984469937425
44	0x3fbb1fc5fa65c1d1	0.1059535728761667
45	0xbfa6d2125f02059c	-0.04457147035374051
46	0x3fc3c69d8a06d633	0.15449876060090303
47	0xbf87e72a28133101	-0.011671380374899789
48	0x3f9df55efe80b3b3	0.029256328853239654
49	0x3fab23a8e2d835b8	0.05300643700693847
50	0xbfb493bf4ab332be	-0.08037944387178705
51	0xbfa589ea53bfbe6f	-0.042067835543886704
52	0xbf660d860729ec8a	-0.002691995404629892
53	0x3fc3dc4a7659a862	0.15516024378604515
54	0x3fc249cbbc715361	0.14287707043936407
55	0xbfcc809d292b6408	-0.22267498502949956
56	0x3fc0e1091035a4b4	0.13186753550988828
57	0x3fa97cc48d30bfb2	0.04978002761379176
58	0xbfb871429d74cc5e	-0.09547821373125617
59	0x3f984411a26a9614	0.02369716218767877
60	0xbfbdd2481450a082	-0.11648989196749152
61	0x3fc80c43a762f12a	0.18787427590530942
62	0x3fcc9a75e2d7828c	0.22346376014958869
63	0xbfc2709420514110	-0.14406062677381515
64	0xbf73ce71ce493e8f	-0.004835552743841411
65	0x3fa5de83b679872b	0.0427132759330234
66	0x3facf09ca0c5fe5d	0.05652322256628104
67	0xbfc7add5cd673973	-0.18499252824262732
68	0x3fc437d95492038f	0.1579543745938534
69	0xbfb4db4dd72d7149	-0.08147131446225332
70	0x3fb327d79c8e5355	0.07482669422308892
71	0x3fccada375a29465	0.22404902690792308
72	0x3fbc8ac0ac142792	0.11149219704762306
73	0xbfa01e3a563f407a	-0.03148062041111728
74	0xbfd117b57e27e971	-0.26707207984841036
75	0xbfbf21dbd51f6689	-0.12161039307775402
76	0xbf8d5d49ded9a136	-0.014338090051027135
77	0x3fd290a9153ceab9	0.29007937501925657
78	0x3fb88adff69c10b2	0.09586906214468874
79	0x3fd1d5a2dc2fc6bb	0.27866431715584
80	0xbfaea48e0c767860	-0.05984920408376193
81	0x3fb34ba14f996ed6	0.07537277406066364
82	0x3fbe62e03f5064ef	0.1186962275100034
83	0x3f9c1a6469a0c3b1	0.027444428393383628
84	0x3fb1181dba172789	0.06677423279975704
85	0xbfc1ca6ee5ff739b	-0.1389902709041991
86	0x3fba6850822ab83d	0.10315421274091903
87	0x3fafa05196d6779a	0.061770009672940066
88	0x3f722bb2f3aa6755	0.004436205893080321
89	0xbfc1cf9b6753b21f	-0.1391481642271097
90	0xbfb854477fbc90a0	-0.09503599995201961
91	0xbfc10fd6f52f4d2b	-0.13329588863289507
92	0x3fd2f2fb99b3c9a3	0.29608049402227204
93	0xbfbbcdd1666e9aae	-0.10860928297789016
94	0xbf8fdaad1450a175	-0.01555381029363965
95	0x3fd13bb55d0a4949	0.26926931463198805
96	0xbfd15bdc6a86f1fb	-0.27123175051727316
97	0x3fa52a2473c4d418	0.0413371459311877
98	0x3fcaaa9af82c55e5	0.20833146207648592
99	0x3fc4586f53cdd536	0.15894881813043477
100	0xbfc02a17403bcca5	-0.12628451000600652
101	0x3faa570fd5f7f690	0.05144547926827869
102	0x3fbf3ff1727f93ab	0.1220694450890522
103	0x3faa2851b17a4ce5	0.051088860430491136
104	0xbfbe85378e921cfd	-0.11922023039561576
105	0xbfb023e1b839cd96	-0.06304751155567198
106	0x3f96135f8a9b0a08	0.021558277926269326
107	0x3f9c84d19e8a8675	0.027850413610059428
108	0xbfa8c9b4640bb197	-0.0484138843656609
109	0x3fa95a0fde87081e	0.04951524344825507
110	0xbf94beca61ea80de	-0.020259058214492913
111	0xbfbb924a98748fbc	-0.10770097944310825
112	0xbfb35effe3e12b83	-0.07566832841363973
113	0x3f53d96e71b1aaf5	0.0012115076595146633
114	0x3fbde6e555b420b5	0.11680444090245852
115	0xbfae8e0cbf08ebcf	-0.05967750389068948
116	0x3fa00283617e8ea5	0.03126917424313306
117	0x3f9fedf6bc33adac	0.031181197392397372
118	0xbf6d743e708c94f6	-0.003595468475753645
119	0xbf9eb8a1be8a35f4	-0.03000118947470827
120	0x3fc345e6c4c76240	0.150570722659511
121	0x3fa17c04d9de30d5	0.03414931449433004
122	0x3fb5355c69380772	0.08284547394580757
123	0xbfbf401513bc95d2	-0.12207156879283979
124	0x3fbf681fb44fe861	0.12268255378867955
125	0x3fbec59586d800fb	0.12020239393314462
126	0xbfbc58b2d6e2627d	-0.11072843309592346
127	0x3fb222e24a7c9686	0.07084478682062398
128	0x3f82f3a771cc18c5	0.00925379577666908
129	0x3f894916abad7ad3	0.01234643660944582
130	0xbf9b5ff21cda7481	-0.02673319150072873
131	0x3fadfe50f1e1c54f	0.05858090355548972
132	0x3fbbbd9def331a1c	0.10836207475504306
133	0x3fa99cb0aff2eb67	0.05002357623876357
134	0x3fa7d120e7d2303a	0.04651739911886961
135	0xbfb2a9c8be859c01	-0.0729032006398569
136	0x3f94c7bbf73b810a	0.020293175663824527
137	0xbfbe3e26b2e47ac9	-0.11813585155003205
138	0x3fb0eee1e37c4518	0.06614505580752839
139	0xbfb7c546e26dada8	-0.09285395648992412
140	0xbf933d959014bacf	-0.018789612692837573
141	0x3f9bf69ddeccdbf8	0.027307955478331508
142	0x3fc7cb3d57e904d0	0.18588988106242832
143	0x3fba7d55f139c24b	0.103474971192335
144	0x3fb31a8dc754b220	0.0746239291808668
145	0x3fb62355501e59f1	0.08647664266604928
146	0xbfc5d2619ace9e7a	-0.17048282679501253
147	0x3fb2a2a8690783eb	0.07279446186249998
148	0xbfbf9555f60ef0d2	-0.12337243325504524
149	0xbfc1190183b38be6	-0.13357561999063633
150	0xbf7081923843d245	-0.004029818697962433
151	0xbfb814eec8d8463c	-0.09406940844953565
152	0x3fa25af048f1628b	0.03585005655685788
153	0xbfc2ecab5d01f4ec	-0.14784757653607217
154	0xbfc6c2201aacb18a	-0.17779923727483676
155	0x3fc0c18f35fb4141	0.130906964643609
156	0x3fa14bdc3f5ad62c	0.033781893476242025
157	0x3fb7245051de4688	0.09039785383927257
158	0xbfadc19a77d0fe1b	-0.05811770165064108
159	0x3fb2b97ab0bff9b8	0.07314268889601905
160	0xbfb5499363d5df9a	-0.08315392672909497
161	0xbfbacafa112a4f72	-0.10465968054842081
162	0x3fa758cfb4bc39e6	0.04559945183983753
163	0xbfa0cccecfcd4153	-0.03281255995409773
164	0xbfb7790fdebd8c40	-0.09169100940702979
165	0x3fa8318e679e05f1	0.047253084324449086
166	0x3facc090ad2b4cd0	0.05615665544396509
167	0xbfb53a36f812d7c6	-0.08291953617557998
168	0xbfbff63c597caf04	-0.12485100922338793
169	0x3fb020230143e176	0.06299036770713493
170	0xbfa73ce1dadee8a9	-0.04538636967431959
171	0xbfc5b7d462959779	-0.16967253507317162
172	0xbf82a981f3b29396	-0.009112372636374915
173	0xbfbeb49580751e09	-0.11994299303216151
174	0xbfb9c2cb2a43a7aa	-0.10062856466143325
175	0xbfb1472dbca58d77	-0.06749235015518261
176	0x3f95db4b853bb2ee	0.021344356543454283
177	0xbfa994e13199dae0	-0.049963986687478146
178	0x3facc1cc9bb5d3f4	0.056166070945359
179	0x3fa5edcd1b2c4083	0.042829904143332896
180	0x3fc2a0cc460e6bdb	0.14553216381759068
181	0xbfc4fbc0d9480eb1	-0.16393290147253972
182	0x3f76dcabea1fdf16	0.0055815425312102564
183	0xbf841c7c51090072	-0.009819956992146415
184	0xbfb6bed398539a8f	-0.0888492819682176
185	0x3fb98e26ac5352b1	0.09982530314602901
186	0xbfadf81196a236f1	-0.05853323901929553
187	0x3fa48d477e4e2c36	0.040140375297675154
188	0x3f763d0289343ec1	0.005429277330463556
189	0xbf87a32fe137735f	-0.011541723309102357
190	0xbfbadbb3f4603e27	-0.10491490093431165
191	0xbf7ff03a41ffbdc1	-0.007797458238186506
192	0x3f921c53051b965c	0.01768617361712753
193	0x3fb6cb758596fce6	0.08904203902692451
194	0x3fbb167b9c02f9bb	0.105811811054969
195	0x3f9ac67c64d7d3ce	0.02614778867242134
196	0xbfa2cff9c338a8f8	-0.03674297817299704
197	0xbfc3c92cff1e6715	-0.15457689721079562
198	0x3fc1010d69fc2714	0.13284461665198732
199	0xbfabc979e356d9bf	-0.05427151584756328
200	0x3fbb2e1f94b686c6	0.10617253666580515
201	0x3fc435f9feb07a50	0.15789723335270134
202	0x3fc357a6678c1585	0.15111236625686444
203	0x3fc5315796ed62da	0.16556830281731189
204	0x3fcedc4119a3dd69	0.24109662773092147
205	0xbfbcffe85fe2da8e	-0.1132798418137588
206	0xbfc9294cf397da08	-0.19657289404104028
207	0xbfc26ec3c8293b67	-0.1440052726124705
208	0x3fac55e87b30871e	0.05534292701510267
209	0x3fb0d8deb8be2c66	0.0658091736824403
210	0x3fbcb9ef9a5da79e	0.11221215742776144
211	0x3fb8940cddc4bb09	0.096009067671485
212	0x3fa798af9a574be1	0.046086776342825216
213	0xbfb3c35981459977	-0.07719954877902589
214	0xbf93552f139c5137	-0.01887963826364222
215	0x3f97d3e9e4bd584c	0.023269323908003778
216	0x3fcf49c3b3ceca00	0.24443861274410494
217	0xbfb6ca01530fb046	-0.08901985433448187
218	0xbfc11d0137bb7669	-0.13369765492727773
219	0x3fb378167f93ba89	0.07605114569353523
220	0x3f761923f27a7ee6	0.005395069521597162
221	0x3f9e6e895773d166	0.029718538248702762
222	0xbfc3c75f8a7da038	-0.15452188741915207
223	0x3fc27b052d94ee2e	0.14437927938148348
224	0xbfad41e3bf2a1f11	-0.0571433230261943
225	0x3fc12daab364c831	0.13420614013154045
226	0xbfaad056403694cf	-0.05237073453762663
227	0x3fb82f55de16ff53	0.09447228119006228
228	0x3f9495ae9ae9c708	0.020102241711760477
229	0xbf899544efcdbd1c	-0.012491739814974916
230	0xbfd86b580242c9bd	-0.38155174465932956
231	0x3f822f4a821195a8	0.008879263014203456
232	0xbfc3af56879a267c	-0.15378839131544797
233	0x3fb3f7a42f3062f8	0.07799745704722827
234	0x3fb81bfe51cee014	0.09417714593189458
235	0xbfd05d22be202895	-0.25568455283122066
236	0xbfd221f59049e1a6	-0.28332270708735974
237	0x3fbdce86755820fb	0.11643257489061291
238	0xbfc628e49c67ebab	-0.17312295567520883
239	0x3fbd15243a0a34d4	0.11360384385098438
240	0x3fa4af3dcb4b8b6b	0.04039948565129844
241	0xbfb4d20151aa50ca	-0.08132942432195303
242	0x3fc05f6af5e00b2b	0.12791192060111575
243	0xbfafd75d24b49a81	-0.06218997071328137
244	0xbfa77bc6136de096	-0.045866193649034034
245	0xbfba3d2f6f3855d1	-0.10249611344655497
246	0xbfc39153dcffd8d5	-0.1528725461100239
247	0xbfa7d4157dfcb9d8	-0.04653994715623683
248	0xbf95757d66e7a8ab	-0.020956000715081895
249	0x3f8a5ae2ffdf8630	0.012868665155056552
250	0x3f8138d786e0c7d2	0.00840919857373371
251	0xbfc06324ee568d4a	-0.12802564275362222
252	0xbfc2ea996782e619	-0.14778440050376743
253	0xbfbdf8bdbc8f2b13	-0.11707673886773433
254	0xbf620f522a3dc15c	-0.002204571226620695
255	0xbfb4ec0fcc516b71	-0.08172701585992372

fc_hidden_list.1.bias f8 [50]
0	0x3faaf6a349925d60	0.05266294739811417
1	0xbfbfffa65ced9b17	-0.12499465721849067
2	0x3fc1f7ff10bdf282	0.14038074796180317
3	0xbf99761c3bb6f0ff	-0.024864617485705228
4	0x3fbc912f9130497a	0.11159035963672706
5	0x3fb8a38b243ac5f6	0.09624547609816844
6	0xbfa13764e4003381	-0.033625748474242385
7	0xbfb166077358a46c	-0.06796309057303213
8	0x3fc30d9dc0ba6e49	0.1488530341201673
9	0x3f83a11e4061d081	0.009584652271066087
10	0xbfc0574bc1adced6	-0.12766406018237458
11	0xbfaa4f7f7d8addee	-0.051387771677976576
12	0xbfb3d69688f3faa4	-0.07749310344295651
13	0x3fba1a56a77850aa	0.10196439350721911
14	0xbfc21c0e0ea7fd02	-0.1414811679423807
15	0x3fa757ba35528e4b	0.045591181763736964
16	0xbfb99490e96019f4	-0.09992318818704132
17	0xbfaf3c19d4688207	-0.06100540845750762
18	0xbfb34d69e198d4e4	-0.07539998777140827
19	0x3f9f78b3fc85c946	0.030733883178478714
20	0x3fac701f8a809a70	0.05554293218329043
21	0xbfc190677cb34d37	-0.1372193678749711
22	0xbfc0a57e6ad677bb	-0.13005047051131932
23	0x3fbd4f20629ebfb5	0.11448862464635463
24	0x3fae660cf0cbd091	0.05937233390241759
25	0x3fba349b19ed4c5c	0.1023652017877778
26	0x3fc282bfbf34bc12	0.14461514316778384
27	0x3fc0862012216a8b	0.12909317860870248
28	0xbfb9b45e8e2e945e	-0.10040846797217415
29	0xbfb1b411c0b88272	-0.06915389018150522
30	0x3fb916eb9be7a2d1	0.0980059867503187
31	0xbfb8d449a087843d	-0.09698925179647318
32	0x3fa74c58a621144e	0.04550435092873127
33	0xbfa47b6ccc3b6efa	-0.0400041579539145
34	0x3fc4593c02bd783f	0.15897321828646402
35	0xbfc2b9e1f12e25ef	-0.14629768635158721
36	0xbfb7fd6f32f27a77	-0.09371085161044755
37	0x3fb39ea0b91ca03a	0.07663921851474323
38	0x3f92f729be138462	0.018520977236111576
39	0x3fb35aff4746019c	0.07560725679468877
40	0x3fb757dc0be32f87	0.09118438043804931
41	0x3fb5223fff812773	0.08255386341002495
42	0x3fbc414c3263995b	0.11037136297418242
43	0xbf881aa3c0a68f20	-0.011769561115961447
44	0xbfa46ae95f808ea3	-0.03987817087934544
45	0x3fa570cb9cbc7a2c	0.04187618530544443
46	0xbfb52eb91090db1d	-0.08274418501319443
47	0xbfc6f7c1cc6e1fd1	-0.17943594438497582
48	0x3fb6ca9627fc4130	0.08902872539716067
49	0xbf9f61e9f72e945b	-0.030646949493206992

fc_hidden_list.2.weight f8 [50, 50]
0	0xbfb945749612131e	-0.09871605552514182
1	0x3facfc6938599d6e	0.056613243225735896
2	0x3fc325b33a8ab7bc	0.1495880161141353
3	0xbfa56529d870d483	-0.04178744093989286
4	0xbfc480c20c1a4ceb	-0.16017938223794856
5	0x3f9810e02332c00e	0.023501875065164816
6	0x3fc09d6610d5b873	0.1298034269524951
7	0xbfa3ade68f81c637	-0.03843613149446095
8	0x3fc54370266f0cff	0.16612054707193377
9	0xbfb2c5233080f39b	-0.07332057890103132
10	0xbf9715fc7a8b5864	-0.022544808368217054
11	0xbfa2cb62deffda8e	-0.036707963677987995
12	0x3fc2d9551f28de04	0.14725746175257381
13	0x3fc761b107f40dfa	0.18266880882593722
14	0x3fb0ca18a9e01d44	0.06558374545430917
15	0xbfc10d953f2772f0	-0.13322702010818643
16	0xbf88a5e5db622b7a	-0.012035175092270246
17	0x3fb84a7fc3f365ff	0.09488676580385656
18	0x3f72062a61c8d84f	0.004400411181043464
19	0x3f9b867b7d36e81c	0.02688019706486254
20	0xbfbd0b9b62bcfe5f	-0.11345835838891948
21	0xbfbcb9873fb63b8d	-0.11220593743767733
22	0x3fb29dffed7435c1	0.07272338435378513
23	0x3f8b4b43045a8416	0.013327144213066727
24	0x3faef751d2394086	0.06048064891058495
25	0x3fb247ec16994ce3	0.0714099459813045
26	0x3fb9c8c5a7cee4ce	0.10071978899840703
27	0xbfbe23f2deadce56	-0.11773603378770167
28	0xbfc4e4070a19b806	-0.16320884698092203
29	0x3fc18bd88a659ca6	0.1370802570120066
30	0x3f9aca12f476c5c4	0.026161476298232747
31	0x3fac6aa36452fbf0	0.05550108527813069
32	0x3fbc9e9fff7c3e28	0.11179542529520659
33	0x3fa9d8d007c7e106	0.05048227400760834
34	0x3fca4b6808a0daaa	0.20542622014337059
35	0xbf97cf50b1b4bab5	-0.023251782270728955
36	0xbfb37d923eab6cce	-0.07613481550235976
37	0x3fae6d01f06b90bb	0.059425411794820936
38	0x3fbe57da0ddd1189	0.11852801168885753
39	0xbfa4ac2132b9717c	-0.040375745241109734
40	0xbf9a40ab26dde64e	-0.025637315985909397
41	0x3fb304dda7dd1ae5	0.07429299686655673
42	0xbfc28d5fa1280b68	-0.1449393784424402
43	0x3f9eceb769bfe752	0.030085435704655446
44	0x3fbb77190dec2a88	0.1072860392561471
45	0x3fb39823ffb4bc50	0.07654023163625934
46	0x3faa7010479a46b1	0.05163622736030272
47	0xbfd02e9d394f4035	-0.25284510227811846
48	0x3fb9e42ec4f1c41c	0.10113804157460077
49	0x3f9e7b329b3f9037	0.02976683685837164
50	0xbfa252cb327e7abe	-0.035787916101289494
51	0x3f8c27c3cfad9ae8	0.013747720504125607
52	0x3fc1be65e867f7d3	0.1386229882045301
53	0xbfa136cdbeea56a7	-0.03362124400625293
54	0xbf83ee985be51164	-0.009732427887350688
55	0x3f7169a69ada5eec	0.004251147079820088
56	0x3f822aad7d957e6f	0.008870463747995687
57	0xbfc0888fd1c11f06	-0.1291675352279002
58	0x3f6bba875b630be9	0.003384842270948142
59	0xbfa94ebd4995672f	-0.049428858978627914
60	0x3fa22691cb69d44c	0.035450512009369634
61	0xbfbe0169bcd2903e	-0.11720906124043126
62	0x3fc9d85fff9f9709	0.20191574079142807
63	0x3fa63adc99046073	0.04341782920727235
64	0x3f9778071ba7869b	0.02291880708970116
65	0x3fa8fb503c6b884d	0.04879236924695416
66	0x3f977fe1945562d4	0.022948765448151345
67	0x3f966ca81843af20	0.021898867112141507
68	0xbfb07e1a81976645	-0.06442418731548923
69	0xbfc25cfe26d788b4	-0.14346291443422887
70	0x3fbe2dea4361a06b	0.11788810868313397
71	0x3fc382fe77a78862	0.15243512003422938
72	0xbfb6e9e9cde11723	-0.08950673366879562
73	0xbfb4ec5fbe7d4ee7	-0.08173178101179311
74	0xbfb27efa660a7e67	-0.07225003234133852
75	0xbfc2e67aaab855cf	-0.1476586659997978
76	0xbfc123749018d5cc	-0.13389451061236313
77	0x3fb38d6cd48f3f1c	0.07637672604982665
78	0x3fa254a75f5c582a	0.035802107229912686
79	0x3fc008acd79a273f	0.12526474502038273
80	0xbf85806ca882ee9b	-0.010498856442033236
81	0xbfa5bc8c37e8a9d8	-0.042454130005655066
82	0xbfb8e061b845281a	-0.09717379330427925
83	0xbfb99adc919d5cce	-0.10001925044103929
84	0x3fb54c6eb27bcf4c	0.08319751603613418
85	0xbfbcf4a22a08dd0d	-0.11310781027065193
86	0xbfb1da32e18ef4fe	-0.06973569876477723
87	0xbfae9f7ac296aec6	-0.059810482266895046
88	0x3fbf0b8c1ae603ca	0.12126994759275003
89	0xbfa91940fb2f1126	-0.04902079645356343
90	0xbfc568d0ae048c4e	-0.16726120469056344
91	0x3fc19a3a91b918df	0.13751918902762036
92	0x3fc1db66777eacb6	0.13950806460102222
93	0xbfc5015a23c27c18	-0.1641037630660953
94	0xbfa38249e8c404d7	-0.038103398956090544
95	0xbfa8035c23226cfa	-0.04690063408744467
96	0x3fb184437ed01757	0.06842443319336887
97	0xbfc356ee3f2318e4	-0.15109041293016567
98	0xbf5159c2a83bd3fe	-0.0010589981984001624
99	0xbfc17edd0865755f	-0.13668406400658292
100	0x3f9b09bcb93be3a6	0.026404331975729577
101	0x3fc331838754c8e7	0.14994854076355255
102	0xbfa8280475600453	-0.04718030865479563
103	0x3fbdab0dad5cd0e0	0.11589131815418652
104	0x3fae43a68fa98f9d	0.05910988334360854
105	0x3fb42a6c6df8e65f	0.07877233204717403
106	0xbfb31f990317c61a	-0.07470089269170224
107	0x3fa03d1e5c50c16e	0.03171629788301088
108	0xbfc121a07cd0cdbb	-0.13383871168626435
109	0x3fb562246f130857	0.08352878295684839
110	0x3f8ff5072c5db013	0.01560407261032285
111	0xbfc7c19a096785b1	-0.18559575518797325
112	0xbf9c6ef1c6bb3d20	-0.027766969446756495
113	0x3faaeccec98d6ece	0.05258794985158276
114	0x3fc1a1f2a1df99d7	0.13775475410439128
115	0x3f705f4aa38cb509	0.003997127111501139
116	0x3fae3f2f9f9c30e5	0.05907582114568458
117	0x3f97edd5d7d445ca	0.023368207262199715
118	0x3fb3cd0cce6cd061	0.07734756507562814
119	0xbf8c9417755c929b	-0.013954337376682438
120	0xbfc2a845af8bbf1e	-0.14576026031090178
121	0xbfa56b7f396251f0	-0.04183576179017112
122	0x3f91c8941f666901	0.017366709152704555
123	0xbf895c49ce45d499	-0.012383057219930204
124	0x3fc1bd9b51faf896	0.1385988378805833
125	0x3faa84414e549166	0.05179027634793236
126	0x3fa9d366233b0fb8	0.050440971184371575
127	0x3fbbcb85d43ae4bb	0.10857426101110239
128	0x3fc070931fa0247c	0.1284355072423614
129	0xbfba487dcf275db3	-0.10266863162484334
130	0x3fb7f1d9f205cd3b	0.09353410872227112
131	0x3fabb0efbaa978ea	0.05408429292286761
132	0xbfb86e5a490255ec	-0.09543384821366602
133	0xbfbc06e5b317dc03	-0.1094802438964138
134	0x3fb97651aee963cd	0.09946165581040063
135	0xbfbe4277b30f19a2	-0.11820171472127197
136	0xbfc1dd057b8560a2	-0.1395575383310233
137	0xbfae126f77478490	-0.05873440104529337
138	0x3fc1d747946a79d8	0.13938231226798226
139	0xbfaa936cc354b07b	-0.05190601238641165
140	0x3fb9f58f4315b629	0.10140319240391506
141	0x3fc15a87f97637b3	0.1355752914500364
142	0x3fc123525b091814	0.1338904327878373
143	0x3f99cd3bbb1c3cc6	0.025196965499216593
144	0xbf976e254ee2d84d	-0.022881110133959038
145	0x3fa669a87a6aad2d	0.04377485746712249
146	0xbfa4601727ea0bca	-0.03979561197504429
147	0x3f9577ccaa7f1718	0.020964811235692243
148	0x3f672113d005006e	0.0028233897175198785
149	0xbfbae2cf2230f77c	-0.10502333245037038
150	0x3fb36a1fec7f334f	0.07583808444833305
151	0xbf7638d6381f7523	-0.005425297540538029
152	0xbfc0cb6c04c77c2e	-0.13120794518815287
153	0xbf840de7f7df1b3d	-0.009792148830354836
154	0x3fa7bdf9f33247db	0.046371279656469
155	0x3f78219ac78d78d0	0.005891422851020248
156	0xbf9f756b97538cc7	-0.030721360312679715
157	0x3fc10001b7837c19	0.1328127046644745
158	0x3fb667ca9fa393a0	0.08752123258052658
159	0xbfb5c0156356ea2a	-0.08496221232682247
160	0xbfc3f619469fcba1	-0.15594783733794507
161	0xbf908464699529af	-0.01613003630090198
162	0x3fa1bddd6fccbe5c	0.03465167989486126
163	0x3fb0a3fc85ba5806	0.06500223412362524
164	0xbf949e0b1cdc2d32	-0.020134137760618738
165	0xbfc756545b054bc3	-0.18232206768388268
166	0xbfa74e5a6b2e5ecd	-0.045519662459978606
167	0x3fc037fb8c588f03	0.1267084536822197
168	0xbf922b6c7e247bd8	-0.017743773650291533
169	0xbf714f015b3f1764	-0.004225735949097007
170	0xbf834a225430d67d	-0.009418743318842399
171	0xbfcbd738ba1a4554	-0.2175055416778756
172	0xbfb1767fc93a5a43	-0.06821440375129222
173	0xbfb8c9c439361830	-0.09682871243248381
174	0xbfbe9bdfffd88d47	-0.11956596370923932
175	0xbfc1ca93ccd1c650	-0.13899466992329446
176	0xbfb055dd6a6404e6	-0.06381019446782296
177	0xbfc03bfa2cd0e44f	-0.12683036030083136
178	0xbf95884f5f4313d9	-0.021027794064838765
179	0xbfb92cb949e9315c	-0.09833868078675806
180	0x3fb90776d8884aa3	0.09777014528689647
181	0xbfb9ad646169f485	-0.10030200365322813
182	0xbfb02c04b38e2187	-0.06317166694328168
183	0x3fc20010a8ce0585	0.14062698595448012
184	0x3f96aa61668c9c81	0.022134324916944784
185	0x3fb8a223694718d6	0.09622403450257208
186	0x3fc5c2e0305f1fd5	0.17000963556188134
187	0x3fbdd375a438dc89	0.11650786647156698
188	0xbfbe9fd62cb37835	-0.11962641326269437
189	0x3fb0481a967b55e5	0.06360021757003372
190	0x3fbc318f990cce85	0.1101312397630015
191	0xbfa65bcc5d98ed6f	-0.043669115472279134
192	0xbfc3b753d6caa017	-0.15403221118799656
193	0x3fb17e7cb5cb8122	0.06833629072525985
194	0x3fa9f157960f0d38	0.050669419353221945
195	0x3f92429b42310c95	0.017832208552374402
196	0xbfa537dc0d738f0f	-0.041441799776093295
197	0x3fbdb74354f99582	0.11607762169440686
198	0xbf969e075e25da66	-0.022087206956224036
199	0x3fb673009cba1eb9	0.08769229723304307
200	0x3fa6e2109b7cd6b3	0.04469348810236564
201	0x3fc438ca5b044b9c	0.1579831070344796
202	0xbfcc8f8d51df8ccc	-0.223130860306901
203	0x3fb968c35712dabe	0.09925480724164523
204	0x3faff74349a25acb	0.06243334077696757
205	0x3f7c543abd592810	0.006916264964795374
206	0xbf4e1009135be02c	-0.0009174389185480128
207	0x3fc3bbb0610e213d	0.15416531313918283
208	0x3fb73a06d510e9d1	0.09072916700180335
209	0xbfac9ab51cab3b4d	-0.05586782431566082
210	0xbfb51e2e09237700	-0.08249175761326555
211	0x3fb73174086d43cb	0.09059834676487737
212	0xbfc533e70892fcc7	-0.16564643782292007
213	0xbfc67bf61830527a	-0.1756579988583729
214	0xbfa8c86b1a3d7254	-0.04840407080948653
215	0xbf9cb9eb0e7e9f89	-0.02805297161071921
216	0xbfc45e6ff4e0240a	-0.15913199860395394
217	0x3f833c0fe7c8de50	0.009391903172498633
218	0xbfb9607e20ca1899	-0.09912861156962761
219	0xbf86d8a4092bb7da	-0.01115539696681005
220	0xbf84072e8c2ee437	-0.009779323247004352
221	0xbfbb4f5645feac2e	-0.10667933663232596
222	0x3fb0cd99e85c9e11	0.06563722536940754
223	0xbf90b75baa1e2b1e	-0.016324455507439876
224	0x3fc177ce8bc9a86a	0.13646871400425492
225	0x3f91bb8f21aadf30	0.01731704371442716
226	0xbfa74a4448fab9f5	-0.0454884852491552
227	0xbfb623cabe9e9e20	-0.08648364213751636
228	0x3fbcd7c634f586d7	0.11266745369860175
229	0xbfcb4d91c590e807	-0.2133047308614666
230	0x3fc070996ed32cbc	0.1284362593781675
231	0xbfc7a64552c341a1	-0.18476168194912382
232	0x3fc60f1ba983ef3c	0.1723360612594379
233	0x3f9dc6253a716e71	0.029076177303393572
234	0xbfbaf8821ef3034b	-0.10535443549725902
235	0x3fbd7a670de23035	0.1151489647765523
236	0x3fbe7c40f16a1503	0.11908346074968183
237	0xbfd310e6178aceeb	-0.29790642069859413
238	0xbfa1c6a3741b211c	-0.03471861641225102
239	0x3f80dac643f48012	0.00822977919466442
240	0x3fbc0b411cab6252	0.10954672765672882
241	0xbfc1cb37a1e38e81	-0.1390142002556907
242	0x3fc05174b52d8049	0.12748583647317194
243	0xbfc04a1d33b05e6a	-0.1272617819201856
244	0xbfaf84805e8eea57	-0.06155778078342127
245	0xbfc8cfca9100a91f	-0.1938412864704526
246	0x3f9e9118ca01c148	0.029850375489730824
247	0xbfba43ecc83338fa	-0.10259895217606987
248	0xbfc0690484f98479	-0.12820488446144276
249	0x3fb9c1aa2810d018	0.10061133840719128
250	0x3fb9fdf9efa460f2	0.10153162098538696
251	0xbfbdaa7ce11d03f2	-0.11588268752986133
252	0xbfc7df2748320189	-0.18649760270274054
253	0xbf9c8bb3d7835e93	-0.02787667277229262
254	0x3fa75d0aa0e03dc4	0.045631725443054744
255	0x3fbeee17895d19a7	0.12082049468617716

fc_hidden_list.2.bias f8 [50]
0	0xbfbef56770c0c4ae	-0.12093206885107818
1	0x3fb71b192c448b9e	0.09025723772769687
2	0x3fb1f46514120eb2	0.0701354192734083
3	0x3fa0b7777b33c91e	0.03264974001821684
4	0xbfbee0e0b85e347a	-0.12061886311694706
5	0x3facaf24c5bcbf33	0.05602373994622525
6	0x3fb87a2adc6132cb	0.09561412697184861
7	0x3fbe1d689441f922	0.11763623828480665
8	0x3fc0ffbd7580a02e	0.1328045676939395
9	0xbfc43b3b0c955de9	-0.15805757631709064
10	0x3fa558608382d9e3	0.04168988805161058
11	0xbfbb17859200e969	-0.10582766356029584
12	0xbf89186b8508f02f	-0.01225360870113698
13	0xbf721cfdb2666c99	-0.004422179225367939
14	0x3fb34e140bb218b8	0.07541013036288546
15	0xbf9ce7609b886b2a	-0.028226384633039427
16	0xbfbdc56e81832dbd	-0.11629381811069713
17	0xbfb3cdbaebde8524	-0.07735794313932282
18	0xbfbb0ea85243c51f	-0.1056924057809465
19	0x3fb6be544bfc8383	0.0888416944039943
20	0x3fc4ab5f5eb3a468	0.1614798748408106
21	0x3fac68e354ff6bd6	0.05548773205347117
22	0x3f47e35dc3078a83	0.0007290084668592631
23	0x3fbceeb0255b874b	0.11301709091233396
24	0xbfb7c648cced9c7a	-0.0928693294823563
25	0x3fb9d38c468f2540	0.10088421557079119
26	0x3f778686ddcf18f4	0.005743529150043825
27	0x3fc092c11808aa31	0.1294785849907654
28	0x3fa6f3a0f3c7b150	0.04482748962240868
29	0xbfa21420215c3446	-0.03530979544857664
30	0xbfb2cdc145940d1e	-0.07345207165422038
31	0x3f89f706b1c16f28	0.012678196239157183
32	0x3fbbdea4f44a3009	0.10886603321176848
33	0xbfbfd700d1fc26e4	-0.12437443853937286
34	0xbfbdd0075951bd69	-0.1164555161537827
35	0xbfc16061878c0971	-0.13575381392008581
36	0xbf9aff6d4939137a	-0.02636500129144135
37	0xbfc2d0a0f79d39b4	-0.14699184504065743
38	0x3f824a820756850c	0.008931175087868691
39	0xbf93504a875c6d80	-0.0188609738462282
40	0xbf7db7a4b21b00cb	-0.0072552140642871505
41	0xbf911dd3e470adfd	-0.0167153461626821
42	0xbfb2cbff900967b2	-0.07342526690027176
43	0x3f9f7962083f46dd	0.03073647666298639
44	0xbfb5f86e20aee119	-0.08582199380805768
45	0x3fb75fab1d1aea2c	0.09130353413176157
46	0xbf54f2ef7b730480	-0.0012786234563438026
47	0xbf9ead5af2dca840	-0.029958172867886157
48	0xbfb756858fe1e0be	-0.09116396677734692
49	0xbfb12543458c9490	-0.06697483489968392
