savedModel/poisson2d_inverse_tanh/noise_0.1/ParticleWNN_2/trained_model_best_loss.pth (torch, 132191 bytes, 20 tensors)

fc_in.weight f8 [50, 2]
0	0x3fe60e69989e8fcc	0.6892593365523623
1	0x3fe74b06761df93d	0.7279083544706634
2	0x3fab3b8ced90c0fd	0.053188709258735735
3	0x3fe4af61de754344	0.6464089722522677
4	0xbfd7d4764465c268	-0.3723426502174676
5	0x3fe13633843f7d25	0.5378663619011702
6	0xbfc2dc872c5995c4	-0.1473549810936402
7	0x3f8db0f58c4b3b6b	0.01449767908471041
8	0xbfe3e0c1e82af129	-0.6211862120176522
9	0xbfdd7dd7d4ddfd8e	-0.4608058527737392
10	0x3fe106b27f88e690	0.5320675364411773
11	0x3fdcc6f3723a6955	0.4496430030354948
12	0xbfc396ae099ff6cd	-0.15303588361705636
13	0xbfdff710c5c5c0ef	-0.4994546824809864
14	0x3fc14a8b6f5f044b	0.13508742273373495
15	0xbfbd4be1d5190932	-0.1144391198404591
16	0xbfd3d7177d890754	-0.3100031591348984
17	0x3fe47d7c57b44ba4	0.6403180802320674
18	0xbfe580086fc1e07b	-0.6718790228615171
19	0xbfe0f12f788721d0	-0.5294415811595687
20	0x3fb821e50def155d	0.09426719274695956
21	0x3fa6e42b2dfbe0f4	0.044709538806218335
22	0x3fe52fe782fceecf	0.662097698055243
23	0xbfe1faca31b5bb21	-0.5618639918228362
24	0xbfe478c626a05fc2	-0.6397429232047147
25	0xbfc47d6b30b272cd	-0.16007747533594455
26	0xbfe72951a3579adc	-0.7237938108708835
27	0x3fe259413bac6fd1	0.5733953633784897
28	0xbfda4d95314f18ed	-0.41098527732209683
29	0x3fe33e6c922753aa	0.601370130020418
30	0x3fdbbecce6ea16c9	0.4335205321334397
31	0xbfdf1ba770845d63	-0.4860628699111286
32	0xbfe83452e34bf795	-0.7563871802701551
33	0xbfc9fbf0210d8d84	-0.20300103773034206
34	0x3fdd1d68a69a20fa	0.4549199702237413
35	0x3fdecc8891fdfb59	0.48123373276751163
36	0xbf950686b49e8b12	-0.02053270795262125
37	0xbfe4e3e8260f1707	-0.6528206580485126
38	0x3fdcfd41d02d716a	0.4529575856193079
39	0x3fdd0f4fa470b802	0.4540595155584698
40	0xbfd8400b4f2bda97	-0.37890894633839295
41	0xbfd4f8f102c9bc76	-0.32769418022412056
42	0xbfd9be12a1fe8323	-0.4022261220907685
43	0x3fbf738d5f4b1119	0.12285693718428482
44	0x3fdaf62a1aa88752	0.42127468684531266
45	0xbfe2ab1b920075a6	-0.583387169990307
46	0xbfdce3069f7f062e	-0.4513565595226251
47	0x3fd7c1b6861cef71	0.37119830224013756
48	0x3fdcbbed213001d4	0.448970110330291
49	0x3fe6eb14a0c23d9d	0.7161963596171749
50	0x3fcefb1b49116ade	0.242038164785149
51	0xbfe27e2b5f092c63	-0.5779015403908371
52	0xbfc6faf8663db762	-0.17953400604477127
53	0xbfcbeaa1fcaf9513	-0.21809792364289446
54	0xbfdd9c3d07924bee	-0.46266103495980715
55	0xbfdcecb4f7e932b2	-0.4519474431042837
56	0xbfc6804f79c012c0	-0.17579072422826947
57	0xbf98fc81f0f70599	-0.024400739986736395
58	0xbfda1eb577efc7e9	-0.4081243201500216
59	0x3fc6a16b8b225dd2	0.17680115026153814
60	0x3fe356fa7deea4d1	0.6043674907315567
61	0xbfdafb6726efd121	-0.42159441759510413
62	0xbfe54c0a37d661bf	-0.6655322161268983
63	0x3fe56c4c3d5e48e3	0.6694699476813891
64	0xbfe1447fe4a58b4b	-0.5396117654566778
65	0xbfe571069351cf1c	-0.6700470807395251
66	0xbfd2c9c614f95a36	-0.2935652928185023
67	0x3f7227842ae8e340	0.004432216911077813
68	0xbfc93ffd8d0174b5	-0.1972653330330211
69	0x3fdbb58495af6258	0.43295397393879886
70	0xbfcb7ecaa90e1c12	-0.21480687384266212
71	0x3fe4679cf82ed4db	0.6376480910609205
72	0x3fe3dfada2ed704d	0.621054475991977
73	0xbfe6e029ad6d5f3e	-0.7148636233568835
74	0xbfe33243731754e9	-0.5998856780885521
75	0xbfc683c1cf9ffabb	-0.17589590681014564
76	0xbfeb96160ae5e30a	-0.8620710575915791
77	0x3fde51fd635f24a8	0.4737542601038265
78	0x3fc553747c6f6ee4	0.16660934520665827
79	0xbfb3847e72847101	-0.07624044700463985
80	0x3fc5adc986d4a1c1	0.1693660648682123
81	0xbfd5ed3822400ec3	-0.34260371536968764
82	0xbfb97b12c1f1a487	-0.09953419909438042
83	0xbfbae7f627623e9b	-0.10510195218580025
84	0xbfe60547ddd5e3d5	-0.6881446202015647
85	0x3fc59b8c9a779e2b	0.16880948583933394
86	0xbfe357e0416cb747	-0.6044770505738847
87	0xbfa0daa7e3e61142	-0.03291821152655185
88	0x3fd0350f45a47d10	0.25323850441959994
89	0x3fde2f25b11b90ee	0.47162763877555747
90	0xbfe4c708345af3f1	-0.6492959044040828
91	0xbfdefb5f4af86e4a	-0.4840925438054212
92	0x3fdcb993502efada	0.44882662611409574
93	0x3fd5f20719819c39	0.3428972004971374
94	0x3fe7c2c6dfbbfa9e	0.7425264711199195
95	0xbfe75a0d5c4919b6	-0.729742698903286
96	0xbfd03be8c8d3b73d	-0.253656574363834
97	0xbfc64527c62371ab	-0.17398545431832466
98	0xbfa963f62b6b2399	-0.04959077148448116
99	0xbfe50e07bc41085c	-0.6579626728855703

fc_in.bias f8 [50]
0	0xbfe44fbcbc993f29	-0.6347335513655469
1	0x3fabf2ffe2340117	0.05458831440228289
2	0xbfddcbf65db45676	-0.4655738749582733
3	0xbfdd3fb37b846206	-0.45701300680369206
4	0xbfd31af56468ba9a	-0.2985204201276389
5	0xbfdd52c9bbb7c991	-0.4581779797728354
6	0x3fb408091ce3bea2	0.07824761348069356
7	0x3fdce03fd1c63dec	0.45118709073810126
8	0x3fb90f476985d2ae	0.09788938833464542
9	0x3fe4926c29999409	0.642873841523966
10	0xbfcf07096e31e1b5	-0.2424022472439568
11	0x3fbdb0e9a2004e16	0.11598072247607435
12	0x3fc81642cc49dec0	0.18817934966113192
13	0x3fe50c8427a2e7a5	0.6577778600833325
14	0xbfc29f7de33621b3	-0.14549230188664594
15	0xbfde2189ace6d4e0	-0.47079698452883
16	0xbfdc5321c1b9a666	-0.442573966202508
17	0x3fa204b192232e1f	0.035192059601822694
18	0xbfba2267693adc93	-0.10208746260728878
19	0xbfce129be56be6d1	-0.23494290067883708
20	0x3fce51ac180f71c2	0.23686743902989177
21	0x3f67a0b9c0fd13f6	0.0028842571263418782
22	0x3fc921b1ea6b4972	0.19634078928227044
23	0xbfbc0235ff85df49	-0.10940873611786829
24	0x3fdfbc075206fece	0.4958513546989537
25	0xbfdc958ce27f8ac8	-0.4466278278252216
26	0xbfdd3276f166288d	-0.45620511602522457
27	0xbfe1572d03bee5d0	-0.5418915818365182
28	0xbfe1fff2ffbfe524	-0.5624938006505187
29	0x3fd7aefd9c36604c	0.37005558257215365
30	0x3fe51b6b118d12a0	0.6595969527048346
31	0xbfcae394e504fe3d	-0.21007023985474574
32	0x3fd31fc49aae2e7d	0.29881396394259935
33	0x3fd1c55bf11de7b9	0.2776708464294831
34	0xbfdaab4e68d8eb0b	-0.41670570601461127
35	0x3fdc15258201a5e9	0.43879068084660716
36	0x3fe399512c01bbca	0.6124654635913143
37	0xbfd74d56ea1c95ad	-0.3640954290625256
38	0x3fe4232715b05154	0.6292910979850981
39	0xbfd2c67eb0453d92	-0.29336516584313543
40	0x3fd90a506dc3dd2e	0.3912545272755378
41	0x3fcc99fb031d55dc	0.22344911243514687
42	0xbfe4c067f35470e9	-0.6484870674644557
43	0x3fe1cce5b2947037	0.5562618720900961
44	0x3fc82422586aa5f7	0.18860272710053014
45	0xbfe3ee32824e2111	-0.622826818945244
46	0x3f90c983a3720e4a	0.016393715716289038
47	0xbfe5514a4c0d0f0f	-0.6661731229182538
48	0xbf677cd5db60ac3c	-0.002867143334716297
49	0x3fe050da22619d3c	0.5098696395406601

fc_out.weight f8 [1, 50]
0	0xbfbfaa093c67c15e	-0.12368829464663153
1	0x3fc088dcdad5ebe1	0.12917671857198257
2	0x3fb839ad6e1803fa	0.09463008821332144
3	0xbfa0bcbc77b1bf1b	-0.03268994294273694
4	0x3fc0560e11883d00	0.12762618881286159
5	0x3fc4141e3202cd5e	0.1568639511293481
6	0xbfc0c0ce6e1923ea	-0.13088398338211898
7	0x3fa20e0097c6ecb0	0.03526307919261151
8	0xbfaf7ead4041ab65	-0.061513341993154204
9	0xbfbb6d79b74ddb7e	-0.107139212848649
10	0xbf92283fe60fb25a	-0.017731665055111236
11	0x3f797211c8d22df5	0.0062123007493357545
12	0xbfa8a1210ec3520d	-0.048104317714806034
13	0x3fbcc0b92d3721d0	0.11231572488680475
14	0x3fb606801491dfe9	0.08603668691819134
15	0xbfa2a73c80315c4f	-0.0364321619496698
16	0xbfadcebabe8db73a	-0.05821784568875761
17	0xbf35ffec6953ac24	-0.0003356887985563348
18	0x3f8ff2311a64a79f	0.015598662965732589
19	0xbfa53f4d4964ae6a	-0.04149858017839565
20	0x3fb7abd5d6f5a95f	0.09246574876821033
21	0xbfb7076667648366	-0.08995666527017718
22	0xbfc1b0dbaba0b2b7	-0.1382097805047999
23	0x3fc602e77f1f40d6	0.17196363169796908
24	0xbf8926cd2a281bfb	-0.012281039093990023
25	0x3f37e1b650d71850	0.0003644056422128549
26	0xbfb11fde7c11c4bc	-0.0668925335792378
27	0xbf4199f6457c0502	-0.0005371525284944281
28	0xbfc7e0c5db81ee7a	-0.18654702394620754
29	0xbfac6e2f8b0612d0	-0.05552815029208136
30	0x3f3c0e4d3bb93841	0.00042809854105463693
31	0x3fa4e401b429bfaf	0.040802052729190456
32	0x3fb7d0cc3bb8caf5	0.09302975137761023
33	0x3fa7a7753c17acd2	0.0461994777541236
34	0xbfb925acee9fe8bf	-0.0982311327533436
35	0xbfc43b4fc939dce0	-0.15806004834642007
36	0x3fb97a8a91c4131c	0.09952608164537619
37	0xbfaf16127c19a6f4	-0.06071527256865564
38	0xbfbd44501004255b	-0.11432361975689302
39	0x3fb0bd56113fd8d9	0.06538904114845269
40	0x3fa2fbf5f48dd529	0.037078558066165286
41	0xbfc122584d3be13e	-0.1338606240385704
42	0xbfc0b557b8d1c437	-0.13053413891205576
43	0x3fb6cd98e0ede240	0.08907466403423658
44	0xbf210e0903160a14	-0.000130117988685966
45	0xbfc52f0d7bcb09f7	-0.16549843353830315
46	0x3fb04f22fce6c1dd	0.06370752977705459
47	0x3f9572485bfc1927	0.020943766226104856
48	0x3fc0636f0572ac75	0.12803447500241175
49	0x3fb264a113c4f1e9	0.07184797985696147

fc_out.bias f8 [1]
0	0xbfb5e816c5d4b3cb	-0.08557264642577349

fc_hidden_list.0.weight f8 [50, 50]
0	0x3fa333bbd7836498	0.037504072244425035
1	0x3fb6e1f5c694c43f	0.08938537691280234
2	0xbf96e8ac3434b3e5	-0.02237195080413192
3	0xbfadb9ece707b574	-0.058059123231809645
4	0xbfac77270ee659be	-0.05559656197435768
5	0x3fb6ec50ca97b15d	0.08954338976008587
6	0xbf93651743456df1	-0.018940318566235296
7	0x3f82684e74a9bc5f	0.008988011298440122
8	0xbf71ce173fe7ae38	-0.004346934145796726
9	0x3fbd246c7c31ccef	0.11383703262417887
10	0x3faf013e2fb94403	0.060556357694288486
11	0x3f7dbb199a7464cc	0.0072585106020365935
12	0x3fa2586c1e93e90b	0.035830858929289354
13	0x3fc621a4733d4dd8	0.17290168406417084
14	0x3fb74c7172a46bf5	0.09101017998584367
15	0xbfc2fcbaf3eac9f6	-0.1483377161981278
16	0xbfbd3bcdb6d92de7	-0.11419378007956703
17	0x3fa0fcc1b87a1d68	0.033178380746046454
18	0xbfbf583f27943b81	-0.12244028774533257
19	0x3fb4251a8f2e8601	0.07869115825317154
20	0x3fb8a519728f77c9	0.09626921698460857
21	0xbfb13385574b7828	-0.06719239598484761
22	0xbf9ec9557bf81601	-0.03006490296504261
23	0x3fbb7aecbfe7743e	0.10734443364295118
24	0xbf9d14b25bc15bfd	-0.02839926419286697
25	0x3fa26005bc8e5fa9	0.03588884283743649
26	0x3fb4f553267fbf05	0.08186835946957778
27	0xbf96e020cd17d73d	-0.022339355962649455
28	0x3fc07e38ce7efd99	0.1288519867211846
29	0xbfa58f87164e3920	-0.04211065432819994
30	0x3fb70efbc49e9e7b	0.09007237959178298
31	0xbfae23786629831d	-0.058864366980520645
32	0xbfb1c2c0a7099522	-0.06937793806135464
33	0x3f8cc2266b135abc	0.014042186873138511
34	0xbfb7992940f9c2ea	-0.09218080364531614
35	0x3fc02130c0ce330b	0.1260128919060651
36	0xbfb89dcf636b9e27	-0.09615799119239253
37	0x3fb5428abae73224	0.08304659903587513
38	0xbf9b5dc724db6e07	-0.026724921822149052
39	0xbfc1835ea493c047	-0.13682158504480155
40	0x3fb598afca74f11e	0.08436106388848372
41	0x3fbd8fb974aacfa4	0.1154743108589274
42	0xbfbd1364b331c173	-0.11357716917860276
43	0x3fbcd6dd9970f9e4	0.11265358921171004
44	0xbfa4d0cfab1e080e	-0.040655603063911014
45	0x3fa460c151fcc5cb	0.039800683267809576
46	0x3fb06a7e5d1d9d2f	0.06412496350605033
47	0xbfc3da2678193a68	-0.15509491790949714
48	0xbfaa0787a5e14955	-0.05083869838621761
49	0xbfc18f0d1d77df1c	-0.13717807711486152
50	0xbfc3c5cf72de3718	-0.15447419270315588
51	0x3fc1648563329007	0.13588015884045054
52	0x3fc144520531cefa	0.13489747289315074
53	0xbfb620a98deb8174	-0.08643588747827896
54	0x3fb3470db370ee37	0.07530294066321451
55	0xbf7222c6b6c178b9	-0.004427696443683065
56	0xbfbd00b699bf18c3	-0.11329213384223906
57	0xbfa7a5cec93429a8	-0.04618688779926866
58	0x3fa7e7d5e7d163c2	0.04669064001854607
59	0x3f8cec08315ba004	0.014122070318492781
60	0xbfa5e34aafd7bac1	-0.04274972340123418
61	0xbfc506c5ee7b2dd2	-0.16426920075023915
62	0x3fa65eb516a98ce3	0.04369130994452932
63	0xbfa6f035b551ceb6	-0.044801405318961526
64	0x3fc44bc8e8d035ba	0.15856276862943536
65	0xbf901cb0c2ab8799	-0.015734445459095168
66	0x3fa9c1c24d484e1d	0.05030638879193481
67	0x3fa79c2caf974621	0.0461133922905328
68	0xbf8ea02d4ee92d2a	-0.014953950853984727
69	0xbfbd6074ff512f5d	-0.11475306733444542
70	0x3fc1ed325887601f	0.14005116770454237
71	0x3f8fad3da6edc66e	0.015467149407160732
72	0xbfb46b6ee9ab6bdf	-0.0797643013460596
73	0x3f8223c7562f8b93	0.00885730487602191
74	0x3fa31f314c21a0cc	0.0373473554071225
75	0xbfb82714669d137b	-0.09434630875791854
76	0xbf982fbace71b9e8	-0.023619574404102922
77	0xbfb110539f4bcda2	-0.06665537489953136
78	0x3fbe326b62e77f49	0.11795684017806453
79	0x3f7278540454cb69	0.004509285155381495
80	0x3fb0dae4f415bef6	0.06584006270508866
81	0xbfb89c784130a600	-0.09613753882936038
82	0xbf4412b0a955feeb	-0.0006125795941187261
83	0x3fae2c5c283bfe4a	0.05893218985692934
84	0x3f9c72cd5f9ac03c	0.02778168579124006
85	0xbfab66535ff0991b	-0.053515058003812586
86	0xbfad0d62bc6f8491	-0.05674274969329319
87	0xbfa9aafe5cdebb49	-0.05013270267169518
88	0xbf9d46896661636d	-0.028589388727002275
89	0x3f7301732e272f62	0.004640054629316244
90	0xbfc0388f27582060	-0.12672604962449707
91	0x3fa7231ef6221c93	0.04518982653194672
92	0x3f815a84158deae6	0.008473426730906519
93	0x3fb6a2cc1de6a7df	0.08842159013752802
94	0x3fc18573999c5750	0.13688511848948304
95	0xbfa84de3dad769b6	-0.047469253982586876
96	0xbfbf4e616b54af59	-0.1222897421873176
97	0xbfb31fe965a3a724	-0.07470568400790661
98	0x3fb703456dd32eb2	0.08989366465828644
99	0x3faa6a8819cc2a62	0.05159402193938402
100	0x3fc039ded6f5804c	0.12676606651348477
101	0xbf7e32c750613ff9	-0.007372644968270941
102	0x3fc29f3134001dfe	0.14548316039166304
103	0x3fb2dab155e230a8	0.07364948603407362
104	0xbfa5be68403aa75c	-0.042468316879719054
105	0xbfb2299da348fb24	-0.070947506298563
106	0xbf9d3ea34f63c280	-0.028559257240831304
107	0xbfa18db6a59fa6b7	-0.034284312932709886
108	0x3f7aa57ef2a2b54f	0.006505485429597015
109	0x3f99623dabbbbd3d	0.024788821799061046
110	0xbf98a357c8a89c5c	-0.024060603735190575
111	0x3f88216cff936259	0.011782504605819687
112	0x3fafb9d67b656400	0.06196470505046392
113	0xbf8343f46ef4c17f	-0.009406957279310955
114	0x3fbba31cc18f6e23	0.10795764661400446
115	0x3fa3d920bb4d156f	0.03876592909231646
116	0xbfbe519fed0911ff	-0.11843299424169372
117	0xbfc094e4584e5129	-0.1295438224011687
118	0xbfc29c2ceb6de6cb	-0.14539109702655248
119	0xbf96ba3cf1b05151	-0.02219481682921415
120	0xbfb84144169759cc	-0.09474587966483411
121	0x3fb037c86f462722	0.06335118023539768
122	0xbfc13acde2d83503	-0.13460706306833722
123	0xbfbc42ddbd3892cf	-0.11039529676106528
124	0xbfbadff9f974cc25	-0.1049801095985435
125	0x3fb0065c65bf90c7	0.06259706005181719
126	0x3f9e0df9c939298f	0.029350188166327448
127	0x3fbca60bc7c78e07	0.11190866115025964
128	0xbfa6c7381672e016	-0.044488671055148796
129	0x3fa0ab52162cbbbc	0.03255707283675899
130	0x3fbcd9bf1138a664	0.11269754572335838
131	0x3fbd6cc01b4cfc5e	0.11494064966699244
132	0x3fc153e438e7652a	0.13537266520033003
133	0x3fc1c5c41c9cda4e	0.1388478412352065
134	0x3fa8209cf887d947	0.04712381872006915
135	0x3fbd155511f7522b	0.11360675514817646
136	0x3fbbb458d3a910b6	0.10822062652102002
137	0xbfbfa1c55fe38ce5	-0.12356217947995025
138	0x3fb1ed70fdd7b432	0.07002931783036173
139	0xbfc439455b779d4f	-0.15799776998685863
140	0x3fb2217f0d088c46	0.07082361286352165
141	0x3fc111fb278b904a	0.1333612387744572
142	0xbfb1bc7e5dee4bf7	-0.06928243439897118
143	0x3fc0a550990ce2bc	0.13004500840340494
144	0x3f94803d5aabb07b	0.02002044549855995
145	0x3fad5c328c06115a	0.05734403571389875
146	0xbfa555d2be732c62	-0.0416704041941436
147	0x3fc133d24cda08d0	0.1343939662220408
148	0x3fa426c169764b98	0.039358181117811586
149	0x3fbaebbb0c025f82	0.10515946429438652
150	0xbfba1511cafd4fc6	-0.10188399511144927
151	0x3fa1accb1f215276	0.03452143435484782
152	0xbfc16b34226a41c2	-0.13608409576819552
153	0x3fb8a6cc25da1951	0.09629512714500278
154	0x3f828fe877486023	0.009063545360774644
155	0xbfbe3a52db7ba959	-0.11807744844887703
156	0x3fa53df0aa233ec0	0.04148819043041163
157	0x3f6e26cbc9108f11	0.003680608766915124
158	0x3f9066dc5a395bc8	0.016017382628287696
159	0x3fb9190ba23a01b1	0.098038413148976
160	0x3fb3ea0a750ebf81	0.07778992994167135
161	0xbfb3a44c6a4ac092	-0.07672574610728791
162	0x3fc21043e1e503e9	0.1411213734627659
163	0xbfaeec4502324555	-0.06039634372531092
164	0x3fbb6811441a6ef2	0.10705669319798597
165	0x3f9dc2d2ebb04477	0.02906350673226085
166	0x3fbf8d7ec6a19882	0.1232527956904921
167	0xbfb868717cf5b006	-0.095343678481811
168	0x3fc3799e5626b288	0.15214900213813487
169	0x3f9819018755bdc8	0.023532890210331364
170	0x3fbfab7ad2fa5369	0.12371032381845527
171	0x3fc1b607f5343c3b	0.13836764786580766
172	0x3fbff455d30c1fa8	0.12482201006434812
173	0xbfbb6dff2500b0cb	-0.10714716580759213
174	0x3fa5747503deaeae	0.04190412208785453
175	0xbfb37d530168f727	-0.07613104614662501
176	0x3fa911c9d0967da0	0.048963839256653374
177	0x3fccef5ab25bc5ed	0.2260545130625781
178	0x3fbfa9f37002a32d	0.12368699535967372
179	0xbfaa6b28a1101cb7	-0.05159880605793304
180	0x3faf21c12090eb24	0.060804400658943686
181	0xbfbcdad57950e8f1	-0.11271414005105719
182	0x3f97db5a4bb4ef7d	0.02329770171239386
183	0x3fab723fd6367529	0.05360602846051627
184	0x3fbc9962901699a3	0.11171546952991789
185	0xbfbb4d1d59290a3c	-0.10664542605176391
186	0xbfc0ecc3c25d0dbb	-0.13222548475651572
187	0x3fc7cc5a645f1043	0.18592386151260784
188	0x3f8eed064d98a776	0.015100526087809856
189	0x3fc1d63d67bd5238	0.1393505817928984
190	0x3fb222d70043f876	0.07084411388857056
191	0x3fadda3fa3529e5e	0.05830572956739098
192	0x3fbd9d977f06294e	0.11568590975926904
193	0x3f9d72b770d6371a	0.028757921468744653
194	0xbfbf439f9a41ebef	-0.12212560192158127
195	0x3f72d669daf8858f	0.00459901189563662
196	0xbfc8dbae89066429	-0.19420415583297881
197	0xbfb8d4c95e548a87	-0.09699686577782006
198	0x3fc6b25b679cceac	0.17731802519994255
199	0xbfafb4b0fff509e5	-0.06192544102170298
200	0x3fb36357cf78586e	0.07573460402667972
201	0x3fa66f26e7ba1406	0.0438167722577774
202	0x3fca2c98fa63f0a4	0.20448600984662335
203	0x3f8e8cc8c9ac44a4	0.014916962294167675
204	0x3fc9d53ffdfaa686	0.20182037259410296
205	0xbfc0caf3acd4dc83	-0.13119359911954484
206	0xbfc3b4fde8b074d7	-0.15396093236714734
207	0xbfc1181eb14b8f29	-0.1335485807131758
208	0x3fa15102c18b07fb	0.033821188093057196
209	0xbfb37ccfd32e592b	-0.07612322717463786
210	0xbfc0f386db179bfd	-0.13243184755194184
211	0xbfb742aaf27fd578	-0.0908610193290168
212	0x3fca0ea0e2c3ad23	0.2035714251754622
213	0xbf9565207d9ec2d5	-0.02089358107304203
214	0x3fc66f97bb66664c	0.17528053903952168
215	0xbfbc1c67ca7b221d	-0.10980843251594093
216	0x3fd1746283ac3ede	0.272728565775635
217	0xbf90e892058ca78f	-0.016512185658178743
218	0x3fbc1a3e6170870f	0.10977544669051674
219	0xbfc1c6a115be4ca8	-0.13887418328940737
220	0xbfa74415e79cc08f	-0.04544132664011712
221	0x3fc7ed0cd0ad92e0	0.18692169370037615
222	0xbfbbfe9c399ad8dd	-0.10935379415863929
223	0x3fc0b01b2bc2d6e2	0.130374332778664
224	0x3fbb24d23306efc5	0.10603059526232446
225	0x3faf327d2a717b70	0.0609320749579102
226	0x3fa06813c9b53fbd	0.032044046757277546
227	0x3fc07531ae793ed7	0.1285764791414212
228	0x3f8349c4cff8d869	0.009418046566775655
229	0x3fa212116523ba18	0.03529409751523732
230	0xbfd5a5bf0d207ad0	-0.33824135095521246
231	0xbf6e17d82940e6d5	-0.003673479261149785
232	0xbfa3cbf4645038ab	-0.03866542553451898
233	0xbf7a497c7186ee1d	-0.006417738063130976
234	0x3fc1773c3c9131ac	0.1364512725580317
235	0xbfa6a444ac7be598	-0.04422201734082448
236	0xbfd175a4d790145d	-0.2728054146867345
237	0x3fcc648d3f97b84b	0.22181859593496464
238	0xbfaf452da37f622c	-0.061074663360788456
239	0xbfbf925511d9abea	-0.12332660375402296
240	0xbfb616658671b0ad	-0.08627924473120414
241	0xbfa42434f25a166e	-0.03933873613736415
242	0x3fd3ff45b47fee8d	0.31245558382918476
243	0x3fa895b4f92f611e	0.04801717321214681
244	0x3fb709da5a619e8b	0.08999409395766571
245	0x3fcbeb60858aee00	0.21812063713683472
246	0xbfc2e0882dd69f60	-0.147477171308533
247	0x3fb4800c5bc200f8	0.08007886161977129
248	0xbfa1ac044a5d81d8	-0.03451550872592052
249	0xbfc049fc66c26321	-0.1272578717951314
250	0x3fc140b0e47fbb7a	0.1347867122380782
251	0x3f61ba2744cf7ae0	0.0021639601677486547
252	0xbfc43ac2e982a7e0	-0.15804325487016424
253	0x3fb199b647747848	0.06875170940881603
254	0xbfb498879b3f1d10	-0.08045241871069586
255	0x3fabcc8360e8a6aa	0.054294686870276124

fc_hidden_list.0.bias f8 [50]
0	0x3fa8145dc1c4153c	0.04703038206393237
1	0xbfb2925e8249ddce	-0.07254591637489868
2	0xbfab637d57f2cb14	-0.05349342058743481
3	0xbfb7a1b9c80e30ae	-0.09231148847738055
4	0xbfc2093beb57ce73	-0.14090680114133
5	0xbfab6776f9d27a13	-0.053523748393889424
6	0xbfc210121a11ba3a	-0.14111543915665142
7	0x3fa96271452e1bff	0.049579181380117625
8	0x3fb657c0f811051b	0.08727651649771355
9	0xbf8007b4717889e8	-0.007827195847373639
10	0x3fb1e20ba2ee953d	0.06985542991477174
11	0xbfa282892631e55e	-0.0361521586537019
12	0x3fbf42c093cf6cd9	0.1221123085846786
13	0x3fc1009ccf89c6d8	0.1328311932916708
14	0xbfc222e5293df6bf	-0.1416899157883815
15	0x3fbc52b0bfb818fd	0.11063675575869421
16	0xbfc45a0f868edca6	-0.15899843282907006
17	0x3fab0ce4f1ba274e	0.05283275080462478
18	0x3f8f9b8dc4870c29	0.015433414039653997
19	0xbfaaf0f73c6a07e9	-0.05261967289426634
20	0x3fb7e0e784e51087	0.09327551836492108
21	0x3fbd4b4fa7ff9574	0.11443040706179436
22	0xbfbbb88f70de4014	-0.10828491693087045
23	0xbfb5de6d3d498455	-0.08542521234768803
24	0x3fb29f697d5c7258	0.07274493513654912
25	0xbfa986836c3e9cc5	-0.04985438057274786
26	0x3f85b587649673d4	0.010600145108407157
27	0x3fa93890789708ac	0.0492596766666947
28	0x3f991bf3a62ec6f0	0.024520689981449573
29	0xbfc3cd968ff6cfe1	-0.15471155194757016
30	0xbfa7dd5106fe93e2	-0.046610385993780104
31	0xbfa3ed03b9e619b6	-0.038917652552345514
32	0x3fc0db3e3b498fc5	0.13169076819315087
33	0xbfad75b29cb2bab6	-0.05753858721560816
34	0x3fc638301f2bbce2	0.17358972093595698
35	0xbf9a8ddf37bdd14a	-0.025931823517980214
36	0x3fc42bc7de76499e	0.15758608209996522
37	0x3fbb92c52b1ea246	0.10770828535772478
38	0x3fbcfb94b1b7b685	0.11321381892022415
39	0xbf9f42fd4bed91c1	-0.03052898193290488
40	0xbfb4caf02f98ca96	-0.08122159158737427
41	0x3fa14585f25b01a7	0.03373354514542664
42	0x3fbe9a76bbfb94ce	0.11954443063185069
43	0xbf7c2909f997f086	-0.0068750753066489975
44	0xbfb17479563393c0	-0.06818350176361232
45	0xbf987858a992b385	-0.023896584844510755
46	0xbfa19b5427ad6a05	-0.03438818916648149
47	0xbfc8b17e86fa123a	-0.19291669455209776
48	0x3fb9f1b049dc6f68	0.10134412577866458
49	0xbfc2cd891747dd9b	-0.14689744602922591

fc_hidden_list.1.weight f8 [50, 50]
0	0xbfb939f9b2ed0dd8	-0.09854088419256557
1	0x3fb2dccced73640a	0.07368164822709403
2	0xbf6ffa1a5b597fa2	-0.0039034380704805064
3	0xbfa9afec75385e2e	-0.05017031603727805
4	0xbf50ec857cd518e1	-0.0010329536047080578
5	0x3fc08451fb7eabf5	0.12903809337635122
6	0xbfb622175f8849cd	-0.08645769197781945
7	0xbfa30991cdc72d63	-0.037182384843243786
8	0xbfc5af8c2ba230d6	-0.16941978579087075
9	0xbf9d9115850fb3b1	-0.0288737642730898
10	0xbfc32fcc1aca74e5	-0.14989615734240327
11	0xbf98f3cb9cc1391a	-0.024367505495598164
12	0xbfc1a92f73491a32	-0.13797562722375428
13	0xbfb0dc988cce9a7d	-0.06586602628395073
14	0x3fb2745ae7f0a1a9	0.07208793795201153
15	0xbfaa87aabf3b6b5f	-0.05181630691887195
16	0x3fc0b4bff2a48fd9	0.1305160460261721
17	0xbfb41626b12f30f7	-0.0784629995898206
18	0xbfbbebb77e7bf1ab	-0.10906550252906892
19	0xbfb3b894c61d0648	-0.07703523480179186
20	0xbfc01bcb63aa708a	-0.1258482205056491
21	0xbfa0dd9444f97122	-0.03294051496479457
22	0x3f8b4b64f129d0f0	0.013327396974297717
23	0xbfa7f5ca868996c1	-0.04679711239149987
24	0xbfb99825a88e8ede	-0.09997783055456064
25	0xbfc2af7f041c845f	-0.14598071766616535
26	0xbfb0dfa5c1ac46c6	-0.06591258982032419
27	0xbfb3eda027c7fec5	-0.07784462901326623
28	0xbfbedb32ee3fc0a7	-0.12053221050860206
29	0xbfb5ee3817232563	-0.08566618504405236
30	0xbfadef728056702f	-0.05846746269818969
31	0x3fa8bece9b08c815	0.048330742287717644
32	0xbfc1d8a4010bcc24	-0.139423847685607
33	0x3fb76a9002fe9307	0.09146976540666794
34	0xbfc0475bb20c08b3	-0.12717767900182295
35	0xbfbd3ff52614a279	-0.11425716571523904
36	0x3fc13a40a81f9055	0.13459022721429173
37	0x3fa76dc91cab6f09	0.04575947260829422
38	0x3fa0f5a931f402cf	0.03312424406795388
39	0xbf8c5af7a047116f	-0.013845381335052946
40	0x3fb6564981d1f346	0.08725413722454531
41	0x3fa66e597ed0d8d9	0.0438106505684332
42	0xbfaa2e309e10916e	-0.05113365106106725
43	0xbfb019899a748277	-0.06288967152478074
44	0x3fbb219e81fc4c25	0.10598173783755323
45	0xbfa69cd48e2ee06b	-0.044165270191513915
46	0x3fc3b2ab596b542a	0.15389005533384764
47	0xbf887d4407b2ad84	-0.01195767544262228
48	0x3f9e561a167ed102	0.02962532770443805
49	0x3faad9eac65a4bfc	0.05244382544801593
50	0xbfb4e43c7c29f937	-0.08160760909411101
51	0xbfa54799a3150b54	-0.04156189075231134
52	0xbf60e80d5b8f51d4	-0.002063776101275597
53	0x3fc3e078cc5d44af	0.15528783777930275
54	0x3fc25d105e0cdf86	0.14346508590983492
55	0xbfcc8abc3586fb4a	-0.22298386205326387
56	0x3fc0b02055a2547b	0.1303749483237516
57	0x3fa9e4c1c4f25268	0.050573401728944145
58	0xbfb88d95bd31f5c4	-0.09591041440031406
59	0x3f9895eeaa303495	0.024009446275205255
60	0xbfbe01530d118913	-0.11720770901732562
61	0x3fc8019fbb89681b	0.18754955918376556
62	0x3fcc7a384bef78e5	0.22247985561165887
63	0xbfc27204afb177e9	-0.14410456255694662
64	0xbf70aa5ff72f8556	-0.004068732133391725
65	0x3fa64d252f2f9f81	0.04355732155801118
66	0x3facf604bf20e562	0.0565644725142629
67	0xbfc7984fbdb63707	-0.18433567775030488
68	0x3fc44d7af8c3d1eb	0.15861451288914394
69	0xbfb4e42a7b7b057c	-0.08160653605138707
70	0x3fb3dd40b9a040da	0.07759480029949675
71	0x3fcca5a5b5e787e2	0.22380515462924594
72	0x3fbc68785283677f	0.11096908583149732
73	0xbf9f1fdf957aa5ff	-0.0303950247750091
74	0xbfd110c3566b32ab	-0.26664813460665
75	0xbfbefeeb8e988ed4	-0.12107727271409924
76	0xbf8d5fb5b9e1c612	-0.014342708335081365
77	0x3fd28e0aaa605470	0.2899195350485746
78	0x3fb82864b2d45708	0.09436635366395418
79	0x3fd1b99bc445b562	0.2769536415788335
80	0xbfaee6ac17d6c1ec	-0.06035363951685099
81	0x3fb369246c5d25d0	0.07582309384920127
82	0x3fbe6610f5a22faa	0.11874490734970658
83	0x3f9c38d5e2e1c66e	0.027560560200475974
84	0x3fb0e85fc493cc98	0.0660457472729824
85	0xbfc1f38a7346d3e3	-0.14024477604621585
86	0x3fba4a09be516b3d	0.10269223114430033
87	0x3faf26c1a59d30d6	0.06084256312041851
88	0x3f69a9bc8037828e	0.0031326944024246467
89	0xbfc19dde47676e75	-0.13763025747799743
90	0xbfb849d6947163aa	-0.09487668155760667
91	0xbfc122588e6400dd	-0.13386065437953834
92	0x3fd2f536b9f1a3dd	0.2962166610582793
93	0xbfbbdfd7acc12620	-0.10888431518210284
94	0xbf90080c863ffb53	-0.01565570420643365
95	0x3fd1271cc45dfeb7	0.2680122296951412
96	0xbfd1629003f132ae	-0.27164078125933144
97	0x3fa5abb1b9e71870	0.04232554811783096
98	0x3fcaa3212f8f45eb	0.20810332128762296
99	0x3fc470cb0263e3b1	0.15969216934879918
100	0xbfc044832a57d40a	-0.12709083144696393
101	0x3faa93ac9525583a	0.05190791435840976
102	0x3fbf854922ef505d	0.12312752821827773
103	0x3faa6af3b44b77d3	0.05159722877372954
104	0xbfbe7bb311ee9201	-0.11907500446120169
105	0xbfafe4b1231ce948	-0.0622916560518712
106	0x3f943332a9757b53	0.019726554482413516
107	0x3f9c3d001320c9bc	0.027576447646603816
108	0xbfa93bd75ea8f15d	-0.04928467779652366
109	0x3fa8e83ed6c4cadf	0.04864689227760776
110	0xbf946bcd60c9ae2a	-0.01994248297925886
111	0xbfbb9abd186c8798	-0.10782987448013015
112	0xbfb380a40fb239db	-0.07618165381629842
113	0x3f53bd003814cf1d	0.0012047292842227227
114	0x3fbe07893f7a532b	0.1173024921393561
115	0xbfae0f7158cb7d1b	-0.058711568917482825
116	0x3fa0735e62a69a3b	0.03213019327386176
117	0x3fa0298b7c52f858	0.031566962171823476
118	0xbf68ef62222508c4	-0.003043834368470307
119	0xbf9e71791cb5c1c5	-0.029729740502661323
120	0x3fc37e5ea222cb2f	0.15229399601738566
121	0x3fa14fb623eea7f3	0.03381127537370778
122	0x3fb50557b2228410	0.08211277102465453
123	0xbfbefb01c4347e27	-0.12101756134188034
124	0x3fbf2c68bae80cdf	0.12177137911935486
125	0x3fbee852381296c4	0.12073243969879416
126	0xbfbc3940cf83a582	-0.11024861398950317
127	0x3fb257b65da475ec	0.07165088449661255
128	0x3f80aaeb186265b1	0.008138500863696803
129	0x3f89c63558908ef6	0.012585083737639984
130	0xbf9bd9b6a00bde91	-0.02719769813390244
131	0x3fae1dacd96d67e4	0.05882015375273378
132	0x3fbb91f71ad9d8ce	0.10769600301304935
133	0x3fa9651e88d70d28	0.0495996038476057
134	0x3fa7eb6c28e2e055	0.04671800612544589
135	0xbfb2f252a626da1b	-0.0740100532192191
136	0x3f94a2671d4c26ce	0.020150767481971248
137	0xbfbe69a9e539dfa9	-0.11879979940738274
138	0x3fb09ada4d5ca93e	0.06486286534042038
139	0xbfb732bb5c91915b	-0.09061785707451035
140	0xbf9345d7204b1c3b	-0.01882110724070805
141	0x3f9aee4d2cf51d96	0.026299672955500585
142	0x3fc7b3bcf7065dbc	0.18517267286072847
143	0x3fba6277cc1ccf33	0.10306500180450655
144	0x3fb2fed0ea7242d3	0.0742006847742787
145	0x3fb62bc6f8cdab77	0.08660548757840823
146	0xbfc5d1118768696e	-0.17044276344024517
147	0x3fb2c049d4201b61	0.07324658802836616
148	0xbfbfa89f52bbd4ab	-0.12366672296396312
149	0xbfc102c130f95f4d	-0.1328965653544806
150	0xbf75e2dc670f1012	-0.005343304584076962
151	0xbfb7ef9f6af4809e	-0.09350010262687866
152	0x3fa3748cf0c32590	0.037998585119178974
153	0xbfc26ca0ed645e29	-0.1439400824681212
154	0xbfc6320fc1a22367	-0.17340275721314954
155	0x3fc07138a4067966	0.1284552384285675
156	0x3fa12e5b6fe0f1d8	0.03355680218416851
157	0x3fb669d482e98ed4	0.08755233951665825
158	0xbfadc930be3bb4b1	-0.05817558595831807
159	0x3fb370f57b8e192e	0.07594236628037684
160	0xbfb4fac50bb10f06	-0.08195144210281677
161	0xbfbae0c2f6fe10ea	-0.10499208955849651
162	0x3fa8072112a17f99	0.04692939140727432
163	0xbfa06c8a9fea55a0	-0.03207810594646365
164	0xbfb7028330a301d1	-0.08988208711071556
165	0x3fa8756fdd221097	0.04777097296121829
166	0x3fad8de16638fd7a	0.057723087051722424
167	0xbfb5a1edc80c9281	-0.08450208791743742
168	0xbfbfb73e23ac46d9	-0.12388981219217089
169	0x3faf837186150d26	0.061549708955249735
170	0xbfa5ec0d514a4dbb	-0.04281655900299649
171	0xbfc5350e6b5a598f	-0.16568165056078185
172	0xbf8494714c3cda9c	-0.01004875673207311
173	0xbfbe053d068bbcf9	-0.11726743135271879
174	0xbfba249b0f99d918	-0.1021210587585738
175	0xbfb1d316d97130ba	-0.06962721642156824
176	0x3f9610bba4c545b6	0.02154820626430417
177	0xbfa89579b5364e5f	-0.048015406962033984
178	0x3fadbec4118efb6c	0.0580960532602067
179	0x3fa76cc6ac2abaf6	0.045751770512074616
180	0x3fc24a0a4b19d548	0.14288452784573225
181	0xbfc4b6217ff71203	-0.16180819271370703
182	0x3f78e5851fb976f5	0.006078262343718545
183	0xbf7e22768268fca2	-0.007357085158729822
184	0xbfb64c7a4e2b4cd7	-0.08710445793558406
185	0x3fb8d5945f3175d9	0.09700896572163432
186	0xbfaf17be8bd423e2	-0.060728029793672325
187	0x3fa671cd517e0efa	0.043836990545086565
188	0x3f7781dfe890b192	0.005739092485822177
189	0xbf890db425d55431	-0.01223316898782842
190	0xbfbb0d84a85221a9	-0.10567502126116914
191	0xbf808bcdb63bd42c	-0.008079154132682197
192	0x3f9693b065e5de66	0.022047764033656846
193	0x3fb6d20a4888fbea	0.08914245863796535
194	0x3fbb54d9cb8ed0d4	0.10676346988367708
195	0x3f9c78444f4be8bb	0.027802531566501126
196	0xbfa431a1b825a828	-0.03944115994347924
197	0xbfc3c7786e9d379f	-0.15452485467033925
198	0x3fc123403e2c5fad	0.13388827358062141
199	0xbfabc8c7883b5243	-0.05426620042786514
200	0x3fbb27f38f5845d2	0.10607836007718355
201	0x3fc42bb3c95edce3	0.15758368809267784
202	0x3fc3326f888946fe	0.1499766747170312
203	0x3fc50dedaaa08f01	0.16448756057172179
204	0x3fce4678b8f70a74	0.23652562171453761
205	0xbfbc7ac5e5c213f1	-0.11124836787537597
206	0xbfc93dfbe1090646	-0.19720409858750737
207	0xbfc244d7276c0c47	-0.14272584366708171
208	0x3fac0f0c5247a864	0.054802308124479976
209	0x3fb06840811d59eb	0.06409075882161346
210	0x3fbca70922bddca3	0.11192376230416072
211	0x3fb8c70a9d51c80d	0.0967871316986761
212	0x3fa74005abeb8471	0.04541032527573286
213	0xbfb3e92355f6674d	-0.07777615402883704
214	0xbf94e5d689496f90	-0.02040801251347052
215	0x3f985a6826c83a30	0.02378237473208794
216	0x3fcebe07ab0ad9ff	0.24017425395659583
217	0xbfb691d7e8fdcfaa	-0.08816289366023847
218	0xbfc10b624cc063fb	-0.13315991160996518
219	0x3fb3813080b2010a	0.07619002477622785
220	0x3f7583cfc81dcb39	0.00525265850761763
221	0x3f9ae7a9357acf64	0.026274341477530952
222	0xbfc3abff000a0d80	-0.15368640424649627
223	0x3fc2494c36591031	0.14286186841684548
224	0xbfad05021ea9e6b4	-0.056678835147022794
225	0x3fc1389b8d121782	0.13454002750603072
226	0xbfaac37607e43bfe	-0.052272499526331714
227	0x3fb7f6e0d61974f5	0.09361081339871531
228	0x3f92212a63cdd7a3	0.017704641667897324
229	0xbf91819337d312dd	-0.01709585216737507
230	0xbfd81430ce0c3f96	-0.3762323391138066
231	0x3f7aba5f0f4f497e	0.0065253937982155934
232	0xbfc3b09bd5155b23	-0.1538271704145809
233	0x3fb3ad88e95f710c	0.07686668107584554
234	0x3fb7f41a9f52d07a	0.09356848134740572
235	0xbfd04d683e514c87	-0.25472456060124
236	0xbfd1df072352de2f	-0.2792375416715655
237	0x3fbc9a0a9b5cc751	0.11172548573520415
238	0xbfc63c5a95f01e96	-0.17371685334386616
239	0x3fbdb704f7cec8e4	0.1160739045142552
240	0x3fa53654c39b2c6f	0.04143013847132059
241	0xbfb4f8272c7a302a	-0.08191151462432403
242	0x3fc000e6790db324	0.12502747450653218
243	0xbfaffcacd7af51bd	-0.06247463353034586
244	0xbfa788aabad9fe2d	-0.04596456080343745
245	0xbfba8362221d9d6c	-0.103567250565552
246	0xbfc36dfc4edf1e48	-0.151793993484022
247	0xbfa7c7797b76367e	-0.04644374496556923
248	0xbf960310a354d42c	-0.02149606701751254
249	0x3f8d07cdfb490ef7	0.014175042372819286
250	0x3f7ecad50629fb10	0.0075176545384454535
251	0xbfc0340ab0db070a	-0.12658818851019077
252	0xbfc2ba9f756ad7ca	-0.14632027848500534
253	0xbfbdc9de46c1d214	-0.11636151530712652
254	0xbf55530b3079aed4	-0.0013015374442159515
255	0xbfb4cf959eb6c014	-0.08129248738146116

fc_hidden_list.1.bias f8 [50]
0	0x3faaf9bd9baeb869	0.052686620001041025
1	0xbfbfe2dc2bdc70aa	-0.12455535956218236
2	0x3fc1e94de175ea78	0.13993237980669782
3	0xbf9a4ca84a5207d3	-0.025683049713286565
4	0x3fbc806d075868b0	0.11133462361650248
5	0x3fb886f16509069f	0.09580906597786985
6	0xbfa2166136e29407	-0.035326993894422336
7	0xbfb16fabce0d7c56	-0.06811021595557185
8	0x3fc3199a7a2736f4	0.14921885456572392
9	0x3f84493ec8cab85b	0.009905329230005025
10	0xbfc03d0000fb0312	-0.12686157272221316
11	0xbfa98e70247474a4	-0.049914841127454396
12	0xbfb3a7bfcc82d909	-0.07677839987704628
13	0x3fba0301dae6c9af	0.1016083869388129
14	0xbfc2362723127a48	-0.1422776147127982
15	0x3fa52e17015cbf33	0.04136726276044413
16	0xbfb9c3c901379f0b	-0.10064369468420524
17	0xbfafc457b23e4f0c	-0.062044849880434766
18	0xbfb30daf526b7530	-0.07442756426049324
19	0x3f9ef2aa776f8fed	0.030222571887762163
20	0x3facd5c55ae20d50	0.05631844267284214
21	0xbfc17feeb61ff260	-0.13671668904125323
22	0xbfc0b904f457110c	-0.1306463425700105
23	0x3fbd42e667f1ed0b	0.11430206334801
24	0x3fad72b7eda425b2	0.05751585746663625
25	0x3fba41e88c27b649	0.1025681821990584
26	0x3fc29edf01df75c0	0.1454733618874524
27	0x3fc03dd3bd35ae6d	0.12688681353334932
28	0xbfb995e66107c501	-0.09994354123024964
29	0xbfb1820754ab4579	-0.0683903295241829
30	0x3fb92c15619ff042	0.09832891114632594
31	0xbfb8d3fae9bfdf1f	-0.09698456007742749
32	0x3fa73ebb38fc7a73	0.04540047712929587
33	0xbfa4f56c403ac478	-0.04093492778827906
34	0x3fc43b95a2bd848a	0.15806837507537735
35	0xbfc2b4f1284b74e8	-0.1461469122649881
36	0xbfb7d3e3f7d36d3f	-0.093076942448012
37	0x3fb39213e47a1fbf	0.07644771888783362
38	0x3f931d33fd50dac0	0.018666088424846405
39	0x3fb2ff0188aaaaa3	0.07420358263577014
40	0x3fb72f3429f87ed0	0.09056402229952742
41	0x3fb4fc9900257e99	0.0819793343885017
42	0x3fbc564733879c4b	0.11069149978685393
43	0xbf88652b36717568	-0.011911714171385326
44	0xbfa3fefd985d9580	-0.039054798936187574
45	0x3fa4f58f1e824159	0.04093596694395058
46	0xbfb52d94ad75824a	-0.08272675738181437
47	0xbfc6d3b308bbbb0d	-0.17833555151397498
48	0x3fb695c3e03e2e99	0.0882227346866621
49	0xbf9f80d42ed8bb1e	-0.030764880523004405

fc_hidden_list.2.weight f8 [50, 50]
0	0xbfb8fff14b5ab1f1	-0.09765537347511334
1	0x3fabdc36268e97a0	0.05441445561090963
2	0x3fc2f586ede99398	0.14811789147202314
3	0xbfa5eedf64f8da05	-0.04283807857102676
4	0xbfc462790e76ba74	-0.15925515371550925
5	0x3f96b62238c77b35	0.022179159846810143
6	0x3fc0c98ee5df3b3a	0.13115106796473147
7	0xbfa3eb6dbc6849cd	-0.03890555310148933
8	0x3fc522aba440e4ae	0.1651205589312545
9	0xbfb2536b714ee40c	-0.07158538357079197
10	0xbf96c829f695c993	-0.022247939753876244
11	0xbfa293bf70f43cbb	-0.03628347638925208
12	0x3fc240b318dc4fbf	0.14259947503944478
13	0x3fc6e763896b8c58	0.17893642625776596
14	0x3fb0e13c5994c20c	0.06593682467497092
15	0xbfc117545de04658	-0.13352446159165043
16	0xbf84a4f67f0abf7b	-0.010080266716016464
17	0x3fb84402236e660a	0.09478772511501901
18	0x3f7082ae06c44948	0.004030875960113818
19	0x3f9b656a65c7036f	0.026754057371138836
20	0xbfbd22eea836879d	-0.11381427389872419
21	0xbfbc7ca1f87c36a3	-0.11127674404652992
22	0x3fb2bf09c0229d20	0.0732275098877051
23	0x3f8867ca2dba07ff	0.01191671325728194
24	0x3fae4491aa76f268	0.059116890009566714
25	0x3fb233bc54e8bffd	0.07110192368486419
26	0x3fba0be60661f390	0.101744057234056
27	0xbfbe1dd771a38aba	-0.11764284634004243
28	0xbfc4776a031b4c60	-0.15989422942820664
29	0x3fc1a1e7d082d0fb	0.1377534645195125
30	0x3f9a32f7029d381a	0.025585040602258947
31	0x3fabf6b301ca6104	0.05461654087884152
32	0x3fbc72c6881c066f	0.11112633536324677
33	0x3fa92ecbaac7eebb	0.049185146901405706
34	0x3fc95422be90084c	0.19788011841598274
35	0xbf9964f7a742d415	-0.024799222549251782
36	0xbfb397de9cb59bc7	-0.07653609586633002
37	0x3faeef91bc26e0cf	0.06042151853347521
38	0x3fbde8fc4348b8a2	0.11683632509877609
39	0xbfa40efc88108263	-0.03917683754867054
40	0xbf9a20f57e3dd672	-0.025516353445218028
41	0x3fb1f462d546b175	0.07013528544366017
42	0xbfc266c127a5a012	-0.14376081882369413
43	0x3f958d91a17db666	0.021047854882843352
44	0x3fbbb04e5d9a9dc7	0.10815896783116506
45	0x3fb401985d7069d8	0.07814934045055766
46	0x3fa9b9cb2b532767	0.05024561790339881
47	0xbfcf435ca2220636	-0.244243220488032
48	0x3fb95feaee005e58	0.09911983786184331
49	0x3f9e43c55a29163c	0.029555400493583614
50	0xbfa31d3e7cff5cf1	-0.037332489737019865
51	0x3f88a48298344639	0.01203252818098398
52	0x3fc1fa375f448bc3	0.14044849540468193
53	0xbfa16ea1743ea0cb	-0.03404717010499921
54	0xbf82272382fc1be7	-0.008863713679160013
55	0x3f734498685a11ab	0.004704089491160006
56	0x3f8456723b3ad48f	0.009930508072424153
57	0xbfc0980c185067f6	-0.12964011370860334
58	0x3f6282794c22043c	0.00225948038956905
59	0xbfa92256c40d8009	-0.04909011023733007
60	0x3fa25c5e3409466c	0.035860961772994
61	0xbfbd6c358e12bffb	-0.11493239134392745
62	0x3fca3e44eba22e30	0.20502530580084644
63	0x3fa5b5df5d0862d2	0.042403202158487155
64	0x3f97da950bdbe0c9	0.023294762467202888
65	0x3fa9beeeb4b1b61b	0.050284823949237466
66	0x3f9749871bedbf72	0.022741423682816238
67	0x3f95a004580be48b	0.021118228792123033
68	0xbfb025b4730bf88f	-0.06307533081778359
69	0xbfc25e0ec85f49de	-0.14349541457939002
70	0x3fbecc8ceaff7400	0.12030869233372243
71	0x3fc38e45d6044712	0.15277932119402543
72	0xbfb6b41a90e58ce3	-0.08868566548840166
73	0xbfb3f675a6320eb6	-0.07797942454822757
74	0xbfb2cba3fb947838	-0.07341980831230976
75	0xbfc2c851f95aa4f5	-0.1467382876919953
76	0xbfc10b7fc546a8c0	-0.13316342480294985
77	0x3fb3cde8e5404fdc	0.07736068341210917
78	0x3fa2985a74666dcd	0.0363186137285215
79	0x3fc0224cd0a2e1eb	0.12604675471608515
80	0xbf8670fc109b778e	-0.010957688576521265
81	0xbfa526e67fb277a6	-0.04131241139224011
82	0xbfb8c1155596fb06	-0.09669621791452351
83	0xbfb9672c44d92e13	-0.09923054390781542
84	0x3fb53c11210456aa	0.0829477983100683
85	0xbfbcde0350faab4b	-0.11276264884024305
86	0xbfb1594684fe5fbb	-0.0677684855166935
87	0xbfaea6e6abc3612e	-0.05986710402220506
88	0x3fbe3c18ab62afbd	0.1181044977590195
89	0xbfa93ec9bb424cd4	-0.04930715952755241
90	0xbfc5493ec7d1131a	-0.16629776722597783
91	0x3fc14824cf458e0c	0.13501415367782987
92	0x3fc1a79f73caa0a9	0.13792794374353903
93	0xbfc4d587800231bc	-0.1627663970033505
94	0xbfa3243061a4e66c	-0.037385475081873704
95	0xbfa8233c94e2dbbd	-0.04714383428056788
96	0x3fb1a03e2bb6fae5	0.06885136191611314
97	0xbfc3133b82d15609	-0.14902442824920595
98	0xbf4ee408d1f53425	-0.0009427111689689389
99	0xbfc12675efa99139	-0.1339862270571162
100	0x3f98ca35c306b621	0.024208869961219407
101	0x3fc356dc5bd5773b	0.15108828052592024
102	0xbfa758fdbfdd592a	-0.04560082404229811
103	0x3fbdfd81a288b440	0.11714945047488445
104	0x3fae3b6b560a1a27	0.05904708314215084
105	0x3fb45415282a6225	0.07940799933056349
106	0xbfb2d779f6d9966e	-0.07360040928468845
107	0x3fa077d38b2d00c4	0.03216420244143728
108	0xbfc13508e43b818b	-0.13443099159395575
109	0x3fb58dd88e4ee8db	0.08419564699480324
110	0x3f8f4d082e008422	0.015283645538206218
111	0xbfc7abfdb434986d	-0.18493624972433356
112	0xbf9be6382728945f	-0.027245404615446108
113	0x3fab7d35bae8a8e1	0.05368965059854403
114	0x3fc194fd82a42e0c	0.13735932234736514
115	0x3f727239b528c221	0.004503465099830823
116	0x3fadcf77cdc9f4fa	0.058223480101313244
117	0x3f9812021b05fd53	0.023506195926072348
118	0x3fb435b512805989	0.07894450856870185
119	0xbf8e1cc002b3b794	-0.01470327385183249
120	0xbfc26081638dd9fc	-0.14357011185684587
121	0xbfa565330a82c57c	-0.0417877149897192
122	0x3f92b4c0eea1cd1e	0.01826764542097436
123	0xbf857611d7b201fe	-0.010479106326102713
124	0x3fc182abd3f6b421	0.1368002686480461
125	0x3faa300a1cd3651c	0.051147762316484185
126	0x3fa999903e92ed7f	0.04999972118227002
127	0x3fbc2c0cefc33c76	0.1100471577985774
128	0x3fc01ac5da1c8e18	0.12581704282739348
129	0xbfb9c459b903b7e1	-0.10065232054668584
130	0x3fb8070cf4524fd7	0.09385758366471407
131	0x3faba3aabf436506	0.05398305496937365
132	0xbfb823a9d0dd8d98	-0.09429417943242979
133	0xbfbbde888b5030ac	-0.10886433983995641
134	0x3fb99695a5974f1b	0.09995398800611748
135	0xbfbe40cdda1d2ab8	-0.11817633223578639
136	0xbfc191997d41e548	-0.13725584617695064
137	0xbfae6d31f8b28b3b	-0.05942684326989541
138	0x3fc1859e14bf3254	0.13689018261938435
139	0xbfaaf2c02bbc85cb	-0.05263329061404994
140	0x3fba48503dd0c929	0.10266591557664086
141	0x3fc13e34e7656e88	0.1347108964790673
142	0x3fc0f3a6c2baedbc	0.1324356509047514
143	0x3f9c1a1f8d4b8ec2	0.027443402289363268
144	0xbf966ddce3db6707	-0.02190346852044114
145	0x3fa67f901bc3206c	0.043941977871839594
146	0xbfa43b422b5a8f2d	-0.03951460627766177
147	0x3f94ed7255567e14	0.020437036951646517
148	0x3f70a58b9f408de9	0.004064126394982528
149	0xbfba1205b36699eb	-0.10183749799634938
150	0x3fb39781db1522c0	0.07653056715674733
151	0xbf77cd44fc4f319c	-0.00581099460118786
152	0xbfc0ff11ecd743a0	-0.1327841192674244
153	0xbf8343ef0c82a43c	-0.009406917161259291
154	0x3fa7e18cde30a189	0.04664268696098179
155	0x3f70943e29034b48	0.0040476253636424
156	0xbf9f04e2b2e70cc7	-0.03029207436499062
157	0x3fc0f6ef220e2382	0.13253583109715456
158	0x3fb65a620fb0be67	0.08731663592402016
159	0xbfb578acf1d631bb	-0.08387261299339503
160	0xbfc3f36dcdd0e65f	-0.15586636113748661
161	0xbf9001617b23f350	-0.015630267277617904
162	0x3fa16d1f0ca8b28f	0.03403565434959887
163	0x3fb07242443aa7ef	0.06424345174551126
164	0xbf95a1751fdc6b43	-0.02112372405018027
165	0xbfc74a2068013358	-0.1819496639094733
166	0xbfa71e1d4b725f0c	-0.045151629886445915
167	0x3fc0079c0bc4578c	0.12523222517546306
168	0xbf923e798c344f3b	-0.017816447431939535
169	0xbf72eb3f9f3b6e65	-0.004618881724777067
170	0xbf86a747e83b1467	-0.011061250471707319
171	0xbfcbaff415e34e59	-0.2163071734308797
172	0xbfb130c211dc4c4f	-0.0671502393345673
173	0xbfb9af079af77bb0	-0.10032699139945467
174	0xbfbe86355c9aae7a	-0.11923535834164936
175	0xbfc1c0b862c57a8d	-0.1386938555032952
176	0xbfb03e938551e681	-0.06345483784562057
177	0xbfc031c9d3c26937	-0.12651942100348787
178	0xbf9511209878f52a	-0.020573148065740877
179	0xbfb94e1a28f211db	-0.09884799480102606
180	0x3fb91c8f28ce47b4	0.09809202905878928
181	0xbfb99eb33253b43c	-0.10007781962095036
182	0xbfb0029104e15e16	-0.06253916138791057
183	0x3fc1ed1589bbc53b	0.14004773354785435
184	0x3f95f1f79dab5fcb	0.02143084430539925
185	0x3fb8d86c0422949f	0.09705233670190914
186	0x3fc5a64ac3f058b6	0.16913733069731557
187	0x3fbe096b82562bf5	0.11733123714490985
188	0xbfbe8596b3f80d86	-0.11922590154431675
189	0x3fb03ed8ace113b0	0.06345895977672344
190	0x3fbc23f82a84cb08	0.10992384946875344
191	0xbfa6327fefd26666	-0.043354032540446494
192	0xbfc35b9d6a46b01a	-0.15123336495651146
193	0x3fb129b63c89326c	0.06704272249153015
194	0x3fa9fbdaa35de607	0.05074961895202184
195	0x3f93d48b33c5a498	0.019365477595247954
196	0xbfa5942781b3d081	-0.04214595278054479
197	0x3fbdbef7d961019d	0.11619519288161091
198	0xbf9659b2f5de3f2b	-0.021826549774743114
199	0x3fb6338fd72dc910	0.08672427180662035
200	0x3fa66a34753c71b2	0.04377902918915612
201	0x3fc3bfac7d02603c	0.1542869196316604
202	0xbfcc5df2fa1a9d8f	-0.22161709987743136
203	0x3fb954c9cb14a531	0.09895001609824729
204	0x3fb055b7eefbdc1c	0.06380796036306474
205	0x3f7e9016754255e2	0.007461631514293883
206	0xbf48cc63963409a8	-0.0007567869437539636
207	0x3fc3bf6f015c24ff	0.15427959028628632
208	0x3fb753537d9b756b	0.09111520592292315
209	0xbfacc8347e4beca4	-0.05621494332987112
210	0xbfb4e374a8dea22e	-0.08159569857401358
211	0x3fb72a8b099dad05	0.09049290642512993
212	0xbfc4efaa29da07f6	-0.16356398623980767
213	0xbfc674ce7e3b160a	-0.17543965495694663
214	0xbfa7f679be74738c	-0.0468023343075635
215	0xbf9c1959afeffe32	-0.027440453875895617
216	0xbfc45a25a5547ebd	-0.15900106976277142
217	0x3f8114f5b312d9f6	0.008340758826631305
218	0xbfb9489ed21d20a0	-0.09876434926730093
219	0xbf86a99820ae6d75	-0.011065662858348738
220	0xbf7ce56408fa7203	-0.00705470157813837
221	0xbfbb28a793b933f6	-0.10608908993272323
222	0x3fb0ce7ce31563fb	0.06565075439483785
223	0xbf8a2a0c6085f2e9	-0.012775513358741235
224	0x3fc1296aa5b69564	0.13407643405404734
225	0x3f9125f069e8f85c	0.016746288742290324
226	0xbfa75198bb1ade1e	-0.04554440769191735
227	0xbfb6059ff7de7e35	-0.08602332879535697
228	0x3fbd600edfe7dd01	0.11474698034713883
229	0xbfcb09eac2ed51df	-0.21124014394685184
230	0x3fc05b973365dd6a	0.127795124146114
231	0xbfc7cd6f846526a7	-0.18595689739804763
232	0x3fc5f83af86a55ba	0.1716378891912152
233	0x3f9e6ee807f818ec	0.029719949232480156
234	0xbfbafd96c787bae3	-0.10543196078627264
235	0x3fbc5ad618ef2380	0.11076105221503774
236	0x3fbe981485e8b986	0.119508059208533
237	0xbfd331f0a128a453	-0.29992309320602323
238	0xbfa224fbb09c32ce	-0.03543840914617179
239	0x3f822ba58979d330	0.008872311838084096
240	0x3fbc1c035172ab28	0.10980244387125693
241	0xbfc1ecc624da9703	-0.1400382690382501
242	0x3fc0142f6682909a	0.12561600213405627
243	0xbfc028fe70bca917	-0.12625103478178154
244	0xbfaf53a3f28ccbcc	-0.06118500076117747
245	0xbfc8dc80a7d84cd8	-0.1942292041354452
246	0x3f9e0314ffe96b89	0.02930863201104786
247	0xbfba127c28263cb4	-0.10184455852707935
248	0xbfc088398de60732	-0.1291572516311646
249	0x3fba15de8d427440	0.10189619969101305
250	0x3fb8aeef54774ebc	0.09641929447325998
251	0xbfbd4f9964471625	-0.1144958371943053
252	0xbfc7b1a48daf52d7	-0.1851087276287646
253	0xbf9eb4b121403d04	-0.02998615994880273
254	0x3fa736d0381b47f0	0.04534006771940813
255	0x3fbf18308601a586	0.12146285316125302

fc_hidden_list.2.bias f8 [50]
0	0xbfbf2aad53f7335b	-0.12174495029394221
1	0x3fb6d9afea3ca134	0.0892591425769112
2	0x3fb207d524c3725a	0.07043201587243555
3	0x3fa0ad80565c099c	0.03257371000474338
4	0xbfbef9fd7c8fb60d	-0.121002047453395
5	0x3facb99c816b7f56	0.05610360221703441
6	0x3fb8afcf6443fb73	0.09643264959229984
7	0x3fbe2645c395c86a	0.11777149224306674
8	0x3fc0bacd1ef7243a	0.13070072185499432
9	0xbfc4403dcd43ae46	-0.15821049235033707
10	0x3fa5b96baab39c6b	0.042430271709059074
11	0xbfbb8c10ff27b836	-0.10760599355100528
12	0xbf846b8d546493b1	-0.009970764291731134
13	0xbf73e9295bbe00e3	-0.0048610320626496254
14	0x3fb337aa82cf3745	0.07506814664449475
15	0xbf9ca7a3ace18605	-0.02798324339562976
16	0xbfbdc9cadf789452	-0.11636035877070697
17	0xbfb21c9b1dee3c9e	-0.07074899178245395
18	0xbfbba2ca66ac3273	-0.1079527378717076
19	0x3fb6388cbde23c49	0.08680038104852018
20	0x3fc47716354d265d	0.15988423922162812
21	0x3facc9fb04703a01	0.05622848920039659
22	0x3f44cb5e83977746	0.0006345950598036574
23	0x3fbc8958700030e9	0.11147072538750859
24	0xbfb7640d9eb34f9c	-0.09137044071695616
25	0x3fb9624cef837875	0.09915619704722352
26	0x3f75c53f5780b5bb	0.005315062931953769
27	0x3fc079de09f89abe	0.12871909605856574
28	0x3fa6ad7c5c9abd05	0.04429234152245879
29	0xbfa1edc59d679474	-0.035017180885724836
30	0xbfb25d67b632b59b	-0.07173774908252144
31	0x3f88c4dc3cda642e	0.01209423123082062
32	0x3fbbec5389ce6c3f	0.10907480348980501
33	0xbfc00fba7344b1f7	-0.12547999027573528
34	0xbfbd85407f9f0caf	-0.11531451335672459
35	0xbfc178d8c1959d77	-0.1365004487263197
36	0xbf9a2b192bdc7fda	-0.025555032064516904
37	0xbfc2d0d07d57581d	-0.14699751014876564
38	0x3f84890127ad761a	0.010026940368045568
39	0xbf93f8bdf94748ae	-0.019503563251256288
40	0xbf8149f69e33d6aa	-0.008441855147320727
41	0xbf8f5c7277755689	-0.015313047667102413
42	0xbfb2c0ded87ef642	-0.07325547013803038
43	0x3f9ed644447c3989	0.03011423748017131
44	0xbfb74242d9d78e6e	-0.09085481470497722
45	0x3fb780ea09632fb6	0.09181082467256271
46	0xbf60a0fe655ccffc	-0.002029892794690012
47	0xbfa09dcc6fd21331	-0.0324539076328051
48	0xbfb78ce2c0280e84	-0.09199349585838418
49	0xbfb132205943eb97	-0.06717111758545823
