savedModel/poisson2d_inverse_tanh/noise_0.01/ParticleWNN_3/trained_model_final.pth (torch, 131953 bytes, 20 tensors)

fc_in.weight f8 [50, 2]
0	0x3f8230fcfe1063fe	0.008882500174921756
1	0x3fe56723c53ffdc3	0.6688402988947292
2	0x3fc10fc91c0e0606	0.1332942378030994
3	0x3fd4da4df09e72fc	0.3258242463869434
4	0x3fe3d1d5eb77688c	0.6193647002176177
5	0xbfe8a77a6bfc4090	-0.770444117459208
6	0xbfdfa0d1d2323c17	-0.49419065024352576
7	0x3fdf4139ab519246	0.488356034568174
8	0xbfe27c9edb5f0b9c	-0.5777124676318297
9	0x3fe64cd0f8f17383	0.6968769895716921
10	0x3fc2965403766d32	0.14521265191147276
11	0x3fe7fd6db5297c13	0.7496861017533568
12	0x3fe7ec5ecc2d46b9	0.7476037967519097
13	0x3fb58a8477d476c6	0.08414485860381679
14	0xbfdbc0a3aa535241	-0.4336327708563524
15	0xbfda5b87e2d267db	-0.411836596971282
16	0x3fd828de0f1c0037	0.3774943492462656
17	0x3fcd718d50898234	0.23002783234098134
18	0xbfe6c950684a8960	-0.7120744740425771
19	0xbfd60294ab192931	-0.3439075156099021
20	0x3fe8a63c801ae2e7	0.7702925207186951
21	0x3fa01e35b75f15c3	0.0314804827062676
22	0xbfb4911060ffe2f0	-0.08033850067284809
23	0xbfdaaa1cf3061471	-0.41663287861621884
24	0xbfe7a7cf45d5f492	-0.7392345775584934
25	0xbfe6f949d980d695	-0.7179307220564676
26	0x3fe8c20d39a27fc9	0.7736879468611672
27	0xbfe2bc0a62aa8926	-0.5854541709016174
28	0xbfc3ec031b9db306	-0.15564001892507678
29	0x3fe218a80897ba6d	0.5655098121477075
30	0x3fd33850a923e984	0.30031219976049095
31	0xbfe6610cbb795db5	-0.6993468915560955
32	0xbfe1cbf60aaa038d	-0.5561475952418832
33	0x3fe57c2ddb79a4f8	0.6714085852264864
34	0xbfec48f0fa7ce37c	-0.8839039699879403
35	0x3fc488525c7802fd	0.16041020884588156
36	0xbfe51d99e14c506a	-0.6598634147981219
37	0xbfd8d0c5df3593fc	-0.387742488839933
38	0xbfcea92071946f40	-0.239536338290117
39	0xbfdf7f57b2d1e957	-0.49214737379920365
40	0xbfc3e5fcf53f5811	-0.15545618033382927
41	0x3fe380456531983c	0.6094080902519248
42	0x3fe2d406492af621	0.5883819035586307
43	0x3fda912021123fc4	0.415107757850816
44	0xbfcd855e033a45ec	-0.23063254506682485
45	0x3fe04ab04214e6bf	0.509117249551501
46	0xbfe728f8e72ab9bd	-0.7237514986971331
47	0xbfc3558d869be5d7	-0.15104836533264063
48	0x3f949b833da643d3	0.020124483716759855
49	0x3fd706acc6e14f6b	0.35978240415464907
50	0x3fe0ba1758a1263b	0.5227162104649276
51	0xbfd1c276db41f243	-0.2774941579043892
52	0x3fc4ffa084377718	0.16405111747638368
53	0x3fe7e25f62370b38	0.7463833730947504
54	0x3fc125446f795582	0.13394980853142263
55	0x3fd01bdd4f1272be	0.25170071336632904
56	0xbfeb7df840dc90ac	-0.8591271654918464
57	0xbfc00cf7538e3be6	-0.125395694540628
58	0x3fec714f23cdeebd	0.8888316821389349
59	0xbfe6a8cfae18fe57	-0.7081068420738558
60	0x3fe3952ca777d006	0.6119597693309522
61	0x3fd812574e18f8c0	0.3761194479628891
62	0xbfe455ea1f37a2b5	-0.6354876146043212
63	0xbfb5a7837df8b1a5	-0.08458730531191934
64	0xbfe6ddfba9b0fab2	-0.7145975412639329
65	0x3fca5bc7a3abd6f1	0.20592589847335988
66	0xbfdc9d54ead3bd1e	-0.44710276539167804
67	0x3fdaabb762a864b3	0.41673073420094936
68	0x3fdb3c0e6167256a	0.42554053794864066
69	0x3fddeba842917ec2	0.46750837803663725
70	0x3fd57e3b6932e982	0.3358295943577546
71	0xbfc4b5c1a03fb463	-0.16179676365519233
72	0x3fe47f896e8031c7	0.6405684622018776
73	0xbfb142464e7232de	-0.0674175206679126
74	0xbfdb99edb4fe3705	-0.431270052672389
75	0xbfb01caee6e85eba	-0.06293767106432827
76	0x3fea19ea37402355	0.8156634406196682
77	0xbfd318048878698e	-0.29834092452224403
78	0xbfd91e8f4ca1cedf	-0.3924902199134816
79	0x3fd0d2ae510ee1bc	0.2628589431365318
80	0xbfd6f05e381fb9e0	-0.3584209011159185
81	0x3fd6f0db1063a5a5	0.3584506664324983
82	0x3fd3ac3e89ef821b	0.30738795728942286
83	0x3fdf07bd8a182180	0.48484743581550305
84	0xbfdb80792c1500e1	-0.4297163897026746
85	0xbfd3327f80f01aea	-0.29995715705483283
86	0xbfe750c15b2ef469	-0.7286078244138824
87	0xbfd071bdc64ff303	-0.2569422184604237
88	0x3fa123c643a28be4	0.03347606254217064
89	0x3fc6a02663ee388d	0.17676238898679167
90	0xbfe1b9baab081448	-0.5539220180950304
91	0x3fa89cd8c36b4f0d	0.04807164559829689
92	0xbfe6749609ace138	-0.7017316998454026
93	0x3fe241fc84701143	0.5705549799609247
94	0xbfda43bcb122d5be	-0.41038434313244554
95	0x3fdb24b53ce5758b	0.4241154761019394
96	0x3fc7b63d57dd0f68	0.18524901190005072
97	0x3fee6fc3bdb2ffc9	0.9511431412756731
98	0xbfd8fcb36d31275c	-0.3904236379936401
99	0xbfe0ee36364d5c6e	-0.5290785847272568

fc_in.bias f8 [50]
0	0x3f98d0630a8c3c51	0.024232432860170686
1	0x3fe2cf08cb9b2ffd	0.5877727486308683
2	0x3fe216901e5c097c	0.5652542679747934
3	0x3fd80f2d26566c7f	0.3759262918844754
4	0x3fe40440afd5b12c	0.6255191263458406
5	0x3fc73319094fc8de	0.18124688105269277
6	0x3fe002774b058f7b	0.5003010239856701
7	0x3fd277888180dc86	0.28854572912991505
8	0x3fdabe25b8c6374c	0.4178556732593861
9	0x3fdbf62125ef3919	0.43689755157983395
10	0x3fe678044aa3e3b3	0.7021504838768265
11	0xbfdb57017b30c652	-0.42718541174244706
12	0xbfb98484990c6e84	-0.0996783136037554
13	0xbfe629614b081d74	-0.6925512757742767
14	0xbfc2219eb8137d96	-0.14165100086300403
15	0xbfdba6b8d8b1ba92	-0.4320509067683044
16	0xbfdfe040a648eae1	-0.4980622886538822
17	0xbfe44351e0035422	-0.633217752004047
18	0x3fc5f3938ab736b3	0.17149585984446034
19	0xbfc9cbe1183be703	-0.20153440173435663
20	0x3fcc7e6d50993c82	0.22260824618794933
21	0x3fb38e4e4f4b094a	0.07639016567103343
22	0x3fd4591ffd24eca8	0.31793975564114385
23	0xbfd0154421ca375f	-0.25129798221393246
24	0xbfe6ef89a70f403d	-0.7167404425508789
25	0x3fe32aa3d364ced9	0.5989550713333883
26	0xbf9fd57f93f08db7	-0.031087869076271448
27	0x3fe6406b05d16fed	0.6953635324130097
28	0x3fdba5203b9fe875	0.4319534857055552
29	0x3fc5443a6ad9b8ed	0.16614465920742508
30	0xbfcdeaa88e9aaf1d	-0.23372370684716595
31	0xbfb8939b6dfb73c1	-0.09600230631936225
32	0x3fd651806aea0574	0.34872446480593244
33	0x3fdbf0c6cce66b5e	0.43657083520672824
34	0xbfe283aeb7d57215	-0.578574523020111
35	0x3fd65dff3610a59f	0.3494871166209012
36	0x3fc1ec8ae4617b24	0.14003120566754845
37	0xbfe03d903f8c2ab6	-0.5075150719797736
38	0xbfe0552ecd21cd5b	-0.5103982931599761
39	0xbfb45dc93fde23f5	-0.07955606278677847
40	0xbfd141edea122da9	-0.269649008355112
41	0xbfd570135c04f692	-0.3349655531527357
42	0xbfe6766127befc1f	-0.7019506241121042
43	0x3fdbf60542815582	0.43689090246819984
44	0x3fe001deab525e74	0.5002282472732547
45	0x3fcfc7726c0c50d8	0.24827413821970512
46	0xbfd6dc75d89aec41	-0.3572058310780371
47	0x3fe38f19cec1572f	0.6112183607280935
48	0xbfea1373361fe5ec	-0.8148742730256209
49	0xbfe5301c12cfbcaa	-0.6621227614795278

fc_out.weight f8 [1, 50]
0	0x3fb0d58b5479f37d	0.06575842678462425
1	0xbfc15e6138b86d09	-0.1356927420573373
2	0x3f8b6ec38214f907	0.013394858748708062
3	0x3fbc6410def3f1da	0.11090188449083574
4	0x3fbb1914893de7fb	0.10585144377355953
5	0xbfb4031d7055ac61	-0.07817253105683754
6	0x3fbf56382f59d561	0.12240935474422578
7	0xbfcbf5f38596b98a	-0.2184433367051038
8	0x3fc6472982f2086a	0.17404669660396915
9	0x3faffa58a78f3c79	0.062456865743677654
10	0xbfbd3fec4f211405	-0.11425663883080979
11	0x3fbba9bde7e5b45f	0.10805880462221883
12	0xbfc30aa56c7d020e	-0.14876239583283318
13	0x3fc0bc9b3e06e5d7	0.13075581101092723
14	0xbfc7e8f47bf82f03	-0.18679672291943214
15	0xbfb428db9944ff49	-0.07874844066554688
16	0x3fbf8549aec3f088	0.1231275607751191
17	0x3fb48fd6695faeef	0.0803197867641605
18	0xbfc3dd98277b2d2e	-0.15520002296248364
19	0xbfb99a265dd5f096	-0.10000839033995343
20	0xbfbed6043d8ff88a	-0.1204531336115641
21	0x3fc108aef464016c	0.13307749684464498
22	0xbfb569269c88ceca	-0.08363572427407032
23	0x3f925c28fc65b47e	0.017929687886340855
24	0xbfbca1efc7488106	-0.11184595694840391
25	0xbfc08d57164aefa7	-0.1293133601046723
26	0xbfc3780dd4fadd25	-0.15210125827227575
27	0xbfb3ea8ac8225e7a	-0.0777975786789912
28	0x3fc05e4a5c580a66	0.12787751683216014
29	0x3fb2091b7ab400c3	0.07045146699602171
30	0x3fb56f8ff786e7d1	0.08373355668200523
31	0xbfc1d55ac747c751	-0.13932356577384522
32	0x3fbecc0b22959259	0.12030095667211906
33	0xbfba43a4ca0e3483	-0.10259466107364017
34	0x3fcc4af487770a1c	0.22103745092870575
35	0x3fc1c63ee16eb035	0.13886247641983265
36	0xbfa56ec97dce7af9	-0.04186086331104905
37	0x3fbdd5ed93cd4e99	0.11654553278395453
38	0x3fbf3f5233bd6ff4	0.12205995333846414
39	0x3fc29266e185719b	0.14509283077030663
40	0x3fb9f3f0ae6e2e22	0.1013784814696739
41	0xbfb7733e410bb1e1	-0.0916022213747918
42	0xbfac1a9eb79a4400	-0.054890594398905534
43	0xbfbd05d6a4874f33	-0.11337033764658315
44	0x3fc05b4bb2ddb11f	0.12778612359705563
45	0xbf45ab66cdf3d4a6	-0.0006613018012148377
46	0xbfbc566b670e9704	-0.1106936575511917
47	0xbfb6a73c1870c3cb	-0.08848929974261847
48	0x3fb0351dc6a77f78	0.0633104906078169
49	0xbfc828427552b14f	-0.18872862557089795

fc_out.bias f8 [1]
0	0xbfb31062222aad96	-0.07446873983524535

fc_hidden_list.0.weight f8 [50, 50]
0	0x3fa291460d4fba82	0.03626459991925392
1	0x3fa888c5a5e45ddc	0.0479184880261376
2	0xbfbeadf3777ce50e	-0.11984178225693062
3	0x3fb60d6b4e2b0b3e	0.08614226015474188
4	0xbfb652870e7d0786	-0.08719677070351226
5	0x3fb5a3d96af5fa2f	0.08453139172886702
6	0x3fb8a9e408ebe873	0.09634232728777352
7	0x3fb61593bce878e2	0.08626674043668772
8	0x3fba668e511c8740	0.1031273792291616
9	0x3fc0f04075ba54c9	0.13233190296583633
10	0x3fbf1567dad4c3ca	0.12142037479931314
11	0xbfb230ec59de1ea0	-0.0710590094951109
12	0xbfbf1129843bdcca	-0.12135562399258784
13	0xbf84408513e55ac7	-0.009888686818766769
14	0x3f8189b1831fe265	0.00856341058168759
15	0x3fb389f0f77a9fa7	0.07632356683700313
16	0x3fb751a9e90a650e	0.09108983935802348
17	0xbf97d96e79c1fb7d	-0.023290373021605405
18	0x3fb75151784f2c7d	0.09108456790197468
19	0xbfc05a68c46bcfa7	-0.12775907126308292
20	0x3fa01f4b57e5c5a9	0.031488756637269084
21	0xbfbd72e4ef34aa8d	-0.11503439750655726
22	0xbf8f01a39ef0f9c1	-0.015139845169071077
23	0x3fac5a7c8d1c3ccb	0.05537785742318987
24	0xbf9674dda2d096dd	-0.021930182516505126
25	0xbfbdf5ffaf323f3f	-0.1170348932957923
26	0x3fc080f0a57b77ab	0.12893493728819058
27	0xbf96eede8ee3d429	-0.022395589324293894
28	0x3f90e2683c6380f0	0.01648867481787958
29	0xbfb37a506ed88799	-0.07608511644551043
30	0xbfa9a6761dea11c4	-0.05009812464871602
31	0xbfb4d47679317fbd	-0.08136692484686044
32	0xbfaa7f48f1cd2ae0	-0.05175235702207259
33	0x3fb1140ee6047202	0.06671231380136791
34	0xbfabcb00556a9d08	-0.05428315203362827
35	0x3f9fb636cbf36a02	0.03096852893654934
36	0xbfb1ba396d13db09	-0.06924780762697592
37	0xbfab3a8a844fbc1c	-0.05318100800638367
38	0x3f8aa9f2e8530d2d	0.013019464220980293
39	0xbfa02e63723b638a	-0.03160391587670748
40	0xbfaef6dccfb41444	-0.06047716174547493
41	0xbfbe0ed72920ec32	-0.11741394762150106
42	0x3fb23d0b98c302ab	0.07124397735152381
43	0xbf89d6f9aa6587cd	-0.012617064011184365
44	0xbfbaa73388c962e4	-0.10411378945844835
45	0x3fb56c9355a83f39	0.08368798104515641
46	0xbfa01a81d3f38272	-0.03145223343176874
47	0x3fb1f5da77e76abc	0.0701576750501926
48	0xbfbb2b86e3028612	-0.10613291780693881
49	0xbfa02df594140704	-0.031600641561466275
50	0xbfac563b9b3e2e0b	-0.05534540433935938
51	0xbfa1ddd6156c9bfe	-0.03489560138250879
52	0x3fc22397e4e7e0c8	0.1417112224296544
53	0xbf9ba6b1af3d92aa	-0.02700307495196578
54	0x3fbebe673171f6b0	0.12009282071263772
55	0x3fb97955bae5a901	0.09950767338674284
56	0x3fb9f00fb6d21f43	0.10131929601095373
57	0xbfb8408b2e9abecb	-0.0947348583965734
58	0x3fb2b6449666020d	0.07309368774259202
59	0x3f6975395ac4a36f	0.003107654591208257
60	0x3fb21ce4d032ef59	0.07075338442785774
61	0x3fb96d695ef7a723	0.0993257386068334
62	0xbfc0dcb980d8f9f3	-0.13173598090538938
63	0xbfb5adebe5d11423	-0.08468508110770805
64	0x3f9e35982b0ab0d2	0.029501321436939794
65	0xbfa02c6efc901bda	-0.03158900101703184
66	0xbf8d6c4e0857baae	-0.014366731290434611
67	0xbfaec3ee649d7181	-0.06008858659945116
68	0xbfc33187cdaabad5	-0.14994905035333397
69	0x3fa8ad3bd20eaabb	0.04819666804481445
70	0x3fa8d19eda3b25b1	0.04847427762940571
71	0xbfa67349ac2b0cba	-0.04384832598364015
72	0xbfa0544db6ffea2b	-0.031893185223413965
73	0xbfb877d47350b528	-0.09557845893205708
74	0xbfb053e08f23016e	-0.06377986425923662
75	0x3f960a4ce822ed80	0.02152366797302596
76	0x3f8635d84c58b099	0.01084488852492198
77	0x3fb8945407b4be95	0.09601330936561177
78	0xbfbd9eb49c3a75b5	-0.11570290388268385
79	0xbfba7ebf38955a75	-0.10349650508337922
80	0xbfa9dc05b0c07aea	-0.05050676138511341
81	0xbfa57688e3a452d0	-0.04191997317153595
82	0xbfa2642f83129d5d	-0.03592060542114937
83	0x3fb9411921822ef2	0.09864956920699422
84	0x3fb827f8a090f2e8	0.094359912110075
85	0x3f8c56cdc19c5ba1	0.01383743998625936
86	0x3fb24b3a71a1d96a	0.07146039270614826
87	0x3fc05c6bc9600a7f	0.12782046635409824
88	0x3fbc78f4820bc4cd	0.11122062849951249
89	0x3fac208c9a7c75c4	0.054935830934691704
90	0x3f9159d4164335c5	0.016944230898664054
91	0x3fc3ebc99491068f	0.1556331611082453
92	0x3fbf9b91b7375696	0.12346754763651754
93	0xbfc3d0a6e7a9df50	-0.15480505286881874
94	0xbfb531ceb4324d54	-0.08279125117615155
95	0x3fb7286ff75579cb	0.0904607752649788
96	0xbf81b68f59c29172	-0.008648986746557983
97	0xbfbe52bae405e882	-0.11844986025781348
98	0x3fb5e972a9397483	0.0855933821817008
99	0xbfa3013f8d0d05f1	-0.03711889836132432
100	0xbfc03baa5e831886	-0.1268208466992215
101	0x3fcabf7c3f8b6584	0.20896866896400124
102	0x3fa96abe58a9ab3f	0.04964251358327098
103	0xbfbf164a4e5aba02	-0.12143387234639394
104	0xbfbe369c038248ec	-0.11802077375094527
105	0x3fa82fff0ccf8321	0.04724118262652711
106	0x3fc9e48b5acb61a6	0.2022871201832121
107	0x3fc4d0a10e657c4c	0.1626168556494768
108	0x3fbe8026ee234dcf	0.1191429454223034
109	0xbfb16c33a6a757a4	-0.06805727785771737
110	0x3fc907eb4278e0c1	0.1955541681834401
111	0xbfa3122076435d0b	-0.03724767154352023
112	0x3f7c6cfa4df8ba89	0.00693986678338255
113	0x3fb72959d017a754	0.09047471361523424
114	0xbf6e795a170cdf61	-0.0037199744769188946
115	0x3fc6e93dc11317b2	0.1789929573771452
116	0xbfd00faa57a42e05	-0.25095614012454376
117	0xbfce42c38e8f6f10	-0.23641247235251983
118	0x3faa0a664bdf806c	0.050860592614981964
119	0x3fc15b52673d464a	0.13559942284568854
120	0xbfca6652ba629b90	-0.2062476549228589
121	0xbfa05ce9b8480482	-0.031958869691160366
122	0x3f860b4833f91f8d	0.010763706289381303
123	0x3f830b2e985b7f4a	0.009298671745852655
124	0xbfc985cf804b7e02	-0.19939607395552633
125	0x3fb7972943efbf5c	0.0921502867565755
126	0x3f8e37773b9b3983	0.014754230028668719
127	0x3fa05200340db1ff	0.031875616411387135
128	0xbfaa045c9fb52a2e	-0.050814527984205035
129	0x3fb3482df7ca8e7e	0.07532012271490804
130	0xbfb2da793f6495b0	-0.07364614293745464
131	0x3fad86cd37b17bdc	0.05766907982682998
132	0xbfa3680378fa9c47	-0.037902935522020224
133	0x3fb01042dff15a46	0.06274812667229765
134	0xbfc0075d38e96fac	-0.12522473601245332
135	0x3fd07c62367d4f2f	0.2575917751430436
136	0x3fb2cd494a1be635	0.07344492015172295
137	0xbfb720235128d5e9	-0.09033413630898902
138	0x3fb83af04c96e9ce	0.09464933271275486
139	0xbfb5a4b8d55c27ef	-0.08454470833763116
140	0xbfab003f8f9e796b	-0.05273626926576721
141	0xbfa425414aa52513	-0.039346733438444435
142	0xbfac4bf87b0c0cfa	-0.0552671098903605
143	0xbfb59089fb40775e	-0.08423673996045752
144	0xbfa8b7399227e353	-0.04827289494637079
145	0x3fa7be09a0675e68	0.04637174685529716
146	0xbfc208fb0414bf0e	-0.1408990640570597
147	0x3fbfa80616db3f11	0.12365758951204621
148	0xbfa0c2e9d42a75ce	-0.03273707117953571
149	0x3fb4f0170c1a8f01	0.08178848309995247
150	0x3fc18e19554f0b0d	0.13714901605097687
151	0xbfb8605b0979fcdf	-0.09522026997909759
152	0xbfc41f50f363a3a1	-0.15720569500197448
153	0x3fc15f119685701d	0.13571376657171266
154	0x3f89d1b051d9b225	0.012606980798602294
155	0x3fa1e6c03771d511	0.03496361424269357
156	0xbfc3f2189b69229b	-0.15582568729793853
157	0xbfc38f564c82dc06	-0.15281180129906619
158	0xbf80209b2a550379	-0.007874691228268326
159	0xbf9b7924af25082d	-0.02682931250570435
160	0xbfc017fe81f645d7	-0.1257322439746946
161	0xbf9ecae4933ae312	-0.030070849882323954
162	0xbfc152fc872ba250	-0.13534504509086043
163	0x3fa3329c9877d634	0.037495511638479334
164	0x3fbf69120bc61d35	0.12269699847648925
165	0x3fa63a8cc8c3d71f	0.04341545058006901
166	0x3fc302a6705dc9a9	0.1485183762229785
167	0x3fc4641f29f04b8b	0.15930547282968308
168	0xbfbd5062410a555c	-0.11450780952357803
169	0xbfc557c52b160098	-0.16674103359037384
170	0xbfa7c82d8ebedda8	-0.04644911162852888
171	0x3f88932747a832dd	0.011999422907160657
172	0xbfb72f6f1a06dc52	-0.090567535261344
173	0x3fbc4221c7fe093c	0.11038409359574514
174	0x3fb02fa3928df450	0.06322691276541659
175	0xbfbab11620803f6b	-0.10426462453346878
176	0xbfa8efa6cf5029fd	-0.0487033966129111
177	0x3fad3b63ceab8092	0.05709373376680661
178	0xbfc3a19c1b4ba217	-0.1533694394377256
179	0xbfb5305b36ef6b1e	-0.08276910868827911
180	0xbf84b25cb11c0bc4	-0.01010582366462199
181	0xbfa16df7ab138684	-0.03404211009343519
182	0x3fc059e89f6558e4	0.127743795232795
183	0x3fb3c71f39fb97df	0.07725711026759495
184	0x3fc592a1995927c6	0.1685373305102173
185	0x3f7ef581cee58965	0.0075583525307102205
186	0xbf97cf40b28bbf98	-0.023251543901039534
187	0x3fb824da7117afaa	0.09431233655021623
188	0xbfb42ef53793a270	-0.07884152037480319
189	0x3fbfb7e90de89a22	0.1238999995190189
190	0x3f94ade79d83b723	0.020194643963740277
191	0x3fadacda501b88e4	0.05795938709140261
192	0xbfb59076188cf006	-0.08423555468920094
193	0x3fa12fcd48b1dd86	0.033567824481845185
194	0x3fc082e94f0adfcb	0.12899509772773707
195	0xbfb66ab37bf9f6eb	-0.08756562973755037
196	0x3fa48a4defe838a9	0.0401176791530003
197	0xbfb49e07a81da2b8	-0.08053634504689
198	0x3fd0ab27efd6a1f1	0.2604465334102591
199	0x3fa57daac4a6e3bd	0.04197438860450784
200	0xbf68699f0309a8a2	-0.002980051584292446
201	0x3f9b6b1608bec4fd	0.026775688442005386
202	0x3fb1b040df21552c	0.06909566352381508
203	0xbfa7a13dd27e429c	-0.04615204996583097
204	0xbfbda4b18015fdc7	-0.11579427125069862
205	0x3fa510cb8366d9ce	0.04114376048112299
206	0x3f7385df24d59db2	0.0047663418348302
207	0x3fad81e8fd4f4d49	0.057631760522463944
208	0x3fac55ccd34f26a1	0.055342102808549905
209	0xbf99ce256b272755	-0.025200447716805147
210	0x3fb7949d4bfcd88d	0.09211142640274002
211	0x3fb00871bb38377b	0.06262884922781879
212	0x3fa4d65d172c0320	0.04069796474323639
213	0xbfbea8ac4a0f0135	-0.1197612458045157
214	0x3fb018d3ea6b9614	0.06287884209776734
215	0x3fbcc5ded5ac6f3d	0.11239426342620802
216	0xbfb3c6188f2e31bb	-0.07724145408264509
217	0x3f9db967090b5ce4	0.029027566840196153
218	0xbfc04915671f3834	-0.12723033461810618
219	0xbf8c8bfa38f5b4a5	-0.013938860762858172
220	0xbfb5827d437b07b1	-0.08402235887027022
221	0xbfabe4244abcc4c3	-0.05447495853730679
222	0xbf82ed430b69a2b2	-0.00924160364702806
223	0xbfafe12f8d959256	-0.06226490596126115
224	0xbfbdde9338aeb030	-0.11667747625205105
225	0x3fc1485b36fcbb5f	0.13502063927577532
226	0x3f92e56e3475801e	0.018453332855074327
227	0x3f924f9a37e8b7ab	0.0178817841171434
228	0x3fa3757baf43caf2	0.03800570024931983
229	0xbfbf8e98a7cbf022	-0.1232695970210789
230	0xbf871710332aa239	-0.01127445846698648
231	0x3f5447bfe5d0c616	0.001237809562791963
232	0x3f95c5d87ddf257c	0.021262533838841233
233	0x3f916e9f213dacfb	0.017023550418724814
234	0xbfb2d6aca81b070c	-0.0735881719984059
235	0xbfbf1f3161bd88a5	-0.12156971584548389
236	0x3f95582ab68095de	0.020844142331176367
237	0xbfc1cafec026d1c8	-0.13900741941837524
238	0xbfbc8711f5a65097	-0.11143600699716881
239	0xbfa5f20a001ac618	-0.04286223651196169
240	0xbfc0191bb6f67056	-0.12576624330256675
241	0x3fb6ef585593f915	0.08958961571986308
242	0x3fa259e81f7ff985	0.03584218391914632
243	0x3fb6aadc6ebb25eb	0.08854463294405661
244	0xbfa84376f124a6b1	-0.047389714180395066
245	0xbfb72d42fe3255e5	-0.09053438859913106
246	0xbfc16c0b54d48ef1	-0.1361097492418746
247	0x3f59317fdb42f5cd	0.0015376804922618726
248	0xbf94ba329f5bee80	-0.020241538025386863
249	0x3fc0b63c7f10cc1e	0.1305614109456607
250	0x3fbb1c00ea02b9c4	0.10589605057859958
251	0xbf8158a12ee67b3a	-0.008469828838142502
252	0x3f828269e4f476e4	0.009037806796694033
253	0xbfaec297c76fbdee	-0.060078375907206424
254	0x3fc79e80c951daaa	0.1845246298796231
255	0x3f994a45c2e0e751	0.024697389621201996

fc_hidden_list.0.bias f8 [50]
0	0xbfbb97acd29b92b4	-0.10778312818326691
1	0xbf994bda7259be91	-0.024703419904140992
2	0x3fb86612a903fff0	0.09530750871999749
3	0xbf90c27e7ad5fe4d	-0.016366935965832764
4	0xbfa329f857d75ab6	-0.03742958137779821
5	0x3fb3c8e4e3b917d0	0.07728415069240602
6	0x3f959cd58bee5dc3	0.02110608736583487
7	0xbfa67d30a6ffba64	-0.04392387426911595
8	0x3fadcbf4f74ab1fe	0.05819669264505832
9	0x3fb0400cc0d0c4af	0.06347732264909454
10	0x3fae0a1079530008	0.05867053490646873
11	0xbfb09da840ba09d8	-0.06490565853349695
12	0xbf829dd6c2d9394a	-0.009090116330437898
13	0xbfbe71d52d2f8463	-0.1189244494739952
14	0xbfc011ca23a03e2b	-0.12554289569423935
15	0x3fbe9dd297fa965b	0.11959568224355037
16	0x3fb0b29d4343af81	0.06522543804356752
17	0x3fa9bcd097486d69	0.0502686676665814
18	0x3f7512d25d8fe289	0.0051449029351650155
19	0x3fb11ad4260101ab	0.06681562354879726
20	0x3fc211c23ee26946	0.14116695471313728
21	0x3fadf04c506a36fe	0.058473954025528116
22	0xbfaad74d967dd372	-0.0524238821225599
23	0x3fc9d42fcf4213a4	0.20178792591118822
24	0x3fcc60fc9e2efafe	0.2217098019009071
25	0xbfb1b8609cc30b6d	-0.0692196257323709
26	0xbf934e1d9a05db88	-0.018852674985705004
27	0x3faeb3a6c21ec130	0.05996438140516813
28	0x3f83d413a933c1d1	0.00968184814561904
29	0x3fbe22b2a0a8bbf8	0.11771694586126091
30	0x3f8296158080d994	0.009075324997053248
31	0xbf502b5da84201eb	-0.000986901724019269
32	0xbf94d6f497883401	-0.020351239918500855
33	0x3face662bb2bf0c0	0.05644520315942847
34	0xbfb9e6003b372314	-0.1011657852715298
35	0x3fa4d1d929dddd05	0.04066351543490935
36	0x3fc1cdb1b7c9dce4	0.13908978914307746
37	0xbfa2da8521e7eaac	-0.03682342566385918
38	0x3fa0e3cdcf1811cb	0.03298800614360039
39	0xbfb8c835e3177761	-0.0968049697325717
40	0xbf64fe98159de502	-0.00256280616752902
41	0x3fb6e2b485e67d7a	0.08939674634028974
42	0x3fb235d0fd38939e	0.07113367254403477
43	0x3fb1fa45113b2c84	0.07022506399805378
44	0x3fc99e3d583a2447	0.20014159019436503
45	0xbfb3de1808e50cba	-0.07760763375431426
46	0x3fc03b6d17efcd19	0.12681354206834142
47	0x3fc169233b80a757	0.1360210457362949
48	0xbfc03fd2c6db7b8d	-0.1269477339728521
49	0xbfa6519190898482	-0.04359106912011958

fc_hidden_list.1.weight f8 [50, 50]
0	0x3fb58e124bf22629	0.08419908861301252
1	0xbfb840307a970dc3	-0.09472945206567034
2	0x3fb263cca64c766b	0.07183531818415083
3	0xbfb9b44ad4373895	-0.10040729218528306
4	0x3fc2aa507110de68	0.14582257767482365
5	0xbfaecded78f8c21d	-0.06016485311227291
6	0x3fb954147d3fac19	0.09893920953588554
7	0x3fb2bfefe0283224	0.07324122641166092
8	0xbfc0eabfc6b08222	-0.13216397477755587
9	0x3fb2e6964db5c59b	0.07383098027437145
10	0xbfb27bd8586783c2	-0.07220222624120168
11	0xbfc221a007847140	-0.14165115706499343
12	0xbfbeb89160a1d9f4	-0.1200037823599372
13	0xbf63164ca8c90d81	-0.0023299691440869523
14	0x3faf58d6924a2931	0.06122465644610243
15	0xbf7e9517119093f4	-0.007466402160422259
16	0x3fc15f6bb2b0e728	0.13572450852535067
17	0xbfa123e81c816d39	-0.03347707126587313
18	0xbfb5dfb551e1e4b4	-0.0854447674663728
19	0x3fc04165d330b24b	0.1269957810594796
20	0xbfb250381fd4bf9e	-0.07153654839635101
21	0x3fb33151632e58cf	0.0749712817326753
22	0x3fbcba5c7f422099	0.11221864802257854
23	0xbfb4ffe0a225a342	-0.08202938040416277
24	0xbfb1e728c1110a79	-0.06993345941104136
25	0x3f80036de53d5b8f	0.007819040830936234
26	0x3fbe587882c0a845	0.11853745643807752
27	0xbf8b3b00d28de044	-0.013296133447269771
28	0xbf936618887781f1	-0.018944152192377165
29	0xbfbba29fd5e0c298	-0.10795020076398953
30	0xbfc103b284c2a0af	-0.13292533380923063
31	0x3fb299e2c2230ef1	0.072660610577312
32	0xbfbc1e2e274a3489	-0.10983551463341902
33	0xbfab73991c1e467a	-0.05361631839981569
34	0xbfc062f77ecad60f	-0.12802022639304808
35	0xbfb1c7bf6515d27a	-0.06945415704633176
36	0x3faeacd70a204539	0.05991241453751645
37	0x3fc21c8358a38719	0.14149514988007963
38	0xbfbd85c7e88679aa	-0.11532258440863666
39	0x3fb1bbb2bc568cbd	0.06927029703233507
40	0x3f75f041b815cf2d	0.005356079783599016
41	0xbfbbb27add866e26	-0.10819213779762346
42	0x3fc139ee24c01e92	0.1345803908773076
43	0x3f70df4e0f98824d	0.0041192101721497345
44	0x3fa53f409096ec7b	0.04149820103654008
45	0x3fc6ab16996fdfc2	0.1770961999134198
46	0x3fa36683534db2dc	0.037891487044225264
47	0xbfbb684f0c2012fd	-0.10706037565257627
48	0xbfc261271abc9483	-0.1435898666906362
49	0x3fc256cf7857cf88	0.14327424408076816
50	0x3fc388b4276a5fa4	0.1526093666514018
51	0x3fb4e7f85b0639ce	0.0816645834185927
52	0x3f9c811ad19d6a9b	0.027836245578650148
53	0x3fb124da521834ad	0.06696857933293883
54	0xbf8676aab74cc795	-0.010968526572103158
55	0x3fa20a28be165893	0.035233758167280936
56	0x3fa10702297d854e	0.033256595196471936
57	0xbfa66f0204b3d3ee	-0.04381567294505105
58	0xbfbf558bddabf183	-0.12239908372789014
59	0xbfb2d50fc28017ad	-0.07356356142562843
60	0x3fac40b44f272de0	0.05518115488265685
61	0x3fb9902695acb010	0.09985581545032596
62	0xbfae3a7822f92383	-0.05903983523291514
63	0xbf6f8228ebf3b853	-0.0038462447406493543
64	0x3faa3a81837ed3f5	0.05122761469048235
65	0x3fbc90a06a5f8fb4	0.11158182713512482
66	0x3fb9c33e3a8f3b1b	0.10063542298960863
67	0x3fc128fbcbc1a34c	0.13406321953814382
68	0x3fb5769183290871	0.08384046032100102
69	0x3fb48ec1c77ae4b1	0.08030329818838557
70	0x3f960bea6616c930	0.02152982948400356
71	0x3f9f1073545a9a78	0.030336191199831636
72	0xbfa776d646ac5031	-0.04582852947910999
73	0x3f78b634ef4d2230	0.0060331409229737315
74	0x3f91b866f27f3f20	0.017305000830503237
75	0x3faca33c349801d7	0.05593288557065861
76	0x3fbbbb3e312e4405	0.10832585049344352
77	0xbfa508287aaefb2a	-0.04107786653138697
78	0xbfb0a9a76cca89b9	-0.06508871465715672
79	0x3fa0e0a21830a480	0.032963815167314614
80	0x3fa20e17fd51da81	0.035263776467151516
81	0x3fa4addac00fcf43	0.04038890451911794
82	0xbfba5eb506bb2344	-0.103007616179764
83	0xbfb14ae0a3865e86	-0.06754878990465771
84	0x3faf8eef97e3a395	0.061637389460719984
85	0xbf5468ee02f19f82	-0.001245720322708949
86	0x3f722ac0ededd436	0.004435304289349287
87	0xbfb75b3a33e6fb05	-0.09123576895852288
88	0x3fc0d5b71e4237c4	0.13152207353090095
89	0x3fc0cd45417d37f5	0.13126435945235895
90	0x3fbf5fb86f64b5f9	0.12255432815137358
91	0x3fb718084a2da21c	0.09021045504562902
92	0x3fbee654942979c4	0.12070206277119327
93	0x3fbf24cb5918e780	0.12165518689371702
94	0x3fbf404685d31512	0.12207451598358812
95	0x3fae2cb463d77f99	0.058934819400518985
96	0x3fc095f104b85956	0.1295758507773807
97	0xbfc001fccfe842f1	-0.12506065513345946
98	0x3fc764245034d0e1	0.18274358669589844
99	0xbfb86c71aed7fba5	-0.095404725252577
100	0xbfb71521a279c982	-0.09016618935291912
101	0x3fc02c2991d45224	0.12634772892546764
102	0x3fc2264cb534ab5f	0.14179381225525398
103	0x3fa75c5c29ba6c66	0.045626525968338424
104	0x3fb806bfdbbbe160	0.09385298838231426
105	0xbfb2e10115af5f15	-0.07374579219265016
106	0x3fb93c4477f68ced	0.09857585839067769
107	0xbfa714acefc3eb47	-0.04507961680243127
108	0xbfba25f7683fa44b	-0.10214182181484081
109	0x3faac853d271aa33	0.05230962699791455
110	0xbfb658b26229ad1a	-0.08729090591957736
111	0xbfbccdd597f50cbc	-0.1125157829274483
112	0xbf6e9933c030159b	-0.0037351618534581916
113	0x3fc8ff8aa1f419ed	0.1952985087193179
114	0xbfa6b64a6b3ea144	-0.044359517661464426
115	0xbfb3b5df0b5867c2	-0.07699388529763865
116	0x3f9846ea74cc8ffd	0.023708022478913893
117	0x3f64ebf72d862d0e	0.002553923386761198
118	0xbf8426891af9c03a	-0.009839125762681634
119	0x3fc0487c59e75216	0.12721208944152868
120	0x3fb944156300664c	0.09869512240438744
121	0xbfc2aa60cfa214f1	-0.14582452905975843
122	0xbfc29b5f0c6e466c	-0.14536655528040698
123	0xbfbcc3ce59bbf501	-0.11236276331688445
124	0x3fa16accdf703de5	0.03401794650573801
125	0xbfb5dcc046ed1fed	-0.0853996441993556
126	0x3fa248461c8595b2	0.03570765588919346
127	0x3f9a7b617729b84e	0.025861285112505343
128	0xbfc42bf3f4bb5f0b	-0.15759133767891628
129	0x3fa748296a81801b	0.04547242570038198
130	0xbf98997fc673f7e5	-0.024023052680597252
131	0x3fb3748f77a08d81	0.07599732084832135
132	0xbfd00d0b4c87ecbb	-0.25079615091062707
133	0x3fbfc0a860ad4fd5	0.12403347358969026
134	0x3fb5f5d4f6fa61b7	0.08578234700906405
135	0xbfa767fb9d857a2f	-0.04571520135754203
136	0x3fac9932948e7067	0.055856304773642056
137	0xbf83d24f3f8e3862	-0.00967847740846767
138	0x3fc3e3279e72168d	0.1553697131786759
139	0xbfc1f716a3c39ea3	-0.14035304065986506
140	0xbfa5bc9ea42e0ee4	-0.042454679051869865
141	0x3fbde05a499c7a70	0.11670460030698293
142	0x3fb965f56ac7dade	0.09921201569509772
143	0x3fac90e00ab4bcb3	0.05579280977905778
144	0xbfa3a35b7dff6b04	-0.03835569298799693
145	0xbf92a601a4e0b052	-0.01821138924439964
146	0xbf92cda8539b488d	-0.018362646201076905
147	0xbfa0ef4486b5f042	-0.03307546753328029
148	0x3f93ece419e96911	0.019458355027702604
149	0x3fc1d48af914e1ae	0.1392987934321019
150	0x3fc0ac4a5c2913a4	0.1302578878404833
151	0x3fa17bd845a2d758	0.034147985935688296
152	0xbfc4dd6dfba84ed8	-0.1630074957653196
153	0x3fbd2d7d24a56374	0.11397535462073255
154	0xbfb205c3e7b3e16b	-0.07040047079852278
155	0xbfaa139b2ca0288f	-0.050930833051169626
156	0xbfb8c661592f9c96	-0.09677704265014805
157	0xbfae0784486a7e0e	-0.058651098098604235
158	0x3fc00f74caba5e5e	0.12547168635204548
159	0xbfb55eec277ba516	-0.08347965206089145
160	0xbfc075f68927471e	-0.12859994599289676
161	0xbfc04881521aa1bc	-0.12721268185602053
162	0xbfc297fc03fc9e17	-0.14526319689433428
163	0xbfbe8e714a742368	-0.11936100070682942
164	0x3fb09047067adf2a	0.0647014990635141
165	0x3fb2448affb6c6b8	0.07135838263527716
166	0x3fc57ca4af0fc355	0.16786631153038437
167	0x3fc4271840665d46	0.15744307655834627
168	0xbfc41db35498eaf3	-0.15715638762215853
169	0x3fa6b94e17fbe134	0.04438251536152152
170	0x3fb4ce24cc7cda93	0.0812705039250921
171	0x3fc2166629cde424	0.14130856553291082
172	0x3fafa70d4b9660a6	0.06182138011644271
173	0x3fa0918000e201e3	0.03236007700707313
174	0x3facd1cb1304cb0a	0.056288095542546726
175	0xbfbc1481383be5b9	-0.1096878778734184
176	0x3f9bc88c9626011a	0.027132221855482454
177	0x3fa91df7200b0765	0.049056742345341665
178	0xbfaa3bb9b840afb9	-0.051236919156820666
179	0x3fb2b8f32fc46a31	0.0731346122378589
180	0x3fb9b5df174207ce	0.1004313880712566
181	0x3fad9e84d6552b52	0.057850028194102024
182	0x3fb64613a5bfc4d4	0.0870067863140947
183	0x3fad2cc8eaf2909f	0.056982306175343604
184	0xbfb3693b7b267a4c	-0.0758244681987687
185	0x3f8704248d13c728	0.011238370471321327
186	0xbfa5af11bf1cff02	-0.04235129793096172
187	0x3fc6b2fbccc2c293	0.17733714578709633
188	0x3fa25902b828bcff	0.03583534715687086
189	0xbfc0772426790670	-0.1286359012465712
190	0xbfa7705927130fcb	-0.04577902414305831
191	0x3fc5036406d2e625	0.16416597684092085
192	0xbfb2ce3cab2734bf	-0.07345942667525927
193	0x3fb978975f97c572	0.0994963272458074
194	0xbfb47b0313198691	-0.0800020143156195
195	0x3fb1c1a562db0f88	0.06936105407208804
196	0xbf8020774c4409fa	-0.007874423994967284
197	0xbfa36567bd6f57d7	-0.037883035539991
198	0x3fb7a2f22342f761	0.09233010636213869
199	0x3fb54f97452e64da	0.08324571074480805
200	0xbfb55c16f14928f7	-0.08343642607465883
201	0x3f90e4fe0a05ee86	0.016498536454931066
202	0xbfbbd0d9d2e8cd7f	-0.10865556143908427
203	0xbfb90bdb000aeb33	-0.09783715010682385
204	0xbfc1107a81107ff5	-0.13331538488364428
205	0xbf8d2d24f17cc6a1	-0.014246262187586569
206	0xbfc182b62d72b3cb	-0.13680150241034847
207	0x3fb451ed46e464cd	0.07937510472074223
208	0xbfb25f43e8aa7b56	-0.07176613264389906
209	0x3fb2f7ab6f70b939	0.07409163923941699
210	0xbfb660673933174f	-0.08740849634622559
211	0xbfb84191aee38651	-0.09475050468201941
212	0xbf68cd068ba5cd6e	-0.0030274513093730337
213	0xbfb5c189659b61d2	-0.08498438578261094
214	0xbf9c9c897502a4be	-0.027940891043418452
215	0x3fc2e0f047a7409f	0.14748958109567398
216	0x3f9ad8473381d139	0.0262156605899275
217	0xbfb7f51f9ff80bee	-0.09358403830996995
218	0x3f8f8f02d1bb8a4f	0.015409490609674807
219	0xbfa82a66e17ea283	-0.0471985006582303
220	0x3fa00436c1aeec2f	0.031282149451236634
221	0xbfc12aaf53d8e6fb	-0.13411513895135116
222	0xbf64d896bd1648fa	-0.0025446838487336284
223	0xbfa9e0da9543face	-0.05054362365807706
224	0x3fb15b1fced8a15f	0.06779669570881229
225	0xbfb7cf5570cf6fcb	-0.09300741199643807
226	0xbf9d6dc237133c92	-0.02873900853301998
227	0x3fab8ed00fb83d4b	0.05382394973650636
228	0x3fb8683207b39302	0.0953398960878751
229	0xbf90c6993afbe510	-0.016382593369574983
230	0xbfacc518e8e2dcb3	-0.05619123308991316
231	0x3f7c65aed6330c67	0.006932909923480591
232	0x3fbb4b48e3f72f45	0.10661750379148056
233	0xbf6a1dace6edf076	-0.0031879784577864513
234	0xbf94a32d3f8bdf6a	-0.020153719905436608
235	0x3fc01e9c37da6c7a	0.12593415000160119
236	0xbfb89ba846c2a90c	-0.09612514236019737
237	0x3fbbf9136b0a90f9	0.1092693458873021
238	0x3fb116fbc73575a0	0.06675695050713282
239	0x3fbf236cf3e77fe1	0.12163430170721724
240	0xbfc50d00e74a486b	-0.16445933621850214
241	0xbfc354665d5f3418	-0.15101317938970804
242	0xbfb3f643b93b3435	-0.07797644874808969
243	0x3fa0b38e7295bf6b	0.03261990689031687
244	0xbfbd297a149a5766	-0.11391413691521066
245	0x3fc03071fa488fea	0.12647843094703087
246	0x3f9c658105721e9a	0.027730956990608215
247	0xbfbce51bab961025	-0.11287091197124306
248	0xbfc0f9baf68959c6	-0.13262116468349755
249	0x3fc29549766b06d4	0.1451808765614745
250	0x3fc2bc2930d4540c	0.14636721500633632
251	0x3fbf24a8379f6b0a	0.1216530929372476
252	0x3fbc33d859ed5775	0.11016609378324722
253	0xbfafc4c32fe3c769	-0.0620480533560926
254	0x3fbba05176582c90	0.10791501178043661
255	0x3fb67f888bcafc70	0.08788350499070119

fc_hidden_list.1.bias f8 [50]
0	0x3fa8673f702e341a	0.04766271824255615
1	0x3f9406a486f34093	0.01955658982916526
2	0xbfb63dc27a9573e1	-0.08687987797516385
3	0xbfb1406fd7869461	-0.06738947879655789
4	0x3fa158bb8dc332dd	0.03388010125636296
5	0xbf92067755aec971	-0.01760279140916893
6	0xbf8c7ec626e808b2	-0.013913677275017331
7	0xbfb4eb504a04a9c2	-0.08171560103497824
8	0xbf8ac46f879d62e9	-0.013069983793387379
9	0x3fbd408f36c324ee	0.1142663487145403
10	0x3fbda1be6eae3a9c	0.11574926569140093
11	0x3fc138e1ebf91790	0.13454841634864723
12	0xbfbd1b31e956532d	-0.11369621226033351
13	0x3fb4bd67577d893c	0.08101507078166476
14	0x3fb1ff5fc24299cb	0.07030294888190906
15	0xbfaaa9a592f8c63e	-0.0520755521687417
16	0xbf9358291ce4a608	-0.018890993488787117
17	0x3fa21e5bc43cb188	0.03538786669227806
18	0xbfa14fe41ccacaf7	-0.03381264544932166
19	0xbfb20e97038d8898	-0.07053512417545205
20	0x3fc0f32be34c8597	0.1324210033281303
21	0xbfb81702433d8dff	-0.09410108701336382
22	0xbf9a4e9137ce1d8c	-0.025690335303378428
23	0xbfa48f99f1399b71	-0.040158091255583346
24	0xbfcc8cea09f89507	-0.22305036055437474
25	0xbfbd58b408808559	-0.11463475425309379
26	0x3fa0b4ab24c85f62	0.032628391494823786
27	0xbfacc9572d82f4d2	-0.056223606401070506
28	0xbfb1b49fef24162f	-0.06916236484911374
29	0xbf946764c3129dbf	-0.01992566528920547
30	0xbfc1f65718a133f7	-0.14033020689603834
31	0xbfb8f6c7b28a806c	-0.09751556500350639
32	0x3fa68476eb2160aa	0.04397937412494575
33	0xbfc1bacb235f0c1c	-0.1385129854880639
34	0x3fc0c0530f2eee24	0.13086927644131763
35	0xbfb68b7344ec6ef7	-0.08806534226135541
36	0x3fa4664761c0149e	0.03984282558671136
37	0xbf53782938fab0c0	-0.0011883165897570852
38	0xbfb916198a29f741	-0.09799346564429091
39	0x3fa7c52db4147995	0.046426227791232545
40	0xbfc0ac4fa615bab1	-0.1302585183106735
41	0xbfc0ece24fe01a59	-0.132229126931821
42	0xbfbe64999725fbcc	-0.11872253360887369
43	0x3fbe311f878a9f2c	0.11793705996626319
44	0x3fb41fcbc0ee8c1e	0.07861016712426802
45	0x3f47167aa112ff82	0.0007045840049144522
46	0xbfa740dde5207a4c	-0.04541676923712554
47	0xbfc0961c1227908b	-0.12958098303272822
48	0xbfb6de05a8fc7b8a	-0.08932528854027857
49	0x3fbec03eab15aaf7	0.12012092282172292

fc_hidden_list.2.weight f8 [50, 50]
0	0x3f8cc23af4277008	0.014042339874258417
1	0xbf8180f5ce70c830	-0.008546753275457147
2	0xbfb4fe20278c131a	-0.08200264897830004
3	0xbfb44c621c2c1a2c	-0.07929051578330676
4	0xbfb0a4d0f3a1b2e6	-0.06501489589727391
5	0x3fb7feea229007f6	0.09373343795598985
6	0xbfaca2ce81dd87c8	-0.05592961631079124
7	0x3fba06e002b36880	0.10166740480363679
8	0xbfba9d95e2fb678e	-0.10396706382326057
9	0x3f989f37f2c8bada	0.02404487056099467
10	0x3faef645d463fc67	0.06047266214044882
11	0x3fc32354ccf24dca	0.14951572425034804
12	0x3f8fb0cb0056fa17	0.015473924587124306
13	0x3fa8eac43dfa75ed	0.048666126790731436
14	0xbfb64b6120960e6d	-0.08708769841728677
15	0x3f7d6b0316bb39f9	0.007182132783511091
16	0x3f91f66982c19604	0.017541550260281383
17	0x3fc2b96893dd8849	0.14628321857441254
18	0xbfb2d01a8fc9c51c	-0.07348791132405491
19	0x3fa2dff28b4ea5c4	0.03686483335998106
20	0xbfa7dce13817ad4e	-0.046607053849437294
21	0x3fbcd3665987af82	0.11260070501128719
22	0x3fb8f95331429077	0.09755439713132029
23	0x3fc73202a361c65a	0.18121369340547028
24	0xbfb01bbc27cb075e	-0.06292320224295397
25	0xbf9a303f093387c2	-0.025574669777490795
26	0xbfc3a90e7377b859	-0.15359669340199636
27	0xbf42400ae01d09ef	-0.0005569508650540826
28	0xbfb76f139ec17c8f	-0.09153864503740493
29	0xbfc50aa71b95f958	-0.16438759657826085
30	0xbfc0170e1880cf19	-0.12570358463710177
31	0x3fa557d8ce43dbea	0.04168584363826951
32	0xbfa59aedd292085b	-0.04219763942184392
33	0xbfb325ac8d7f3325	-0.07479361013902215
34	0xbfc11441ebeae758	-0.13343071002401063
35	0xbfa3df30dbde8859	-0.03881218608809495
36	0xbfb246269e24d49b	-0.0713829170316153
37	0x3f92c49e53011a33	0.018328164879017627
38	0xbfae47223fdb291d	-0.05913645772450791
39	0x3fc229fea0c83485	0.14190657473264792
40	0x3f96779f45f74095	0.021940697331786458
41	0x3fb7b056158bde6b	0.09253442789110415
42	0xbfbc226f939fabb4	-0.10990044931501936
43	0x3fa3ff5bdbcdc984	0.03905760820534268
44	0x3fbb1dd9905db3d0	0.10592422270356328
45	0xbfa23818e5e97fff	-0.0355842381147795
46	0xbfbd1bb43210c965	-0.11370397779754667
47	0xbfa0a17cb3d538b0	-0.032482048942811814
48	0xbfbf3cab27da8a22	-0.12201947901716229
49	0xbfc33371e4f5cef1	-0.15000747375199056
50	0xbfa8b51cc8363f7c	-0.0482567781829166
51	0xbfab9d6177047e51	-0.053935094622144526
52	0xbfc46cfc27928ccb	-0.15957595760582985
53	0xbf9fa1d33743a784	-0.030890751121581697
54	0xbfbc1291ab08c2ed	-0.10965834069862597
55	0xbfa93154f5eed125	-0.04920449735746705
56	0xbf94d695923adb03	-0.02034982399956232
57	0xbf909ee6930ea1ef	-0.016231157994896547
58	0x3fc62f6cc5edf6e2	0.17332229294327478
59	0x3fb7873b39ac76c4	0.09190721662568097
60	0xbfc1f62bad8b5360	-0.14032503103103533
61	0xbfa32423a0f77202	-0.037385095023385176
62	0x3fbe55a6a719c817	0.11849443034751093
63	0x3fa7925bc1b543e4	0.04603850116348676
64	0x3fa9109eacdf42c3	0.04895492420439986
65	0xbf785c5a5fe11f37	-0.005947449708464884
66	0xbfb8c978d93b6a07	-0.09682421973722209
67	0x3fa7f06f6cd1bc93	0.04675625041351696
68	0x3fbd60e658d7494b	0.11475982350319673
69	0x3fc4bacf138d796f	0.16195095495909181
70	0xbfa3fc6f196fb130	-0.039035293440834784
71	0xbfc1e073cb50bf2d	-0.1396622412444172
72	0x3fa4d021011e40b7	0.04065039766931149
73	0xbfa6759837844801	-0.043865925576156435
74	0x3fcb190601c95c72	0.21170115554079733
75	0x3faace01d50e0ec6	0.05235295987861614
76	0x3fb27fa4976f9509	0.07226017663159125
77	0xbfb5312639308296	-0.08278120895603033
78	0x3fa7ddc72059df1c	0.046613905619720536
79	0xbfb834059bc8b9cb	-0.09454379132578265
80	0xbfa569cd679e2fa7	-0.041822832964583605
81	0xbfb20e61058cdfe8	-0.07053190598969616
82	0x3fbe31ffcf3b8bbc	0.11795042809858008
83	0x3fb599d6f49fa1fa	0.0843786570764066
84	0xbfbe63f6b5c613ac	-0.11871282518229859
85	0xbfc052ede5048af5	-0.12753080065257164
86	0xbf80e797777f879b	-0.008254226049704097
87	0x3fb5ccb303e2cce9	0.08515471310493052
88	0x3fa0ebb8afb949b8	0.033048411799103616
89	0xbfa4b036d7363fc1	-0.040406907816872735
90	0xbf711d3c672b05a7	-0.00417827219888648
91	0x3fbb68f079ba853c	0.10706999751939333
92	0xbfb3d91147bf06ca	-0.07753093721023699
93	0x3f7330935713090e	0.004684997126960034
94	0x3fb4f0cbab032c8f	0.08179924893481626
95	0x3fbf1dcf88b35d79	0.12154862487238018
96	0x3fbaadb15706b88a	0.10421284079231632
97	0x3fc0b05cecd9030c	0.13038217129544483
98	0xbfc0abfc88d9fb4c	-0.13024861032678314
99	0xbfa1721e5db14e77	-0.03407378095348872
100	0xbfc40769a7a0dc66	-0.15647621808031714
101	0x3fb563eef9305e49	0.08355611404146503
102	0x3fa1da57ee17ab35	0.03486895352747014
103	0x3f8f50f1e43b0cad	0.015291108872935355
104	0x3fb93d342fd46ca4	0.09859014671057992
105	0xbf985aecab86f162	-0.023784349412140478
106	0xbf96209f48036a69	-0.02160881878885804
107	0xbfb8e825393e4776	-0.09729225776234593
108	0xbf985e5ec3c36bc2	-0.023797493647048425
109	0x3fba31b6091714fe	0.10232103082588037
110	0xbfbc6551272f677e	-0.11092097479504834
111	0x3f8e6e5077f97cb1	0.01485884538777635
112	0xbfc3f7a348b99a9b	-0.15599480677629604
113	0x3fc0ee8cf151eece	0.1322799852676923
114	0x3fbe06935de1bc4d	0.11728783647571213
115	0xbfb4e41a63dd94d1	-0.08160557687877491
116	0xbfc25091be404e61	-0.1430837801896017
117	0xbf8b8d8e316a0d95	-0.013453589327815854
118	0x3f97aae1d8d49bac	0.023112801417621107
119	0x3fbb4e6c9d0202ae	0.1066654094047503
120	0xbfae3952fa890dcd	-0.0590310984448724
121	0x3fb32ced850982d8	0.07490429399468768
122	0x3f5fac69d492c0ed	0.0019331964015628048
123	0xbfbcf444772de477	-0.11310222539568025
124	0xbfb158d249c821e2	-0.06776155759155914
125	0xbfc147f94b3c5752	-0.1350089661943295
126	0x3fc30aa4589d6fa1	0.14876226736930412
127	0x3fb0d7f427a82338	0.06579519241507803
128	0x3fbc46c7c24a8ce6	0.11045502179563335
129	0xbfaf2725d7c3ef97	-0.06084554919104262
130	0x3fa12569d8adbf84	0.033488567066227964
131	0xbf9a1d800795d368	-0.025503159010856008
132	0x3fa25da58d4b4098	0.03587071752338139
133	0xbfbdbecda3d40cda	-0.1161926770183074
134	0xbfb206a289934c04	-0.07041374071859258
135	0x3fb9530c2182e7ed	0.09892345255039432
136	0x3fbc6dd31ae8488a	0.11105079085271732
137	0x3f9f41392a93411e	0.0305222446666572
138	0xbfa3014526f37633	-0.0371190652892718
139	0xbf9dea8d19d365f4	-0.029215054227142503
140	0xbfaafbfef72f94c5	-0.05270382659345211
141	0x3fbca4338aaf083c	0.1118805135329532
142	0x3fa96c6710ad01b3	0.04965517118990039
143	0xbfb344c6a8ba626c	-0.07526818866097934
144	0x3f91788d29443692	0.017061429637627308
145	0x3fb90a3cc8f927cc	0.09781246096204582
146	0x3f998312a14734d6	0.02491406545032223
147	0x3f47a1372ba190eb	0.0007211226832280181
148	0x3fc03771feec4587	0.12669205615433674
149	0x3faadbe02d9aa0d2	0.05245876843156484
150	0xbfac5a540e3763e3	-0.05537665055789611
151	0xbfbb191258653421	-0.10585131319130926
152	0xbfb4f1bdfafa7563	-0.08181369187737668
153	0xbfbdd7d96a134948	-0.11657484855394273
154	0x3fa02ba5384a33c8	0.03158298790103903
155	0xbfad913ed4e47888	-0.05774875973496402
156	0xbfc14dd6fa24c5e8	-0.13518798078580052
157	0xbfc1ca8f00200929	-0.1389940977679285
158	0xbfa367f253bae125	-0.03790242454619123
159	0xbfb6b922455409e7	-0.08876241867623201
160	0x3fa95c38e25c96d6	0.04953172457889614
161	0x3fc5167110a425db	0.16474736511763308
162	0xbf89890f680b5970	-0.012468452799492907
163	0xbfbf92bc2ec3b038	-0.1233327497645299
164	0x3fc407d788fcb7d4	0.156489316833755
165	0x3fbc620f0cad8d87	0.11087125834960974
166	0xbfa7ffa12878c301	-0.04687217349090212
167	0xbfb58bc3a3e4146b	-0.08416388274425095
168	0x3f963d29ebdb6572	0.021717696209497324
169	0x3fa5c2ca91054445	0.04250176449080149
170	0xbfa03372219c08d3	-0.03164250049850783
171	0xbfce68c6b6814e70	-0.2375725165498923
172	0xbfc264a937ecfa56	-0.14369693022486513
173	0xbf90608eedc59f30	-0.015993340742539164
174	0x3fb1b0ca562fa483	0.0691038570800107
175	0xbfa17daa2dc5d1d2	-0.034161871039859584
176	0x3f76d83ab2001db7	0.0055773060594285695
177	0x3fbb1a938fef686b	0.10587427391092923
178	0x3f97f1704a868efe	0.02338195280903132
179	0xbfa6c89a7d77aaae	-0.044499233070231056
180	0xbf86e1e8db6ca99c	-0.011173075863173669
181	0xbfc0d8979369a768	-0.13160986612211478
182	0x3f9c9b6170fc9764	0.02793648006549833
183	0x3fcc9ecad696dcd8	0.22359595754617234
184	0xbfc3b221d4fddd09	-0.15387366199477295
185	0xbfb207de962d4ab8	-0.0704325787203669
186	0xbfae7ec0e9929b74	-0.05956080294827518
187	0xbfb699741d2f0fef	-0.08827901566024797
188	0xbf5dcbe1c170ee2b	-0.0018186287541216521
189	0x3fac3445fc780a59	0.055086314267118915
190	0x3f9b82f74cbdbbd5	0.026866783198268813
191	0x3fc2c2ecc189e088	0.14657363367200937
192	0x3fc44b32d82026f6	0.1585448794651751
193	0xbfb5451f1f653cb2	-0.08308596149912509
194	0xbfa5bfa4c251e75c	-0.04247774955815828
195	0x3fb7831b9f75967b	0.09184429781961427
196	0xbfb562c80d33a0c7	-0.08353853533083387
197	0x3fabe8c34e3c0e83	0.05451021509182132
198	0xbfbcd1d07ca5ee83	-0.11257651370208958
199	0xbfb4c2cb29a67d54	-0.08109731451849217
200	0x3f4bf183ee8c9656	0.0008527654837037861
201	0xbf9a81b5cd57ba0a	-0.025885430009958944
202	0xbfada39b0d4e012a	-0.05788883721743539
203	0xbfb946ac0b24dd41	-0.09873461982794131
204	0x3fb177f764e6f92e	0.06823679173883043
205	0xbfafd38ed0378f21	-0.062160933415525095
206	0xbfc674154fdee191	-0.17541757965024066
207	0xbfbedcc9076dc4e0	-0.12055641585699872
208	0xbf904e1407228f9f	-0.01592284482525452
209	0xbfa3f189d6583bc3	-0.03895216695320116
210	0x3fb57e41c6e10e8a	0.0839577780289408
211	0x3fb069941f43c7d3	0.06411100161838527
212	0x3fc6c4ac56cd7dde	0.1778769897309606
213	0xbfc0f2a87702d8e9	-0.13240533648576694
214	0x3fb546758c77267e	0.08310637168247045
215	0xbfa3c67c6efc058a	-0.03862370352545515
216	0xbf7ca6840e98ede3	-0.006994739387262669
217	0x3fb8599a1d474512	0.09511721815876609
218	0x3fb9a2d432fe2f62	0.10014082188552956
219	0xbfc1f42527b8c746	-0.14026321830311356
220	0xbfbb39034df5bb35	-0.10633869794194768
221	0xbfcbe91549e82d35	-0.2180506335138063
222	0xbfbd604402e732a1	-0.11475014754177916
223	0x3fbf0b1582bd0c19	0.12126287881714894
224	0xbfadd43a4ae10837	-0.05825979389239005
225	0xbfae837ff8281198	-0.05959701446775795
226	0xbfb330d2e9319f1c	-0.07496374314507331
227	0x3fbae954523cb88e	0.10512282378906176
228	0xbfb8d0e61911476d	-0.0969375430297796
229	0xbfc7d7eab868b05a	-0.1862767601427347
230	0xbfc950d407085309	-0.1977791818941557
231	0x3f8fc07269d68f4b	0.015503782133982865
232	0x3f987ef8f70fef74	0.023921861724360352
233	0x3fb02878d6c45ba0	0.06311755412421727
234	0xbfb5b97506871cd3	-0.08486110123986927
235	0xbf8b62170d33e39e	-0.013370685663618261
236	0xbfa7feb9afd3759c	-0.04686527510942115
237	0x3faf23bbcd2bf28f	0.06081950072800623
238	0x3fb6ad62e69fa5a3	0.08858316545924665
239	0xbfa62b711af10101	-0.04330018476366782
240	0xbfc291080b833fb3	-0.1450510078634558
241	0x3fb19d0bdecf210e	0.06880258741069076
242	0x3fc86f57d0f27cce	0.1908979196786959
243	0xbfbc27d7f80e85f2	-0.10998296552727263
244	0xbfc661dfd4c36c92	-0.1748618878253621
245	0xbf9ffdfa434716a7	-0.03124228511457852
246	0xbfb24a4703e743f9	-0.07144588322923075
247	0x3f899b0e98b850c9	0.012502779040950778
248	0xbfc369ca21443b53	-0.15166594147054954
249	0xbfad28a3301bb233	-0.056950664160329366
250	0x3f8ab71e7f55815c	0.013044584523129892
251	0xbfc69a5b8c2710ac	-0.1765856203402384
252	0x3fbe391d8e270b93	0.1180590126087238
253	0xbfc2a24da50ec5db	-0.14557810363252952
254	0x3f4004e1f7a8406f	0.0004888633114337302
255	0x3fbf4299037d1d48	0.12210995040105843

fc_hidden_list.2.bias f8 [50]
0	0x3fab2ec1e2c98b11	0.05309110539817231
1	0x3fc018f7b0f995e0	0.1257619489798989
2	0xbfac48284a695800	-0.055238017161784114
3	0x3fb70a6ddffba285	0.09000288694699961
4	0xbfb2aeaa288883e8	-0.07297767152387247
5	0xbfbe3d596178a80f	-0.11812361364050637
6	0x3faebd77fa9dd3fd	0.06003928121837274
7	0xbfbb07ff6f380913	-0.10559078660302061
8	0xbf9902b8396da9c8	-0.024424437050962117
9	0xbfb0df2705118f6a	-0.06590503572220788
10	0xbfbd5d9cbd92ab88	-0.11470965984578474
11	0xbfb33fa238c7dbd5	-0.0751897228836776
12	0xbfbc3a51735d1e77	-0.11026486460206707
13	0xbfad7004cce372ba	-0.05749526024894665
14	0x3f9e8c0e37506467	0.029831144453144633
15	0xbfbc4fbb67a11905	-0.11059161453258433
16	0xbfb7a7a2654404eb	-0.09240164730364923
17	0x3fa8d503e8a58c00	0.04850017752576008
18	0xbfb1349c3f8abb45	-0.0672090201503411
19	0x3fb3b08158f88a80	0.0769120065893194
20	0x3fb337dc1527e4b0	0.07507110134601436
21	0x3fa1beafe0a61e76	0.034657951519929606
22	0x3fbda68501287b77	0.1158221366717792
23	0xbfc2cadb61d5d4ab	-0.14681570317376233
24	0x3f9f370a71e32a34	0.030483401490338305
25	0xbf8e942088bcab4f	-0.014930967495805495
26	0x3fafaa0a17cd6c2d	0.061844172864504145
27	0xbfc15d95732819f8	-0.1356684505737602
28	0x3fb304e98cdff508	0.07429370583846062
29	0x3fbb471e01fc8123	0.10655391262526286
30	0xbfa777342d29d5fa	-0.04583132792769713
31	0xbf6d9b2f55ef7fd4	-0.0036140369916068758
32	0xbf69c9b339ed1101	-0.0031479359162479574
33	0x3faa3809782510b8	0.05120877830134546
34	0x3fbf7613930e6175	0.12289545383680951
35	0xbf96543d57cff40e	-0.02180572365249494
36	0x3fa53cd3096cf8d4	0.04147967805919142
37	0x3fad96d16bbc8ab0	0.057791275407244824
38	0xbfa0c739b4d8cf06	-0.03276996929744595
39	0xbfb801c56ae2a8e5	-0.09377702579027732
40	0xbf477223fabce835	-0.0007155109101184611
41	0x3fa51c06949dd43c	0.041229444162049295
42	0xbfa5300f9b57c114	-0.041382301056616694
43	0x3fb5a997491695b1	0.08461900267010126
44	0xbfaf91359544aef0	-0.06165473410723432
45	0xbfbdcee4cdc8dcf6	-0.11643819831884969
46	0xbfa7327a2029adcd	-0.04530698435413747
47	0x3fbee6c4d9ddd1db	0.12070875472074453
48	0xbfa368865d3f40e6	-0.03790683639783925
49	0xbfc083202f7c649b	-0.12900163954399066
