savedModel/poisson2d_inverse_tanh/noise_0.01/ParticleWNN_3/trained_model_best_loss.pth (torch, 132191 bytes, 20 tensors)

fc_in.weight f8 [50, 2]
0	0x3f82426dc5e82713	0.008915765382897988
1	0x3fe568627c69868d	0.6689922742773021
2	0x3fc10d51226b3a2b	0.13321890049560756
3	0x3fd4d8c8f3d709c5	0.3257315045595102
4	0x3fe3d1772360c516	0.6193195048309998
5	0xbfe8a6eca879f29a	-0.770376519256007
6	0xbfdfa1816dd3acff	-0.4942325184371867
7	0x3fdf40c286a899e9	0.48832762861493834
8	0xbfe27c8ddf882181	-0.5777043691496574
9	0x3fe64ccc7c0e6097	0.6968748496028806
10	0x3fc29941d4ab1a68	0.14530203708837353
11	0x3fe7ff84d252db5b	0.7499412639507271
12	0x3fe7eb3824bf690a	0.747463294766278
13	0x3fb592daa462ef0f	0.08427206528989138
14	0xbfdbc113f629ee12	-0.4336595443671466
15	0xbfda5b3be08df973	-0.4118184750476736
16	0x3fd8282299ed9dc0	0.3774496558384861
17	0x3fcd71b6459f1e70	0.23003271483888765
18	0xbfe6c8e572221657	-0.712023470798793
19	0xbfd60315d7e33c58	-0.3439383133199434
20	0x3fe8a5b948c2547d	0.7702299519611554
21	0x3fa01aeb908aeb0c	0.03145538463055261
22	0xbfb4910c3d806401	-0.08033825398923967
23	0xbfdaaa271b1da66e	-0.41663530014066097
24	0xbfe7a7935c1fb082	-0.7392060088436809
25	0xbfe6f8e6e7ac5c60	-0.7178835415715064
26	0x3fe8c1aaf2ad5baa	0.7736410846508666
27	0xbfe2bc74f2c20d8a	-0.5855049840323983
28	0xbfc3e801c5705ae8	-0.1555177892739359
29	0x3fe218d64a30b12d	0.5655318688418781
30	0x3fd3376850bd7ea1	0.30025680432116003
31	0xbfe66262c088a2b5	-0.6995099792885272
32	0xbfe1cb9c732f7521	-0.5561048745836709
33	0x3fe57aec7f29a2c8	0.6712553485532107
34	0xbfec4834c61e02a3	-0.8838142270543198
35	0x3fc482f668af9b88	0.16024665938968163
36	0xbfe51d8d4586b72e	-0.6598574026045065
37	0xbfd8d126b352f81d	-0.3877655745708369
38	0xbfceabc00fe1b6d4	-0.23961640143845975
39	0xbfdf7efd0e91c9e4	-0.4921257631569047
40	0xbfc3e39271bc10c6	-0.15538244775246407
41	0x3fe381d7ce549e21	0.6095999746220891
42	0x3fe2d4539d83bcf5	0.5884187771279402
43	0x3fda903ddafa40c1	0.41505380997206137
44	0xbfcd821449d76879	-0.23053220372714003
45	0x3fe04b354687d531	0.5091806771803588
46	0xbfe72952e52ee48a	-0.7237944103464014
47	0xbfc3561c4a18228d	-0.15106538408169393
48	0x3f94ae6d5667e0b4	0.020196636580266783
49	0x3fd706044ee82833	0.3597422380995596
50	0x3fe0b9bedeb4fce3	0.5226740216966416
51	0xbfd1c1fc6ee99e92	-0.2774649699335693
52	0x3fc50133b63c0a9d	0.16409918211146116
53	0x3fe7e519635aa9f4	0.7467162075529914
54	0x3fc125f24b363898	0.1339705340619204
55	0x3fd01a8fb6228ffb	0.25162117754575747
56	0xbfeb7e46905ae831	-0.8591645068584112
57	0xbfc00d1088c4af7f	-0.12539869955196178
58	0x3fec712b6f16b305	0.8888146562290734
59	0xbfe6a7d56ba8a734	-0.7079875090323413
60	0x3fe395234d315052	0.6119553096455184
61	0x3fd81202cc35b4a3	0.3760992998348433
62	0xbfe455658b53db70	-0.6354243966332955
63	0xbfb5a43e5635c5dc	-0.08453740696656759
64	0xbfe6dec801ee7004	-0.7146949804041474
65	0x3fca5db7b269377f	0.20598503314471014
66	0xbfdc9cb6e897b2de	-0.44706509317511045
67	0x3fdaac5d12ded556	0.41677023737732577
68	0x3fdb39c94cf0fbcc	0.42540199769785825
69	0x3fdde69fde603eb2	0.46720120159532563
70	0x3fd57bcd4a9f2902	0.33568126952435773
71	0xbfc4ae7441c846e3	-0.16157391750362313
72	0x3fe47fd9cc3eef0e	0.6406067837883442
73	0xbfb144a91c2c627f	-0.06745392740084276
74	0xbfdb9aa6ed82db91	-0.4313142127461385
75	0xbfb019d3bf721bdd	-0.06289409088104443
76	0x3fea19ff6f20e7db	0.8156735582808737
77	0xbfd31a180bacf9e2	-0.29846764698223016
78	0xbfd91ed5227cc3fb	-0.3925068699637106
79	0x3fd0d1eb275019bb	0.26281241263532323
80	0xbfd6efb826da1327	-0.3583813075459141
81	0x3fd6f04ad20cabf9	0.3584162760986938
82	0x3fd3acc60d476a16	0.30742026612065965
83	0x3fdf070874fc0d0a	0.4848042623927574
84	0xbfdb7ed878ce6272	-0.4296170406101175
85	0xbfd331c6464b7831	-0.29991299500204877
86	0xbfe75055e29789e3	-0.7285565782188396
87	0xbfd0723d1b8f017d	-0.25697257701178683
88	0x3fa123b6429e943e	0.033475585586792964
89	0x3fc69c0b42509ecd	0.17663708436997752
90	0xbfe1b95b4c69715b	-0.5538765423221251
91	0x3fa8abc934dcd9e2	0.04818562288567187
92	0xbfe6745752200634	-0.7017017940526729
93	0x3fe23f89127ba9ef	0.5702557908055591
94	0xbfda438c3e3780e3	-0.41037279201374427
95	0x3fdb2384f3ee10a9	0.42404292889865275
96	0x3fc7c260936f5870	0.18561942290279232
97	0x3fee6a3ff4c41903	0.9504699497781818
98	0xbfd8fd058f8f112d	-0.39044322032374873
99	0xbfe0eda4d0fa4a31	-0.5290092546077344

fc_in.bias f8 [50]
0	0x3f98af107fe3c578	0.024105317884225624
1	0x3fe2ceb904254c65	0.5877347069712299
2	0x3fe216d01d2a59ca	0.5652847833287578
3	0x3fd80cf3f6cb68ac	0.3757905874350722
4	0x3fe4039b04e8e67b	0.6254401298421749
5	0x3fc72f669e5980f3	0.18113405925669887
6	0x3fe001810b75dbf1	0.500183603652543
7	0x3fd277a06f85a9a4	0.28855143442947395
8	0x3fdabe058bab170f	0.41784800185665544
9	0x3fdbf54c041e0499	0.4368467369277567
10	0x3fe677cea1a60cef	0.7021248967361354
11	0xbfdb56c2002ba5d2	-0.42717027680063524
12	0xbfb98266c99177ed	-0.09964601918315426
13	0xbfe628f812db77a1	-0.6925011032396818
14	0xbfc21fa61cb38439	-0.14159084702899508
15	0xbfdba2a7087cd6e1	-0.43180251911995354
16	0xbfdfe135711cd8a6	-0.4981206516853355
17	0xbfe4436878f9f625	-0.6332285273380803
18	0x3fc5f4145bfcf5e7	0.17151121608360073
19	0xbfc9c94b1cfc0590	-0.2014554873967822
20	0x3fcc74e9996b27d3	0.22231788626805712
21	0x3fb385304efb6376	0.07625104835768845
22	0x3fd453c2ac400864	0.3176123315935284
23	0xbfd015d4243ae33b	-0.2513323167618641
24	0xbfe6ef3c8cae9323	-0.7167036769575116
25	0x3fe32b6130619469	0.5990453667587988
26	0xbf9febe0c0f68d27	-0.031173240449459485
27	0x3fe63fe488ce447a	0.6952994033801041
28	0x3fdba1502caff919	0.4317207752609576
29	0x3fc545a9b9e841b2	0.16618844583036957
30	0xbfcdeab48de66b83	-0.23372513703074213
31	0xbfb89401bf464ebd	-0.09600840492049208
32	0x3fd64f709bc7b706	0.34859862530616714
33	0x3fdbf09e99933b82	0.4365612506634805
34	0xbfe282e8422e13ac	-0.5784798901155361
35	0x3fd65cd29a8c3c88	0.34941544621046505
36	0x3fc1ecbc5cfb4621	0.14003710308183862
37	0xbfe03dd029766376	-0.5075455484212472
38	0xbfe0532efedcef7b	-0.5101542451661624
39	0xbfb45fd3c10182cb	-0.0795872064786735
40	0xbfd1433b55b6a257	-0.26972850199175497
41	0xbfd56f14a2cf5f34	-0.33490482234400365
42	0xbfe67681bba5b43f	-0.701966158388707
43	0x3fdbf3f914d04a8e	0.43676592857915686
44	0x3fe0019a9c49f894	0.5001957943457165
45	0x3fcfc5e7c6a8ae50	0.2482270927442749
46	0xbfd6dca7273546e1	-0.3572175867931105
47	0x3fe38ed98b7ee72b	0.6111877178693467
48	0xbfea117d13a3e965	-0.8146348365401478
49	0xbfe5300d605a1719	-0.6621157533524836

fc_out.weight f8 [1, 50]
0	0x3fb0d473c5205882	0.06574176371245424
1	0xbfc15fa53ef41294	-0.1357313687696161
2	0x3f8b52f43bded5cd	0.013341816022015696
3	0x3fbc65535ace8a6b	0.11092110602343445
4	0x3fbb1a3ea7a6053e	0.10586921303731331
5	0xbfb4076c70c4f550	-0.07823827508123782
6	0x3fbf5230e96d6668	0.12234788607511293
7	0xbfcbf1ac33671f97	-0.21831276426223375
8	0x3fc6485aac419ff7	0.17408307467417192
9	0x3faff9bb4d0ad7ed	0.062452176241478564
10	0xbfbd43e94db74121	-0.11431749484404864
11	0x3fbbaa3edde2e632	0.10806649129053694
12	0xbfc30a1246e8c225	-0.14874485456813705
13	0x3fc0bb8e2a355c95	0.13072373448332955
14	0xbfc7e991f76daddf	-0.1868154962679531
15	0xbfb424d8ff4c19c9	-0.07868725045054882
16	0x3fbf8628abc3e96a	0.1231408519123868
17	0x3fb490aa2d7f144c	0.08033240900756872
18	0xbfc3db6385a5c1a0	-0.15513271356350078
19	0xbfb997aeaabdb23b	-0.09997073811036554
20	0xbfbed93a3463ba88	-0.12050212649385561
21	0x3fc105b3f4debaa7	0.13298654037995059
22	0xbfb56bb0b96feee8	-0.08367447402263972
23	0x3f9263c1ce21db50	0.017958667951883556
24	0xbfbc9d5281c959c6	-0.11177554768196449
25	0xbfc08ebcab0c7f99	-0.12935598709100019
26	0xbfc379e5925fd47c	-0.15215749404129386
27	0xbfb3dd35ff1d16c8	-0.07759416082725601
28	0x3fc05cf6ade98c2a	0.12783702365695265
29	0x3fb206935705f30d	0.07041283487883394
30	0x3fb56c11210bba0e	0.08368022019178786
31	0xbfc1d4de6a6a0a81	-0.13930874057776424
32	0x3fbec8dc824eb303	0.12025240117391083
33	0xbfba408707ede7e9	-0.10254711097323334
34	0x3fcc4a84adb06073	0.22102411728770086
35	0x3fc1c3a38b573390	0.13878292373410916
36	0xbfa577ddf805550f	-0.041930138135891075
37	0x3fbdd8059fcb71ec	0.11657748366582837
38	0x3fbf42d4ada63e71	0.12211350669371669
39	0x3fc2942e1d2eaea6	0.14514709877891113
40	0x3fb9f64da91ab5d0	0.10141454103969427
41	0xbfb771385bef5391	-0.09157135242942462
42	0xbfac159786048ba3	-0.05485223303755695
43	0xbfbd066c449556ff	-0.1133792560043183
44	0x3fc05995421c7af6	0.12773385742271842
45	0xbf4310ab1eeb6a57	-0.0005818210173303512
46	0xbfbc573467b77c81	-0.11070563823840197
47	0xbfb6aa3dbc91cacd	-0.08853517392871453
48	0x3fb034fa5642b126	0.06330837827653521
49	0xbfc825eaff8f3e09	-0.18865716436856442

fc_out.bias f8 [1]
0	0xbfb311d4cbd0076a	-0.07449083305257678

fc_hidden_list.0.weight f8 [50, 50]
0	0x3fa2879944f6f763	0.03619078604559325
1	0x3fa881472b96afed	0.047861312933804225
2	0xbfbeae4941e9082f	-0.11984689578187678
3	0x3fb6044f0387aee0	0.08600324474508225
4	0xbfb65cde05087516	-0.08735454199673529
5	0x3fb59d4a3370c5c1	0.08443130260345467
6	0x3fb8a69392c3a021	0.09629175503835131
7	0x3fb6171b68fa9908	0.08629008591615073
8	0x3fba637d9abd8850	0.10308060672608232
9	0x3fc0f007006f6a17	0.1323250534176885
10	0x3fbf124818a42516	0.12137270547477316
11	0xbfb229f411177d09	-0.07095265786437123
12	0xbfbf0e9fec29f02a	-0.1213169051715687
13	0xbf8401c40000dc3c	-0.009768992662527613
14	0x3f8171f368504444	0.008518125172516496
15	0x3fb39587debe4228	0.0765004080587991
16	0x3fb751eaf5703504	0.09109371654649939
17	0xbf97ce13e78f5f16	-0.023247061737349993
18	0x3fb7527b55cf2e5a	0.09110232205346716
19	0xbfc056f6c3a28e97	-0.12765392830361996
20	0x3fa00c693c666380	0.031344689009705995
21	0xbfbd75fd3816e703	-0.11508162135478632
22	0xbf8f5fff30e3813e	-0.015319818191017572
23	0x3fac61028b056a1e	0.055427627058368
24	0xbf9675f557bde61a	-0.021934350471815113
25	0xbfbdf76852c46f3d	-0.11705638905226308
26	0x3fc07f2f2030111f	0.12888135024707822
27	0xbf96f884b61369e3	-0.02243239747336102
28	0x3f90dc83a8d9a808	0.016466195278930257
29	0xbfb37a252c6facae	-0.0760825379835974
30	0xbfa9a87422951e34	-0.05011332437657892
31	0xbfb4d2447997377a	-0.0813334271290084
32	0xbfaa854f10d7c1ff	-0.051798315816885314
33	0x3fb10ac1a1b814be	0.066570379240221
34	0xbfabcc3adadd534a	-0.05429252549826076
35	0x3f9fb4a36a0a7e96	0.03096251806948532
36	0xbfb1bc09c3cc3be1	-0.06927548437327814
37	0xbfab365277a94671	-0.05314882002552402
38	0x3f8acd157872f4df	0.013086478937447797
39	0xbfa031780bf19cb8	-0.031627418001158814
40	0xbfaef81b77ed7bff	-0.06048665846787315
41	0xbfbe10a1e255d05d	-0.11744128967058161
42	0x3fb23ff5383d3b90	0.0712884199431143
43	0xbf89de5f17bf94ce	-0.012631171142809452
44	0xbfbaa9bb7951f1ce	-0.10415240966717151
45	0x3fb56a8e5265f81f	0.08365716468503635
46	0xbfa019b9745b8067	-0.0314462618387104
47	0x3fb1eda965228c0d	0.07003267974009493
48	0xbfbb2b043c8825e0	-0.10612513044193106
49	0xbfa02459cc15e1c1	-0.03152733436849387
50	0xbfac5332f00d60ee	-0.05532225780797427
51	0xbfa1e0d42668db8e	-0.03491843193881215
52	0x3fc22352e6fd6374	0.14170299795912522
53	0xbf9b972c24ded742	-0.02694386458434584
54	0x3fbec1f4a8a396f8	0.12014702908671981
55	0x3fb97a762f7f4761	0.09952486667250816
56	0x3fb9ee748da03844	0.10129478891050875
57	0xbfb83def7af5afbb	-0.09469506027170287
58	0x3fb2b2d83ab9fa19	0.07304145272971886
59	0x3f6a1aeb798874ae	0.0031866644969925284
60	0x3fb21c7e6018eeda	0.07074727865340993
61	0x3fb96e078eb16d63	0.09933516725270901
62	0xbfc0d9a7c1aff463	-0.13164231259716805
63	0xbfb5b2b056362d88	-0.0847578249433153
64	0x3f9e3c049a03329b	0.029525825405289124
65	0xbfa0313db68bc273	-0.031625679524840765
66	0xbf8d690623bc9a1e	-0.014360473600004527
67	0xbfaec4428e4b9b3d	-0.0600910948467601
68	0xbfc32dd15fbdcde7	-0.14983575034021543
69	0x3fa8b17eae0b02c8	0.04822917818592526
70	0x3fa8d5bdd7e66088	0.04850571880814508
71	0xbfa6822df04baf41	-0.04396194036766455
72	0xbfa04f040fc01de6	-0.03185284321085273
73	0xbfb873e0a5482a0d	-0.0955181506653064
74	0xbfb053100934e393	-0.06376743531008193
75	0x3f960aa7ca2062a9	0.021525022231886713
76	0x3f86408a107c7c5b	0.010865286472436056
77	0x3fb892c2a9dfe0da	0.09598938605620636
78	0xbfbd973f9c9c3e4b	-0.11558911870474124
79	0xbfba802872e02143	-0.10351803593232937
80	0xbfa9e848e453a191	-0.05060031687918632
81	0xbfa56be356022a60	-0.0418387453547282
82	0xbfa258ebf97a705c	-0.03583466930760501
83	0x3fb945343769cc8d	0.09871221878874988
84	0x3fb827be3e443831	0.09435643215349
85	0x3f8c4a4261ff6e10	0.013813513389258097
86	0x3fb247ae8fb5b0aa	0.07140627869165664
87	0x3fc05d701a40f1df	0.12785149843138208
88	0x3fbc731e14252390	0.11113155357192128
89	0x3fac25e82cdc4cf8	0.0549767069589055
90	0x3f915e668487efbc	0.016961671675730136
91	0x3fc3eba9f3282c99	0.15562939045807836
92	0x3fbf9e2e3f4200a8	0.1235073952138942
93	0xbfc3cdb052b7e01d	-0.15471462286927898
94	0xbfb532d9a113c77c	-0.082807161164764
95	0x3fb72e41b604badd	0.0905495709782644
96	0xbf81b0592dc134d4	-0.008637139042685517
97	0xbfbe4ee0156e6738	-0.11839104197715933
98	0x3fb5e93bfb08a712	0.08559012297396532
99	0xbfa2fb84525e0fc6	-0.037075171522729586
100	0xbfc03953e6943791	-0.12674950369585905
101	0x3fcac0b56b491818	0.20900600184012386
102	0x3fa9626e291b5766	0.04957908870498677
103	0xbfbf141080ec4088	-0.1213999094727588
104	0xbfbe348a7823d53f	-0.11798921044449616
105	0x3fa838d6d1e513c0	0.047308648225715455
106	0x3fc9e551bc03cc62	0.20231076889430982
107	0x3fc4cf44303fe172	0.16257526737150446
108	0x3fbe83813db09f62	0.1191941047296701
109	0xbfb16e827a9aa366	-0.06809249394667702
110	0x3fc9082b88e0bddf	0.1955618303631885
111	0xbfa318dd7efa9997	-0.0372990815642879
112	0x3f7c38e6c2c02312	0.006890202912480674
113	0x3fb727dc169fa4a2	0.0904519610627568
114	0xbf6dd50ab63c00b2	-0.0036416253295784235
115	0x3fc6e7cabe92cd5e	0.17894872956604052
116	0xbfd00ea057e76781	-0.2508927210270642
117	0xbfce424c5cb60ee3	-0.23639826323425614
118	0x3faa04896a8dc00c	0.05081586290077675
119	0x3fc158b9b8b7e263	0.1355201866097274
120	0xbfca6473cf15be20	-0.2061905633122345
121	0xbfa054cf9469d400	-0.03189705549895194
122	0x3f862436f9ac2526	0.010811261648557901
123	0x3f82f5de85427ee3	0.00925802082230071
124	0xbfc98537b199d7f4	-0.19937797710343796
125	0x3fb7958a5bf9d201	0.09212555642609034
126	0x3f8e5d5fd7f6a883	0.014826535013373615
127	0x3fa0558e80f12ae4	0.0319027454757668
128	0xbfaa08b0ee645b66	-0.05084755811747392
129	0x3fb3462b06562732	0.07528942970944
130	0xbfb2d7bb41830f05	-0.0736043009701995
131	0x3fad828d0e122ee5	0.057636650054602424
132	0xbfa368176e14fcf8	-0.03790353029989463
133	0x3fb01241e8ebe4c4	0.06277858673628872
134	0xbfc006714ba8dfdb	-0.1251966113502466
135	0x3fd07c0d5f6b9cd6	0.2575715476836654
136	0x3fb2ce2a748d0d54	0.07345834107859633
137	0xbfb721dd2b0bc540	-0.09036047268798075
138	0x3fb83aa360a125b1	0.09464474782102773
139	0xbfb5a247ddd2853c	-0.08450745740494353
140	0xbfaaf9070bdf5d01	-0.05268117923668037
141	0xbfa41f028cbcbd88	-0.03929908721908776
142	0xbfac5096e1e144b9	-0.055302348206745795
143	0xbfb5929c374454bd	-0.08426834439554205
144	0xbfa8b3a534bcce32	-0.04824558514374323
145	0x3fa7bd4b281ad9cb	0.04636607040940851
146	0xbfc2078f107251a0	-0.14085567763380613
147	0x3fbfa9c59c5a090b	0.12368426387005031
148	0xbfa0bd10e27c928d	-0.032692458770076184
149	0x3fb4ecbd19456734	0.08173734538050043
150	0x3fc18731961f64bf	0.1369382842083606
151	0xbfb864d4322b1780	-0.09528852677166633
152	0xbfc41845b64ff2ef	-0.1569907322117596
153	0x3fc15b7a0f766057	0.1356041503429448
154	0x3f899a1cd1bfdf91	0.012500977660223874
155	0x3fa1d8569f30ae87	0.03485365575064941
156	0xbfc3f252cbaec16f	-0.15583262391511307
157	0xbfc38569d0a36075	-0.15250895202075623
158	0xbf8044fe43d37fcc	-0.007944094128504185
159	0xbf9b4b375f8bbfca	-0.026654114920290607
160	0xbfc017f09bf12060	-0.1257305871424732
161	0xbf9eb298ea3b7ce6	-0.029978169723901348
162	0xbfc151d7c8500e06	-0.13531014710325467
163	0x3fa33df2b11dfdc1	0.037582000847574466
164	0x3fbf52b522bfbc19	0.12235576723445298
165	0x3fa6497b59e31f32	0.04352937195068164
166	0x3fc2fbda78e1ed13	0.14831095602480868
167	0x3fc4636016299b11	0.15928269464640057
168	0xbfbd4699dd3a8f93	-0.11435853625385865
169	0xbfc5539dce4e83a4	-0.1666142709118762
170	0xbfa7dbe4da6db909	-0.04659953276028445
171	0x3f885b5bdff92d92	0.01189300324690271
172	0xbfb738112b1bb1c0	-0.09069926550336671
173	0x3fbc44b9b6c4428a	0.11042366706920795
174	0x3fb026de15300204	0.06309307114862156
175	0xbfbab0936c60eebc	-0.10425683399165114
176	0xbfa90a564b50ef49	-0.04890699071299182
177	0x3fad33b5aeb62ee6	0.05703513868055925
178	0xbfc39d8573ea2589	-0.15324466857809352
179	0xbfb52a2b0215506f	-0.08267468262539678
180	0xbf851124e8dc11f1	-0.01028660617476704
181	0xbfa163e4394b2a32	-0.033965236657952494
182	0x3fc05a9e8a1e5d0b	0.12776548141548746
183	0x3fb3c0d505d4aa70	0.07716113464690877
184	0x3fc588eda71e18a5	0.1682412210468033
185	0x3f7ef7300a3a2b66	0.007559955268912377
186	0xbf97dad413ce81df	-0.02329570170297923
187	0x3fb82860fdf03601	0.09436613273302187
188	0xbfb42f38419fdd4a	-0.0788455162254326
189	0x3fbfb2af16fe7f06	0.12382025061969779
190	0x3f94841fc71596df	0.02003526356329288
191	0x3fad6c77b1ae6996	0.057468166770564696
192	0xbfb58e5ce1f741f8	-0.08420353428596872
193	0x3fa1447d7dd2a019	0.033725663766120025
194	0x3fc08070899e6a06	0.12891966552417972
195	0xbfb666ea789c4392	-0.08750787205305091
196	0x3fa47d1a5c8b40c1	0.040016959950322846
197	0xbfb4a3b14bd901bf	-0.08062275029897757
198	0x3fd09ea221c3bcf4	0.25968220994305047
199	0x3fa581359827893b	0.04200141413072563
200	0xbf695e041e1cf317	-0.0030965881750532154
201	0x3f9b64bff9be9394	0.026751517885390166
202	0x3fb1b10361ad3a5e	0.0691072572201192
203	0xbfa7a84c44d856a8	-0.04620588627237271
204	0xbfbda93881938a24	-0.11586335338100945
205	0x3fa50918fc561147	0.04108503418231862
206	0x3f72e42fecc513d2	0.004612147528239201
207	0x3fad95abd60dca3b	0.057782525901434366
208	0x3fac4a52a3739fa6	0.05525453801402529
209	0xbf99ac2eb6190a7e	-0.025070886482590364
210	0x3fb78c2a24272d50	0.09198249228136501
211	0x3fb00bd2f4af531b	0.0626804206252242
212	0x3fa4db64a8956b45	0.04073633726030449
213	0xbfbea591b2f1e2d5	-0.1197138845326536
214	0x3fb0100aeca99e0f	0.0627447917737458
215	0x3fbccb0614796781	0.1124728965745856
216	0xbfb3c61f172b82ee	-0.07724184337304127
217	0x3f9de2a9dc829d40	0.029184965213656655
218	0xbfc044eeb25e41ed	-0.12710365018257566
219	0xbf8c59f8493a8424	-0.013843478903540492
220	0xbfb589ac508a4170	-0.08413197485265811
221	0xbfabf423793fe300	-0.054597004462214827
222	0xbf83189fa4acebc8	-0.00932430955218945
223	0xbfafca080a2c8ce5	-0.06208825229830398
224	0xbfbde33cce924ff4	-0.1167486194920569
225	0x3fc1455aa52bd996	0.13492901864055956
226	0x3f92cfa01e4e1bcf	0.018370153283765064
227	0x3f924cd892cd760e	0.01787126918804032
228	0x3fa3845c5ab1293e	0.038119207449727174
229	0xbfbf8ef293b09016	-0.12327495675759823
230	0xbf875e7825c17a35	-0.011410654689993563
231	0x3f57709b431dd6b3	0.0014306560737770535
232	0x3f95dafdb398002a	0.02134319695142054
233	0x3f9165566fc06d32	0.016988134928493888
234	0xbfb2e0cd737b89f4	-0.07374271459006093
235	0xbfbf2467963d2c21	-0.12164924066489437
236	0x3f9523cf08176fc2	0.020644411915654144
237	0xbfc1c80e35e8042d	-0.13891770965713715
238	0xbfbc89aff60c659f	-0.1114759422020115
239	0xbfa5e5111663f20b	-0.04276326559372386
240	0xbfc018117be461f0	-0.12573450612468617
241	0x3fb6e57f3928bcc3	0.08943934579359607
242	0x3fa25f17920bdad7	0.03588174493591161
243	0x3fb6b359f08562ff	0.08867418405624149
244	0xbfa8451895383e7e	-0.04740216084985337
245	0xbfb72492be6bb853	-0.09040181302018029
246	0xbfc16a54f6c4950b	-0.13605749177182988
247	0x3f58ac706e7dcf53	0.0015059564556993601
248	0xbf94e300db8690a6	-0.02039719905737116
249	0x3fc0b7372f84006f	0.13059129543399048
250	0x3fbb1aec68563380	0.10587956950457844
251	0xbf816debfc182593	-0.008510440474327285
252	0x3f828a5bccbed8a0	0.009052960573040558
253	0xbfaec464ea10c913	-0.060092118809182214
254	0x3fc79dda5c4cf72a	0.1845047903715849
255	0x3f99460a43111166	0.024681244223999775

fc_hidden_list.0.bias f8 [50]
0	0xbfbb9865ec20a5b8	-0.1077941609843468
1	0xbf994fdd1fcdfa8e	-0.024718718591879844
2	0x3fb866bfa3d0465f	0.09531781911234692
3	0xbf90cb4da4a2d43f	-0.01640054051741324
4	0xbfa3275d6236d6ac	-0.037409704436340036
5	0x3fb3c73806472e6a	0.0772585883452678
6	0x3f9593a2f4c6e061	0.021071001234048817
7	0xbfa675cf5efceef1	-0.04386756929895153
8	0x3fadc641cabfefe6	0.0581532058713206
9	0x3fb03e8b78921a16	0.06345435804005492
10	0x3fae0671a9701347	0.058642913754772645
11	0xbfb0a019ae39df99	-0.06494293693128696
12	0xbf828df0e4934a4d	-0.00905979344898813
13	0xbfbe74608a49771f	-0.11896327377459358
14	0xbfc010b66dbbfca2	-0.12551002843972464
15	0x3fbea7480192598a	0.1197400096737963
16	0x3fb0b0a8ed7a68ae	0.06519561574751506
17	0x3fa9af7e933accb0	0.05016704127538085
18	0x3f7538a02f9fb671	0.005180955626185133
19	0x3fb11ecb852a59e7	0.06687614441975819
20	0x3fc2102221911a9b	0.14111734999660971
21	0x3fadefe34237289c	0.05847082312864524
22	0xbfaadb370d886946	-0.0524537281055069
23	0x3fc9d2fb20e94f08	0.20175112826347452
24	0x3fcc60502a9f924d	0.22168924409119697
25	0xbfb1b5ca4dee8455	-0.06918014910344657
26	0xbf9352731d71474c	-0.01886920802309726
27	0x3faeb8766323f207	0.06000108680925469
28	0x3f8396add7ee97eb	0.009564741279813624
29	0x3fbe241682981ccc	0.11773815811476424
30	0x3f8272dfdbe4bc0c	0.009008168123356718
31	0xbf4ea2950df15c47	-0.0009349086575508669
32	0xbf94d8ba84a20024	-0.020358003945602957
33	0x3face772a9207c66	0.05645330729043323
34	0xbfb9e7b2ceb331d3	-0.10119168802629668
35	0x3fa4c813c14b745c	0.040588967652845226
36	0x3fc1cd7c337d4f14	0.1390834094441905
37	0xbfa2ed9d95f05305	-0.03696911292369091
38	0x3fa0ee8a57db3cf4	0.033069918846757945
39	0xbfb8c73d47b7df4b	-0.09679015160497532
40	0xbf658e3bea967951	-0.0026312990418794553
41	0x3fb6e1f5ccb00455	0.08938537833457023
42	0x3fb2386b7e2860c9	0.0711733992578757
43	0x3fb1f6a9057a2f08	0.0701699865696207
44	0x3fc99b1d8286ef90	0.2000462424601861
45	0xbfb3d5d37a8497f4	-0.07748147717629178
46	0x3fc03ba2dbb27b65	0.12681995131876103
47	0x3fc16800494044b5	0.1359863622351775
48	0xbfc044544451127b	-0.12708524070525926
49	0xbfa65302cd6f529e	-0.04360207326650321

fc_hidden_list.1.weight f8 [50, 50]
0	0x3fb58e799a8f94e5	0.08420524619539867
1	0xbfb83875066dfae5	-0.09461146742794886
2	0x3fb264a06f9d66f0	0.07184794163677188
3	0xbfb9b358844871a3	-0.10039284925046003
4	0x3fc2a92236c19310	0.14578654931678914
5	0xbfaec7dfa2b0e52a	-0.06011866436933595
6	0x3fb95571d70c6c00	0.09896003246505813
7	0x3fb2bd3cd263beae	0.0732000363966516
8	0xbfc0e9b5ad347ec9	-0.1321322532394247
9	0x3fb2e52b54f612a9	0.0738093454766139
10	0xbfb279f6349bb210	-0.072173488467975
11	0xbfc222ba74382a13	-0.14168482470297813
12	0xbfbebf01ba5f8d55	-0.1201020317089861
13	0xbf61f09eb3265836	-0.0021899318318885598
14	0x3faf5bdb9395896f	0.06124769379200045
15	0xbf7e69224e88f07a	-0.007424482355926293
16	0x3fc15f0affeec1d2	0.13571298119269543
17	0xbfa1233d579f58cb	-0.033471981950854955
18	0xbfb5e48050289286	-0.08551790196413309
19	0x3fc03e9adb68af31	0.12691055024458245
20	0xbfb24f62049531f2	-0.07152378665814021
21	0x3fb331229a45f9d2	0.07496849314154666
22	0x3fbcb9f2e6f93d60	0.11221235407832841
23	0xbfb50beee6942b65	-0.08221333627095147
24	0xbfb1eff13a2ffde9	-0.07006747885315402
25	0x3f80032022477dad	0.007818461462135351
26	0x3fbe5a94145ffd5a	0.11856961724696671
27	0xbf8afe536e449a5a	-0.01318040066014452
28	0xbf93812849df5d56	-0.019047383793659854
29	0xbfbba203b0c0f246	-0.10794089379573632
30	0xbfc101004e0ef0c8	-0.13284305392688212
31	0x3fb29824b0124c03	0.07263402269954615
32	0xbfbc231840089733	-0.10991050303763643
33	0xbfab84b78f942e17	-0.05374692561789745
34	0xbfc0619d0a069f6a	-0.127978925605244
35	0xbfb1c4ffca728e51	-0.06941221897664575
36	0x3faeaf6fd0bfcdd3	0.059932226402363085
37	0x3fc21a659a6496a0	0.14143056906430207
38	0xbfbd809aa8641657	-0.11524359332187238
39	0x3fb1bd3e206d358c	0.06929386417069433
40	0x3f75f14fec1cf66e	0.005357086369085813
41	0xbfbbb091e6406805	-0.10816299315811768
42	0x3fc1347cb1ded8b8	0.13441427884180768
43	0x3f709d1ce62f797b	0.0040560845254432555
44	0x3fa53ee223a609a5	0.041495386935838575
45	0x3fc6aa6fecdaac62	0.17707633080621848
46	0x3fa3629bdff04f00	0.03786170109392906
47	0xbfbb6d3f6fdc752d	-0.10713573914513992
48	0xbfc25e1063d74026	-0.14349560618438878
49	0x3fc25172ad3551b3	0.14311059434352344
50	0x3fc389c9a2439cea	0.15264244483044048
51	0x3fb4eab4277943db	0.0817062946673696
52	0x3f9c9023b60314c7	0.027893598541386646
53	0x3fb123cdb4b6871e	0.06695256864489038
54	0xbf864b3b495421bf	-0.01088568036586046
55	0x3fa211a825129675	0.03529096081301201
56	0x3fa10fc341c4fcb2	0.03332338502740963
57	0xbfa675e6c2eb9f53	-0.0438682663860265
58	0xbfbf52846d07587b	-0.12235286390145632
59	0xbfb2d25ce396a954	-0.07352238232002622
60	0x3fac4bca12a319fe	0.05526572682861185
61	0x3fb98e0d958506ce	0.09982380772000995
62	0xbfae3f46bd7f61b0	-0.059076510078458155
63	0xbf6ff2625588adb4	-0.0038997574413508155
64	0x3faa3487fd324403	0.05118203130508194
65	0x3fbc8d63aaecd419	0.11153242991424896
66	0x3fb9bc6931b385ac	0.1005311724034274
67	0x3fc125a44d5a948d	0.13396123673479501
68	0x3fb5779927279098	0.08385617452546723
69	0x3fb48d327eab5169	0.08027949898252519
70	0x3f9616e5109fcf20	0.021571711673416094
71	0x3f9f22b8884db8cd	0.03040588695460471
72	0xbfa76f70878b39fa	-0.04577209143245749
73	0x3f79728fb4233bda	0.006212769834930543
74	0x3f91c154d6b5936d	0.01733906326753092
75	0x3facaf1542bd4524	0.0560232776612202
76	0x3fbbbea6ea0ae1b3	0.10837786878517512
77	0xbfa50f4fd4298909	-0.04113244500037367
78	0xbfb0a5d1f3228f9c	-0.06503021417534999
79	0x3fa0dd4a2a37a01a	0.03293830647800196
80	0x3fa21321f8911877	0.03530222090971418
81	0x3fa4adac9984d359	0.04038752912530325
82	0xbfba5f822e76d7d1	-0.10301984438305502
83	0xbfb14b722c72dfdf	-0.06755746445821796
84	0x3faf8b0b031d73e0	0.06160768902802949
85	0xbf539d7ec5f2f2ce	-0.001197217752447677
86	0x3f7277b22d59c16f	0.00450868225526367
87	0xbfb75e9e4cdbc2ce	-0.09128751160074985
88	0x3fc0d2c2dec43b25	0.1314319217421708
89	0x3fc0ca96c9cfe2cf	0.13118252615074374
90	0x3fbf5dc0554d4cbf	0.12252428133551783
91	0x3fb713a3dd0bd444	0.0901434340156167
92	0x3fbee771dc0313fa	0.12071906682383818
93	0x3fbf280d73b60d02	0.12170490336398035
94	0x3fbf434967b15d74	0.12212046414912497
95	0x3fae21e118b3f9cf	0.05885222841787973
96	0x3fc0964e59bef4d6	0.12958697683453718
97	0xbfc0000823f1901e	-0.12500097041186192
98	0x3fc76060ca80978f	0.18262872588928444
99	0xbfb867f2d901d941	-0.09533613012340415
100	0xbfb71751da097db8	-0.09019958089037672
101	0x3fc02b4b8420e2f0	0.12632125808320138
102	0x3fc227925e3c33f2	0.14183263398481888
103	0x3fa7505548f6e700	0.04553476825408431
104	0x3fb80712fcc1b32b	0.09385794325653467
105	0xbfb2e51338647d1a	-0.0738079083134732
106	0x3fb9401da453603d	0.09863457929475401
107	0xbfa704553e4aa40e	-0.04495493302722063
108	0xbfba20600bab4482	-0.1020565060128025
109	0x3faad59bece07b1d	0.052410957971224394
110	0xbfb6576de4b5a7fd	-0.08727156480532013
111	0xbfbcd145b85a682c	-0.11256824255761505
112	0xbf6eb798bb7ffb29	-0.0037496550612553703
113	0x3fc8fc654f574a69	0.19520250677176712
114	0xbfa6c0bbc7f61a47	-0.04443919006285007
115	0xbfb3b01934275747	-0.07690579913409322
116	0x3f9850e8e13bb007	0.02374614596094207
117	0x3f64735f2482d845	0.0024964197401358434
118	0xbf83e45e1108454d	-0.009712920088562749
119	0x3fc049331a3de263	0.1272338750966525
120	0x3fb93f7c5c5b73f3	0.09862496619048482
121	0xbfc2a76f3b840147	-0.14573469549214677
122	0xbfc29e79cd2c4c7b	-0.1454612972089285
123	0xbfbcab8917635abb	-0.11199242421148885
124	0x3fa1789d056cf491	0.03412333193998863
125	0xbfb5d912c73e224e	-0.08534352649997709
126	0x3fa23a30f682405c	0.03560021409168776
127	0x3f9a885905986292	0.025910750357157904
128	0xbfc422724fad7217	-0.1573012246179963
129	0x3fa74c97fd93a709	0.04550623865527654
130	0xbf98a0d9188e0d7d	-0.02405108654376197
131	0x3fb37062f8afcbfd	0.0759336335320739
132	0xbfd00d0f901bac6d	-0.250797167521063
133	0x3fbfbfe4c063110a	0.12402181336353038
134	0x3fb5ed7d3ee6a3ee	0.08565504823367551
135	0xbfa7628a90f730b6	-0.04567368526076747
136	0x3fac9da2f3c0b0e0	0.055890171294181945
137	0xbf83e3cba9776d1a	-0.009711829289634145
138	0x3fc3ddf2cf028e26	0.15521082981023077
139	0xbfc1f6fb0acfd2c7	-0.1403497507850686
140	0xbfa5c5bd9e1e3d2c	-0.04252426676895946
141	0x3fbdd9f9086c2cb1	0.11660725074414093
142	0x3fb960e98f3f15da	0.09913501498439051
143	0x3faca7e3b0b81d14	0.055968394586722564
144	0xbfa39614059aaf84	-0.03825438087855473
145	0xbf92b0c7d0bed494	-0.01825248920041085
146	0xbf92d6f163d165d1	-0.018398067204861427
147	0xbfa0ef4c1bcc9c9e	-0.03307569350573057
148	0x3f93c9c2f32a4a98	0.01932434662973978
149	0x3fc1cfb78eda738c	0.1391515204931263
150	0x3fc0a85a018f049a	0.13013768268686904
151	0x3fa16c9931ad2f2a	0.03403166514780616
152	0xbfc4d979b18ec67a	-0.16288682145891525
153	0x3fbd1ad04f993cc5	0.11369039481472772
154	0xbfb2095f7a0fa373	-0.0704555199623778
155	0xbfaa24dbd737423a	-0.051062459966150844
156	0xbfb8ca39185d1f16	-0.09683567852800609
157	0xbfadebe947e3bcf0	-0.0584404850250112
158	0x3fc00ea28fd736d5	0.12544662497969364
159	0xbfb55546d2e2ebcf	-0.08333246849626551
160	0xbfc0790c615a4183	-0.128694102797919
161	0xbfc0481de15803d6	-0.12720082762828494
162	0xbfc295ae1f241d7b	-0.14519287605819983
163	0xbfbe8bb8b52ff335	-0.11931948112028297
164	0x3fb08996700ac056	0.06459942088508916
165	0x3fb24b78f7a2e70e	0.07146411939438854
166	0x3fc57d651251dddb	0.16788924593468732
167	0x3fc4277814ce4e21	0.1574545003501138
168	0xbfc41aaae23735f2	-0.15706382795035229
169	0x3fa6c165d8bac0d2	0.04444425840972745
170	0x3fb4c4720f45a2a5	0.08112252114154701
171	0x3fc213e6b03ae6e9	0.14123233418450035
172	0x3faf9141edb8ccec	0.06165510203245525
173	0x3fa091b6183bf178	0.03236168905093256
174	0x3facc81b8621eaf5	0.05621419918403162
175	0xbfbc0e2233d0580d	-0.1095906616686479
176	0x3f9b99d5d83e3504	0.026954022715973927
177	0x3fa925b8cfd45cb9	0.04911592041951835
178	0xbfaa3cc83bdeb37d	-0.051244981106129274
179	0x3fb2bf609e11f437	0.07323268756040667
180	0x3fb9b04277aef9f0	0.1003457586475418
181	0x3fad8e3e63f0ed93	0.05772585840210378
182	0x3fb646d6972ff2b6	0.08701840582939266
183	0x3fad2a8c6f2d5213	0.056965244838156924
184	0xbfb36f7ca6e76e63	-0.07591990542226194
185	0x3f872ea8972704b3	0.01131946288376393
186	0xbfa5ba1f51c6d5df	-0.04243562577486747
187	0x3fc6b2629ab1d383	0.17731888345192823
188	0x3fa26114373fc1da	0.03589690374781514
189	0xbfc0753216155188	-0.12857652738842895
190	0xbfa78a3c98d6a816	-0.04597653737739919
191	0x3fc4fd3e39f35838	0.16397836522691178
192	0xbfb2c88100f20ae7	-0.07337194703181248
193	0x3fb975f988d85503	0.09945640173858199
194	0xbfb47e4a51da9edc	-0.08005203722370474
195	0x3fb1c1f4f6a4b0de	0.06936579724851152
196	0xbf80738453fc93b5	-0.008032831013744838
197	0xbfa36f366a1ec5b7	-0.03795785947239543
198	0x3fb79b1cd1d17b92	0.09221058008686914
199	0x3fb54c2bce84326f	0.08319352905182041
200	0xbfb5566a56dead5c	-0.08334984417768027
201	0x3f90ec55bbeb8de7	0.016526546091780416
202	0xbfbbd9d72046af06	-0.10879272974005624
203	0xbfb903ee8aa4dbfb	-0.09771624455321153
204	0xbfc112ad1d30dcc8	-0.13338245320639985
205	0xbf8d09b46b3c5919	-0.014178666613173395
206	0xbfc185ab995146cb	-0.1368917940731563
207	0x3fb44a08f95f6541	0.0792546852893752
208	0xbfb2604e87bd9507	-0.07178202451685332
209	0x3fb2f1971b21006a	0.07399887478186576
210	0xbfb6685549cd1533	-0.08752949764046462
211	0xbfb83c0edb1e8a05	-0.094666412826463
212	0xbf693e330072c736	-0.0030814167144733963
213	0xbfb5bf047f589d2c	-0.08494594677960227
214	0xbf9c84bbbc9db30e	-0.0278500875351027
215	0x3fc2dff3e15b8f6e	0.14745949271957265
216	0x3f9b03de4255b8c9	0.026381943510778414
217	0xbfb7e997deadf178	-0.09340809999952693
218	0x3f8f7025aed4fe1a	0.015350622556638039
219	0xbfa82ea260b87e1a	-0.047230791384432716
220	0x3fa00d1335e69590	0.03134975464790124
221	0xbfc12d188339d43c	-0.13418871314539327
222	0xbf644df7bf4ce6ce	-0.0024785841764270794
223	0xbfa9eb516730ff83	-0.050623458716017054
224	0x3fb15521d8b90b7f	0.06770526448330648
225	0xbfb7da17c812498d	-0.09317158350521577
226	0xbf9d513505c0768a	-0.028630093074858233
227	0x3fab8b00b8b5883d	0.053794882342814244
228	0x3fb8666c2f9af499	0.09531284486998216
229	0xbf90dc90bb57b0ee	-0.01646639007042066
230	0xbfacc7227b1ccfb3	-0.05620677712286639
231	0x3f7cd0a4c1d8d8e4	0.007034915526267425
232	0x3fbb4eabbb91362a	0.10666917161253112
233	0xbf6b1902f03c88fb	-0.0033078248396957144
234	0xbf94933f500ad34c	-0.020092953930276367
235	0x3fc01ae4e1328cc3	0.12582074161500686
236	0xbfb8a13b8493ea07	-0.09621021258127636
237	0x3fbbff53b952095e	0.10936473154473478
238	0x3fb11cb6c42328e6	0.06684438980588289
239	0x3fbf28f7746c608e	0.12171885101668264
240	0xbfc5085069359a3d	-0.1643162263601016
241	0xbfc3508ce504a2a1	-0.1508957021954034
242	0xbfb3fefc084c9f59	-0.07810950472469126
243	0x3fa0b41aff7489c8	0.03262409561490959
244	0xbfbd2ae1b48f7f7f	-0.11393557222572602
245	0x3fc034d3f13561ef	0.12661217954406775
246	0x3f9c80085507ee66	0.027832155408744085
247	0xbfbce7e2768f5458	-0.11291327852753008
248	0xbfc0f61949f12993	-0.1325103388829346
249	0x3fc293e27965883b	0.14513808181351515
250	0x3fc2ba7d4d53069e	0.1463162066993861
251	0x3fbf24b1789852ac	0.12165364450658939
252	0x3fbc353853e89210	0.11018707321688503
253	0xbfafc7b8e1ed225c	-0.062070634440321654
254	0x3fbb9f778cb38f8c	0.10790202317326542
255	0x3fb67e5dcde70e78	0.08786569859426574

fc_hidden_list.1.bias f8 [50]
0	0x3fa874f04d974405	0.047767171355765504
1	0x3f940a5ca9e3f809	0.019570777768414902
2	0xbfb63c490c3e09bd	-0.0868573813332096
3	0xbfb143a5c231e19c	-0.06743846884808707
4	0x3fa157b780bbf770	0.033872351135854184
5	0xbf920964646198ff	-0.017613953234467235
6	0xbf8c7ff00268d090	-0.013915896485834162
7	0xbfb4ea773578afc1	-0.08170266204314115
8	0xbf8ae0266d925e01	-0.013122844904770227
9	0x3fbd4150df97a11b	0.11427789171978413
10	0x3fbd9fc479114589	0.11571910815952981
11	0x3fc1375cf2b08324	0.13450204706261915
12	0xbfbd112ea64a6e0c	-0.11354342994530259
13	0x3fb4ba5143616a50	0.08096797843010362
14	0x3fb200fd5cce26e4	0.07032760158304147
15	0xbfaaa0261ad56362	-0.052003088737086825
16	0xbf935f20f408f7f8	-0.01891757478210107
17	0x3fa21936f25f18c2	0.035348622404443045
18	0xbfa14cf4f5c39af5	-0.03379025936174244
19	0xbfb20dc092a262a3	-0.07052234249057192
20	0x3fc0f13c70823dca	0.13236194127646989
21	0xbfb8289623521c0f	-0.09436930048296709
22	0xbf9a4039a30ad391	-0.025635624481498424
23	0xbfa47c3762bf10c2	-0.040010195545194374
24	0xbfcc8ef43a981214	-0.2231126104453699
25	0xbfbd57700e894ce2	-0.11461544375315527
26	0x3fa0b40b9506248a	0.03262363618984761
27	0xbfacb131ccd93390	-0.05603938699332567
28	0xbfb1b74d12811f07	-0.06920320226447184
29	0xbf94763ae52eb1d4	-0.019982261884864475
30	0xbfc1f77a709a5f6c	-0.14036493776506676
31	0xbfb8f66dd2a4db99	-0.09751020806002798
32	0x3fa685f1598e720f	0.04399065225809206
33	0xbfc1b89ee390895c	-0.1384466754107717
34	0x3fc0becbe27d7ad8	0.13082264479722627
35	0xbfb68d3b2535369c	-0.0880925145949853
36	0x3fa46d17fbf3f799	0.039894818788510374
37	0xbf512059d54c6412	-0.0010453107144654567
38	0xbfb91415f73cc71b	-0.09796273504323631
39	0x3fa7c31435817c6b	0.04641020920893698
40	0xbfc0aba8c0c7a120	-0.13023862279011045
41	0xbfc0ecb69cac96a3	-0.13222391748529558
42	0xbfbe6748f070a236	-0.1187635027896555
43	0x3fbe31cd42226597	0.11794741501434768
44	0x3fb420a8f9ebeec5	0.07862335301973207
45	0x3f438fb01a9a2b68	0.000596962917556493
46	0xbfa73cbf0593011e	-0.045385331564377504
47	0xbfc095bab4e32158	-0.12956937630066068
48	0xbfb6d966eb1c4079	-0.08925479164122575
49	0x3fbec448df0089c5	0.12018256611239682

fc_hidden_list.2.weight f8 [50, 50]
0	0x3f8c9cc526c6158b	0.013970890279561462
1	0xbf816c48540c0c2f	-0.00850731379023814
2	0xbfb4fcbafaa847bf	-0.08198135966838914
3	0xbfb44ca60701b78a	-0.07929456397115878
4	0xbfb0a5bfe5d7a65d	-0.0650291381968144
5	0x3fb7fb1506d0b9a4	0.09367495933904607
6	0xbfaca65148ec5832	-0.055956401969681116
7	0x3fba089e72e53ab9	0.1016940145975508
8	0xbfbaa131a50fa495	-0.10402212409793983
9	0x3f98917e686098f8	0.02399251472538652
10	0x3faef0d06521c293	0.06043101534385644
11	0x3fc32229fa864e15	0.1494801018967428
12	0x3f8fb69375bca55f	0.015484954863114351
13	0x3fa8f0af2dae1199	0.04871127541176463
14	0xbfb64e3e209f4215	-0.0871313886302761
15	0x3f7db051e8fd9806	0.007248229943661149
16	0x3f91febfbf4ada55	0.01757335286193958
17	0x3fc2b91f1a62b610	0.14627445972784914
18	0xbfb2d5f894a25a35	-0.07357743862881068
19	0x3fa2de93c9d39ed7	0.036854380023042026
20	0xbfa7e63b62aa43df	-0.046678405565337526
21	0x3fbccf9596cf4bb9	0.11254248554114
22	0x3fb8f3b40840846f	0.09746861649957038
23	0x3fc72df26d61eb3b	0.18108969059889
24	0xbfb015d5a5e52b9b	-0.06283316898513507
25	0xbf9a308e4d91ca84	-0.02557585094877847
26	0xbfc3aac2a84d1385	-0.15364869325472
27	0xbf423bca14d11dc8	-0.0005564438557791812
28	0xbfb774ef8ff3e4fc	-0.09162804855795409
29	0xbfc50a6632ed8fa1	-0.16437985884396958
30	0xbfc014fef4233f6b	-0.12564074440751524
31	0x3fa54bc198b59970	0.04159359921577532
32	0xbfa5a3f7bebd53b5	-0.0422665996872306
33	0xbfb3255368dca5f7	-0.07478829679589426
34	0xbfc11158e21d88f1	-0.13334189453878012
35	0xbfa3e1531a2f4b60	-0.038828465410594815
36	0xbfb2425ca1e7fd56	-0.07132510140217127
37	0x3f92c201130cbe7b	0.018318192279535666
38	0xbfae3ec9b4d6400d	-0.059072783779925066
39	0x3fc2291772b31a0a	0.14187901592795554
40	0x3f9678ed1a81b95c	0.021945671789972962
41	0x3fb7b28e1cc7a640	0.09256828501352121
42	0xbfbc20edc170f374	-0.10987745258985432
43	0x3fa3f072a0bbaa5c	0.03894384586404406
44	0x3fbb1bf0fd7e8ad4	0.10589510144067599
45	0xbfa24092f0289985	-0.03564891034720844
46	0xbfbd1e5c3279d7c4	-0.11374450905154193
47	0xbfa0a95413ee1991	-0.032541873391028216
48	0xbfbf38a2eca635e5	-0.12195795323915311
49	0xbfc332cf2d2aa975	-0.14998807626154656
50	0xbfa8a43b6006c50a	-0.048127990219095265
51	0xbfaba91f10792db8	-0.05402466846552606
52	0xbfc47099a972b172	-0.15968628667668444
53	0xbf9f8f8acdf619d0	-0.030821007557756464
54	0xbfbc0b9b7778bffb	-0.1095521132162957
55	0xbfa926d97215833c	-0.04912452237727513
56	0xbf94c88a73656ebc	-0.02029625253031385
57	0xbf90bafa7088b54e	-0.016338265532046585
58	0x3fc6348bbded2779	0.17347857259511182
59	0x3fb78c8a7322c2ff	0.09198823271686861
60	0xbfc1f3a25a72fdff	-0.14024762550796763
61	0xbfa2fd0b30dba276	-0.03708682032976622
62	0x3fbe58cba0c4247e	0.118542410611683
63	0x3fa781d931fdfd2b	0.045912539818340946
64	0x3fa919a9d560809d	0.04902392129611253
65	0xbf78d853f2848542	-0.006065681380534928
66	0xbfb8c4e6cec38da7	-0.09675447986551565
67	0x3fa80aabefb353eb	0.04695641804725156
68	0x3fbd7306f75c6dd3	0.11503642596328882
69	0x3fc4c0be2cef4601	0.16213204568934717
70	0xbfa3ee1912ed4877	-0.03892591815987683
71	0xbfc1dfb7718608f7	-0.13963978808539654
72	0x3fa4e01c2ab18dc8	0.04077232381021251
73	0xbfa66f3ce03950c6	-0.04381742703540818
74	0x3fcb12afc00a61cc	0.21150776745777333
75	0x3faac10c33162a55	0.052254086719660954
76	0x3fb2848dfc313a26	0.07233512312925736
77	0xbfb53979a805f78b	-0.08290825225955538
78	0x3fa7ec5a6b5df5d8	0.04672510681755754
79	0xbfb83e7c38304c34	-0.09470344898026967
80	0xbfa586e0128ed0cc	-0.04204464174782316
81	0xbfb2037c83ef772b	-0.07036569806174657
82	0x3fbe3e255590ad98	0.11813577021592037
83	0x3fb59e6b69df7720	0.08444854101932409
84	0xbfbe6e75e410f17c	-0.11887299364111031
85	0xbfc0518851ec0282	-0.1274881744393675
86	0xbf81105077a0c015	-0.008331898356203774
87	0x3fb5cbb6577d8b5e	0.08513965259548459
88	0x3fa0e1815db3c763	0.03297046917749815
89	0xbfa49f949a38c1fa	-0.040280002427952113
90	0xbf70ff532be85660	-0.004149746788717573
91	0x3fbb64968f7c4fdb	0.1070036030108094
92	0xbfb3dc82710c8def	-0.07758345851885172
93	0x3f73ba5226d00e03	0.004816361336455357
94	0x3fb4f1c1dd47ee39	0.08181392338149686
95	0x3fbf2b595576cb29	0.12175520264171937
96	0x3fbab363408481cc	0.10429973912369589
97	0x3fc0b3ea5143e568	0.13049057930019647
98	0xbfc0b087057b1ac1	-0.1303871895563216
99	0xbfa16d689259bae5	-0.03403784548287606
100	0xbfc407e19767e2e5	-0.1564905156408464
101	0x3fb560683c595454	0.08350230668413988
102	0x3fa1ddaca53438ff	0.03489436642313314
103	0x3f8f3afcb2a41fbb	0.015249227716154104
104	0x3fb93ff1ea42847c	0.09863197297319631
105	0xbf9865acf1b0a638	-0.023825361491765146
106	0xbf9627acb0de6be5	-0.021635721488205823
107	0xbfb8eaa1c134df50	-0.09733019797283515
108	0xbf9864432fc5109b	-0.023819970884929913
109	0x3fba32c3fdf5201e	0.10233712148794935
110	0xbfbc67c59996e9b6	-0.11095843314880124
111	0x3f8e711e0e889506	0.014864191835906936
112	0xbfc3f4ad2e37a288	-0.15590443379121077
113	0x3fc0edb874be6859	0.1322546548879611
114	0x3fbe03c4741626e3	0.11724498590606518
115	0xbfb4e241dc21a110	-0.08157741188336254
116	0xbfc24ecc4b9d6785	-0.1430297249997318
117	0xbf8b88efc36ad51f	-0.013444779540217553
118	0x3f97a90333e6a590	0.023105669062407908
119	0x3fbb4a93a3c6ea5c	0.10660670040571446
120	0xbfae3d8415e5e4ea	-0.05906307952222696
121	0x3fb328fb84e81f06	0.07484409327309657
122	0x3f5e8d3d5ae63565	0.001864728848519925
123	0xbfbcf2411212f34d	-0.11307150546322227
124	0xbfb158cb27c8b3b0	-0.06776113244332183
125	0xbfc148da9f2d2e9f	-0.13503582737245254
126	0x3fc30968203c9537	0.14872457098059907
127	0x3fb0ddc5e0cc3742	0.06588398683763066
128	0x3fbc442ce2338bb9	0.11041527292722621
129	0xbfaf2536ba533119	-0.06083079361414629
130	0x3fa124713f6842e8	0.03348115824713266
131	0xbf9a239a7ba302bb	-0.025526441379727354
132	0x3fa25cb397dd5be2	0.035863506591958375
133	0xbfbdbc213587128c	-0.11615188175989938
134	0xbfb208ae20b0e7db	-0.0704449491321663
135	0x3fb950502c95adfc	0.09888173187726318
136	0x3fbc6944902ac2a8	0.11098125953391025
137	0x3f9f3acf4ae3a30c	0.030497778840898923
138	0xbfa2f96b72979c00	-0.03705917142706738
139	0xbf9df16f22738cfe	-0.029241310575241812
140	0xbfaafb28239ae892	-0.05269742426521974
141	0x3fbca4a6381ca04b	0.11188734884183409
142	0x3fa96e779a3fb4a3	0.049670922831731155
143	0xbfb348f4e9750509	-0.07533198070179394
144	0x3f91723b32a6e7f1	0.017037320105124768
145	0x3fb90e15e0532ce6	0.09787117697412703
146	0x3f99753521661e5f	0.0248611737856933
147	0x3f46b74a3255afa8	0.0006932365692313607
148	0x3fc036e27dd63bfb	0.1266749491155393
149	0x3faae8e38c411c57	0.05255805098618598
150	0xbfac52577405baf2	-0.05531571666039338
151	0xbfbb1905365d633e	-0.10585053040757672
152	0xbfb4f45c6cf92e3e	-0.08185365353090732
153	0xbfbdd7afab282217	-0.11657236031181416
154	0x3fa0350d3014e4da	0.03165475093778421
155	0xbfad8e0f9f0f1fa3	-0.057724464575186894
156	0xbfc14beed33b94d2	-0.13512978853319751
157	0xbfc1cc2ee2b9e45a	-0.13904367514240584
158	0xbfa35cc973674da7	-0.03781728299841385
159	0xbfb6b5731c5de2e1	-0.08870620195910874
160	0x3fa95dc837e43ea7	0.04954362566252018
161	0x3fc516cee0a248ec	0.16475854843572024
162	0xbf89700278ae1234	-0.012420672710285442
163	0xbfbf93b18125ced1	-0.12334737208385184
164	0x3fc404036bdb6d24	0.15637247816526056
165	0x3fbc5fc086aacc6f	0.11083606040738102
166	0xbfa7edea885b8d25	-0.04673703112146147
167	0xbfb58849997b1aab	-0.08411083218661967
168	0x3f9649dbcd97dd28	0.021766123221792416
169	0x3fa5cb83ab6eaa4d	0.042568316151421294
170	0xbfa02fa4cfd8631b	-0.031613493320213425
171	0xbfce6627c8e73ab2	-0.23749253568390355
172	0xbfc2653f2ad188a7	-0.14371480551478052
173	0xbf906a86a3dd170f	-0.016031364203875017
174	0x3fb1aad264d9bb6a	0.06901278459711838
175	0xbfa17fe312c3f692	-0.03417882541724028
176	0x3f76b344e6bcba91	0.0055420581300455055
177	0x3fbb1e48c922960a	0.10593085203671407
178	0x3f97fe297dc68df0	0.023430488874181365
179	0xbfa6cf2e94f09135	-0.04454942291366352
180	0xbf86fdfefcaf7e36	-0.011226646505689702
181	0xbfc0d85d5491b1cf	-0.13160292271949323
182	0x3f9c9f5162d095d8	0.02795149961106866
183	0x3fcc9f0d73e4b38c	0.22360389860969254
184	0xbfc3b371705abbae	-0.153913669453201
185	0xbfb20314cc9d7fdd	-0.07035951610077924
186	0xbfae827c501dc523	-0.05958927610380218
187	0xbfb69960ae7aacbf	-0.088277857396565
188	0xbf5e2899201d95ed	-0.0018407340398537378
189	0x3fac3c18c2c24e66	0.05514600160054499
190	0x3f9b854e6286d5a2	0.02687571026190983
191	0x3fc2c10db99cf9a5	0.1465165287317635
192	0x3fc4469acece0cab	0.15840468500036783
193	0xbfb54266bc6d94e2	-0.08304445362371696
194	0xbfa5b244cc861cc8	-0.04237570759419779
195	0x3fb789b39348b041	0.09194490762519171
196	0xbfb56331a8c4655b	-0.08354483003895068
197	0x3fabea83d909185e	0.054523582690806136
198	0xbfbcd4c803f12947	-0.11262178512803188
199	0xbfb4c1559384c6c1	-0.08107504703073244
200	0x3f49ecbe715f34a7	0.0007911615273258524
201	0xbf9a04df059927bd	-0.0254092070738705
202	0xbfadac5212b3cf16	-0.05795532682705422
203	0xbfb93e143fa8e460	-0.09860350183670752
204	0x3fb15ea51d2c7f29	0.06785041773082114
205	0xbfafe29f1ea2479f	-0.062275860299578094
206	0xbfc677f1de778880	-0.17553542482989215
207	0xbfbed7bc42a4eb11	-0.12047936083847001
208	0xbf90663bf6e6a5fd	-0.016014992661132144
209	0xbfa40f3e844b6f05	-0.03917880406308253
210	0x3fb56d332d59c3ee	0.08369750840371612
211	0x3fb05eb1765a6be1	0.06394490375025398
212	0x3fc6b72bdc567ed6	0.1774649453991432
213	0xbfc0e905512a931c	-0.13211122954557986
214	0x3fb5445989a93d35	0.08307418452135525
215	0xbfa3ae3f1a331574	-0.038438770244776516
216	0xbf7bd52f3b05e9ea	-0.006795105451937714
217	0x3fb8601e94b79291	0.09521666651523676
218	0x3fb99118474611c6	0.09987022152024058
219	0xbfc1f07b3fe966ad	-0.14015141125382993
220	0xbfbb4230848b2c45	-0.10647872196129622
221	0xbfcbe9ffeff1cd8a	-0.218078605804845
222	0xbfbd707365430e2b	-0.11499711248603066
223	0x3fbef87d3b6f8632	0.12097914410653557
224	0xbfadc30aa5ded562	-0.058128674266678684
225	0xbfae8d3c26b39d18	-0.05967128727371057
226	0xbfb336e520d56e31	-0.07505638171772301
227	0x3fbaee70001acc19	0.1052007675414618
228	0xbfb8d645c6dae1fb	-0.09701953987940463
229	0xbfc7db94b6fd3f0e	-0.18638857779523516
230	0xbfc94a11ee096081	-0.19757293818361535
231	0x3f8f7499db3e576e	0.01535911751106386
232	0x3f98615aa1684175	0.023808876134411478
233	0x3fb017a152fa0d8e	0.06286056781578095
234	0xbfb5a1eb2aa02a4a	-0.08450193205514114
235	0xbf8ba781c365a093	-0.01350308778337731
236	0xbfa7c33ac575b702	-0.04641135845564116
237	0x3faf416ab6dc0267	0.0610459659783416
238	0x3fb6b5b285460f44	0.08870998147727699
239	0xbfa60e1498a65e9f	-0.04307617534067031
240	0xbfc2878d954a113a	-0.1447617510749611
241	0x3fb1a9403dab13f3	0.06898881440709186
242	0x3fc86db7a5ad1330	0.1908483084645467
243	0xbfbc2dad371accd0	-0.11007196994141855
244	0xbfc6601223c2fb70	-0.17480684992002749
245	0xbfa017bf64f681d9	-0.03143118007142549
246	0xbfb2416af910bad4	-0.07131069737145462
247	0x3f891de31c031c75	0.012264036457408015
248	0xbfc35f314bd14c1f	-0.1513425464823692
249	0xbfad5ce3bd7b67f2	-0.0573493164826714
250	0x3f8abe63ab60ca19	0.013058451335472164
251	0xbfc6952349776724	-0.17642632567622585
252	0x3fbe36b8ecd8c860	0.1180224970092083
253	0xbfc29e65b22d620d	-0.14545890045225499
254	0x3f3b0f97d82e1c99	0.0004129167284009999
255	0x3fbf476828bd412a	0.1221833323918459

fc_hidden_list.2.bias f8 [50]
0	0x3fab2ccbe03f0423	0.05307614433650822
1	0x3fc01bd08a4ae377	0.12584883453908066
2	0xbfac47480a096c94	-0.05523133394736948
3	0x3fb711e819363a17	0.09011698356173557
4	0xbfb2b6b15251048e	-0.07310016879729828
5	0xbfbe3dd94d32400d	-0.11813123831439061
6	0x3faebaf1b3c5a947	0.06002002067073647
7	0xbfbb0a4cfa3bf794	-0.1056259261058286
8	0xbf9911b2380b7438	-0.024481568022441474
9	0xbfb0e192a79ff3c4	-0.06594196884539288
10	0xbfbd5c3a9c4e3c84	-0.11468855205588296
11	0xbfb345c1a00f2ab2	-0.07528314740845124
12	0xbfbc36897baf26b0	-0.11020716924317742
13	0xbfad68b84fe26ab8	-0.05743957495834223
14	0x3f9eae180c540654	0.029960990669684343
15	0xbfbc454fcf996a9c	-0.11043261354772443
16	0xbfb7b25c52b716aa	-0.09256531733907516
17	0x3fa8ec369aadd756	0.0486771644417973
18	0xbfb12d9101a35e65	-0.06710153856271857
19	0x3fb3b54d947d638f	0.076985214950936
20	0x3fb33729c094979c	0.07506047202750071
21	0x3fa1bf1f2e2de311	0.034661268603434554
22	0x3fbdae526a350c6a	0.11594119160604213
23	0xbfc2ca95fea929b7	-0.14680743155106565
24	0x3f9f43f9fb759a15	0.030532747242796605
25	0xbf8ea9b68cbaf62a	-0.014972139520405287
26	0x3fafbbc122039c81	0.061979327585327766
27	0xbfc15c4473ea22f5	-0.1356282773961294
28	0x3fb30384508776df	0.07427241292995344
29	0x3fbb3684adc7e603	0.10630063288399332
30	0xbfa782d17cd3eb75	-0.04591993950631138
31	0xbf6caeb384c1841a	-0.0035012727949355173
32	0xbf69543661de5280	-0.0030919134287137884
33	0x3faa4926e391a7eb	0.051339354781546685
34	0x3fbf7d3228559f82	0.12300408825615075
35	0xbf966cd746429f0b	-0.021899570144028362
36	0x3fa53d34c82aafc6	0.0414825910896464
37	0x3fad904120e2c42a	0.05774119879186686
38	0xbfa0c5eba7df5f9e	-0.03276001381135461
39	0xbfb806aa07b79461	-0.093851687320766
40	0xbf497dae29ab81ed	-0.000777921715180039
41	0x3fa51f656bc65cb3	0.041255158811673985
42	0xbfa5302565e951db	-0.041382950487477387
43	0x3fb5abd0b89cff79	0.08465294367942801
44	0xbfaf96fed44953af	-0.06169887868296741
45	0xbfbdc652e48763bc	-0.11630743102376945
46	0xbfa737a165a1b7df	-0.04534630170461162
47	0x3fbee8cf0b131fa2	0.12073987980249837
48	0xbfa36cd11831a913	-0.03793958111130471
49	0xbfc08297ebe66084	-0.12898539560842803
