savedModel/poisson1d_sin/ParticleWNN_2/trained_model_best_loss.pth (torch, 65939 bytes, 10 tensors)

fc_in.weight f8 [50, 1]
000000 7b 35 1b f8 9c 3e e2 bf 13 ca f7 de 92 d9 e3 bf
       -0.5701432081056476 -0.6203092913477256
000010 bb e9 09 b6 a7 86 e7 bf 92 c2 de 3f fd 16 e2 bf
       -0.7351873927539637 -0.5653063056434624
000020 aa c6 4d e2 c3 14 e2 3f 7c 82 af c1 7d 5f e6 3f
       0.5650348110195484 0.6991566450997904
000030 f7 b6 ef dc f8 08 e7 bf 6d a7 d8 92 ac dc ba bf
       -0.7198452296413212 -0.10492971978297101
000040 78 82 0d 8c e9 4d d0 bf 89 83 67 ac 94 ae ea bf
       -0.2547553889944889 -0.8338111274025418
000050 d7 28 34 a6 0d 12 ec bf 28 f2 1e 6a 67 05 c1 bf
       -0.877203774086662 -0.1329774158638355
000060 c2 83 f5 d6 6e 54 ec 3f ff 34 01 19 8b f8 ee 3f
       0.8853067587298187 0.9678397644399012
000070 94 5b 7b 17 80 54 e4 bf 16 96 88 af a4 76 e7 3f
       -0.635314985144634 0.7332328251256424
000080 b2 44 57 8f 41 97 b1 3f bf 95 9e 2c dd 79 dc 3f
       0.06871423482450004 0.4449379859673534
000090 fc ee f9 bd 8b 38 e6 3f 7b 91 cd fa 12 f9 e0 3f
       0.6944025717234292 0.5304045580383411
0000a0 76 ab ca f5 7f b3 e1 bf 34 8d b4 45 f7 cc a4 bf
       -0.55316160207927 -0.04062626577276732
0000b0 92 59 a3 8b 00 e8 cb 3f bb db 39 ab a6 7b e3 3f
       0.21801764314905064 0.6088441223390569
0000c0 f5 11 ce a8 02 74 ef bf ef 93 d2 7c 69 da e7 bf
       -0.9829114243480591 -0.7454116285267655
0000d0 f5 e8 37 7e b5 ba ea 3f 55 ed 00 30 d3 57 e4 bf
       0.8352916207507223 -0.6357208192415934
0000e0 36 09 a9 53 2f b7 dd 3f 4c c3 fc c7 0e d6 e6 3f
       0.4643057171816908 0.7136300951006915
0000f0 39 b4 d7 3c cf 0b d8 bf 3e bc dc 30 92 eb eb bf
       -0.37572079602870506 -0.8725062326756257
000100 33 56 00 ef a6 ea e8 3f d5 99 e4 1d 6d 17 ba 3f
       0.7786440532679023 0.101919956014718
000110 d6 f2 8c 8b 34 09 d1 bf 45 76 fd 90 6f 8c e4 bf
       -0.2661868441389691 -0.6421430427396407
000120 da 9f 31 7e ff 7d 92 bf 2b f5 e0 2b fd 04 e1 3f
       -0.018058769299756118 0.5318590027815494
000130 0b 23 00 5d d5 4e e0 3f 4b 93 d5 0e 7c ac ee 3f
       0.5096232239166921 0.9585552491886146
000140 85 ec 6d b5 6f 36 ef bf 72 96 b4 7d a5 f5 e9 bf
       -0.9753950637381342 -0.8112361388381955
000150 af 5f dc b1 ef a9 ed bf ea 53 42 c8 c0 6d b7 3f
       -0.9269941781849321 0.09151844872606288
000160 a2 c8 63 b6 08 11 ef bf 50 33 af d4 a3 7f de 3f
       -0.9708293497372049 0.47654052514990486
000170 9a 11 2c 1a f7 4c ea 3f b2 34 e3 30 d7 f4 e4 bf
       0.8218951712774925 -0.6548877672991209
000180 8e 2d a7 b7 d0 b8 d1 3f ff 6e b9 b8 69 35 ef 3f
       0.2769052308546741 0.9752701385400256

fc_in.bias f8 [50]
000000 d0 e1 35 2d 1e 7d dd bf 3f 57 b5 64 da 51 d6 bf
       -0.46076158919416077 -0.3487459166984656
000010 35 d2 e0 27 77 21 aa bf f9 24 b0 07 50 18 e2 3f
       -0.051036571138329746 0.5654678487927917
000020 40 f5 5e 85 c6 11 ea 3f 81 d7 3b 5c 1f 73 c3 3f
       0.8146698574925395 0.15195075992204113
000030 d6 df 7b a1 e0 2e e7 bf c0 49 ee ce 03 16 e3 bf
       -0.7244723466856111 -0.5964373628251494
000040 5f ac 72 02 ed e4 e3 3f d1 69 5f de ea 8e d6 bf
       0.6216950462161427 -0.35247298923573306
000050 c0 86 f4 74 e0 ac c9 3f 35 26 9f 65 ab 50 ec bf
       0.20058828077985957 -0.884847353439176
000060 e1 99 90 10 3e 8d c1 3f 37 0f 97 b4 9e 75 d0 3f
       0.1371228772051856 0.2571789516043625
000070 5a fc 2c 52 c0 52 ed 3f aa 82 9a 5b a5 ce e6 3f
       0.9163514714235916 0.7127253331310233
000080 9d 9f 6a 9a 87 83 e1 bf 32 f1 26 bb cd 79 e1 3f
       -0.5473058715769984 0.5461186080279161
000090 b3 aa 0d a4 b3 4f ea 3f 3c 2f 07 f6 af 6e e0 bf
       0.8222292141120618 -0.5135116391406664
0000a0 aa ce 0d b1 b7 df e4 bf 62 bc 2c db 5f 02 da 3f
       -0.6523092706761038 0.40639492419990664
0000b0 46 8a 00 43 23 c1 e9 bf e2 eb bf fa 1c 0f e1 3f
       -0.8048263844141921 0.5330948731856291
0000c0 20 69 7e 2a bb 8a 9d 3f 83 35 f6 d4 83 54 eb 3f
       0.02884952971326371 0.8540667685899027
0000d0 74 e0 ea df 82 f2 c1 bf bb 94 eb 92 dd e2 e9 3f
       -0.14021335538359703 0.8089435452972319
0000e0 ef 1c c7 7a 28 06 e0 bf 51 39 a0 64 40 9f ec bf
       -0.5007517240527742 -0.8944398846959222
0000f0 16 13 80 0d 31 f1 a7 bf 4e 96 fd 24 78 e0 e2 bf
       -0.046762020967468995 -0.5899010393592989
000100 0a 46 c6 ee 3e f5 ea 3f c3 6b c4 8c 22 ad c1 bf
       0.8424372352184843 -0.13809615968133757
000110 76 1c 2d b5 28 19 ef 3f 23 19 95 84 36 68 f0 3f
       0.9718211687658271 1.0254426173210696
000120 1a 5e b0 3b 21 7b d0 3f 2c 1a a6 87 a7 60 d5 3f
       0.2575152476215138 0.33402431723553394
000130 d7 d8 e7 ea 6c 9d d0 bf 11 44 24 06 38 d0 e7 3f
       -0.25960848751073 0.7441673393205993
000140 9d 30 bb d8 c1 33 ab 3f 04 29 8d 12 aa d8 ed 3f
       0.0531292512001482 0.932698284371583
000150 bf 8c ea 8d 93 25 d8 3f c8 49 02 20 bf ec c3 3f
       0.3772934804821481 0.15566243231712762
000160 30 f2 2e 8e 42 67 ec 3f 27 ff d9 1e c4 6c e2 3f
       0.88760497827713 0.575777111298497
000170 7f 2b db 28 4f 3b c0 bf 6c a2 49 ce 09 4b d9 bf
       -0.12680997366836874 -0.3952049746062929
000180 37 44 f2 5c be f1 a7 3f 56 eb 95 06 31 56 e2 3f
       0.04676623234366455 0.5730214241624292

fc_out.weight f8 [1, 50]
000000 48 0c 40 01 fd fd a5 3f 4d c4 af b8 2b 95 c2 3f
       0.042953401949511305 0.1451773311414705
000010 1d 26 a5 e7 77 bc b1 bf 5e ce 73 71 54 15 a1 3f
       -0.06928204923055899 0.03336585888783071
000020 d8 f9 60 32 dc ff a7 bf 62 0d 2f b2 1c b4 c0 3f
       -0.04687393298125969 0.13049658489590416
000030 0f 63 5b 36 cd 1d b6 bf 47 6c 4a 63 a8 78 ac bf
       -0.08639223649096216 -0.05560804569287164
000040 c9 ab f8 f0 4f 53 bc 3f 27 e0 ff 5f 28 f2 9d 3f
       0.11064624436464422 0.029244070872636165
000050 b4 85 43 0b bf 1a c1 bf 1c 1c 33 49 3f d6 c1 bf
       -0.13362873125065067 -0.13935080599023386
000060 2a 89 7a 60 1a 36 b0 bf 8c 30 90 cb cc ca a4 bf
       -0.06332554679332661 -0.040609741066959776
000070 8a 02 55 96 6b b6 c3 3f 01 23 d6 52 ff 32 b3 bf
       0.15400452461655717 -0.07499690792441173
000080 a2 b6 64 98 c6 4a c6 3f 55 19 67 12 b5 ab bd bf
       0.17415697518429335 -0.11590129565511138
000090 f7 bc 5f ab c4 13 b1 3f b5 76 99 19 2c 95 bd 3f
       0.06670788940367688 0.11555743813502313
0000a0 5b 60 36 75 24 b6 c0 3f 86 cb fa 04 cc 61 c3 bf
       0.13055854533445452 -0.15142202609203198
0000b0 09 67 2c 5f 54 b0 c1 3f 4b e1 13 26 16 7c c7 3f
       0.1381936516489122 0.18347432002316064
0000c0 fb 1d b4 e3 02 a9 c0 bf 4d fc c4 89 bf 2a c7 bf
       -0.13015781515444744 -0.1809920714094652
0000d0 3b b9 bc 57 03 67 bf 3f df 34 3c aa 99 04 a5 3f
       0.1226656045152809 0.04105072215143379
0000e0 d7 6f 33 24 d3 f6 ad 3f 7b 27 bb 8d 45 2d ad 3f
       0.05852374855905367 0.056986020613819265
0000f0 89 15 6d 4d ff 8b bf bf e5 f3 b9 33 c5 bc b5 bf
       -0.12322993889127622 -0.08491165650225659
000100 11 29 db bc 09 dc c2 bf d6 f6 56 98 04 46 c6 3f
       -0.14734002801407844 0.17401177824461084
000110 1f 46 24 98 de d0 c0 3f 0b 41 99 78 a2 c4 b0 3f
       0.1313741915587778 0.06550040668776462
000120 bd c0 49 be f1 be b0 bf a3 91 67 d6 1f 82 bf 3f
       -0.06541357894616602 0.12307929024206614
000130 12 20 af 66 9e 86 9e bf 95 5c 1f 6b 6e 32 b6 3f
       -0.02981040479406267 0.08670702090545242
000140 6e ae 35 55 f3 79 bd bf c4 0c 85 11 fe 6d b3 3f
       -0.11514206724467055 0.07589710166671454
000150 15 f6 05 73 95 25 af bf 89 ce 1d 9c 25 22 bd bf
       -0.06083361653416489 -0.1138022905486712
000160 6f 90 2a 3c 40 66 bb 3f 79 02 26 ce 63 ce bb 3f
       0.10702897519019115 0.10861800940438994
000170 75 bf 4f 3b 10 ef c3 bf cd 32 0f 5b ba 55 b6 bf
       -0.1557331361395843 -0.0872456047356522
000180 6b e3 b0 0f db ef af bf 8f 9d 5b 48 24 19 a0 bf
       -0.06237682882824099 -0.03144181617045227

fc_out.bias f8 [1]
000000 0f 74 71 18 a2 10 d3 3f
       0.29789020907429714

fc_hidden_list.0.weight f8 [50, 50]
000000 ef e8 11 a4 77 5e a8 3f e2 02 d5 5b b7 f4 a0 bf
       0.047595728662558894 -0.03311703678128254
000010 cd 7a e6 1c 8a 83 bf bf 61 a2 29 3f 0b 39 b5 3f
       -0.12310088353704458 0.08290167133385175
000020 42 ef 04 fd 0d 22 a8 bf 57 f3 a8 60 8b d3 c2 3f
       -0.04713481629957396 0.1470808240864254
000030 51 38 9e 67 ff 86 b7 bf 2c aa 82 9d 14 53 82 bf
       -0.09190365104424926 -0.008947526032291618
000040 d2 f9 5f 97 47 66 6e bf 3a f5 59 5e 7f 13 8b bf
       -0.003710880114339712 -0.01322078234374634
000050 09 7a 61 4e 4f 1c aa 3f 3c 5d 75 72 ad f5 aa 3f
       0.050997236555066 0.05265562078664707
000060 84 3f 38 bd 67 ee bc bf f1 fa f6 f2 83 a6 9f 3f
       -0.11301277513143587 0.03090864344062089
000070 81 01 2b cc bd a5 b9 3f b1 46 09 ae ae c9 9e bf
       0.10018526300973997 -0.030066232082680503
000080 70 aa ae 7e 7c 5e 98 bf 74 f1 aa 07 aa 2c c0 3f
       -0.02379793666083646 0.12636304258729647
000090 f0 01 aa 55 9c 42 b3 bf fa ff e4 44 38 be be bf
       -0.07523514834793565 -0.1200900238227404
0000a0 00 09 54 99 ed 71 86 3f 48 36 ae d5 df 69 af bf
       0.010959488145549034 -0.06135463221935972
0000b0 19 24 d7 26 ae a0 86 3f 04 9a 2e 5a a4 d7 b3 3f
       0.011048660812678123 0.07750918580732252
0000c0 a2 40 72 6c e9 a0 b7 3f b8 e7 f7 3a e5 7f 73 bf
       0.0922990693818542 -0.004760642462764801
0000d0 98 d0 83 0f c2 64 b1 bf b9 0f af 7a 49 06 95 bf
       -0.06794369581968096 -0.02053179560949989
0000e0 5e 98 0a 71 91 63 bd 3f ca 2e 95 68 85 80 b7 bf
       0.11480053911017893 -0.091804826767823
0000f0 b5 55 cb fb 2a 7e b1 bf de 8f 11 c5 fb 8e bb 3f
       -0.06833141944237904 0.10765050469632295
000100 87 e2 8a 4b 53 dd b0 3f d4 be b5 dd de 1d 90 bf
       0.06587715715694219 -0.015738947183705346
000110 9e 09 87 d7 da de a3 3f f6 72 0f 75 42 59 bd bf
       0.038809622582920186 -0.11464324338835383
000120 a6 dc 83 cd c7 3a 77 3f cd d7 31 34 1f a0 ad bf
       0.00567129180875906 -0.05786225807325671
000130 32 03 75 fb 3e f7 b5 bf 8f 33 85 f4 c2 9e be bf
       -0.08580392493332736 -0.11961000890478445
000140 9f 16 db ff fe 2f 9a 3f fd 8f 50 4c 6e 7c bb 3f
       0.02557371555919607 0.10736741412307534
000150 7f 37 b0 e0 5d 12 b0 3f d2 ce c6 03 04 86 a6 3f
       0.06278025374942152 0.04399120851613038
000160 79 f6 4c 5a 34 67 b5 bf e7 54 30 6e ae 5b b0 bf
       -0.083606025739721 -0.0638989466682066
000170 16 e6 cb 2a 45 db c1 3f 66 a6 c5 db 3c 27 b6 bf
       0.13950409497901778 -0.0865362202217966
000180 bb fb ad 63 01 06 bf bf 5e e1 06 64 78 3a be 3f
       -0.1211853855474904 0.11807968561232005
000190 c6 4d b7 2d d8 5b bf 3f 3a b5 93 02 1d 99 b0 bf
       0.12249518505205179 -0.06483632386126184
0001a0 fa bb bf 3e 3d 02 b4 bf 2d 4f df eb 0a a7 ae 3f
       -0.07815916807133752 0.05986818436909256
0001b0 fa b1 a0 c0 a3 69 ad bf 6b 35 d3 95 b7 5a b6 3f
       -0.05744659162914796 0.08732173354947796
0001c0 23 91 2c 20 b0 94 8d bf f7 b8 29 5e 65 cb 99 3f
       -0.014443756086230558 0.025189956543209182
0001d0 59 db 76 ef d7 ef 7d bf 15 67 d6 f4 73 88 c6 3f
       -0.007308810708699231 0.17603921370464862
0001e0 46 6e c7 d4 43 c7 9d bf 9b b8 bf b9 77 6f 92 3f
       -0.02908044801902878 0.018003340446676046
0001f0 de 0d 84 4d bd 03 b8 3f 5d 15 45 1b 85 ef b5 bf
       0.09380705969311218 -0.08568603435295104
000200 c9 71 28 08 1b 5a 90 bf 5f c9 f3 bb 5e 43 50 bf
       -0.01596872556011578 -0.0009926247728882715
000210 1b 1d 8f ff 1f 61 82 bf ab 3a aa 75 71 de 94 bf
       -0.008974313723128227 -0.020379803473185614
000220 51 8c 61 5d 7d a3 a2 3f 2f e6 d7 de d3 56 c6 3f
       0.03640357746987689 0.17452476864836927
000230 8c 0a 6e 4d 37 42 c1 3f dd d8 1d b0 0b e1 af bf
       0.1348332527232582 -0.062263837097747056
000240 92 3b 5d 92 91 9a bb 3f 46 26 87 ae 99 78 a5 3f
       0.10782728026718605 0.041935732416800195
000250 9d f0 18 b4 cb 77 80 bf 7a 15 4a 2a eb 2c bc bf
       -0.008040992196690683 -0.11006040365653816
000260 da 8d 98 a5 ba 8f b4 bf cc 9c 55 65 1c 8f b8 3f
       -0.08031813185566908 0.09593369935975032
000270 74 4b 17 7d d1 51 76 bf 21 e5 0d cf 20 66 ae 3f
       -0.005449121775614841 0.059372926020794255
000280 66 d2 43 50 11 c7 c1 bf 7c a0 83 4f bf 83 ac bf
       -0.1388875619810676 -0.055692652183837205
000290 e8 0b 8c 63 9b 80 b9 3f 19 61 6f 95 3c 53 c1 bf
       0.09961863689754547 -0.1353526811278776
0002a0 76 f0 44 a2 7e e4 af 3f 49 2e b1 49 6b 9b bd 3f
       0.06229015093637795 0.11565275715946045
0002b0 4c 4f 65 cf ef 98 c2 3f 40 7e 88 86 b8 bf a1 3f
       0.14529225947137048 0.034665838644511116
0002c0 31 2e 79 c8 0a 06 b6 bf 88 e5 f2 ca ef 7a a6 bf
       -0.08602969545716445 -0.04390668251421476
0002d0 c4 68 47 23 18 9e 99 bf 9a 93 b3 2f fe c6 ba bf
       -0.025017144349342116 -0.10459889092051214
0002e0 6a be e1 c5 9b 9e b5 3f 87 de 8e 5b f7 ba bd bf
       0.08445142346476478 -0.11613412843041192
0002f0 77 62 4c f3 23 02 c0 bf 08 b1 99 2a d9 05 b4 bf
       -0.12506532077601992 -0.07821423807189742
000300 89 ae 87 1a 9f a7 b3 bf 40 bd 17 65 de 23 c6 3f
       -0.07677645108895538 0.17296962677162675
000310 3f a8 c5 60 49 bf b4 3f f7 d0 0c 3e db 13 a2 3f
       0.08104380238151608 0.03530774242827477
000320 fd 52 b9 48 be 36 b0 bf 0d dd da 9f c8 b0 af 3f
       -0.06333531642424002 0.0618956275115413
000330 f3 f6 51 c9 21 91 b3 bf 5e 69 23 bd 6d a3 b0 bf
       -0.07643328824084587 -0.06499372356066632
000340 49 6b 57 05 90 ee a2 3f 30 74 f6 4f e5 c5 ad bf
       0.036976338054691534 -0.058150449763367695
000350 36 6c a8 0a ea e3 a8 3f a5 a2 97 91 d8 29 bf bf
       0.048613847542775465 -0.12173226885318884
000360 07 aa 22 36 21 a6 b4 bf af e0 f3 bb 98 d9 be 3f
       -0.08065993854203422 0.12050776089370417
000370 d0 ab 90 59 94 6e b7 3f 23 8d 70 6d 4e 84 b8 3f
       0.09153105913780668 0.09576883479944746
000380 aa 95 d4 68 57 0d ba 3f cc a6 83 3b 32 9a b5 bf
       0.10176607426963949 -0.08438409760460813
000390 e6 d4 14 33 0c f8 b0 3f 22 89 a5 17 e8 e9 9b bf
       0.06628490683654639 -0.027259470408702254
0003a0 87 76 8a 25 72 49 8c bf 9a e7 76 b4 40 4e 27 3f
       -0.013811961908966509 0.00017780818801132748
0003b0 c6 4c 91 60 da 99 a9 bf 72 fc 51 20 c1 47 96 3f
       -0.050001930511507406 0.02175809631125642
0003c0 0b a4 75 57 01 02 a9 bf 6e 87 3f f2 5e 9e b0 bf
       -0.048843423773014726 -0.06491654791127896
0003d0 2d 5c 6e 76 f1 c2 ba 3f e7 ec 6d 27 ed 1b bc 3f
       0.10453709737190371 0.10980112278587094
0003e0 aa 10 22 fd d4 93 ba bf 80 b8 ae 46 28 e0 b0 3f
       -0.10381823711401475 0.06592036939284363
0003f0 7d 42 4b 20 be 34 c2 3f 2e 89 2e a4 b8 54 b1 3f
       0.14223457886557248 0.06769899376243835
000400 f6 3e dc c1 d5 1a bf 3f 18 e7 ec 36 f7 c7 c0 bf
       0.1215032194415889 -0.13110246831802708
000410 69 fe 9e 20 6a f5 b2 3f fe 45 80 77 e8 97 b2 3f
       0.0740572290078433 0.07263043324953597
000420 bf ef 99 8b f9 fa a7 3f ec db c8 5a ff 55 be bf
       0.04683666066281899 -0.11849971739216841
000430 e7 99 4f c7 24 c0 bb bf de f0 0b 9e d7 e8 9f bf
       -0.10840062967290685 -0.031161660214807145
000440 db a7 af 62 dd f5 a2 3f 24 63 df f6 82 48 63 bf
       0.03703204946198443 -0.002353912152994646
000450 96 ef 5d 0d f1 c1 c1 bf 39 35 e9 b3 2b 7f b6 3f
       -0.13873112824137185 0.0878779710994494
000460 fb c8 26 83 87 79 c3 bf 0e 3c 84 49 93 c9 b0 3f
       -0.15214628127939264 0.06557579560124813
000470 da 72 19 2b 0e ca 6f 3f 84 2a e4 cf 90 21 a8 bf
       0.0038805271840785917 -0.047131085755684615
000480 a6 de ea 25 0b 48 c2 3f 59 b7 30 6d cf 8d b5 3f
       0.14282359458387822 0.08419510284212829
000490 70 eb 02 fa 95 e8 c0 3f e5 30 33 fe 75 80 7d bf
       0.13209795672977576 -0.007202587995561259
0004a0 9f b2 29 a3 2b 4c 7a bf e3 1a d4 04 06 82 b8 bf
       -0.006420298059862133 -0.09573400133022462
0004b0 39 fa 4b b6 60 63 ad bf bc cc 3f a6 1f cd a8 3f
       -0.05739881730368208 0.048439969104856456
0004c0 71 51 cb f9 6f 93 72 3f 62 bb b0 ef 8e bd a1 bf
       0.0045351385167190375 -0.03464934039981561
0004d0 a4 ac 7d 30 90 d7 b9 3f 3a ff bd fd 79 46 b8 3f
       0.10094548400745623 0.09482538647534691
0004e0 5f 2b ba 5a 46 1f b8 3f 92 5f 40 1c 0a 29 c1 bf
       0.0942272159101498 -0.13406492595163094
0004f0 ea 33 81 76 2c 94 bd 3f b7 2c 7b 45 83 22 b9 3f
       0.11554220097714532 0.0981828732139317
000500 3e d9 6b 0c 6d 34 a0 3f 88 77 19 44 41 01 bb bf
       0.03164997841479299 -0.1054878989466187
000510 92 e7 74 3d 51 03 96 bf 7a 95 de c9 b5 a0 b7 bf
       -0.021497029663101914 -0.09229599169210259
000520 be ec 37 66 aa 00 b2 3f 04 2d de 77 19 d7 a0 bf
       0.07032265658920075 -0.032891078836735615
000530 99 c1 82 cd dc b4 af bf 99 e1 72 d5 a8 37 99 bf
       -0.06192674645115232 -0.024626386669042686
000540 ab e2 13 b5 91 27 ad bf 33 6b cd c2 92 67 b6 bf
       -0.05694251380368106 -0.08751790290754684
000550 56 61 0f 39 db c7 76 3f 76 3e c0 6b 76 f5 93 bf
       0.005561691607873639 -0.01949105293902994
000560 f2 0d d6 e1 e7 ef bf 3f 2a 8b 7c e9 4c bf 89 3f
       0.12475442184045685 0.01257190787834402
000570 dc fe 2d 11 7d 1b ba bf 3f ef 6f 62 44 0f c2 3f
       -0.10198194188523807 0.14109091574197838
000580 04 88 68 98 22 1f bf 3f f3 6f 54 79 3e cd ad 3f
       0.12156883450418837 0.05820651274754587
000590 00 1c bc 28 eb 92 aa 3f 06 4b 4f ad 4f 8a bf bf
       0.05190214988947872 -0.12320421200938023
0005a0 55 3d ca 4e f9 eb bb 3f e1 00 01 03 29 da c2 3f
       0.1090694253309626 0.14728272101093068
0005b0 ed c6 87 5a fe 5e b5 3f fd a5 3b f2 af 0f c0 bf
       0.08348073682989439 -0.1254787380960777
0005c0 26 ad 82 bf 77 97 a4 bf 7d 26 7e e5 31 7f a6 3f
       -0.040218107345334084 0.04393917013574098
0005d0 c5 2a 02 66 62 7c b2 bf 7d 0c a9 13 c6 8f b5 bf
       -0.07221045484963458 -0.08422506313313423
0005e0 48 e0 63 5b 24 70 c0 3f d8 ae 6e 1f aa 8e c1 bf
       0.12842230284127454 -0.1371662763098047
0005f0 1f f0 0c 9a 48 54 bc bf 1d 24 95 f4 e4 c9 9a bf
       -0.11066106568335997 -0.026160790851722838
000600 61 b5 c1 2a 25 05 b1 bf 95 55 73 bd 82 fa ae bf
       -0.06648475927223309 -0.060504994989666695
000610 ae 43 bb b7 d6 6d ba bf 34 b6 0c 34 21 fb 8d 3f
       -0.10323850618011818 0.014639148140839976
000620 ee 86 84 40 f8 b8 b0 3f d7 17 8d 36 dd ce a3 bf
       0.06532241416109816 -0.038687622937274284
000630 82 ab f6 82 03 fb b7 3f 0e 96 0a 2d e3 0a a5 bf
       0.09367391536095052 -0.04109868931599801
000640 7a 70 f5 b6 0a 96 9c bf c1 d8 ca b6 ad 97 b2 bf
       -0.027916114251056424 -0.07262693131164878
000650 4e 3e 13 f6 07 eb b7 bf 76 58 90 b3 b0 fe a8 3f
       -0.09343003995604102 0.0488181323236611
000660 64 3f 05 da 3f 81 c1 bf aa 69 5f 55 59 d8 80 bf
       -0.1367568792870727 -0.008225152891033389
000670 b1 6a 46 4b d0 95 b2 3f 98 2e 46 c5 5f 9c b0 bf
       0.07259847486276773 -0.06488607946647063
000680 62 ed e1 a2 eb 7b bb bf 79 a2 19 63 1d 09 b6 3f
       -0.10735962607025365 0.0860765807098093
000690 97 91 08 ea 1c 69 96 bf 17 73 f2 bb d9 52 b7 3f
       -0.021885349067945006 0.09110794867087822
0006a0 6d aa cd 8b 54 f4 81 3f 57 a1 ce 40 37 a0 9b bf
       0.008766804233990311 -0.026978362398638236
0006b0 4d bf dd de f8 6c a1 3f c1 0a b9 b1 d7 bb c2 bf
       0.03403451653036758 -0.14635749986526572
0006c0 e2 a9 04 d9 bf 6e c2 3f b6 d8 c6 74 c7 04 b8 3f
       0.1440048036250366 0.09382292366976483
0006d0 d1 9d 22 02 50 1f 9c 3f 15 52 d4 31 7b 05 ae 3f
       0.02746319783241608 0.05863556845921295
0006e0 2a 4c 7a e4 9a 58 bf 3f 35 f8 7e 82 99 6c bf bf
       0.1224457557494111 -0.12275084911286245
0006f0 a7 fa 89 ad 48 9b b5 3f 2c 4d 5e c1 4a 67 c3 bf
       0.08440069424430395 -0.15158972207846355
000700 f3 3c e0 f7 f4 5b c0 3f c1 9d 03 5a a3 f7 b8 3f
       0.12780630210225005 0.09752865741358276
000710 38 d9 d4 19 30 f2 b0 bf df 60 f8 8d 2e 75 9f 3f
       -0.0661954939904249 0.03072045079724794
000720 94 9f 52 8a 9e b3 b2 3f e9 db b0 2c 95 2d b4 3f
       0.07305327298183634 0.0788205370052847
000730 3b 72 ee 0d 76 37 b9 3f 66 ee 6c 4f f3 2c a2 bf
       0.09850251999018493 -0.03549919457006183
000740 73 a3 f4 c6 a4 ba bf 3f 1c 74 b2 67 59 a3 b0 3f
       0.123941706250333 0.06499251157443137
000750 e2 28 31 39 d3 30 b8 bf 00 ee a6 a4 32 5e 8b 3f
       -0.09449501177110478 0.013363261842520124
000760 0a 80 92 d6 dd a2 91 bf 28 33 61 d2 0c 0e 99 bf
       -0.017222849103404804 -0.02446765932136255
000770 6e ad 55 6d fd a8 c3 3f 34 fd 43 a0 56 f8 af 3f
       0.15359466398818306 0.062441546500844686
000780 b7 09 78 06 05 d0 ab bf 70 dc f8 8e f1 8c c1 3f
       -0.05432143882719081 0.1371137569528602
000790 cf 95 70 9a 94 89 bc 3f 97 75 8d 4d e2 4d a0 bf
       0.11147431154730401 -0.03184420773207391
0007a0 db 6b 2a b7 08 1e b7 3f f2 62 bf f4 71 80 b5 3f
       0.09030203315562295 0.08399116730960168
0007b0 d5 18 86 e3 21 ec b8 bf 68 1e a0 f1 29 51 87 bf
       -0.09735309414654421 -0.011385276495288824
0007c0 07 42 c6 3b 5a f2 c0 bf 07 72 0f b5 d1 5c b1 3f
       -0.13239601057695458 0.06782255812090209
0007d0 41 54 63 f5 06 91 a6 bf 8a 6f 3c b1 7c e8 bf 3f
       -0.044075219587889077 0.12464122130444202
0007e0 18 8c 0c 8d 2c f5 be bf e0 a8 5c ee c9 38 7f 3f
       -0.12092855876521502 0.0076225173886916575
0007f0 20 71 2c d1 2d 3f a4 3f f8 fe b6 c2 b2 0f 9d bf
       0.03954451731098829 -0.028380196699571564

fc_hidden_list.0.bias f8 [50]
000000 66 6d eb b1 0e 0f c0 bf 84 40 4f df 9d f8 9f bf
       -0.1254595154522164 -0.03122183490251064
000010 09 d1 55 13 b1 c7 b2 bf 4a 13 b6 3d d0 2a aa 3f
       -0.07335955354739467 0.051107890637502054
000020 43 66 f7 12 16 93 a1 3f bd c4 fa 35 58 3e a1 bf
       0.03432530385516632 -0.03367877634935599
000030 a4 59 3b 6b cf 00 b2 bf ce 76 60 be 15 62 b1 3f
       -0.07032486312832603 0.06790290735122115
000040 0a 6f e8 cc d0 9f 93 3f 36 e8 d1 a4 f0 bd b5 bf
       0.019164335733974837 -0.08492950462269352
000050 a4 90 41 05 34 41 a3 bf 31 42 43 bb 17 b2 c1 3f
       -0.03760683597718753 0.138247457920913
000060 27 c4 e6 ed d0 06 90 bf 33 d8 84 e4 c4 fa bf 3f
       -0.01565100147280787 0.12492018298220912
000070 50 63 86 ae 4d 41 9f 3f 8e cf 2c d5 1e f5 a1 3f
       0.03052255037036683 0.035073245546669005
000080 f7 0a 79 f6 51 26 95 bf 72 16 3b 59 d8 32 b9 bf
       -0.02065399233675699 -0.0984320848320637
000090 9d 86 cd 8a a0 36 6d 3f 4d f6 b8 c3 e8 86 c0 3f
       0.003566087302190392 0.12911710316432093
0000a0 33 df 0c 46 d3 8d b6 3f 1f d1 4e 95 7c 3b a7 bf
       0.08810158214771206 -0.045375722147044543
0000b0 64 aa 45 87 c6 56 bd 3f 59 cf ac 06 2c fd 78 bf
       0.1146053390745379 -0.006100818611958513
0000c0 78 e6 f0 90 bf c0 ac 3f 03 d0 27 33 17 83 75 bf
       0.05615805286693115 -0.005251970886536841
0000d0 6b 29 b0 1f a6 29 c1 3f 3e 5a 55 05 95 b6 c0 3f
       0.13408352420112676 0.1305719638864548
0000e0 e1 58 81 31 e6 9d be 3f 46 85 6b 46 0f f3 b2 bf
       0.11959685047745296 -0.0740212962077936
0000f0 34 85 0b 87 3f 7a c1 3f 25 2d 3f d7 89 c6 a4 bf
       0.13654321760172083 -0.04057722809337808
000100 2e b8 04 07 bf 4a b0 bf 18 48 08 48 b0 12 b5 3f
       -0.06364053651188392 0.0823164153919439
000110 22 ed ab c3 1b 5f a6 bf 3f ed 4e 78 aa cd a3 bf
       -0.043694369922344004 -0.038678481279442505
000120 96 e2 c5 bf 53 a4 8a 3f 6c 2f 37 58 f1 f3 ac bf
       0.013008741655299343 -0.05654863550043285
000130 9b 55 ab d9 ec 5b bc bf 75 4d a0 78 a8 b6 b9 3f
       -0.11077766718093189 0.10044339127516884
000140 49 ea 8d 31 66 16 b2 3f 27 f5 f7 2c 52 60 a4 3f
       0.07065428457091473 0.039797370900468025
000150 a1 39 ba 26 a0 ca a7 bf c8 3d 5c 0e 1d c4 bf 3f
       -0.04646778557536214 0.1240862045344705
000160 91 2b c7 7c 3b f8 b5 bf c9 c1 31 9e 22 c9 bd 3f
       -0.08581897541368579 0.11635032999198026
000170 44 54 71 e8 8c a5 a6 bf df 8a 27 41 cd a7 c0 bf
       -0.04423179948268133 -0.1301209037911439
000180 3b 37 4a 3e 16 77 98 bf c3 7e 69 08 6e f7 96 bf
       -0.023891780425905323 -0.02242824484198881

fc_hidden_list.1.weight f8 [50, 50]
000000 ef 6a 49 33 23 7a b3 3f ea a9 7b 37 59 ac ad 3f
       0.07608242036932798 0.05795553972514596
000010 2e 75 f0 b5 30 8f bf bf 91 16 31 47 9d 62 bf 3f
       -0.12327866021992825 0.12259848583297585
000020 94 05 5f 1f b4 0f a1 3f 2d 7c 39 6c 6a 17 bd bf
       0.03332293398808442 -0.11363854543877557
000030 bd 94 a7 c4 bc c9 b5 3f 5f 0c b6 0a 17 a7 ba 3f
       0.08510951806200047 0.10411209117414576
000040 f8 41 de 9c 97 c1 b4 bf 66 78 2b 96 75 1e b1 bf
       -0.08107898311414619 -0.06687102237944628
000050 8f f1 f5 9a a0 ed ba bf 07 00 69 84 84 9d a1 bf
       -0.10518840583058008 -0.03440488926253243
000060 5c a5 4e 44 37 b0 bf bf 27 d3 6e d9 da 15 9f 3f
       -0.12378259103447448 0.030356807251979447
000070 8c c5 67 a1 63 97 95 bf 27 bd 31 12 8d 25 8d 3f
       -0.02108531639709592 0.014231779210801833
000080 8f 34 3b 1b 8f 8d b5 bf f9 7a 3c 68 a0 65 c0 3f
       -0.08419126906228967 0.12810139741574014
000090 db 4e 76 d5 12 31 be 3f 69 bd 9e 52 4e 57 b2 3f
       0.11793630324819608 0.07164468304721584
0000a0 4c 58 f0 f5 65 ea a8 bf c8 17 8f 71 2d 11 b6 bf
       -0.048663316985923716 -0.08619960806308236
0000b0 77 dd d9 36 69 81 a8 bf e5 b5 6a b4 11 07 b3 bf
       -0.04786232752388291 -0.0743266168089672
0000c0 1c c9 ed 65 1d a4 ae 3f 2d f7 3a 77 f7 1c 82 bf
       0.05984584683655411 -0.00884431202518562
0000d0 99 a1 ec 3e 78 92 c0 bf 3c f0 ee e6 9f 3d bc 3f
       -0.12946990082242563 0.11031531703969305
0000e0 1e a5 bd 1a 80 00 c3 bf 19 9f 5c 59 0c e3 af 3f
       -0.1484527712412182 0.062279115589545415
0000f0 25 eb 7c 5e 44 54 7f bf c7 89 c4 10 c9 36 a5 bf
       -0.007648722712299248 -0.0414336045235078
000100 22 d0 06 13 91 4d 7a 3f d8 3a 4b 76 13 f9 b9 3f
       0.006421629616330223 0.10145684850725034
000110 fa 77 b2 6e 76 6d bc 3f 29 7e 79 1c 21 41 bc bf
       0.1110452671295831 -0.11036879487209518
000120 34 9f 82 49 7c 4c 8e bf d3 18 66 9f eb 76 96 3f
       -0.014794322007517381 0.021938020328456553
000130 e6 80 a5 93 00 aa 9c 3f 90 9b 30 76 05 da c4 bf
       0.027992257129313546 -0.16290348311414649
000140 31 08 ef 41 27 b2 bc 3f 7a 39 a8 97 08 db 89 3f
       0.11209340438566141 0.012624804619034025
000150 6a e3 12 78 ca 09 bc 3f 76 08 56 5b 19 0b c5 3f
       0.10952439719666321 0.16440121612328412
000160 e4 db 2c 25 0a 48 c3 3f c5 fb e6 9e ec 85 4c bf
       0.1506359750289611 -0.0008704572081156206
000170 29 a5 c8 3f 3c a8 b8 bf 4a a9 1b 42 10 50 bb bf
       -0.09631706769200278 -0.10669042219129668
000180 2b be 90 2f ae 0e b9 bf 30 61 86 e5 ca 88 aa 3f
       -0.09788025532974902 0.0518248944455898
000190 22 cd 5e e5 76 95 c2 bf 94 e8 a4 52 2b cd b8 bf
       -0.14518629264566935 -0.09688063399963404
0001a0 66 a1 cc 08 3c 72 74 bf 14 32 da 7f b1 7c bc 3f
       -0.004991755017535437 0.11127766963381475
0001b0 7d 23 a7 43 83 1d c2 bf 62 14 6a 74 cc a8 b3 3f
       -0.1415256576858858 0.0767944130148677
0001c0 d6 ea db 39 e7 c5 b2 3f 63 39 fa 48 2a 08 aa bf
       0.07333226358961595 -0.05084354534948223
0001d0 1a e3 1d fe d9 c4 8b bf c1 ea 4a 6b 63 bd bd bf
       -0.01355905825379149 -0.11617108697366076
0001e0 dd 2e ec b6 91 fc b9 bf a1 c6 46 6f ba ac 70 bf
       -0.10151015010722682 -0.004070976505703123
0001f0 67 68 72 63 a7 36 9e 3f ed e4 f4 e2 e1 d4 a1 3f
       0.02950536293483488 0.03482728858438997
000200 4b c9 f3 39 54 ad 56 3f d3 36 65 db c4 f8 bb bf
       0.0013840982936100417 -0.10926466327984068
000210 c6 79 d3 7f d5 79 a6 3f 32 32 0f 2b 30 aa a2 bf
       0.043898269513863705 -0.03645468259455632
000220 84 99 b0 9a 3f 7a b3 bf 11 3b 25 88 09 bf ba bf
       -0.07608411337478144 -0.10447749685156917
000230 f8 a2 b2 3e 33 34 7f bf 54 5d bd a0 05 cd a8 3f
       -0.007618141341631406 0.048439193603082714
000240 6a 4f 7b 5c ef ae a6 bf ce 76 aa fa 37 aa b8 3f
       -0.04430339816977276 0.09634733075878474
000250 d4 78 6c 52 2b 26 b9 bf 14 88 b0 b5 d2 12 c0 bf
       -0.09823866617486782 -0.1255744349628577
000260 68 d1 cd 11 5e 46 c3 3f 21 20 c5 8a b6 b2 bf 3f
       0.1505849444325904 0.12382069480838755
000270 04 bf ac 3b 71 1e 91 bf d7 95 e2 44 e6 45 97 bf
       -0.016717690722713577 -0.022727582888043187
000280 82 ca fd 70 ee 86 a3 bf 20 77 e1 18 78 84 bd 3f
       -0.03813881997384262 0.11530256850661802
000290 d5 6c f0 96 63 68 b1 3f 7c fc 9b 56 ab 0b 8d 3f
       0.06799910006559469 0.014182413654906016
0002a0 1e 9e bd 14 ba 34 b9 3f 62 a4 70 8d 92 8e ac 3f
       0.09846079832424734 0.05577524162829019
0002b0 6c ea ec 0c ea fd b4 3f e1 25 a4 ae d6 3b 86 bf
       0.08199942412913125 -0.010856320576311642
0002c0 27 aa b1 51 18 9e a9 bf e3 c7 bb 6b 13 58 ac bf
       -0.050034294102108405 -0.055359465504707626
0002d0 7e 78 88 56 45 b0 b8 bf fb 92 0d 77 3a f2 b7 bf
       -0.09643967974304421 -0.09353986174171418
0002e0 1b 7d 1c 1a 34 b4 be bf 11 71 e0 18 7f 1d c0 3f
       -0.11993718755228537 0.12590016092952586
0002f0 c8 03 69 ae 66 89 c0 bf c5 d1 d5 70 ce 3c ac 3f
       -0.12919314876674393 0.05515141608603672
000300 c3 8c 79 6a 57 fe af 3f 44 0c 67 96 41 3f bc 3f
       0.062487346408283816 0.11034021303116598
000310 12 c1 ba 6f 69 45 a9 3f f0 f8 ba b2 82 26 ab bf
       0.04935769547353365 -0.053028187101050395
000320 19 43 1f 83 7d a5 c2 bf 3d 98 f4 a7 b2 6f bc 3f
       -0.14567536261031291 0.11107937431788258
000330 bb 4e f7 68 0e a3 b7 3f 36 e2 af 74 8b 72 b4 3f
       0.0923317915215262 0.07987281416706868
000340 d2 38 51 b0 5a b7 71 3f db 2c 82 98 17 75 bd 3f
       0.004325250866783219 0.11506793473579384
000350 e3 e4 14 c8 43 d4 b7 3f 95 2d 66 8f c0 0b 87 bf
       0.09308265337758174 -0.011252884269899602
000360 f0 81 9a b3 02 38 a3 3f 50 3c d4 ab 27 03 b4 3f
       0.03753670160699929 0.07817314095540095
000370 cc 81 e4 f9 0c 08 c1 3f ef c2 d5 c8 ed 73 a9 bf
       0.133058187501787 -0.04971259190177146
000380 ce dc d8 6e 9d 5f 8f 3f b6 6a 73 b4 c5 52 b7 3f
       0.015319089837346669 0.09110675483263261
000390 26 31 40 44 11 50 b4 3f 81 ea 7a 63 61 33 b5 3f
       0.07934673229482722 0.08281525305475591
0003a0 07 03 52 14 f7 8f b4 bf d1 d6 58 75 d2 4b bd 3f
       -0.08032173391439922 0.11443820347707435
0003b0 cc 58 c4 a0 f1 e6 91 3f 48 84 e2 f6 7f c5 a1 bf
       0.01748254340881132 -0.03470992935877654
0003c0 19 3e a6 a4 cd cc b7 3f 80 a6 f6 29 c3 88 99 3f
       0.09296880025635125 0.024935769497153704
0003d0 4f 04 d5 b8 b0 14 bb 3f cf e8 0a da 1b 08 b3 3f
       0.10578445923330658 0.0743424804049113
0003e0 b3 9f 02 da da 4e 9b 3f 04 3c d4 c1 ab 1f bf bf
       0.026667995029725677 -0.12157700998453441
0003f0 05 b1 a5 65 92 ab a6 bf 58 53 88 3f c3 07 b3 bf
       -0.04427773943720762 -0.07433719922148663
000400 54 cd 02 ee cc 0b b4 bf 4c 32 cd 8c 29 40 bc 3f
       -0.07830506144346333 0.110354039073351
000410 47 68 f5 c6 37 82 a6 3f 30 2e 17 89 3b da 96 3f
       0.04396223357862588 0.02231686615213685
000420 94 3c 73 77 39 05 bf 3f bf a1 b7 34 92 b6 b7 bf
       0.1211734692217184 -0.09262956416171785
000430 e6 3d e9 ea e6 22 91 3f 6d 9f fd 81 f4 fa b8 3f
       0.016734703147731532 0.09757927106477178
000440 fa 74 e2 89 d1 cb 8a bf f9 61 09 85 af 36 99 3f
       -0.01308406545677564 0.024622671599304955
000450 5d 30 2e 2d 9a 49 a4 bf 88 4c aa b9 67 df 88 bf
       -0.039624040618122726 -0.012144861558488054
000460 58 2b 3b 87 33 97 ae 3f f2 df 3f 00 7a 5e a3 bf
       0.05974732423563606 -0.03783017399831569
000470 72 8f d5 49 bb 08 71 3f b1 b1 65 c8 b3 af 9b 3f
       0.0041587177232463735 0.02703743849399282
000480 d7 3d d8 9f 2b 04 9b 3f fd 73 f9 2e e7 26 92 bf
       0.02638309634317956 -0.017726528398600994
000490 61 6c f3 29 03 0c ba bf 6d 93 aa d4 e4 17 92 3f
       -0.10174579405013297 0.01766927288067015
0004a0 70 64 46 23 e6 51 ba bf 46 0b 1d e8 19 c9 bd bf
       -0.10281217919545482 -0.11634981076080661
0004b0 cf 6d e1 23 ae 2c 66 3f 13 5d 82 8b a1 13 ab bf
       0.002706852071282496 -0.05288414791101039
0004c0 c3 0f d1 aa 41 20 b8 bf 73 97 d0 95 90 fc b5 bf
       -0.09424219532326021 -0.08588508279407651
0004d0 e0 6a 26 1f 6b 89 a4 bf 4b 98 a5 66 0f 39 b4 bf
       -0.04011091952562196 -0.07899566894556746
0004e0 93 6f e5 db 1d 31 94 3f b2 c2 39 1e 25 fb b2 bf
       0.019718615099335656 -0.0741446684639964
0004f0 d5 04 bb e2 de 9e a8 bf 19 c9 4f 36 c6 a7 bb 3f
       -0.04808708684641664 0.10802878213852231
000500 41 85 1e 11 ad ae a5 3f a5 b1 5c 64 72 e8 b8 3f
       0.04234829744315017 0.09729685735937339
000510 00 a6 95 60 9c 71 79 3f 67 98 51 53 34 20 bd bf
       0.006211863373530857 -0.11377265009068226
000520 9c fc de c5 d5 93 b3 3f a1 df bd f2 0b 19 a3 3f
       0.07647453385196673 0.03730046594767989
000530 90 ee 93 39 ef f1 c0 bf 69 11 0e ef b4 cf c0 3f
       -0.13238325416010754 0.13133870766263137
000540 77 5c 19 51 ac f4 b9 bf d3 4f 32 10 e4 0f bf 3f
       -0.10138966541249937 0.12133622546599492
000550 01 ef 64 96 ff 40 ae 3f 22 75 06 3f 29 b7 a0 3f
       0.05908964835040643 0.032647408431538474
000560 e2 e5 f2 16 2f 76 ab 3f e5 90 4b 91 47 ed b9 3f
       0.053636046935434015 0.10127684876676175
000570 2f 44 9c 72 a9 e8 85 3f bd 95 5f be ad f1 b7 bf
       0.010697673616535478 -0.09353147409236491
000580 2f e9 3b 6c 10 2a 88 bf 11 48 a1 cf 41 5d 9b 3f
       -0.011798981001892443 0.026722935006837704
000590 73 8b e8 7b 18 d6 b3 3f 02 fe b9 9a 80 eb ac 3f
       0.07748559022051697 0.056484240424648405
0005a0 8d d2 f1 1f 48 f0 c5 3f 22 9a 6b 5d b8 b8 c1 3f
       0.17139531669422006 0.1384497123865041
0005b0 70 a7 cc 77 60 3e a2 3f 34 bc 5e 98 46 e1 b9 bf
       0.035632147430375904 -0.10109368534061575
0005c0 14 cd 23 73 b7 52 b8 3f 19 30 9b 8a 58 39 bb 3f
       0.09501215516120382 0.10634377845707411
0005d0 a4 9d 67 03 72 96 b1 bf d0 b1 d4 9f 22 d8 82 3f
       -0.06870186408160933 0.009201307776117412
0005e0 35 2d f1 2e 85 f3 a9 bf 41 64 73 48 76 71 97 3f
       -0.05068603704475053 0.0228937608452251
0005f0 af c8 4e 37 97 e9 94 3f 1b bb 6a 13 d5 2a b8 bf
       0.020422327757565636 -0.09440356945081556
000600 f7 b9 d1 f5 77 b6 ae bf d1 a7 75 df 19 d3 c1 3f
       -0.05998587489817802 0.139254793273095
000610 2c 4b c8 8d c7 b1 91 3f e9 0f e0 b7 f1 25 b7 3f
       0.01727973749991489 0.0904227327264945
000620 ff 3d c5 36 cd 8d 9d bf 25 b4 53 be de a3 bd 3f
       -0.02886124274055923 0.115781709162278
000630 a5 f3 fb 26 43 04 99 bf 42 73 0e 22 64 8f bd 3f
       -0.024430321936040795 0.11546922522979933
000640 b3 1e 5b de c7 d6 a9 3f 7d 97 ba 86 43 48 9c 3f
       0.05046677197748064 0.027619414423177602
000650 dd db 43 70 be 99 aa 3f fb 3b 59 65 a0 7e a8 bf
       0.051954222873909585 -0.0478410838810461
000660 7a 5a 59 f4 98 a2 a3 3f 8c 30 3a 3b ba 55 b2 bf
       0.03834989531303719 -0.07162059732417186
000670 59 b0 6e 8c 6f 3f 8b bf ba e0 93 12 27 c9 b7 bf
       -0.013304587815433576 -0.09291309550815444
000680 da fe 78 29 63 25 c0 bf 5b ec 37 00 a5 47 ba 3f
       -0.12614097142249286 0.10265570884068735
000690 fb 4a f2 bb f2 8c 71 bf 8d 9f b4 06 81 a8 b5 3f
       -0.004284809284530007 0.08460241712293577
0006a0 eb c5 27 a4 44 6f be 3f 12 36 64 28 98 5a c1 bf
       0.11888531692218123 -0.13557722065199634
0006b0 f5 77 7a 75 c5 ee ab 3f b6 48 af d4 04 46 c5 bf
       0.05455605563223279 -0.1661993063449409
0006c0 87 49 1e cd 95 bc ab bf 27 72 7b f6 56 ec bb bf
       -0.05417316559682477 -0.10907500760681242
0006d0 6a 37 8f 40 fa 8c b7 3f ee 97 4d 28 5f dc 9e 3f
       0.09199489666135965 0.030137526354700066
0006e0 ef 90 c4 5a 27 d6 a7 bf e5 ec 02 92 b5 6c af 3f
       -0.04655573828702752 0.061376260827694464
0006f0 c3 65 19 de 73 bb 6f 3f ed 51 0a 71 6f 55 87 3f
       0.003873564056260577 0.011393423688141413
000700 4f 85 0b 28 14 38 bd 3f 4b bf 6c 1f c5 8a af 3f
       0.1141369436040993 0.06160560616115037
000710 01 8d 59 82 a7 8a b6 bf fe 75 33 12 58 52 7c bf
       -0.08805319721573214 -0.006914466884351265
000720 86 e8 95 e7 fa 05 91 3f 72 76 f4 ba 0d 31 c1 3f
       0.016624374756681458 0.13430949810656362
000730 c9 00 f1 b8 35 73 c1 3f 4c b4 09 66 00 48 bf 3f
       0.13632842569678008 0.12219240657005165
000740 40 e1 6e 31 1a 11 b8 3f 3a ae b8 cc 75 7f c0 3f
       0.09401096064437287 0.12888977523958706
000750 e7 5b 86 dc 2d 59 94 bf 0d c5 c0 a9 5c 68 c0 3f
       -0.019871441445129447 0.12818487442704232
000760 f3 ee 59 03 76 c1 b0 3f 09 c1 d8 d9 7c 17 b9 3f
       0.06545198041743187 0.09801464384577598
000770 d5 f5 02 0d fd 14 c0 3f 07 66 58 fa c1 4c b6 bf
       0.1256405175717378 -0.08710872995325057
000780 33 88 02 42 81 d8 c2 bf 17 3a ee de 36 c3 7e 3f
       -0.14723220561160275 0.007510389651442149
000790 2a 73 a1 47 90 f5 b8 bf 58 0f b9 f2 6f a2 a0 3f
       -0.09749700306697365 0.03248929822851093
0007a0 33 c9 cb f7 48 78 c1 bf f6 ce 01 0c f4 19 ad bf
       -0.13648330783287008 -0.05683863302775009
0007b0 c2 51 9f 70 61 35 97 3f 88 ea 85 ae 31 41 b7 bf
       0.02266456842319698 -0.09083853255098451
0007c0 cf 67 40 fe 11 ee bf 3f eb e7 88 e7 de 74 b1 bf
       0.12472641427339613 -0.06818955567078404
0007d0 5d f3 53 8b 2c 9e bd 3f 3e bf 7f 4f fc 38 b9 3f
       0.11569479371605725 0.0985257810677895
0007e0 ee 5c 40 5a 4c 25 aa bf d9 8f c8 20 bb 63 ae bf
       -0.051065813080805586 -0.05935463690937554
0007f0 c5 e0 5f b0 e5 08 b1 3f fc 6b 95 00 ff b6 bb bf
       0.06654201084154739 -0.10826104892969107

fc_hidden_list.1.bias f8 [50]
000000 d4 a1 e0 a2 12 95 aa 3f be c9 77 36 3f 3b b7 3f
       0.051918585188392236 0.09074778632910971
000010 e4 65 80 54 30 b9 85 3f 22 ff bb 22 0b 66 8c bf
       0.010607125834257887 -0.013866507527836417
000020 ba cc 98 f9 3f 2e c3 3f 22 ab 9a 2d 42 30 9f 3f
       0.1498489350065933 0.030457529099901078
000030 7d 52 78 ad 6d a8 be 3f ec be b0 13 05 89 73 bf
       0.11975751385791429 -0.004769344169332373
000040 60 5c a0 e1 eb 25 b1 3f ac 36 68 61 17 05 b6 3f
       0.06698488481957687 0.08601518753149645
000050 69 88 99 a0 1c 25 a6 3f 95 60 97 bb 96 07 a3 3f
       0.043251890758953256 0.0371672729485805
000060 a9 ed f9 2d e8 76 b5 bf f7 53 42 69 8b 64 b1 3f
       -0.08384562609165037 0.06794043845941632
000070 92 da c1 85 c2 0e b5 3f c4 ed b7 c3 35 97 91 3f
       0.08225646749074603 0.017178382940967088
000080 69 3a 3b 6f 30 9f 64 bf 2d 21 32 0d 1d 9d b9 3f
       -0.002517313574436121 0.10005361148990195
000090 d0 99 02 35 1c f3 bc 3f 6c fa a9 17 0f 07 98 3f
       0.11308456701463077 0.023464427775702054
0000a0 67 43 c5 e0 cb 39 a3 bf 77 fe 7b 3d 24 fb a0 3f
       -0.037550326526463 0.03316605806867028
0000b0 f1 f9 39 04 2c 59 72 bf a0 e2 63 c3 18 3b b1 3f
       -0.0044795722384365225 0.06730799455898273
0000c0 de 20 74 0e 12 10 b5 bf 47 cc 9a 82 e9 97 b2 bf
       -0.08227646687385312 -0.07263049543944176
0000d0 fa 98 68 0e d3 b2 bb bf 64 35 ff 00 a2 a5 7d bf
       -0.10819739438793255 -0.007238037898742309
0000e0 fe 1a 1f be cd 24 8a bf 9e 67 76 d7 a9 61 83 bf
       -0.012765509953067685 -0.009463621986288303
0000f0 b1 7b 34 9a a2 a3 77 3f f1 0c b8 7b 3e 77 9b bf
       0.0057712890295808375 -0.026822067547993936
000100 48 7c b6 16 dd 6e 8d 3f 9f 5f fa 22 92 b2 b5 3f
       0.014371611838951762 0.08475602487521748
000110 13 cd 11 9a 28 74 b4 3f de 29 9f 9f e3 80 8e 3f
       0.07989743958915012 0.014894274052399344
000120 28 f6 15 97 90 13 70 bf ae 4e 3a 1f 7d 5d bf bf
       -0.003924908452402266 -0.1225202752341896
000130 cd 72 06 d3 49 ba a0 bf f1 28 7b 93 bc 0c a1 bf
       -0.03267126751891212 -0.033300297740042846
000140 cf cc ee 28 07 75 9c 3f 59 5d 73 6f a9 3a c0 bf
       0.02779017627080976 -0.12679021779943403
000150 70 0d 1f 2f 59 59 bd 3f cd f0 65 3d 27 8d c0 bf
       0.11464459801122984 -0.12930765626868493
000160 aa d8 b1 e0 eb a1 b4 bf f1 84 e4 e7 7c 6f a6 3f
       -0.0805957244463992 0.043819335276802714
000170 aa 50 23 89 13 76 be bf d4 9a 6f 3d b2 91 c1 3f
       -0.1189892015275428 0.1372587966900115
000180 6e 13 13 af af dd be 3f 3d 67 c3 8c 18 0f 93 3f
       0.12057016395836026 0.018612273780355116
