savedModel/poisson1d_sin/ParticleWNN_2/trained_model_final.pth (torch, 65815 bytes, 10 tensors)

fc_in.weight f8 [50, 1]
0	0xbfe23e80e1ee5140	-0.5701298153603958
1	0xbfe3d97c696853f5	-0.6202985819569437
2	0xbfe78702dd4fe4b8	-0.7352308580876956
3	0xbfe216ff2d347682	-0.5653072245510915
4	0x3fe214946c4668d3	0.5650121798273865
5	0x3fe65f8b532ab1f8	0.699163114962686
6	0xbfe708e69bd1d49e	-0.7198365252831029
7	0xbfbadcf279c2ee5f	-0.10493388626758236
8	0xbfd04df472f331b4	-0.25475798822005946
9	0xbfeaae8d4023deaf	-0.8338075878845838
10	0xbfec11f94548ccc3	-0.8771940568170965
11	0xbfc105275cef00ff	-0.13296978032850146
12	0x3fec548b7350a119	0.8853204014058377
13	0x3feef89b99df4343	0.9678476338686796
14	0xbfe45548ef2cb907	-0.6354107543354822
15	0x3fe77697cb0ad153	0.7332266774815629
16	0x3fb1995c7d95bc97	0.06874635759389701
17	0x3fdc7a296880bc2b	0.44495616155012624
18	0x3fe638d0b605923b	0.6944354586708593
19	0x3fe0f905f3e578ee	0.5303983462906936
20	0xbfe1b37dc7ea1093	-0.5531605629517052
21	0xbfa4cba5db5e0cf1	-0.04061621001076244
22	0x3fcbe7481e706958	0.2179956577900366
23	0x3fe37b7f954426f3	0.6088254847865912
24	0xbfef73ea5c71f9d1	-0.9828998380251567
25	0xbfe7da82358e8b9b	-0.7454234167129131
26	0x3feabaccf89239a8	0.835302815905199
27	0xbfe457bdbda0d369	-0.6357105926204955
28	0x3fddb739c880f981	0.46430821018648066
29	0x3fe6d6600bba6c2f	0.713668845087687
30	0xbfd80ba0887366a3	-0.3757096607711025
31	0xbfebeb5752a86e51	-0.8724781622326622
32	0x3fe8ea9ae5ae07aa	0.7786383138593369
33	0x3fba1653d5f1e1cf	0.10190319035780891
34	0xbfd10877fb5ecc54	-0.266141887167753
35	0xbfe48c4e6bf199c4	-0.6421272381092469
36	0xbf927b51f3d24e59	-0.018048553950008237
37	0x3fe104f3c3e1e198	0.5318545175387497
38	0x3fe04ee36239a3df	0.5096299093685238
39	0x3feeac6de3c024de	0.9585484932187247
40	0xbfef366a5d8759c1	-0.9753925158245736
41	0xbfe9f5a63f3995d1	-0.8112364992963937
42	0xbfeda9cedbc8194b	-0.9269785206422879
43	0x3fb76e078d7df893	0.09152266697307913
44	0xbfef11073d6f3f87	-0.9708286476033984
45	0x3fde7fcba6949888	0.47655001895544347
46	0x3fea4ce26cdc882d	0.821885311718011
47	0xbfe4f4cbff86da8f	-0.6548824301488184
48	0x3fd1b82dac64781e	0.27686635813904725
49	0x3fef352be542188b	0.9752406575869527

fc_in.bias f8 [50]
0	0xbfdd7d47b0a84f9f	-0.46077148677545127
1	0xbfd6520badafc587	-0.34875766717512885
2	0xbfaa226394ed5703	-0.0510436171813762
3	0x3fe218256d61c08f	0.5654475342144155
4	0x3fea11b2d36dd6e9	0.8146604661439741
5	0x3fc373442840cd6b	0.15195514646039085
6	0xbfe72ef2a648b554	-0.7244809386954025
7	0xbfe3161853659949	-0.5964471463055726
8	0x3fe3e4cee19f8207	0.6216806799603213
9	0xbfd68f038e2f3f6a	-0.35247887501917907
10	0x3fc9ac601610c51f	0.20057297780434966
11	0xbfec50b5a08e517f	-0.8848522315843609
12	0x3fc18d9123e208c2	0.13713278057190875
13	0x3fd075a150d6c2ff	0.25717957395958985
14	0x3fed52a68cf4b5ab	0.9163391831440796
15	0x3fe6ceb28c73fb6a	0.7127316230033618
16	0xbfe183c41ddd95a5	-0.5473347266494569
17	0x3fe179dfe675fc15	0.5461272717656153
18	0x3fea4f61bef8fa00	0.822190163605967
19	0xbfe06e9bac1f8fe3	-0.5135019647391313
20	0xbfe4dfa9d96ea966	-0.6523026701664036
21	0x3fda0224c0617d1d	0.4063808325499439
22	0xbfe9c0fdeafbf371	-0.8048085774931747
23	0x3fe10f3113834eb3	0.533104456053897
24	0x3f9d88e0516b6f3f	0.028842453927480746
25	0x3feb545e0819ccc5	0.8540487440317511
26	0xbfc1f2407a6ba627	-0.14020544030727075
27	0x3fe9e2bd8b11d4ca	0.8089282718853152
28	0xbfe006167c2946db	-0.5007431435608071
29	0xbfec9ef1495e6060	-0.894402163789902
30	0xbfa7efd1efc9a6e9	-0.046751556893310404
31	0xbfe2e08ea16d1dcf	-0.5899117615562605
32	0x3feaf55fe55fd939	0.8424529533356583
33	0xbfc1ac5f950a49da	-0.13807291772225377
34	0x3fef1941e84154a9	0.9718331848368013
35	0x3ff0684fe7c773da	1.0254668287154716
36	0x3fd07a6258011a0d	0.2574697360436467
37	0x3fd560fbd972840f	0.33404442057695943
38	0xbfd09d561b7e0803	-0.25960304913326143
39	0x3fe7d04d3726b7e5	0.7441774441883778
40	0x3fab319be42b0ca2	0.053112861254271296
41	0x3fedd8b22b826aec	0.932702145556815
42	0x3fd82552c2b5819e	0.37727803244163194
43	0x3fc3ebdeee0ded06	0.15563570617437267
44	0x3fec673a8b12d36f	0.8876011577873281
45	0x3fe26cbd3444f31c	0.5757738133321229
46	0xbfc03add9a41d407	-0.12679643661581982
47	0xbfd94b51d97902b4	-0.39522215116088977
48	0x3fa7f3c295fc39aa	0.04678161698221868
49	0x3fe2564bfb1e1d5d	0.573034277404911

fc_out.weight f8 [1, 50]
0	0x3fa5f97e6b646574	0.04291911183299649
1	0x3fc293cbca7d5b6f	0.1451353777617572
2	0xbfb1bdaa16ec9e3f	-0.06930029925990143
3	0x3fa112122da642eb	0.03334099585766189
4	0xbfa7f42255444316	-0.046784470470930525
5	0x3fc0afb5f13d18f7	0.13036226538878967
6	0xbfb61bdeac84ac07	-0.08636275970336281
7	0xbfac7216f82121b3	-0.05555793551372137
8	0x3fbc5aecb7a517ec	0.1107624004699514
9	0x3f9de41b6042e8f3	0.029190471411063745
10	0xbfc117bf7bdd680b	-0.13353723095025347
11	0xbfc1d4761eb19106	-0.1392963075514972
12	0xbfb039803a1be296	-0.06337739390063243
13	0xbfa4c92344d093ae	-0.040597059393156484
14	0x3fc3b52ee6022940	0.1539667723739715
15	0xbfb3378f8c2e1e17	-0.07506653950087415
16	0x3fc64982ccff9346	0.17411837587055795
17	0xbfbda89b1f2ae7bf	-0.11585397253921224
18	0x3fb1130f787a1864	0.06669708911258138
19	0x3fbd97f3f22cd61c	0.11559986746291212
20	0x3fc0b36aae8d7d21	0.13047536395149797
21	0xbfc35eeef78b03c2	-0.15133463942586728
22	0x3fc1af3afac4471f	0.13816010708301804
23	0x3fc77dbb9be4d773	0.18352456199653097
24	0xbfc0a7644fc6a99f	-0.1301083936244369
25	0xbfc72c71976020eb	-0.1810438145769305
26	0x3fbf659decfc6d14	0.12264430080215433
27	0x3fa4f77dc78bd6f7	0.04095070896975799
28	0x3fade6f96a84879b	0.058402818920753684
29	0x3fad219eeca472cf	0.056897131335266964
30	0xbfbf8c179e0bed44	-0.12323138817366891
31	0xbfb5ba264a4af71c	-0.08487166703977461
32	0xbfc2dc700ab5ec3b	-0.14735222361545816
33	0x3fc64450ac775312	0.17395981236645547
34	0x3fc0cf5193524935	0.13132686322621515
35	0x3fb0bd331f7df623	0.06538695830200729
36	0xbfb0b9c31393934e	-0.06533450344029498
37	0x3fbf851dc61add06	0.12312494360491053
38	0xbf9e77d192bb6766	-0.029753946858228096
39	0x3fb631a64fa14825	0.08669509357540102
40	0xbfbd7a71e8d1e357	-0.11514961179808601
41	0x3fb36a5dadb18b20	0.0758417653137653
42	0xbfaf269f98801650	-0.06084154831482336
43	0xbfbd2101611751de	-0.11378487224948894
44	0x3fbb6606ef0a65df	0.10702555976822435
45	0x3fbbce9f0fe4fec6	0.10862154138612387
46	0xbfc3f62562699732	-0.15594928078933773
47	0xbfb652b5cd8eadba	-0.08719955700387674
48	0xbfaff5174fe0f8f9	-0.06241677141268726
49	0xbfa024cf786620b4	-0.031530841300140194

fc_out.bias f8 [1]
0	0x3fd30416428fb7a9	0.2971244478238711

fc_hidden_list.0.weight f8 [50, 50]
0	0x3fa85e57c58a92e6	0.04759477888481971
1	0xbfa0f19822a2b374	-0.033093218067142965
2	0xbfbf81e59d23ff8d	-0.12307581983986733
3	0x3fb538e3a7d3345d	0.08289931151667092
4	0xbfa81dab966eddb0	-0.047101366151248825
5	0x3fc2d290cccf7f1c	0.1470509529162819
6	0xbfb7870dab76a4b3	-0.09190450130576515
7	0xbf8265e41f6ec641	-0.0089834043591025
8	0xbf6e307681a65b06	-0.003685218294048001
9	0xbf8afd35ca533bc2	-0.013178272473309497
10	0x3faa1854792ac7d0	0.050966872969538835
11	0x3faaf008c5de18c6	0.05261256614089542
12	0xbfbcefcdcea0b424	-0.11303411764738819
13	0x3f9f9db772ece75c	0.03087507857274062
14	0x3fb9a3c1d48334f1	0.1001549857930575
15	0xbf9ecae70438f73b	-0.030070886261675183
16	0xbf986777c7c6a5c4	-0.023832198685033182
17	0x3fc02da82ac5e461	0.12639333809400724
18	0xbfb34164fba05ad5	-0.07521659033987345
19	0xbfbebf239805fbeb	-0.12010405026920494
20	0x3f86620f5a7341cf	0.010929222057172531
21	0xbfaf654447f08822	-0.06131947878044765
22	0x3f869bea2fa86dcc	0.011039571360973797
23	0x3fb3d7efba4aba55	0.07751367853300313
24	0x3fb79f6b0c45048a	0.09227627801466745
25	0xbf739e28db0a8d17	-0.004789504616073323
26	0xbfb1642d58e21f7a	-0.06793483181001916
27	0xbf950e30e9d01fef	-0.020561947127163135
28	0x3fbd61fcb5eb7dfa	0.11477641526607121
29	0xbfb77ead43c69fc6	-0.09177668480572185
30	0xbfb17bf50227a0e8	-0.0682976846943607
31	0x3fbb92919f8f72d2	0.10770521302715544
32	0x3fb0dd6a706d6efb	0.06587853665171998
33	0xbf90288c012a3b22	-0.015779674121002014
34	0x3fa3d9f13df9c69c	0.03877214318789621
35	0xbfbd5b2729063b9b	-0.11467213393755886
36	0x3f776067b198cc12	0.005707173398650249
37	0xbfada1cc8b0ecb9c	-0.05787505338175622
38	0xbfb5f9aacb9b3e9b	-0.08584086867198908
39	0xbfbea239e7f8e945	-0.11966287530313931
40	0x3f9a292cce068b3c	0.02554769523124921
41	0x3fbb7b1e4184d2d9	0.10734738444882498
42	0x3fb00e8d960503af	0.06272206223094544
43	0x3fa689044532bc2e	0.04401410431579965
44	0xbfb567be385b48ba	-0.08361424327748326
45	0xbfb059a38bcd5c20	-0.06386778033389406
46	0x3fc1db67fc8b779b	0.1395082457665325
47	0xbfb6257d5bf662e9	-0.08650954718758509
48	0xbfbf0847e793ab0e	-0.12122010616046117
49	0x3fbe3675e33f6706	0.11801850126303401
50	0x3fbf5f6983934f1f	0.12254962408343005
51	0xbfb097f129f859fe	-0.06481845163975916
52	0xbfb4022742111e6a	-0.07815785754166318
53	0x3faea1d0c8250c73	0.05982830470250002
54	0xbfad6a3da79635e1	-0.057451178271644705
55	0x3fb65a7f610cbf1d	0.08731838340167682
56	0xbf8d930d6bfa7fae	-0.014440636499159467
57	0x3f99d2457509339d	0.025216183918292157
58	0xbf7e03772162db46	-0.007327523568327282
59	0x3fc688acf491c9d3	0.17604600850934435
60	0xbf9dc70c5488f500	-0.02907962099037764
61	0x3f927a19f7a1ccc8	0.018043905009517386
62	0x3fb803a1772ff52d	0.09380540046546022
63	0xbfb5ef6ac1c0399b	-0.08568446378942556
64	0xbf905aaa4510dc4d	-0.015970859971471452
65	0xbf504f25f2786707	-0.0009954329087861773
66	0xbf8255dc08ebaa32	-0.008952826521143018
67	0xbf94ebf9b4b96544	-0.02043142476609218
68	0x3fa2a34424315ad9	0.0364018720799117
69	0x3fc65894b28b1a3c	0.1745782729905886
70	0x3fc142a5e6b8ba88	0.1348464371271414
71	0xbfafe420514a3ffb	-0.06228734009084743
72	0x3fbb9b4034376f9f	0.10783768915956536
73	0x3fa5757ad30abeca	0.04191192461200684
74	0xbf8076956ac28d53	-0.008038680382304852
75	0xbfbc2d1b20adde66	-0.11006326244193473
76	0xbfb48fc288a63055	-0.0803186019531393
77	0x3fb88ec6296bfbec	0.09592855941080786
78	0xbf7624174c6ca302	-0.005405512819188331
79	0x3fae666c6a6e7648	0.0593751792832618
80	0xbfc1c6fe7523f1d2	-0.13888531417604938
81	0xbfac83c3285602a3	-0.05569276683218518
82	0x3fb9809414866f76	0.09961820126630791
83	0xbfc151cd594d3f21	-0.13530890331684822
84	0x3fafe44b125f8ace	0.062288614266227435
85	0x3fbd9b6896f0ff3d	0.1156525963315262
86	0x3fc298234389962f	0.1452678756497092
87	0x3fa1bdb7d75fad4c	0.034650559464206226
88	0xbfb605602f80c6e8	-0.08601952705137317
89	0xbfa67aa310c52d7d	-0.043904395863672875
90	0xbf999d756a54d93d	-0.025014719595867197
91	0xbfbac716e8986ac3	-0.10460036448095437
92	0x3fb59eb4060b43b1	0.08445286891516336
93	0xbfbdbbe7604d977f	-0.11614843464994172
94	0xbfc0022c6a32af0b	-0.12506632981727991
95	0xbfb408b1335d3c1c	-0.07825763229378463
96	0xbfb3a7a60769d602	-0.07677686387054197
97	0x3fc625272414f1c6	0.17300881635482152
98	0x3fb4bf12ab192052	0.08104054143143571
99	0x3fa2143412d9c71c	0.03531038980589882
100	0xbfb03989c076f519	-0.06337796162457145
101	0x3fafac10dc7e62dc	0.06185963336537778
102	0xbfb393c44099f546	-0.07647348954374875
103	0xbfb0a0d6f4557f16	-0.06495421853241753
104	0x3fa2eae0297f6518	0.03694820887148803
105	0xbfadc0e37b8a61f7	-0.058112248259195746
106	0x3fa8e6c7fb35575b	0.048635720648845214
107	0xbfbf287a045e596e	-0.12171137434629539
108	0xbfb4a6d20db38dca	-0.08067047914987949
109	0x3fbed71a5b0543d3	0.12046971056157867
110	0x3fb76c9437154644	0.09150053353121118
111	0x3fb885c3c2c63dca	0.09579108720048804
112	0x3fba10cd65442284	0.10181888315504223
113	0xbfb59702a7f23cc7	-0.08433548546075818
114	0x3fb0fa4cc71db56a	0.06631927357894588
115	0xbf9bef02c74d66f7	-0.02727894154973051
116	0xbf8c3eb23a806334	-0.013791458521198764
117	0x3f2488faa13b66f7	0.0001566701836200263
118	0xbfa99e37711d1d36	-0.05003522163183975
119	0x3f963e856fe71c8b	0.021722874598506563
120	0xbfa8febdb1de1849	-0.04881851955637779
121	0xbfb09fb9d367d471	-0.06493722354191946
122	0x3fbac29b89bccca3	0.10453197586757539
123	0x3fbc1d483ba89649	0.10982181030757333
124	0xbfba99ab8a9da6a4	-0.10390731939483061
125	0x3fb0e2d83a02703c	0.06596137443779154
126	0x3fc23619338d105b	0.14227595345630814
127	0x3fb1570a64175f6d	0.06773438399920702
128	0x3fbf1b993c7908e6	0.12151487089525723
129	0xbfc0c93e9093f8d8	-0.1311414915034621
130	0x3fb2f3cfbac77d58	0.07403276739159048
131	0x3fb296f1710b4665	0.07261570939888314
132	0x3fa7f64aa8bc876d	0.04680093107005132
133	0xbfbe544fa8e4076b	-0.11847398637112654
134	0xbfbbbe8bd70b1671	-0.10837625503617133
135	0xbf9fe011acdab79c	-0.03112819306868851
136	0x3fa2f30aaed4d926	0.037010511247375796
137	0xbf63009819c4f4f1	-0.0023196192470594725
138	0xbfc1c115ecc1ff72	-0.13870500622214937
139	0x3fb67e7979a7dec8	0.0878673479090778
140	0xbfc37c3b232ef8ba	-0.15222872941916937
141	0x3fb0cca4ae498258	0.06562260870988135
142	0x3f6fe1c3b03197cd	0.0038918325458778603
143	0xbfa82303536d732d	-0.04714212792780468
144	0x3fc24a3d44310f1d	0.142890604302118
145	0x3fb58c4847312929	0.084171788578861
146	0x3fc0e9f219510142	0.13213945614007555
147	0xbf7da756f9423920	-0.007239665737996753
148	0xbf7a33f763598ce4	-0.006397215232570395
149	0xbfb880d3feecd1d4	-0.0957157609344173
150	0xbfad659e0b887ce0	-0.05741590395722951
151	0x3fa8caf48524e05f	0.04842342496198237
152	0x3f727bccc7b34990	0.0045125960561612916
153	0xbfa1bb2bf34bea30	-0.03463113160065168
154	0x3fb9d68a2994e664	0.10092986598183412
155	0x3fb847be9367d497	0.09484473322648267
156	0x3fb8210a2c12b6d7	0.09425414634707906
157	0xbfc12a152deb7bf5	-0.13409676305943177
158	0x3fbd95fcf8ac55ce	0.11556988783953345
159	0x3fb9221fe28d82d1	0.09817694932054201
160	0x3fa02fa8f80a9fe1	0.03161361720896117
161	0xbfbb036f6392f6a2	-0.10552116566665373
162	0xbf95fdad3f304ab0	-0.02147551248715257
163	0xbfb7a00555abef7e	-0.09228547422020303
164	0x3fb201f830c62824	0.07034255209706025
165	0xbfa0dabce059e53b	-0.032918836962333185
166	0xbfafb8cf81eb45b7	-0.061956867799050235
167	0xbf9930f392f00eeb	-0.02460079750382153
168	0xbfad2ae0f81d4488	-0.056967764174836566
169	0xbfb668d91b93b4a6	-0.08753735469118115
170	0x3f76c9b3ccdc5a91	0.0055634520956774495
171	0xbf93ed55a8f8cd83	-0.019460047186112838
172	0x3fbfee6361e5d8c4	0.12473126545032459
173	0x3f89c3ac2e093261	0.012580247073082864
174	0xbfba1da05d644ff9	-0.10201456337046001
175	0x3fc20feab03318df	0.14111074069496163
176	0x3fbf213f77780812	0.12160107294769798
177	0x3fadcfae028a1762	0.05822509556769152
178	0x3faa8fc0e0636f49	0.05187800158611695
179	0xbfbf8bad2054d048	-0.12322504081095176
180	0x3fbbeae47e37aa4e	0.10905292588692214
181	0x3fc2db2b0fa6b3e5	0.14731348289697546
182	0x3fb55d0aa983d5ac	0.08345095289754195
183	0xbfc010a74fcbdd44	-0.1255082263594237
184	0xbfa495436cc0594f	-0.04020128920108112
185	0x3fa681f192f0f2b1	0.04396014136043414
186	0xbfb27a60526bf14c	-0.07217981350180941
187	0xbfb58e722f98e19d	-0.08420480405846438
188	0x3fc0704d22648c00	0.12842716388067288
189	0xbfc18fff1a4bf1d0	-0.1372069242860463
190	0xbfbc56828973dda6	-0.11069503646637333
191	0xbf9ac3ad20693074	-0.02613707075424583
192	0xbfb107878ec836f5	-0.06652114139452776
193	0xbfaef7657e1512c4	-0.060481235161693486
194	0xbfba6c4f69c4a789	-0.103215182611761
195	0x3f8e0695c64df603	0.014660997499727385
196	0x3fb0bb0413cbbf4e	0.0653536365823559
197	0xbfa3d0aa47e7e71e	-0.03870136382825094
198	0x3fb7fc034956ab04	0.09368916073314543
199	0xbfa50f3f20f2c4b0	-0.04113194729996772
200	0xbf9c9969a8e11f4d	-0.02792897313363989
201	0xbfb29650fe631ce4	-0.07260614596008313
202	0xbfb7e7da65f15ef7	-0.09338154782141915
203	0x3fa8ff7b76f826a7	0.048824175140976415
204	0xbfc17f942af988a3	-0.1367058954084018
205	0xbf80eec4be513826	-0.008267914827367728
206	0x3fb292fa0c18cdec	0.07255518718084603
207	0xbfb09f2d0431a007	-0.06492883064640874
208	0xbfbb795410502aa2	-0.10732007406492497
209	0x3fb60b0c98c5615e	0.08610609750519901
210	0xbf965fc13aa8b0d5	-0.021849650578744956
211	0x3fb74ffe2968a3cd	0.09106434355693623
212	0x3f81dc34acd7a3cf	0.008720790409784044
213	0xbf9baa460d9600f3	-0.027016729907246306
214	0x3fa1671512c12b70	0.033989580668808084
215	0xbfc2ba88d016e48d	-0.14631757889381838
216	0x3fc26d60e5c7a111	0.14396296710698
217	0x3fb807cc49460c33	0.09386898793131664
218	0x3f9c2c336760c011	0.027512362656295922
219	0x3fae01d44fd9dcdf	0.05860770678276039
220	0x3fbf55696e3915d7	0.1223970312213035
221	0xbfbf69d3d472ba65	-0.12270854889605116
222	0x3fb59aab0cf95c7f	0.08439129893064211
223	0xbfc36679d59a6ad4	-0.15156481675952327
224	0x3fc05d4fad278de4	0.127847632930851
225	0x3fb8f4bc85291bf3	0.09748438120833196
226	0xbfb0f52efadcc8d6	-0.06624120354243543
227	0x3f9f6b0617b91995	0.03068170089525209
228	0x3fb2b0fccdf6cdb5	0.07301311520023186
229	0x3fb430984d240179	0.07886649974171246
230	0x3fb93a1d78214fd4	0.09854301627029766
231	0xbfa22d1375c56201	-0.03550015270838359
232	0x3fbfbddeca8de68f	0.12399094052480052
233	0x3fb0a06a5f37101e	0.0649477465113368
234	0xbfb833462371b9fa	-0.09453237881982793
235	0x3f8b4470f2c8281e	0.01331413498794026
236	0xbf9197df83ad7782	-0.017180912410700973
237	0xbf9911d0bd829889	-0.024482022825985914
238	0x3fc3a754a0c25904	0.15354402398651967
239	0x3faffab2fc28f638	0.06245955780148588
240	0xbfabcab5584901b4	-0.054280917193412576
241	0x3fc18b544fe68e88	0.13706449414631927
242	0x3fbc89b6eef0507d	0.11147635777916949
243	0xbfa0499573c9bf4c	-0.031811399826323056
244	0x3fb71b1f19964531	0.09025759100611165
245	0x3fb583805eeba076	0.08403780286210058
246	0xbfb8ef4c20a250d9	-0.0974013881371464
247	0xbf8748fd6163bf8f	-0.011369685682865142
248	0xbfc0f3927fbc7cfe	-0.13243323552249103
249	0x3fb15c4cda8ed716	0.06781463943374563
250	0xbfa68d9b6318ce51	-0.04404912552527363
251	0x3fbfe8d286e083b2	0.12464633744140377
252	0xbfbef5a60ba20895	-0.12093580039985093
253	0x3f7f23686297aaa9	0.007602126840974202
254	0x3fa43d84ae828ece	0.03953184728859825
255	0xbf9d0e73dc8d8cef	-0.028375444733126306

fc_hidden_list.0.bias f8 [50]
0	0xbfc00ded3185e370	-0.12542500417819324
1	0xbf9ffe5b3a049b95	-0.031243729988229402
2	0xbfb2c907bc9e8f3b	-0.07337997775044595
3	0x3faa2ed37df05d36	0.05113850509968147
4	0x3fa1989e5a3a147d	0.03436751223947796
5	0xbfa1416ba3d0ca75	-0.033702243563671276
6	0xbfb2029ac9c11913	-0.07035224366800134
7	0x3fb16282f9320824	0.06790941795227973
8	0x3f93a3fa4204ebf4	0.01918021228742002
9	0xbfb5be2ec7dcfdc6	-0.08493320826982317
10	0xbfa3415b0b22f84a	-0.03760799895233953
11	0x3fc1b2c9fb1319e0	0.13826870688917747
12	0xbf900db0273a4bfc	-0.01567721595217718
13	0x3fbffbacb6654d50	0.12493400052089965
14	0x3f9f42f3f7921b8e	0.03052884291221463
15	0x3fa1f843357be480	0.035097217825701854
16	0xbf951a2825907670	-0.02060759286188446
17	0xbfb933cda54e94dd	-0.09844670568289211
18	0x3f6d322c72821ebb	0.0035639637099541244
19	0x3fc08654b931cf6a	0.12909945528701466
20	0x3fb68d1182d2d166	0.08809003299649518
21	0xbfa73f551fb99151	-0.045405063746133074
22	0x3fbd57576c321e72	0.11461397544382537
23	0xbf790f75b4f5db7a	-0.006118259232031126
24	0x3facbf8638abc327	0.05614871446403518
25	0xbf7582d543932c55	-0.0052517252563105314
26	0x3fc129b1ec95505f	0.13408493091503979
27	0x3fc0b728c48a9394	0.1305895766901385
28	0x3fbe9e1b95614c8d	0.11960003277754279
29	0xbfb2f1b74b0a9894	-0.07400079328599168
30	0x3fc17a156a53e1d8	0.13653819743900786
31	0xbfa4c72237675c30	-0.04058176924052537
32	0xbfb04b9244aa04c7	-0.06365312744493955
33	0x3fb51396cdc84657	0.0823301556013346
34	0xbfa65ee3f91cb64a	-0.04369270721359138
35	0xbfa3d327212a85a5	-0.03872034339770928
36	0x3f8a9c9e0e7ff886	0.012994036500455285
37	0xbfacf7af45701d7a	-0.05657718393927787
38	0xbfbc5949118374c5	-0.1107373874433107
39	0x3fb9b68a069899bf	0.10044157658612728
40	0x3fb217c75c98515d	0.07067533503169927
41	0x3fa462a6fb6d2cc0	0.03981515711947159
42	0xbfa7cd439197474f	-0.04648791458352141
43	0x3fbfc0ddfd59d329	0.12403666911434343
44	0xbfb5f65b5e77a13e	-0.08579035812693278
45	0x3fbdc752b83b34c0	0.11632267949899511
46	0xbfa6a7011751b737	-0.04424289140375353
47	0xbfc0a7c184a038b9	-0.13011950469848957
48	0xbf9874874c2590ec	-0.02388202097189744
49	0xbf96f22fdaeee746	-0.022408244836447787

fc_hidden_list.1.weight f8 [50, 50]
0	0x3fb3736cb27431a6	0.07597998959335558
1	0x3fadad678a50e86a	0.05796359599521923
2	0xbfbf889ae2ca353c	-0.12317817723142793
3	0x3fbf6ec64eeeb743	0.12278403689444155
4	0x3fa10f2433f96758	0.033318644852171786
5	0xbfbd158a19c2505f	-0.1136099160087851
6	0x3fb5ca99e8355349	0.08512269896648407
7	0x3fbaa7044a3d6e1c	0.1041109734773546
8	0xbfb4c3486e236f0d	-0.08110478104520898
9	0xbfb11d5de17df6f0	-0.06685435061623557
10	0xbfbaef60dc99b02d	-0.10521512399435613
11	0xbfa19e0216d39590	-0.03440863159793672
12	0xbfbfafc3111b202e	-0.12377566497446033
13	0x3f9f18ecb08c4931	0.03036851718486239
14	0xbf95912cf7c5fc38	-0.02106161367691703
15	0x3f8d2639f8b81536	0.01423306741981865
16	0xbfb58e02a6297776	-0.08419815594376509
17	0x3fc06746b78056ab	0.1281517406466056
18	0x3fbe31ba4a838dab	0.11794628447710546
19	0x3fb2595fd5420522	0.07167624432078815
20	0xbfa8ea1609135422	-0.048660935027932575
21	0xbfb61070319340a7	-0.0861883278878418
22	0xbfa87d8c618a4967	-0.04783285799671227
23	0xbfb3052f3839d42f	-0.07429785845472801
24	0x3faead219d76f4f3	0.059914637061845875
25	0xbf82169bd5c2010a	-0.008832185231085993
26	0xbfc092336bd1a699	-0.12946169628712736
27	0x3fbc3d5bfc624fdc	0.11031126891822346
28	0xbfc2ffcad4ac0992	-0.14843116173149135
29	0x3fafe452a6f281ac	0.06228884017878342
30	0xbf7f90da87fd8b80	-0.007706502568768481
31	0xbfa5339550e639c0	-0.04140917408504974
32	0x3f7a5a6456dab434	0.006433860731402997
33	0x3fb9f9a19fa12e87	0.10146532199103762
34	0x3fbc7a7a3d6fed8d	0.11124385833675472
35	0xbfbc425638e2b79f	-0.11038721932228988
36	0xbf8e4ae4ce252da6	-0.014791286030819983
37	0x3f968312f75713f7	0.021984382959789852
38	0x3f9cad7f351477e6	0.028005588164084737
39	0xbfc4db348d9fedc4	-0.1629396144415819
40	0x3fbcb10e1305ba12	0.11207664455808011
41	0x3f89bec1f54428bf	0.012570872590476843
42	0x3fbc0e62f92f5689	0.10959452231994694
43	0x3fc50b9988efc3ff	0.16441649614674245
44	0x3fc34762cfdb2243	0.15061602734773957
45	0xbf48dcc9b081db54	-0.0007587418376847435
46	0xbfb8a2cbcff81a1e	-0.09623407199260511
47	0xbfbb51ae8f753766	-0.10671511652364316
48	0xbfb90379ca6800fe	-0.09770928565558631
49	0x3faa884255aae208	0.051820824582538505
50	0xbfc2960ad6f10098	-0.14520392890154166
51	0xbfb8cbfa1d2144bd	-0.09686244212322755
52	0xbf74d8410c32edd8	-0.005089048473731116
53	0x3fbc7c24824ded5e	0.11126926594981998
54	0xbfc21d8a336669e3	-0.14152648458259795
55	0x3fb3a7ae0fcb6157	0.07677734265906132
56	0x3fb2c4a7126b9618	0.07331318092072825
57	0xbfaa07c0c2e97a7c	-0.05084040049836333
58	0xbf8bbd40bb475759	-0.013544564929286617
59	0xbfbdbbe5e3878d80	-0.11614834599418167
60	0xbfb9fd088098e3fe	-0.10151723041134628
61	0xbf70ba68e46366b5	-0.004084024176529579
62	0x3f9e3241a07310d0	0.0294885877781475
63	0x3fa1d23e4d1b72f9	0.03480715457201273
64	0x3f567a2166583cb5	0.0013718916101231164
65	0xbfbbf9ab36edb29e	-0.10927839365985867
66	0x3fa67787666f663b	0.04388068318776247
67	0xbfa2a5a755aa99db	-0.0364200870583777
68	0xbfb37acb7c0ff2f9	-0.07609245089401985
69	0xbfbabf6e80b9bd8f	-0.10448351519311515
70	0xbf7f2af406d6d72b	-0.007609322766645647
71	0x3fa8d0bd3ad6ea69	0.04846755355125227
72	0xbfa6af58ffd0ae50	-0.04430654642814302
73	0x3fb8a88d3debe31d	0.09632189523462072
74	0xbfb9242764c67880	-0.09820791445096866
75	0xbfc0135b7baa8e04	-0.12559073961629974
76	0x3fc3454cd75ffe76	0.15055237308841968
77	0x3fbfb1ab7fc33761	0.12380477780535905
78	0xbf911981209d3364	-0.01669885407982309
79	0xbf974127f71f5195	-0.022709488351965474
80	0xbfa386dced1545ba	-0.03813829797821762
81	0x3fbd8540acaf34e5	0.11531452384879833
82	0x3fb1686239d63757	0.06799901878386315
83	0x3f8d089f45dbd250	0.014176601714532527
84	0x3fb93546e2082a50	0.09846919077259852
85	0x3fac8dbc7a68428c	0.055768861715596335
86	0x3fb4fcc138f5830c	0.08198173180199947
87	0xbf86450cfd0f01af	-0.010873891327606381
88	0xbfa99ee27749aa59	-0.05004031854771957
89	0xbfac552b92683f58	-0.05533729707906215
90	0xbfb8af112d0e9d00	-0.09642131185556835
91	0xbfb7f2dded3e7a02	-0.09354960481730504
92	0xbfbeb50c5c7b7522	-0.11995007760875301
93	0x3fc01e0b888fbcb5	0.12591690223732646
94	0xbfc089dfd08f6a47	-0.12920758899311321
95	0x3fac3f82b17a220b	0.05517204681843076
96	0x3faffc4d61e23348	0.062471788595849065
97	0x3fbc4099ba702fbe	0.11036072541918338
98	0x3fa942c2271f64a1	0.049337451244079185
99	0xbfab286d5f444637	-0.05304281032489338
100	0xbfc2a5c4b24b69db	-0.14568384843626245
101	0x3fbc6fcdf73a6ca2	0.11108100210042207
102	0x3fb7a6465debfbe4	0.09238090317738529
103	0x3fb4748e92ea999f	0.07990351759744961
104	0x3f71baf93253b661	0.004328702377490141
105	0x3fbd754ee9849dd1	0.11507123185275893
106	0x3fb7d60dcd0865c5	0.09310995345767654
107	0xbf8709ec53b36f77	-0.011249395660733559
108	0x3fa33526606865c8	0.0375148766217524
109	0x3fb403769f7f4dd5	0.07817784685112568
110	0x3fc10842d38ebda5	0.13306460695228597
111	0xbfa977958410b3a9	-0.049740478869672096
112	0x3f8f618597069d1a	0.01532272689003249
113	0x3fb752fbc79f3914	0.09110997794707415
114	0x3fb44fe4573c7d1c	0.07934405450622645
115	0x3fb532329ed19494	0.08279720666321772
116	0xbfb4902e981e4d72	-0.08032504285647749
117	0x3fbd4c8d8f02ba4f	0.11444935552092626
118	0x3f91e79dac28a5c3	0.01748510707162666
119	0xbfa1c2d989f124d2	-0.03468971070157924
120	0x3fb7cbc80e657c31	0.09295320846057177
121	0x3f998412aad3abcf	0.024917880703394787
122	0x3fbb1857e5d3dd21	0.10584020005250185
123	0x3fb30b77e36c1492	0.07439374258327039
124	0x3f9b4aec469573d1	0.026652995880215805
125	0xbfbf1e5954bcebbd	-0.12155683821485659
126	0xbfa6aab0f356107f	-0.04427102060711351
127	0xbfb308df881e03db	-0.07435414384055099
128	0xbfb40b73db7bc5e3	-0.07829975231631851
129	0x3fbc40150bdfe150	0.11035281696229515
130	0x3fa6845265b8bc29	0.04397828571051605
131	0x3f96dd4eb6c4492d	0.022328596024700765
132	0x3fbf07d257cec631	0.12121309894316636
133	0xbfb7b692e76a2df6	-0.09262960576796062
134	0x3f9124c33da7392f	0.01674180091668481
135	0x3fb8fb102a9d9b2b	0.09758091965123288
136	0xbf8acdd09d40a532	-0.013087873267141423
137	0x3f993adbaed69012	0.02463858847262663
138	0xbfa44b921f6b6102	-0.03963905938661762
139	0xbf88f27d73e19a51	-0.012181263064303812
140	0x3fae94df811b9e01	0.05972956133865282
141	0xbfa35dc6ebc954de	-0.037824837000394615
142	0x3f71015b7430bd0e	0.0041516849915261955
143	0x3f9bb251b923f6ee	0.027047421383932617
144	0x3f9b018ae8664050	0.026373072084936944
145	0xbf922a1d35205ff4	-0.01773877751119808
146	0xbfba0ac7b4e9e2fa	-0.10172699133716981
147	0x3f9212d538bd797c	0.017649966800826075
148	0xbfba513011b3286f	-0.10280132705807586
149	0xbfbdca09bd317a88	-0.11636410588242019
150	0x3f6613bc80aa32d4	0.002694957894453823
151	0xbfab14de2a1cf8e8	-0.05289358390881366
152	0xbfb81c671c9c152a	-0.09418339203337625
153	0xbfb5fc4a525aab44	-0.08588089476203914
154	0xbfa48c57e520a95f	-0.04013323471038421
155	0xbfb438f2a6c3f1d0	-0.07899395533963305
156	0x3f94360c72bda12d	0.019737429145068198
157	0xbfb2fc994a85be40	-0.07416685170550696
158	0xbfa89ff7bc1d9b7c	-0.04809545680364288
159	0x3fbba85c5e91926e	0.1080377322082968
160	0x3fa5ade0c78898aa	0.04234220920288696
161	0x3fb8e8d962b78137	0.09730299625471593
162	0x3f7977f4f8313c05	0.0062179154511588
163	0xbfbd20f8f8165000	-0.11378437096419702
164	0x3fb394215df63a56	0.0764790396117204
165	0x3fa314e29cb9969d	0.03726871646067063
166	0xbfc0f2467e4b2677	-0.13239365736653827
167	0x3fc0d0780882dbb4	0.1313619653280661
168	0xbfb9f68586732061	-0.1014178708311433
169	0x3fbf10cd73289374	0.12135013638960662
170	0x3fae47391c89fa51	0.0591371390664689
171	0x3fa0b94ce27bd085	0.03266372933094978
172	0x3fab772f98577c96	0.05364369139328422
173	0x3fb9e9442f4201df	0.10121561197048078
174	0x3f85e8401b66fee1	0.010696888767483372
175	0xbfb7f0dfc9b0edba	-0.09351919817065993
176	0xbf882d44e019b162	-0.01180509385013612
177	0x3f9b60721660fbbe	0.026735098472496104
178	0x3fb3d5d8b97e7e25	0.07748178986229755
179	0x3face69a668d01c6	0.05644686223832056
180	0x3fc5f350cdb164fc	0.17148790401078162
181	0x3fc1b9234575ccd9	0.1384624566231654
182	0x3fa23d9761fceda8	0.035626154624391504
183	0xbfb9e061468e5b34	-0.10108001682816053
184	0x3fb8518b14b08deb	0.09499425177687441
185	0x3fbb39b5fa72be0c	0.10634934772928534
186	0xbfb199b1203e9e97	-0.06875140225622044
187	0x3f82d26abb5145a6	0.009190400926089758
188	0xbfa9f2ca78099836	-0.05068047251988654
189	0x3f976dd8c77f254c	0.0228799697650051
190	0x3f94e6f472ce2f5e	0.02041227293697944
191	0xbfb82b917dd7cf41	-0.09441479990328806
192	0xbfaeb7e2b7b2b31a	-0.05999668590934544
193	0x3fc1d3bdc0476549	0.13927432907693518
194	0x3f91b1591f6663f6	0.017278091947080264
195	0x3fb7259928b31963	0.09041745418207862
196	0xbf9d8d87538f61de	-0.02886020133505151
197	0x3fbda4252262811a	0.11578590478393772
198	0xbf990d09a5aa392c	-0.024463797317872224
199	0x3fbd8e341b05cce2	0.11545110378010606
200	0x3fa9d84107b1500c	0.050478012265244926
201	0x3f9c46e04c6fd26c	0.02761412111790877
202	0x3faa992cde52b323	0.05194988454727525
203	0xbfa87a61cfcbdc77	-0.04780870114876106
204	0x3fa3a134a50eb02f	0.03833927645550294
205	0xbfb255702a51664a	-0.07161618264344685
206	0xbf8b36a630554988	-0.013287828779230862
207	0xbfb7c9c06441498e	-0.09292223403580221
208	0xbfc0264d306f68b8	-0.1261688696384391
209	0x3fba473ef9c661bc	0.10264962766667102
210	0xbf719b2443207dd7	-0.004298345231318965
211	0x3fb5a88193885378	0.08460244991176846
212	0x3fbe704e903b2ae6	0.11890116711871776
213	0xbfc15a3c1ebac7c9	-0.13556624889821325
214	0x3fabef562fe9b339	0.054560368870488714
215	0xbfc546d935e7d5ad	-0.16622462398633556
216	0xbfabbaf95118173b	-0.054160872601683306
217	0xbfbbec1f59730d22	-0.10907169278930387
218	0x3fb78b9a36530cc9	0.09197391344337115
219	0x3f9ede885d422543	0.030145769779243336
220	0xbfa7d24bfa23e4b2	-0.046526312145894436
221	0x3faf6e3087584816	0.06138755466612637
222	0x3f6fa8a9f2fbdf57	0.0038646048850487324
223	0x3f8739356800cc75	0.011339585529731114
224	0x3fbd35fbc0950578	0.11410497142516884
225	0x3faf8b1b23c01024	0.061608169664424645
226	0xbfb68ae5e3176a89	-0.08805691522813154
227	0xbf7c4b8474a5aed6	-0.006907956509490018
228	0x3f91054069922358	0.016621595805676875
229	0x3fc1308aca1cc8a2	0.13429388874789533
230	0x3fc1731897afbc80	0.13632495314184112
231	0x3fbf478debf174b7	0.12218558321315497
232	0x3fb80febdd2e25e4	0.09399294042500334
233	0x3fc08115a17eff5a	0.12893934617567987
234	0xbf945c66963c282b	-0.019883730811706506
235	0x3fc0691a2a4d5771	0.12820746484311088
236	0x3fb0be42bd877e6f	0.0654031479566528
237	0x3fb9147f11a70934	0.09796899968117573
238	0x3fc0158ead90efe5	0.12565787768278294
239	0xbfb64d1f85337cf6	-0.08711430551510432
240	0xbfc2d8e25a7edadc	-0.1472437803147021
241	0x3f7eda00efd6db45	0.007532123241097481
242	0xbfb8f5ea9f42b397	-0.09750238788792696
243	0x3fa0a1aaae346d1c	0.032483419194443836
244	0xbfc177eff04242dc	-0.13647269469631496
245	0xbfad1d5b28f7ee0e	-0.05686459422210187
246	0x3f97383e3bb1eb1b	0.02267548789357497
247	0xbfb741e7ab64c35c	-0.0908493798676892
248	0x3fbfed3b53b38b5b	0.12471361917009231
249	0xbfb17488858ea6c1	-0.06818440685915574
250	0x3fbd9f2022cf6a0a	0.11570931291445433
251	0x3fb93b633b2ddbab	0.09856243319323592
252	0xbfaa1f8a416b5929	-0.05102188156677052
253	0xbfae63d555bdea1a	-0.05935541793492778
254	0x3fb10d8c51069a71	0.06661297777336884
255	0xbfbbb48ca82bd586	-0.10822371583693355

fc_hidden_list.1.bias f8 [50]
0	0x3faa97fb479a1cfa	0.051940777292708476
1	0x3fb73bad771b7700	0.09075435789005937
2	0x3f85bf24365c9d28	0.010618479641904502
3	0xbf8c5f0cda8bcd73	-0.013853168887613098
4	0x3fc32dca87c9e651	0.1498349345236414
5	0x3f9f25fb6a1e1406	0.030418327667138832
6	0x3fbea92ab5d8a11d	0.11976878108601281
7	0xbf739fe546b68400	-0.00479116021179582
8	0x3fb12a1f0cf971e1	0.06704896990544952
9	0x3fb604d3a34d9f2b	0.0860111497582891
10	0x3fa624dffdc7a643	0.04325008366488394
11	0x3fa308fc99e902aa	0.037177938258996804
12	0xbfb577c70341a9c4	-0.08385890798096002
13	0x3fb165017987c346	0.06794747559594069
14	0x3fb510ab18c45116	0.08228558878574108
15	0x3f918d8999d91497	0.017141485228667177
16	0xbf645d5f68444dff	-0.002485929815642995
17	0x3fb99cb0e9b49cd2	0.10004716592503662
18	0x3fbcf07d6128c0fb	0.11304458257723475
19	0x3f980c10f15bfc9f	0.02348352883472826
20	0xbfa33abb52bd83ea	-0.037557462549336965
21	0x3fa0e87786b8eefd	0.0330235816913653
22	0xbf723531e320fa39	-0.004445261833153463
23	0x3fb13b680b67e5ae	0.06731272009337516
24	0xbfb513580b40802d	-0.08232641482072785
25	0xbfb2972ccc9470f0	-0.07261924738526537
26	0xbfbbb5d0bfc8161f	-0.10824303323905625
27	0xbf7d96bcf107926d	-0.007223833134479035
28	0xbf8a1f5257f5979f	-0.012755053815179994
29	0xbf83745087699452	-0.009499196178874101
30	0x3f77ba042ca2f095	0.00579263334855908
31	0xbf9b70b31e95d3ce	-0.026797102681900324
32	0x3f8d708b4b4ab449	0.014374817118858145
33	0x3fb5b4359b26c046	0.08478102720141675
34	0x3fb47279951358b0	0.07987174882450421
35	0x3f8e782c86fc23ff	0.014877651090062114
36	0xbf700722b3aa4b5f	-0.003913054994557934
37	0xbfbf5c87d8d4c5a6	-0.12250565570572877
38	0xbfa0b8bf234fd571	-0.0326595049481665
39	0xbfa10a254a7f46b3	-0.03328053030385316
40	0x3f9c7393c80faf3f	0.027784642301340808
41	0xbfc03b3d5a7907b0	-0.1268078510057058
42	0x3fbd5974e96c80c2	0.11464625071357928
43	0xbfc08ceef37e080f	-0.12930094613335583
44	0xbfb4a320b5e186a1	-0.08061413231328142
45	0x3fa66f091b6c18eb	0.043815884206240906
46	0xbfbe74d6fbc29e3c	-0.11897033354272762
47	0x3fc1922cedfacb7d	0.13727342243290855
48	0x3fbee124f86aa97b	0.1206229311452826
49	0x3f93123e43f846a4	0.018624279879139963

fc_hidden_list.2.weight f8 [50, 50]
0	0x3fb54df2c86c9673	0.0832206477467368
1	0xbfbe10460f10259e	-0.11743581645727949
2	0x3fae2e20ae3bedb9	0.05894567610627228
3	0xbf903aa1011aa161	-0.01584865159262117
4	0x3fc5b06dac1302d0	0.16944666769088323
5	0x3faee2c607fa1cdc	0.06032389495254062
6	0xbfc3c90895d1706f	-0.1545725566419409
7	0x3fb607da2981bf51	0.08605731500005943
8	0x3fb7489630e47a4a	0.09095133489288645
9	0xbfabc2b0918f8aa2	-0.05421973969329953
10	0x3fab5a51fbd44f3b	0.05342346381271886
11	0xbfb602d710636dcd	-0.08598083639247207
12	0x3fa468910b2e7738	0.03986027966969491
13	0xbfc0ad1c55cab9bb	-0.1302829188256974
14	0x3fc4806d6d622c2e	0.16016929474821623
15	0x3fbfeb1b22971adb	0.12468118280876743
16	0x3f81bb3149eebda3	0.008657822674506493
17	0xbf9b2877715f5a01	-0.02652155522795319
18	0x3fbd5bd821b4596f	0.114682682255397
19	0x3f7a8f7eaeacf66b	0.0064845036056887335
20	0xbfa74470857a6fec	-0.045444027227148215
21	0x3fb01555311ee28d	0.06282551240190966
22	0xbf98891ffbb5fb09	-0.023960590112888123
23	0xbf9f40cdcbd9c0e6	-0.03052064472871132
24	0xbfa1e864a919805c	-0.034976144449274854
25	0xbfbbbff5d33ca486	-0.10839783103132747
26	0xbfbd67f3cbf2e916	-0.11486743668766439
27	0xbf58cc5179df5277	-0.0015135570206342966
28	0xbfc575e8cd5188d1	-0.16766080880467496
29	0xbfc2a52373d8b63f	-0.14566462666100397
30	0xbf934ffe733b66df	-0.018859840186315032
31	0x3fbd45588f72f7b3	0.11433938505339718
32	0x3fa939f435740343	0.04927027847771239
33	0x3fa9a9649bf6c943	0.050120491064620264
34	0x3fa200e99c092032	0.035163212106056455
35	0xbfc039f8eaad3f24	-0.12676917513680863
36	0x3f6d205dfb1846ad	0.0035554729045167073
37	0x3fb7433d4bacef15	0.09086974237009955
38	0xbfbac9170c52ace0	-0.1046308903775528
39	0xbfc0bca0e749be6b	-0.13075648587572472
40	0x3fbf44072d9343d1	0.12213177550007905
41	0xbfba13ba6f76b8fc	-0.10186352940829474
42	0x3fb9edf82e35e38e	0.10128737571893806
43	0xbfbb4172e231f219	-0.1064674188837177
44	0xbfab421d13332328	-0.05323878154155742
45	0xbf9ea2dedef85d30	-0.029918176993388446
46	0x3f8641e0fd1524ff	0.010867841456859482
47	0xbfbbe8941c2bb872	-0.10901761710894833
48	0x3fc26ec8c4677d03	0.14400586690951664
49	0xbf83b1afd40cf8a9	-0.009616254481099
50	0xbfc26c7ed51cd6ad	-0.14393601804629466
51	0xbfbe0eafbf08dba8	-0.11741159833841996
52	0xbfbdda52297a71b1	-0.11661256325391524
53	0x3fb9ba53e51e73d6	0.10049938529705513
54	0xbfb2df253b71eea0	-0.07371742917342283
55	0x3fbec6a81c24ea23	0.12021876036752892
56	0x3fc1a28496c27636	0.13777215348538768
57	0xbfb386883d76575f	-0.0762715482763645
58	0xbfbad18be396c8bd	-0.10475992494937976
59	0x3fafbaa33537b787	0.061970806356710866
60	0x3fa5ad5f52bdcecc	0.042338351106904065
61	0x3fc3b4055c040588	0.15393130295710145
62	0xbfc0dd0dbbaf7204	-0.13174602188418316
63	0x3fa1ea579169a486	0.03499101305062262
64	0x3fa72fba5f6a927d	0.04528601088285187
65	0xbfbc911ed9dc6412	-0.11158936327809979
66	0x3fa766ef4c55097d	0.045707204883473
67	0x3fbc4c60c77098ef	0.11054043645035326
68	0xbfa92fa4fb5b19c9	-0.04919162338551392
69	0xbfa5c2d1c266f0f4	-0.04250197885582621
70	0xbf94620fcfb70481	-0.01990532594004835
71	0xbfb704287231d122	-0.08990719593004262
72	0xbfbb1cb68a69e954	-0.10590687636605384
73	0xbfa736c7fecf98ad	-0.045339822630738304
74	0x3fc1b77cc7bd8888	0.13841209176013458
75	0x3f95ac5747a7f40b	0.021165241001643447
76	0x3fc10bcb42ca1812	0.13317242394640566
77	0x3fb8ee13d2b8477f	0.09738277334716193
78	0x3fbddd33dd6b372c	0.11665653377278024
79	0x3fb2bf01495b5665	0.07322700539529022
80	0x3fbdb70dac43af04	0.11607442336724821
81	0x3fab803b25deace6	0.05371270024564882
82	0xbfc1b772b8192839	-0.1384108923833212
83	0x3fa39172166d9cba	0.03821903728276639
84	0xbfb88616dcf0cbc1	-0.09579604047830427
85	0xbfb856e2ba4e1428	-0.09507576988660615
86	0x3fb071de3ad60491	0.06423748909402806
87	0x3fc160c2403848b5	0.13576534400687526
88	0x3fbe36577095ef47	0.11801668642686734
89	0x3fbad652b96e4b8c	0.10483281161422847
90	0xbfb91e4519521d19	-0.09811813228781253
91	0xbfb0452d777ff325	-0.06355556647754364
92	0xbfbfe9687083d10b	-0.1246552729315377
93	0x3f9e22b3fd82da69	0.029429256771175725
94	0xbfbbb277cf0e8a70	-0.10819195561502126
95	0x3fa89c47ae8e4341	0.048067321832724115
96	0x3fbeb07dac0fe8a1	0.11988053751693652
97	0x3f527e489d4f14d9	0.0011287411809786567
98	0x3fbeadfbf0f1f737	0.1198422873730721
99	0xbfc0edc448799baf	-0.13225606478519356
100	0xbf8d9ca8dd997406	-0.014458960783651175
101	0xbfc42cb44bab8ca7	-0.15761426634626227
102	0xbfc0b835d1fba1c4	-0.130621650248271
103	0xbf92acfbb18a32ca	-0.018238003455325814
104	0x3fc2287c56eec37b	0.14186052555808346
105	0xbf970030fd5bf2a4	-0.02246166750318203
106	0x3fa030c282cd9ec9	0.031622007815540316
107	0xbfb1c8ac47b43155	-0.06946827650626138
108	0x3fc22e788a3f1313	0.1420431780844856
109	0x3fac7fc6109736e8	0.055662335896711046
110	0x3f6915dd6d24268e	0.0030621838315070876
111	0x3f9fa4beb8d6d2ee	0.03090188983124425
112	0xbfc15a51bb079122	-0.1355688250761285
113	0xbfa0435ed6ec0101	-0.03176399587209922
114	0xbfb98e18fc4ccec0	-0.09982448730152793
115	0x3f7d6cd7cbc18919	0.007183878853626057
116	0x3f94171296c1a017	0.01961926503318531
117	0xbfc397785f3b4677	-0.15306000375726445
118	0xbfa1ab7234c4cd17	-0.034511155072687476
119	0x3f764bdcf8d0d057	0.005443442508340799
120	0xbfa7fa54dce8ce81	-0.04683175274513208
121	0xbf9754a1e00ccce9	-0.022783784198691235
122	0x3f79f4b99ad12c30	0.006336903589793372
123	0xbf7ddf32a3210b88	-0.007292936135914092
124	0xbfb8186df57ac94a	-0.09412276499896169
125	0xbfa25e2afd6d85da	-0.035874694286359435
126	0xbfa50cb9ac437a00	-0.041112711218136866
127	0x3fa62c69a9d32844	0.043307592373438314
128	0xbfb0061a99e8806c	-0.06259313828968666
129	0xbfa9859ea5387551	-0.049847562473795855
130	0x3f94eacbcc8e1409	0.020426926002546284
131	0xbfc003470570bd68	-0.12510001912731217
132	0xbf9a3220c8fd8e73	-0.025581848399623696
133	0xbfa3112415e4abf7	-0.03724015013934683
134	0xbf9b174f7c8825c5	-0.026456109977550008
135	0x3fc19209820895ed	0.1372691998414405
136	0x3fa31be1b76dc9f5	0.037322095528811085
137	0x3fbe2afc55f509ff	0.11784340952457482
138	0x3f8490091641e618	0.010040350906126469
139	0x3fa73c5d13d9d1df	0.04538241259880115
140	0xbfc82e80e094032a	-0.18891917196017377
141	0x3fb64a254b4c72a8	0.0870688732943089
142	0xbfb1f81cc94e8fb7	-0.07019214548796425
143	0xbfc39bd6e987c093	-0.1531933441433507
144	0x3fb9bbfc266266d4	0.10052467286223116
145	0xbfb7d87ee309442b	-0.09314721148372544
146	0xbfac28a1d94fe0bb	-0.0549974992536035
147	0xbfb74f65facb0121	-0.09105527279735216
148	0xbfa13408f6185865	-0.03360012058344423
149	0x3fb765d892a3bea9	0.09139779644078296
150	0x3fb3e44f42648c93	0.07770247813145863
151	0xbfb47d0dca01db03	-0.08003317052667218
152	0xbfc05db86adfcd27	-0.12786011904209113
153	0xbfa6b7ef24f268aa	-0.044372056255455775
154	0x3fbf62073d2c7070	0.12258954280372492
155	0xbf91eb8ab427a8af	-0.017500083204062985
156	0xbfab71c1721471eb	-0.05360226171089607
157	0x3fa89ae29d989e42	0.048056680429280366
158	0xbfb7155da5fb0c19	-0.09016976644765896
159	0x3f50093b1f490822	0.0009787633290590033
160	0xbf93de953919b8a3	-0.019403773889671638
161	0x3fc117ada5893e82	0.13353510458772538
162	0xbfb38ea3543601b3	-0.0763952332108662
163	0x3facb1c3506a6931	0.05604372364651267
164	0xbfb04f9aacae7cf5	-0.06371466365679963
165	0x3fb8c6837a4aee3e	0.09677907691632812
166	0x3f93a0d41dbc2f8b	0.01916819983948374
167	0x3fa6ca5ccbea3123	0.04451265324778066
168	0xbfc2a619b6a2e85e	-0.1456939832476704
169	0x3fb4d90951c8fbd6	0.08143671271044126
170	0x3f8044caabcc8889	0.007943709724319585
171	0xbfb841be01f0e333	-0.09475314662348637
172	0xbfa8705557f93170	-0.04773203562635586
173	0xbf7a971280b94e4a	-0.0064917300001812814
174	0x3fbaa4c7f96d0ad2	0.10407686080456394
175	0xbfc50cbfa1621584	-0.1644515550616853
176	0x3f9875ec55d6066e	0.023887341250434728
177	0xbfb59b5ba6556970	-0.08440182505493055
178	0x3fafb0af9c32d8e4	0.061894882027830694
179	0xbfc06f0f1a9a2ac4	-0.12838925169883997
180	0xbfa8ba03bb8fa927	-0.04829417862477419
181	0x3fb02d2d168297df	0.06318933295787542
182	0x3fb2bb0967e8d15e	0.07316645418979337
183	0xbfc5e6722f70a748	-0.1710951549187547
184	0xbfbebaee47e31f91	-0.12003983740862469
185	0x3fb9f174143463eb	0.10134053700711802
186	0x3fac9d5d2a2c5f16	0.05588809146700961
187	0xbfb774dfbe6995f9	-0.09162710570088696
188	0x3f9218e6a7cf5275	0.017673114769268545
189	0x3fb2a2f40f36b196	0.07279897090365348
190	0xbf9b4f009373aa89	-0.026668557166809968
191	0xbf77cdb4446f21c1	-0.005811409157964354
192	0xbfae191c88d7fe49	-0.058785335259014256
193	0x3fbd2edab0d3ce0a	0.1139961892802647
194	0xbf81eac6ddb38ac1	-0.00874858249739441
195	0xbfaa21efaedfed52	-0.05104016313267813
196	0xbfc4d431c19e5eb3	-0.16272565797838964
197	0x3fa77ee2a6507bc3	0.045889933397340175
198	0x3fbd53780d3d5f52	0.11455488513217674
199	0x3f9e68d5e184857b	0.029696790589814875
200	0xbfb96a67903a807c	-0.09927985449985671
201	0x3fadf752df970a99	0.058527555268956984
202	0x3fb359a8bec78102	0.07558684022615483
203	0xbf99cbc549dd8f32	-0.025191385873213075
204	0x3fc2f8195fd7af39	0.14819638423738882
205	0xbf912b27ce1e8670	-0.016766187625427198
206	0x3f9bcb5e6a4e6399	0.02714297794190976
207	0xbf7c5478a7bf1d97	-0.006916495618447447
208	0xbfbc43c8df425b58	-0.11040931177772728
209	0x3fbd6d7308ee677e	0.11495131462143424
210	0xbfb5de958c5d347a	-0.08542761494500609
211	0x3fc1888b7a1b1a0a	0.13697951757622234
212	0xbf8ee66b7f0f831a	-0.015087928595620737
213	0x3fb0a844adce5832	0.06506757014571532
214	0x3fbcf9e4079cbb25	0.11318803010793184
215	0x3fa3a036a9e1097e	0.03833170722693334
216	0x3f8e3d096cf70111	0.014764855993121747
217	0x3f8ebda699515972	0.015010167650115067
218	0x3fb0cb476906d877	0.06560179056291014
219	0x3fc082d1f67a3fbe	0.1289923146728124
220	0xbfa1a8066b13f1e7	-0.034485054560693666
221	0x3fb697b87079fa50	0.08825257059104641
222	0xbf8dd194909274b5	-0.01455989900778785
223	0xbfb4de3824d897f5	-0.08151579761087631
224	0x3fb8aad53adf6a91	0.09635670363733541
225	0xbfc0492453a7dc61	-0.1272321136927728
226	0x3f9d1538c7b4d9e3	0.028401267232050286
227	0xbf74a291eb4ca203	-0.005037851330407242
228	0xbfb4ac4f0427892c	-0.08075422145296746
229	0x3f91c6216f90ef0a	0.017357370790917627
230	0x3f974130c58c568f	0.022709619576821324
231	0x3fc01fc48425c5f1	0.12596947147862594
232	0x3fa74cb696646386	0.04550715051499936
233	0x3fb858903a8e293c	0.09510137013981973
234	0xbfb2967d5526ded1	-0.07260878876592904
235	0xbf93640218785a82	-0.018936188453233978
236	0xbfc2cd38af1ea688	-0.14688786078231808
237	0x3fa87e39f143ac65	0.047838030530180466
238	0x3fb3bd4d175da0ce	0.07710725613071931
239	0xbfb1d5bca6f8db1d	-0.06966761661975025
240	0xbfb0156f0e09c770	-0.06282705395440558
241	0x3fbd2c1457d2fcb3	0.11395384925980316
242	0x3fa27e10f0ca7237	0.03611805857983479
243	0x3f64da15455f115b	0.0025453963707794797
244	0xbfb7cac2c1ea4ef1	-0.09293763384112787
245	0xbfc063466e5a0d0e	-0.12802963627118696
246	0x3fa4240676dd8d61	0.039337350854817606
247	0xbfb7006d0657b872	-0.0898502483830457
248	0x3fb7c733ddb31986	0.09288334047878352
249	0x3fc27c47ea497a40	0.1444177526454542
250	0x3fb1b76a732926ec	0.06920495330373527
251	0xbfc5223d25f3b685	-0.16510738709569153
252	0xbfbeec31779b6ad9	-0.12079152269454187
253	0xbfbe74c430705ef4	-0.11896921331969762
254	0x3f7f7258acddb666	0.007677408588148893
255	0xbfafb506c6023df1	-0.06192799727534382

fc_hidden_list.2.bias f8 [50]
0	0x3f9b351b43ff636d	0.026569772744412235
1	0x3fb95aefa5d933b2	0.09904382514032653
2	0x3f6afa56282ac5f1	0.0032931978942876074
3	0x3faaf5bbe0660da8	0.052656050817883326
4	0x3fbe14d1883388d7	0.11750516486384598
5	0x3fb603f0d925f80f	0.08599763204071585
6	0xbfac55a980a13259	-0.05534105010210472
7	0x3f9ca3aeaa187861	0.027968148357210846
8	0x3fbb6f6ce1c993f8	0.10716896545780219
9	0x3fbc14f7b421ba15	0.1096949400686998
10	0x3f7607c9084f9f61	0.005378518374506176
11	0xbf9cd0f9bb5c02f1	-0.02814092832614085
12	0xbf9dfcbd24c20e2b	-0.029284434670002007
13	0xbfa9c01bedcf2bf9	-0.050293801097346554
14	0x3fbc6ab922ac8910	0.11100346657307036
15	0xbfa24f3fb90d15ee	-0.03576087125706438
16	0x3f8999fb3d799168	0.012500727475704479
17	0xbfb7b7e10031ab71	-0.09264951948868629
18	0x3f997b46941ff957	0.024884321966959302
19	0x3fb18a5b7861b794	0.06851741494184999
20	0xbf8ef583af22da35	-0.015116719038229845
21	0xbfc451f4cc956b27	-0.15875110616146879
22	0xbfbff74c393bd726	-0.12486721417721167
23	0xbfb9bb50f8fef323	-0.1005144699001446
24	0x3fbb4f65f7b3cea9	0.10668027207776255
25	0xbf43edad915acda8	-0.0006081674097998995
26	0x3f8f9246bb44e504	0.015415718641281113
27	0x3fa502da55e2be61	0.041037390693756455
28	0x3fc1e0e2c0b9c4fa	0.13967546854431828
29	0xbfadaad37bd67660	-0.0579439247769471
30	0xbfa49a5b2025811b	-0.04024014251149507
31	0x3fc0c295229bc01d	0.13093818845618524
32	0xbfa8cb4b7e6fab48	-0.04842601698313459
33	0xbf9f1a524ff130fc	-0.03037384617736992
34	0xbfc0271b85d6cb77	-0.12619346652135352
35	0xbfafcf6e3e033bf1	-0.06212944514265207
36	0x3fc3c6fa32ba98e8	0.15450980641362055
37	0x3fb3f4f5db27e55f	0.07795654869541611
38	0xbf80d23d0ad5bd77	-0.008213498013644778
39	0x3fac42d0b2430750	0.05519725967452749
40	0xbf9810181e4e5db4	-0.02349889454816685
41	0xbfae08ff563b09a3	-0.05866239478702375
42	0x3fc108ac33205566	0.13307716843034284
43	0x3fabbadf1b606da2	0.05416009148776914
44	0x3f642e31db81bc04	0.002463433626011648
45	0xbfc2199c4c3a54f0	-0.14140657159865766
46	0xbf97d07144287adf	-0.023256082329789925
47	0x3fa3a199d92dceac	0.03834229255781216
48	0x3fc1d4779d094f63	0.13929648559371363
49	0xbfa198ef0625ba53	-0.03436991643944922
