savedModel/poisson2d_inverse_tanh/noise_0.1/ParticleWNN_1/trained_model_best_loss.pth (torch, 132191 bytes, 20 tensors)

fc_in.weight f8 [50, 2]
-0.582560305660311 0.628037607264138 -0.0631946574209396 0.5581080499823622 -0.2917252221124845 0.6610748272954731 0.08468335420273153 0.6638875060115239
0.06581131604552166 0.28942959950044717 0.5572218785642965 0.3897373690032529 -0.4993794650436128 0.3441695415071376 0.3078017441325945 0.4317695164384601
-0.13211622388026584 -0.07719822566196251 -0.7990664983038317 -0.2593282384390808 -0.5308007020119889 -0.709334621209136 0.18113325773616698 -1.012230360733998
0.37957386660005676 -0.06237106475419562 -0.11802340024449 0.21655515333327588 0.23805686682325622 0.5468186281448475 0.8386650051516846 0.07936522079555268
-0.7391885079358245 -0.7316996896256062 -0.044453965082453625 -0.146355633027064 -0.033800558555323434 0.5970605538047907 0.5487782809384179 0.06282962395178851
0.8390733079149301 -0.31912723930456655 0.5377986158602993 0.606950102133112 0.2697877159804321 0.7491651158331161 -0.6743454114662314 0.7754574170945792
0.18210875815631355 -0.5654184361884276 -0.12821306645902641 0.03595937479897956 -0.19166367108584795 -0.8746550876291815 0.569982563738933 0.5670596608231819
-0.20936097467543258 -0.7506116238619586 0.5376943753721789 -0.6562796619459549 -0.638245590802194 0.5909621518335048 0.740268650021995 0.36244497441751694
0.262070297391578 0.01132310217057201 0.02152989245551715 0.4415425067242801 -0.5666754554428018 0.5060124624416662 -0.24653188499650147 -0.05346990682843879
0.4919639344286173 -0.07175595115216643 -0.6197651895378956 0.24612550297850344 0.6736646161980313 0.28682785067053623 -0.20094540496041605 -0.1774475214701548
-0.635897062960327 0.5651026695786334 0.5648564885264649 -0.0851177074423259 -0.2449117091311568 -0.38205788514097705 -0.5937415243260171 -0.5882046390161003
-0.17826041144374413 -0.12777982647742497 -0.10220198228094103 -0.21729081913992315 0.5731341170760652 0.07946322325682216 0.730973857918295 0.44648097238320994
-0.45187901914665224 0.7640511393389529 -0.23917725869534137 -0.20750922153254153
00000000: 1648 9882 55a4 e2bf 2c71 fb52 e218 e43f
00000010: dca4 e76a 862d b0bf e1df c969 05dc e13f
00000020: a10d 1944 a0ab d2bf 472c 6e65 8627 e53f
00000030: 17fa d0ec cead b53f 265c d102 913e e53f
00000040: d54a 1faa 02d9 b03f b752 16ba 0386 d23f
00000050: 2b94 21fa c2d4 e13f bd79 7901 75f1 d83f
00000060: b100 aa49 d5f5 dfbf ad5b 43af df06 d63f
00000070: 55e1 2c16 06b3 d33f b1d3 209c 1ca2 db3f
00000080: d21a 6b36 2fe9 c0bf dd00 874e 43c3 b3bf
00000090: 0f6a b1e7 f391 e9bf ee9b c177 d598 d0bf
000000a0: 0ebb fac0 51fc e0bf f270 0085 deb2 e6bf
000000b0: 6dee 18e5 5f2f c73f d0ee 7576 1832 f0bf
000000c0: 28aa dd2f f04a d83f 0f04 aca6 19ef afbf
000000d0: 417a 3614 c836 bebf 2f60 ac4a 14b8 cb3f
000000e0: e40b ccbc a578 ce3f fa38 97c7 897f e13f
000000f0: 14a3 2dfe 57d6 ea3f 43b8 c173 4751 b43f
00000100: 983a 65a8 6ea7 e7bf 37ee ad77 156a e7bf
00000110: e6cf 698c abc2 a6bf 14e3 b708 c8bb c2bf
00000120: a8cd 298b 4e4e a1bf db57 0abc 1e1b e33f
00000130: e056 2c78 978f e13f f2c8 172c 9a15 b03f
00000140: 011e 0e44 b0d9 ea3f 34db 04a8 946c d4bf
00000150: 9987 5e71 a535 e13f ffe5 de9e 226c e33f
00000160: 4de7 3fb2 3344 d13f 48d5 f91e 29f9 e73f
00000170: 6790 0ed4 3c94 e5bf 4494 bb12 8cd0 e83f
00000180: 6c5b 4cfc 564f c73f 2683 7f67 e817 e2bf
00000190: 2042 ae27 4969 c0bf 0b11 7e65 4469 a23f
000001a0: f18f 9267 6f88 c8bf 15b7 94aa 2cfd ebbf
000001b0: 0591 d112 4c3d e23f b4b9 434d 5a25 e23f
000001c0: d013 a525 57cc cabf 8f81 0fab 0205 e8bf
000001d0: d9ee aed5 ca34 e13f 5bcf a234 3e00 e5bf
000001e0: cef8 6904 826c e4bf dd8e 6975 29e9 e23f
000001f0: 3a27 43e1 47b0 e73f 3942 ee67 4c32 d73f
00000200: 4730 237f c2c5 d03f 1451 180c 9130 873f
00000210: 796e ee9f ee0b 963f 5a2d 8b80 3b42 dc3f
00000220: e153 9290 3422 e2bf b6c5 310c 4131 e03f
00000230: 3098 bd57 5b8e cfbf 82ef 4b5a 6860 abbf
00000240: 70ac 4b4c 567c df3f 04ef 7d17 995e b2bf
00000250: cf76 88ce 1dd5 e3bf 608a 005d 0a81 cf3f
00000260: bc5f e118 a98e e53f 2d90 8d33 635b d23f
00000270: 3911 4b3b 94b8 c9bf ba3b bcb2 99b6 c6bf
00000280: 932f 21cc 4459 e4bf ec1e 9731 5215 e23f
00000290: 34f2 24ea 4d13 e23f 1d79 c629 46ca b5bf
000002a0: a919 9052 4459 cfbf c000 77ea a273 d8bf
000002b0: e23c a839 eeff e2bf 95bf fd88 92d2 e2bf
000002c0: eb43 a9b6 3cd1 c6bf 6e90 e7df 165b c0bf
000002d0: c1a6 7bbb e829 babf 9ea8 f680 2fd0 cbbf
000002e0: 7b08 225c 1d57 e23f ad6f 1fa9 b357 b43f
000002f0: 4eae bf49 2364 e73f c404 abed 2493 dc3f
00000300: 81f0 3efa 95eb dcbf bed5 fd5f 1b73 e83f
00000310: e18e 0544 5c9d cebf 3ee3 0c84 a98f cabf

fc_in.bias f8 [50]
-0.3482712516388638 -0.3986295371587293 -0.32934269067959154 -0.10727830415073508 -0.15759447269799257 -0.0311766268092427 0.26716707753302854 0.5883335757494197
0.1051641506034197 -0.5228746749996807 0.43055513485972 -0.6125818232618947 0.5472379443607864 -0.6409251511116766 -0.27646118077584053 -0.694217787254017
0.5596872220060983 0.49124455302157516 0.13177864484176652 0.1592177299460022 -0.5532159687575399 0.40128054216699915 0.35493087516058747 0.33574852737725736
0.27937207113284485 -0.32476207518282435 -0.5420310589085394 0.6914303397020649 -0.4767598452564469 -0.4535212012898821 -0.39672799694164673 -0.6543409873115812
0.2438949682862729 0.27035917083462735 -0.7057449345233348 -0.23811881081847472 0.6536767309166156 -0.35862665624173456 0.017796370768175297 -0.11447493088057933
0.28621304827164995 -0.09655603854071546 -0.05984357976679513 0.5314493516448551 -0.027292431308829912 -0.17707966973095676 -0.017950613050822538 -0.4819037955148039
-0.5449631205230892 -0.5251136010213177
00000000: 0d42 fb80 134a d6bf 3a3f 5476 2583 d9bf
00000010: b44f 695d f313 d5bf d4d2 e547 9776 bbbf
00000020: c955 2241 0e2c c4bf 9c61 2e02 c4ec 9fbf
00000030: cf9f 24f1 4319 d13f 9c70 5fef a0d3 e23f
00000040: 7ba5 8dab 09ec ba3f def7 a0ab 63bb e0bf
00000050: 433b d61f 378e db3f a015 2132 459a e3bf
00000060: 741d 4526 f982 e13f 1bac 6676 7582 e4bf
00000070: 0bee 823c 8ab1 d1bf f2d6 9138 0837 e6bf
00000080: 492b 502d f5e8 e13f 1f36 64fe 8c70 df3f
00000090: 050b f464 1fde c03f 3edd 871f 3f61 c43f
000000a0: f108 aef9 f1b3 e1bf e037 4895 94ae d93f
000000b0: c7f1 49fd 2fb7 d63f a4fd 3064 e77c d53f
000000c0: 4f9b 3b65 3be1 d13f 730b f9de e6c8 d4bf
000000d0: abb5 ed84 5158 e1bf f670 0f85 3220 e63f
000000e0: 9609 dbb9 3b83 debf 934a e5c9 7d06 ddbf
000000f0: ce67 11d3 fd63 d9bf 5ff0 9d82 5cf0 e4bf
00000100: 6d68 3948 f337 cf3f 4023 3a8d 904d d13f
00000110: 630d a366 7695 e6bf a38d 835c ad7a cebf
00000120: 842d ae76 ebea e43f ab0d 0238 bdf3 d6bf
00000130: 5d49 bf39 3639 923f 060d 58a4 3a4e bdbf
00000140: 22f9 8088 5051 d23f 1681 c383 e5b7 b8bf
00000150: e3a9 f253 d1a3 aebf 1a71 1912 a201 e13f
00000160: 5058 990f 8cf2 9bbf dbf5 23ef 8baa c6bf
00000170: 1659 fc3f a561 92bf 8a7a 6304 83d7 debf
00000180: 5e87 857f 5670 e1bf 8348 e209 bbcd e0bf

fc_out.weight f8 [1, 50]
0.14354717017610813 -0.004169861520203203 -0.08753727689742574 -0.05980714398737745 -8.113425796363895e-05 0.06511156686521916 -0.032564594195463696 -0.0009164141270128703
-0.03519490406992889 -0.06319441065251415 -0.07342017170638171 0.014176629570602495 -0.09330232189592665 0.0881524361654507 -0.10869871961506605 0.00047473230368635705
-0.08513517637106822 0.10847003833673159 -0.08434708598590498 -0.00037303565227897375 0.08156464603039794 -0.14995994220514308 0.09978486344102834 -0.13568798354581887
0.1618106395310572 0.06399226217361703 -0.10259616759557114 0.0750551477045152 0.12896993853838915 0.10786108653731487 -0.1222876029076813 -0.08288989383972228
0.07008503547362271 -0.034799072273804126 0.11117281506548103 -0.06236785453186397 0.11147805894960783 0.09499916999920563 -0.1106897594219799 -0.12032888379687517
-0.19902696848010243 -0.0812457875497727 -0.1429245253328707 -0.08003546895180792 -0.09156893541917956 -0.09230357476711887 -0.01722089783587293 -0.17682987893680857
0.09992322188020401 -0.06518075508979061
00000000: 4e7c abf0 c05f c23f b7dd baad 6a14 71bf
00000010: 2891 74cd d768 b6bf d663 fcbe 0a9f aebf
00000020: ab01 2bf0 d344 15bf e205 47d2 26ab b03f
00000030: 3770 2776 4eac a0bf c521 415a 7007 4ebf
00000040: 03b2 ee03 1105 a2bf 0de4 0a47 822d b0bf
00000050: 287a 5814 aacb b2bf 7a67 fc02 a308 8d3f
00000060: 1512 2f35 a9e2 b7bf d3b1 6476 2891 b63f
00000070: d820 dde5 add3 bbbf d6e9 fbb7 af1c 3f3f
00000080: 05c0 403e 6bcb b5bf 7d8b 4043 b1c4 bb3f
00000090: 4e86 d247 c597 b5bf f077 41ed 7f72 38bf
000000a0: 29db 35af 6be1 b43f fc95 bd2b e331 c3bf
000000b0: 7173 1d35 808b b93f 9f0d e54d 395e c1bf
000000c0: 5722 7706 36b6 c43f 0c95 3b01 cc61 b03f
000000d0: f295 8410 be43 babf 438f c96c d036 b33f
000000e0: e941 1842 1682 c03f c154 30bf c89c bb3f
000000f0: 8bd9 3187 3d4e bfbf 94e4 35a7 4538 b5bf
00000100: 7457 4cc7 17f1 b13f e7ba b11a 2fd1 a1bf
00000110: 5716 e954 d275 bc3f fc73 12ef adee afbf
00000120: 00fe 6879 d389 bc3f 0e32 4b98 dd51 b83f
00000130: e831 b800 2a56 bcbf acf8 abac dfcd bebf
00000140: a670 5238 b779 c9bf 2dcb 7620 86cc b4bf
00000150: aced 0cd1 594b c2bf 9104 ab59 347d b4bf
00000160: 2175 f4ce 0f71 b7bf 14bd ed02 35a1 b7bf
00000170: ad23 0de4 5aa2 91bf 289f 7e89 5ca2 c6bf
00000180: 2320 167a 9194 b93f c971 709b afaf b0bf

fc_out.bias f8 [1]
0.07584788425447882
00000000: f501 5856 c46a b33f

fc_hidden_list.0.weight f8 [50, 50]
0.21068666921196585 0.1890937656969827 0.1656146140909219 0.04321078142405706 0.14424212155605418 -0.1938283682063064 -0.06359900048089326 -0.05687237800114619
0.012024218992901507 -0.06768732347914615 -0.0033715566000536877 0.10674709768018355 -0.025850240287357447 0.08863906955771061 0.07527233502419067 0.007401933852613099
-0.11049627531010278 0.033366626707470294 0.10427449674238354 0.010890333285686903 0.07397050951114445 -0.08444646209879692 -0.09528629629882293 0.056683223339201255
-0.1849256482617508 0.04104653487944957 0.06577974639937936 0.08262922664088618 0.07769666307237695 -0.0670152828083062 0.23239519417654428 0.09701443016081919
0.04340463441606093 -0.12904786372860821 0.13391271803439048 -0.00344795452504043 -0.11563554921897769 0.2412758970456423 -0.07817441267882154 0.11554461400511568
0.15041014103644296 -0.03939663893890226 -0.10435995656824727 -0.07825360507058605 0.20448916124840127 -0.018070814029393936 -0.15275899651725705 -0.060224640773369684
0.08287893041181398 -0.06091570759285751 -0.1107313327304806 0.0934588535513174 0.08273115836134552 0.013230318104940643 -0.05743827782551353 0.05551195449681608
0.02781468923981925 0.1240439443805678 -0.0697132949175185 0.1429449464086988 -0.035554714949754394 -0.044728599175112196 -0.026969957134092788 -0.11627629823791065
0.04065722948326327 0.11318629460069492 0.014710506031274242 -0.021281341559858103 -0.010543319161907793 0.048382897629032064 0.1170093005239 -0.0019631980824114173
-0.1102608361428511 0.10723327722245345 -0.030484955392067005 0.049163457485517086 -0.06288743574206773 0.13587189302745556 -0.07119809236157623 0.10170656855848306
-0.030744509447326037 0.035085734197470575 -0.04959852587369141 0.03881019870788053 -0.006082510193284348 0.0018588364961284617 -0.049467524418343574 -0.01698636235816505
-0.06481026810114579 0.014555417819489542 -0.015361661543550039 -0.11609235159269433 -0.02324244698329732 -0.18958604721694539 -0.009996706637840977 0.10325479259147768
-0.0956009637490945 0.16293607036140897 -0.08735081876400069 0.09489475528276912 0.1924219302751775 0.09653763909699287 0.0462026763242286 0.1943084682736331
0.20281335141623508 0.07199999637386328 0.160436561865623 -0.06660060138213562 0.006688229534379961 0.05005916227040466 -0.024673734861887266 -0.07693779210273152
0.09598901525334161 -0.09834099464576887 0.14087290140954056 0.14554558546647964 0.09443321458045452 0.09835062582067862 0.10382768419232029 0.04267796539309454
-0.0034619471558539937 0.13014621008734317 0.06703821449622249 -0.05365413253250874 -0.11641460304070982 -0.07336682562671724 -0.09229670897543917 -0.04930522510167502
0.07250720839031044 -0.06623142794015928 0.14952099222313306 0.13483383458379414 0.05959428897954114 0.09169715421490966 -0.026622938147786098 -0.017176036732924477
-0.11122037504276391 0.028097832754329075 0.028933793718655464 -0.1316399686610782 0.06632162183720662 0.06878933323811366 -0.0881422822668373 0.050435008091488924
-0.05563507616657058 -0.10007116926581384 -0.05841910246256651 -0.04750900219723885 -0.02223381306310913 0.0683630612633273 0.21517437270801779 0.1293560610525851
0.03148597658883326 0.26685644379776247 0.09147748872270835 0.015772124024278442 0.048192216231972035 0.09231014398860996 -0.11398441587750263 -0.10359340310426365
-0.009949942465679215 -0.06821247519079489 0.049085260552613995 0.1404789288495905 0.14358240607453768 -0.06404470078447876 -0.1504348093237149 -0.0034176337290714857
0.046535672738053625 0.03247924633729291 0.11461895645420073 0.14417710265402364 -0.057330355861528653 0.06639023959986268 -0.15451096038456308 0.08116755673363628
0.014941853512120216 0.11290014916855501 0.0462579330635597 0.09889836921126396 0.031174360461085276 0.048598716161769265 -0.08451737441196622 0.06131014332422217
0.1103457454585633 0.08233692027911263 -0.12475236751441048 0.06373700718444496 -0.059078304823873676 0.023069116795809076 -0.03332213165741155 -0.06219611245073852
-0.188305692682465 -0.19751481231000562 -0.14102999161470442 0.06539096251969961 0.005628840238543937 0.20424935423731824 0.10441699825589787 0.07195960136397533
0.1243076602387159 0.04008763733805788 0.22308979024422732 0.31524049137625615 0.06883956720050344 -0.20613496833093856 0.31040489076400196 0.03701397123167679
0.21015632253131356 -0.08181826791265769 -0.0015813769707273182 -0.39359944632122273 -0.15555060852909788 0.12119082384204717 -0.08168314724937178 -0.27825475218442647
0.09632179709117664 0.06930822005426612 0.34578148223818916 -0.21444089220659002 -0.38460988613720803 -0.0027256664080565424 0.31362987467710834 0.3740433846986989
-0.24001464942765216 0.11275152307030169 -0.26164986853917377 0.14374573285899211 -0.17281743661490484 -0.29542007185439406 0.22294220388531244 -0.3100003394246996
0.06076345340250294 0.20462986229439947 0.019815909064299662 0.04154167546661766 -0.061162696654245965 0.08021252441097292 -0.29068788094782977 -0.051772449825114135
0.4257420323283354 -0.2536497826241365 -0.026097816328232507 0.15401211516596805 0.02714669794104623 -0.16440547571271974 -0.17911253168730767 -0.11214679381492103
-0.0062565435327854935 0.004928208238245225 -0.04152501503596511 0.05638783308550242 -0.07147944577670778 0.12130374340737249 0.07048176371724728 0.10371882327342125
00000000: e3f9 fbe0 c7f7 ca3f 39e4 c579 3934 c83f
00000010: 434d a113 dc32 c53f 6a13 1a3a b91f a63f
00000020: fbfa 649d 8676 c23f 46d7 3d33 5ecf c8bf
00000030: 6eac 1f2b 0648 b0bf 7f10 1f57 601e adbf
00000040: 3cf6 ac5a 27a0 883f 4d5b b2d8 f453 b1bf
00000050: a6d8 aeaa aa9e 6bbf c9b3 7a1d c753 bb3f
00000060: 3203 8342 7c78 9abf d0f2 e5d0 0cb1 b63f
00000070: c4f2 3839 0c45 b33f 6aa1 2f7d 7d51 7e3f
00000080: 6a65 c9e0 7b49 bcbf b50c f934 6e15 a13f
00000090: c8bd 50c1 bbb1 ba3f 06c0 6fca ab4d 863f
000000a0: be04 3837 bbef b23f 282c fa88 489e b5bf
000000b0: da43 5cc6 ae64 b8bf 2c8d f25c 9505 ad3f
000000c0: a3e7 bcc5 a4ab c7bf 65bc d729 0d04 a53f
000000d0: 2a46 8603 f1d6 b03f f4ca 1d62 3027 b53f
000000e0: fd78 e7b2 ede3 b33f 036e fedf e927 b1bf
000000f0: 972f 5e2f 20bf cd3f 25e2 c70c f0d5 b83f
00000100: 94a6 9fda 2139 a63f f4a0 2af1 a384 c0bf
00000110: 5af3 3c4c 0d24 c13f fe64 8a7d e23e 6cbf
00000120: a987 2696 4a9a bdbf 67e2 8feb 20e2 ce3f
00000130: 81ec d601 3d03 b4bf ac83 61f2 5494 bd3f
00000140: a27f 5eb6 a340 c33f 463b a1d7 cb2b a4bf
00000150: 79fc 7888 55b7 babf 1580 92a2 6d08 b4bf
00000160: aa63 f969 b32c ca3f 04c9 12cd 2781 92bf
00000170: 0e0f 1b57 9b8d c3bf b6e7 119d c3d5 aebf
00000180: 6b6d a5b7 8d37 b53f 6619 d9f7 5730 afbf
00000190: ed4b b87c e358 bcbf ad49 865f ebec b73f
000001a0: 53ad 8583 de2d b53f e775 9c3c 7f18 8b3f
000001b0: 3829 99c9 8c68 adbf 9aa4 331a 106c ac3f
000001c0: 08a1 8832 747b 9c3f 3ba2 610c 58c1 bf3f
000001d0: 9d63 c401 bbd8 b1bf 3b17 fa1e 054c c23f
000001e0: 4308 db43 3a34 a2bf f255 4ebd aae6 a6bf
000001f0: a238 762f 039e 9bbf 3155 3b92 48c4 bdbf
00000200: a702 f43d 06d1 a43f 0d58 aae9 c6f9 bc3f
00000210: 0ed7 7eb2 8a20 8e3f 4df2 0ea8 c6ca 95bf
00000220: 13f8 ee57 bc97 85bf b53b 01a6 a4c5 a83f
00000230: e7f6 134f 52f4 bd3f 10a5 e7f1 1f15 60bf
00000240: 795e 43dd 0d3a bcbf 679d b6da a373 bb3f
00000250: ca3d b7b9 7237 9fbf 7ffe 1de4 f32b a93f
00000260: 646b d717 6419 b0bf e6cf 7f0c 4064 c13f
00000270: ce05 3bc6 093a b2bf c23f bf11 7109 ba3f
00000280: 8f6a 6e1a 7d7b 9fbf 985a dee1 c1f6 a13f
00000290: 5158 1d5d fa64 a9bf 3539 672c eede a33f
000002a0: a250 b965 f9e9 78bf 462b 687d 8674 5e3f
000002b0: 2186 2eaf ce53 a9bf 16ad 397b df64 91bf
000002c0: 627d f0dd 6797 b0bf 7d55 1d1c 3bcf 8d3f
000002d0: d1bd 884f ef75 8fbf ed06 6875 3ab8 bdbf
000002e0: 1469 b036 decc 97bf 848f 4908 5b44 c8bf
000002f0: 652c 9e40 2779 84bf cced 55f5 e76e ba3f
00000300: a5b8 c404 4e79 b8bf b33f c5d2 16db c43f
00000310: d4c5 de8d 9f5c b6bf d75c 80ce 054b b83f
00000320: 8854 c824 48a1 c83f c82f c1d2 b0b6 b83f
00000330: 72b8 998f e0a7 a73f 0f1a 4992 19df c83f
00000340: 6e2f c3b3 c9f5 c93f 7ce4 bc7d 976e b23f
00000350: fad3 256d 2f89 c43f 4f88 d4ac bc0c b1bf
00000360: f091 e4f1 1d65 7b3f 3412 a2c1 5aa1 a93f
00000370: 7a3a 3551 1244 99bf a65d e8f4 31b2 b3bf
00000380: 22d1 4971 bc92 b83f 8a14 dc1b e02c b9bf
00000390: 7c2a 398c 1f08 c23f 13ee d3dc 3ca1 c23f
000003a0: d179 4770 c62c b83f f5e1 70b1 812d b93f
000003b0: b382 067c 7394 ba3f f00e 3fe3 e2d9 a53f
000003c0: ca70 13ba 3a5c 6cbf 8801 038a a1a8 c03f
000003d0: 30f0 d79a 6a29 b13f b274 0bf1 8d78 abbf
000003e0: 0f30 d6f0 58cd bdbf ff96 ad14 2bc8 b2bf
000003f0: eff3 93d2 c1a0 b7bf 41cf aad2 883e a9bf
00000400: 50b9 c218 d58f b23f d369 f8f8 8af4 b0bf
00000410: 47f8 d4fd 8023 c33f f340 f72e 3c42 c13f
00000420: e418 6484 2483 ae3f 2143 7df6 7679 b73f
00000430: 4f35 ac22 0b43 9bbf 28d5 2b50 9896 91bf
00000440: 6620 7541 f078 bcbf bcc2 12a3 adc5 9c3f
00000450: e355 1507 d2a0 9d3f 3c76 1f18 94d9 c0bf
00000460: abf8 ce2c 74fa b03f 9943 9280 2d9c b13f
00000470: 191a bb1b 7e90 b6bf 2f23 a70c 9ed2 a93f
00000480: 0eb2 4a61 337c acbf 11e7 449f 439e b9bf
00000490: aca8 13cd 1be9 adbf 9fcc 6795 1953 a8bf
000004a0: e3be e2ef 75c4 96bf 3364 61d8 3d80 b13f
000004b0: a9ef db76 d58a cb3f 4b4f e149 bd8e c03f
000004c0: 349c 760f ee1e a03f eba5 b50c 2d14 d13f
000004d0: a15d 6296 116b b73f 69ad 7d53 9126 903f
000004e0: 74b2 4671 a6ac a83f 4a27 8539 a3a1 b73f
000004f0: c891 722a 152e bdbf 3606 6ae6 1885 babf
00000500: 65bb e5ab a260 84bf 31a9 1f6e 5f76 b1bf
00000510: 0307 9409 b421 a93f 32d2 97aa 36fb c13f
00000520: 3981 2f85 e860 c23f 17f8 59c7 3b65 b0bf
00000530: 50d8 1ca5 7241 c3bf 5dfe 1223 4cff 6bbf
00000540: b5bc 0311 86d3 a73f 5d82 a2a9 1ea1 a03f
00000550: d8f1 78fd aa57 bd3f 9593 5d32 6574 c23f
00000560: cc92 fc86 675a adbf 38e2 da63 f3fe b03f
00000570: fed4 dce0 03c7 c3bf 1fcd aaa1 65c7 b43f
00000580: 92d0 68a1 d599 8e3f 9c78 6430 06e7 bc3f
00000590: 1a89 60ab 1eaf a73f 62de 634d 6751 b93f
000005a0: 4bc6 9dea 2bec 9f3f 92b3 1551 eee1 a83f
000005b0: fc0d 0b3f eea2 b5bf d530 fb08 0b64 af3f
000005c0: 144d ff67 9e3f bc3f 5e26 da4b 0814 b53f
000005d0: e3ad 926a c5ef bfbf 8ff0 6689 1151 b03f
000005e0: c249 3ef6 823f aebf 0d0f be38 6e9f 973f
000005f0: a836 6733 990f a1bf ef19 d439 2bd8 afbf
00000600: 6464 dca3 661a c8bf 366c ac55 2a48 c9bf
00000610: 78c2 de50 450d c2bf d4df 794d 76bd b03f
00000620: 87c2 d24b 440e 773f d7d5 56c4 d724 ca3f
00000630: 76d3 a788 12bb ba3f 0cd1 7dc6 f16b b23f
00000640: b218 5e77 a0d2 bf3f 2286 aee6 5d86 a43f
00000650: 82d1 95cc 348e cc3f dd80 3574 e62c d43f
00000660: 5805 cc49 789f b13f 5f8d c571 a162 cabf
00000670: cb63 9679 acdd d33f 3bca dec7 7ef3 a23f
00000680: 4ce9 2802 67e6 ca3f 8975 e6c0 0af2 b4bf
00000690: 568f cd97 c6e8 59bf 5118 6bbb bb30 d9bf
000006a0: 19b0 4014 15e9 c3bf 7115 faa0 5c06 bf3f
000006b0: 0206 12ce 2fe9 b4bf 33ad 2505 edce d1bf
000006c0: 7a07 6698 8ba8 b83f 941f 7afa 2ebe b13f
000006d0: 9aa0 71a7 4821 d63f 1ce7 7995 cc72 cbbf
000006e0: ac5d abc8 729d d8bf 7217 a302 2354 66bf
000006f0: 425a b209 8312 d43f 4e3a 24aa 53f0 d73f
00000700: 5424 edce ccb8 cebf 2940 29a8 48dd bc3f
00000710: 8938 1817 dfbe d0bf 7ed2 c89a 4266 c23f
00000720: ce43 38bb e11e c6bf f994 cc96 29e8 d2bf
00000730: 52f4 4ac1 5e89 cc3f b2fd e4a9 0bd7 d3bf
00000740: 18c1 4f2a 631c af3f 6b72 2bb3 4f31 ca3f
00000750: e698 7c25 9f4a 943f acaf 1953 f344 a53f
00000760: 9af5 ba8b b750 afbf 8721 13d9 ce88 b43f
00000770: 15ed 8057 a19a d2bf 3753 aa25 eb81 aabf
00000780: 647f 5882 5b3f db3f f285 404c cc3b d0bf
00000790: e4d0 81ce 62b9 9abf ddad e942 abb6 c33f
000007a0: ce9c 670f 58cc 9b3f 0e17 bc16 3d0b c5bf
000007b0: c84b f3d0 28ed c6bf a34d c9fb a6b5 bcbf
000007c0: 09c0 bf1d 76a0 79bf 67d5 60d3 992f 743f
000007d0: d73b 174b c442 a5bf 4e34 fdb5 ddde ac3f
000007e0: 6c79 f219 7a4c b2bf 9029 d11a c30d bf3f
000007f0: 2346 21c6 170b b23f e45e f019 518d ba3f

fc_hidden_list.0.bias f8 [50]
0.05154951103154892 -0.10605594552921843 0.01619682641290804 -0.13092038608911752 -0.010190424584088422 0.09208958411783036 -0.1019378572912682 -0.009430454201845904
-0.001682242704505521 -0.0791537091909111 0.06445940189341087 -0.06490166519180852 0.13441255364114027 -0.07467648617755718 -0.04299403873790241 0.18498766461111513
0.060720222401509316 0.05289348215842817 -0.027946692580886234 0.1416758199786778 -0.12113787226098376 0.08326562250603836 -0.03550887230986157 -0.11634176061992302
0.029870007905026138 0.16753825788756982 0.12189541653991143 0.06789913171537863 0.0008966897371238842 0.11710799434165993 -0.11465978816636582 -0.06428202207965777
0.05945323159610228 -0.07896124131119044 -0.1204358158256488 0.0847216882324336 -0.03437361963421576 0.04585189221912922 0.0586353810688763 0.139600488373829
0.06445550295966725 0.11773125004115897 -0.05720815487665499 -0.04398009453761022 0.01844904680622887 0.0885545624139183 0.058226405216706675 0.0767057011417051
-0.016653792438161147 -0.05251596497726919
00000000: e0b5 0290 b264 aa3f 5c27 9881 7b26 bbbf
00000010: 503f f89e e695 903f 39f4 50cc ffc1 c0bf
00000020: e16f 91a2 b7de 84bf 4c9c 16d8 2e93 b73f
00000030: e451 4a73 9918 babf df1b 1123 4650 83bf
00000040: 3317 9659 d68f 5bbf bd01 55e0 6a43 b4bf
00000050: a44a 0d4f 6980 b03f 196b 7441 659d b0bf
00000060: e1bf 0739 6e34 c13f 88ad e989 ff1d b3bf
00000070: 3fc0 9a8c 5003 a6bf 2386 d500 adad c73f
00000080: 6035 d792 b816 af3f 2382 15c0 da14 ab3f
00000090: 4343 aaca 0e9e 9cbf b7a0 b8ea 6e22 c23f
000000a0: d3fe aa3f e402 bfbf 6c65 8b55 e550 b53f
000000b0: e3cf 930a 382e a2bf 8c89 05d9 92c8 bdbf
000000c0: 5f59 554c 3e96 9e3f cc5b 3ac5 e471 c53f
000000d0: 483b 92bb 8934 bf3f f7f3 2466 d661 b13f
000000e0: 95d0 3c8c fa61 4d3f 5d2e cc1d cafa bd3f
000000f0: 9240 5708 585a bdbf 8c89 8d5e c974 b0bf
00000100: 418c b16a a770 ae3f d147 15cd cd36 b4bf
00000110: 5afd 3cb2 e1d4 bebf b55f 3810 52b0 b53f
00000120: a823 5948 6b99 a1bf d0ed 1433 e679 a73f
00000130: cb9c 28e8 7405 ae3f dc1d 09c6 6dde c13f
00000140: f54d 42e5 2780 b03f a4db a49c a223 be3f
00000150: 21fc 8424 634a adbf 9294 6d17 8f84 a6bf
00000160: 4b54 b392 4ee4 923f fdb7 7a05 83ab b63f
00000170: 76bb 56f4 d9cf ad3f fb03 d21d fca2 b33f
00000180: 084e 8117 b10d 91bf f1c4 3060 5fe3 aabf

fc_hidden_list.1.weight f8 [50, 50]
-0.0706048196539112 0.11731559932312595 0.0999083121086686 0.13753758389963766 0.34457922663051904 0.05021571424358102 0.14596011152606048 -0.12729261996574903
0.035741776734091006 -0.003303863541353795 0.010912531891504568 0.07446424787256292 0.05441856657594982 0.07550355914249177 0.011762098725594418 -0.02296517366365999
0.1261950311694761 -0.05392773144079086 0.06410684552109441 0.07100181068072957 0.05354133784348346 0.07648647463368781 0.08918449271652074 0.07178916808098854
-0.18746872516525107 0.08733645406939125 0.077864441805757 -0.026971588745763456 -0.024309987733419396 -0.1792588325762631 -0.08382882893449747 -0.12156289539072994
-0.017620372510149095 0.15678750141798053 -0.10541917228637418 0.08749746631954178 -0.19002126535378702 0.0325273696225377 -0.07188043135746368 0.13431490978673452
0.25030056832851993 -0.07670248051677205 -0.049933721067361714 -0.030997793112110462 -0.01337500997342728 0.043132333738845126 -0.15076679835683282 0.012608504419588698
0.08547398893288631 0.03595117005605545 0.08397658141361182 0.05519594112032613 -0.16824861479405018 -0.13700145341253916 -0.06719992411737105 -0.1297319030931673
-0.10031927097155599 -0.04696277769448518 -0.019653652364362856 0.05545344054361489 -0.048380291671657354 -0.07889914463936958 0.14143353736041597 -0.11461706696483882
0.017190288923840738 -0.12563950312328104 0.046827521341711635 -0.04829459251248847 0.06125851407557395 -0.06840670785099788 -0.11547590332025631 0.09977557206469143
-0.006730514635750581 0.022177868801653233 0.003465596026729773 0.055177050662083754 -0.09637515872840613 -0.1445762492535381 -0.0021850266299206023 -0.14340312048919096
0.0118639768944229 0.08234819667405194 0.009417317975649602 -0.15328782368715071 -0.09580596832435889 -0.09787955085040574 0.0926113538337334 -0.17523607996253113
-0.07522376494964499 -0.0016765242227384492 0.12780310252895544 0.16369514293267876 0.011461350104876075 -0.1629398245179632 -0.05377825703635332 -0.06916779748220038
-0.01755793475846868 -0.09631416889490282 -0.13492247216667094 -0.1038681556201951 0.3691948267360747 -0.0012473859743126427 0.2923163964326653 0.22637825321026334
-0.02916414490415804 -0.116635804209065 -0.05054332640951923 -0.06029663306306414 0.09749843329862744 0.10456258618092051 -0.05686687399736846 0.16884110696904056
-0.22884909485864108 0.017576923766084482 -0.12145970714336901 -0.013799236059139108 -0.06651325302279633 0.06868700080989415 0.07090614589345613 -0.175619296928232
0.009296446113594956 -0.05569905060708465 0.11399025012792893 0.03915448990112541 -0.11916440737894311 0.016134235206522976 -0.014012836598599495 -0.09769759316586128
-0.20938456570620145 -0.1462379602299294 0.2547377219844988 0.17411477367640554 -0.011877106591066734 0.1964612348242097 0.14088162652264746 0.0966529445814677
-0.2294048976367122 0.14983517264876903 -0.18537557472487962 -0.25321458415360126 0.21531254354705676 -0.24368180258361188 -0.020868731087856605 -0.048097046452709895
-0.1200292621882227 -0.2128850292560563 0.14485150546409886 0.0864983164993442 0.2088696453704845 0.12010523316534916 0.011406605136625472 0.09895068431023465
-0.10605331090594608 0.043502817816258 -0.03928804540993086 0.15833223842706037 0.031775486014245104 0.10747040511103834 -0.12243171843083266 -0.04198523141138862
-0.15731771367583836 0.047181216532460685 -0.03195291781183545 -0.013247878519956716 -0.0009273707212130249 -0.13063172460992772 -0.10371914999821134 0.17124702544754866
0.02098744746607473 0.10049764946491012 -0.07431314799829805 0.0928945324848809 0.10298200316387232 0.06322995897294557 -0.09384720405345659 0.026991714657789576
0.009867718881722347 -0.12880787759644874 -0.05754847126295261 -0.12021603538606497 -0.009749815317148806 -0.10881426158704395 -0.1318269599173382 -0.07521847975382945
-0.03336846845645507 0.06514831839810549 0.07974338417557471 0.03579978794973606 -0.17258536849278833 0.05641169868454702 -0.02998154835762213 -0.047693622350202934
0.07829893018681011 -0.08237810762181656 0.11757915185119504 -0.02468164781744035 0.08851234628863165 0.025878682028377606 0.10264111452236656 0.10008543804459615
0.06892620269315672 0.1131376282147876 0.09719805261862764 0.056468767300009264 0.3246116742220745 0.08298869320846142 0.13964061692468607 0.13692937277147665
0.16045688997664084 0.024255201501882116 0.18833920399350762 -0.010146271775084854 -0.09459510682251521 -0.03271513974205152 -0.13425860176433757 -0.08849531055960201
0.04139752710844093 -0.06715408156291097 0.04994847865574922 -0.06015563077695712 -0.09794175188179093 0.07471102139011612 0.20880472967196712 0.20671477259346052
0.027467822134912858 0.013934883800914438 -0.17703259496999654 0.12034189350691797 0.025072373749783664 -0.2152175662207457 0.043509620479186016 -0.00970418891182244
0.11105005415056324 0.11522856161744952 0.008295886845670902 0.32875764868418045 0.10107660867803382 -0.016317790821847762 -0.08942997988835955 -0.09617430842543483
0.2669029209684937 -0.052565612585489425 -0.07427816225361689 0.21030103284116416 0.053568715195893325 -0.09601037310848887 0.009403389979676512 0.041300144951833186
0.04925647972953144 0.05312413524211928 0.10538096414401964 -0.06931661770411644 0.015102372272552976 0.008998431507172501 0.2241161592705279 -0.000707663253350427
00000000: b980 5a4f 2813 b2bf 8749 6726 6508 be3f
00000010: 72f4 1a55 9793 b93f 34ef 68e0 d49a c13f
00000020: 4d94 5007 960d d63f d9c9 d7c4 dfb5 a93f
00000030: 5031 c328 d2ae c23f cc34 e3e3 1f4b c0bf
00000040: 7703 5904 bf4c a23f d6b7 893b b410 6bbf
00000050: 507c b93c 4f59 863f 2a7a 55c5 1610 b33f
00000060: 8451 7a17 c0dc ab3f 82a4 3f85 3354 b33f
00000070: 01b9 de2a ba16 883f 775b 54b7 2e84 97bf
00000080: 6632 e5a5 2827 c03f 3d76 c565 6a9c abbf
00000090: ac7b f664 4e69 b03f c39c d4b6 2c2d b23f
000000a0: be2f 0b2e c569 ab3f 7555 231b 9e94 b33f
000000b0: 581e 877f cbd4 b63f 9e69 1d61 c660 b23f
000000c0: b5c4 cda5 f9fe c7bf 2e05 fa8d ae5b b63f
000000d0: aeb7 138f ecee b33f a43c 56ae 709e 9bbf
000000e0: 3bf2 1fa9 b7e4 98bf 8593 b713 f4f1 c6bf
000000f0: 3e53 bc5e ce75 b5bf 9f39 1cf4 be1e bfbf
00000100: 339d b22e 130b 92bf 0282 81e3 9c11 c43f
00000110: ce63 5739 c0fc babf 6e46 53e4 3b66 b63f
00000120: 4b99 1ee8 9d52 c8bf 66e5 8169 6da7 a03f
00000130: ff15 e785 c166 b2bf 7b19 7320 3b31 c13f
00000140: 8709 c9ac ec04 d03f f573 5715 c6a2 b3bf
00000150: 1060 e7a5 e990 a9bf 1aa4 a8ae e2bd 9fbf
00000160: e239 5b73 5b64 8bbf 59f3 9df5 7015 a63f
00000170: d8f2 2192 534c c3bf 759f 11d1 7cd2 893f
00000180: 0b1b 2093 9fe1 b53f 1592 4917 3168 a23f
00000190: e524 cd3e 7d7f b53f 13ad f773 a442 ac3f
000001a0: b4a1 11ad 2b89 c5bf 3ea6 f47c 4389 c1bf
000001b0: deb6 60a4 0334 b1bf 2c39 8414 0e9b c0bf
000001c0: b63c fb13 86ae b9bf dd7d a754 810b a8bf
000001d0: 7589 9b48 1620 94bf 7fc7 2bb3 6464 ac3f
000001e0: ff5c 0035 4dc5 a8bf 3b91 e8fd bb32 b4bf
000001f0: 64a2 c280 7e1a c23f b56b 2d4a 8b57 bdbf
00000200: 145e f2c2 549a 913f f605 808a f414 c0bf
00000210: 0f48 6ee1 c6f9 a73f a15e d49e 11ba a8bf
00000220: 24bf 1ca5 465d af3f 470c 0c1d 1a83 b1bf
00000230: 1c8f 3c2c d48f bdbf 6621 f552 e48a b93f
00000240: fcc9 eec3 7491 7bbf 50d5 ca94 cbb5 963f
00000250: c109 12b3 e163 6c3f 6cb1 2a98 2a40 ac3f
00000260: e4a3 e2da 0aac b8bf d140 297b 7981 c2bf
00000270: 1222 533d 55e6 61bf 369d 5290 085b c2bf
00000280: 93ab 1806 244c 883f 4a81 997b c514 b53f
00000290: 8386 c505 6349 833f f23f ce76 ef9e c3bf
000002a0: c4f8 b66c bd86 b8bf 6d83 d95d a20e b9bf
000002b0: 6e44 f4af 60b5 b73f 0d58 42c8 226e c6bf
000002c0: 2f39 575a dd41 b3bf f689 492d da77 5bbf
000002d0: a837 d820 da5b c03f a177 b462 f6f3 c43f
000002e0: 5895 f25e 0c79 873f 09a4 c250 36db c4bf
000002f0: 72fe 69de d288 abbf b955 1f14 fbb4 b1bf
00000300: c2ac 4a0e b5fa 91bf f686 8b9d 0ba8 b8bf
00000310: ebc4 b9ba 2345 c1bf 350d 7c7b 1a97 babf
00000320: d3c3 ab56 e3a0 d73f 6736 c57d ea6f 54bf
00000330: d7d2 b0d4 4fb5 d23f ee26 086d f6f9 cc3f
00000340: 5310 51a2 34dd 9dbf 34df 9e14 d8db bdbf
00000350: 057d eb9b d0e0 a9bf e629 2146 33df aebf
00000360: 9bc8 6d46 a8f5 b83f 9040 0818 9dc4 ba3f
00000370: 31c2 16a8 a71d adbf 0984 53dc 959c c53f
00000380: 5a8b 1159 ed4a cdbf 6c5e f562 afff 913f
00000390: e466 f6bd fb17 bfbf 3398 ab1c c642 8cbf
000003a0: 91c5 7b36 0307 b1bf c489 23a6 7895 b13f
000003b0: f1a2 b2b9 e726 b23f f137 6d70 b17a c6bf
000003c0: 1220 37e0 030a 833f 9b25 8d01 9684 acbf
000003d0: a6c0 5c0c 772e bd3f c8d9 3bab 0e0c a43f
000003e0: 232f 8a00 8f81 bebf 3461 3b32 7e85 903f
000003f0: 2b48 5217 c3b2 8cbf f397 8b9f b502 b9bf
00000400: f065 ff0a 1dcd cabf 9c86 4fec ecb7 c2bf
00000410: 17c8 3e72 9f4d d03f b265 5895 6449 c63f
00000420: e7b3 0943 0653 88bf 9339 4049 a425 c93f
00000430: c4d2 42bd 6808 c23f f21c 0a54 3fbe b83f
00000440: ff29 72c2 235d cdbf b192 2887 cc2d c33f
00000450: fbd4 7507 63ba c7bf 57d6 73f1 aa34 d0bf
00000460: f401 7a86 5c8f cb3f 6a0c 5d1e f730 cfbf
00000470: 861d 20d6 9c5e 95bf b7df 1813 2da0 a8bf
00000480: 3553 a9db 3cba bebf e23b 3b0f d13f cbbf
00000490: 5851 5f7f 7e8a c23f dc13 86f0 c024 b63f
000004a0: 0d26 ff93 3dbc ca3f 900c 8670 37bf be3f
000004b0: 6e5a 29a0 585c 873f c67e 0701 d554 b93f
000004c0: 223b f94d 4f26 bbbf 43fe 9b57 0046 a63f
000004d0: f89e 510c 901d a4bf 6d2d f914 3b44 c43f
000004e0: d5ca 7d62 e044 a03f 4862 3d33 2e83 bb3f
000004f0: 374c a762 af57 bfbf 3b60 a797 167f a5bf
00000500: 20dc a8a1 fc22 c4bf 941d fceb 2228 a83f
00000510: c7f7 0602 225c a0bf 5573 e027 b421 8bbf
00000520: 4cca 9d75 5963 4ebf 1e86 8254 8ab8 c0bf
00000530: 9313 3695 568d babf f0d0 ea2a 6ceb c53f
00000540: 0126 f9c1 bb7d 953f 3fd3 c6c5 36ba b93f
00000550: 7ac4 50bc 2f06 b3bf 21f1 ffa2 efc7 b73f
00000560: aa57 aa4f 075d ba3f 978d eaad d62f b03f
00000570: e00a 3bd0 5e06 b8bf f967 df4e b7a3 9b3f
00000580: c9a0 10cf 8635 843f b838 dfca c67c c0bf
00000590: e2b2 0444 fe76 adbf 091c 7064 7ac6 bebf
000005a0: 42fd 6e0f b6f7 83bf 6dd0 da5e 40db bbbf
000005b0: adbc c9b0 b4df c0bf 18f8 98ae 8441 b3bf
000005c0: e6e5 7901 ac15 a1bf 25c5 e868 8fad b03f
000005d0: c940 1bfb 0f6a b43f c34c e58c 5954 a23f
000005e0: cae9 b800 4717 c6bf d582 ec81 fee1 ac3f
000005f0: 62bc b7a6 7bb3 9ebf 639c 7168 4c6b a8bf
00000600: a8d1 7610 660b b43f bb5e 244e bb16 b5bf
00000610: cf6d e4d3 aa19 be3f 8bca bf58 2546 99bf
00000620: 1d16 9ac0 bea8 b63f 3ce0 e6f3 f07f 9a3f
00000630: e73a 1926 b046 ba3f 8116 3503 339f b93f
00000640: 3e92 67ca 25a5 b13f 3228 216d 96f6 bc3f
00000650: 555d 3bb9 f8e1 b83f 1f13 9969 79e9 ac3f
00000660: 5ec0 2b0b 70c6 d43f 74a3 443b bf3e b53f
00000670: d340 7165 bedf c13f 1028 f5d4 e686 c13f
00000680: a30b 6ff3 d989 c43f 267a d504 5bd6 983f
00000690: 0678 dac0 7f1b c83f f73f 9a8b 91c7 84bf
000006a0: 7c11 2a8a 6237 b8bf 9e67 8dee 09c0 a0bf
000006b0: 146b e4c7 622f c1bf 3fee b3f0 a0a7 b6bf
000006c0: 53ce 2182 0e32 a53f dc09 1b88 0231 b1bf
000006d0: 6c6f 9fd4 d892 a93f a7ed b605 b8cc aebf
000006e0: f3c7 3eed b512 b9bf 4274 85f1 4220 b33f
000006f0: e279 9806 1dba ca3f 6dca f131 a175 ca3f
00000700: 2714 0c57 8620 9c3f b680 9671 e489 8c3f
00000710: 636f dc0a 01a9 c6bf fb6f f3f0 b9ce be3f
00000720: e154 2785 92ac 993f 3bae 38cc 3f8c cbbf
00000730: bbf8 099a e446 a63f 3878 1530 cadf 83bf
00000740: e0b2 cbbe c66d bc3f fe49 b677 9e7f bd3f
00000750: a33b 8c15 6ffd 803f 6e23 5a85 5d0a d53f
00000760: a9a9 a918 28e0 b93f d2f3 b067 9cb5 90bf
00000770: 7006 e716 e2e4 b6bf b714 6725 e19e b8bf
00000780: 350f 31fd ef14 d13f 01d4 e545 e1e9 aabf
00000790: 24af afc5 e403 b3bf cb14 2fed 24eb ca3f
000007a0: adcf b5cf 5b6d ab3f 4ce5 93c4 2294 b8bf
000007b0: 4c55 79a3 1542 833f edbf c6e7 4a25 a53f
000007c0: 86dd 1b33 2538 a93f 8782 fc2e 1633 ab3f
000007d0: 6798 9e32 3ffa ba3f 9fc7 1bde bbbe b1bf
000007e0: 0c64 0518 feed 8e3f 810e 4f08 c56d 823f
000007f0: c138 499b d6af cc3f 35e6 cd43 4f30 47bf

fc_hidden_list.1.bias f8 [50]
-0.11894824085262756 0.08993516257003975 -0.14240984260219205 0.12079602545280699 -0.056718612744932756 0.10715413178134615 -0.017829079372585876 0.06665553926343752
0.14737220160439526 -0.04780748777342669 0.01295158868502097 0.04748187942617217 -0.010409294213995803 0.10400918346223634 0.15417636110891744 0.08267051725850698
0.14588342173576066 -0.02003962028735435 -0.054413180985641116 0.005252460948133178 -0.1244212134534562 -0.1090050770393285 0.1694459558987028 -0.013393232134553195
0.11009180202805656 0.003656337866474201 -0.03240168560062296 0.03356374497337895 -0.09658134442866646 -0.06705832834370387 -0.1413962386008044 -0.1017224933008096
0.04165711152738934 -0.016379497095527523 -0.07327619110094948 -0.10778491013727207 -0.05698796246253153 0.08562196036687757 -0.021250004494882697 0.11787906445432689
-0.07242929191595239 -0.08168362167331385 -0.011208577157239054 -0.08645569431300629 0.10831565346471646 -0.11677536528845522 0.08349400390554218 -0.14337244159092688
-0.09292457063688526 0.11049116464232195
00000000: d8f6 6054 6473 bebf 00af ffa5 fd05 b73f
00000010: 196e 4d58 7c3a c2bf a87c ce02 7dec be3f
00000020: 54c1 a0d5 380a adbf f9d4 a103 746e bb3f
00000030: 30cc 4a43 c941 92bf 4bd4 3b61 5610 b13f
00000040: a17d 1da1 17dd c23f 8048 fb18 397a a8bf
00000050: 30d2 aace 5c86 8a3f fa77 937e 8b4f a83f
00000060: aed6 c9d1 7751 85bf 5237 7489 58a0 ba3f
00000070: 1db9 630e 0dbc c33f 23fc f71f e529 b53f
00000080: 051c b1d6 4eac c23f d2a5 0827 4485 94bf
00000090: 16fc 9b61 0bdc abbf aa96 eebf 9a83 753f
000000a0: 2513 b692 11da bfbf 415c fbb8 c1e7 bbbf
000000b0: 1b1f 83b3 67b0 c53f 298e 0b30 e96d 8bbf
000000c0: 5fa9 44f1 f92e bc3f b183 e871 e5f3 6d3f
000000d0: b1da fa27 f496 a0bf 7ae0 fb65 442f a13f
000000e0: bd8e b913 8eb9 b8bf 921f 290f bc2a b1bf
000000f0: e4af 489e 4519 c2bf 3e9b fe3d 7c0a babf
00000100: 3ada 4fb7 1454 a53f 789f 6671 c9c5 90bf
00000110: 55a1 5a7c 3ac2 b2bf ceb8 0ab8 ca97 bbbf
00000120: 9aa1 15b6 862d adbf 935b 981f 52eb b53f
00000130: c5a9 61a9 8fc2 95bf 94e3 b686 522d be3f
00000140: 012c 0de0 b98a b2bf 0daa b4c3 37e9 b4bf
00000150: a1ab 99c2 85f4 86bf 0a99 a0db f521 b6bf
00000160: 8d9c 461d 93ba bb3f 4872 e486 fde4 bdbf
00000170: e8b7 2ff0 dc5f b53f 04ee e335 075a c2bf
00000180: fd58 e197 e7c9 b7bf d4be a222 2649 bc3f

fc_hidden_list.2.weight f8 [50, 50]
-0.1378538089074051 0.027156325924331537 -0.028062342583219168 -0.000696536231839591 -0.04948543471236804 -0.06132943757336236 0.0704539885821395 0.041762042118763526
-0.1569283732702773 -0.13642015087101483 -0.1146029405943079 -0.09638262487562885 -0.03255416455337768 -0.0338572000006004 0.09728536479129632 0.09721733966063885
-0.17250414849665505 -0.1730078544535407 -0.11047426454439771 0.11176918227569742 0.24363484852251807 0.034466051649998726 -0.037652821807164415 -0.1953534815321793
0.09978560624306541 -0.09717129621049678 -0.11445879813353517 0.08408711822131015 0.057905731602336426 -0.07870571256535351 0.04659902075250503 -0.017929963088287842
-0.14868432446206314 0.16124362382785024 0.058606688452349044 -0.26757769596070036 -0.10258111992324016 0.05679743970676106 0.03115298387634455 -0.12611504569272264
-0.09623180468453726 0.13876185101334965 -0.18130448925138584 -0.02343738019905703 -0.0368482221581965 -0.11233776555860456 -0.0235805472295929 0.10561996181581408
0.052650152765990416 -0.16575903617566684 -0.1113491358791863 0.039372754114197286 -0.04756259843094494 -0.08328664691769277 -0.10295335817123785 -0.041450373976163114
0.049204068901995496 -0.07520728161851788 0.09955018258382531 -0.060241666023434004 -0.13831753678829184 -0.08717493055961137 0.06433476302398018 0.16190655244457258
-0.14948009234460402 0.1013288805366527 -0.025100099058604473 0.11079569086291284 0.16322416955141375 0.08864862241226612 -0.009131044461144863 -0.03465976945737661
0.044314389381757545 0.01230063356093811 0.11146583778461983 0.10152650713928547 -0.13910512554179721 -0.09023391848886275 0.050899504208796485 0.0007686557201872868
0.13735748178262677 -0.004289553468963862 -0.03537424371717609 -0.1331894274831941 0.023423988567133985 0.0744526178803567 -0.003999572657867733 0.12753430812325334
-0.0498756580708157 0.041352011602353855 0.12613452472480513 -0.169123456318853 -0.06693186053120652 -0.09298124924661277 -0.09413018077504401 -0.10998701605988147
-0.09748631471726013 0.010561753858493436 -0.12439208116071693 0.04369352469287495 0.07051932344622151 -0.13959432256291626 -0.09902342739195626 0.002411256448156126
-0.005016714903450348 0.06854895954524136 0.1506884193440383 -0.03562102721490993 0.07839465448301423 -0.0004365725608154415 0.25689383227475887 -0.07719599081719264
-0.017338708039431106 0.022666363851087022 0.07169007757169223 0.0046295079683587766 0.09817110705823495 0.08543525719952348 -0.10599296383445643 0.008642996690350697
-0.32322755858518515 -0.20239514344789555 -0.07646438977284839 0.15888628013680475 -0.09971864820356814 0.007155644098819317 -0.07130196850165961 -0.08902501638389607
0.038250433549178516 -0.0034053752869608782 0.09790970663813028 -0.11714130665093658 0.16242070696535335 -0.007309007172979231 -0.011492137429191272 0.11087532069884583
0.07701835163310232 0.12151437575939625 -0.07393914292983537 0.1482894448325688 0.0700742346624644 0.023151099173566267 0.3323571259735513 0.06502745724438454
0.04066683053178125 0.1432116688641886 -0.23151681617377673 -0.09850007222916905 -0.10982180467387193 -0.009618306655546567 0.06900943819735306 -0.06735482625103009
-0.009993554774791174 -0.07125081032574099 0.027570392661249218 -0.0006667521602315523 0.04887007964532595 -0.13716291024216015 -0.05129447983324107 -0.08689625530685974
0.03225779475425075 -0.026342839082442292 0.10127864306275733 -0.05078429126102439 -0.13670626330027782 -0.12837130452919085 -0.07536361896374522 0.005783307742448367
-0.07200359743476094 -0.07162405635797667 -0.043559313628287265 0.00017399789217401078 0.13254612416034392 -0.10161988320650284 0.09656947469138133 -0.047649003196704176
-0.04504728123150003 -0.010626999615962947 -0.10577171248808073 0.15695450720805834 0.0037748630726079503 0.09326648966646768 0.047932832625456716 -0.06992413465034614
-0.11767664992916087 0.17210098966929296 0.07040517660410646 -0.07579671829331842 0.015621155269114444 0.012343105394585807 -0.10206429226077879 0.12375052511325352
-0.02739891072278842 -0.18321329625343263 -0.158238285136595 -0.06489188990756453 -0.024340215482017282 0.061365264138246056 0.05255837337292049 0.07392450866115857
-0.14324982676038156 0.11387771099411696 0.04195844379981707 0.04936061162887904 -0.22683017454411458 -0.18314645703556462 -0.20289654906815716 0.0339709110285369
-0.2451268666196023 -0.032031480745619574 0.07060042117885408 -0.011662068456027795 0.013663865736607004 0.07714862144331092 0.16818864325392066 -0.06547921921694169
-0.1881899324285418 0.05544692428465179 -0.20085042815309195 -0.047340563719406356 0.1294852617113152 -0.08342362242238534 -0.1648235004629323 -0.008242413418022596
0.13898004236025163 0.01068210649632603 0.12749726318815463 -0.04433705864490039 0.03745444837517722 0.2020056775423069 -0.0603623494321876 -0.012949757983331069
0.11637391021363894 -0.12178723832187306 -0.08091312337320875 -0.039087030020399684 0.16197271322136905 0.03599377339216008 0.17085186721688272 -0.020325718546157164
-0.2697074992331405 0.22277935850768588 0.0856037800717829 0.12057402462370925 -0.0033519289877739595 -0.04880965199965405 -0.05731929761187229 0.12842299698302526
-0.05319832733930937 -0.0406151646081176 0.08943724855967253 -0.04566892299747159 -0.12476693727964923 0.12339698611533441 0.22980759701324446 -0.12659898573879638
00000000: 8973 7190 31a5 c1bf d0e8 e52e dece 9b3f
00000010: 4388 93ee 5fbc 9cbf a796 092b f8d2 46bf
00000020: f798 6fa7 2756 a9bf 9abf 5171 9266 afbf
00000030: 8a42 d5c8 4509 b23f cc80 3a9a d561 a53f
00000040: 3852 819b 3a16 c4bf 8ad1 402b 3776 c1bf
00000050: 82c3 e049 9e56 bdbf 8653 be1d 88ac b8bf
00000060: b1f1 3580 f0aa a0bf 0a32 791d bb55 a1bf
00000070: ce75 2894 b1e7 b83f 4152 724e 3ce3 b83f
00000080: c3d5 1bae 9d14 c6bf 771f 6a12 1f25 c6bf
00000090: 3291 4499 0a48 bcbf ff24 93b6 e79c bc3f
000000a0: fdf9 483d 6d2f cf3f 5167 51c9 88a5 a13f
000000b0: 2b1c 870c 3b47 a3bf de93 2bc7 5701 c9bf
000000c0: 87ed 6cab 8c8b b93f d681 55d3 37e0 b8bf
000000d0: 7d16 b9fa 2b4d bdbf 7481 c6be bb86 b53f
000000e0: 494a f7ee d1a5 ad3f 7700 7abd 0e26 b4bf
000000f0: 75b5 50ac d3db a73f f8aa 5474 3b5c 92bf
00000100: 6c07 7f83 1608 c3bf f6ba 838d a1a3 c43f
00000110: 3d9b 7524 b201 ae3f 4893 5233 fe1f d1bf
00000120: 09e3 419b c142 babf eafa 12d4 8d14 ad3f
00000130: 19d6 af5b 91e6 9f3f 3653 64ae 8924 c0bf
00000140: 8684 f4c5 a5a2 b8bf 0e73 04c6 f2c2 c13f
00000150: 9bf1 f949 fc34 c7bf 78e1 d5f5 f7ff 97bf
00000160: e09e 2b2a c5dd a2bf 5a0f 2ef5 2ac2 bcbf
00000170: be08 b1bc 7f25 98bf a5be cde9 e809 bb3f
00000180: 44c7 84f8 f5f4 aa3f 4e0b b293 9737 c5bf
00000190: a2f9 0981 6081 bcbf 2240 8c66 aa28 a43f
000001a0: 0521 8cf9 1f5a a8bf 347a b410 4652 b5bf
000001b0: 00dd 5bba 265b babf fde8 44c1 fb38 a5bf
000001c0: 6445 8795 4631 a93f 11fc f8ce c840 b3bf
000001d0: c823 82ea 1e7c b93f 68ba dae2 fed7 aebf
000001e0: e007 7c98 63b4 c1bf aadb c8a3 1851 b6bf
000001f0: 6514 2f37 3e78 b03f 56f7 e099 5ab9 c43f
00000200: 10f6 02e6 2922 c3bf 2a93 0b84 b0f0 b93f
00000210: 690f 5522 d7b3 99bf 6f3f cb3c 1b5d bc3f
00000220: 2dee 1193 87e4 c43f 589c 1816 adb1 b63f
00000230: b825 b60a 4cb3 82bf 93d7 9ce0 ecbe a1bf
00000240: 4b12 462a 60b0 a63f f21a ea16 1331 893f
00000250: a0fb e76f 0689 bc3f a120 d723 a4fd b93f
00000260: 2039 745e 32ce c1bf e04b e6f0 9119 b7bf
00000270: db35 ebf3 7f0f aa3f 521d 0d97 f32f 493f
00000280: 9d03 0f12 ee94 c13f 787b d13d ec91 71bf
00000290: 6ba2 c5a7 921c a2bf d54c 9be5 590c c1bf
000002a0: d8d2 5943 75fc 973f c6d0 e5a6 530f b33f
000002b0: 595e 371c db61 70bf 2ef1 4051 0b53 c03f
000002c0: fbae 8f60 4d89 a9bf a86e e942 172c a53f
000002d0: 1876 4b15 2d25 c03f 661f f060 d6a5 c5bf
000002e0: 3bbe 0a48 7222 b1bf 08ca a780 9ecd b7bf
000002f0: 5ad1 fe5f ea18 b8bf af39 f6ec 1b28 bcbf
00000300: 7aa8 84f5 dcf4 b8bf f8f8 489b 66a1 853f
00000310: d476 77d0 28d8 bfbf e6aa 3467 ff5e a63f
00000320: 6b04 f0eb 8d0d b23f 54b8 0e0d 3ade c1bf
00000330: 39b0 2f6e 9959 b9bf 4585 c972 c5c0 633f
00000340: 004b 1927 688c 74bf 83f0 6bb3 6c8c b13f
00000350: 5ffa 7b14 c249 c33f d53c e055 eb3c a2bf
00000360: 5b8e 2f0d ac11 b43f b009 fcde 789c 3cbf
00000370: 3b82 0ad4 f270 d03f 5031 f1cf 1dc3 b3bf
00000380: f0de efff 3cc1 91bf e6af d6ed d935 973f
00000390: 313d 9eea 475a b23f 5479 2115 64f6 723f
000003a0: 002c 3ade bd21 b93f c7e8 98c3 15df b53f
000003b0: 076d 46d9 5a22 bbbf eaf5 fe60 6bb3 813f
000003c0: cc83 52a4 c2af d4bf 242d fd84 15e8 c9bf
000003d0: 060b 6295 2b93 b3bf f13e 7cb8 6256 c43f
000003e0: 71ed d54c 2987 b9bf 910e 2e96 3c4f 7d3f
000003f0: 91e4 da86 d840 b2bf ea0a e5ed 57ca b6bf
00000400: 0997 4d92 8f95 a33f 6a8b 9eef 96e5 6bbf
00000410: e2c2 f84b 9c10 b93f 3094 1301 f9fc bdbf
00000420: 8f00 4ea4 33ca c43f 8c05 63ac 0cf0 7dbf
00000430: 2c2a 5b93 3089 87bf 25c6 5534 5362 bc3f
00000440: 97bc 7485 79b7 b33f f665 e1ed 901b bf3f
00000450: 4725 c7f8 aced b2bf b5ed f205 26fb c23f
00000460: 36e2 2a92 62f0 b13f 9c86 44f7 ebb4 973f
00000470: 7b88 a9d2 5645 d53f 51e8 34b2 a3a5 b03f
00000480: a5fa 5466 48d2 a43f d5b0 168d c254 c23f
00000490: 845f f8d0 57a2 cdbf 4bbf e0fc 4c37 b9bf
000004a0: 5044 7623 481d bcbf 574f 3a44 c3b2 83bf
000004b0: 6847 2c40 9aaa b13f fad6 f977 2a3e b1bf
000004c0: 1698 6d37 8077 84bf 509d 293c 7e3d b2bf
000004d0: 0f93 45bb 693b 9c3f 567a 825c 1fd9 45bf
000004e0: 0dc0 a8c3 7f05 a93f ea6c dbe2 8d8e c1bf
000004f0: 7dbd b222 4543 aabf 9015 b03e d53e b6bf
00000500: b46b 05fb 1784 a03f 031c 5f01 9ef9 9abf
00000510: 76e0 bcab 65ed b93f 06b8 3b0c 6600 aabf
00000520: 413b 0441 977f c1bf 434f 598d 786e c0bf
00000530: f0ea c1b6 074b b3bf 5f43 ddd9 3cb0 773f
00000540: c938 2de8 d36e b2bf 3214 aa43 f455 b2bf
00000550: a37c f006 684d a6bf 0ec4 4e83 66ce 263f
00000560: 4378 3d7a 45f7 c03f f8c9 feba c203 babf
00000570: d864 97ef c6b8 b83f 906c d53c 7365 a8bf
00000580: af75 53ef 6f10 a7bf 91fa 70be 9bc3 85bf
00000590: ba6c fadd da13 bbbf 5b8e b5d5 1517 c43f
000005a0: 9f07 332e 76ec 6e3f a121 ee0a 50e0 b73f
000005b0: 67dc 0ff9 a68a a83f f43a 864f 8ce6 b1bf
000005c0: 93d6 f292 0e20 bebf 8b92 1ebd 6707 c63f
000005d0: 7dd6 fbda 1206 b23f f5c3 36ea 6967 b3bf
000005e0: 3c7c 0df8 fbfd 8f3f b3b1 0190 5747 893f
000005f0: 4c74 59ad e220 babf 7c68 394a 1dae bf3f
00000600: db68 00c6 750e 9cbf bce8 cc85 8873 c7bf
00000610: 9c82 d1f1 2641 c4bf 2eba ed40 c19c b0bf
00000620: a734 e435 a4ec 98bf 2018 2b95 446b af3f
00000630: 8409 895d eee8 aa3f 4c92 1273 b7ec b23f
00000640: f4f7 8ba4 0256 c2bf e38b 76f4 1627 bd3f
00000650: c291 d2bf 937b a53f ed2c 5049 cb45 a93f
00000660: 58db b46a c508 cdbf 5b4a acd5 5771 c7bf
00000670: 0108 5c9d 83f8 c9bf 620a c49f a264 a13f
00000680: 5246 c031 5160 cfbf 3162 7d24 6e66 a0bf
00000690: 7508 0c84 de12 b23f ff93 fa54 48e2 87bf
000006a0: e527 ce03 cdfb 8b3f 28cf 0716 03c0 b33f
000006b0: 13c7 2a99 3487 c53f 9ab8 1a01 3fc3 b0bf
000006c0: ddc7 9b92 9b16 c8bf bdc7 ee0c 8a63 ac3f
000006d0: 6c0e 2782 77b5 c9bf 76ea e5b9 053d a8bf
000006e0: d29a 2e1a f992 c03f 799b 0422 405b b5bf
000006f0: 55de 0cbc ef18 c5bf 126c 9000 66e1 80bf
00000700: e8f2 5d18 19ca c13f efd0 6e10 80e0 853f
00000710: 1a7f dc8f d451 c03f a7e8 c2d1 58b3 a6bf
00000720: f3e2 b8bd 3a2d a33f 8f44 5371 52db c93f
00000730: f822 7159 d0e7 aebf f475 3c18 6785 8abf
00000740: fea7 793a aeca bd3f 55a0 a9cd 722d bfbf
00000750: 5e84 b4f2 b8b6 b4bf 6d51 4517 3703 a4bf
00000760: 4fa9 1099 85bb c43f c76d 289f c66d a23f
00000770: 141a 1457 79de c53f bf9b b1e1 43d0 94bf
00000780: 604e 2c3e e342 d1bf e2d6 81b5 0884 cc3f
00000790: 3681 d21b 21ea b53f a084 8174 f0dd be3f
000007a0: 562e 312c 8175 6bbf b2a3 2226 94fd a8bf
000007b0: d369 5879 f458 adbf d756 0c2e 2a70 c03f
000007c0: eb9b 3fa8 cf3c abbf b952 6dc7 82cb a4bf
000007d0: faa6 9b09 5ce5 b63f 1e74 6fc5 ea61 a7bf
000007e0: 25f9 3cdb b9f0 bfbf e552 cae3 f196 bf3f
000007f0: 67a9 c5d8 556a cd3f 313a ba43 6534 c0bf
