savedModel/poisson1d_sin/ParticleWNN_0/trained_model_best_loss.pth (torch, 65939 bytes, 10 tensors)

fc_in.weight f8 [50, 1]
000000 9d b2 4d eb 58 7a e8 bf 2e f6 7b b2 97 f3 eb 3f
       -0.7649349780818572 0.8734854208011649
000010 0d 9f 57 fa 33 fc cb bf 17 ad 41 5c 23 1d e7 3f
       -0.21863412593597112 0.7223069002042476
000020 02 90 83 23 65 f6 e1 3f 41 41 e6 67 f1 af ea 3f
       0.5613275235778021 0.8339774159704022
000030 1d c8 a3 da 4e 9c c1 bf 06 6c 17 78 9d 42 d2 3f
       -0.13758264232416276 0.2853158638733365
000040 57 a3 4d f1 d3 c2 e6 3f 64 fd 31 83 15 ec e8 bf
       0.711282702727753 -0.7788188517005605
000050 ab 4e 82 7e 26 42 88 3f 1d d6 ec 47 45 2b ee bf
       0.01184492181372517 -0.9427820591724331
000060 ff 54 63 97 5b d4 cd bf 58 db a8 c2 20 99 e1 3f
       -0.2330431451033874 0.5499423791833165
000070 1d 8f 42 82 3a cb ea 3f 2e b9 50 cc 6a 83 e4 3f
       0.8373081726208259 0.6410421362432197
000080 52 e9 f0 7a ac 79 c8 3f 98 13 e6 61 be d0 d3 bf
       0.19121318819982008 -0.3096157032053326
000090 34 18 38 b8 6f b2 e4 bf 10 b0 dd 6b fd 90 ed 3f
       -0.6467817876844095 0.923948965717047
0000a0 90 96 0a 0a bb 17 e7 bf a7 cc 61 48 88 c5 da bf
       -0.7216468044395743 -0.4183064181190254
0000b0 60 c6 e6 cf ab 25 d1 3f fd 89 65 39 fc ae e7 bf
       0.2679242639816035 -0.7401105042484343
0000c0 e2 71 e5 60 56 1d ea bf 02 8d ed 1a 8b 10 c7 3f
       -0.8160812275414708 0.18019236388054344
0000d0 79 2d 41 31 16 ab e0 3f 54 30 61 ec 8b bd e2 3f
       0.5208846055988224 0.5856380097188869
0000e0 3f 2d 9e c1 e3 db a3 3f 01 bd 12 98 5b c9 e5 bf
       0.038787000069613324 -0.6808298082522982
0000f0 7e 33 39 e3 75 fd ed bf 42 b0 f2 2f 93 18 ee bf
       -0.9371900022466517 -0.9404998718723692
000100 0d 7f 36 0e 87 bf c6 3f b8 90 34 15 55 77 a1 bf
       0.17771995729435056 -0.0341135586152474
000110 82 df ac bb 8f a1 e1 3f 19 04 dc 57 7c d5 eb bf
       0.5509718575985831 -0.8698102680210723
000120 6f b6 22 a5 f1 cd d5 3f 7b 2d 50 7e 4b d9 e7 3f
       0.3406948197033221 0.7452752558760233
000130 bb 22 8f b6 67 1d ea bf 94 5b 19 41 92 93 eb bf
       -0.8160894933326611 -0.8617640754190341
000140 fe db 5d 47 c9 5b c2 bf e8 b2 c4 63 f7 40 e3 bf
       -0.14342609390925526 -0.6016804646111185
000150 57 fa 18 08 1d fc df bf a8 2d 91 95 35 55 e6 bf
       -0.4997627810552436 -0.6979015275223235
000160 79 88 f9 60 7b 6b cc bf 0f 36 98 f1 b3 16 c9 bf
       -0.22203008875937139 -0.19600533768282033
000170 b5 19 5b 5d 16 59 b9 3f b5 c2 9d cf 79 19 e8 bf
       0.09901561526485277 -0.7531098418240477
000180 0b e6 f3 f4 e0 04 e8 bf 90 cd dd 2f 9e ee e8 3f
       -0.7505955490334498 0.7791281638041472

fc_in.bias f8 [50]
000000 02 13 99 21 e3 71 e5 3f a2 28 d2 58 fa af e6 bf
       0.6701522499284638 -0.7089816794189299
000010 0a 77 d3 19 a0 19 98 3f 6e 0b 5f 30 05 9f e1 3f
       0.023535253120704737 0.550661653971799
000020 15 60 b7 fc f1 0f dd 3f 61 31 aa 22 6d 0e d8 bf
       0.4540982215817178 -0.3758805120967477
000030 4d 80 77 9f 64 66 eb bf b1 8f 8f 0c 3a bb eb 3f
       -0.8562491526208845 0.8666048283889635
000040 f3 e1 94 5b f9 01 e3 3f a1 77 72 76 44 aa e7 3f
       0.5939909733488647 0.7395345986767446
000050 b1 63 20 9e af 72 e7 bf 80 94 0e 83 0a 44 de 3f
       -0.7327497566612832 0.4729028968670903
000060 e1 49 80 59 8e 55 e8 3f af da a0 05 e8 ff e3 bf
       0.7604438541478055 -0.6249885663917975
000070 af 86 7a 62 cf 97 eb bf e3 6c 37 01 41 64 aa 3f
       -0.8622815059099674 0.05154612674570005
000080 2a a6 14 94 2d 84 ea 3f 7d c1 0d 83 7d d5 a4 bf
       0.828635014743843 -0.04069130158211729
000090 69 32 58 8e 64 7d ee bf 16 97 33 fa 29 19 da bf
       -0.9528067379156485 -0.4077858870863208
0000a0 be cb 35 a0 ea 48 d9 bf 31 cf b2 38 4f 8e e7 3f
       -0.39507547040482993 0.7361217601196356
0000b0 b2 8f eb 57 13 fb ef 3f 79 ea 72 08 55 6a ee bf
       0.999398872107568 -0.9504800000207317
0000c0 fe 2e 28 26 ca 9b d8 3f 6c 2d 31 1d 35 2c d5 bf
       0.3845086453081733 -0.3308232102469535
0000d0 87 d5 81 01 35 ed e0 3f 0a d9 23 ca 97 3e e6 3f
       0.5289559392391973 0.695140738301036
0000e0 b9 f1 4d 46 5c 68 d1 bf 2d 0c 44 b8 fa 74 e4 3f
       -0.271994656235417 0.6392797087613694
0000f0 18 d7 e9 9c 7d c6 ee bf b9 b0 a1 04 0e 24 f0 3f
       -0.9617298187938301 1.0088024311944948
000100 25 8b 6e 9a 8c be d8 bf 81 3d 68 ad 47 ca 92 3f
       -0.38663020211440574 0.01834976192372784
000110 de 71 86 c8 91 58 e2 3f 07 52 45 bf 98 7d e6 bf
       0.5733117023951839 -0.7028316245801428
000120 be 0f 9b e6 20 6c e5 3f 86 82 19 ce 7a 85 da bf
       0.6694492820756677 -0.4143969547931551
000130 2a 83 f7 0b 50 ef ed 3f 3e 32 d2 bd bf c0 86 bf
       0.9354629739501423 -0.011109827022914517
000140 d1 e4 a8 47 41 3c ec 3f 41 fb 75 f9 0f 58 d3 3f
       0.882355346641953 0.30224990235722166
000150 64 78 d7 3c 0b fe cc bf 53 34 71 2d 73 e1 de 3f
       -0.22650280447755045 0.4825103706141977
000160 30 ac ce eb b9 f8 63 3f dc 3f 76 e2 c2 f2 e6 3f
       0.002437937857811011 0.7171339438518731
000170 6c cb 39 3d 7d 74 d1 bf 73 8b 41 ff aa fb a0 bf
       -0.27273493746832034 -0.03317007413786301
000180 e5 47 01 17 64 67 ef 3f d4 67 75 14 8f dd e8 3f
       0.9813709687534781 0.777045764883264

fc_out.weight f8 [1, 50]
000000 5f 3a 1f cb 53 17 c4 bf 82 37 66 6c c3 2f be bf
       -0.15696189325395246 -0.11791631123034388
000010 98 83 61 a4 5e 03 a6 3f 94 50 ff 0e 64 db bc bf
       0.042994458738355223 -0.11272263876100147
000020 22 75 19 fc 7b 8d c6 3f 90 44 f4 29 f0 5c a4 bf
       0.17619275865119116 -0.03977156173835639
000030 38 dd e0 5d 13 04 b3 3f 06 54 67 1a cb 75 be 3f
       0.07428093950226333 0.1189848842107751
000040 f0 50 47 ab fe a6 b9 3f f3 77 df c1 51 aa c3 3f
       0.10020438844304969 0.153635234512819
000050 ed bf 3c 54 c5 fe c5 3f 5b 46 cc 23 26 dc bd bf
       0.17183748829984272 -0.11664045690511086
000060 74 18 cc be c9 5a 9b 3f 44 49 9b 51 79 15 b2 3f
       0.026713516493167735 0.07064016573284443
000070 fb de 9a fa c5 0b c6 3f cf c3 50 f7 49 86 bc 3f
       0.17223429428644707 0.11142408645606781
000080 9a 23 c8 aa c9 61 c2 3f bb 73 e7 12 99 37 bb 3f
       0.1436092456717944 0.10631710731054415
000090 30 6a ab ee bf 03 c4 3f 3f 03 bc 63 0a b5 bc bf
       0.15636443284786727 -0.11213746008799051
0000a0 42 5b 3d 6b cd ff bc 3f 86 e7 40 41 05 d4 b5 3f
       0.11327823513179872 0.08526642649749591
0000b0 53 17 74 dc a5 4c b3 bf 31 8d bd 7a 7f 37 bb 3f
       -0.07538830406346379 0.10631558176605861
0000c0 f6 84 bd 89 3b e4 c1 bf 95 e1 bf 8b 19 ff c0 3f
       -0.1397776053009136 0.13278502773006254
0000d0 b3 81 66 8b 87 dd ab bf e1 47 55 3c 2c bf be 3f
       -0.054424510733272945 0.12010456536270865
0000e0 00 56 9f a3 f3 3a b7 bf 22 38 4b d9 c7 ff c4 3f
       -0.09074328179061553 0.164055806255818
0000f0 38 25 3b 98 76 41 c4 bf b3 3c 1a f5 a2 71 b9 3f
       -0.1582477801623925 0.09939020618388632
000100 8f 66 50 af 5d c9 a5 3f fb 63 e6 23 dd d6 b8 3f
       0.042551925326006594 0.09702856184448187
000110 fe 47 31 b6 d6 0a c0 bf 35 91 8d 19 0f f7 a2 3f
       -0.12533077140921017 0.03704116045881493
000120 d6 58 c7 ee ef bb bb 3f 6d 40 34 90 58 f0 bc 3f
       0.10833644465978706 0.11304238815887553
000130 a6 2b da af f9 62 b3 bf bf 4f 80 db 31 34 c0 3f
       -0.07572899382846163 0.12659285753090718
000140 70 d6 6c 3e 52 c3 85 bf fb a1 d9 35 f0 e4 9c bf
       -0.010626451997818281 -0.028217080389739007
000150 0a 86 76 ea 32 6a b0 3f e7 58 a6 de 4b 4c c2 bf
       0.06412046646303096 -0.14295338031360602
000160 ca fe 5f 1d fa ad b7 3f e4 b0 fb bf 3f 20 c6 bf
       0.0924984285084022 -0.1728591620843708
000170 56 ac f1 c9 d0 10 bc bf b2 6d 50 c8 cb 89 b6 bf
       -0.10963158540987314 -0.08804010048372993
000180 a3 29 db 17 04 0d c4 3f 4d 92 18 2c 72 34 a2 bf
       0.15664721646164734 -0.035556381113825176

fc_out.bias f8 [1]
000000 c0 5e e6 f0 c7 c2 e0 3f
       0.5237769799304814

fc_hidden_list.0.weight f8 [50, 50]
000000 2e fc 9d c4 14 2f 7c 3f 8a 1e a9 bd c4 77 7e bf
       0.00688083755983286 -0.007438438910476139
000010 f3 9f ec 5e d4 3e 72 bf a9 8d ae f4 89 e7 c3 bf
       -0.004454450200491056 -0.15550350615840827
000020 fc be 2e 48 5b ec b8 bf 3d b5 ae 10 ac b7 ba 3f
       -0.09735651504774617 0.10436511428152513
000030 25 c2 71 be 51 ce aa 3f 8e 7c 71 35 b9 b0 9a bf
       0.05235534143219337 -0.026064771544380742
000040 af 41 16 2f 33 54 aa 3f 8a bb e6 49 cc 31 44 bf
       0.05142364454070802 -0.0006162879470162791
000050 6c 0b fe f1 db 2e c0 bf de 4f 86 82 be 96 b2 bf
       -0.12643002811463633 -0.07261267363202203
000060 76 ad 15 6d e5 82 a8 3f 61 b2 65 1e c8 ab b9 bf
       0.047873658720017184 -0.10027743093605458
000070 2d 94 13 48 0d 23 ae bf 84 f9 73 c9 71 32 b2 bf
       -0.058861174629591374 -0.07108222168242234
000080 46 64 a1 26 30 03 c4 bf fd 62 7d eb 60 f7 63 bf
       -0.15634729276897213 -0.002437295242924241
000090 30 b9 6a b6 cc 90 bf 3f cc ab e8 85 58 23 c4 3f
       0.12330321744477568 0.1573286680080329
0000a0 e4 14 ac 82 f3 aa c5 3f d5 bb 10 b6 93 9c bb 3f
       0.1692795169875928 0.10785792536692836
0000b0 ef ac 72 46 f8 2f a8 3f 2f d2 30 92 d8 54 ae 3f
       0.047240980720141816 0.05924107346109896
0000c0 22 70 94 31 0f 91 c4 bf ff 27 62 73 ac ed c2 3f
       -0.16067686005487852 0.14787822374302093
0000d0 f8 bc ec d8 93 64 c4 bf c3 04 63 1f 5d 47 ba 3f
       -0.15931938259152623 0.10265142456320846
0000e0 ac f2 f2 13 ab a5 b6 3f 1d ac 1b d6 c0 21 b9 bf
       0.08846539723431118 -0.09817128398178494
0000f0 26 1c 17 17 11 53 c3 3f b6 57 ce 17 ff a5 b3 bf
       0.15097249629454373 -0.07675165492250255
000100 99 0f 84 58 ca 75 bc bf da 17 f5 f0 fb 7a b8 bf
       -0.11117233906776249 -0.09562658913372904
000110 3e cb b7 16 23 da a5 bf 9c 9b 5e 6d 3e e6 9e bf
       -0.042679878733812945 -0.030175185609234143
000120 90 14 03 04 73 13 c0 bf 9c 3e 2e 18 34 fa c4 3f
       -0.12559354492092156 0.16388560467429591
000130 5d 3f d9 3d 6c 86 b8 3f fe ba e2 0e 67 7e ad 3f
       0.09580112943626547 0.057605000083063004
000140 a2 05 a3 69 47 69 c0 3f d3 ec 60 32 71 b5 c2 bf
       0.12821285875365357 -0.14616217574971432
000150 30 91 8c d3 3a 15 b2 3f e8 d9 f5 09 2e 14 a0 bf
       0.07063644089482035 -0.03140395995699291
000160 43 0c 12 1b c9 45 be bf 6f 7c d6 74 83 fc b9 3f
       -0.1182523432817542 0.10150930025564418
000170 8a d9 73 7c 4a 44 c2 3f d0 29 e8 e7 d2 ca 91 bf
       0.14270907475265587 -0.01737527409026446
000180 9b 28 4d e1 fb e9 a2 bf 28 bd 61 a3 d2 c0 c4 bf
       -0.03694140553723565 -0.1621344850313815
000190 2a 1a ef 3a bb a1 b4 3f 90 20 38 40 16 26 91 bf
       0.08059282482927502 -0.01674685255969216
0001a0 eb 7d 10 72 d7 2e ab bf 9e 23 20 d2 5f 3d b1 3f
       -0.053091747926597176 0.0673427474977317
0001b0 b4 52 8e 28 a6 a1 9f 3f a4 4c 0b 3d ad f8 bf 3f
       0.030890079713190757 0.12488825550399213
0001c0 34 a7 b6 83 f4 b0 ae 3f 25 34 2c 6b 16 17 b2 3f
       0.05994381053763079 0.07066478840370445
0001d0 6d 0b ce 83 67 a4 b9 3f a8 bc 2d 90 0b 56 9f 3f
       0.10016486137287268 0.03060167376991943
0001e0 82 ac 30 6c 3e d8 b9 3f 15 a1 c6 99 7f 37 b9 bf
       0.1009558691154542 -0.09850308899206468
0001f0 cf d1 16 e1 03 d2 9d bf 5f 17 ed c1 14 94 b9 3f
       -0.029121456731177105 0.09991578802609301
000200 01 2d f2 40 01 bb ae bf f9 49 59 ba 94 c6 b0 3f
       -0.060020484140375537 0.06553010510950931
000210 ad 40 00 04 eb d1 b2 bf f3 e8 90 ac d5 d0 ad bf
       -0.07351559493713707 -0.05823390704650135
000220 b4 0c d8 9b d7 b8 c0 bf 4d 31 bd 57 ca fc 95 3f
       -0.13064093694274492 0.02147213135258257
000230 08 e3 e6 15 89 1a b4 bf 68 f2 49 18 c3 1a b1 3f
       -0.0785298994513931 0.06681460707654596
000240 63 75 17 c5 46 b7 9a bf 64 1f ed 25 38 f3 bb bf
       -0.026089769153136 -0.1091799824326905
000250 6d 56 b6 8f 64 05 ac 3f d6 3a d9 9c d3 08 bf 3f
       0.05472864393520358 0.1212284334116974
000260 a6 37 cd 5a ea 94 b7 bf c3 c3 a3 2e 43 a8 84 bf
       -0.09211601940952949 -0.010086560116606585
000270 2a a1 f1 03 1a 33 b1 bf dc ed 10 0e d5 b6 a1 bf
       -0.06718599888120438 -0.034598024336869065
000280 95 66 01 58 2c 74 b4 bf 66 7c c9 73 5e fd c0 bf
       -0.0798976626259907 -0.1327322068563916
000290 ab e2 1a 27 51 0f a1 bf 5c 90 2f d6 99 fb 99 bf
       -0.03331998445850578 -0.02537384385858875
0002a0 21 b1 de 6b 28 d2 5f bf 89 ff 97 14 40 ab 7b 3f
       -0.0019421953906926875 0.006755113901362971
0002b0 60 5e 0d 51 49 8f ab 3f f6 df 00 e4 02 84 b3 3f
       0.05382756342322348 0.07623308245172197
0002c0 a1 bd 6d 36 3a 5b 85 bf 41 6c 3a f0 d0 9c b8 3f
       -0.010427908693343481 0.09614282479235305
0002d0 73 e3 b1 c8 37 90 b7 3f 2c 89 11 28 46 3b b5 3f
       0.09204434060838 0.08293570020899627
0002e0 fb f9 c7 d0 1b 01 b2 3f 88 66 a4 cc 8c b0 c0 bf
       0.07032941672512287 -0.1303878783444825
0002f0 c2 cd ba ff fa 41 92 3f 2f 3a 05 54 c2 a5 b4 3f
       0.017829820497991873 0.08065428305892718
000300 d3 33 e5 23 d9 e2 be bf c2 84 52 9c 04 0d 86 bf
       -0.12064892889357219 -0.010767017384127778
000310 db 6e 37 b7 8a eb bd bf 37 0a 50 f9 0c 59 af bf
       -0.11687533352909034 -0.06122627776496297
000320 ed da f4 dc 6f 89 a2 bf 11 c1 23 86 8e 8f aa 3f
       -0.03620481083128433 0.05187650096366004
000330 d1 67 7a 08 5c be bf 3f 66 84 c8 ae 1c ff c6 3f
       0.12399840552316667 0.17966040167178504
000340 e0 db 01 78 0a e7 bd 3f 87 d1 a5 42 98 6d c4 bf
       0.11680665426125314 -0.15959456686290371
000350 5d 13 79 4c 7d 8e b0 bf 46 09 b1 aa 69 f7 be bf
       -0.06467421643271849 -0.12096271912836185
000360 4d 93 d8 22 3f 41 aa bf 02 e8 92 dd e6 c8 7c bf
       -0.0512790422474497 -0.007027532404373817
000370 66 47 46 db 1d 62 b0 bf 34 a2 00 b2 14 b5 bc 3f
       -0.06399714091665273 0.11213807435763884
000380 58 f7 32 cc 5e 01 bb bf 98 46 e8 5d 77 2f b2 bf
       -0.10548965916947617 -0.0710367779031692
000390 45 fc ba 0e be 99 af 3f 2e c9 2a 12 fc 1e c2 3f
       0.061719836519380546 0.141570576544447
0003a0 b1 f9 7b 79 c2 74 c1 3f 1e 7f 1a 5e 27 66 b4 bf
       0.13637572223519848 -0.07968374297570022
0003b0 1d 72 e1 6e f4 b7 aa 3f 3f b7 47 9f 37 2a b0 bf
       0.05218471387408761 -0.06314418448138513
0003c0 38 f6 20 55 a6 08 71 3f 89 c7 78 e7 21 46 bc 3f
       0.00415863965650725 0.11044513608137953
0003d0 c4 e0 63 5d ad cb a3 bf 99 e0 d6 eb 0e 23 a8 bf
       -0.038663308763661 -0.047142473496422706
0003e0 7d 9e 73 aa d2 d2 c6 3f 9a e2 7c b2 55 72 b6 3f
       0.17830880472978441 0.08768210990536787
0003f0 ba 2f 0e 93 3b 48 b7 3f 78 26 c5 a6 d8 ef 9d bf
       0.09094593372554885 -0.02923525350460074
000400 42 01 6f c7 cb a0 90 bf cf 17 7b b4 60 00 c0 bf
       -0.016238388106786468 -0.12501152813473346
000410 a2 53 35 6a 0b 11 a8 3f 36 da 5b 0e 64 7e b4 bf
       0.0470050398968518 -0.08005357122952081
000420 ce 53 21 b5 cd ce ba 3f c9 05 5c 88 72 89 b2 bf
       0.10471807167171152 -0.0724097807797285
000430 e7 e6 bf 44 47 0f ad 3f b3 2a 8c 8b 7c 03 8a bf
       0.05675718988636707 -0.012701962479260009
000440 73 00 d3 f9 45 e0 b5 3f c2 16 44 35 7b da c4 bf
       0.08545338963722475 -0.16291751957776596
000450 dd 0f 44 30 cb c7 b5 3f 4b 58 db 9b 43 0c c0 3f
       0.0850798600040998 0.12537427053638547
000460 82 ed 2a 6b 0d 8e a8 bf ab 0c 7c 28 59 81 ae 3f
       -0.04795877392958926 0.0595805990142478
000470 b4 c8 65 08 69 5b bd bf fa 56 ba c2 c0 c3 b3 3f
       -0.11467606024760607 0.07720570329760426
000480 91 da fc 9f 34 54 c1 bf 26 bf dd d7 3c 3a a8 3f
       -0.13538224994563966 0.04731931815228867
000490 f8 9c b4 51 2e 3b be 3f 0a 11 5d 4a 96 af 78 3f
       0.11809052939189602 0.006026827881047811
0004a0 f8 e3 94 73 65 a7 bb bf 89 6d 18 6f 0e de c3 3f
       -0.10802301475349896 0.15521412300664064
0004b0 57 78 bb a3 7e 5e c4 bf ea f9 51 a9 1b a1 b7 3f
       -0.15913374895802931 0.09230206378740716
0004c0 4b 1a 7d 50 db ad b2 3f cf 76 6d de 59 8b 8c 3f
       0.07296534266525005 0.013937666035129052
0004d0 5d df 19 06 d6 f7 c0 bf 30 4b 51 f2 48 48 8b 3f
       -0.13256335542586842 0.013321466345734473
0004e0 bf 4e 4d 81 76 d3 b3 3f 48 c7 a9 3c fe 93 a8 bf
       0.07744541794573488 -0.04800409784810583
0004f0 5f a7 55 e5 56 61 b6 bf 36 72 ab 7d db 03 c4 bf
       -0.08742278193463225 -0.15636771808830624
000500 7b c6 e4 57 29 bd b3 3f ee 3f 02 91 09 bf b7 3f
       0.07710512538758423 0.09275874891522992
000510 e4 46 82 d4 46 75 b7 bf bc ff 9e c6 da 3c bb 3f
       -0.0916332501240294 0.10639731740138719
000520 68 5a b7 89 93 76 98 3f 4c 28 81 03 22 22 87 3f
       0.02388983276417847 0.01129557202525091
000530 96 e0 53 ff 86 e0 aa bf a8 36 e7 14 ae 79 c2 bf
       -0.05249425761024999 -0.1443383791033075
000540 97 1a aa 90 8a b6 b1 3f 81 17 7c ad c9 0d 7a 3f
       0.06919160873267526 0.0063608053239984095
000550 7c b7 dc 0d 14 ce b5 3f 5f d0 3f cc 8d 92 b4 bf
       0.08517575586730958 -0.08036123501352808
000560 a3 89 57 f8 9b 60 c1 bf ec bd d2 98 9d 0b c2 bf
       -0.13576078058310967 -0.1409794803816874
000570 a3 25 20 74 73 3d 98 bf 08 d5 16 bb 62 6a 7b bf
       -0.02367191692613847 -0.006693254153494317
000580 03 02 ca e7 4c 7c 8c bf 37 c3 c4 55 d8 ac b5 3f
       -0.013908959220544586 0.0846686562915807
000590 7e fd 90 a7 51 f5 be bf 8c 15 19 9a 8a fa ae 3f
       -0.12093077031112462 0.06050522929266852
0005a0 b1 d7 77 cd de 2c b2 3f cb 48 93 98 1b 8d ba bf
       0.07099716678916825 -0.1037156341074336
0005b0 ea 0b 17 97 e1 1d b8 3f 5e 62 27 9f f9 aa c0 bf
       0.09420595110627486 -0.13021774550613235
0005c0 b6 09 04 ab e9 5c bf bf 58 57 5e 8b 98 07 a0 bf
       -0.12251148629369521 -0.03130795193935282
0005d0 a9 5a 60 8b 4c 43 b9 3f c1 47 85 82 37 04 84 bf
       0.09868315127128348 -0.009773667975114255
0005e0 17 67 62 a1 f5 be b3 bf 30 1b 19 87 3e af a4 3f
       -0.07713256063507533 0.04039950751444221
0005f0 fd 60 55 2b 6e cb a2 bf 14 d4 d6 5c 57 3d c1 3f
       -0.036708300389991046 0.134684486705425
000600 5a 1e 38 7d 71 12 a7 bf 43 eb b2 ba 2f 79 b9 bf
       -0.045062586341427305 -0.09950540836409254
000610 d7 84 61 3a 47 dd 9f bf 35 2c e2 60 f5 21 c4 3f
       -0.031117546976365453 0.15728633146895424
000620 05 00 a5 b3 04 ad b0 3f ef bb de 23 9e cd 87 bf
       0.06514005075314351 -0.01162265345541688
000630 c6 3e 05 5c 83 b5 c3 bf be f3 45 40 16 6e b8 3f
       -0.15397684090793556 0.09542979306384233
000640 34 49 5a ef 2b fb a1 3f 09 92 45 86 8e da be bf
       0.035119412391525634 -0.12052241113776331
000650 4c 85 2d df 62 40 ba bf dd ff 90 06 0d 4b c3 3f
       -0.10254495571782235 0.15072787113785938
000660 f0 d8 dd 39 d2 a7 b1 bf 5e fa fa 54 71 64 9e 3f
       -0.06896699822195607 0.02968003350428671
000670 6e 82 b8 3a e0 7c be 3f 15 e9 df 12 9c f9 a6 bf
       0.11909295495616742 -0.04487312059787222
000680 d9 6c d5 09 81 61 70 bf 3e 70 50 e8 bf 6c bc bf
       -0.003999237114238962 -0.11103438779576977
000690 fd 8f 74 cc 28 9c a1 bf 68 69 d2 ce 62 ba ad bf
       -0.03439452644150263 -0.05806263708764697
0006a0 8a 54 56 dc 9e 30 c0 3f ef 9b 20 02 b8 e9 3f 3f
       0.126483781420266 0.0004869531859434386
0006b0 f0 33 86 ce ef 80 7c bf 68 f5 6f 28 52 d5 b9 bf
       -0.00695890116220442 -0.1009112690662356
0006c0 d2 55 47 0f 9c 2c b3 3f d4 87 d6 c7 41 2e 95 bf
       0.07489943860067363 -0.020684268781799478
0006d0 ad 10 61 79 26 8a 8d bf a3 ac 9b fd 92 0b c0 bf
       -0.014423657015989322 -0.12535321601112512
0006e0 3d 15 d0 fa 82 87 b3 3f 2c 4d c5 09 3c 2c b9 3f
       0.07628649352416957 0.09833121527235694
0006f0 20 77 0a b0 72 dc 99 bf fa 67 be c4 27 31 b1 bf
       -0.02525500487774146 -0.06715630105318829
000700 9b dc 25 b6 34 4a c3 3f 8c b0 2c 36 d6 00 bf bf
       0.15070208448353103 -0.12110651800748168
000710 99 4f ed 39 ad 0f ac 3f 15 de d1 e8 2f 82 86 bf
       0.05480710346333168 -0.01099049977550152
000720 4f 36 29 f2 f8 dd 94 3f 3c 5a d1 db eb 08 b5 bf
       0.020378007679303697 -0.08216737858433815
000730 3b d6 9c 68 3e bf b7 bf 52 04 d7 9c 6e a3 a9 bf
       -0.09276189855594279 -0.050075012822624956
000740 b5 5b cf cc 09 32 c0 3f 3b b3 94 fa 5b 36 a5 3f
       0.126527047161941 0.04143035348747622
000750 6d 82 d3 bd 38 fc b9 3f 66 56 70 ec 5e d7 9d bf
       0.10150484690121582 -0.02914188688381216
000760 95 ef 14 c7 bb e2 b0 bf 62 07 ab 4e b4 9e b0 bf
       -0.06595967874903715 -0.0649216358242746
000770 be f1 d8 70 7e 59 a7 bf 01 5b 2a f4 2b 9d b5 bf
       -0.04560465934307299 -0.08442949973173698
000780 8c 53 b7 59 8a 3d b2 bf 77 43 7a e9 3e 04 b0 bf
       -0.07125153246245314 -0.06256478500496408
000790 80 03 e3 79 f8 fa b4 bf 59 40 6f e6 29 45 9b 3f
       -0.08195450759650491 0.026631025971994713
0007a0 82 b5 47 c3 1c f7 ae bf 45 c5 51 63 35 d0 b4 3f
       -0.060479067647842846 0.08130201029577673
0007b0 a6 01 7a 14 28 24 b7 bf e3 7b 02 a8 c4 a9 c1 3f
       -0.0903954553596181 0.13799341395949147
0007c0 11 16 d8 ad 53 42 c2 bf 49 6e c5 2b 35 eb b4 bf
       -0.14264913547974392 -0.08171398466714054
0007d0 57 e6 3f f8 7d 15 b8 3f 97 68 3b 48 3d 98 b9 bf
       0.09407794295102555 -0.09997923863866941
0007e0 48 47 fd 7e fb 1e c2 bf 06 31 41 59 0f 7f 80 bf
       -0.14157050800946025 -0.008054847632728467
0007f0 8c 39 73 38 f8 b5 a7 bf 0e 0a 60 56 af 12 a1 bf
       -0.04631019295776459 -0.03334567956337163

fc_hidden_list.0.bias f8 [50]
000000 82 22 e4 fc 2d 6f a2 3f 1d 61 41 2a b9 f6 b7 bf
       0.03600448333788099 -0.09360844880700765
000010 0d de 9a 80 17 cf 58 bf 75 86 ab 10 12 e0 7d 3f
       -0.0015142182841553248 0.007293768469681096
000020 df 15 1e 94 48 cc b9 bf 26 9e 3b 68 ea c0 bf bf
       -0.10077336898947163 -0.12403740925548642
000030 c8 22 c9 0e 8c 10 be bf 85 97 fd 45 d7 c0 a5 3f
       -0.11743998871782957 0.04248688439729079
000040 ca be 94 bd 14 b0 8e 3f 43 7e 0e aa 82 c1 aa 3f
       0.014984285388521274 0.05225761724363711
000050 d3 b6 de da b2 13 ad 3f c8 95 51 06 14 b9 bc 3f
       0.05679091378929759 0.11219906954064307
000060 3b 4c 7b ba be a3 aa bf cc 2b f8 e7 ee 41 c1 bf
       -0.05203052545916661 -0.13482462240821602
000070 83 bf b2 21 cc da a2 3f a1 79 bf 3c e4 6e c0 bf
       0.03682554160457043 -0.12838414159973602
000080 75 19 4d 73 e7 1b b8 bf eb bc 6c 9d 47 1e c0 bf
       -0.09417578282327617 -0.1259240645099234
000090 fd 5e 9b 42 94 41 b3 3f c2 71 07 d5 9f f7 5b bf
       0.07521940828462088 -0.0017069874630727265
0000a0 09 05 46 c6 ff 11 a1 3f a8 11 06 c1 b5 b0 b3 bf
       0.03334044738131509 -0.07691513025753827
0000b0 a2 6f ec 8f 81 d0 af 3f 36 74 af 56 b0 e3 a6 3f
       0.06213765031699771 0.04470587785883888
0000c0 07 66 01 4d ef e4 b2 3f 85 d6 4e a8 2b 5e bd bf
       0.07380576734558285 -0.11471817835885119
0000d0 82 68 55 b1 78 b7 be 3f f1 f3 52 f8 81 99 c1 3f
       0.11998705224451281 0.13749718308636674
0000e0 d6 11 6b 9e aa 87 92 bf 4b 9a 70 17 91 b9 b5 3f
       -0.018095651549417578 0.0848627741075713
0000f0 56 6f 8f 14 dd 31 b7 3f 0c d8 7c 4d fa 88 c0 3f
       0.09060460807762402 0.1291802290303966
000100 4f f6 75 33 e4 90 89 bf 9c 41 ae cf 67 37 a6 3f
       -0.012483389683207195 0.043391460515638886
000110 1c 18 e6 94 86 ea 63 bf 51 cf c4 d0 90 75 b5 3f
       -0.002431166510350925 0.08382515999693153
000120 e0 75 52 05 69 e0 be bf 26 98 0a 33 77 d1 9d bf
       -0.12061172847685198 -0.02911936043769727
000130 90 90 8c 32 14 90 0f 3f ac 65 06 3e e5 e5 a8 bf
       6.020127904651882e-05 -0.048628963300142075
000140 57 aa 64 44 03 a5 83 3f a6 14 71 fe 2d 6f b1 3f
       0.009592080616660654 0.06810271703678214
000150 01 67 e3 81 03 b0 b9 3f 00 d2 42 43 47 3e ad bf
       0.1003420059309086 -0.05711577125603995
000160 2c 85 df 1a 50 59 aa bf 12 c2 ef dc 5d e4 b9 3f
       -0.05146265342751585 0.10114084857901443
000170 15 31 60 88 f5 b5 b4 3f 49 e5 cb c6 1e 04 be bf
       0.08090147571073587 -0.11725036958150271
000180 9e 0a cb 5e 66 75 b0 bf 63 f5 ed 23 a8 42 b9 bf
       -0.06429138006482524 -0.09867335202394183

fc_hidden_list.1.weight f8 [50, 50]
000000 34 93 a8 8b b4 76 a3 bf 7d fb b9 35 4d da 94 bf
       -0.03801502423110606 -0.0203640045206117
000010 92 1b 36 5e d7 9a 8f bf 39 07 ab 08 f1 c7 ab bf
       -0.01543205505619286 -0.054259807880511386
000020 ca db 71 53 b7 56 bc 3f 2c 88 a7 6f 47 c4 c2 bf
       0.11069818293786607 -0.1466149611651998
000030 95 87 4b ba 01 06 aa bf f6 8c 5e af 45 72 76 3f
       -0.05082707785710664 0.005480072219060652
000040 c5 48 27 fb bd 31 b9 bf 58 52 05 1e 31 7c 86 3f
       -0.09841525441814543 0.010979064682637915
000050 99 6e 71 b6 43 74 ae 3f 62 a6 a8 08 48 d1 bc bf
       0.05948077776039646 -0.1125683804645177
000060 ad dc e6 b7 49 fd c0 bf 59 01 6e 35 71 d9 c2 3f
       -0.13272973517971334 0.14726080998299088
000070 17 71 e0 ae 3a ac b5 3f 8b 44 d9 77 19 77 ac 3f
       0.08465925950480756 0.05559615695950367
000080 dd 47 fd 7f b8 03 b2 bf 40 87 8f 77 af 1b be bf
       -0.07036927342167539 -0.11760994595490804
000090 fd 2d bc 13 d7 97 b3 bf b1 7f 98 1a a7 25 c0 bf
       -0.07653564674199483 -0.12614907072656714
0000a0 5c e5 17 0e 28 cb b4 bf 6d 38 c6 f7 fc dc a4 3f
       -0.08122492164684075 0.0407485058268414
0000b0 f6 9c b4 f4 59 d7 b1 3f 1e 37 6a 7b 1a e3 c0 bf
       0.06969225143676624 -0.13193064714544617
0000c0 4f 83 db 93 99 4c a1 bf 67 83 d5 42 c7 01 85 3f
       -0.03378753595257555 0.010257298209298061
0000d0 49 1e 1c d5 d8 c1 be bf 3c c7 3b 38 c2 61 b1 3f
       -0.12014537051083453 0.06789792893303298
0000e0 cb 80 51 ba 53 6a ac bf 54 8a 1a 77 7b 92 79 3f
       -0.055498711103383856 0.006243212019088579
0000f0 51 92 ea 1a 9b 42 b3 3f ac 94 c8 a9 c2 30 b8 bf
       0.0752350750650035 -0.09449402470689233
000100 36 e9 b1 18 cd 20 c0 bf 5a af 2c 3b 63 0a 69 3f
       -0.126001011903847 0.0030567110165033275
000110 dc 5f 57 ab 90 24 b7 bf 06 b5 90 f5 b8 21 bb 3f
       -0.09040168936860432 0.10598331446881923
000120 87 78 6c bb e6 21 b0 bf 1c 66 0c d9 0b 75 ba 3f
       -0.06301729274534483 0.1033484845069314
000130 69 32 84 5b 56 64 ac 3f 47 32 20 bc 51 30 ad 3f
       0.055453013106760825 0.05700927182633513
000140 67 c8 4d ad f8 b9 c2 bf 4e ea b0 55 88 cb 88 bf
       -0.14630039655782243 -0.012106957545360644
000150 69 b7 7e a2 f7 66 bf 3f 7f c8 37 47 5d 58 ac bf
       0.12266490666544673 -0.05536166662558716
000160 4e 3f 96 f9 b3 78 b8 3f d3 22 4c 5d fa 47 ab bf
       0.09559178203039417 -0.05328352345356326
000170 3c 58 99 46 e2 e5 aa bf 3d c2 cc 59 74 8d a0 bf
       -0.05253512489132148 -0.03232921215238036
000180 61 2a 70 79 fd 1e ba bf ff 41 6a 22 e9 ff bd 3f
       -0.10203537192152502 0.11718613710605295
000190 ff 1c 9a 88 a2 38 b2 3f 0a c2 83 da be 71 a1 bf
       0.07117667994508635 -0.034070934461741656
0001a0 2d 27 ea dd 66 07 c3 bf a1 73 a9 cb 3c 4d a9 bf
       -0.14866338573147556 -0.04941740022761754
0001b0 d6 65 a3 fd 38 7f be bf 39 03 cf 2d 58 45 b3 3f
       -0.1191287631258072 0.07527686231970855
0001c0 45 e9 12 64 61 1a 9f 3f e8 ea a6 33 60 0c 96 bf
       0.030374070866608056 -0.021531584885205485
0001d0 5b 6b 7a f6 8c 51 b8 3f a2 05 59 e5 ed 22 b4 bf
       0.09499436395200915 -0.0786579785281192
0001e0 f0 7a d8 09 6b 3c bc 3f cb 00 87 15 23 4e b7 bf
       0.11029690733310438 -0.09103602672167026
0001f0 0c f5 1c f6 36 be b2 3f f2 a9 66 5a 9c cf c2 3f
       0.07321494587536764 0.14696077741730523
000200 5b ba 8b ce a9 c9 af 3f 6b 5c 40 a1 b5 86 c4 3f
       0.06208544393836198 0.16036100743869794
000210 c1 37 5b 19 9d 6c a8 3f 84 a7 f6 4c ef d0 aa bf
       0.04770365652585396 -0.052375295777280534
000220 45 f6 0a 64 6c 6e b1 bf cb 58 fe 90 f6 2f a0 bf
       -0.06809117739154498 -0.03161592979374602
000230 cb 3c 79 cb 21 2a a4 3f d6 8c 4b 6d 18 cd b4 3f
       0.039383941734394044 0.08125450771653972
000240 bc 2c 7b 79 b0 7a a9 bf fd 30 79 d3 69 f0 b1 bf
       -0.049764170483820064 -0.07007466710019013
000250 1a 1d fc 73 07 26 83 3f ec 8a cb 6a 0d 00 b8 3f
       0.009349878527713563 0.09375079972555128
000260 df a4 d3 ae 97 0c c1 3f 53 0d 19 4f 9d 72 c1 bf
       0.1331967929502644 -0.13631025659752058
000270 09 e0 85 0d f7 5c 9c 3f 01 0d 7c d8 f9 78 b5 3f
       0.027698383522391654 0.08387719664829164
000280 a3 4a d0 d0 53 e1 b8 bf 51 d1 43 e4 5b f3 99 3f
       -0.0971882233427928 0.02534240322798215
000290 1b 27 c0 1e 76 19 90 bf 63 cb 1c c1 d2 b8 c4 3f
       -0.015722127558581805 0.16189035825081097
0002a0 af 6d 34 24 5a 41 c1 bf 9c 4e db 48 96 b2 bf 3f
       -0.1348068882733577 0.12381877211310627
0002b0 35 c5 99 16 6b 49 c0 3f 9c f3 69 1e 6a ae bb bf
       0.12724054912136187 -0.10813010447050292
0002c0 7d 1c e3 8b 13 90 be 3f 46 74 4c 32 ba fc 83 bf
       0.11938593068326671 -0.009759382877343136
0002d0 73 6b 09 84 e5 51 c0 3f 12 be 98 19 62 cb be 3f
       0.12749928423985643 0.12029088139456004
0002e0 88 97 29 15 18 7f 93 3f 2f 9d 8a b1 ba f4 a5 bf
       0.019039512912420814 -0.04288276116613542
0002f0 ab 38 49 12 86 9c a7 bf 7f 4c 02 e4 c8 b9 a8 bf
       -0.04611605618684796 -0.048292424996497545
000300 c0 ca cf b7 e6 7b ac 3f 60 e1 3a ae 3c 61 b6 3f
       0.05563279145998967 0.0874212193838324
000310 b5 9e 0c 85 8f 02 85 3f 42 03 30 76 cd 7e b4 3f
       0.010258790252535158 0.08005985389173723
000320 cf 84 c2 ca c4 62 a0 bf 4e fe a0 4f 4d 31 70 3f
       -0.0320035455236024 0.003953268047609605
000330 65 6b ad fb 6d 70 aa bf c9 fc a0 c3 ac 00 a3 bf
       -0.0516390199397481 -0.03711452377364705
000340 0b 53 b9 f5 08 29 b1 bf fa c7 6c f1 9a 47 68 3f
       -0.06703239440077995 0.002963831542182935
000350 48 60 64 98 b3 4c c3 bf 5d ad 2d a6 c0 a9 64 3f
       -0.15077824536342832 0.0025223505667121685
000360 fb 43 a1 3d 90 cf 88 3f 2c ee 08 fa 0b 5b 91 3f
       0.012114645844265573 0.016948878417890764
000370 e7 a9 af ab e6 b2 87 bf 1d 50 54 56 8a 43 a0 bf
       -0.011571695436903574 -0.031765292204142016
000380 9f 97 13 0f d5 8b be bf 92 7e 05 b1 fc be c1 bf
       -0.11932117097930338 -0.13864096301675893
000390 66 06 1b c7 6e 7a b3 3f c7 26 b0 f5 77 f1 95 bf
       0.07608692513442747 -0.021428942080126825
0003a0 ea f3 c4 8b 54 85 b0 3f 4f fc bb 81 f8 4c c3 bf
       0.06453445827806062 -0.15078646025355844
0003b0 51 03 2b cd 74 7d bf 3f 12 d5 09 cd 38 93 bd bf
       0.12300806054100845 -0.1155276775915193
0003c0 c8 74 51 b1 0f c3 87 3f 93 4d b3 21 1b 23 a0 bf
       0.011602518652745877 -0.03151783739454141
0003d0 19 91 55 55 ca de ac bf 70 5d 07 12 68 ad aa 3f
       -0.05638725558927344 0.05210423679425957
0003e0 b0 7d c4 f6 c2 b7 99 bf 5d c1 52 36 c5 f1 b8 bf
       -0.02511505728864244 -0.09743912292720354
0003f0 14 87 f6 5e a9 75 bb bf bf 0d d7 53 50 f5 97 3f
       -0.10726412361557564 0.023396735303107038
000400 ba a3 1f 09 ea ef b1 bf 21 83 8c 9f 1d b6 ae bf
       -0.07006705019706674 -0.059983182645970475
000410 6e 68 6e b1 bb 2b b2 bf ea da 20 09 95 5d b7 3f
       -0.07097981530969985 0.0912717006002414
000420 82 19 38 b3 d7 03 b3 bf f7 0a 4a 90 58 48 84 3f
       -0.07427738309352175 0.00990361395202431
000430 d4 83 ae 7d e9 6d b1 bf 9b 84 b3 36 44 dd ad 3f
       -0.06808337515259605 0.05832875411739132
000440 36 91 93 17 10 0e 8f bf b2 a6 18 d5 9c ea ba bf
       -0.015163541526313478 -0.10514240458055715
000450 de c1 3f eb 00 60 c2 bf 07 89 26 d4 8a 53 bb 3f
       -0.14355479704637636 0.10674350432831058
000460 a6 db be 14 86 12 c0 bf 14 a6 10 f6 22 68 c2 bf
       -0.12556530011144423 -0.1438029958238053
000470 66 eb 1c d2 08 7c b2 3f 91 ac 11 d9 d6 4f bd 3f
       0.07220511560164553 0.1144995002702436
000480 37 4a b2 2b 5a 1a c2 3f fe 86 02 3f a5 a3 a1 bf
       0.14142920621505237 -0.034451641027102284
000490 ae 12 ac 52 bf e4 ac bf 45 ea ac 8d 79 28 9f 3f
       -0.056432703821007166 0.03042783667772599
0004a0 26 59 57 99 9f 0e 83 3f 85 6b d1 ee 77 62 c1 3f
       0.00930523573599069 0.13581751977002568
0004b0 5a 40 21 2e a3 98 c1 bf 2b 7b bb 5e 7d 94 b4 3f
       -0.1374706244700999 0.08039077341844052
0004c0 63 ee 3c cd a7 66 bc 3f 0d 39 0f e8 50 57 94 3f
       0.11094139824575104 0.01986433426264349
0004d0 39 d2 05 48 7c ed c3 3f 21 b1 44 a1 18 49 a7 3f
       0.15568498150573065 0.04547955483062283
0004e0 44 fe b4 64 e9 cc 92 3f ed d5 46 20 96 a2 6d 3f
       0.018359801074664853 0.0036175663137452047
0004f0 01 c3 b6 d2 52 14 b6 bf e3 f4 96 b5 5b b5 c0 bf
       -0.08624761242277758 -0.13053461424525556
000500 e1 de de 43 85 99 b9 3f 4c 76 4f e1 84 c6 b6 bf
       0.0999987879466704 -0.08896666050665053
000510 9c d6 77 b0 aa 92 b4 3f eb be c5 02 ab 33 91 bf
       0.08036295707992241 -0.016798660320488528
000520 f7 10 77 ab e7 18 bb 3f b0 4c 60 ce 3b ea c1 bf
       0.10584876953277332 -0.13996074273072656
000530 58 05 a1 24 a2 81 ba 3f 8a 61 38 c3 74 54 be 3f
       0.10354054826986692 0.11847619787329769
000540 3d 50 7a d2 13 b1 b6 bf 42 9c b6 cf cc dc ba bf
       -0.08863948715799182 -0.10493164130331059
000550 26 c9 45 cc a1 e1 44 3f 07 6a a0 18 44 0d bd 3f
       0.0006372489956858781 0.11348367310748851
000560 4a 04 f5 3a 48 5f b9 3f a1 dc 1d 67 34 45 b5 3f
       0.0991101402223801 0.0830872298955563
000570 93 c1 df 36 7d d4 a4 bf a9 f6 b6 99 6b 63 c2 bf
       -0.04068366331910336 -0.1436590672073426
000580 78 d3 16 c8 ee 27 bc bf 2b 22 3d 6a 81 28 bf bf
       -0.10998432526578295 -0.12171181529732482
000590 52 23 45 45 f6 22 bd 3f 9c db 23 db 5d 8b c0 3f
       0.11381472769893478 0.1292531318683502
0005a0 a5 cf 76 33 52 67 bd bf 06 58 27 85 0f fe a5 bf
       -0.11485780483672998 -0.042953953746902626
0005b0 02 54 89 c0 96 11 b9 3f 7d d3 41 1a 6b 08 a6 bf
       0.09792463493916162 -0.04303297706147811
0005c0 bf 15 e6 25 9b 11 9a bf 59 b8 9a b6 02 fc 94 bf
       -0.025457786739499385 -0.020492594142233454
0005d0 11 70 a8 8b a8 dd bf 3f c1 25 14 79 10 bb bd bf
       0.12447598847978748 -0.11613562541983581
0005e0 92 15 80 54 6c 76 c2 bf d9 c1 84 df 2f 17 c0 3f
       -0.14423898817055353 0.12570761121743493
0005f0 e9 4d 2a 3b 6c 59 be 3f 85 1a 7f bf 02 99 a3 bf
       0.11855198330368179 -0.038276754261052516
000600 0d 7a f8 bd ee 9f a8 3f 88 93 12 a7 ca e6 9a 3f
       0.048095188798686996 0.02627102513055804
000610 56 5e ab 48 29 f7 b1 3f 36 0f 35 89 71 8c b5 3f
       0.07017763160853838 0.08417424773966506
000620 97 63 06 18 af b0 bc bf fd 8f bb 28 70 2b bf 3f
       -0.11207098328158192 0.12175656313371515
000630 dd a4 3b fa 2e be 7b bf 0a 62 50 f8 6a 9b bc 3f
       -0.0067731699998400926 0.1117464882121412
000640 f0 4e 5f 5b 1e 78 c1 3f 32 6b 24 95 bc 42 b3 bf
       0.13647822820222855 -0.07523707047623132
000650 79 6d d3 02 e6 52 c4 3f e5 59 ec 55 50 ce ba 3f
       0.15877986085875387 0.10471059892402186
000660 5f 5f f5 20 a1 d1 c7 3f 37 b9 cb 66 6f 90 b7 3f
       0.18608488187123393 0.09204765567458116
000670 ec 59 a7 a4 fa 84 ba bf e2 82 30 5a 47 ea 8e bf
       -0.10359159965387449 -0.01509528869616034
000680 57 20 e5 bf 58 85 ba 3f 69 e1 7c 60 5d 3b a8 bf
       0.10359720883309485 -0.04732791712598578
000690 e8 3b 87 bc d3 73 b8 bf 61 dd 4f 36 d8 09 94 bf
       -0.09551738121739073 -0.01956880408758133
0006a0 5b 27 60 46 c2 de bd 3f 91 0c d7 07 87 78 92 bf
       0.11668028085855779 -0.018037900784986297
0006b0 91 20 f1 2d e1 26 c1 bf b9 27 34 3c f1 0d c5 bf
       -0.1339990114522647 -0.16448798598895367
0006c0 40 39 fb c6 39 2f bb 3f 17 40 f1 91 21 a2 6f bf
       0.1061893568796437 -0.0038614898362894323
0006d0 8a 1f 9c 85 a3 01 94 bf 6c aa b0 18 65 e2 b0 3f
       -0.01953750136365743 0.06595451214585929
0006e0 8f 20 13 29 f1 5e 89 bf 43 8e 8b 47 79 0b 90 3f
       -0.012388118806839791 0.01566876887490155
0006f0 6e 99 9a d6 5c 4b 9e bf 88 67 6a 94 5b 34 bf bf
       -0.029584360693342963 -0.12189266560963408
000700 6f 2d f0 ec a4 60 c3 3f b7 a3 2a 24 ee 55 b2 3f
       0.15138684815643041 0.07162369139645262
000710 1d 9f 00 6b 9a 2c b0 bf 83 16 f8 37 5a 2c a0 3f
       -0.06318059074748957 0.031588382084049925
000720 30 9b 17 03 b3 13 c0 3f 11 d6 58 63 8f 68 b9 3f
       0.12560117388712788 0.09925171065773265
000730 51 67 e4 89 8c 15 b5 3f 80 63 50 c2 f2 bc bd 3f
       0.08236006132611108 0.11616437191004358
000740 9c 86 d3 6b 13 34 b0 bf 49 68 ee 4d 4d 03 b0 bf
       -0.06329461462476121 -0.062550384069625
000750 c9 3d 9d 64 4c ab c7 3f cc a6 5b 6d 1f 82 b0 3f
       0.18491511261752994 0.0644855157840098
000760 e4 37 73 6e df 5b 9f 3f 2d 50 ee c9 69 71 64 3f
       0.030623904339158417 0.002495485895858371
000770 d3 eb 40 ba 18 26 bb bf 53 5e b0 a2 36 d3 b3 3f
       -0.1060500578613948 0.07744161102197582
000780 c5 f4 c6 8e 49 0b a9 bf d9 66 1e f5 c0 c9 bd bf
       -0.048914240530828525 -0.1163597677645173
000790 80 b3 c2 c2 1d a8 bd 3f 79 e2 ed fa 6a 41 b2 bf
       0.11584650044342304 -0.07131069780542444
0007a0 f6 1a fb ce 6c 30 b0 3f ce ca d3 48 58 c5 b4 3f
       0.06323890736812729 0.08113624361048297
0007b0 ea 51 a6 77 0e ec b0 bf 86 80 91 06 ef 62 c5 3f
       -0.06610193654189059 0.16708171673508704
0007c0 d6 2f d9 fe 74 aa c2 bf 11 f3 c8 e5 14 80 bf bf
       -0.14582693523186546 -0.12304812059387539
0007d0 3e 52 3f 42 c6 4b c2 bf ed a3 dd 52 99 e7 5a 3f
       -0.14293745264753172 0.0016421315480903379
0007e0 1e e2 f8 0a 5a 2b 9a bf 38 fe 36 c4 08 0c bd bf
       -0.025555998725595434 -0.11346487799073024
0007f0 ae 48 c7 81 fa a5 b8 3f d4 b4 33 76 67 07 a7 3f
       0.09628263157290703 0.04497836416144599

fc_hidden_list.1.bias f8 [50]
000000 01 32 e4 a3 ba d5 b1 3f 13 20 33 77 d7 7a 9e 3f
       0.06966749669317808 0.02976547875439912
000010 84 45 e4 4d 1d 71 be bf ff 29 5d e7 b4 30 b1 bf
       -0.11891348983433231 -0.06714945457967046
000020 8e 91 a0 0a 3a 1d b5 bf 99 4a a6 bc 32 db b7 bf
       -0.08247721442655218 -0.09318844896032842
000030 cd d4 4c c1 32 d5 c2 3f d7 b2 83 38 96 99 bf bf
       0.14713129461748622 -0.12343729858157403
000040 e0 bf 7a 39 c8 2c c1 3f 74 b4 ab cc a2 e2 ba 3f
       0.1341791420613836 0.10502068993419461
000050 38 f4 88 41 47 24 b1 3f e7 36 cf 3e 87 90 b6 bf
       0.06695981359457981 -0.08814282687600504
000060 72 3f 6b 74 e4 9b bd 3f c8 d0 54 a7 94 f8 96 bf
       0.11565997926959229 -0.022432635033695886
000070 8a 81 bf 37 e9 6a be bf d3 e4 bb f4 9d c0 ae bf
       -0.11881883250271677 -0.06006330120539762
000080 57 ff fb 45 80 29 ae bf c6 dd ef 10 05 34 9d 3f
       -0.05891037802029924 0.028518752249480327
000090 ee 1b 09 2b c2 72 77 3f ed d1 a8 58 6b 1f a7 bf
       0.005724676579638361 -0.04516158540028301
0000a0 16 e5 8d a4 54 b2 ba 3f e5 48 92 20 f7 d8 ba 3f
       0.10428360955656432 0.10487312836838532
0000b0 9a 28 3c 38 50 77 bb 3f d5 5d 60 fd ee 92 bc bf
       0.1072893273632495 -0.11161702810237924
0000c0 cc 17 05 6b 16 a9 ad bf 95 f6 62 1d 9a a6 be bf
       -0.05793066078562922 -0.11972964494176559
0000d0 f4 2f b3 84 1d 29 c2 3f 2b a3 25 21 a7 9d 54 bf
       0.14187973956575173 -0.001258290493377066
0000e0 0b ba 27 12 4f b3 b7 3f 28 4c 82 f7 92 ba c2 3f
       0.09257978623620759 0.14631878934287212
0000f0 c0 44 16 4a 3e aa c0 3f 3e 6c b8 3e 4b 05 9a 3f
       0.13019541375664367 0.025410819724225535
000100 05 67 48 46 be ac b6 3f 41 67 a8 8b 7e bc ba 3f
       0.088573352965252 0.10443869504561311
000110 ad b5 6c 08 d4 9c b8 bf 55 12 25 59 29 df b1 bf
       -0.0961430092399584 -0.06981142450701701
000120 01 48 6c 5a 38 86 b2 3f 2a 7c 75 b7 2a 82 be bf
       0.07236053664772159 -0.11917368868806535
000130 7e 6e 50 d4 41 43 bc bf 91 21 03 57 f1 12 bc bf
       -0.11040126260234648 -0.1096640431816296
000140 46 4d bf eb fd 35 96 3f 0d 6a 3f fe 92 62 a1 3f
       0.021690337671157488 0.033955186401460315
000150 a0 f8 76 ae a8 df c0 bf 9e 0e a1 0f 76 0e 9c bf
       -0.13182552832399086 -0.027398915008474682
000160 73 75 3f 68 9e 1f ae bf e4 78 5a d8 c0 6a ad bf
       -0.05883498213345719 -0.05745508805306246
000170 25 55 c3 af 06 e1 c0 bf 58 e7 48 5f c9 6b c1 3f
       -0.1318672521798955 0.13610188629700803
000180 65 7f be e9 fa 7e b8 bf 40 d4 29 f6 b4 32 c1 3f
       -0.09568756300586541 0.1343599512071325
